MELOSDP/SDP/chkpt/mc1/linear/18/sdp_classifier_linear-20.pth (torch, 77374 bytes, 25 tensors)

fc1.weight f4 [128, 38]
00000000: 5a76 e83d eee1 63bd 37f5 943d 9cfd 5a3c
00000010: dcaf a43b e460 3cbd ebd2 523d ad19 97ba
00000020: 9ea9 ea3c c328 003e a070 303e 0388 febd
00000030: 08aa d6bc cd2f ac3d 800e 203e f85a 503d
00000040: df2c abbd 0438 893c 65ab 1bbe 2c5b 583c
00000050: db28 f73d d5c9 003e 1fca 1e3e d4e3 dc3d
00000060: 47a9 a83c 4d5a 923d f777 883b a9df 3e3c
00000070: 5885 c2bd 997f cebd 27ad a83d 4908 a03d
00000080: 0942 193e 493c 043d 29fe 9cbb a4b5 c93d
00000090: e0f9 b93d f27b a3bd 7b14 dd3d 57fa b2bc
000000a0: 0315 24be 0cbb 99bc 4610 1dbd 9d64 0a3d
000000b0: 1376 043e 3471 fa3d 51f3 093e 2cde 083e
000000c0: f274 8b3a add8 fb3d 055d 03bd 4efe f73d
000000d0: 96fa 19be 8e6b da3d 6d14 19bd 62e5 1c3e
000000e0: 8d28 22bd c035 903d 863a 0dbe cc2c ef3d
000000f0: 4ddd d73d 6e9a febd 374c e63d 9e70 bc3c
00000100: 87fb cf3d 6e4e 823d 84e3 e53c 4129 14bd
00000110: 9d79 0abe e41a a73d cb66 893d 9403 f2bd
00000120: fbf6 2f3d fe75 3ebd dea2 08be 5362 c23c
00000130: e79a b93d 17de 293d 5a7d ee3d 9a62 a73d
00000140: f2d0 cbbd 3cef 193d 1a2b b63d 157c 023e
00000150: c19e 64bd da1b aa3d 9a39 84bc 9f87 ad3d
00000160: b716 1ebe cfad 193e 17a5 ee3b 8998 8aba
00000170: fcf8 79bc e03c 893d 79ce 67bd 71f9 153e
00000180: c36e 583c a6fa ea3c 722f 09bd d482 293e
00000190: 243c 963d bc55 043e 7745 9b3d 4231 85bb
000001a0: 937d 23bc 72b5 193d 9e1f e9bd 1296 dfbd
000001b0: d5ea 8abd 9888 fdbb dcdd 9fbd c8c4 0cbd
000001c0: b863 2abd 29fe 003d a505 813d 7208 d23d
000001d0: de32 1a3d 2bfd b6bb 3fdb 1dbe e92a c73d
000001e0: 0e90 e0bc 66aa ce3d 3daf 5b3d 4f52 e0bd
000001f0: b4cd eb3d 8572 d1ba 0f02 1f3e 5709 0b3d
00000200: d028 c8bd 168b 06be c2de eabd 7c71 bdbd
00000210: 39bc f13d 812b 59bd a6e2 b6bd 0c05 273e
00000220: acd3 303d 551c 993d d7dd 253e 8fd7 00be
00000230: df87 033d 87e7 9cbd b9e1 e9bd a252 81bc
00000240: 144d 53bd e036 fc3a 88af 02bb bde6 523a
00000250: a62c fa3d b216 da3c 4ec4 f03c 57ec a63d
00000260: bdec 11be 7447 c3bc 8fce 1a3e 65e1 38bd
00000270: 693c 03be 54f3 023e 7493 0cbd 9897 a3bd
00000280: 4d85 963d cd47 da3d 18b5 f53b 8483 e1bd
00000290: d0de 8c3d 2917 b33d 4dcd 2bbe 2e20 1a3e
000002a0: faae d6bd 0eb6 263e 5620 25be c8d6 6dbc
000002b0: 2e36 d5bd fff2 dcbd 2767 523c 034f 2e3e
000002c0: 0383 153e a91a 04be 7fa0 1c3e 9995 00bd
000002d0: 646f 9d3c 40b7 d43d a717 bf3c 829e d3bd
000002e0: 9452 9ebc d838 163e 9193 1abe 1ac2 c93d
000002f0: 573f 933d df78 133c e8bf 053e 7b31 2ebd
00000300: ce40 a63d 095f ccbd 0280 1dbe c890 c53c
00000310: 53f0 913a 217e b73d 7170 463d 1a86 7f3b
00000320: 509a 163d 1223 5bbd e4f9 4a3d 639f da3c
00000330: 4b9f 1e3e 5355 aebd ed05 1c3e e3b1 323d
00000340: d2f0 dc3d 85f2 5d3a c489 a33d 5d7b f9bd
00000350: 6a95 a03d c5c7 083c 5727 ed3d 90b2 16be
00000360: 9beb 0a3e 2389 1fbe 84d9 96bd b971 bbbc
00000370: 7d65 3cbd a90d 03be e79b ef3d 4bc2 213d
00000380: 6b02 9d3d ce99 b2bd 02a7 2bbe 8bdc 9bbd
00000390: 2732 ce3d 0132 19be 3eb4 17be 80e0 a0bd
000003a0: 6e0e 0ebe 8419 be3a bdd9 013e 3c90 45bd
000003b0: 2048 c5bd 6395 c6bd e5ca 8f3d bd68 24bd
000003c0: 84c1 dabd 3c88 c4ba 1be5 0d3c 5325 1ebe
000003d0: 260d 59bc c7ee 13be acc3 1b3e a381 e23d
000003e0: 2879 d53d 81d9 11be b7ea a6bd 129e 38bd
000003f0: 1688 e83d eaaa b73d acf3 4e3d 609c d13d
0.11350699 -0.055635385 0.072733335 0.013366129 0.005025847 -0.04599084 0.05147068 -0.0011528038
0.028645333 0.1251555 0.17230463 -0.12428286 -0.026204124 0.08407555 0.15630531 0.050868005
-0.08358168 0.016750343 -0.152021 0.013205331 0.120683394 0.12576993 0.1550679 0.10785642
0.02058853 0.0714613 0.0041646915 0.011650004 -0.094980896 -0.10082931 0.08236151 0.0781408
0.14966597 0.032284055 -0.0047910404 0.09849098 0.09080863 -0.07982625 0.10794922 -0.021847887
-0.1602364 -0.018765949 -0.038345598 0.03378736 0.12935667 0.12228623 0.13471724 0.13366002
0.0010639711 0.12297187 -0.032071132 0.12109052 -0.15036997 0.10665046 -0.037372995 0.15321878
-0.039589453 0.07041502 -0.13791856 0.11678466 0.10540257 -0.12431799 0.112450056 0.023002919
0.10155397 0.063626155 0.02806259 -0.036172155 -0.13522954 0.08159426 0.06709059 -0.11817089
0.04296015 -0.046499245 -0.13343379 0.023728525 0.090627484 0.041471567 0.11645003 0.08173104
-0.099519625 0.037581667 0.0889494 0.12742646 -0.055815462 0.083060935 -0.016140748 0.08473133
-0.15438353 0.15007709 0.007282864 -0.0010574023 -0.015257116 0.06701064 -0.056593392 0.14645936
0.013210001 0.028683972 -0.033492513 0.16553813 0.0733569 0.1292333 0.07581609 -0.00406471
-0.00997867 0.037526555 -0.113829836 -0.109172955 -0.06783072 -0.0077372305 -0.07805988 -0.034367353
-0.041599005 0.031492386 0.06299905 0.10255517 0.037646167 -0.005584379 -0.15415667 0.09724981
-0.02741244 0.10091095 0.053633917 -0.10953199 0.11513844 -0.0015979564 0.15528129 0.033944454
-0.09773409 -0.13138995 -0.11468269 -0.09250161 0.11803479 -0.053020004 -0.089299485 0.16310519
0.043170616 0.07476107 0.16197906 -0.12582229 0.032112 -0.07661348 -0.11420006 -0.015786473
-0.05158718 0.0019242428 -0.001994105 0.0008045247 0.12215547 0.02662215 0.02939048 0.08150547
-0.14250465 -0.023837782 0.15117858 -0.045136828 -0.12816013 0.12788135 -0.03432031 -0.079878986
0.07349644 0.10658226 0.0074983947 -0.11011413 0.068784356 0.08744652 -0.16777535 0.15051338
-0.10482593 0.16280386 -0.16125616 -0.01451654 -0.104107246 -0.10788535 0.012841976 0.17022328
0.14600758 -0.12900795 0.152956 -0.031392667 0.019218154 0.10386515 0.023326708 -0.10332967
-0.019326486 0.14670122 -0.15095355 0.09851475 0.071898155 0.009000986 0.13061488 -0.042527657
0.08117829 -0.09979064 -0.15380862 0.024116889 0.0011134244 0.08959604 0.048447076 0.0038989843
0.036768258 -0.053500243 0.04955472 0.02668733 0.15490453 -0.08512368 0.15236636 0.043626677
0.1078812 0.0008466619 0.07985261 -0.12181733 0.078409985 0.00834841 0.11579769 -0.14716554
0.13566439 -0.15579657 -0.073657066 -0.022881376 -0.045995224 -0.1279818 0.11699658 0.039491933
0.07666477 -0.08720742 -0.16762927 -0.076104246 0.100681596 -0.14960481 -0.1481485 -0.0785532
-0.13872692 0.0014503454 0.12680717 -0.048233256 -0.096328974 -0.09696462 0.07021121 -0.04013895
-0.106814414 -0.0014994214 0.00866058 -0.15443926 -0.013247764 -0.14446555 0.15211362 0.110598825
0.10423499 -0.14243127 -0.08150237 -0.045072623 0.11354081 0.08968146 0.050525352 0.10234904

fc1.bias f4 [128]
00000000: 65a9 523d 4207 82bc a30d ac3d bb9c d8bd
00000010: 6b96 22be 84a5 7e3d 516e a4bc d923 11be
00000020: 97b1 cf3d d49d c4bd fc4c 8ebd 8a72 07bd
00000030: 8566 c9bd 3244 32bd 8020 9a3d ecb7 5a3d
00000040: 819c 16be 9ac2 d53c 2d05 033e 260e a43d
00000050: a7bf 97bd 70ba 6bbd 9fcc 023e 5c74 153e
00000060: ea6f 13bd a6c2 f1bd 0abf f5bd 745a e4bc
00000070: 6bd5 173e 7752 01be 0490 ba3d 969e 06be
00000080: 5528 1a3d 7ebf 073e 138a d53d e72f 1b3d
00000090: 6ebd 78bd 1062 3b3c d469 f53d 8eea 0cbd
000000a0: 2dde dcbd fb53 1d3e 0c57 363d 6e19 8fbd
000000b0: 12d3 95bd 99f9 f1bd b002 bb3d e793 043e
000000c0: b2dd 953d dbea 5abd 8f14 f23d 672a 443d
000000d0: c20e 163d 8f0f 253e 7164 7c3d 7e84 c13d
000000e0: 71ec 2dbd 88ee 4e3d d966 213e 18c4 c53d
000000f0: bcfa 17be 0520 643c 056e 87bc 55d1 1a3e
00000100: 6e72 abbd be80 f4bd 8f85 21be 510e 453d
00000110: e684 81bd 99ef e83c 5a30 0e3e cf8b 1d3e
00000120: 3e68 c2bd ccc8 c53d 5f9f 763d 012e 8cbd
00000130: 44a2 0cbe 702d 603d cb11 033b 0e73 5ebd
00000140: 1fb1 a83d a925 163e adbb ce3c 2fa2 113d
00000150: fc47 0cbe bbf4 683d 0581 0e3e c2c0 083e
00000160: 1ddf d6bc f52d 95bc cbd6 7bbc 920c 923d
00000170: 63f1 203d 9a74 b43d bdd5 29bd 550a 7f3c
00000180: 0ed7 43bd 2a5d ebbd 67fb 433c 7026 f73c
00000190: a9e5 9fbd 8676 01be 0443 213b 098b c03d
000001a0: 1336 aa3d 3f9f 0cbe 9ade 03be e88a 7e3d
000001b0: 4286 053e 4002 04be 3f5f d13d 5773 5c3d
000001c0: 3e96 8f3c db8f 3cbd c734 7abd d5a9 623d
000001d0: b980 68bd 3763 e03d 6d74 3cbd 7b1c 14be
000001e0: 6d30 b63c ce98 073e f4c6 b9bd 66ae 633d
000001f0: 7a7f 0b3e 8abf 12be b064 23bd 3908 08be
0.05143108 -0.015872601 0.084010385 -0.10576769 -0.15877692 0.062169567 -0.020072134 -0.14173831
0.101412944 -0.09600416 -0.06948277 -0.033068217 -0.09834007 -0.043522067 0.0752573 0.053398058
-0.14708139 0.02609377 0.12794943 0.08010511 -0.07409602 -0.057550848 0.12773369 0.14595169
-0.0359954 -0.11804704 -0.119993284 -0.027875163 0.14827506 -0.12629114 0.091095 -0.13146433
0.03763612 0.13256642 0.10426726 0.03788748 -0.06072753 0.011436954 0.11983076 -0.034403376
-0.10784564 0.15364067 0.044516608 -0.06987272 -0.07315649 -0.11815185 0.09131372 0.12947045
0.07317676 -0.053446632 0.118203275 0.047892 0.036635168 0.16119216 0.061619226 0.09449099
-0.042461816 0.05052045 0.1576189 0.096565425 -0.14841741 0.01392365 -0.016531954 0.15118916
-0.08371435 -0.11938618 -0.15773605 0.048109356 -0.063241765 0.028434562 0.13885632 0.15385364
-0.09492539 0.096574396 0.060210582 -0.06844712 -0.13733774 0.054730833 0.001999962 -0.054308943
0.08236908 0.14662804 0.025235975 0.03555506 -0.13699335 0.05687402 0.13916405 0.13354781
-0.026229436 -0.01821039 -0.015371035 0.07131304 0.039292704 0.088113025 -0.041463602 0.015566428
-0.047812514 -0.11492379 0.011961794 0.030169696 -0.07807476 -0.1264287 0.0024606595 0.09401519
0.08311095 -0.13732623 -0.12877885 0.06214419 0.13039497 -0.12891483 0.10223245 0.053820934
0.017527696 -0.04603563 -0.06108549 0.055337746 -0.056763384 0.10956424 -0.04600947 -0.1446399
0.022239888 0.13241884 -0.090711504 0.05558624 0.13622847 -0.14330879 -0.039890945 -0.13284387

bn1.weight f4 [128]
00000000: f4e4 803f b668 803f 3e16 813f 8ffe 7f3f
00000010: 16c7 7e3f b873 7e3f 0360 7f3f bf66 803f
00000020: 75e9 7e3f a65c 7f3f 2214 7e3f a32f 7d3f
00000030: f255 7e3f c36f 803f c05c 7f3f 71ce 7d3f
00000040: 8384 7f3f ac76 7f3f 4465 803f 6eb6 803f
00000050: 5c41 803f efa0 803f c436 803f e46b 7e3f
00000060: 365a 7c3f 1760 7f3f 18cb 803f 7a62 7c3f
00000070: f737 7f3f 7503 813f f2d9 813f ed19 7c3f
00000080: a182 7d3f 6ea8 7f3f a1f4 803f ceda 803f
00000090: 3bf6 7e3f 4762 803f 487d 803f 5e54 7e3f
000000a0: 11d9 7d3f bec7 803f 8fb6 803f 8f3e 7f3f
000000b0: 3b0c 7d3f 2fcf 803f 9d04 7f3f c566 803f
000000c0: 5ddd 7f3f de51 803f 0c1d 7f3f b50c 7e3f
000000d0: ff9f 7e3f 622b 7f3f 8b99 7d3f 544f 7d3f
000000e0: 3117 7d3f a1c6 7e3f 9a1d 7f3f 7506 813f
000000f0: fdbe 7e3f 7531 803f 5981 7d3f ef85 7d3f
00000100: 4c1c 813f 3e3d 7f3f a32b 7f3f 5658 803f
00000110: 0355 7d3f a41e 803f 5c95 803f b2a7 7f3f
00000120: c227 7f3f 3faf 7d3f d074 7e3f 2ea7 7e3f
00000130: 7ab0 7f3f 6a60 803f aa6a 813f 853e 803f
00000140: 0025 7d3f 0e45 7f3f c28a 803f eedc 7e3f
00000150: dca1 803f 90fc 7c3f 8a34 7f3f ce6b 7c3f
00000160: df86 7e3f 678c 813f 36a6 7f3f 76ae 7c3f
00000170: c595 813f df7c 813f 3888 7d3f 7381 803f
00000180: 80bd 813f 9bbe 7d3f 78f2 803f e960 813f
00000190: b59f 7f3f 98b1 803f 940d 813f 125b 7d3f
000001a0: 23cf 7c3f 2b35 7e3f 432c 7e3f 72f1 803f
000001b0: 36f3 7d3f 961f 813f 1139 7f3f 0761 7c3f
000001c0: 9935 803f bd21 7d3f cf1e 7d3f e018 803f
000001d0: 2ddd 7d3f 3481 813f 7488 7d3f 05f9 7e3f
000001e0: 344e 7c3f bbbe 803f 4a1f 803f df46 813f
000001f0: 9fda 7c3f 553e 7f3f 1fdb 7f3f 01a4 7e3f
1.0069871 1.0031955 1.0084913 0.999978 0.9952253 0.9939532 0.9975588 1.0031356
0.9957498 0.99750745 0.9924947 0.9890081 0.9934989 1.0034107 0.997509 0.9914313
0.9981157 0.99790454 1.0030904 1.0055673 1.0019946 1.0049113 1.0016713 0.9938338
0.9857515 0.99755996 1.0061979 0.98587763 0.9969477 1.007918 1.0144637 0.9847706
0.9902745 0.9986638 1.0074655 1.0066774 0.9959447 1.0029992 1.0038233 0.99347484
0.9915934 1.0060956 1.0055712 0.9970483 0.9884679 1.0063227 0.99616414 1.0031363
0.9994715 1.0024984 0.99653697 0.9923814 0.99462885 0.9967557 0.9906241 0.9894917
0.9886351 0.99521834 0.99654543 1.0080096 0.99510175 1.0015093 0.99025494 0.9903249
1.008676 0.99702823 0.9967596 1.0026958 0.9895784 1.0009351 1.0045581 0.9986526
0.9967004 0.9909553 0.9939699 0.99473846 0.99878657 1.0029423 1.0110676 1.001908
0.9888458 0.99714744 1.0042346 0.9955586 1.0049396 0.9882288 0.99689543 0.98601997
0.99424547 1.0120972 0.9986299 0.98703706 1.0123831 1.0116233 0.9903598 1.0039505
1.0135956 0.99118966 1.0073996 1.01077 0.9985307 1.0054197 1.0082269 0.9896709
0.98753566 0.9929988 0.9928629 1.0073683 0.99199235 1.0087764 0.9969645 0.9858555
1.0016357 0.98879606 0.98875135 1.0007591 0.9916561 1.0117555 0.99036336 0.99598724
0.9855683 1.0058206 1.0009549 1.0099753 0.9877109 0.99704486 0.9994373 0.99469

bn1.bias f4 [128]
00000000: 6a03 9abc 7e4a eabb 7cbb 083b c6d8 a0bb
00000010: 1369 b8ba c40a 80bb 3d53 07bc 15e5 65bc
00000020: 9397 22bc 3554 4cbc f1de 16bc 7e64 77bc
00000030: af4c 5dbb b4ed fabb b249 93bb dbc0 03bc
00000040: 59d3 26bc 472a 773c 322e 3fbc 1a72 3bbc
00000050: 7cc6 3aba 29a8 e1bb 34c0 24bc b8df f1bb
00000060: 4dfc 81bc 0b20 cab9 2005 9c3a 1c02 80bc
00000070: a407 a73a 540d 1e3c e236 5e3c 11cf 5abc
00000080: d7f2 7ebc 1871 40bb c0c2 2c3c 2647 76bc
00000090: 9140 4ebb ad87 8bbc 1073 3fbc 5647 9bbb
000000a0: b348 133c a760 47bc f61d f13b 0142 86bc
000000b0: 84e3 c6bb 396f 6ebc 3185 77ba 6ab3 83bc
000000c0: 2886 51bc 10a4 e93b 58c4 bbb9 bf33 81bc
000000d0: d09b 133c 6a76 26bc b2e6 55bc dac3 07bc
000000e0: 155c 3ebc 2d64 be3b 6dda 0a3c 1376 08bc
000000f0: 5000 47bc 5e80 50bc bdc1 6abc 6a4a 38bc
00000100: 3d2c 35bc af05 67bc d4ba 3bbc e01e e4bb
00000110: 97df 5dbc 15a5 78bc 3db8 b1ba ce74 b23b
00000120: 5a76 8dbc eb39 48bc 7188 53bc f8ab 73bc
00000130: 5027 333c a1a9 943a 5b5a f2b8 4709 833c
00000140: 3160 5abc 3999 66bc c915 41bc c186 68b9
00000150: a648 aa3b 8ada 7cbc ea54 963c c914 1f3c
00000160: 4268 893c 0531 0bbc c5c4 51bc c99c 4ebc
00000170: 243b 973c 8e64 90bc a716 79bb 8b79 a0bb
00000180: 145e 91bc 4f1c 25bc e19e 49bc 8629 0abb
00000190: 00d4 173c 98bf 5a3a 87d6 023b ff34 6abc
000001a0: d9a1 16bc ecd1 1dbc d1a8 91bc b32f 843c
000001b0: aa48 50bc 11fd 5abc 378a 4f3c f4b6 48bc
000001c0: c058 633c f0eb 94b9 196d 7cbc 122b a3bb
000001d0: 28cb 0ebc 9d5b a13b 303f 8cbb e519 043a
000001e0: b9b4 d7bb f1cb 45bb 27ee 403b e31c 5f3c
000001f0: 22e0 8bbc 7f66 33bc 575e 28bc 1cb0 d9ba
-0.018800456 -0.0071499934 0.0020863703 -0.004908654 -0.00140694 -0.0039075334 -0.008259592 -0.014031668
-0.009923833 -0.012471248 -0.009208427 -0.015099643 -0.003376763 -0.007657731 -0.004494869 -0.008041586
-0.010182225 0.015085763 -0.011668729 -0.011440778 -0.00071249134 -0.0068865013 -0.01005559 -0.0073814057
-0.015867377 -0.00038552316 0.0011903383 -0.015626006 0.0012743366 0.009646732 0.01356289 -0.013355033
-0.015560827 -0.0029364284 0.010544479 -0.015031612 -0.003147159 -0.017032469 -0.011685148 -0.0047387285
0.008989501 -0.01216904 0.007358308 -0.016388895 -0.0060696024 -0.014552885 -0.00094421493 -0.016076762
-0.012788333 0.0071301535 -0.00035813707 -0.015771745 0.009009317 -0.010160068 -0.01305549 -0.008286441
-0.011618634 0.0058102817 0.008474928 -0.008328932 -0.012146071 -0.012725918 -0.014328417 -0.01124821
-0.0110579105 -0.014100476 -0.0114581175 -0.0069616884 -0.0135420775 -0.015176077 -0.0013558936 0.005446053
-0.017268348 -0.01222084 -0.012910948 -0.0148725435 0.010934666 0.0011342057 -0.00011556289 0.015995635
-0.013328598 -0.014074617 -0.011784979 -0.00022175444 0.0051966486 -0.015432963 0.018351037 0.009709545
0.016773347 -0.008495574 -0.012803261 -0.012610623 0.018460818 -0.017626073 -0.0038007887 -0.0048973016
-0.017745055 -0.01007755 -0.012305946 -0.0021081879 0.009266853 0.000834459 0.0019964294 -0.014294862
-0.009193861 -0.009632569 -0.017780693 0.016136026 -0.012712637 -0.013366 0.01266723 -0.012250651
0.01387614 -0.00028404547 -0.01540687 -0.0049794996 -0.008715428 0.004924251 -0.0042799935 0.0005039259
-0.006582823 -0.0030181373 0.0029438825 0.013617727 -0.017074648 -0.01094973 -0.010276399 -0.0016608271

bn1.running_mean f4 [128]
00000000: 71b7 4b3d 925b 0ebc 65c8 9b3d c28b bbbd
00000010: f30c 10be 8729 683d 6fd5 8bbc db71 f7bd
00000020: c170 b53d 0d34 aabd 23a0 7fbd be84 dfbc
00000030: c02e b6bd 93c8 21bd f061 8c3d 0d2a 393d
00000040: 2fd1 08be c0a5 9f3c 31f8 ea3d ce2b 8d3d
00000050: 91e1 84bd 6574 4ebd 3934 de3d c9c0 033e
00000060: a940 09bd 2df8 d4bd 527e d9bd a229 eebc
00000070: 2283 fe3d 41c4 dfbd b3f6 a83d 6454 eebd
00000080: f87b 103d 18fd e73d ff19 c03d 28b1 043d
00000090: 41b9 49bd fc8b 3a3c e5a7 d33d b314 bcbc
000000a0: 5ddf bebd 69f7 0b3e 8c1b 1d3d 0a10 7cbd
000000b0: fa02 8ebd 79d0 d0bd 7761 993d 222f eb3d
000000c0: 27ad 843d 0d83 4dbd e986 d63d 0089 1e3d
000000d0: fcb4 ea3c 1e96 0f3e e959 5f3d 40bb a83d
000000e0: e32e 0ebd 36cb 403d 9f51 073e 7a12 b33d
000000f0: 2be4 06be ac86 203c 57f6 8dbc 952c 093e
00000100: f717 93bd c09a dabd 82cd 0bbe a8a2 263d
00000110: 7ae6 65bd 4f95 023d 3353 ff3d e8da 083e
00000120: a836 acbd c29b af3d 5091 6c3d 0737 60bd
00000130: ff0e f8bd 7c46 403d d11d 7fb7 bd8b 42bd
00000140: 8cff 903d e062 023e 4361 a13c 4c56 0c3d
00000150: f626 f3bd 358e 4a3d aa1f ed3d 4e56 eb3d
00000160: fbbd b4bc 484a 39bc 656e 09bc 4d8a 803d
00000170: 78fe 0a3d edb6 a03d 4055 22bd 5a80 853c
00000180: dc04 1cbd 3ca0 d4bd eaa4 263c 8fbb bd3c
00000190: 8a50 8abd e328 debd 3330 1d3b f5a4 aa3d
000001a0: 20e2 993d ff1f f3bd 10f5 e4bd 2de7 563d
000001b0: d532 ec3d 088c e1bd d6f2 b63d 8cfc 3c3d
000001c0: b9f2 553c 88fc 10bd d81d 56bd 7aa0 573d
000001d0: 0e3a 4dbd 71a9 cd3d 7a8b 1cbd 057a 02be
000001e0: 4a4c 833c 999e f43d af74 a7bd e07f 543d
000001f0: b7b3 fb3d 8ed6 f9bd 9415 17bd 80e5 e9bd
0.04973549 -0.008688824 0.076065816 -0.09157516 -0.1406744 0.05668023 -0.017069547 -0.12082263
0.08859397 -0.08310709 -0.062408578 -0.027284976 -0.088956356 -0.039497923 0.068546176 0.04520612
-0.13361047 0.019488215 0.1147312 0.06893121 -0.06488336 -0.05040397 0.108498044 0.1286651
-0.03350893 -0.10398898 -0.10619797 -0.029072586 0.12427355 -0.10926104 0.08250179 -0.1163719
0.035274476 0.11327571 0.09379958 0.032395512 -0.049248938 0.011385914 0.10334758 -0.022959089
-0.09319947 0.13668598 0.03835635 -0.061538734 -0.069341615 -0.10196013 0.07489293 0.11483599
0.06478339 -0.050173808 0.10474951 0.038704872 0.028650753 0.14022109 0.054529104 0.0823884
-0.034712683 0.047068797 0.1321473 0.087437585 -0.13172977 0.009797733 -0.017329378 0.13395913
-0.07182305 -0.106740475 -0.13652614 0.040682465 -0.056128003 0.031880673 0.12467041 0.13364756
-0.08408862 0.0857463 0.05775577 -0.05473998 -0.12112235 0.04694222 -1.5206127e-05 -0.047496546
0.07079992 0.1273303 0.019699698 0.034261987 -0.118726656 0.049452025 0.11578305 0.11491071
-0.022063246 -0.011309214 -0.0083881365 0.06276379 0.033934087 0.0784739 -0.039632082 0.016296554
-0.03809057 -0.10382125 0.0101711545 0.023160724 -0.06753643 -0.10847642 0.0023985028 0.08332244
0.07513833 -0.11871337 -0.111795545 0.05246656 0.11533133 -0.11013037 0.08933036 0.046139285
0.013058358 -0.035397083 -0.052274555 0.052643277 -0.050104193 0.10042084 -0.038218953 -0.1274186
0.016027588 0.119443126 -0.081765525 0.051879764 0.12290137 -0.12199126 -0.036885813 -0.11420727

bn1.running_var f4 [128]
00000000: 1e0e 133f 4ab4 5e3f cf19 ba3e b126 653e
00000010: 3314 e23e f20b 833e e0e3 903e 8b61 aa3e
00000020: db5f 6a3e a21f f83e c5a8 a93e 71e5 893e
00000030: 97df 723e 7dab 963e d7aa f53e 87d4 f13e
00000040: 24e9 a33f eeb3 0c3f eeea 683f 3d59 823f
00000050: 55a8 5e3e 42ef 8d3e d85e c13e bf89 8c3e
00000060: 91d2 573e d110 613e 1020 933e f343 273f
00000070: 4574 b33e a1c6 843e e9b3 303f ca43 b73e
00000080: 15dc 8c3e 37e5 683e 5b90 da3e 1bc8 ee3e
00000090: 64ef 743e b5eb 3a3f 93d3 503f 3064 a83e
000000a0: 294d f43e fa3d c83e 6c3b f13e 7017 5d3e
000000b0: c643 883f a56b c23e cd06 853f 7728 683f
000000c0: def6 823e 0540 a83e f5cf cd3e f161 9e3e
000000d0: 1785 7e3e 76ae 8b3e 0ee2 6d3e 9392 843e
000000e0: 9d05 7f3e 79b7 483f ccf6 c13f d122 163f
000000f0: 7db0 b23e 1c2a 993e 5952 a33e eda2 853e
00000100: ffc1 d23e f392 b83e e80f 8f3e 7d1b 183f
00000110: bcc9 793e 96d0 1b3f 5d88 813e 0270 353f
00000120: 3e02 163f 67e6 203f 2848 f53e 367c 823e
00000130: a355 a43f 3873 c03e 18c1 303f e10a 4d3e
00000140: 02d5 753e d9d9 7f3e 5e9c 893e d572 f63e
00000150: 46c6 d43e c797 b03e 62ae 293f 07dd d53f
00000160: 6719 053f 3ada 8e3e c717 943f de86 a63e
00000170: 14ab b13f a101 c43e 1d8b 063f a111 a23e
00000180: c826 0b3f 9390 b43e eb18 be3e 1dba d03e
00000190: 4112 8f3e 8dc5 8b3e c023 a03e 1fd2 973e
000001a0: d47e 793e 1bad 913e 9f17 b43e 87c6 b83e
000001b0: 638f 773e 4af6 223f 13f9 9e3e fb12 783e
000001c0: 32da 453e dd3a be3e 9dfe 503e d295 213f
000001d0: 1a59 e03e aa8c b43e ac78 9f3e 8738 973e
000001e0: 0b6d ce3e 52a9 c13e aa1d b63e 0611 ec3e
000001f0: 8a48 7f3e efc4 943e cac3 e33e 6e97 833e
0.57443416 0.8699385 0.36347815 0.22378041 0.44156036 0.2559505 0.28298855 0.33277544
0.22888128 0.48461634 0.33136573 0.26932862 0.23718105 0.2942771 0.47981903 0.47232458
1.2805524 0.5496205 0.90983474 1.0183483 0.21743901 0.27721602 0.37767673 0.27448842
0.21076418 0.21979071 0.287354 0.6533806 0.35049644 0.25932792 0.6902452 0.35793906
0.2751166 0.22743689 0.4268826 0.46637043 0.23919445 0.7301591 0.81572837 0.32888937
0.4771512 0.39109784 0.47115648 0.21590972 1.0645683 0.3797275 1.03927 0.90686744
0.2557897 0.32861343 0.4019772 0.30934098 0.24855457 0.2728154 0.23230764 0.25893077
0.24904485 0.7840496 1.5153441 0.58646876 0.34900275 0.2991494 0.31898764 0.26100865
0.41163632 0.36049613 0.27941823 0.59416944 0.24393362 0.6086515 0.2529935 0.70874035
0.5859717 0.62851566 0.47906613 0.2548539 1.2838634 0.37587905 0.6904464 0.20023681
0.24007037 0.24985446 0.2687711 0.48134485 0.4155752 0.34490797 0.6628171 1.6708077
0.51991886 0.2790087 1.1569756 0.3252477 1.3880334 0.38282493 0.5255602 0.31654075
0.5435605 0.3526655 0.37128386 0.40766993 0.27943614 0.27299157 0.31277275 0.29652497
0.24364787 0.28452381 0.3517427 0.36088964 0.24175791 0.6365706 0.31049404 0.2422599
0.19321516 0.37154284 0.20409627 0.6311923 0.4381798 0.35263568 0.31146753 0.29535314
0.40317568 0.37824494 0.35569507 0.46106738 0.24930015 0.29056498 0.44485313 0.2570147

fc2.weight f4 [64, 128]
00000000: 245a ca3d 9ea6 56bd e52e a53d 9cb6 95bc
00000010: 8bdd 10bb 6f37 533d e212 803d d3a1 cb3c
00000020: b5df e03c 4ff6 ba3d 4894 08bc abb6 1fbc
00000030: 1252 3d3d e811 3a3d abe5 5a3d 90d7 9fbd
00000040: 6602 b4bd 3a43 30bd 43f0 233d 4b0b 953d
00000050: 81d4 58bd 8f2e bfba 30d8 73bc 64f1 98bd
00000060: 5f29 093d f28c 403d 062e a4bd 2d1a ddbb
00000070: 01c3 4dbc 61ee f43c a189 79bd 0271 9dbd
00000080: 764f 83bd 30a8 663c 7db9 b13d 548e 77bd
00000090: d34c ad3b 8e16 e23c 7ef9 77bd 1762 223d
000000a0: 8095 b43c 560a 1fbb 0063 80bd cf02 febc
000000b0: 4b62 193d 2426 94bc 1ffb 94bb 50f3 b83d
000000c0: e6dd 3f3c 396e 533d 20ff f73c e639 193d
000000d0: 2109 7a3d cb92 60bb 087b ce3c 28a7 973d
000000e0: c151 7bbd 620c 313d 6632 3c3c 9296 d13c
000000f0: 2b01 023a 7fe3 c63c 7b39 5f3d f632 a2bb
00000100: c793 803d 2508 883d f29f 9cbc ccc3 bdbc
00000110: f882 603d 0d36 babc ad0f 1c3c c1fc 97bc
00000120: 527d 3dbb 1201 c33b 4943 82bd 3fa8 0fbd
00000130: b752 ba3d ab40 233c 10ec 6fbd 350c 843d
00000140: b383 26bd c0cc 973d 8c92 e13c c877 9dbc
00000150: 6552 51bc 5245 9f3d 47ef 7b3d 174a 87ba
00000160: 610a 8b3d 4079 86bd e0a5 17bd 65b0 423d
00000170: b38b e73b 9225 88bc 1f05 73bd 58c9 7ebd
00000180: 31cc 853d cca3 8e3d b15a 883c a193 9ebd
00000190: 3b1b ac3c 0dd5 26bc b0f0 103d b156 c8bc
000001a0: 9841 90bd 1e10 90bd 8142 8c3d c6ed 1b3d
000001b0: 355b 92bb 75e6 3bbd 7cab f03c de57 393d
000001c0: c078 8e3c 6e2c c2bb 3303 d63c 5beb 413d
000001d0: 0596 b3bd 36a1 a93d 0463 5f3d 5a0b a93b
000001e0: db76 c4bc 2e36 5fbd bb24 9ebd c4f5 9fbd
000001f0: 4173 5bbd dc0c 67bd d186 723d b166 273d
00000200: 4575 d03c 8e97 a2bd adc2 0f3c 6e7c 93bd
00000210: 9d2b c93b ec83 423c 01ac 17b9 27ec 7a3d
00000220: be4b bd3d 5ac7 d1bc 0af9 a3bd f717 7fbc
00000230: c41b 8a3d c1d0 503d cdce 7d3c f5e9 a1bd
00000240: d65b dd3c 8857 433d ad1a b4bd 214b 7d3d
00000250: d3ed cabd 7d8e c4bc 0fef 733b 881d aebd
00000260: b1a1 0b3d 93c9 ff3c 3fb9 953d 43bb a23d
00000270: 8657 ba3d c8ee 953d 74d2 4f3c 9834 d33c
00000280: 8716 f5bc 6995 4f3d a327 1cbd 7b23 26bd
00000290: bb72 fa3c 1051 503b 1b96 923d c4e0 aebd
000002a0: 1530 8ebc 651c f43c f53c 98bc e709 973c
000002b0: 386f 0bbd dcb3 e33c 5d4f 45bd b866 253c
000002c0: 2046 83bc c737 75bb 2d5e 25bd 788b e33a
000002d0: 84ca 073d b856 963c 4e55 913d 46f0 a9bd
000002e0: 0d1e 993d cefa 963d ff48 033d 2f3e 7b3d
000002f0: cac4 6fbd c999 613d 7c6e 03bd 391b 01bd
00000300: 91ff 853b e106 33bc 7235 1abd 8822 89bd
00000310: 8b86 9d3d 5d67 793d 39d3 9ebd 7c06 323b
00000320: 0dfa 963d 5d0e 2d3d d973 61bd 3e04 343d
00000330: 7bfe 1c3c 52f8 b3bd c7a5 363d d673 42bd
00000340: 99fa 63bd 4c8a fd3b f093 60bd e1ac 02bd
00000350: 3f3a a8bc 0480 953d 7158 a63d d980 8a3d
00000360: 47b8 2f3c 05de 6e3d 3a42 983c bcb0 403d
00000370: 1819 b53d d9a3 373d 9f4f 2dbd d98a d7ba
00000380: bb70 683d fae3 a4bd edef 633d abb0 b1bc
00000390: 1746 d0bc e328 0f3d 751d 8abd 0f69 b3bc
000003a0: e2e1 083d 4f98 1cbd 7e00 683d de8e bcbd
000003b0: 6f25 90bd 4053 15bd af91 983d 0786 a23c
000003c0: f6e9 bfbb f245 563d ce60 283b d12b 28bc
000003d0: 6057 303b 3710 55bd 1378 84bd f92e 163d
000003e0: cd9e 433d 84cb a43d cbf4 793d c22f e53c
000003f0: 4866 11bb f7a7 0abb 0534 b8bd a3c7 99bc
0.09880474 -0.052404992 0.08065585 -0.018275551 -0.0022104706 0.051566537 0.062536016 0.024857437
0.027450422 0.09129011 -0.008336134 -0.009748141 0.046220846 0.045427233 0.053441685 -0.07804787
-0.0878952 -0.043032862 0.040024053 0.072775446 -0.052937035 -0.0014586019 -0.014883086 -0.074679166
0.03348672 0.047009416 -0.08016591 -0.006747505 -0.0125587 0.029898824 -0.06092227 -0.0768757
-0.0641164 0.014078185 0.08677957 -0.06043847 0.005288699 0.027598646 -0.06054067 0.039644327
0.022043943 -0.0024267635 -0.06268883 -0.031007199 0.037447255 -0.018084593 -0.0045465375 0.09030783
0.01171062 0.05161879 0.03027302 0.037408732 0.061043862 -0.0034267183 0.02520515 0.074049294
-0.061357263 0.0432247 0.011486625 0.025584493 0.00049592805 0.0242784 0.054498177 -0.0049499227
0.06278186 0.066421784 -0.019119237 -0.023164652 0.0548124 -0.022730852 0.009525222 -0.01855314
-0.0028913808 0.0059510553 -0.0636049 -0.03507256 0.09097808 0.0099641485 -0.058574736 0.06447641
-0.040652942 0.074121 0.0275357 -0.019222155 -0.012775992 0.07776894 0.06150749 -0.0010321763
0.06789089 -0.06566095 -0.037023425 0.047531504 0.007066214 -0.016619477 -0.059331056 -0.062203735
0.06533087 0.069648355 0.016644808 -0.07743002 0.021009078 -0.010182631 0.035385787 -0.0244554
-0.07043761 -0.07034324 0.06848622 0.038068555 -0.004466439 -0.045874078 0.029378645 0.045249812
0.017391562 -0.0059257066 0.026124572 0.047343593 -0.08768848 0.08282702 0.054537788 0.005158824
-0.023982456 -0.05449503 -0.077218495 -0.07810548 -0.05357671 -0.056408748 0.059210602 0.04086942
0.025446543 -0.07939063 0.008774442 -0.072014675 0.0061392323 0.011872273 -0.00014464559 0.06126037
0.09242962 -0.025607754 -0.08006485 -0.0155696785 0.06743577 0.050980333 0.0154912 -0.07905952
0.02702133 0.0476909 -0.087941505 0.061839227 -0.099086426 -0.023993725 0.0037221347 -0.085017264
0.034089748 0.031224048 0.073107235 0.079458736 0.09098725 0.073209345 0.012684453 0.025781915
-0.029917968 0.050679598 -0.038123738 -0.04056118 0.030572286 0.0031786598 0.071575366 -0.085389644
-0.017356912 0.029798696 -0.018583754 0.018437339 -0.034041613 0.027795725 -0.04817139 0.010095291
-0.01602465 -0.003741728 -0.040373016 0.001736029 0.03315212 0.018351898 0.07096349 -0.08297782
0.07476435 0.07372056 0.032052036 0.0613386 -0.058537282 0.0550783 -0.032087788 -0.031520102
0.004089304 -0.010926933 -0.037648626 -0.066960394 0.07691678 0.06088959 -0.07755131 0.002716451
0.07371912 0.042250026 -0.05504212 0.04394936 0.009582157 -0.08787598 0.04459169 -0.04747375
-0.05565891 0.0077374335 -0.054828584 -0.03190315 -0.020535586 0.07299808 0.081223376 0.06762857
0.0107250875 0.058317203 0.018586267 0.047043547 0.08842677 0.04483399 -0.04231226 -0.0016444578
0.056748133 -0.080512956 0.055648733 -0.021690687 -0.025424046 0.034951102 -0.067439 -0.021900682
0.033418544 -0.03823119 0.056641094 -0.09206937 -0.0703839 -0.036456347 0.07449662 0.0198393
-0.0058567477 0.0523128 0.0025692466 -0.010264353 0.0026907548 -0.052017417 -0.06468215 0.03666589
0.047758866 0.0804663 0.06102447 0.027976874 -0.0022186209 -0.0021157244 -0.08994297 -0.018771952

fc2.bias f4 [64]
00000000: 55fa bfbb 6f3f 9d3d 84cb 2d3d 536a 88bd
00000010: 0ceb a2bd 16f8 6b3d fefb 963d db2f 823d
00000020: 441a 663d fec2 c63c ba06 02bd 2d7e 313d
00000030: 5de1 353d b04e 763d 2afe 423c 917f 3f3d
00000040: 085c 8c3a d86a 2b3c 5d58 973c 6a4e cb3c
00000050: ad41 a03d c183 053d 46fe 9cbd 099c a43d
00000060: 867f 77bd b539 acbd 69a5 b13d c8de a9bd
00000070: b3cf 23bd 1332 8cbd 5484 81bd f112 f93a
00000080: 281a 9f3d ea90 86bc a855 ea3c f987 9ebd
00000090: 4adf a33c e2e9 8bbd bf36 a73d 1812 da3b
000000a0: 14b2 b0bc d555 adbc 08fb 3fbc 3af8 cdbc
000000b0: 5de0 a13b e2cb 80bd 6559 0fbd 950d a9bd
000000c0: f80c 16bc 4004 c23c 75a6 34bd d105 363c
000000d0: 754d 813d d398 813d 463f 1dbb eb7c 803d
000000e0: c42e bfbc ac8b a73d a87d 733d 19df c53c
000000f0: beb6 5b3d b8bf 063d 5ba1 b9bc 8c34 0dbd
-0.0058586993 0.076781146 0.042430416 -0.06660905 -0.07954988 0.05760964 0.073722824 0.06356784
0.056177393 0.024262901 -0.031744696 0.04333322 0.044404376 0.060133636 0.011901418 0.046752516
0.001070858 0.010462485 0.018474752 0.024817664 0.07825027 0.032596353 -0.07665686 0.08037574
-0.06042435 -0.08409444 0.086741276 -0.08294445 -0.039993 -0.068454884 -0.06324068 0.0019002837
0.07768661 -0.016426522 0.028605297 -0.077407785 0.020003933 -0.06831719 0.08164739 0.006654989
-0.02156929 -0.021159092 -0.011717565 -0.025142778 0.0049400763 -0.062888876 -0.034997363 -0.08254544
-0.009158365 0.023683667 -0.04410406 0.011109785 0.06313602 0.06327977 -0.0023994013 0.06273826
-0.02333773 0.08180937 0.059446007 0.024154233 0.053641073 0.03289768 -0.022659948 -0.03447394

bn2.weight f4 [64]
00000000: 696b 813f 1c25 7f3f 1df6 7d3f 603b 7d3f
00000010: d3b5 7e3f 84f1 813f 4ed1 813f 0482 7e3f
00000020: 7c13 7e3f 51a6 813f 968d 7e3f dab2 7c3f
00000030: 07ac 7c3f 26e8 7e3f 04cc 7c3f e78c 7f3f
00000040: 1db9 7d3f 9b84 813f b5e6 7f3f 4089 7c3f
00000050: 745b 7f3f 0a2d 7f3f dbde 803f 29d4 803f
00000060: 8b85 823f 8572 7e3f fd35 803f 4d2c 803f
00000070: edab 7e3f 957b 7e3f 0b48 803f be4a 7d3f
00000080: a98e 7d3f ea3e 803f 5258 7d3f 9003 803f
00000090: 4d45 803f 0eb4 7d3f 2cfe 7d3f 094e 7e3f
000000a0: 5049 803f 04e3 7d3f a07b 813f 9512 7d3f
000000b0: 6ad9 803f b925 803f 9dc3 7d3f f6db 7d3f
000000c0: bc99 7e3f 5e00 813f 0058 7e3f 124d 7f3f
000000d0: 07ca 7d3f 26c3 7d3f 4451 7f3f 084e 813f
000000e0: d9ff 7e3f 3688 7e3f 72d8 7f3f faa1 7d3f
000000f0: edb7 7c3f 3169 803f d6a0 813f e5b3 7c3f
1.0110904 0.99666 0.99203664 0.98918724 0.9949619 1.015183 1.0142 0.9941714
0.9924848 1.0128881 0.99434793 0.98710406 0.9869999 0.9957298 0.98748803 0.99824375
0.99110585 1.0118593 0.99961406 0.98646927 0.9974892 0.996781 1.006801 1.0064746
1.0197004 0.9939349 1.0016476 1.001352 0.9948109 0.9940732 1.0021986 0.9894217
0.9904581 1.00192 0.9896289 1.0001087 1.0021149 0.99102867 0.9921596 0.9933782
1.0022373 0.99174523 1.0115852 0.9885648 1.006635 1.0011512 0.9912661 0.9916376
0.9945333 1.0078237 0.9935303 0.99726975 0.99136394 0.991259 0.99733377 1.0101938
0.9960914 0.9942659 0.99939644 0.9907528 0.9871815 1.0032102 1.0127208 0.98712

bn2.bias f4 [64]
00000000: 70f5 35bc b18d 49bc f2a2 1abc 9f9f c9bb
00000010: 79bd ae3b d531 923c 9ab4 93bc 58f4 05bc
00000020: 3711 58bc 6cd6 88bc 2a26 67bc 49a3 95bc
00000030: 616a 58bc 535e aabb 9577 41bc 22e0 69bc
00000040: 897d 83bc 37a8 5e3c 4a96 38bc 462e 97bc
00000050: 78df 93bc cf74 13bc 7421 40bb f0e3 bcbb
00000060: 900a 9c3c 569b ddbb 56f2 00bc 01f4 38bc
00000070: ed7e 8bbb 4fe5 76bc d107 82bc 65de 2fbc
00000080: 7bd2 85bc cf3e 163c 791c 7dbc 4eb3 28bb
00000090: fbd5 8b3c 500a 8cbc c2f3 093b 32db a5bb
000000a0: 9d21 4b3b 27e4 263a 9402 90bc a604 8abc
000000b0: a2d5 e7bb 98e4 86bc 28b0 7bbc a2c1 26bc
000000c0: fd75 44bb 58e8 84bc 4226 23bc c508 57bc
000000d0: 0704 9ebc be78 5dbc d5c1 81bc 0713 98bb
000000e0: 5e3e 173a f945 57bc 44fb 50bc 0a8a 4c39
000000f0: da05 70bc c42a 633c 9920 7abc 14f5 4f3c
-0.01110588 -0.012301848 -0.009438263 -0.0061530615 0.0053326455 0.017846027 -0.018030453 -0.008175932
-0.013187698 -0.016703807 -0.01410822 -0.018266337 -0.013208956 -0.0051992326 -0.011808296 -0.014274629
-0.01605107 0.01358991 -0.0112663 -0.018454682 -0.018050894 -0.009000017 -0.0029316815 -0.005764477
0.019048005 -0.0067629023 -0.007870277 -0.011288644 -0.004257074 -0.01506932 -0.015872868 -0.010734175
-0.016335716 0.009170248 -0.015448683 -0.002574164 0.017069807 -0.017094761 0.0021049832 -0.0050615305
0.0030995377 0.0006366395 -0.017579354 -0.01684792 -0.0070750276 -0.016466424 -0.015361823 -0.010178002
-0.0029977553 -0.016224071 -0.009957852 -0.013124649 -0.01928903 -0.013517557 -0.015839497 -0.00464094
0.00057694863 -0.013139241 -0.012755219 0.0001950638 -0.014649833 0.013865177 -0.015266561 0.0126927085

bn2.running_mean f4 [64]
00000000: 7e2b ad3d 4fb2 0e3e cc41 203d 806f 1bbe
00000010: 54aa fdbd 51ee e4bc 8053 393e 8fd0 9e3c
00000020: e1ed b73d 910c 3b3e dff0 b4bd 0013 29bd
00000030: 0b75 76bd 8537 ac3d a813 db3d e1c6 adbc
00000040: c828 963d 4a11 293e 155f be3d 9700 cc3d
00000050: a1eb 543e 4efe f3bc 1524 9abd 0ff1 913c
00000060: 3457 09be 4f3d b8bd d4fb a53e 6093 9bbd
00000070: 4bb5 073e b740 dbbb 189d b13b 5ea3 1abd
00000080: dcf6 62bc 010f 2c3e 027d 1c3e 29de c73d
00000090: 2b05 9c3d 818d b93d 5ac1 7a3d b3ce a1bd
000000a0: 79e9 d9bd 34d0 c93d 8c13 3bbd 23b0 25be
000000b0: 018c ef3d f9ac 033d 674a 7fbd 2733 c63d
000000c0: dd43 c0bd edf8 f53c e03d 713c d516 0cbe
000000d0: 1145 6dbd 551b f53c 153f b23d fb34 3e3d
000000e0: 6025 99bd 65f8 613d b4b8 2a3e b7bd dfbd
000000f0: 0a29 c9bd 1542 16be a3f5 043d 2fe1 21be
0.08455561 0.13935207 0.03912525 -0.15179253 -0.12386003 -0.02794567 0.18098259 0.019386558
0.08980919 0.18266512 -0.08835005 -0.041277885 -0.060170215 0.08409027 0.106971085 -0.021212997
0.07331997 0.16510502 0.09295479 0.0996105 0.2079301 -0.029784348 -0.07526413 0.017815141
-0.13412172 -0.08996069 0.32418692 -0.07596469 0.13252752 -0.006691064 0.0054203384 -0.037753455
-0.013852801 0.16802599 0.15282062 0.097591706 0.07618173 0.09060193 0.06121955 -0.07900753
-0.106402345 0.09854165 -0.04567294 -0.16180472 0.116966255 0.03214738 -0.062326815 0.09677725
-0.09387944 0.030025924 0.014724225 -0.13680585 -0.057927195 0.02992026 0.08703438 0.046437245
-0.07477832 0.055168528 0.16672021 -0.10924857 -0.09822281 -0.14673646 0.03246082 -0.15808557

bn2.running_var f4 [64]
00000000: 95bf 893e 5efa 963e 4b53 9f3e a487 123f
00000010: f65a a33e 7e54 8f3e 5afd f13e 86b3 ab3e
00000020: 1d46 873e 119a e13e cdaf 863e 7730 023f
00000030: 749f cb3e 45de 853e de3f 863e 47fe 793e
00000040: 2e1f 873e 0f1f a63e 6993 9b3e 8aab d83e
00000050: 1f95 bd3e fd79 833e 95c7 013f b6e3 873e
00000060: 1473 1b3f fbd0 923e 7c4a 033f 82ae 8a3e
00000070: 6d02 ce3e c941 d63e d9ca 213f b082 7c3e
00000080: 2c51 723e 4012 e53e cd84 e83e eba9 d73e
00000090: 65c3 6a3e c58f f53e 7273 833e ad5c 893e
000000a0: 4a78 863e 0d43 aa3e 7e8e d73e d7ff ba3e
000000b0: feaf a53e 0574 163f 6035 6d3e 62fc be3e
000000c0: 02c4 9f3e 73a8 b43e 720d 833e 30bf 853e
000000d0: 83da 943e a305 7c3e 3592 9e3e 30f3 913e
000000e0: e4dc 883e 264b 703e f4a5 953e 3035 963e
000000f0: 1b80 e43e 206a 013f 0f86 d83e 6fba 1a3f
0.26903978 0.2948789 0.31118235 0.5723822 0.31905335 0.2799415 0.47263604 0.33535403
0.2642068 0.44062856 0.26306 0.508552 0.3977009 0.2614614 0.26220602 0.24413405
0.26390976 0.3244557 0.30385903 0.42318374 0.37027833 0.25679007 0.50695163 0.26540917
0.6072247 0.28675064 0.5128553 0.27086264 0.40236226 0.41847065 0.63200146 0.24659228
0.23663777 0.44740486 0.4541382 0.42121825 0.229261 0.4796125 0.25674015 0.26828519
0.26263648 0.3325428 0.421009 0.36523315 0.32360834 0.5877078 0.23164892 0.37301928
0.3120423 0.35284767 0.25596195 0.26122427 0.2907296 0.24611525 0.30970922 0.2850585
0.26731026 0.23466167 0.29228175 0.29337454 0.44628987 0.5055256 0.4228978 0.60440725

fc3.weight f4 [32, 64]
00000000: dea9 e33d 88f1 85bd 4967 55bc 3e13 493d
00000010: c527 fe3b eba6 2b3c f4d6 0d3e 7ec3 a33d
00000020: 3db2 533c bc28 f33c 5767 9bbd 826d ea3c
00000030: c851 c73d 9484 c6bc 1118 8ebd e3a8 d13c
00000040: a9f9 e13c cc4d 89bd b7ea 99bd eed1 603c
00000050: 55d9 8d3d 93c6 d23d 9383 f43d 0318 30bd
00000060: 088e cebd 6ecb 733d 7d00 923d ab9c c43d
00000070: 8c41 8c3d 27ae 94bc cd20 163d 4084 c2bc
00000080: bda6 9abd 1af7 023e eec5 f13d 5ad5 7abc
00000090: edff 97bd b52b d13d fea7 c9bc 0269 a33d
000000a0: 7128 bf3d cd27 b5bd 8e50 b3bd 8b60 05bd
000000b0: 7ba0 993d cf3f 823d 6d72 c3bd 34bc a5bd
000000c0: 48b3 9b3d 1ad7 043d 5fa1 b8bc 7a0a 37bc
000000d0: 0fc5 c6bd d357 d1bd 3462 323d f265 2fbc
000000e0: 581f aabd 5a94 17bd 5f54 cf3c 06b0 eebd
000000f0: 1c5c ca3d 3064 be3d 321b eb3d 03c9 b5bc
00000100: e84f 00be d0ed 873c 52f0 023d 70e3 c5bc
00000110: 4c75 d2bc ca9a 80bd c30f 543c 884f c13d
00000120: eac1 c33d a6d7 573d 8108 8d3c 7a27 b6bc
00000130: ade0 5c3d c8be aa3d 2fa1 d63d eec3 f4bd
00000140: 38e4 b2bc 56a9 e73c 402e e6bd 5d4e 803d
00000150: 556f a53d e89a 8d3d f270 97bd 61bc 97bd
00000160: a99f cabd 93c0 febd fab4 89bc f2eb d7bd
00000170: f29f e93c 3924 df3d c70d 9dbd 96ed b93d
00000180: ca01 923d ecd7 9a3d 79ff 923d 2357 ce3d
00000190: 62fb 0f3d 5e8a 163d 63bb 4cbd 42e6 e7bd
000001a0: 99e1 af3c 7c7c 81bb e26e a63d 3913 9a3c
000001b0: 9965 abbd d4bb 08bc 7e05 f4bc cb76 c0bd
000001c0: 0130 e9bc 3313 e93b 0045 863d 3cf2 933d
000001d0: 8100 44bb 13e0 d03d 1410 0e3d a8b0 ad3d
000001e0: 403f 553c 044a d93d 2f4d 9cbb 4e5e ee3c
000001f0: e76f 103e 0a33 56bd d76f dd3d e2db f0bd
00000200: 26fe 3f3c bb74 e13c c3f3 c9bc 37b7 f9bc
00000210: 6570 d03a d5dd c73d 6d88 073c f04c af3d
00000220: 3790 d33d de28 afbc ccfe 9cbd 9df6 173d
00000230: fa8a e4bb b736 ccbd 4c19 993b 00db 4bbc
00000240: f5ac a23b 8d92 e63d ac32 e73d c9c6 7c3d
00000250: a0f4 e13d ee87 de3d db06 693d f233 ea3a
00000260: 45fb 83bd 5d09 7ebd cb93 483c 50bf f6bc
00000270: 087d cb3c 8e0f 1dbd aec8 c03d 8b0a b83b
00000280: ba06 e43d b4ee f83d e21e a4bb e677 6f3d
00000290: 4acb c63d c374 ce3b 959b 513d b010 afbc
000002a0: ce5e 5a3d 0c38 efba dc59 473d 1ab1 663c
000002b0: ae15 b5bd 14e8 afbc 677d e13d e0b3 d33d
000002c0: f5b8 dc3d 7aea ed3d 8e0b 2abc d85d 5e3c
000002d0: edca 103d a8ee a83d 883a acbd 49ed eabd
000002e0: 8e9b 103d 44ba 45bd aaef 8c3d 4599 b6bc
000002f0: bf03 f63c 2160 81bd 099b 7a3d 5a91 a6bd
00000300: 7e15 ad3d 4a3c e9bc 1667 683d 59c8 af3d
00000310: 6ee6 11bd 9566 833d 18f7 9fbd 84d2 68bd
00000320: 469e e73d 4659 97bb b8d4 973d 90d7 273c
00000330: 4e12 2bbd 812b 1c3d 8328 d33c d6ff b9bd
00000340: 32e8 6dbd 1451 9bbd b049 b03d 1aaf d93d
00000350: 2438 62bd c3eb 4d3c eba4 fabb 0d8a 0dbd
00000360: 52f6 693d 562e 5a3d dd34 303d 0125 213d
00000370: db44 6ebb 8cd3 83bd d949 aa3c bce1 0ebd
00000380: 3995 353c 473a dc3c 6f1c 103d 8c41 46bd
00000390: f0c4 bcbd 2012 09bd 0913 01bb f0b9 d1bb
000003a0: 7cf4 803d 8c46 d2bd a3c0 ca3d c01e 153c
000003b0: 4be7 f43d 121a 243d bac9 a2bd 2387 e1bd
000003c0: fc7f 1c3c 0255 d83d e894 8a3d 1c99 c13d
000003d0: bf43 3b3d 3243 b6bd 8de5 083d cfbe 89bd
000003e0: 57da e5bc 56dc 1dbd faeb ccbd e204 da3d
000003f0: 7bbc ad3d 95ee edbd 1757 ae3c 1d19 a1bc
0.11116384 -0.06540209 -0.013025113 0.049090616 0.0077562057 0.010476808 0.1385153 0.079962716
0.012920913 0.02968251 -0.0758807 0.02861667 0.097323954 -0.02423314 -0.06938184 0.025593227
0.027584868 -0.06704292 -0.075154714 0.013721926 0.069262184 0.10291781 0.11939158 -0.04299165
-0.10085684 0.059520178 0.071289994 0.096001945 0.068484396 -0.018149449 0.036652375 -0.023744702
-0.07551334 0.12789574 0.1180533 -0.015309656 -0.07421861 0.102134146 -0.024616238 0.07979013
0.093338855 -0.08845482 -0.08755599 -0.032562774 0.07501312 0.06359827 -0.09543309 -0.080925375
0.076025546 0.0324317 -0.022537885 -0.011171931 -0.09705555 -0.10221829 0.043550685 -0.010705458
-0.083067596 -0.037006713 0.025308786 -0.116546676 0.0988085 0.09296453 0.114797965 -0.022190576
-0.12530482 0.01659289 0.03196747 -0.024156302 -0.025690697 -0.06279524 0.012943211 0.094389975
0.095584705 0.052695893 0.017215969 -0.02223562 0.053925205 0.0833717 0.10479962 -0.11951433
-0.021837339 0.028278988 -0.1123929 0.062649466 0.080778755 0.06914312 -0.073945895 -0.07408977
-0.09893734 -0.12439074 -0.01680993 -0.1054305 0.02851865 0.10895581 -0.076686434 0.09078519
0.071292475 0.07560715 0.07177634 0.10075214 0.035151847 0.03675305 -0.049983393 -0.11323215
0.021469878 -0.0039516073 0.08126618 0.018807994 -0.083689876 -0.008345563 -0.029787775 -0.09397658
-0.028465273 0.0071128844 0.065561295 0.07223937 -0.0029907527 0.10198989 0.034683302 0.0848096
0.013015568 0.106098205 -0.004769943 0.029097702 0.14105187 -0.05229477 0.108123474 -0.11760689
0.011718309 0.027521482 -0.024652367 -0.030482871 0.0015902637 0.09759108 0.008272273 0.085595965
0.10330241 -0.021381792 -0.07665786 0.037100423 -0.006974575 -0.099713735 0.004672205 -0.01244235
0.0049644657 0.11258421 0.11288962 0.061713014 0.11032987 0.1086577 0.056891304 0.0017868264
-0.0644441 -0.06202065 0.012242268 -0.030120522 0.024839893 -0.038344912 0.094132766 0.005616491
0.111340955 0.12154904 -0.0050085643 0.058463953 0.09706743 0.00630054 0.051173765 -0.021370262
0.05331307 -0.0018250956 0.04866968 0.01408031 -0.08842026 -0.021472968 0.11010247 0.10337043
0.10777465 0.116169885 -0.010378731 0.013572179 0.035349775 0.08248645 -0.084096014 -0.1147104
0.0353046 -0.04827334 0.0688165 -0.022289881 0.030031083 -0.06317163 0.06118301 -0.08133192
0.08451365 -0.02847113 0.056738935 0.08583135 -0.035620145 0.0641605 -0.07810801 -0.05684139
0.11309485 -0.0046187965 0.0741362 0.010244265 -0.041765504 0.038127426 0.025776153 -0.09082
-0.058082767 -0.07583824 0.08607805 0.10629101 -0.05522932 0.012568417 -0.0076490543 -0.034555484
0.057119675 0.053266846 0.043019164 0.03934193 -0.003635696 -0.06436834 0.020787166 -0.034883246
0.011082941 0.026883258 0.035183366 -0.048402354 -0.0921725 -0.03346455 -0.0019695184 -0.0064003393
0.06296632 -0.10267362 0.09900024 0.00910157 0.11958178 0.040063925 -0.079486325 -0.110121034
0.009551998 0.10563089 0.06766683 0.094530314 0.045718905 -0.08899535 0.03342204 -0.06725847
-0.028058214 -0.038540207 -0.100059465 0.106454626 0.084832154 -0.116177715 0.021281762 -0.019665295

fc3.bias f4 [32]
00000000: f1cf e1bd 1631 22bd 3038 febc ccce 0e3c
00000010: 902c 73bd a95a 8b3c 3470 febd fe40 dc3c
00000020: 904d adbd 189f 27bd 7263 ab3c 555a fbbd
00000030: 2946 be3d 7bc3 ac3d da5e 993b ec3c f7bd
00000040: c06f cbbd cd6e 933d cd0f d13d 5998 ae3d
00000050: 1f1b 2e3d 1939 acbd e90e ae3c bc6a 093d
00000060: afdf 4dbd 8748 c3bd 57fd 4f3d 0479 b23c
00000070: 331d a8bd 611c b03d 8473 dbbc 5614 d53d
-0.1102599 -0.039597593 -0.031032652 0.008716296 -0.05936867 0.017011004 -0.12423745 0.02688646
-0.084620595 -0.040923208 0.020921443 -0.12273089 0.09290726 0.084357224 0.0046804966 -0.12072167
-0.09933424 0.07198868 0.10208092 0.08525152 0.042506333 -0.08409328 0.021247344 0.033549055
-0.05026215 -0.09535318 0.050778713 0.02178622 -0.08208694 0.08599163 -0.02678848 0.104042694

bn3.weight f4 [32]
00000000: a50b 813f 9f31 7d3f 1eaa 7c3f e4d5 7d3f
00000010: 5b94 7c3f a54a 7f3f 9cb7 7c3f 0e9b 7c3f
00000020: e10a 7d3f c7d7 7f3f 88f0 803f 1c25 813f
00000030: 5801 803f d201 803f 4be8 7f3f f04b 803f
00000040: 49ff 7c3f 3a31 7f3f 2d1e 7e3f d27a 7d3f
00000050: 3248 7f3f 9a0e 813f a320 813f 627f 813f
00000060: 4aec 803f 6615 813f 16e5 7c3f 55a4 7e3f
00000070: 0300 823f d99a 7d3f 5502 813f 8c70 7d3f
1.0081679 0.9890384 0.9869708 0.99154496 0.9866387 0.99723274 0.98717666 0.98674095
0.98844725 0.99938625 1.0073404 1.008945 1.000041 1.0000556 0.99963826 1.0023174
0.98827034 0.9968449 0.99264795 0.99015534 0.99719536 1.0082581 1.0088085 1.0116999
1.007211 1.0084655 0.9878706 0.994695 1.0156254 0.99064404 1.0078837 0.9899986

bn3.bias f4 [32]
00000000: aca3 90bc f9c4 cf3b fe71 7dbc 92e6 85bc
00000010: 735e 6cbc 0988 5fbc 4a06 57bc 81cf cfbb
00000020: e848 4cbc e3d6 93bc cc06 a03c 0247 7ebc
00000030: 4659 82bc 2b92 96bc cd2d 993c 0e27 96bc
00000040: 1f00 34bc 2071 95bc 849b 60bb 68c1 f0b9
00000050: e886 62bc 11f8 9d3c 91f2 e3bb af2a 96bc
00000060: d937 f4bb 6c24 b93b 1226 54bc 3da3 3bbb
00000070: 8676 89bc 22e7 a33a 2212 68bc 8db9 ea3a
-0.01765617 0.0063406196 -0.015469072 -0.016345296 -0.014426815 -0.013643273 -0.013124058 -0.006341875
-0.012468554 -0.018046802 0.019534491 -0.015519859 -0.01591171 -0.018380245 0.018698597 -0.01832917
-0.010986357 -0.018242419 -0.0034272382 -0.00045920466 -0.0138261095 0.019283326 -0.0069564064 -0.0183309
-0.0074529466 0.005650094 -0.01294853 -0.0028631233 -0.01678015 0.0012504796 -0.014164479 0.0017908082

bn3.running_mean f4 [32]
00000000: 3b7c 65bd c63d 6e3d 720d 183e 2bbf 7d3c
00000010: 8747 78bd 25d2 9c3d 661f 6ebe 3f8b 743b
00000020: ba90 2fbd dc8c 003c 29d3 f13c ffdc e9bc
00000030: 9738 223e 2dc1 513e cc8a 4f3c 5b5a b63b
00000040: 69e8 c7bd 3d52 043e d468 403e a3d4 0ebe
00000050: 2ef6 503b 09d9 15be e52e dc3d ff6d 3a3e
00000060: 0705 1fbe 110b 21be 5fdd 3bbd 11be 243c
00000070: d80e 3dbc 8de3 253e 6def f03c be2f 403e
-0.05602668 0.05816438 0.14848879 0.0154874725 -0.06061509 0.076572694 -0.23254165 0.0037314442
-0.04286263 0.0078460835 0.029519634 -0.028547762 0.158419 0.20483847 0.012667369 0.0055649704
-0.097611256 0.12921996 0.18789989 -0.13948302 0.0031885016 -0.14633574 0.10751132 0.18206023
-0.15529262 -0.15726878 -0.045865413 0.010055081 -0.011539184 0.16200085 0.029411042 0.18768212

bn3.running_var f4 [32]
00000000: 1b97 0d3f bcb9 bb3e 26d5 413f f6cb 593e
00000010: 4c6f 903e 8b8d d03e fab5 d03e f593 c33e
00000020: 3c2b 943e 899c c43e dad3 913e 27a9 ef3e
00000030: d734 ae3e 953c 1e3f ad04 813e 7c9c 883e
00000040: 2dda 883e 4699 933e 3406 8e3e c230 453f
00000050: 3e67 153f 82f0 db3e 4735 f93e 9d0d 563f
00000060: 5278 ae3e dadf ed3e 3ce3 a93e 6e29 823e
00000070: f074 e03e f4df a43e ee22 c13e e400 933e
0.55308694 0.36665142 0.75715864 0.21269211 0.28209913 0.4073299 0.40763837 0.3819882
0.28939235 0.38400677 0.28481942 0.4680874 0.3402469 0.6181119 0.2519888 0.26681888
0.26728955 0.28827876 0.27739108 0.77027524 0.5836066 0.4295693 0.4867346 0.8361452
0.34076172 0.46459848 0.3318118 0.25422233 0.43839216 0.32202113 0.37721962 0.28711617
