MELOSDP/SDP/chkpt/mc1/linear/19/sdp_classifier_linear-460.pth (torch, 77408 bytes, 25 tensors)

fc1.weight f4 [128, 38]
-0.09673264 0.058626264 -0.05062214 -0.0018538164 -0.009359413 -0.018682247 0.030244188 0.05243172
-0.13871984 0.00020484002 -0.096094735 0.044418506 -0.10279581 0.1069704 0.11605189 -0.014747591
-0.09979118 0.038594875 0.11490119 0.168228 -0.047033597 0.16922265 -0.081854865 0.13182844
0.17462371 0.012443289 0.21762943 0.06639841 -0.04655895 -0.11913028 0.027224727 -0.07851148
0.07889258 0.020883862 0.041675128 -0.1332487 -0.24466346 -0.103146695 -0.038055964 0.022504913
0.11610068 -0.05647832 -0.06435113 0.15279822 -0.040528946 -0.062397216 0.016048193 -0.053503513
-0.105766244 0.07114244 0.18541808 -0.1276612 0.03806968 -0.040886324 0.11673112 0.03440474
0.11759234 0.111205034 -0.029751662 -0.0031258871 0.06591423 0.067515604 0.0749078 0.0924083
0.15918411 -0.03720926 -0.11494236 -0.13945381 -0.07985964 -0.156644 0.09197487 0.05248411
0.09141131 -0.11412056 0.20276073 -0.10309495 -0.04968762 -0.018887721 -0.06588432 -0.0923647
0.05222638 -0.021761462 0.113928676 0.056264583 0.0019428949 0.1697155 0.15866096 -0.13241155
-0.026696011 -0.05803969 -0.053728957 0.08021545 -0.014848872 0.050140735 -0.020209346 0.08928489
0.09156978 0.14516711 0.1064294 -0.026728163 -0.045809034 0.09776463 0.1920241 -0.105485834
0.0075629577 0.039188735 -0.051885404 0.06493061 -0.04482163 -0.012968969 -0.09281622 0.012375781
-0.122991666 0.06300745 0.08470811 -0.09913663 0.16862121 0.1478552 -0.0075744158 0.00890181
-0.087757595 -0.08719805 -0.025718337 0.0008574195 -0.13756737 0.15012684 -0.08168225 -0.17138822
-0.10766699 -0.0091662025 -0.108863965 -0.12232334 0.054012276 -0.036838427 -0.19882628 -0.04243994
-0.08584082 0.070556544 -0.09720746 -0.03363107 0.09448596 0.08014485 -0.12882745 0.08355549
-0.081277035 0.15434311 0.1771583 -0.052770436 -0.021802131 0.045824703 0.11518826 -0.07886653
0.09197428 -0.091901176 0.0851804 0.010313259 0.027386378 -0.061119795 0.018096779 0.1693441
0.06085323 -0.09718667 -0.07594333 0.052389827 0.048818573 0.09834372 -0.055518035 0.05179048
0.06204356 0.04078642 -0.019296777 0.11313788 0.09490736 0.0968416 -0.15870573 0.1537776
0.18792763 0.07938528 0.2146506 -0.045106135 0.07826231 0.012650678 0.0052192025 0.08150433
0.005971575 0.06488934 -0.20078951 -0.061229218 -0.1344708 0.05382091 0.0018685096 0.09999855
-0.012895192 0.14438339 -0.021489082 0.10352298 0.0451845 0.028571563 -0.052350182 -0.048702236
0.03631371 -0.11974446 0.07667271 -0.055633232 -0.15513434 0.0353552 -0.15523496 -0.028447378
0.0017111026 -0.005045135 -0.078279376 0.039858002 0.15582588 0.0033225054 0.07821149 -0.05746866
0.10611225 -0.057871446 0.033110496 0.005442673 -0.19098076 -0.119748026 0.11253282 -0.022334017
-0.05856027 -0.052325364 -0.2881273 -0.012461986 -0.041349452 0.029604468 -0.1521479 -0.09710513
-0.10081817 0.1799154 0.042494852 0.12455955 0.015275736 -0.13381293 -0.0148197925 0.07327418
-0.044350263 0.037939895 -0.0441949 -0.13874419 0.04341964 -0.071331225 0.04980894 0.14924976
-0.13999356 0.100315586 0.13911548 0.07761715 -0.055933654 -0.13712247 -0.095240906 -0.057912085
00000000: c31b c6bd 1822 703d 2959 4fbd c2fb f2ba
00000010: 3958 19bc 830b 99bc a9c2 f73c a5c2 563d
00000020: 930c 0ebe 53ca 5639 51cd c4bd 2ef0 353d
00000030: 9c86 d2bd 4c13 db3d 9dac ed3d e19f 71bc
00000040: 515f ccbd a915 1e3d 5151 eb3d f643 2c3e
00000050: 4da6 40bd b448 2d3e 86a3 a7bd 09fe 063e
00000060: 8fd0 323e f0de 4b3c 40da 5e3e e4fb 873d
00000070: 99b4 3ebd 94fa f3bd 6406 df3c a0ca a0bd
00000080: 6f92 a13d a214 ab3c 8ab3 2a3d 5972 08be
00000090: 0f89 7abe 933e d3bd 92e0 1bbd 395c b83c
000000a0: 31c6 ed3d d055 67bd 86ca 83bd 2377 1c3e
000000b0: ae01 26bd 3994 7fbd 8077 833c 8026 5bbd
000000c0: f99b d8bd 21b3 913d 3dde 3d3e 9eb9 02be
000000d0: f4ee 1b3d 6b78 27bd ba10 ef3d fceb 0c3d
000000e0: 41d4 f03d 77bf e33d c2b9 f3bc afdb 4cbb
000000f0: 0afe 863d 9f45 8a3d 4369 993d 9040 bd3d
00000100: 2901 233e bd68 18bd e666 ebbd fbcc 0ebe
00000110: 738d a3bd 4967 20be 525d bc3d 94f9 563d
00000120: da35 bb3d 0ab8 e9bd 82a0 4f3e 7223 d3bd
00000130: 3f85 4bbd 6cba 9abc 5cee 86bd b429 bdbd
00000140: 54eb 553d 1845 b2bc 7053 e93d b175 663d
00000150: bca8 fe3a e6c9 2d3e 0578 223e e596 07be
00000160: 98b1 dabc 07bb 6dbd e512 5cbd ff47 a43d
00000170: af48 73bc 5f60 4d3d 128e a5bc ffda b63d
00000180: f088 bb3d b0a6 143e a8f7 d93d 05f5 dabc
00000190: 41a2 3bbd d338 c83d f7a1 443e f508 d8bd
000001a0: b0d2 f73b 5e84 203d ca85 54bd 57fa 843d
000001b0: e396 37bd cc7b 54bc 6e16 bebd cac3 4a3c
000001c0: 0ee3 fbbd 0d0a 813d 727b ad3d 2508 cbbd
000001d0: 0aab 2c3e 5b67 173e ce32 f8bb e6d8 113c
000001e0: 41ba b3bd e494 b2bd 43af d2bc 73c4 603a
000001f0: 76de 0cbe daba 193e 0649 a7bd 6580 2fbe
00000200: 8380 dcbd d72d 16bc 12f4 debd a984 fabd
00000210: fa3b 5d3d e4e3 16bd 1e99 4bbe 81d5 2dbd
00000220: 50cd afbd f37f 903d b414 c7bd bcc0 09bd
00000230: db81 c13d fc22 a43d 58eb 03be 241f ab3d
00000240: 9374 a6bd 1f0c 1e3e fc68 353e d025 58bd
00000250: 629a b2bc afb2 3b3d d3e7 eb3d c684 a1bd
00000260: 035d bc3d af36 bcbd 1073 ae3d f2f8 283c
00000270: 6659 e03c c058 7abd b23f 943c 8a68 2d3e
00000280: 3d41 793d ce09 c7bd 2d88 9bbd b796 563d
00000290: fcf5 473d 6f68 c93d e166 63bd 4122 543d
000002a0: 6321 7e3d a90f 273d 4614 9ebc d5b4 e73d
000002b0: ca5e c23d e454 c63d c183 22be e077 1d3e
000002c0: 1a70 403e c094 a23d 5ecd 5b3e 36c1 38bd
000002d0: fd47 a03d ca44 4f3c d805 ab3b beeb a63d
000002e0: 34ad c33b b4e4 843d c49b 4dbe 7dcb 7abd
000002f0: b7b2 09be 5173 5c3d c7e8 f43a 0acc cc3d
00000300: 5b46 53bc 3dd9 133e df09 b0bc db03 d43d
00000310: 6213 393d e90e ea3c 256d 56bd ff7b 47bd
00000320: afbd 143d 953c f5bd 9506 9d3d acdf 63bd
00000330: 89db 1ebe 9dd0 103d eaf5 1ebe 7a0a e9bc
00000340: 1347 e03a a951 a5bb f050 a0bd 2542 233d
00000350: d290 1f3e 64be 593b 582d a03d 4264 6bbd
00000360: 6151 d93d 9c0a 6dbd df9e 073d 7358 b23b
00000370: 7690 43be 743e f5bd 9b77 e63d d4f5 b6bc
00000380: e5dc 6fbd 1f53 56bd 6c85 93be 5c2d 4cbc
00000390: 0b5e 29bd 1285 f23c a9cc 1bbe 0edf c6bd
000003a0: c279 cebd be3b 383e 150f 2e3d 1419 ff3d
000003b0: 1547 7a3c 4206 09be b7ce 72bc c610 963d
000003c0: 9fa8 35bd dd66 1b3d b605 35bd f512 0ebe
000003d0: cbd8 313d 1b16 92bd 7604 4c3d eed4 183e
000003e0: 795a 0fbe 4272 cd3d 4a74 0e3e bef5 9e3d
000003f0: b01a 65bd d569 0cbe aa0d c3bd 3935 6dbd

fc1.bias f4 [128]
-0.15380436 0.14730489 0.030722933 -0.022375885 -0.07984449 -0.06698463 -0.08908183 0.14504722
0.13604997 -0.058842845 -0.025085678 -0.09880907 0.095340304 -0.14366223 -0.1394266 -0.12327277
0.015385661 -0.06231111 0.07285785 0.045584597 0.099806696 -0.12980406 0.003021907 -0.021665934
-0.02360658 -0.03828217 -0.102258 0.029344276 0.089752585 -0.005376006 0.14767656 0.095964365
0.06542801 -0.039484438 -0.12453306 0.1293497 0.09430625 0.047103904 -0.0936873 0.04999216
-0.012808407 -0.0682241 0.1369434 -0.0882013 -0.09541023 -0.049815133 -0.08423958 0.03864329
-0.055805143 -0.15233938 -0.016845945 0.07221831 0.09255088 0.056003403 -0.023547407 -0.020057835
-0.026144518 0.11384199 -0.105305724 -0.058778286 -0.1352051 -0.15026943 -0.081459284 -0.07256514
0.009843597 -0.05643942 -0.12281754 0.099471584 -0.045147516 -0.009909203 -0.057839237 0.044919375
-0.14010468 0.14324643 0.13416694 0.0011405995 -0.05272534 -0.031079626 0.107578106 -0.1553644
0.09518936 -0.14027187 0.12030415 0.0350091 0.12717655 0.10243971 0.025013957 -0.13659675
0.15835342 -0.10808928 -0.10302177 -0.15551345 -0.0044316337 -0.013295161 0.08099275 0.060685746
0.09025688 0.039160162 0.07849794 -0.14648186 -0.04200557 0.031094866 -0.13071978 -0.15402679
0.028836254 0.116178654 0.08907354 0.077433996 -0.0112611875 -0.12479588 -0.14777434 0.10294815
0.13107195 -0.09928093 0.062290963 -0.13460909 -0.13932867 -0.11879322 0.0730294 0.14630292
-0.09400474 0.039621603 -0.03630946 -0.090473965 -0.09839438 -0.08715342 0.16210501 0.06503599
00000000: e47e 1dbe 18d7 163e a9ae fb3c a24d b7bc
00000010: 8285 a3bd 3d2f 89bd 8970 b6bd 4287 143e
00000020: af50 0b3e 3205 71bd 7b80 cdbc 695c cabd
00000030: c741 c33d 311c 13be d9c5 0ebe 6f76 fcbd
00000040: 2414 7c3c ef39 7fbd 7f36 953d eab6 3a3d
00000050: 7467 cc3d 5beb 04be 300b 463b c27c b1bc
00000060: 9662 c1bc c4cd 1cbd a46c d1bd 6863 f03c
00000070: 34d0 b73d 3529 b0bb 8638 173e f788 c43d
00000080: 1fff 853d 6fba 21bd 300b ffbd 3f74 043e
00000090: a323 c13d 06f0 403d 21df bfbd 94c4 4c3d
000000a0: 5ada 51bc 14b9 8bbd e43a 0c3e e2a2 b4bd
000000b0: 7066 c3bd f40a 4cbd cd85 acbd 6d48 1e3d
000000c0: ef93 64bd dbfe 1bbe 8200 8abc 31e7 933d
000000d0: 518b bd3d d363 653d 7ee6 c0bc 5450 a4bc
000000e0: 072d d6bc fd25 e93d 87aa d7bd 80c1 70bd
000000f0: 3573 0abe 3be0 19be 20d4 a6bd 089d 94bd
00000100: 0a47 213c 052d 67bd c387 fbbd c2b7 cb3d
00000110: 9aec 38bd 365a 22bc d6e8 6cbd 61fd 373d
00000120: 9a77 0fbe 31af 123e 0f63 093e 2b80 953a
00000130: 87f6 57bd b39a febc e951 dc3d d817 1fbe
00000140: a4f2 c23d 6ea3 0fbe 0662 f63d b465 0f3d
00000150: 923a 023e e9cb d13d 12ea cc3c 05e0 0bbe
00000160: 6627 223e ea5d ddbd 14fd d2bd eb3e 1fbe
00000170: 3d37 91bb f2d3 59bc 87df a53d 9e91 783d
00000180: 99d8 b83d 6866 203d 87c3 a03d 57ff 15be
00000190: 080e 2cbd a9ba fe3c 68db 05be 33b9 1dbe
000001a0: 023a ec3c 13ef ed3d 306c b63d b795 9e3d
000001b0: d880 38bc fb94 ffbd 2852 17be 7bd6 d23d
000001c0: ba37 063e cd53 cbbd cf24 7f3d f7d6 09be
000001d0: 2dac 0ebe dc49 f3bd 7090 953d 6fd0 153e
000001e0: 8f85 c0bd 434a 223d 3ab9 14bd 6a4a b9bd
000001f0: fe82 c9bd 7e7d b2bd dbfe 253e 9731 853d

bn1.weight f4 [128]
1.0676268 0.9818164 1.0159795 0.9359511 1.0025434 1.1664121 1.1300937 0.9679043
0.9929137 1.0882123 1.1255726 1.0496619 0.96772695 1.0125087 1.0090867 1.0174156
0.9516352 1.0049809 0.94469637 1.0050784 0.9865631 0.9838041 0.9710539 1.1054367
1.1388165 0.95481014 1.1299217 0.989422 0.9923167 0.97605294 1.077172 1.0285282
0.98929363 1.0981548 0.9478426 0.9738195 1.1186172 1.0416424 1.0256034 0.99991494
1.1462203 0.9726478 0.9926308 0.9949771 1.0580564 1.0330336 0.97882766 0.9800508
0.97049624 0.98709494 0.9945929 0.9558931 0.95252687 0.9737992 0.9972353 1.005685
1.0177618 1.0083623 1.0170377 1.0027295 1.0427773 0.9711945 0.9688595 1.0320804
0.9230621 1.009778 1.0079584 1.087384 1.0494733 1.1975641 0.9866294 0.96258456
1.0698135 0.9875508 0.962008 0.99273497 1.0204471 0.9890177 1.0774219 1.0282499
1.0031462 0.9693336 0.96363604 1.0599957 0.94969296 0.9993684 1.0570991 0.9566991
0.9846475 1.0214909 1.0186161 0.9523998 0.96625566 1.0173429 0.97693753 0.9963095
0.95349544 0.9432201 0.9673969 1.0124768 1.0155265 1.0466666 0.9920428 0.9853009
1.0454042 0.94703454 1.1012661 1.0457493 0.9521497 0.9944604 0.9934137 1.0403056
1.0080187 0.99831235 0.9722478 0.9555895 0.96946144 1.0608864 0.9956367 1.0509597
0.9875852 1.0623652 1.0286847 1.1278473 1.1336178 0.99509054 1.0020418 1.0294065
00000000: ffa7 883f 5258 7b3f 9e0b 823f 7e9a 6f3f
00000010: 5853 803f fe4c 953f e9a6 903f 94c8 773f
00000020: 982f 7e3f 8a4a 8b3f c312 903f 525b 863f
00000030: f4bc 773f e399 813f c129 813f ad3a 823f
00000040: 5d9e 733f 37a3 803f 9fd7 713f 69a6 803f
00000050: 668f 7c3f 96da 7b3f fd96 783f f37e 8d3f
00000060: bdc4 913f 706e 743f 46a1 903f c34a 7d3f
00000070: 7808 7e3f 9bde 793f c6e0 893f d0a6 833f
00000080: 5942 7d3f 5690 8c3f d0a5 723f 3c4c 793f
00000090: d92e 8f3f 8a54 853f f946 833f 6dfa 7f3f
000000a0: 59b7 923f 72ff 783f 0d1d 7e3f d2b6 7e3f
000000b0: 646e 873f 723a 843f 7394 7a3f 9ce4 7a3f
000000c0: 7172 783f 41b2 7c3f a49d 7e3f 69b5 743f
000000d0: cdd8 733f e84a 793f d04a 7f3f 49ba 803f
000000e0: 0546 823f 0412 813f 4b2e 823f 7159 803f
000000f0: ba79 853f 34a0 783f 2d07 783f 361b 843f
00000100: cc4d 6c3f 6840 813f c804 813f 662f 8b3f
00000110: 2455 863f c849 993f bf93 7c3f f16b 763f
00000120: a6ef 883f 21d0 7c3f 2846 763f e123 7e3f
00000130: 039e 823f 4430 7d3f f6e8 893f b19d 833f
00000140: 1867 803f 3f26 783f dab0 763f f0ad 873f
00000150: 141f 733f 9cd6 7f3f 064f 873f 3bea 743f
00000160: dc11 7c3f 37c0 823f 0362 823f 79d0 733f
00000170: 885c 773f 4b38 823f 9418 7a3f 240e 7f3f
00000180: 4718 743f df76 713f 53a7 773f d798 813f
00000190: c6fc 813f 2cf9 853f 84f6 7d3f ae3c 7c3f
000001a0: cecf 853f db70 723f 4af6 8c3f 1ddb 853f
000001b0: 15c0 733f f594 7e3f 5c50 7e3f bc28 853f
000001c0: c206 813f 6691 7f3f 3be5 783f 83a1 743f
000001d0: a02e 783f 20cb 873f 0ce2 7e3f d985 863f
000001e0: 62d2 7c3f 95fb 873f f1ab 833f 4d5d 903f
000001f0: 631a 913f 41be 7e3f e842 803f 98c3 833f

bn1.bias f4 [128]
0.048239205 -0.059932783 -0.06354433 -0.077041775 -0.058959693 -7.2413095e-05 0.09663249 0.023795946
0.06308975 -0.11546233 -0.07178922 -0.052230075 -0.06021165 -0.082335204 -0.066544466 -0.15051013
-0.075166665 -0.03299129 -0.08111211 -0.109329425 -0.025521446 -0.05676601 -0.108910136 0.022379972
0.06679219 -0.08122621 0.08238282 -0.09521978 0.004602096 -0.02472638 -0.08086672 -0.101267755
-0.08286465 0.09878872 -0.014287896 -0.11856493 -0.05162075 0.058047116 -0.05997719 -0.025005372
0.06374874 -0.047583356 -0.02040718 0.005210333 -0.035403814 -0.037417296 -0.09880156 -0.040500727
-0.09470235 -0.027635783 0.010670379 -0.043952785 -0.05726542 -0.06612843 -0.08979187 -0.096307985
0.008774759 -0.04610299 -0.024483753 -0.10896932 -0.032151688 0.043719754 -0.09715825 -0.006730777
-0.051172473 -0.05533555 0.005647732 -0.069154486 -0.08994895 0.035314757 -0.093243904 -0.062277462
-0.0073012053 -0.11542165 -0.06300369 0.015149614 -0.1192233 -0.09615404 -0.09202283 -0.012332951
-0.062060464 -0.030079257 -0.04603763 -0.04566669 -0.06920847 -0.009513546 0.02522329 -0.055858336
-0.031060664 -0.03155889 -0.03476726 -0.04552154 -0.028214568 -0.025663735 -0.06256933 -0.04582667
-0.122166276 -0.13986929 -0.055871665 -0.07172223 -0.10901642 -0.0018213447 -0.03990017 -0.061077148
0.027865672 -0.07883628 -0.10526666 -0.15600374 -0.07966048 -0.07030425 -0.016639443 0.108730845
-0.10713614 -0.120629825 -0.008769457 -0.062335778 -0.0018218958 -0.086049125 -0.039848473 0.021673983
-0.038279723 0.008811449 -0.110340804 -0.0045158635 -0.00696016 -3.0269675e-05 -0.06854829 -0.046136532
00000000: 7996 453d 147c 75bd 8823 82bd 14c8 9dbd
00000010: b87f 71bd 7cdc 97b8 41e7 c53d b7ef c23c
00000020: 3335 813d 8477 ecbd 3a06 93bd 34ef 55bd
00000030: 7ea0 76bd 5c9f a8bd 7748 88bd 541f 1abe
00000040: fbf0 99bd e021 07bd 1b1e a6bd 1be8 dfbd
00000050: 5a12 d1bc 7a83 68bd 470c dfbd 3456 b73c
00000060: 58ca 883d ed59 a6bd 53b8 a83d 9702 c3bd
00000070: 2ecd 963b fa8e cabc 739d a5bd 7865 cfbd
00000080: f1b4 a9bd be51 ca3d c817 6abc 2cd2 f2bd
00000090: 4870 53bd d0c2 6d3d a4aa 75bd 11d8 ccbc
000000a0: b38e 823d c4e6 42bd f52c a7bc 71bb aa3b
000000b0: 9703 11bd e142 19bd 7958 cabd 17e4 25bd
000000c0: 4ef3 c1bd 7064 e2bc d0d2 2e3c d607 34bd
000000d0: 258f 6abd 586e 87bd cde4 b7bd 1f3d c5bd
000000e0: 02c4 0f3c 7dd6 3cbd 2792 c8bc 4f2b dfbd
000000f0: 7db1 03bd 7c13 333d e8fa c6bd da8d dcbb
00000100: 3a9a 51bd 88a7 62bd 9c10 b93b dea0 8dbd
00000110: 2837 b8bd 35a6 103d a9f6 bebd a716 7fbd
00000120: f33e efbb 3062 ecbd 1408 81bd 1636 783c
00000130: 582b f4bd 69ec c4bd 7776 bcbd 2510 4abc
00000140: 1d33 7ebd c668 f6bc f491 3cbd ff0c 3bbd
00000150: 2cbd 8dbd b4de 1bbc 13a1 ce3c b6cb 64bd
00000160: ef72 febc e543 01bd 1d68 0ebd cb74 3abd
00000170: 3d22 e7bc c13c d2bc 5924 80bd bfb4 3bbd
00000180: 5032 fabd e539 0fbe b0d9 64bd 1be3 92bd
00000190: 0044 dfbd 30ba eeba 5c6e 23bd 082c 7abd
000001a0: 8d46 e43c ea74 a1bd 0c96 d7bd 72bf 1fbe
000001b0: 0925 a3bd adfb 8fbd 714f 88bc 47ae de3d
000001c0: 316a dbbd c50c f7bd c5ad 0fbc cd53 7fbd
000001d0: aecc eeba 863a b0bd 2738 23bd a38d b13c
000001e0: 33cb 1cbd e55d 103c 5cfa e1bd cff9 93bb
000001f0: 0e12 e4bb a2eb fdb7 0c63 8cbd a9f9 3cbd

bn1.running_mean f4 [128]
-0.15308408 0.15171209 0.03330622 -0.022722466 -0.07916509 -0.068926744 -0.08833646 0.14036757
0.13567986 -0.06318744 -0.02662837 -0.09737725 0.093816616 -0.14226271 -0.13352117 -0.12254187
0.017526895 -0.065479785 0.07596556 0.046884228 0.10202471 -0.12691577 0.005802701 -0.02652537
-0.026411995 -0.040264875 -0.10032305 0.027505346 0.09259304 -0.0045377812 0.1476774 0.0938951
0.06717019 -0.039300848 -0.12868027 0.13193746 0.09075698 0.051663436 -0.09543014 0.053425055
-0.008944344 -0.07060993 0.1397622 -0.08315269 -0.0965719 -0.05170457 -0.08362145 0.045069415
-0.05637512 -0.14745905 -0.015137439 0.074904345 0.09567393 0.051469125 -0.02495979 -0.017729849
-0.03130789 0.11540857 -0.11480451 -0.057042714 -0.13569248 -0.15204158 -0.07970238 -0.073842034
0.011595579 -0.055043057 -0.12773763 0.103449404 -0.044887338 -0.011820266 -0.05437783 0.046535097
-0.14504224 0.1473312 0.13482203 0.0015088374 -0.052650716 -0.031667367 0.10220713 -0.1564918
0.094125874 -0.13954587 0.12444824 0.0360978 0.13146952 0.09857453 0.022824736 -0.13691354
0.15664592 -0.101127565 -0.10190959 -0.15714067 -0.008366227 -0.014243808 0.08224902 0.058615167
0.09579111 0.039200082 0.07880844 -0.14584056 -0.045367297 0.032711603 -0.13387781 -0.15164573
0.028344402 0.11424314 0.085529156 0.0751946 -0.005167263 -0.12479894 -0.1434935 0.104808815
0.1303567 -0.09546167 0.057953537 -0.13323514 -0.14341503 -0.12238311 0.07282224 0.14244358
-0.09477052 0.042173225 -0.036131363 -0.09035088 -0.10159384 -0.08553721 0.16326775 0.06480126
00000000: 13c2 1cbe 6a5a 1b3e 1a6c 083d 7724 babc
00000010: 4f21 a2bd 7729 8dbd bfe9 b4bd 84bc 0f3e
00000020: a9ef 0a3e 6b68 81bd bd23 dabc b96d c7bd
00000030: ed22 c03d 51ad 11be c6b9 08be 3bf7 fabd
00000040: 9094 8f3c 441a 86bd d593 9b3d ad09 403d
00000050: 55f2 d03d 35f6 01be 9624 be3b bc4b d9bc
00000060: f85d d8bc c8ec 24bd 2c76 cdbd e452 e13c
00000070: 6ba1 bd3d abb1 94bb bf38 173e 134c c03d
00000080: 8690 893d edf9 20bd c3c4 03be 9d1a 073e
00000090: ccde b93d 0a9d 533d e170 c3bd 3bd4 5a3d
000000a0: 4c8b 12bc f09b 90bd d21d 0f3e f54b aabd
000000b0: 7dc7 c5bd 2cc8 53bd b941 abbd b59a 383d
000000c0: 99e9 66bd 81ff 16be 0503 78bc 7367 993d
000000d0: b2f0 c33d 4ad1 523d 7978 ccbc 303e 91bc
000000e0: b43c 00bd 545b ec3d a01e ebbd 9fa5 69bd
000000f0: f8f2 0abe cab0 1bbe 003b a3bd 7e3a 97bd
00000100: 62fb 3d3c d474 61bd a7cd 02be 48dd d33d
00000110: c9db 37bd caa9 41bc 4abb 5ebd 969b 3e3d
00000120: f485 14be fddd 163e c90e 0a3e 2fc4 c53a
00000130: 47a8 57bd a4b5 01bd f951 d13d 633f 20be
00000140: 11c5 c03d 1de5 0ebe b8de fe3d 49db 133d
00000150: f29f 063e 71e1 c93d f1fa ba3c 1033 0cbe
00000160: ca67 203e f81b cfbd fab5 d0bd 7ce9 20be
00000170: 8012 09bc dc5e 69bc 2d72 a83d 7516 703d
00000180: 212e c43d 4490 203d 5266 a13d 3a57 15be
00000190: 0fd3 39bd 9afc 053d 4417 09be 0549 1bbe
000001a0: 8532 e83c 4ff8 e93d e929 af3d a0ff 993d
000001b0: 2552 a9bb 9696 ffbd f6ef 12be 01a6 d63d
000001c0: 3a7c 053e 6881 c3bd b060 6d3d cb6e 08be
000001d0: 64db 12be ffa3 fabd d423 953d bbdc 113e
000001e0: 0c17 c2bd d5bd 2c3d 7bfe 13bd e209 b9bd
000001f0: 6e10 d0bd 222e afbd a92f 273e 86b6 843d

bn1.running_var f4 [128]
0.31735456 0.223543 0.4200434 0.36680827 0.47827196 0.16636647 0.08427241 0.48321512
0.20195754 0.09788883 0.13425483 0.13324156 0.14787506 0.3799969 0.21293963 0.22045569
0.29155555 0.687874 0.1658358 0.3319561 0.22408967 0.30840868 0.28405437 0.5694093
0.14878969 0.18485738 0.06255329 0.14740923 0.33721367 0.22231674 0.2178003 0.29760462
0.4053156 0.20693803 0.63016623 0.19005202 0.16761862 0.28752068 0.30703953 0.44554526
0.06537895 0.4706629 0.36197552 0.299768 0.10083406 0.1397115 0.23657712 0.24867035
0.258322 1.4955292 0.4192497 0.34226 0.14331695 1.1666056 0.3497757 0.17186193
2.369445 0.26990777 1.1498969 0.31255257 0.18093348 0.18558922 0.5071713 0.376629
0.99310106 0.20596197 0.7405306 0.13729922 0.17771633 0.14815745 0.19047119 0.15206556
0.45615965 0.38029274 0.27000642 0.07905166 0.122844175 0.22538048 0.16928859 0.16678315
0.4462548 0.31550083 0.6904756 0.1785758 0.16907859 0.27557173 0.19783516 0.26986197
0.26870304 0.34561497 0.31191382 0.30913365 1.3200006 1.3649036 0.47846246 0.24044807
0.22947966 0.21203539 0.5645083 0.44787657 0.15394188 0.19606856 0.37185878 0.26941678
0.3424804 0.31207797 0.12015787 0.22406824 0.53685737 0.123160556 0.8080053 0.1421454
0.14747758 0.22487348 2.592059 0.10980422 1.8845886 0.09903177 0.41590968 0.45743847
0.31259543 0.3215924 0.20738767 0.13788317 0.25317898 0.66708237 0.27829367 0.6846103
00000000: 4c7c a23e 75e8 643e ee0f d73e 4bce bb3e
00000010: 10e0 f43e f95b 2a3e 0397 ac3d f967 f73e
00000020: f5cd 4e3e f079 c83d 197a 093e 7a70 083e
00000030: 8f6c 173e f48e c23e d90c 5a3e 23bf 613e
00000040: c546 953e 8318 303f dcd0 293e 26f6 a93e
00000050: c377 653e bee7 9d3e 936f 913e cfc4 113f
00000060: 535c 183e 414b 3d3e f01b 803d 72f2 163e
00000070: 45a7 ac3e 00a7 633e 0b07 5f3e a25f 983e
00000080: 8785 cf3e 90e7 533e 9352 213f ff9c 423e
00000090: 37a4 2b3e e935 933e 4934 9d3e 821e e43e
000000a0: 66e5 853d bafa f03e db54 b93e 317b 993e
000000b0: 1682 ce3d 8810 0f3e 4641 723e 71a3 7e3e
000000c0: c842 843e 806d bf3f e6a7 d63e b43c af3e
000000d0: aec1 123e 5553 953f cd15 b33e 93fc 2f3e
000000e0: fda4 1740 5a31 8a3e d22f 933f e406 a03e
000000f0: a046 393e 1a0b 3e3e fad5 013f 84d5 c03e
00000100: df3b 7e3f b2e7 523e 6a93 3d3f 2b98 0c3e
00000110: 45fb 353e 96b6 173e e10a 433e 13b7 1b3e
00000120: c28d e93e bbb5 c23e 483e 8a3e d6e5 a13d
00000130: ba95 fb3d 24ca 663e fd59 2d3e 34c9 2a3e
00000140: 827b e43e 5389 a13e 02c3 303f 93dc 363e
00000150: f022 2d3e bd17 8d3e 4d95 4a3e 592b 8a3e
00000160: 7293 893e 72f4 b03e 2bb3 9f3e c446 9e3e
00000170: c8f5 a83f 29b5 ae3f 08f9 f43e 0538 763e
00000180: b7fc 6a3e ce1f 593e 9e83 103f 1450 e53e
00000190: f1a2 1d3e 32c6 483e 4664 be3e fff0 893e
000001a0: 9759 af3e afc8 9f3e 5415 f63d 2572 653e
000001b0: 7c6f 093f 9a3b fc3d 6fd9 4e3f 908e 113e
000001c0: 5d04 173e 3c45 663e 4be4 2540 09e1 e03d
000001d0: 333a f13f 2bd1 ca3d 1df2 d43e 6035 ea3e
000001e0: 820c a03e c2a7 a43e 6f5d 543e 3f31 0d3e
000001f0: ada0 813e e9c5 2a3f 827c 8e3e 9f42 2f3f

fc2.weight f4 [64, 128]
-0.07863642 0.013016319 0.07617321 -0.09857604 0.04997543 -0.08314605 -0.13890786 0.022078
-0.023379773 -0.044034917 0.025121804 0.06100817 0.030091135 0.06740321 -0.066583365 -0.038002975
0.0626461 -0.007831414 0.04310935 -0.01419568 -0.04535932 0.065965734 0.042120505 0.036994953
-0.011400835 -0.054406155 -0.10258082 0.08855149 0.0020325158 0.044716828 0.014464929 -0.12827368
0.013932864 -0.07925965 0.04467702 0.06172795 -0.09385837 -0.00094556116 0.013020139 0.008793109
-0.113782756 0.008368499 -0.056506548 -0.02133551 -0.04049252 0.05652086 -0.061060928 -0.07553615
-0.022017911 -0.052541837 -0.013760096 -0.06617935 0.008457857 0.021347813 -0.055683617 -0.053683706
0.029569719 0.057458155 0.053441405 0.013746958 -0.023565881 -0.03442399 0.0027734952 0.08483343
-0.06577051 -0.07326543 -0.045620468 0.057990935 -0.054287184 -0.033953015 0.06152975 0.051632013
0.01086769 0.08045306 0.022346238 0.07124847 -0.0760022 0.10462078 0.019646877 0.0017029358
0.038619895 -0.075742826 0.025576048 -0.068772264 0.0017939989 0.0025853924 -0.048420597 0.07106965
-0.027135916 -0.02841023 0.064087525 0.026253678 -0.069011286 0.0005134205 0.006528137 0.04215257
0.001936775 0.07691185 -0.052158084 0.09182001 0.039184336 0.08858239 0.05059065 0.014610192
-0.037833385 -0.1070471 -0.01898964 -0.064615294 -0.05027158 0.014848509 -0.10729578 -0.09807179
-0.07702388 -0.054659136 -0.048095 0.06624734 -0.031866055 0.015585438 -0.0064480687 -0.04487135
-0.07882025 -0.038594965 -0.027846614 0.027360544 -0.042075977 -0.12152692 0.080004886 -0.060374275
-0.0061758743 0.046919465 -0.0328189 0.026800534 0.07824237 -0.055694286 -0.076184295 -0.02962372
0.029218806 0.0047627236 -0.0013157842 -0.029744677 0.0028262371 0.10135897 0.05490146 0.016995223
-0.01525125 0.06999477 0.07738875 0.082345456 0.064771414 0.009621544 0.08809886 -0.0029256837
0.027328726 -0.06705521 -0.05446295 -0.03835117 -0.031119095 0.006373762 0.053343993 -0.055881675
-0.04668847 0.08140233 0.08411731 0.08778014 -0.030523775 0.09842898 0.027858477 -0.011694503
0.005298665 0.071267374 -0.013145906 -0.036623474 -0.05599885 0.050656185 0.075998336 -0.04506823
0.07699468 0.07224983 -0.06588059 -0.114299916 -0.073000535 0.027853586 0.010563892 0.071532756
-0.05852347 0.013411366 -0.032971926 0.04945463 0.03618283 -0.052207757 -0.042820156 0.08486843
-0.036351044 -0.045144185 0.017831272 -0.027552396 0.02811009 0.01790574 0.012334747 0.00058826956
0.022487897 -0.055184826 -0.054113604 -0.07104953 -0.033113074 0.020747049 -0.08693146 -0.023357498
-0.09641518 0.03702789 0.026185967 -0.02995551 0.054280832 0.042449225 -0.028274968 0.06652118
0.040184014 -0.014135309 -0.05539794 -0.0116041 -0.01652629 0.047890652 0.03344181 0.076101646
-0.024534535 0.02753647 -0.042532235 0.10867681 0.06878552 0.0039134594 -0.04227167 0.099296264
0.009855125 0.055972036 -0.10135353 -0.08670324 -0.04313165 0.052569084 0.008709107 0.00648006
-0.066993505 0.0801254 0.04892289 -0.07851397 -0.063549034 -0.08137331 -0.056800347 0.038172722
-0.05140674 0.045932505 -0.07981519 -0.043038875 0.035933267 0.041333534 0.03663623 -0.05538155
00000000: 220c a1bd 6642 553c b300 9c3d 3ce2 c9bd
00000010: 09b3 4c3d 7a48 aabd dd3d 0ebe ecdc b43c
00000020: f086 bfbc f55d 34bd 3ecc cd3c b4e3 793d
00000030: af81 f63c b20a 8a3d dc5c 88bd 02a9 1bbd
00000040: 994c 803d 554f 00bc 6e93 303d ff94 68bc
00000050: b2ca 39bd 0b19 873d 8d86 2c3d 0588 173d
00000060: 91ca 3abc fdd8 5ebd e515 d2bd 7c5a b53d
00000070: f533 053b fe28 373d 4ffe 6c3c 2d5a 03be
00000080: ab46 643c e252 a2bd 40ff 363d 72d6 7c3d
00000090: d138 c0bd 89df 77ba 6c52 553c f910 103c
000000a0: ef06 e9bd 071c 093c 6973 67bd cfc7 aebc
000000b0: 7cdb 25bd 6b82 673d 061b 7abd b2b2 9abd
000000c0: e85e b4bc 1c36 57bd 0772 61bc 0a89 87bd
000000d0: d392 0a3c 9ce1 ae3c 8114 64bd 72e3 5bbd
000000e0: 323c f23c 3e59 6b3d 60e5 5a3d ec3a 613c
000000f0: 3c0d c1bc 2b00 0dbd 87c3 353b 26bd ad3d
00000100: b0b2 86bd 300c 96bd 87dc 3abd e787 6d3d
00000110: 3d5c 5ebd 5112 0bbd 9e06 7c3d 177c 533d
00000120: 650e 323c 93c4 a43d 750f b73c b8ea 913d
00000130: 0ba7 9bbd 6b43 d63d 7df2 a03c 0b35 df3a
00000140: e52f 1e3d 0e1f 9bbd dc84 d13c 79d8 8cbd
00000150: 9d24 eb3a b06f 293b ad54 46bd f78c 913d
00000160: 244c debc 92bc e8bc 5240 833d f411 d73c
00000170: ca55 8dbd 1197 063a fbe9 d53b 2ca8 2c3d
00000180: 63db fd3a f683 9d3d b7a3 55bd 210c bc3d
00000190: c17f 203d af6a b53d 2438 4f3d 965f 6f3c
000001a0: 2ef7 1abd 833b dbbd 2990 9bbc 0655 84bd
000001b0: 93e9 4dbd 2947 733c e4bd dbbd ddd9 c8bd
000001c0: b2be 9dbd 42e2 5fbd 43ff 44bd afac 873d
000001d0: fb85 02bd 115a 7f3c 524a d3bb 05cb 37bd
000001e0: 836c a1bd c115 1ebd 951e e4bc 3823 e03c
000001f0: dc57 2cbd 1be3 f8bd 9ad9 a33d 044b 77bd
00000200: fd5e cabb a02e 403d 1c6d 06bd cb8c db3c
00000210: 893d a03d b11f 64bd 8306 9cbd 72ad f2bc
00000220: 475c ef3c 9f10 9c3b 6476 acba 1cab f3bc
00000230: 6438 393b 4b95 cf3d 5ae0 603d 9139 8b3c
00000240: 61e0 79bc 6b59 8f3d fe7d 9e3d bca4 a83d
00000250: e0a6 843d aea3 1d3c 2d6d b43d d4bc 3fbb
00000260: 7ee0 df3c 3e54 89bd 8b14 5fbd 1e16 1dbd
00000270: 79ed febc feda d03b 3b7f 5a3d 2fe4 64bd
00000280: 693c 3fbd 44b6 a63d b245 ac3d 13c6 b33d
00000290: ff0c fabc 2295 c93d 7637 e43c 4d9a 3fbc
000002a0: 6ca0 ad3b a1f4 913d ed61 57bc 7f02 16bd
000002b0: 0d5f 65bd dc7c 4f3d 04a5 9b3d 7799 38bd
000002c0: 63af 9d3d b8f7 933d 67ec 86bd 1316 eabd
000002d0: 4e81 95bd 342d e43c 2d14 2d3c c47f 923d
000002e0: 4eb6 6fbd 59bb 5b3c 920d 07bd f090 4a3d
000002f0: 7234 143d cdd7 55bd 3064 2fbd 80cf ad3d
00000300: d5e4 14bd 1ce9 38bd e312 923c 90b5 e1bc
00000310: 2247 e63c 0faf 923c ae17 4a3c 1a36 1a3a
00000320: 8a38 b83c 7c09 62bd 3aa6 5dbd 6a82 91bd
00000330: 93a1 07bd b7f5 a93c 1f09 b2bd 3958 bfbc
00000340: 5275 c5bd 8faa 173d f483 d63c 4265 f5bc
00000350: 9455 5e3d 3ddf 2d3d e8a0 e7bc 423c 883d
00000360: fe97 243d c897 67bc f3e8 62bd 1f1f 3ebc
00000370: 2462 87bc fd28 443d 48fa 083d 2edb 9b3d
00000380: a6fc c8bc 2a94 e13c 4836 2ebd f391 de3d
00000390: 6cdf 8c3d 7a3c 803b 0f25 2dbd d75b cb3d
000003a0: 6477 213c ef42 653d 7192 cfbd 7891 b1bd
000003b0: d0aa 30bd ae52 573d a4b0 0e3c af56 d43b
000003c0: e433 89bd c918 a43d 5e63 483d efcb a0bd
000003d0: ff25 82bd 0da7 a6bd 7ba7 68bd 005b 1c3d
000003e0: e08f 52bd b923 3c3d 2576 a3bd 8849 30bd
000003f0: c32e 133d 5a4d 293d df0f 163d c4d7 62bd

fc2.bias f4 [64]
0.024769844 0.085574366 -0.06328908 0.03128267 -0.015849082 -0.053361207 0.07158517 -0.036648516
-0.0625841 0.07724911 0.025229763 -0.022723483 -0.03086346 -0.03891767 0.022864234 -0.08168332
0.020398231 -0.032630384 0.01690993 -0.03300789 0.054278858 -0.039148126 0.040128637 0.0677951
-0.043105718 0.029892249 -0.0004005729 0.049154602 -0.039948493 0.07167792 0.045185912 -0.020908412
0.05434235 -0.0071782614 -0.0047973543 -0.05953375 -0.00667848 0.035008214 0.045002457 0.010557215
0.00092505536 0.037777685 0.014706313 0.04945083 0.0527656 -0.08227859 -0.011417771 0.053359095
0.036630303 -0.072871804 0.03135062 -0.082112946 0.06607005 0.015046201 -0.060814753 -0.04215166
-0.032367762 -0.07906177 -0.07876763 -0.01555369 -0.0038121426 0.054188143 0.07706317 -0.061184824
00000000: 21ea ca3c 9d41 af3d b59d 81bd 4222 003d
00000010: efd5 81bc 4891 5abd 3f9b 923d c11c 16bd
00000020: 182c 80bd c834 9e3d a6ae ce3c 9926 babc
00000030: 5ed5 fcbc 2268 1fbd c64d bb3c 9649 a7bd
00000040: 311a a73c 70a7 05bd b286 8a3c 4833 07bd
00000050: 8253 5e3d c959 20bd ed5d 243d 28d8 8a3d
00000060: 9f8f 30bd 97e0 f43c fc03 d2b9 5656 493d
00000070: 08a1 23bd e0cb 923d dd14 393d 1e48 abbc
00000080: 1696 5e3d 9f37 ebbb 2033 9dbb a9d9 73bd
00000090: 27d7 dabb c664 0f3d 7f54 383d 2bf8 2c3c
000000a0: 6a7f 723a c6bc 1a3d bff2 703c f48c 4a3d
000000b0: be20 583d ad81 a8bd 9a11 3bbc 118f 5a3d
000000c0: a809 163d d03d 95bd 8269 003d d52a a8bd
000000d0: bc4f 873d 5784 763c e418 79bd 38a7 2cbd
000000e0: 0f94 04bd 23eb a1bd ec50 a1bd e7d4 7ebc
000000f0: 24d5 79bb 63f4 5d3d 4cd3 9d3d f09c 7abd

bn2.weight f4 [64]
0.972515 0.9816305 0.93704695 0.9846188 1.0587168 1.0831227 0.9888667 1.0107948
0.94996166 1.1671923 0.98161656 1.0626779 1.1384348 1.131814 1.0203294 1.0062846
0.9908776 0.9955328 1.0066886 1.0101285 1.114369 1.1704276 0.9823762 1.0133381
0.9547342 0.9855788 1.051925 1.0419677 1.1991087 0.9849047 0.9796859 1.0164475
1.0375252 0.9725361 1.1064308 1.0133228 0.97234195 1.0526527 0.99887353 0.9578225
0.9975118 1.0248032 0.9665217 0.9984014 0.9828815 0.944363 1.0782716 1.0019314
1.1171242 0.97177684 0.9516889 0.95833296 0.9696795 1.051059 1.0018693 1.0050843
1.152741 0.9481365 0.97447807 1.1016477 1.0540497 0.9803918 1.0206465 0.99137604
00000000: bef6 783f 234c 7b3f 4fe2 6f3f fa0f 7c3f
00000010: 0884 873f c4a3 8a3f 5e26 7d3f b961 813f
00000020: b030 733f 8f66 953f 394b 7b3f d405 883f
00000030: 3bb8 913f 48df 903f 279a 823f efcd 803f
00000040: 28aa 7d3f 3ddb 7e3f 2cdb 803f e44b 813f
00000050: a5a3 8e3f 92d0 953f 027d 7b3f 10b5 813f
00000060: 7669 743f e44e 7c3f 7aa5 863f 335f 853f
00000070: 657c 993f b722 7c3f b2cc 7a3f f41a 823f
00000080: a0cd 843f 20f8 783f 869f 8d3f 90b4 813f
00000090: 67eb 783f 53bd 863f 2db6 7f3f db33 753f
000000a0: ef5c 7f3f c02c 833f f76d 773f 3c97 7f3f
000000b0: 1f9e 7b3f c6c1 713f ce04 8a3f 4a3f 803f
000000c0: edfd 8e3f 5ec6 783f e2a1 733f 4f55 753f
000000d0: ea3c 783f 1a89 863f 413d 803f 9aa6 803f
000000e0: 048d 933f 13b9 723f 6577 793f cb02 8d3f
000000f0: 1aeb 863f f5fa 7a3f 8ba4 823f d2ca 7d3f

bn2.bias f4 [64]
-0.06913886 -0.13540125 -0.07789953 -0.091670275 -0.045109354 -0.014270774 0.00043338418 -0.0982385
-0.085373856 0.13357222 -0.002432533 0.10780964 0.07716741 0.15942886 -0.11455099 -0.028359253
0.026387192 -0.14432354 0.092227146 0.12991834 0.14694363 0.12310426 0.0037528477 -0.092507906
-0.07201825 0.031780668 -0.07550105 -0.09870959 0.14363554 -0.09668783 -0.049607813 -0.017659768
-0.005318916 -0.053040408 0.07806978 -0.0087988535 -0.1682022 0.2028972 0.0120149255 -0.051092237
-0.09440703 0.022094352 -0.11703905 -0.01671482 0.023390306 -0.06419514 0.00062788907 -0.08694877
0.1314695 -0.12687197 -0.029265631 -0.074728966 -0.15118355 0.05414146 0.012897764 0.0052030324
0.1144666 -0.06916671 0.0079671955 0.06747649 0.111561306 -0.11564219 -0.028750833 0.059003938
00000000: ad98 8dbd a0a6 0abe ca89 9fbd a0bd bbbd
00000010: 96c4 38bd f7cf 69bc d737 e339 4431 c9bd
00000020: 7dd8 aebd 28c7 083e 226b 1fbb 4dcb dc3d
00000030: f209 9e3d 5241 233e b699 eabd aa51 e8bc
00000040: f429 d83c 8dc9 13be 96e1 bc3d 5009 053e
00000050: 6478 163e 161e fc3d 56f2 753b c974 bdbd
00000060: 4e7e 93bd 722c 023d 4ba0 9abd 4128 cabd
00000070: 3215 133e 4504 c6bd 9031 4bbd 38ab 90bc
00000080: 4d4a aebb e640 59bd 0ce3 9f3d 1129 10bc
00000090: 333d 2cbe 49c4 4f3e 40da 443c 1846 51bd
000000a0: 7958 c1bd 37ff b43c 2bb2 efbd 85ed 88bc
000000b0: 079d bf3c be78 83bd ec98 243a 3212 b2bd
000000c0: f19f 063e baea 01be 7abe efbc 800b 99bd
000000d0: dccf 1abe 70c3 5d3d 2551 533c 337e aa3b
000000e0: 776d ea3d 47a7 8dbd d788 023c 1d31 8a3d
000000f0: 417a e43d d0d5 ecbd de86 ebbc 1dae 713d

bn2.running_mean f4 [64]
-0.29697785 0.06797563 -0.21737456 -0.0026005502 -0.61557907 -0.5377031 -0.024374535 -0.055120606
-0.45370728 -0.26543674 -0.27593195 -0.2836202 -0.49175602 -0.2662871 -0.050465662 -0.2111918
-0.058909524 -0.11091345 -0.003622634 -0.18331821 -0.13456008 -0.26710457 -0.008927203 0.15236431
-0.37120718 -0.13637368 -0.6076615 0.096429445 -0.4375066 -0.067393534 -0.48904574 -0.35136607
-0.31977722 -0.5005626 -0.048104916 -0.39935833 -0.32213846 -0.40596572 -0.13216625 -0.1843109
-0.045007527 0.10078852 -0.06558714 -0.28473085 -0.2771511 -0.354678 -0.35251555 -0.16564675
-0.06233627 0.020315554 -0.34219587 -0.45143232 -0.14659223 -0.15005639 -0.4138599 -0.21460032
-0.34264314 -0.34520367 -0.12722571 -0.20454276 -0.123028174 -0.1203509 0.15815793 -0.16213913
00000000: 7b0d 98be cf36 8b3d 7097 5ebe fe6d 2abb
00000010: 9796 1dbf e9a6 09bf 1bad c7bc 25c6 61bd
00000020: 524c e8be 53e7 87be f446 8dbe ab36 91be
00000030: 72c7 fbbe c856 88be 15b5 4ebd aa42 58be
00000040: 1d4b 71bd 9726 e3bd b769 6dbb c5b7 3bbe
00000050: 1eca 09be eec1 88be 6743 12bc 6405 1c3e
00000060: de0e bebe 8ba5 0bbe b48f 1bbf cd7c c53d
00000070: dd00 e0be 9f05 8abd 3464 fabe 41e6 b3be
00000080: d7b9 a3be df24 00bf a909 45bd b278 ccbe
00000090: 55ef a4be bdda cfbe 9756 07be ffbb 3cbe
000000a0: d059 38bd 366a ce3d 8d52 86bd 3ec8 91be
000000b0: c0e6 8dbe 5b98 b5be eb7c b4be 4d9f 29be
000000c0: 5154 7fbd ce6c a63c 4c34 afbe 2322 e7be
000000d0: 461c 16be 62a8 19be 72e5 d3be 30c0 5bbe
000000e0: ec6e afbe 89be b0be 7547 02be a873 51be
000000f0: 32f6 fbbd 887a f6bd 27f4 213e cd07 26be

bn2.running_var f4 [64]
0.61001897 0.6112238 0.70655674 0.6270299 0.36799455 0.43720677 0.8171583 0.55523247
0.60144323 1.259225 0.66350883 0.76987576 0.91825783 1.122917 0.55435354 0.6254738
0.8599663 0.43644008 1.0319396 1.1673695 0.98098135 1.2020091 0.71869963 0.5940405
0.60186565 0.9021399 0.23959628 0.8025923 0.7987863 0.39882088 0.52649903 0.7499615
0.52089643 0.729836 0.82766587 0.4222311 0.32884738 0.78978914 0.80095506 0.44824335
0.6133096 0.8663351 0.49289522 0.65361357 0.6410031 0.6365272 0.2039144 0.52307606
1.0189272 0.434363 0.62171435 0.37292778 0.41249064 0.6641833 0.6702713 0.7060406
1.2663752 0.36336645 0.6437476 0.64644074 1.3013486 0.241272 0.9618316 0.6871811
00000000: 342a 1c3f 2a79 1c3f e7e0 343f 0885 203f
00000010: c869 bc3e 91d9 df3e 4931 513f b723 0e3f
00000020: 2ff8 193f 492e a13f b7db 293f 9416 453f
00000030: f212 6b3f bfbb 8f3f 1dea 0d3f 0d1f 203f
00000040: c026 5c3f 1375 df3e 9916 843f 5d6c 953f
00000050: 9821 7b3f 6fdb 993f b3fc 373f 0a13 183f
00000060: de13 1a3f a4f2 663f ba58 753e b076 4d3f
00000070: 427d 4c3f 4032 cc3e a4c8 063f 7afd 3f3f
00000080: 7859 053f 88d6 3a3f e9e1 533f ad2e d83e
00000090: af5e a83e 9f2f 4a3f 640b 4d3f 2780 e53e
000000a0: dc01 1d3f 23c8 5d3f c35c fc3e 3853 273f
000000b0: c718 243f 72f3 223f f0ce 503e 50e8 053f
000000c0: 356c 823f d464 de3e ac28 1f3f 64f0 be3e
000000d0: f931 d33e eb07 2a3f e696 2b3f 14bf 343f
000000e0: 9518 a23f 2b0b ba3e a5cc 243f 247d 253f
000000f0: 9792 a63f 0210 773e 993a 763f 1aeb 2f3f

fc3.weight f4 [32, 64]
-0.00971054 -0.094025485 0.0044246432 -0.022691892 -0.08278905 0.0439095 -0.09130071 -0.111303434
0.07828206 -0.08201855 -0.08573888 -0.08757366 -0.02184794 -0.09333962 -0.0331557 -0.08178445
-0.071014605 0.024525689 0.066241354 -0.041521456 -0.09634741 -0.013507878 -0.13168126 0.03184729
-0.106466785 -0.11461904 0.13272701 0.09194086 0.03332357 0.04954357 -0.09973734 -0.10543122
0.028503962 -0.0401309 -0.03255644 -0.18745835 -0.08316221 -0.06461197 0.0895073 -0.0534742
-0.088914 -0.019092884 0.03235041 -0.07171243 -0.017289983 -0.037114616 -0.21316653 -0.053543743
-0.09937962 -0.0522864 -0.062547594 -0.08660667 -0.06808911 -0.11274965 -0.08439379 -0.0405451
-0.029629325 -0.04405491 -0.11622597 -0.08768726 -0.06069938 -0.09347505 0.092035525 -0.07057969
0.008740111 0.1142273 0.06335965 0.029687602 0.021208564 -0.038035627 0.046835285 -0.029679427
-0.07192487 -0.013446309 -0.011585904 -0.10755885 -0.06484521 0.026537051 -0.055488035 -0.08779696
0.13183187 0.16077213 0.045294825 -0.06554008 0.009860732 -0.036209874 0.10407868 -0.052882742
0.024763359 0.03362125 -0.07282838 0.08116411 0.031843837 0.021487916 -0.06406164 0.045002908
-0.014659349 -0.0828883 -0.071613334 -0.066705555 0.017210858 0.018519357 -0.12297203 0.046432517
0.12485741 0.13025253 0.06453597 -0.055083428 0.059381604 -0.017527552 -0.0070736296 0.14812072
-0.03979715 0.048738062 0.05639777 -0.026084464 -0.07970226 -0.0870451 -0.10064426 -0.04009628
-0.092010334 0.088950604 0.016606018 0.026836576 -0.075138874 -0.07844122 0.13348925 -0.10842017
-0.033231005 -0.075243615 0.03104858 -0.07825077 -0.18383501 -0.022057874 -0.033800777 0.059920743
-0.016350256 -0.08686626 0.004305875 -0.07452703 -0.017889509 -0.011708035 -0.098962754 -0.007357546
0.044553272 -0.10970767 -0.043247335 -0.09612129 0.021280339 -0.0419221 -0.120516025 -0.10263033
0.029791852 0.03318056 -0.06810615 -0.012326439 0.019935083 0.052501574 -0.113121994 -0.04901369
-0.11175832 0.082102746 -0.17043251 -0.12722492 0.07888852 -0.047756065 -0.032709014 -0.031096945
0.084806226 0.016539207 -0.008327533 -0.10322493 -0.1260538 0.06221421 -0.20436609 0.0660555
-0.0046329037 -0.037725233 -0.086863235 -0.07160002 -0.016005227 -0.13492315 -0.18017031 -0.0523104
-0.020977624 0.048227295 -0.16216157 -0.10681208 -0.1051035 -0.09984108 0.0025576586 -0.0866009
-0.10980584 -0.034844045 -0.012376942 0.009888812 0.015705038 -0.18708867 0.08884555 -0.063450456
-0.007611015 -0.16364227 -0.03499215 -0.12468381 -0.07260501 -0.05877885 0.055051476 0.047020193
-0.07629794 0.00038980498 -0.13475972 -0.08947298 -0.10182884 -0.17297672 0.05249497 -0.025912622
-0.049922593 -0.12742949 -0.17452365 -0.05061983 -0.1680523 0.092160314 0.037539918 -0.013613559
-0.06915523 -0.21492672 -0.04120167 0.03885397 0.034557726 -0.06825947 -0.115532465 -0.0101992
0.025296582 -0.10866352 0.080164246 -0.021990066 -0.13801196 0.06246343 -0.02921504 -0.04454932
-0.07430917 0.031226637 0.03967473 -0.0010782373 0.004504654 0.032336164 0.005428821 -0.024221513
-0.08239973 0.02779276 0.059430175 0.010773405 -0.06406106 -0.012428483 -0.06179599 0.011871325
00000000: f518 1fbc 6f90 c0bd 99fc 903b 59e4 b9bc
00000010: 4e8d a9bd 73da 333d defb babd 0ef3 e3bd
00000020: 5852 a03d 57f9 a7bd de97 afbd d259 b3bd
00000030: 73fa b2bc d828 bfbd 45ce 07bd 9b7e a7bd
00000040: 1b70 91bd 19ea c83c 8ca9 873d 6712 2abd
00000050: ca51 c5bd 2650 5dbc 74d7 06be 4e72 023d
00000060: 420b dabd 63bd eabd 97e9 073e 7d4b bc3d
00000070: 4c7e 083d 33ee 4a3d 1743 ccbd 53ec d7bd
00000080: 2481 e93c 4c60 24bd e759 05bd 15f5 3fbe
00000090: f350 aabd 4853 84bd 9a4f b73d c307 5bbd
000000a0: 8b18 b6bd ae68 9cbc dd81 043d f7dd 92bd
000000b0: b9a3 8dbc 7f05 18bd 5448 5abe af50 5bbd
000000c0: 8b87 cbbd 442a 56bd f418 80bd d65e b1bd
000000d0: 4e72 8bbd 4ae9 e6bd a7d6 acbd 9e12 26bd
000000e0: 33b9 f2bc ec72 34bd e207 eebd 6195 b3bd
000000f0: ea9f 78bd d96f bfbd 1f7d bc3d 168c 90bd
00000100: af32 0f3c 01f0 e93d b4c2 813d 6a33 f33c
00000110: 95bd ad3c 3fcb 1bbd 5bd6 3f3d 4522 f3bc
00000120: 594d 93bd e84d 5cbc ced2 3dbc d047 dcbd
00000130: 91cd 84bd 3b64 d93c 6c47 63bd e4ce b3bd
00000140: effe 063e 73a1 243e 1187 393d e139 86bd
00000150: e88e 213c ce50 14bd 3427 d53d 939b 58bd
00000160: 87dc ca3c 70b6 093d 0c27 95bd 5e39 a63d
00000170: af6e 023d 6d07 b03c c032 83bd f854 383d
00000180: c42d 70bc 57c1 a9bd 03aa 92bd ec9c 88bd
00000190: c9fd 8c3c e8b5 973c c2d8 fbbd 0630 3e3d
000001a0: 3eb5 ff3d eb60 053e 6f2b 843d 299f 61bd
000001b0: 203a 733d f195 8fbc e8c9 e7bb f5ac 173e
000001c0: 5602 23bd 90a1 473d 5901 673d 16af d5bc
000001d0: f03a a3bd b444 b2bd 941e cebd ff3b 24bd
000001e0: ea6f bcbd bc2b b63d 5809 883c 61d8 db3c
000001f0: 69e2 99bd caa5 a0bd 68b1 083e 650b debd
00000200: 3c1d 08bd 5319 9abd 9759 fe3c f141 a0bd
00000210: 3f3f 3cbe b7b2 b4bc af72 0abd 746f 753d
00000220: f9f0 85bc f0e6 b1bd 4c18 8d3b a1a1 98bd
00000230: 058d 92bc 0fd3 3fbc fcac cabd 9217 f1bb
00000240: 7e7d 363d 6aae e0bd 1e24 31bd 3ddb c4bd
00000250: 1b54 ae3c 82b6 2bbd 1bd1 f6bd da2f d2bd
00000260: 0b0e f43c 57e8 073d 3d7b 8bbd d5f4 49bc
00000270: e64e a33c e40b 573d 81ac e7bd 94c2 48bd
00000280: 8ce1 e4bd 7c25 a83d dc85 2ebe 4047 02be
00000290: 4e90 a13d dd9b 43bd e3f9 05bd 05bf febc
000002a0: e3ae ad3d 3b7d 873c 3470 08bc 9867 d3bd
000002b0: 3f14 01be 54d4 7e3d 5845 51be 1b48 873d
000002c0: 9dcf 97bb c685 1abd 5ae5 b1bd 08a3 92bd
000002d0: 651d 83bc 4b29 0abe 917e 38be 6e43 56bd
000002e0: 44d9 abbc fc89 453d af0d 26be 4bc0 dabd
000002f0: 8140 d7bd 7b79 ccbd 649e 273b d05b b1bd
00000300: e2e1 e0bd a1b8 0ebd a8c8 4abc af04 223c
00000310: daa7 803c 2c94 3fbe a8f4 b53d 50f2 81bd
00000320: d265 f9bb d791 27be ee53 0fbd 3a5a ffbd
00000330: efb1 94bd 17c2 70bd a87d 613d 3f98 403d
00000340: 1842 9cbd bd5e cc39 74fe 09be 9c3d b7bd
00000350: a48b d0bd cf20 31be f704 573d b546 d4bc
00000360: a27b 4cbd e07c 02be 54b6 32be bd56 4fbd
00000370: e715 2cbe 8cbe bc3d 75c3 193d 680b 5fbc
00000380: 42a1 8dbd c015 5cbe 15c3 28bd 5725 1f3d
00000390: 678c 0d3d 9fcb 8bbd 499c ecbd 8c1a 27bc
000003a0: c73a cf3c fb8a debd 272d a43d 8324 b4bc
000003b0: 0253 0dbe a7d9 7f3d 6154 efbc 5979 36bd
000003c0: 682f 98bd 01cf ff3c f881 223d a453 8dba
000003d0: c79b 933b ed72 043d 40e4 b13b 326c c6bc
000003e0: 31c1 a8bd a4ad e33c 0e6d 733d f082 303c
000003f0: 7232 83bd d6a0 4bbc cb1d 7dbd f27f 423c

fc3.bias f4 [32]
0.112296484 0.1234163 -0.07073582 0.053986154 -0.016895758 -0.010519682 0.11479263 0.10596742
0.10142532 -0.10502965 0.058893908 0.044572044 -0.020483114 -0.112642854 0.11262453 0.040276617
0.02477642 -0.11789113 0.105757974 -0.064522915 -0.098752365 0.08711777 -0.1248107 0.019791491
0.0918759 -0.04753823 0.11456368 -0.030010615 -0.02452918 -0.12365518 0.11339431 -0.075458325
00000000: b3fb e53d afc1 fc3d f1dd 90bd 9620 5d3d
00000010: f968 8abc bf5a 2cbc 6618 eb3d 7205 d93d
00000020: 14b8 cf3d c919 d7bd bd3a 713d 2d91 363d
00000030: 34cc a7bc 4cb1 e6bd b1a7 e63d 18f9 243d
00000040: ebf7 ca3c e870 f1bd a397 d83d 9724 84bd
00000050: ae3e cabd cd6a b23d c19c ffbd c421 a23c
00000060: 6f29 bc3d 72b7 42bd 5da0 ea3d d2d8 f5bc
00000070: 6bf1 c8bc ed3e fdbd 473b e83d e589 9abd

bn3.weight f4 [32]
0.99917334 1.0115865 1.1125151 1.1467694 0.92946106 1.0115316 1.0366782 1.0170751
1.0017202 0.9644348 0.9684124 0.94595385 1.0298009 0.9023558 1.1212801 0.88521415
1.1377964 1.2255429 0.98800355 0.9365578 1.1435248 1.2020785 0.97107995 1.0879995
1.0223217 1.0465027 0.91690624 0.9431701 0.97254795 1.1001811 0.9108005 0.95956296
00000000: d3c9 7f3f ab7b 813f e566 8e3f 57c9 923f
00000010: 29f1 6d3f de79 813f dfb1 843f 842f 823f
00000020: 5e38 803f 33e5 763f e0e9 773f 082a 723f
00000030: 84d0 833f ca00 673f 1b86 8f3f 659d 623f
00000040: 50a3 913f 97de 9c3f cded 7c3f 41c2 6f3f
00000050: 055f 923f b5dd 993f b298 783f 9143 8b3f
00000060: 70db 823f cdf3 853f 5eba 6a3f 9873 713f
00000070: e7f8 783f bcd2 8c3f 392a 693f eba5 753f

bn3.bias f4 [32]
0.021784449 -0.112395056 0.15128979 0.07926474 -0.058793023 0.10151943 0.20302755 -0.12000515
-0.076122746 -0.15939711 -0.007557136 0.112038925 0.07889423 -0.09450795 0.15790655 -0.15249273
0.028048912 0.12510635 -0.10634927 -0.004296241 0.16939344 0.24856915 -0.07934511 0.03682671
0.09330159 0.004122107 -0.10908039 -0.016071063 -0.12506056 0.076442875 -0.053695228 -0.09980662
00000000: 4d75 b23c 612f e6bd b6eb 1a3e 8d55 a23d
00000010: f4d0 70bd 6be9 cf3d 74e6 4f3e 43c5 f5bd
00000020: 3ee6 9bbd ff38 23be daa1 f7bb aa74 e53d
00000030: 4c93 a13d 628d c1bd 41b2 213e 0e27 1cbe
00000040: d5c6 e53c e11b 003e a5cd d9bd 7bc7 8cbb
00000050: 7975 2d3e e988 7e3e b07f a2bd 9bd7 163d
00000060: e714 bf3d bd12 873b 8a65 dfbd 76a7 83bc
00000070: e00f 00be 158e 9c3d 87ef 5bbd 6a67 ccbd

bn3.running_mean f4 [32]
-0.61198044 -0.05123435 -0.809844 -0.7332024 -0.35315266 -0.68723494 -0.11331387 0.2397288
-0.059031583 -0.00693683 -0.6383598 -0.13067694 -0.30101967 -0.5608061 -0.49127445 -0.37513444
-0.949385 -0.9246156 0.13257976 -0.5814741 -0.49353603 -0.16086037 0.1323504 -0.8318161
-0.3921261 -0.89743984 0.06313973 -0.30199882 -0.25903213 -0.8560542 -0.2471761 -0.16008165
00000000: c0aa 1cbf 1cdb 51bd f051 4fbf 27b3 3bbf
00000010: 6dd0 b4be a1ee 2fbf 1a11 e8bd 777b 753e
00000020: 1acb 71bd 594e e3bb 8c6b 23bf 2dd0 05be
00000030: 401f 9abe fd90 0fbf 5388 fbbe 9f11 c0be
00000040: e50a 73bf 9cb3 6cbf fdc2 073e 7ddb 14bf
00000050: c1b0 fcbe 95b8 24be dd86 073e e6f1 54bf
00000060: c1c4 c8be 9ebe 65bf 674f 813d 979f 9abe
00000070: dc9f 84be 5e26 5bbf bb1b 7dbe 72ec 23be

bn3.running_var f4 [32]
0.9492747 0.7588384 1.0931481 0.8811792 1.2235736 1.194102 0.89978796 1.0268776
1.0693921 0.80860156 1.3056693 1.5476732 0.73149294 1.0523016 1.3013785 0.3015158
1.2900382 1.0226469 1.138012 0.7067106 0.85911256 1.6751803 1.138681 1.2004124
1.1066749 0.9186929 0.7093259 1.4606972 0.7127899 1.4334967 0.90976906 0.7656785
00000000: ab03 733f 3c43 423f 47ec 8b3f f694 613f
00000010: 0f9e 9c3f 56d8 983f 8158 663f ba70 833f
00000020: d7e1 883f 8300 4f3f 2c20 a73f 281a c63f
00000030: 1f43 3b3f d2b1 863f 9293 a63f 4760 9a3e
00000040: f91f a53f 18e6 823f 61aa 913f fcea 343f
00000050: cdee 5b3f 4f6c d63f 4dc0 913f 1da7 993f
00000060: 86a7 8d3f 752f 6b3f 6296 353f 20f8 ba3f
00000070: 6679 363f d27c b73f a0e6 683f 8203 443f
