MELOSDP/SDP/chkpt/mc1/linear/19/sdp_classifier_linear-960.pth (torch, 77408 bytes, 25 tensors)

fc1.weight f4 [128, 38]
000000 55 a2 a4 bd e3 d6 6f 3d 48 64 52 bd 34 52 23 bd
       -0.08038775 0.05855454 -0.051365167 -0.039873317
000010 12 b4 16 bc 4c 7b f1 bb 2c 5b bc 3c 39 70 2c 3d
       -0.009198206 -0.0073694345 0.022992693 0.04209921
000020 99 63 fe bd 1f ff 15 3b bf aa 03 be 07 c0 61 3d
       -0.124213405 0.002288766 -0.12858103 0.055114772
000030 5a 3e 00 be ba 47 07 3e 02 8d ce 3d 54 f6 9c bc
       -0.12523785 0.13210955 0.10085489 -0.019160427
000040 b0 9a c6 bd d0 b7 1e bd f6 64 c6 3d 0f 3a 32 3e
       -0.09697473 -0.038749516 0.096872255 0.1740496
000050 f2 bd 00 bd ed 6f 33 3e 2f eb 95 bd c0 3c e0 3d
       -0.031431146 0.17523165 -0.07320248 0.10949087
000060 a8 ca 42 3e fb bb 95 3c cd 8b 75 3e 52 c9 98 3d
       0.1902262 0.018278113 0.23979111 0.07460274
000070 18 63 10 bd c4 bc d4 bd 7b 80 59 3c 1b 27 86 bd
       -0.035250753 -0.10387567 0.013275261 -0.065504275
000080 75 59 ac 3d c3 88 61 3b 1d 3a b8 3b 8e 84 13 be
       0.084155 0.0034413792 0.005622162 -0.14406034
000090 ad 5b 79 be 2e fc f6 bd ca a7 66 bd b0 e0 37 3d
       -0.24351378 -0.12059818 -0.05631236 0.044892013
0000a0 fa 8a d0 3d 06 16 4e bd 98 0b 82 bd b3 00 39 3e
       0.10182758 -0.050313972 -0.063498676 0.18066673
0000b0 73 70 00 bd 08 bd 6d bb 77 85 2b 3d 56 d9 47 bd
       -0.03135724 -0.0036276001 0.04187533 -0.048791252
0000c0 20 dc 04 be d2 9b ad 3d 19 f8 4f 3e be 68 05 be
       -0.12974596 0.08476986 0.20309485 -0.13028237
0000d0 a1 fc 1c 3d cf e3 0c be d0 bc 0e 3e a1 a5 40 3c
       0.038326863 -0.13758777 0.13939214 0.011758239
0000e0 b1 0b cb 3d 30 44 dd 3d b3 4e e3 bc 34 50 6d b9
       0.09914339 0.10804021 -0.027747488 -0.0002263196
0000f0 51 76 8b 3d 46 6c 71 3d 0f 84 9d 3d 52 27 c6 3d
       0.068096764 0.05894115 0.07691204 0.096754685
000100 03 e4 1f 3e 72 f5 f1 bb be 46 b2 bd f1 1a 02 be
       0.15614323 -0.0073839957 -0.08704899 -0.1270559
000110 28 2c 06 bd db 38 1c be d8 d3 bd 3d b5 e3 1f 3d
       -0.032756954 -0.15256064 0.092689216 0.039035518
000120 38 52 4e 3d 1b 99 f1 bd df 11 3c 3e 8e 80 d0 bd
       0.05037138 -0.11796781 0.18366192 -0.1018077
000130 b4 60 d3 bb ef 41 d4 bc 53 34 c7 bd b2 d3 ba bd
       -0.006450737 -0.025910346 -0.09726777 -0.09122409
000140 a4 97 6e 3d 7e 86 17 bd e8 b6 cf 3d 25 f6 9f 3c
       0.058250085 -0.036993496 0.101423085 0.01952655
000150 d3 7b 69 bc be db 2a 3e c7 3f 2e 3e 74 6c 13 be
       -0.014250713 0.16685387 0.17016517 -0.1439684
000160 1f a1 97 bc 3d 9d a6 bd cb 2e 5c bd 5e 4b c8 3d
       -0.018509446 -0.081354596 -0.053755563 0.0978
000170 4a a2 94 bc 32 f5 31 3d e6 5f 5b 3c c1 55 ab 3d
       -0.018143792 0.043446727 0.013389563 0.08365966
000180 7f bf b5 3d be 1b 12 3e 51 ac d9 3d 94 6f 87 bc
       0.088744156 0.14268395 0.1062857 -0.016532697
000190 1e 35 47 bd 02 f1 bf 3d f2 ab 60 3e 89 43 f5 bd
       -0.04863464 0.093721405 0.21940592 -0.11975772
0001a0 d2 5f fb bb ba fb d2 3c bd 1b 7d bd 54 20 80 3d
       -0.007671335 0.025754798 -0.06179403 0.06256166
0001b0 9a 58 31 bd 58 e5 e9 bb ef 03 c1 bd 75 b1 9e 3c
       -0.043297388 -0.0071379356 -0.094245784 0.019371727
0001c0 b0 e0 21 bd 0b 3d 81 3d fa 82 91 3b 07 97 cd bd
       -0.03952092 0.06310471 0.0044406625 -0.10038572
0001d0 55 7d ee 3d b0 ff 6c 3e 29 aa 52 bd db ed cf 3c
       0.11644999 0.23144412 -0.05143181 0.025381973
0001e0 36 e5 c0 bd 40 ed 55 3a 72 1b 0c bc 83 fc c4 bc
       -0.094187185 0.0008160658 -0.008551465 -0.024046188
0001f0 e2 0e 87 be 88 35 08 3e 82 15 c6 bd 3c 7b 16 be
       -0.26378542 0.1330167 -0.09672071 -0.14695448
000200 9b 2b 0e be 16 f2 d9 3b ad b3 ed bd a8 17 de bd
       -0.13883822 0.0066511733 -0.11606536 -0.10844356
000210 f6 e6 04 3b ae e2 8c bd 9c 00 79 be ae e9 9a bd
       0.0020279265 -0.06879173 -0.24316639 -0.07564102
000220 52 cc e7 bd e3 e0 7c ba cf f1 10 be 41 11 84 bd
       -0.11318268 -0.0009646548 -0.14154743 -0.064486034
000230 fb 72 39 bd 75 87 c4 3d 30 10 e6 bd 40 10 80 3d
       -0.04527567 0.09596149 -0.11233556 0.062530994
000240 3c 45 78 bc b6 a5 0e 3e ac 7b 10 3e c4 f2 80 bd
       -0.0151532255 0.13930401 0.14109677 -0.06296304
000250 86 b4 33 bd 9c ed 5b 3c 30 c3 34 3d 4d 4c b9 bd
       -0.043873332 0.01342335 0.044131458 -0.09047756
000260 34 ad ab 3d 4b c9 c4 bd 62 4e b1 3d 35 c2 c7 3a
       0.08382645 -0.09608706 0.086575285 0.0015240373
000270 a6 6f 59 3d 61 3d 70 bd 79 71 d1 3c cc 9d 30 3e
       0.053084992 -0.058652285 0.025566803 0.17247695
000280 46 a0 85 3d 1d 95 b2 bd 17 4b 41 bd 48 33 30 3d
       0.0652471 -0.08719847 -0.047190752 0.043017656
000290 1c 8d b5 3c 92 d7 be 3c 52 cf 8b bd 6d 44 86 3d
       0.022162013 0.023296151 -0.068266526 0.0655602
0002a0 eb 55 7e 3d 69 d9 9b bb 37 8e c0 bb e9 e8 ec 3d
       0.062093657 -0.004756142 -0.0058763283 0.115678616
0002b0 2f b0 e4 3d a8 02 cb 3d 8e 60 22 be 26 fc 1c 3e
       0.11166417 0.09912616 -0.15857145 0.15330562
0002c0 ce 98 51 3e 68 5a a6 3d d8 a8 5e 3e 26 29 36 bd
       0.20468447 0.081227124 0.21744096 -0.044472836
0002d0 b4 55 a5 3d 78 cd 2b 3b 4e 07 04 bc 9c e9 a4 3d
       0.08072987 0.0026214998 -0.008058382 0.0805237
0002e0 01 dd e2 3b d0 70 5a 3d 06 ff 60 be 45 50 85 bd
       0.0069233184 0.053330243 -0.21972284 -0.06509451
0002f0 d3 bf 05 be c5 d7 28 3d e8 13 1b bc e6 1b be 3d
       -0.13061456 0.0412214 -0.009465195 0.09282665
000300 0e fd 8c 3c b5 7e 18 3e 0c 04 ca bc b0 1b d2 3d
       0.01721051 0.14892085 -0.024660133 0.10259187
000310 ec 3d 23 3d 9d 39 06 bc cc 07 54 bd 3e 65 53 bd
       0.039853975 -0.008192447 -0.05176525 -0.051610224
000320 bf 38 1a 3d 76 d2 fb bd e0 2c af 3d 9e 3e c0 bd
       0.037651774 -0.122960016 0.08553481 -0.09386943
000330 77 9f 49 be 0b 8f 52 3d b1 7e 56 be df 4a e1 bd
       -0.19689737 0.051405948 -0.20946766 -0.11000609
000340 4f ad 54 bc 25 98 03 bc 87 b9 a5 bd 89 a3 ac 3c
       -0.012980773 -0.00803188 -0.08092027 0.021074073
000350 7b 6b 0d 3e 06 86 15 bc c2 c4 9a 3d b4 be 9a bd
       0.13810532 -0.009126192 0.0755706 -0.07555905
000360 f3 b1 0b 3e 10 c6 76 bd 42 bd 04 3d 36 43 a2 3b
       0.13642101 -0.06024748 0.032407053 0.00495186
000370 fa 92 4b be e5 bd 09 be f4 cc bd 3d 08 fb 0f bd
       -0.19880286 -0.13451345 0.09267607 -0.03515151
000380 e0 2b 3c bd d1 4f a7 bd e2 1b 2a be 54 8a 33 bd
       -0.04594028 -0.08169521 -0.16612199 -0.04383309
000390 9c 7b ef bd 31 f1 c5 3c f1 ac 25 be e6 45 b3 bd
       -0.116934985 0.02416286 -0.16179253 -0.087535664
0003a0 7d 88 3d be 76 f0 29 3e 21 68 9f 3d 8c a6 33 3e
       -0.18509097 0.16595635 0.07783533 0.17544001
0003b0 9a 50 1b 3b d7 f1 c6 bd 8b 1e 15 bd 08 36 bd 3d
       0.0023699165 -0.09714096 -0.03640608 0.09238821
0003c0 8c 41 39 3d 7b 96 99 3c 45 de 8d bd c9 4c 43 be
       0.045228526 0.018748512 -0.0692716 -0.1907226
0003d0 57 60 c6 3d 99 c9 26 bd 7c ef cd 3d 5d 54 f7 3d
       0.09686344 -0.040719602 0.10055444 0.12076638
0003e0 c8 e3 fe bd d6 e3 81 3d 54 38 cd 3d 37 eb 00 bc
       -0.124457896 0.063422844 0.10020509 -0.00786858
0003f0 6b 78 25 bd 47 9c 29 be df e6 32 be 22 23 95 bd
       -0.040398043 -0.16563521 -0.17470883 -0.07282092

fc1.bias f4 [128]
000000 76 6f 1d be 80 b6 16 3e a1 8d fb 3c e2 a1 b7 bc
       -0.1537455 0.14718056 0.030707182 -0.022416059
000010 1e 7a a3 bd 51 27 89 bd de 75 b6 bd b0 b3 14 3e
       -0.079822764 -0.06696952 -0.089092 0.1452167
000020 08 66 0b 3e df 7d 71 bd c9 9d ca bc a2 10 ca bd
       0.1361314 -0.05895793 -0.024733441 -0.09866454
000030 62 2d c3 3d 2f 11 13 be b4 db 0e be 2b 67 fc bd
       0.095301405 -0.14362024 -0.13950998 -0.12324365
000040 94 87 7c 3c bf 34 7f bd 37 2a 95 3d 1a 7b 3a 3d
       0.015413184 -0.062306162 0.072834425 0.045527555
000050 97 9f cc 3d ea cc 04 be 18 0d 47 3b 56 9f b1 bc
       0.09991377 -0.12968794 0.0030372795 -0.021682423
000060 18 f1 c0 bc 90 a1 1c bd 24 96 d1 bd 9c 0b f1 3c
       -0.023552462 -0.038240016 -0.10233715 0.029424481
000070 a7 f3 b7 3d 27 b6 ad bb 65 0d 17 3e 23 1d c5 3d
       0.0898202 -0.0053012553 0.14751203 0.09624698
000080 71 fa 85 3d 6f 9a 21 bd f3 0e ff bd 27 82 04 3e
       0.065419085 -0.03945392 -0.12454023 0.12940274
000090 b8 32 c1 3d f6 eb 40 3d 50 e2 bf bd f7 65 4d 3d
       0.09433502 0.04710003 -0.093693376 0.05014607
0000a0 34 22 53 bc 6d b7 8b bd 5e 2b 0c 3e 5d d6 b4 bd
       -0.012886573 -0.06822095 0.13688418 -0.08829949
0000b0 c0 20 c3 bd 48 3b 4b bd d0 90 ac bd 73 7e 1e 3d
       -0.09527731 -0.049617082 -0.08426058 0.03869481
0000c0 29 89 64 bd bf fe 1b be 5c 9a 89 bc bf f0 93 3d
       -0.05579487 -0.15233897 -0.016797237 0.07223653
0000d0 76 65 bd 3d f9 64 65 3d d0 a3 c0 bc 5f 8f a3 bc
       0.09247868 0.0560045 -0.023515612 -0.019965826
0000e0 26 1b d6 bc 12 1a e9 3d 39 a9 d7 bd f6 b8 70 bd
       -0.026135992 0.11381926 -0.105303235 -0.058770142
0000f0 3c 88 0a be e1 be 19 be 7f c3 a6 bd c5 90 94 bd
       -0.13528532 -0.15014221 -0.08142757 -0.07254175
000100 00 0b 21 3c 24 73 67 bd be 83 fb bd 0b e9 cb 3d
       0.009829283 -0.05650629 -0.12280987 0.09956559
000110 eb 79 38 bd e6 bb 23 bc ad ee 6c bd 6b 0a 38 3d
       -0.045038145 -0.009993529 -0.057844806 0.04493181
000120 02 73 0f be fd b0 12 3e ae 53 09 3e a0 a4 9c 3a
       -0.14008716 0.14325328 0.13410828 0.0011950918
000130 0a 39 58 bd 82 9a fe bc 22 9a dc 3d 66 30 1f be
       -0.05278877 -0.031079534 0.10771586 -0.15545806
000140 f8 ee c2 3d ca 99 0f be ed 59 f6 3d 1a bf 0f 3d
       0.09518236 -0.1402351 0.12028871 0.035094358
000150 65 4a 02 3e 2e c7 d1 3d b6 2a ce 3c 13 d8 0b be
       0.12723692 0.10243069 0.02516685 -0.13656645
000160 f3 17 22 3e 8d 5a dd bd 2c ee d2 bd d4 3f 1f be
       0.15829448 -0.10808287 -0.10299334 -0.15551692
000170 d0 ec 91 bb f6 22 59 bc cd dd a5 3d d2 be 78 3d
       -0.004453279 -0.013252964 0.08098946 0.060728855
000180 16 d1 b8 3d ae 52 20 3d ef ba a0 3d 6c 11 16 be
       0.09024255 0.03914135 0.07848155 -0.14655083
000190 7e f7 2b bd 6c 53 ff 3c 2b d9 05 be e0 97 1d be
       -0.041984074 0.031167708 -0.13071124 -0.15389967
0001a0 36 a1 ec 3c a4 f6 ed 3d 17 64 b6 3d ab 71 9e 3d
       0.028885465 0.116193086 0.089058094 0.07736524
0001b0 d7 d4 37 bc e3 94 ff bd fb 53 17 be 40 e2 d2 3d
       -0.011220179 -0.1247957 -0.1477813 0.1029706
0001c0 43 12 06 3e 77 38 cb bd 75 25 7f 3d 14 d6 09 be
       0.13092904 -0.09922879 0.06229158 -0.1346057
0001d0 6d b4 0e be e7 2f f4 bd 9f a4 95 3d 66 c9 15 3e
       -0.13936014 -0.11923199 0.073067896 0.14627609
0001e0 81 81 c0 bd e9 9c 22 3d 29 76 14 bd 25 ff b8 bd
       -0.09399701 0.039700422 -0.0362455 -0.0903304
0001f0 32 6f c9 bd 03 7a b2 bd 95 fd 25 3e 5d 3a 85 3d
       -0.09835662 -0.08714678 0.16210015 0.065052725

bn1.weight f4 [128]
000000 b7 2a 84 3f ae 7b 71 3f 99 16 80 3f 1f 86 65 3f
       1.0325536 0.94329345 1.0006896 0.8965778
000010 fd c3 7b 3f d7 e8 93 3f 05 19 a4 3f 0d fd 6d 3f
       0.9834593 1.1555432 1.2820135 0.9296425
000020 1a 50 88 3f 12 96 91 3f 3a 54 93 3f fd 12 8e 3f
       1.0649445 1.1373923 1.1510079 1.1099545
000030 05 8d 7a 3f 6a e2 80 3f a8 72 83 3f 06 b1 88 3f
       0.9787143 1.0069096 1.0269365 1.0679023
000040 fa 98 6b 3f 00 25 8e 3f 23 8c 6d 3f ef 6e 7f 3f
       0.920303 1.1105042 0.92791957 0.99778646
000050 65 89 7f 3f f4 9c 78 3f 1d 53 78 3f 95 75 90 3f
       0.9981902 0.9711449 0.9700182 1.1285883
000060 52 95 92 3f 1a d5 71 3f 2b 76 96 3f 52 0d 8c 3f
       1.1451819 0.9446579 1.1754812 1.0941565
000070 86 be 82 3f 5a 06 7c 3f b5 2f 84 3f e7 10 84 3f
       1.0214393 0.9844719 1.0327059 1.0317658
000080 a6 5c 7a 3f 55 b9 9d 3f b3 59 74 3f bf be 7d 3f
       0.9779762 1.2322184 0.9544937 0.9911918
000090 32 80 8a 3f c2 b8 89 3f c5 82 81 3f 70 fe 92 3f
       1.0820372 1.0759509 1.0118033 1.1483898
0000a0 dd 95 96 3f 3e 13 73 3f 57 73 7f 3f 6e bc 87 3f
       1.1764485 0.94951236 0.9978537 1.0604379
0000b0 28 13 7a 3f bf fe 8b 3f f2 7c 7f 3f 66 88 80 3f
       0.9768548 1.0937117 0.99800026 1.0041625
0000c0 6a b1 80 3f 7f 36 77 3f c0 9e 80 3f 0d 6a 6e 3f
       1.0054142 0.9656753 1.0048447 0.9313057
0000d0 61 3d 6f 3f 84 41 79 3f 71 8f 7c 3f 9b 16 86 3f
       0.9345303 0.97365594 0.98656374 1.0475649
0000e0 c5 ed 7d 3f 3a 90 7d 3f 13 e9 86 3f 7d 68 7f 3f
       0.9919093 0.990482 1.0539879 0.9976881
0000f0 d7 69 a1 3f 8e 04 74 3f 42 7c 79 3f c7 76 82 3f
       1.2610425 0.9531945 0.9745523 1.0192498
000100 d8 21 66 3f 07 b7 93 3f b3 3d 76 3f 76 29 8c 3f
       0.8989539 1.154023 0.96187896 1.0950153
000110 b3 b3 85 3f cd 70 9a 3f 72 33 7f 3f 57 91 71 3f
       1.0445465 1.2065674 0.99687874 0.94362396
000120 cb 08 90 3f c4 fd 7b 3f 91 38 7f 3f 8e 7c 81 3f
       1.1252683 0.9843409 0.9969569 1.0116136
000130 48 d0 93 3f 64 37 7a 3f 17 68 8d 3f 2d fb 8a 3f
       1.1547937 0.9774077 1.1047391 1.0857903
000140 d7 14 7a 3f 51 9a 76 3f 85 05 77 3f 2c c6 86 3f
       0.9768805 0.9632922 0.964928 1.0529227
000150 c8 b9 7a 3f 20 35 81 3f f7 c9 87 3f 50 ef 6e 3f
       0.9793973 1.0094337 1.060851 0.9333391
000160 93 9c 76 3f 01 74 86 3f 65 ab 80 3f ab cd 71 3f
       0.96332663 1.0504152 1.0052305 0.9445445
000170 2a ab 71 3f dc 19 80 3f 27 6b 76 3f b0 e7 7d 3f
       0.944018 1.0007892 0.9625725 0.9918165
000180 1b 5f 70 3f f1 95 76 3f 6b b4 72 3f 02 d3 81 3f
       0.9389512 0.9632254 0.94806546 1.014252
000190 a9 ee 82 3f 7e 88 85 3f f4 2e 78 3f 04 4c 74 3f
       1.0229083 1.0432279 0.96946645 0.9542849
0001a0 cb e3 83 3f fb f2 68 3f 30 b6 8a 3f 5b 67 7e 3f
       1.0303892 0.9099576 1.0836849 0.9937646
0001b0 09 57 6a 3f f9 11 7b 3f 93 d6 7e 3f 30 09 7a 3f
       0.91539055 0.980743 0.99546164 0.9767027
0001c0 5b 97 7c 3f 17 4f 7d 3f 21 bc 82 3f 7d 45 76 3f
       0.9866845 0.98948807 1.0213662 0.9619978
0001d0 88 8c 82 3f 46 d0 9b 3f ee 87 7f 3f 44 c7 88 3f
       1.0199137 1.2172935 0.9981679 1.0685811
0001e0 ac 8c 81 3f 66 32 86 3f 06 9f 86 3f fc a9 90 3f
       1.0121055 1.048413 1.051728 1.1301875
0001f0 74 48 94 3f f1 7d 7d 3f a4 5b 7e 3f 6a ad 82 3f
       1.1584611 0.99020296 0.9935858 1.0209172

bn1.bias f4 [128]
000000 e2 46 f1 3b a9 08 07 be 36 a5 ad bd 77 1b 58 be
       0.007363186 -0.13186897 -0.08478777 -0.21104227
000010 07 a0 20 be f9 7c b6 bc 46 49 a3 bd c2 8c dc bd
       -0.15686046 -0.022276388 -0.0797296 -0.10769035
000020 4f cc d3 bd 2e 3a 66 be bc 0a 0e be c4 30 ce bd
       -0.10341703 -0.22483131 -0.13871282 -0.10067895
000030 2b 83 da bd b0 5a 0a be 87 95 d9 bd 96 cb a0 be
       -0.106695496 -0.13511157 -0.10624223 -0.31405324
000040 1c 32 bf bd 82 ba 28 bd 2a ae 19 be 96 4e 4c be
       -0.093357295 -0.041193493 -0.15007845 -0.19951853
000050 59 07 bc bd 2a be ce bd e5 e0 d7 bd ad 78 6e bd
       -0.09181089 -0.10094865 -0.10540942 -0.058220554
000060 75 1e e4 bb c7 2f 3b be 80 e3 1e 3c fd 70 30 be
       -0.0069616386 -0.18279944 0.009697795 -0.17230602
000070 54 af c5 bd f5 8b db bc 8c f0 b0 bd 3a 5a 8d be
       -0.09652582 -0.026800135 -0.08639631 -0.276079
000080 8b 21 cc bd 70 21 a1 bd b1 4c 4a bd 20 21 fb bd
       -0.09967335 -0.07867706 -0.049389545 -0.122621775
000090 c8 6c dd bd 71 46 46 3c 82 98 2c be 22 eb 1a be
       -0.10811764 0.0121017555 -0.16855052 -0.15128759
0000a0 39 26 9f bd 68 c6 be bd d5 9c 87 bd b0 44 c6 bd
       -0.07770962 -0.09315187 -0.0662171 -0.0968107
0000b0 82 c7 2a bd 9d 70 7c be 4b 85 00 be 87 f7 f8 bd
       -0.04169417 -0.24652334 -0.12550847 -0.12156587
0000c0 0a de 22 be fb 3c ba bd 98 4c 52 bd e2 c2 cf bd
       -0.15905014 -0.09093662 -0.051342577 -0.10144593
0000d0 dc ab f1 bd ee d0 7b bd 70 c4 35 be a2 75 78 be
       -0.11800358 -0.061478548 -0.17750716 -0.24263623
0000e0 35 a9 69 bc 8f 4e 26 be 01 62 82 bd bb 89 17 be
       -0.0142615335 -0.16240905 -0.06366349 -0.14798634
0000f0 bb 2f 21 be 5e 4e f9 bd 65 63 1c be 09 a1 4a bd
       -0.15740864 -0.121731505 -0.15272291 -0.04946998
000100 b8 46 fa bd 6e b2 13 be 88 9b 1e bd 67 13 34 be
       -0.1222052 -0.14423534 -0.038722545 -0.17585526
000110 ce 31 73 be 08 a5 96 bd 11 6a 1a be 9b fd 0a be
       -0.23749468 -0.07355696 -0.15079524 -0.13573305
000120 0b 48 b3 bd 6d 71 2a be 43 42 89 bc da 03 73 bc
       -0.087539755 -0.16644831 -0.016755229 -0.014832461
000130 4f 34 02 be ca 72 18 be 32 98 de bd 81 9c 26 be
       -0.12715267 -0.14887539 -0.10868873 -0.16270639
000140 97 45 b0 bd d3 7e ca bd d7 76 e0 bd d8 89 2d be
       -0.08607023 -0.09887471 -0.10960167 -0.16947114
000150 0a 40 96 bd f7 8f c3 bd 32 ce 32 bd 86 db b8 bd
       -0.07336433 -0.095489435 -0.043653674 -0.09026246
000160 63 ca ba bd ea 20 aa bd 94 f0 77 bd 2e a7 cf bd
       -0.091206335 -0.08307059 -0.060532168 -0.10139309
000170 a7 b2 0e bd 1b 6a 21 bd c6 bb d4 bd dd 9e 9e bd
       -0.034838345 -0.03940783 -0.103873774 -0.077451445
000180 bd 0b 74 be 6f 5b 1f be 3c 8d 1d be 79 8a c9 bd
       -0.23832603 -0.15562223 -0.15385908 -0.09840865
000190 77 bb 8b be d6 cf ea 3a 1d 7c e8 bd 3e e2 8e bd
       -0.27291462 0.0017914723 -0.11351798 -0.06976746
0001a0 2d e0 67 bd e1 09 58 be 30 5d 09 be 62 2e 33 be
       -0.056610275 -0.21097519 -0.13414454 -0.17498162
0001b0 fd 96 41 be 99 18 c4 bd 89 8a 08 bd 30 fc 25 bc
       -0.18905254 -0.09575004 -0.033335242 -0.010130927
0001c0 d7 cf 58 be 9c 08 70 be bf 3f ae 3c f0 c5 92 bd
       -0.21173035 -0.23440784 0.02127063 -0.0716666
0001d0 eb af b0 bc ce f6 7c be ff 37 bc bc 14 e2 75 bd
       -0.02156826 -0.24703524 -0.02297592 -0.060030058
0001e0 f5 98 2a 3d eb fc 4c be ee 6e 74 be 83 46 b6 bd
       0.041649777 -0.20018356 -0.23870441 -0.08900168
0001f0 aa 1d 9b bd 33 3d 1e bd 3b f0 98 bd b3 9b ef bd
       -0.07574017 -0.038632583 -0.07467695 -0.11699619

bn1.running_mean f4 [128]
000000 29 a4 1c be ba 8c 19 3e 77 5e 08 3d 5f e9 e3 bc
       -0.15296997 0.14995089 0.033293214 -0.027821241
000010 54 21 a4 bd 64 58 8d bd 38 08 b9 bd c1 9f 0d 3e
       -0.08014169 -0.06901625 -0.09034771 0.13830473
000020 2c 80 08 3e fc 1e 81 bd 3d 46 dc bc 5d 2d cc bd
       0.13330144 -0.06304738 -0.026888961 -0.0996959
000030 50 cd bd 3d ec 84 12 be b1 29 0a be 96 46 fb bd
       0.09267676 -0.14308518 -0.13492467 -0.122693226
000040 37 a2 8f 3c 70 75 81 bd b9 47 98 3d e4 99 3d 3d
       0.017533405 -0.063212276 0.07435555 0.04628934
000050 d2 d6 cd 3d a0 63 00 be 82 35 8e 3b 47 00 de bc
       0.10050739 -0.12538004 0.0043398747 -0.027099742
000060 4e 78 d6 bc ee 79 23 bd 5d 5a d5 bd 01 c1 02 3d
       -0.026180413 -0.039911203 -0.10417626 0.031922344
000070 6f af b4 3d 64 12 8f bb bd a2 16 3e c3 c9 bd 3d
       0.08822524 -0.004366206 0.14710517 0.092669986
000080 98 b3 8a 3d e1 eb 20 bd 06 05 05 be 8b 50 08 3e
       0.06772536 -0.03928745 -0.12990198 0.13311975
000090 cc 0f ba 3d 63 ee 48 3d 95 2e c6 bd 94 1c 5e 3d
       0.09085044 0.04905547 -0.096768536 0.054226473
0000a0 0f 81 3c bc 43 cf 90 bd e7 72 10 3e 6b 96 ac bd
       -0.011505379 -0.07070782 0.14106332 -0.084271275
0000b0 f3 7b c4 bd 54 9a 4b bd 59 63 a9 bd 9b e3 2f 3d
       -0.09593954 -0.049707726 -0.08270902 0.04294167
0000c0 51 bf 6f bd e3 e8 1b be f1 55 88 bc 41 31 95 3d
       -0.058532063 -0.15225558 -0.016642543 0.07284785
0000d0 fe 4b c1 3d f9 41 52 3d e1 2a d1 bc 5f fc b7 bc
       0.094383225 0.051332448 -0.025533142 -0.022459207
0000e0 1a e2 02 bd d4 61 e5 3d 89 0b e7 bd a1 b6 6e bd
       -0.03195391 0.112003 -0.11281497 -0.058279637
0000f0 f9 08 08 be 11 55 1c be a1 32 a9 bd 03 b7 95 bd
       -0.13284673 -0.15266825 -0.0826161 -0.07310297
000100 3b 66 26 3c 61 65 6d bd 17 ac 03 be e2 1e d2 3d
       0.01015621 -0.05795801 -0.12858616 0.10259797
000110 2e ae 42 bd 25 ab 1e bc 9d 44 63 bd 4b 23 38 3d
       -0.047529392 -0.009684359 -0.055485357 0.044955533
000120 33 7c 11 be bf 28 16 3e 76 e7 0c 3e 75 d5 f1 3a
       -0.14207534 0.14663981 0.1376017 0.0018450456
000130 9f 79 62 bd e1 ab 00 bd ae d4 cf 3d bb d9 21 be
       -0.05529177 -0.031413916 0.10147987 -0.15805714
000140 0a fe be 3d 13 1b 11 be 6c e5 fa 3d 4d f9 13 3d
       0.09325798 -0.14170484 0.1225079 0.036126424
000150 b0 57 06 3e 45 76 cc 3d 08 b8 c1 3c fd cd 0a be
       0.13119388 0.099834956 0.023647323 -0.13555141
000160 05 0b 1e 3e 77 58 d0 bd b9 ac d3 bd 1e fe 1f be
       0.15433891 -0.10173123 -0.103356786 -0.15624282
000170 63 c2 ea bb c5 2c 57 bc b1 7f a2 3d 6b 99 6f 3d
       -0.007164286 -0.0131332325 0.079345115 0.05849592
000180 d2 57 c1 3d 5c 43 1c 3d b1 8b 98 3d e1 5b 15 be
       0.094405785 0.038150176 0.07448519 -0.1458583
000190 a2 a2 3d bd ff 03 08 3d 6e 44 09 be cc f5 1a be
       -0.046297677 0.033206936 -0.1340501 -0.15132827
0001a0 a2 e7 e4 3c fb be e9 3d 1c e5 ac 3d 23 4a 96 3d
       0.027942482 0.1141338 0.08442137 0.07338359
0001b0 ca 8b ce bb fa ff fe bd 1e bb 15 be 3d 82 d1 3d
       -0.0063032852 -0.124511674 -0.14622161 0.10229919
0001c0 6f a7 03 3e 9d 15 c5 bd dd 32 7b 3d 70 80 08 be
       0.1285684 -0.09623263 0.061327804 -0.13330245
0001d0 ac 32 13 be 5e e8 ff bd c8 e9 93 3d 44 01 10 3e
       -0.14374799 -0.124954924 0.072223246 0.14062983
0001e0 0b 69 c1 bd c8 a0 2a 3d b4 9a 14 bd 5d c7 b9 bd
       -0.094438635 0.04165724 -0.03628035 -0.09071229
0001f0 5c 5b d1 bd 6e 62 b5 bd 72 da 26 3e 71 7f 86 3d
       -0.102225035 -0.088566646 0.16294268 0.06567276

bn1.running_var f4 [128]
000000 34 10 b2 3e d2 15 88 3e 70 9b af 3e e8 fd 1b 3f
       0.34777987 0.26579148 0.34298277 0.60934305
000010 b7 23 02 3f 38 0d 8d 3e d7 75 0e 3e db 7e 92 3f
       0.50835747 0.27549148 0.1391214 1.1444963
000020 d0 3b 51 3e ef 22 04 3e cf b0 17 3e 45 af 0b 3e
       0.20432973 0.12903951 0.14813541 0.13641079
000030 4e a2 f0 3d 27 34 c8 3e 08 e9 9f 3e 3c 3e ca 3e
       0.11749707 0.3910229 0.31232476 0.39500606
000040 e6 a8 b4 3e 47 83 2e 3e 22 ec 68 3e 96 3c b1 3e
       0.3528511 0.17042266 0.22746328 0.34616536
000050 b0 72 a3 3d e9 7c 01 3e 94 e3 4b 3e c8 e9 12 3f
       0.07980859 0.12645306 0.19911033 0.5738797
000060 07 96 4f 3e ce e8 55 3e 73 63 e1 3d 61 e5 29 3e
       0.20272075 0.20889589 0.110052966 0.16591407
000070 2b fe 2d 3e b6 fd 4d 3e 54 6f 0a 3f e4 da d3 3e
       0.16991489 0.20116314 0.54076123 0.41377938
000080 e1 af 0f 3f 38 64 22 3e 3b 77 e9 3e 35 89 33 3e
       0.56127745 0.15858543 0.45598778 0.17532809
000090 6c 90 25 3e 06 70 6d 3e f7 c4 c0 3e 2b b4 10 3e
       0.16168374 0.23187265 0.37650272 0.14131229
0000a0 cb 08 ef 3d 0c e5 b7 3e 70 02 a9 3e 30 aa 8a 3e
       0.11671599 0.35916936 0.33009672 0.27082968
0000b0 f9 54 5e 3e 0e a9 e8 3d 4c bf 0d 3e d6 7a 30 3e
       0.21712102 0.113603696 0.13842505 0.17234358
0000c0 03 e9 6f 3e ec b9 ca 3e 3c 58 19 3f 03 0f b0 3e
       0.2342873 0.39594972 0.5990026 0.34386453
0000d0 c0 14 71 3e 52 4f ac 3f d6 50 ca 3e 4f d7 80 3e
       0.23543072 1.3461707 0.39514798 0.25164267
0000e0 18 f1 2a 40 a4 f5 77 3e 64 5a 36 3f 27 98 75 3e
       2.6709652 0.24214798 0.71231675 0.23983823
0000f0 2d d2 12 3e a4 1d 0e 3e e2 a4 c7 3e c3 35 c2 3e
       0.14337988 0.13878495 0.38992983 0.37931642
000100 f7 bf ad 3f 69 27 3b 3e 2f e0 76 3f 0b ed 00 3e
       1.3574208 0.18276753 0.96435827 0.12590425
000110 ce 1f 0f 3e 7b ba 7f 3e b7 35 c6 3e 64 14 11 3e
       0.13976976 0.2497348 0.38712856 0.14167935
000120 ff f3 f6 3e cf 08 cd 3e 4a 46 66 3e e3 bd e0 3d
       0.4823303 0.40045783 0.2248775 0.10973718
000130 62 2e 09 3e 6c ff 68 3e d3 f3 8d 3e de c1 d8 3d
       0.133966 0.22753686 0.27725086 0.10583852
000140 71 1d 06 3f b9 fa ba 3e ac 7b de 3e 39 e8 36 3e
       0.52388674 0.3651941 0.4345373 0.17862023
000150 6f 43 3c 3e 12 03 27 3e f8 08 50 3e 97 df 61 3e
       0.18385099 0.16309765 0.20315921 0.22057949
000160 36 31 ac 3e 35 46 53 3e 10 f9 88 3e 84 1f 3c 3e
       0.33631295 0.2063225 0.2675252 0.18371397
000170 41 96 77 3f 18 a1 0e 3f 16 47 11 3f e7 63 82 3e
       0.96713644 0.5571456 0.56749094 0.25466844
000180 79 56 b5 3e a2 84 87 3e 7d d2 84 3e 82 b1 a8 3e
       0.35417536 0.26468378 0.2594184 0.32947928
000190 e8 b9 19 3e 74 75 33 3e c6 e6 b2 3e 82 ef 92 3e
       0.15012324 0.17525274 0.3494169 0.28698355
0001a0 87 19 b7 3e 47 f0 90 3e 7b 5c 15 3e f0 29 ec 3e
       0.35761663 0.28308317 0.1458606 0.46125746
0001b0 c1 e6 23 3f 8b a0 de 3d c7 ae 36 3f 98 c4 c3 3e
       0.6402398 0.10870465 0.7136044 0.38235927
0001c0 50 6f 5c 3e 45 c0 80 3e 4e 87 ec 3f 12 47 9c 3d
       0.21526837 0.2514669 1.8478792 0.07630743
0001d0 3c 9f 02 3f dd 0c 2c 3e d6 0c c5 3e 6c c3 9b 3f
       0.5102422 0.16801782 0.38486356 1.2169013
0001e0 40 e8 72 3e a6 86 f4 3e 03 49 53 3e 58 8e 1d 3e
       0.23721409 0.4775898 0.2063332 0.15386331
0001f0 d7 28 92 3e 85 d2 d3 3e dc a3 8b 3e 85 4f 39 3f
       0.28546783 0.4137155 0.27273452 0.7238696

fc2.weight f4 [64, 128]
000000 2f d5 85 bd 0d 6d 6d 3c cb 5e 9d 3d be 9f ce bd
       -0.06534802 0.014491332 0.07684096 -0.10089062
000010 74 ed 4e 3d ac 01 ae bd 4c e6 1c be 5b 9b c3 3c
       0.05051942 -0.08496413 -0.15322226 0.02387779
000020 32 9f 00 bd ff e1 97 bd 94 4d 3e 3c 32 89 2a 3d
       -0.03140182 -0.07416152 0.011615176 0.041634746
000030 bf 95 b0 3c d3 19 86 3d b2 1c 90 bd f2 4f 04 bd
       0.02155578 0.06547894 -0.07036723 -0.032302804
000040 3e ba 6b 3d c8 06 7f bb 8f 80 32 3d 4f f8 48 bc
       0.05755066 -0.0038913954 0.043579634 -0.012266233
000050 9b 4e 3f bd cd da 88 3d 50 42 33 3d d8 e6 7a 3c
       -0.046705823 0.06682358 0.043764412 0.0153138265
000060 03 b8 9a bc e4 40 49 bd 39 38 fb bd 4c 49 9f 3d
       -0.018886572 -0.04913415 -0.12266583 0.07777652
000070 96 e5 12 bc 20 6a 2c 3d f4 45 a7 3b 9c ff 06 be
       -0.00896587 0.042093396 0.0051047746 -0.13183445
000080 0d 2a 46 3c c2 2a ad bd 46 2a 32 3d 1e bb 7d 3d
       0.012094987 -0.08455421 0.043497346 0.061946027
000090 92 4f e1 bd 47 25 3f 39 3f 29 65 3c 88 34 9d bb
       -0.11001505 0.00018229066 0.013986885 -0.004797522
0000a0 e8 f5 0f be f5 96 03 3c 13 15 49 bd 79 40 ca bc
       -0.1405865 0.008031596 -0.049092364 -0.024688946
0000b0 44 ab 21 bd b9 ac 1f 3d b5 56 93 bd 32 c1 a4 bd
       -0.039469972 0.03898308 -0.071942724 -0.080446616
0000c0 b5 b6 05 bd e5 e5 69 bd f6 18 b7 bc 30 25 a0 bd
       -0.032644946 -0.05710401 -0.02235077 -0.07819593
0000d0 74 fe ca 3b b6 69 8c 3c fc 63 77 bd 67 e1 65 bd
       0.006194884 0.01714025 -0.060398087 -0.056123164
0000e0 01 7f c1 3c 57 b1 3d 3d c2 91 2d 3d 6d e7 20 3c
       0.02362013 0.046311703 0.042375334 0.009820801
0000f0 de d4 96 bd 99 e9 07 bd 23 2e 71 3b 03 ec a2 3d
       -0.0736482 -0.03318176 0.0036801181 0.07955172
000100 8d 0e 86 bd 8b b8 9e bd d9 4f 5d bd 5e 59 c0 3c
       -0.06545744 -0.077500425 -0.054031227 0.023480114
000110 86 1a 6b bd ec c2 0b bd 38 50 7e 3d 21 a8 29 3d
       -0.05739834 -0.03412144 0.06208822 0.041420106
000120 f2 50 ed 3b f7 da 93 3d 34 ae 94 3c 70 79 7f 3d
       0.0072423154 0.072194986 0.018149473 0.06237167
000130 0d c8 be bd 9b b7 cd 3d 84 5d ee 3b a7 3d 31 bc
       -0.093155004 0.100447856 0.0072743315 -0.010817922
000140 f2 c6 ee 3c bc 19 b6 bd 12 f3 e5 3c 83 3e 63 bd
       0.029147599 -0.08891627 0.028070007 -0.055479538
000150 70 9b 4a 3b c3 b5 14 bb 34 91 10 bd 97 e1 9a 3d
       0.0030915402 -0.0022691346 -0.035294726 0.07562559
000160 61 98 b5 bc e3 33 cf bc 49 b6 81 3d 0f 87 9b 3c
       -0.022167386 -0.025293296 0.06333596 0.0189853
000170 ba 76 8a bd fb 92 84 bb 50 bf ec 3b 99 ea 2c 3d
       -0.067609265 -0.0040458417 0.0072249547 0.042215917
000180 43 cb 72 3b 0e 5d 97 3d 1c 73 67 bd ca c3 b7 3d
       0.0037047423 0.07390796 -0.05650626 0.08972891
000190 44 9a 29 3d ef a6 ad 3d 33 2a 3c 3d 1b 4f 40 3c
       0.041406885 0.08479106 0.04593868 0.01173761
0001a0 30 de 44 bd f9 73 f3 bd 5d 97 22 bd b1 0c b4 bd
       -0.048063457 -0.118873544 -0.039695133 -0.08791483
0001b0 62 92 5a bd a2 14 10 3c d6 72 f6 bd e6 8b de bd
       -0.053362258 0.008793982 -0.12033622 -0.10866527
0001c0 c6 0d 9a bd 31 ca 3f bd a3 d9 2d bd df a0 2f 3d
       -0.07522158 -0.046823684 -0.042443883 0.042878028
0001d0 b4 db 33 bd b4 82 9b bc f9 3f e9 bb a5 17 7a bd
       -0.043910697 -0.018983223 -0.007118222 -0.061057705
0001e0 33 2a c6 bd bc 14 19 bd a4 dc 80 bd b0 da 90 3c
       -0.096760176 -0.03737329 -0.06292084 0.017682403
0001f0 b3 49 30 bd 25 d4 03 be 1e f5 9a 3d ea f1 82 bd
       -0.043039035 -0.12873895 0.07566284 -0.06393798
000200 93 9e 30 bc 65 61 72 3d 2e 39 f9 bc 96 33 b5 3c
       -0.010779995 0.059174914 -0.030422773 0.022119325
000210 01 bd 99 3d cc 88 26 bd 61 87 a4 bd 5a a0 b2 bc
       0.07506753 -0.040657803 -0.08033634 -0.021804977
000220 89 c9 5c bb ef 74 75 3c 47 ed 7f 3b b6 41 2c bd
       -0.003368946 0.014981492 0.003905134 -0.042054854
000230 f0 68 0a 3c 15 21 d2 3d f6 70 4e 3d 26 b3 c3 3b
       0.008447871 0.10260216 0.050400697 0.005972284
000240 da 2b 9f bc 86 8d f9 3c 7d 16 9c 3d 81 cd ab 3d
       -0.01943009 0.030462991 0.07621477 0.08388806
000250 1b 9d 7e 3d b3 e9 7c 3b 0d 0f b8 3d 15 c0 d4 3b
       0.062161546 0.0038591444 0.08987246 0.0064926245
000260 5c bf 3b 3d b1 eb 8f bd ae 3e 49 bd 75 3b 14 bd
       0.04583679 -0.070273764 -0.04913204 -0.036189515
000270 50 97 30 bd bb 56 b1 3b 17 da 91 3d 80 c6 80 bd
       -0.043113053 0.0054119504 0.071216755 -0.06287861
000280 6a 1b 35 bd a4 f0 96 3d af d7 ad 3d 65 7c af 3d
       -0.044215597 0.07370117 0.08488404 0.08568648
000290 15 07 0a bd 96 54 e0 3d 6c fe f2 3c 30 68 90 bc
       -0.03369816 0.109536335 0.029662333 -0.017627805
0002a0 d6 6f a1 bc 13 13 94 3d 42 81 14 bc 93 c4 41 bd
       -0.019706648 0.072302006 -0.009064021 -0.04730661
0002b0 f6 18 1a bd 07 6d 01 3d a4 f9 9a 3d 6e 58 43 bd
       -0.03762146 0.031598117 0.075671464 -0.047691755
0002c0 22 59 99 3d c8 7a a1 3d ea 31 71 bd 92 75 e2 bd
       0.07487704 0.07884747 -0.058885492 -0.11057581
0002d0 68 0b 8f bd 0c 89 be 3c 4d 8b 5c 3c ec 69 8d 3d
       -0.069845974 0.023258708 0.013460946 0.069049686
0002e0 ac 91 9c bd 73 75 0f bb 01 d0 81 bd f3 d8 56 3d
       -0.07644972 -0.0021890074 -0.06338502 0.052452993
0002f0 8f 13 2e bc 0d 1d 30 bd d1 19 2c bd 60 8e b3 3d
       -0.01062478 -0.042996455 -0.042016808 0.0876739
000300 d3 c6 ce bc 45 ff 10 bd d5 c1 99 3c 04 a7 85 bd
       -0.025241291 -0.035399694 0.018769184 -0.06525996
000310 da 9c f3 3c 1a 68 26 3c fd 2a 15 3c 05 17 86 bb
       0.029737879 0.010156656 0.0091044875 -0.0040920996
000320 ed 98 9e 3c 4b ed 5e bd 23 b0 73 bd 04 a3 91 bd
       0.01936003 -0.05442552 -0.05949415 -0.07111171
000330 f0 b6 00 bd 14 b4 c0 3c 86 ed ae bd 78 0e af bc
       -0.031424463 0.023523368 -0.08541398 -0.021369204
000340 fd e6 c8 bd 2b e6 c3 3c c3 97 fd 3c b7 1f a7 bc
       -0.098096825 0.023913464 0.030956155 -0.020400865
000350 e4 f4 0d 3d 9c 0a 0f 3d e3 19 71 bc 8f e1 6b 3d
       0.034657374 0.034922227 -0.0147156445 0.057588156
000360 53 48 f3 3c d8 51 e3 bb 05 53 5a bd 44 f4 e1 bb
       0.029697573 -0.006937247 -0.05330183 -0.006895574
000370 d9 a6 7b bc fb 85 06 3d bb d5 ee 3c 3d 8a 9d 3d
       -0.015359604 0.032842617 0.029154649 0.076923825
000380 84 0a 03 bd e8 8a 13 3d 89 0b 2c bd 76 b7 e8 3d
       -0.03199245 0.036021143 -0.04200319 0.113631174
000390 12 b8 84 3d 5d 16 32 3c e1 7d 22 bd 23 53 d6 3d
       0.06480421 0.01086959 -0.03967083 0.10465076
0003a0 8b cf ee ba 69 29 4b 3d c1 27 dd bd 0d 91 d9 bd
       -0.0018219812 0.04960004 -0.10798598 -0.10623369
0003b0 9e 32 22 bd 37 89 57 3d 20 e0 6d 3b 0d 4f 37 bb
       -0.039599054 0.052621093 0.003629692 -0.0027970702
0003c0 84 29 8e bd e4 54 ad 3d 12 8c 18 3d 44 48 b8 bd
       -0.06941512 0.08463457 0.037242956 -0.089981586
0003d0 f7 4a 80 bd 0e f8 ac bd 28 85 55 bd 73 40 7a 3d
       -0.062642984 -0.0844575 -0.05212894 0.06109662
0003e0 c0 84 74 bd 70 b0 3b 3d 98 e6 b7 bd 28 2c e2 bc
       -0.059696913 0.04582256 -0.08979529 -0.027608946
0003f0 dd b7 6d 3d 1b a1 cb 3c 0d f2 20 3d 46 e7 42 bd
       0.058036674 0.024857095 0.039293338 -0.04758384

fc2.bias f4 [64]
000000 e8 ed ca 3c 90 37 af 3d 0f 9c 81 bd 37 2b 00 3d
       0.024771646 0.085555196 -0.06328594 0.031291213
000010 23 d2 80 bc 3d cd 5b bd 9a 99 92 3d b9 29 16 bd
       -0.015725201 -0.053662527 0.071582034 -0.036660884
000020 1f 1c 80 bd b0 45 9e 3d a3 1d cf 3c 28 29 ba bc
       -0.06255364 0.077281356 0.025282687 -0.022724703
000030 3e ed fb bc ff 90 1f bd ec 2b bb 3c 15 63 a7 bd
       -0.030752774 -0.03895664 0.022848092 -0.08173195
000040 15 b6 a6 3c 34 aa 05 bd 34 2f 8a 3c b7 2a 07 bd
       0.020350495 -0.03263302 0.016868211 -0.03299972
000050 58 60 5e 3d ac 81 20 bd fe d5 23 3d e8 c2 8a 3d
       0.0542911 -0.039186165 0.039999 0.06775457
000060 10 b1 30 bd 07 f5 f4 3c 43 dc 32 ba 29 46 49 3d
       -0.04313761 0.029901994 -0.00068229827 0.049139176
000070 62 81 23 bd f9 e2 92 3d 53 6c 39 3d df e0 ab bc
       -0.03991831 0.07172198 0.04526932 -0.02098125
000080 41 c2 5e 3d 45 f4 ec bb c5 c3 9c bb 59 5c 73 bd
       0.054384474 -0.0072312676 -0.0047840797 -0.05941424
000090 94 56 dc bb b9 dd 0f 3d 19 5d 38 3d c5 22 2d 3c
       -0.006724188 0.03512356 0.04501066 0.010567372
0000a0 0d 74 6f 3a 75 a3 1a 3d 2a 0f 70 3c d2 b5 4a 3d
       0.00091344194 0.03775354 0.014652053 0.049489804
0000b0 8a 24 58 3d 7e 6e a8 bd 3a 38 3c bc 4b a9 5a 3d
       0.05276922 -0.082242 -0.011488015 0.053384107
0000c0 e9 3c 16 3d b8 64 95 bd 13 09 00 3d d7 ed a7 bd
       0.036679182 -0.07294601 0.031258654 -0.08199661
0000d0 80 25 87 3d fc 8a 77 3c c0 9d 78 bd c7 35 2c bd
       0.065989494 0.01510882 -0.060697317 -0.042043474
0000e0 3b e4 04 bd 8c 75 a1 bd 80 61 a1 bd 34 cd 7e bc
       -0.03244422 -0.078837484 -0.07879925 -0.015551854
0000f0 f6 9b 7c bb d8 3a 5e 3d 61 c1 9d 3d 81 a4 7a bd
       -0.0038545108 0.054255337 0.077029 -0.06119204

bn2.weight f4 [64]
000000 30 d1 73 3f 82 26 79 3f 57 f0 6e 3f f3 5f 79 3f
       0.9524107 0.97324383 0.9333548 0.9741203
000010 ea f8 82 3f 32 2f 96 3f cd 3c 77 3f ca 0c 81 3f
       1.0232213 1.1733153 0.9657715 1.0082028
000020 34 23 70 3f 49 c0 95 3f de 00 80 3f 5d 85 86 3f
       0.93803716 1.1699306 1.0000265 1.0509449
000030 91 88 8f 3f a4 ce 8d 3f 4f 45 80 3f 7a be 82 3f
       1.1213552 1.1078687 1.0021151 1.0214379
000040 14 1f 80 3f e9 7e 7b 3f dd c2 81 3f b5 4a 81 3f
       1.0009484 0.98240525 1.0137593 1.0100924
000050 64 27 90 3f 21 48 94 3f ff b2 7d 3f a0 1e 7f 3f
       1.1262021 1.1584512 0.9910125 0.99656105
000060 e1 63 71 3f 0a 88 7a 3f 1e f9 97 3f 5a 03 85 3f
       0.9429303 0.9786383 1.18729 1.0391648
000070 da b0 9e 3f 8b e5 76 3f d0 33 79 3f 54 93 85 3f
       1.2397721 0.96444005 0.97344685 1.0435586
000080 9f d5 85 3f e8 25 81 3f d6 96 88 3f 1c 13 7c 3f
       1.0455817 1.0089693 1.0671031 0.9846666
000090 5a ab 81 3f d7 19 78 3f 67 61 7d 3f 51 6d 6e 3f
       1.0130417 0.9691443 0.9897675 0.93135554
0000a0 26 15 81 3f aa 37 82 3f f5 07 7a 3f 7f b1 82 3f
       1.0084579 1.0173237 0.9766839 1.0210418
0000b0 75 68 80 3f 58 46 69 3f b1 72 90 3f ee 7b 80 3f
       1.0031878 0.9112296 1.1285001 1.003782
0000c0 29 21 90 3f d7 84 78 3f 31 a7 73 3f 96 2b 76 3f
       1.126012 0.970777 0.9517699 0.96160257
0000d0 04 88 84 3f 54 0a 83 3f 33 a4 80 3f 82 70 86 3f
       1.0354009 1.0237527 1.005011 1.0503085
0000e0 15 ba 96 3f 94 e1 6c 3f af 24 72 3f 15 0d 88 3f
       1.1775538 0.92531705 0.94587225 1.0628992
0000f0 3a 9e 88 3f 07 db 76 3f 5d 72 81 3f dc e9 80 3f
       1.0673287 0.9642796 1.0113026 1.0071368

bn2.bias f4 [64]
000000 8e 7f 83 bd b4 81 28 be 1c f2 ef bc b0 67 92 bd
       -0.064208135 -0.16455728 -0.029290251 -0.07148683
000010 93 99 fb bd 81 28 44 bd 1d 06 ec bc 60 c4 95 bd
       -0.12285151 -0.04789019 -0.028811509 -0.07312846
000020 f1 6c b2 bd d8 08 c9 3d 32 31 04 bd 3b 4d 17 3e
       -0.08712185 0.0981614 -0.03227348 0.14775555
000030 08 c0 87 3d 2b 1a 5b 3e dc eb 0c be e6 9b 79 bd
       0.06628424 0.21396701 -0.13761848 -0.060939692
000040 21 6b e1 3d 50 43 16 be 43 1b 25 3e 20 6c 11 3e
       0.11006761 -0.14674115 0.16123681 0.14201403
000050 e3 1d 11 3e 04 dc 06 3e 63 e6 18 3c af 45 76 bd
       0.14171557 0.13169867 0.009332272 -0.06012505
000060 0a e8 c2 bd 67 bf ad 3d ff e0 11 be 3f 81 b8 bd
       -0.09516914 0.08483773 -0.14245985 -0.09009027
000070 c0 54 b8 3d fc 75 e2 bd a0 34 d2 bd f5 b4 94 bd
       0.0900054 -0.1105766 -0.10263944 -0.07261077
000080 98 56 d2 bc f3 13 03 bd fb b6 91 3c d4 85 09 be
       -0.025676057 -0.032001447 0.017787447 -0.13429958
000090 e7 b2 ca be 52 86 49 3e 07 76 91 3d ef 0b 92 bd
       -0.39589617 0.19680145 0.0710259 -0.071311824
0000a0 2d 24 22 bd 5b d0 9b 3d 55 28 c2 bd e9 17 91 bd
       -0.03958528 0.076081 -0.09480349 -0.070846386
0000b0 24 5d 46 3d 8c 73 b2 bd 8a 84 93 be 89 c4 4b bd
       0.04842867 -0.08713445 -0.28812057 -0.049747977
0000c0 04 bb 15 3e c6 53 b3 bd 61 c0 f9 bc 88 61 cb bd
       0.14622122 -0.08756213 -0.030487241 -0.09930712
0000d0 b1 9e e9 be ff 96 c6 bc 43 d5 9e bc 42 a8 de ba
       -0.45628884 -0.024241922 -0.0193888 -0.0016987401
0000e0 4b b8 c1 3d c2 d8 bd bd 62 4d 0d bc 0d a3 e6 bb
       0.09458979 -0.09269859 -0.0086244065 -0.00703848
0000f0 47 05 ac 3d 1f 56 2e be d0 1c b5 3b 6f f7 0a 3e
       0.08399444 -0.1702504 0.0055271164 0.13570951

bn2.running_mean f4 [64]
000000 80 d0 94 be b0 91 8a 3d 16 b0 c3 bd 97 fc 39 bd
       -0.29065323 0.06766069 -0.0955507 -0.045406904
000010 ab 18 ba be 3c 25 d0 be cb c1 c1 3d 8e 08 70 bd
       -0.36346945 -0.40653408 0.09460791 -0.05860191
000020 07 b5 f6 be 8c 40 4f be 14 5c 9f 3b ea d2 ad be
       -0.48184988 -0.20239466 0.0048632715 -0.33949977
000030 3f 0e d8 be 5f de 85 be 17 49 10 be 68 bc ff bd
       -0.4219837 -0.26146218 -0.14090382 -0.124871075
000040 43 3a 0c bc 82 d0 f4 bd a6 3f ca bd 8f 83 82 be
       -0.008558813 -0.11953832 -0.09875421 -0.25490996
000050 6b 3b 2f be 1e 74 a8 be 46 60 d8 3c 69 ff ca 3a
       -0.1711251 -0.3290109 0.026413094 0.0015487495
000060 9f f2 4d be 04 c5 fa bd 37 5c dd be 6c 7f 30 3d
       -0.20112084 -0.12244609 -0.43234417 0.04309027
000070 7b 54 ac be 99 ab ab bd 6c 6b 9e be 34 e9 5c bc
       -0.33658203 -0.08382339 -0.3094133 -0.013483334
000080 a3 83 8b bd 03 d6 19 bf ec d1 3d 3d 1c 2a 83 be
       -0.06812217 -0.6009218 0.046342775 -0.25618064
000090 36 be 9d be d9 b5 b6 be b0 23 39 be 04 bc f6 bc
       -0.30809182 -0.35685614 -0.1808002 -0.03011895
0000a0 86 e5 27 3a 96 e9 a5 3c 39 d4 2e bd 7b 9c 6d bd
       0.0006404746 0.020252984 -0.04268286 -0.05801056
0000b0 ed d0 27 be ac 41 6c be 92 46 10 be 54 c1 25 be
       -0.16388293 -0.23071927 -0.1408942 -0.1618703
0000c0 a3 f5 a9 bd a5 8c 4f bd 67 76 3c be 7b 22 68 be
       -0.082988046 -0.05067124 -0.18404542 -0.22669403
0000d0 97 c1 22 be a0 16 ae bd 5d e5 58 be d3 51 09 3d
       -0.15894161 -0.08500409 -0.21181245 0.0335253
0000e0 d0 54 a3 be 08 bc bc be c6 42 00 bd c3 05 37 be
       -0.31900644 -0.36862206 -0.03131368 -0.17873292
0000f0 5b 3c 3e be 25 76 4c be ca 58 db 3d eb 42 7e be
       -0.18577711 -0.19966944 0.107102945 -0.24830215

bn2.running_var f4 [64]
000000 bf 12 20 3f 6c cc 01 3f a5 0b 30 3f 57 fe f4 3e
       0.62528604 0.5070255 0.6876777 0.47850296
000010 d0 79 95 3e 52 21 e8 3e 9e e7 31 3f 3d 3f 07 3f
       0.29194498 0.4533792 0.69494045 0.5283087
000020 d0 1b 0a 3f 88 f6 74 3f 1e b9 35 3f dd aa 4b 3f
       0.5394869 0.95688677 0.7098559 0.7955759
000030 dc a8 61 3f 85 e7 80 3f 4d 69 db 3e f7 4e 29 3f
       0.88148284 1.0070654 0.42853776 0.66136116
000040 4d 85 27 3f 5c 44 be 3e a3 7c 56 3f 0b 01 69 3f
       0.65437776 0.3716153 0.8378393 0.91017216
000050 8a fb 72 3f 28 06 66 3f 81 68 18 3f f9 33 93 3e
       0.9491507 0.89853144 0.5953446 0.2875059
000060 22 78 e0 3e d1 af 45 3f 92 15 06 3f af 1f f8 3e
       0.43841654 0.772214 0.52376664 0.48461673
000070 70 6f 2e 3f c3 32 b5 3e d8 ce e0 3e de f8 5b 3f
       0.6813879 0.3539029 0.4390781 0.85926616
000080 1f 90 17 3f b2 b8 29 3f ac eb 34 3f 59 bc 78 3e
       0.59204286 0.6629745 0.70672107 0.24290599
000090 5d d6 d3 3e 67 92 4c 3f 05 85 32 3f 70 24 2f 3f
       0.41374484 0.7991089 0.6973422 0.68414974
0000a0 57 37 e9 3e ca 62 5c 3f aa d0 87 3e b4 9b 11 3f
       0.45550033 0.8608824 0.26526386 0.5687821
0000b0 33 a1 e6 3e ce 32 37 3f 7a 52 b5 3e 8d f1 ba 3e
       0.4504486 0.71561897 0.35414487 0.36512414
0000c0 db 83 5c 3f ae 2b d1 3e 87 ef 09 3f c8 1f f6 3e
       0.86138695 0.40853637 0.53881115 0.48071122
0000d0 84 4b d5 3e 2e c7 d0 3e 90 b8 23 3f 0c e3 32 3f
       0.41659176 0.40776962 0.63953495 0.69877696
0000e0 9f 2b 78 3f 56 57 27 3e 6a c7 30 3f 2e 27 07 3f
       0.9694156 0.1634191 0.6905428 0.5279416
0000f0 72 aa 8b 3f 30 2a 99 3e 59 90 64 3f 6b 32 00 3f
       1.0911391 0.29915 0.8928276 0.5007693

fc3.weight f4 [32, 64]
000000 fc 0e a9 bc bc c8 c1 bd f3 63 21 bc 45 19 0c bd
       -0.020637028 -0.09462115 -0.00985049 -0.034203786
000010 59 ad 0b bd e4 1f 23 3e 08 b5 e2 bd af 87 ff bd
       -0.034100864 0.15930134 -0.11069685 -0.124770515
000020 cb 5f ae 3d a7 36 81 bd c5 52 a0 bd 38 ad c7 bd
       0.08514365 -0.06309252 -0.07828287 -0.09749836
000030 ef 1a c8 bb 8b 43 d7 bd a0 af 14 bd 68 e2 2f bd
       -0.0061067264 -0.1051093 -0.0363003 -0.042940527
000040 0f 36 a6 bd c6 9e 53 3c 94 1d 51 3d 03 e3 56 bd
       -0.081157796 0.0129162725 0.0510536 -0.05246259
000050 46 f6 e0 bd 09 c4 e2 bb d7 08 08 be 3a 85 af 3c
       -0.10984473 -0.006920342 -0.13284622 0.021425832
000060 24 53 5e bd 61 e7 02 be 25 f7 93 3e 74 7f 97 3d
       -0.054278508 -0.12783577 0.28899494 0.07397357
000070 d9 e1 b1 3d 80 53 22 3d 38 b3 c7 bd b2 b1 d4 bd
       0.08685655 0.039630413 -0.0975098 -0.10385455
000080 87 a6 0e 3d 65 ff db 3c 2d 5a 94 bc 4f d1 89 bd
       0.03482678 0.02685518 -0.018109405 -0.067293756
000090 84 c7 da bc 47 10 b3 bc 87 94 a3 3d 08 7c d5 bc
       -0.026706465 -0.021858348 0.07987314 -0.02606012
0000a0 3b 1d d1 bd fd 84 c9 bc 7e 81 95 3a 74 2c 61 bd
       -0.102106534 -0.024599547 0.001140639 -0.054974034
0000b0 90 94 70 bc 37 fa 68 bc e0 a2 8f be 99 02 85 bd
       -0.014683858 -0.014219812 -0.2805395 -0.06494636
0000c0 d6 2e d1 bd c4 a4 a0 bd 46 3e ad bd 4f fc 79 bd
       -0.10214011 -0.078439265 -0.08459143 -0.061031636
0000d0 fa f5 fa 3c 74 43 a6 bd c4 c6 8e bd 71 16 c9 bd
       0.030634869 -0.081183344 -0.06971505 -0.098187335
0000e0 d7 51 66 bb f1 da 1a bd f0 26 e4 bd f7 67 e4 bc
       -0.0035143995 -0.037806455 -0.11140239 -0.027881606
0000f0 8d ba a2 bd 63 e9 a5 bd 54 06 a7 3d 79 ba b3 bd
       -0.07945738 -0.081011556 0.08155504 -0.08775801
000100 c1 ea 3f 3c 0f b9 fe 3d ec 8d 8c 3d f6 d0 16 3d
       0.011713685 0.12437641 0.06863007 0.036820374
000110 68 bd d7 3c 76 4a 1a bd 12 22 34 3d e1 f6 80 bc
       0.026335433 -0.037668668 0.043977804 -0.015742721
000120 5c 5a 81 bd c2 ed 1a bd 09 83 8d bc 67 aa d8 bd
       -0.06316063 -0.0378244 -0.017274396 -0.10579377
000130 65 9e 7d bd ab 72 25 3c e5 99 25 bd c1 d0 a8 bd
       -0.061918635 0.01009814 -0.04042997 -0.08242942
000140 36 5a 08 3e 78 7e 2a 3e 6e b8 16 3d f7 66 97 bd
       0.13315663 0.16649806 0.03679698 -0.07392686
000150 65 76 f3 3b 23 f7 53 bd 41 95 d4 3d df 9b 0d bd
       0.007429885 -0.05174936 0.103800304 -0.03457248
000160 7a 40 c6 3c 51 08 00 3d ee c5 b5 bd f4 24 b2 3d
       0.024200667 0.03125793 -0.08875643 0.086984545
000170 7b a2 7e bb ef e0 13 3d 66 df 78 bd 4b 2c ca 3c
       -0.003885417 0.036103185 -0.060759924 0.024679324
000180 ae 6d a5 bc d0 0f 91 bd 55 a1 81 bd cc 4c 67 bd
       -0.0201939 -0.07083094 -0.063296 -0.056469724
000190 79 b6 c5 ba fd ee 96 b9 9e ee ec bd ef 51 35 3d
       -0.0015084288 -0.0002878829 -0.1156895 0.04426759
0001a0 b8 23 03 3e 79 4e 07 3e 63 d8 6c 3d 5d ec 6c bd
       0.12806594 0.13213529 0.05782355 -0.0578426
0001b0 27 44 5b 3d 4a 22 f6 bc 8e 6c 84 bc ed c1 1c 3e
       0.053531792 -0.030045647 -0.016165044 0.15308352
0001c0 b3 63 82 bd db 53 36 3d 96 3e 59 3d 3e ed 25 bd
       -0.06366672 0.044513565 0.053038202 -0.040509455
0001d0 b7 d6 a9 bd f3 60 8f bd 7f 9f cc bd 31 02 64 bd
       -0.08292907 -0.070009135 -0.09991359 -0.055666152
0001e0 11 ff c9 bd bb d5 b7 3d ea 33 57 3c 96 0d 1f 3d
       -0.09863103 0.08976313 0.013134936 0.038831316
0001f0 84 36 a2 bd 6b 27 9c bd ee 88 05 3e 25 b5 d4 bd
       -0.07920554 -0.07624706 0.13040516 -0.10386113
000200 c6 8f bf bb 28 94 0d bd 22 3f 83 3d 70 0f 24 bd
       -0.0058459966 -0.03456512 0.06408526 -0.040053785
000210 37 d7 06 be 2e 2d b5 3c 55 b8 14 bd 3a 3d d1 3d
       -0.13168035 0.02211627 -0.036308605 0.10216756
000220 91 29 f2 bc 30 d6 c3 bd 0f 41 56 bd 8f ec c7 bd
       -0.029560836 -0.095623374 -0.05230814 -0.09761917
000230 88 bf 35 bd 4d f9 ba 3c 6c 3a 9f bd 8c ce 2c bd
       -0.04437211 0.022823954 -0.07774815 -0.042189166
000240 63 5f 8b 3d 44 05 a4 bd cb 49 3d bd 43 94 ca bd
       0.06805303 -0.08008817 -0.046212953 -0.0989156
000250 7f 22 86 bc 23 a0 aa bc 31 90 0c be 40 15 2d bd
       -0.01637387 -0.020828312 -0.1372688 -0.042256594
000260 39 5e 68 3c 06 6b 21 3d 17 d0 b8 3c b3 12 0b 3c
       0.014182621 0.039408706 0.022560162 0.008488345
000270 dd 2f ab bc 4e 2f a2 3d a1 da 10 be 3c 15 bf bd
       -0.020896846 0.07919179 -0.141459 -0.09330222
000280 76 34 e5 bd 74 42 f7 3d 06 af cb bc fc 59 e9 3c
       -0.11191647 0.12073222 -0.024863731 0.02848529
000290 af 04 57 3e a1 a4 8e bd 72 1e 3b bd bd ee b9 bc
       0.2099788 -0.06964994 -0.04568333 -0.022696847
0002a0 40 89 e9 3d dd 88 1f 3d 24 5c 43 bd 3c 24 1c be
       0.114031315 0.038948882 -0.047695294 -0.15248197
0002b0 e2 95 15 be 5b 6e 9d 3c ad 25 8e 3d be cd 94 3d
       -0.14607957 0.01921766 0.0694078 0.07265805
0002c0 1c f9 9e bc 2d eb e7 bc 68 6d e8 bd 9f 0a fb bd
       -0.019405894 -0.028310383 -0.113489926 -0.12257885
0002d0 ff 75 40 3e 08 31 71 bd 58 9f 43 be b0 84 c4 bd
       0.18795012 -0.05888465 -0.19103754 -0.09595621
0002e0 c5 db 20 bd 83 49 3b 3d 44 46 ef bd 08 2a 6b bd
       -0.03927209 0.045724403 -0.11683324 -0.05741313
0002f0 0b 94 03 be 68 9b 5f bd bf bd e7 3c 81 26 bb bd
       -0.12849443 -0.054591566 0.02828872 -0.091382034
000300 24 9c f6 bd 4f fa 52 bd 77 e9 f5 bc 32 c6 73 3b
       -0.120415 -0.051508244 -0.030018551 0.003719699
000310 b9 f0 ae bc 7a 28 5a be 3c 08 89 3d a5 2a 63 bd
       -0.02135502 -0.21304503 0.06691024 -0.05546059
000320 d5 8f 5c bd 5e 59 12 be 66 56 ea bc d5 42 f6 bd
       -0.053848106 -0.14291903 -0.028605651 -0.12024466
000330 ed 1c 90 bd 0e 61 33 bd a2 71 48 3d 2a 0a 01 3d
       -0.07036767 -0.04379373 0.048936494 0.031503834
000340 54 ba b3 bd ad f4 20 bc 9d 39 1d be 36 66 b5 bd
       -0.08775774 -0.00982396 -0.15354009 -0.08857386
000350 74 ec c8 bd ac 32 0f be 55 7d 71 3d c6 81 1b bd
       -0.09810725 -0.13984174 0.058957417 -0.03796556
000360 c3 d1 97 bd 12 fe 13 be 76 3e 5c be d4 03 59 bd
       -0.07413056 -0.14452389 -0.21508202 -0.052982166
000370 c0 03 24 be 0a 61 9f 3d 2f 43 e9 3a 7c ab 9c 39
       -0.16017056 0.077821806 0.0017796512 0.00029882404
000380 34 af 54 bd b8 57 85 be 5d 06 03 bd 50 85 05 3d
       -0.0519249 -0.26043487 -0.03198849 0.03259784
000390 65 90 82 3d 45 ca 81 bd 8e 39 03 be 56 e4 1e bc
       0.06375197 -0.06337408 -0.12814924 -0.009697994
0003a0 77 a4 89 3c 5d a2 ea bd 4b 21 8b 3d c6 33 90 bc
       0.016802056 -0.114567496 0.067934595 -0.017602812
0003b0 e1 1e 27 be f9 37 28 3d 75 0a 00 bd 63 e8 77 bd
       -0.16320373 0.041069005 -0.031259973 -0.060524356
0003c0 f4 ef a8 bd 6d b9 15 3d 40 65 d9 3c 00 00 6d bb
       -0.082488924 0.03655379 0.026537538 -0.003616333
0003d0 31 73 25 3d 6d 14 85 3c 1f 43 16 bc c2 77 db bb
       0.04039306 0.016245091 -0.009171276 -0.006697626
0003e0 c4 91 9c bd 64 a2 58 3a 5a 17 26 3d 41 68 2e bb
       -0.0764499 0.0008263944 0.040549614 -0.0026612433
0003f0 c7 68 8f bd b2 64 79 bc 56 10 87 bd 0d ce 51 bc
       -0.070024066 -0.015221762 -0.06594913 -0.012805474

fc3.bias f4 [32]
000000 98 24 e6 3d e5 ce fc 3d 48 f1 90 bd 8f f4 5b 3d
       0.112374485 0.123441495 -0.07077271 0.053700026
000010 fd 42 8a bc e2 b3 2f bc e3 09 eb 3d 2d 0e d9 3d
       -0.016877646 -0.01072404 0.11476495 0.10598407
000020 b5 b7 cf 3d 52 19 d7 bd 13 b3 70 3d 7c 0c 37 3d
       0.10142461 -0.10502876 0.05876453 0.04468964
000030 bd d9 a5 bc 57 e2 e6 bd d3 90 e5 3d 36 43 25 3d
       -0.020245427 -0.1127364 0.11209264 0.0403473
000040 29 9c c8 3c 79 9a f1 bd 67 7b d8 3d 31 15 84 bd
       0.024488525 -0.117970414 0.10570412 -0.064493544
000050 c3 90 ca bd 1c 48 b1 3d be 9c ff bd e7 ff 9f 3c
       -0.09890892 0.08656332 -0.12481068 0.019531203
000060 6e 63 bc 3d a5 29 44 bd db 21 eb 3d 77 3a f6 bc
       0.09198652 -0.047891278 0.11481067 -0.030057175
000070 dd 1f c8 bc 9f be fd bd d9 60 e8 3d db 55 9a bd
       -0.024429256 -0.12389874 0.11346597 -0.07535907

bn3.weight f4 [32]
000000 a8 86 79 3f c5 24 7d 3f 49 fb 96 3f e1 f0 9e 3f
       0.97471094 0.9888423 1.1795436 1.241726
000010 1b 13 68 3f 78 2f 88 3f ae 9b 8b 3f 20 63 80 3f
       0.9065415 1.0639486 1.0906885 1.003025
000020 3a 2a 7c 3f 5e 47 70 3f dd e6 81 3f 84 e9 62 3f
       0.9850193 0.938589 1.0148579 0.88637567
000030 54 3e 89 3f b9 82 70 3f 3a 44 c3 3f 0a e2 5f 3f
       1.0722146 0.93949467 1.5255196 0.87454283
000040 d3 ce 9f 3f 55 ce a1 3f 51 1e 78 3f df 66 77 3f
       1.2484993 1.2641093 0.9692126 0.96641344
000050 c5 11 98 3f fd e2 b5 3f f8 e4 73 3f 0b c4 97 3f
       1.1880423 1.4209896 0.95271254 1.1856703
000060 cf 93 6c 3f 76 de 8e 3f 36 f7 63 3f b0 a3 73 3f
       0.9241304 1.116164 0.8904909 0.9517164
000070 51 03 73 3f 48 ab 98 3f a3 c1 6c 3f 0d 76 6f 3f
       0.94926935 1.1927271 0.92482966 0.93539506

bn3.bias f4 [32]
000000 f8 b1 88 bc 6f 25 e2 bd d4 e3 db 3c b2 86 e4 bd
       -0.016686425 -0.11042296 0.026842035 -0.111585036
000010 68 3a ea bd 3b 46 16 bd f2 66 2e 3e 84 ec cc bd
       -0.11436921 -0.03668807 0.17031458 -0.10006049
000020 c5 43 6e bd 8c 88 48 be 39 77 69 bd e8 86 2c 3c
       -0.0581701 -0.19583338 -0.056998465 0.010530211
000030 60 0d 51 be f0 5f f8 bd 83 45 dc 3e db 5a 38 be
       -0.20415258 -0.121276736 0.43021783 -0.18003409
000040 94 c1 57 be 6f 4d ab bc 0e 37 05 be f2 aa 23 bd
       -0.21069938 -0.020910947 -0.13009283 -0.039957948
000050 e2 87 60 3c 21 83 de 3e de c9 d2 bd 68 46 b3 bd
       0.013704272 0.43459418 -0.10292409 -0.08753663
000060 2e 81 f2 3c 83 29 88 bd 4f 05 3e be 40 f8 68 38
       0.029602613 -0.06648543 -0.18556713 5.554431e-05
000070 b0 ab 34 be ed 1e d7 bd 4d c5 1f be 26 00 fa bd
       -0.17643619 -0.105039455 -0.15602608 -0.122070596
