MELOSDP/SDP/chkpt/mc1/linear/19/sdp_classifier_linear-100.pth (torch, 77408 bytes, 25 tensors)

fc1.weight f4 [128, 38]
0	0xbdff106b	-0.12454303
1	0x3da4f05c	0.080536574
2	0xbdb6e39d	-0.089301325
3	0x3c8f70a0	0.017509758
4	0x3b4193fb	0.0029537666
5	0xbc1024d5	-0.008797844
6	0x3cd28fa2	0.025703255
7	0x3d8b673c	0.068068
8	0xbe085cde	-0.13316676
9	0xbc09141d	-0.008366612
10	0xbda9d8bc	-0.08293292
11	0x3d30f05e	0.043197982
12	0xbdd192a6	-0.10233049
13	0x3daa9ee6	0.08331089
14	0x3e00353e	0.1252031
15	0x3bc6a4e5	0.0060621374
16	0xbdb96b68	-0.09053689
17	0x3e00bf72	0.1257303
18	0x3de4f792	0.11180033
19	0x3e292d72	0.16521242
20	0xbd69f79a	-0.057120897
21	0x3e2a55f4	0.16634351
22	0xbdb2e737	-0.08735507
23	0x3e27a9c8	0.1637336
24	0x3e287c3b	0.1645364
25	0x3c199883	0.0093747405
26	0x3e46cd7f	0.19414328
27	0x3da4d34a	0.08048113
28	0xbd163f05	-0.036681194
29	0xbe0229c7	-0.1271125
30	0x3d6f17e5	0.058372397
31	0xbdb769cf	-0.08955728
32	0x3d9ef6aa	0.07761891
33	0x3d0c4015	0.0342408
34	0x3da3ed7d	0.08004282
35	0xbe004388	-0.12525761
36	0xbe1ce5d2	-0.15322044
37	0xbdbe621c	-0.09296057
38	0xbc7192d1	-0.014744476
39	0x3c897093	0.016777312
40	0x3ddb1970	0.10698211
41	0xbd45dad8	-0.04830441
42	0xbd205eee	-0.039153032
43	0x3e1efeb9	0.15526856
44	0xbd20d7da	-0.039268352
45	0xbdafab83	-0.08577635
46	0x3ca48787	0.020084156
47	0xbd4a0e71	-0.04933018
48	0xbddf398d	-0.10899649
49	0x3d8b3602	0.067974105
50	0x3e37cbdb	0.17948858
51	0xbdddbdc9	-0.10827214
52	0x3cd3a9d8	0.025837824
53	0x3c65fc61	0.014037223
54	0x3df1f927	0.118151
55	0x3d7e7489	0.062122855
56	0x3e208613	0.15676145
57	0x3de48c02	0.11159517
58	0xbcbe92b1	-0.023263307
59	0xbb801fd5	-0.0039100447
60	0x3d84951e	0.06473754
61	0x3d463d85	0.048398513
62	0x3da6b303	0.081396125
63	0x3dbba99f	0.09163212
64	0x3e1783c7	0.14796363
65	0xbd149bd1	-0.03628141
66	0xbde66f5d	-0.112517096
67	0xbe1094eb	-0.14119308
68	0xbdbd99d8	-0.09257859
69	0xbe1fe2cb	-0.15613858
70	0x3db74970	0.08949554
71	0x3d6fc818	0.058540434
72	0x3da14ab5	0.07875577
73	0xbde5f79f	-0.112288706
74	0x3e3cf071	0.18451096
75	0xbde87b19	-0.11351604
76	0xbd529430	-0.051410854
77	0xbc6255a4	-0.013814364
78	0xbd6589be	-0.056039564
79	0xbdad35f7	-0.084575586
80	0x3d6c9e4b	0.057768147
81	0xbc9c868f	-0.019107131
82	0x3def4f4c	0.116850466
83	0x3db0daa1	0.0863545
84	0x3b96c748	0.004601393
85	0x3e2a9ab6	0.1666058
86	0x3e26c991	0.16287829
87	0xbe05e11a	-0.1307415
88	0xbd13e168	-0.036103636
89	0xbd9a7a89	-0.07542903
90	0xbd29e050	-0.041473687
91	0x3db966b4	0.09052792
92	0xbc51fe80	-0.012817025
93	0x3d900faf	0.070342414
94	0xbd065e48	-0.032804757
95	0x3db33881	0.08751012
96	0x3da36657	0.07978504
97	0x3e173ff6	0.14770493
98	0x3dddcbd0	0.1082989
99	0xbbf59529	-0.007494588
100	0xbd6be768	-0.057593733
101	0x3dccd697	0.10001867
102	0x3e3bad52	0.18327835
103	0xbdd29e7c	-0.10284135
104	0x3c274dc6	0.010211414
105	0x3d22a15f	0.039704677
106	0xbd1c44c3	-0.038151514
107	0x3d83e3b2	0.06439914
108	0xbd28b339	-0.041186545
109	0xbc1c3e99	-0.009536409
110	0xbdbe8e49	-0.093044825
111	0x3cb3a36d	0.021928513
112	0xbdd07c8e	-0.10180007
113	0x3d99ca4f	0.075092904
114	0x3df2ff83	0.11865141
115	0xbdf98b39	-0.12184758
116	0x3df7a461	0.120919
117	0x3e028535	0.12746127
118	0x3ca49938	0.020092592
119	0xbcf02ac1	-0.029317262
120	0xbd994f2b	-0.07485803
121	0xbdbfbe5b	-0.09362479
122	0xbd8094e6	-0.062784
123	0x3cc1597a	0.023602236
124	0xbdb52e10	-0.08846676
125	0x3dfff74a	0.124983385
126	0xbd908883	-0.070572875
127	0xbe032551	-0.12807204
128	0xbe228fb0	-0.15875125
129	0x3bf63865	0.007514047
130	0xbdb4c18f	-0.08825981
131	0xbdcd93e9	-0.10037977
132	0x3d499a26	0.049219273
133	0xbd3af1c7	-0.045640733
134	0xbe2ddd72	-0.16979006
135	0xbd8aa408	-0.06769568
136	0xbde873cc	-0.113502115
137	0x3dce60c7	0.100770526
138	0xbd8b9d55	-0.06817118
139	0xbd71ec9c	-0.05906354
140	0x3e11680a	0.14199844
141	0x3d275b8d	0.040858794
142	0xbe2b09d6	-0.16702971
143	0x3d6fac07	0.058513667
144	0xbda22c23	-0.07918575
145	0x3e03ca64	0.12870175
146	0x3e17a7a1	0.14810039
147	0xbdca6784	-0.09883025
148	0xbd5f9060	-0.054581046
149	0x3d173354	0.036914185
150	0x3dc2e3f8	0.09516138
151	0xbe02f698	-0.1278938
152	0x3da67c95	0.08129231
153	0xbd500dbe	-0.050794356
154	0x3db27970	0.087145686
155	0x3c889c51	0.0166761
156	0xbca0badd	-0.019620353
157	0xbd16e59e	-0.036840074
158	0x3cde2126	0.027115416
159	0x3e30a2e8	0.17249644
160	0x3da53d61	0.08068348
161	0xbdbd3610	-0.09238827
162	0xbdb5a65c	-0.08869621
163	0x3d9d8cee	0.07692896
164	0x3da820f3	0.082094096
165	0x3dffa12e	0.124819145
166	0xbd4ae438	-0.049534053
167	0x3d802419	0.06256885
168	0x3d8fa46a	0.07013781
169	0x3dda9a30	0.1067394
170	0xbd6e1d9f	-0.058133718
171	0x3df756f1	0.1207713
172	0x3da28e45	0.07937292
173	0x3db4ab34	0.08821717
174	0xbe27d43a	-0.16389552
175	0x3e284233	0.16431503
176	0x3e3087d7	0.17239319
177	0x3d908d48	0.07058197
178	0x3e4f9d58	0.20274866
179	0xbc89ac20	-0.016805708
180	0x3dd20a17	0.10255831
181	0x3d044910	0.03229624
182	0x3af5cfb9	0.0018753923
183	0x3d90edd2	0.070766106
184	0x3b98acf1	0.004659288
185	0x3d47cf2a	0.04878155
186	0xbe3816cc	-0.17977446
187	0xbd864776	-0.06556599
188	0xbdfa58c0	-0.12223959
189	0x3d766c31	0.060161773
190	0x3d8bb3d5	0.068214096
191	0x3df8e08e	0.121522054
192	0x3c31858a	0.010835061
193	0x3de882fe	0.1135311
194	0xbd2ea081	-0.042633537
195	0x3dd2dd93	0.10296168
196	0x3caed0f7	0.021339877
197	0x3e025d25	0.12730844
198	0xbd767313	-0.060168337
199	0xbd724536	-0.059148036
200	0x3d677ce6	0.056515597
201	0xbdf2f1c2	-0.11862518
202	0x3d54d721	0.051962975
203	0xbc8aa967	-0.01692648
204	0xbe0582d6	-0.13038191
205	0x3994d66d	0.0002838852
206	0xbd97e92d	-0.074175216
207	0x3cf22a0a	0.029561061
208	0xbdb3b025	-0.08773831
209	0xbc1640cc	-0.009170722
210	0xbdb48d95	-0.08816067
211	0x3d516ae0	0.051127315
212	0x3e2e4582	0.17018703
213	0x3daa1006	0.083038375
214	0x3d8bf0b3	0.06833019
215	0xbd3f80d6	-0.046753727
216	0x3c780f0b	0.015140305
217	0xbd52c8f3	-0.05146117
218	0x3d07b079	0.03312728
219	0xb9f96435	-0.0004756764
220	0xbe4dda01	-0.20102693
221	0xbde1bcff	-0.11022376
222	0x3e05951e	0.13045165
223	0xbcf201d7	-0.029541893
224	0xbd4ea6a0	-0.050451875
225	0xbd1716e5	-0.03688707
226	0xbe66b00a	-0.22528091
227	0x3b2b6513	0.0026152774
228	0xbc5d4345	-0.013504808
229	0x3b902426	0.0043988405
230	0xbdd495dc	-0.10380146
231	0xbdd0f167	-0.10202294
232	0xbd406c95	-0.046978552
233	0x3e346f7a	0.1762065
234	0x3cbb2c43	0.022848254
235	0x3db29af5	0.08720962
236	0x3c5f0258	0.013611399
237	0xbe0f81a0	-0.14014292
238	0xbd2b0aa2	-0.041758187
239	0x3d1fdb1b	0.039027315
240	0xbd9d303f	-0.07675218
241	0x3d2e232b	0.042514008
242	0xbd8adef8	-0.06780809
243	0xbe328e3c	-0.1743707
244	0x3d9209ae	0.071307525
245	0xbd9a3350	-0.07529318
246	0x3dd4c531	0.10389174
247	0x3e204946	0.15652952
248	0xbe07f809	-0.13278212
249	0x3da48204	0.08032611
250	0x3df9d37d	0.12198541
251	0x3cd44d01	0.025915625
252	0xbd4790f2	-0.048722215
253	0xbe20c32d	-0.15699454
254	0xbdb8b3c3	-0.09018662
255	0xbd8216f6	-0.06352036

fc1.bias f4 [128]
0	0xbe1d6a42	-0.15372565
1	0x3e16ddd1	0.14733054
2	0x3cfbc97a	0.03073572
3	0xbcb75918	-0.02238135
4	0xbda3919e	-0.07986759
5	0xbd893338	-0.06699222
6	0xbdb61d97	-0.088923626
7	0x3e14897f	0.14505576
8	0x3e0b5107	0.13605128
9	0xbd70e6e3	-0.05881394
10	0xbcd0f21a	-0.025506068
11	0xbdca450f	-0.09876453
12	0x3dc34af5	0.09535781
13	0xbe131fa8	-0.14367545
14	0xbe0ec37c	-0.13941759
15	0xbdfc7376	-0.1232671
16	0x3c7bcb73	0.01536833
17	0xbd7f4957	-0.0623258
18	0x3d953048	0.072845995
19	0x3d3a8a94	0.045542315
20	0x3dcc6884	0.09980872
21	0xbe04e910	-0.12979531
22	0x3b44093f	0.0029912738
23	0xbcb143f4	-0.021638848
24	0xbcc176b6	-0.023616176
25	0xbd1ce04c	-0.038299844
26	0xbdd10653	-0.102062844
27	0x3cefd362	0.0292756
28	0x3db7cafb	0.08974262
29	0xbbafb560	-0.0053621978
30	0x3e172727	0.14761029
31	0x3dc48be9	0.09596998
32	0x3d85f828	0.06541473
33	0xbd214c9f	-0.039379712
34	0xbdff0df4	-0.12453833
35	0x3e04717b	0.12933914
36	0x3dc0eabc	0.09419772
37	0x3d40fa43	0.04711367
38	0xbdbfc69c	-0.093640536
39	0x3d4cba4e	0.04998236
40	0xbc507c69	-0.012724974
41	0xbd8bb848	-0.06822258
42	0x3e0c4160	0.13696814
43	0xbdb4b335	-0.088232435
44	0xbdc341fc	-0.0953407
45	0xbd4c06ef	-0.0498113
46	0xbdac97cd	-0.08427391
47	0x3d1e2278	0.03860709
48	0xbd64b36b	-0.05583517
49	0xbe1c01b3	-0.15235023
50	0xbc89d7f0	-0.0168266
51	0x3d93e7e5	0.07221965
52	0x3dbd9569	0.09257013
53	0x3d6567c6	0.05600717
54	0xbcc0f378	-0.023553595
55	0xbca4ef44	-0.020133622
56	0xbcd65a5e	-0.026166137
57	0x3de928fa	0.11384769
58	0xbdd7ab74	-0.10530749
59	0xbd70d2e1	-0.05879486
60	0xbe0a7623	-0.13521628
61	0xbe19e594	-0.15028983
62	0xbda6d87f	-0.08146762
63	0xbd9499a8	-0.0725587
64	0x3c211de3	0.009833786
65	0xbd6741a6	-0.05645909
66	0xbdfb87fe	-0.12281798
67	0x3dcb72f5	0.09934036
68	0xbd39768e	-0.04527908
69	0xbc232d24	-0.009959493
70	0xbd6cf08e	-0.0578466
71	0x3d37f06b	0.044907015
72	0xbe0f6f89	-0.14007391
73	0x3e12b393	0.14326315
74	0x3e0964cd	0.13417359
75	0x3a95045a	0.0011369095
76	0xbd57e428	-0.05270782
77	0xbcfef5c6	-0.031123053
78	0x3ddc2440	0.10749102
79	0xbe1f1a71	-0.1553743
80	0x3dc2f304	0.09519008
81	0xbe0faa69	-0.1402985
82	0x3df66d2a	0.1203254
83	0x3d0f4f9d	0.034988035
84	0x3e023d67	0.12718736
85	0x3dd1db5a	0.10246916
86	0x3ccd2ae9	0.025044875
87	0xbe0bebd1	-0.13664176
88	0x3e22224f	0.158334
89	0xbddd601a	-0.108093455
90	0xbdd2fb2b	-0.10301813
91	0xbe1f4f19	-0.15557517
92	0xbb911b86	-0.00442833
93	0xbc5a7ea7	-0.01333586
94	0x3da5e176	0.08099644
95	0x3d78a15a	0.06070075
96	0x3db8e1eb	0.090274654
97	0x3d2050b2	0.039139457
98	0x3da0c02f	0.07849156
99	0xbe16077c	-0.14651293
100	0xbd2c1ac0	-0.0420177
101	0x3cfe4c71	0.03104231
102	0xbe05d50b	-0.1306955
103	0xbe1dc95f	-0.15408848
104	0x3cebf1bf	0.028801797
105	0x3dede82b	0.11616548
106	0x3db65730	0.089033484
107	0x3d9e89e3	0.077411436
108	0xbc389465	-0.011265849
109	0xbdff9af2	-0.12480725
110	0xbe175648	-0.14779007
111	0x3dd304b6	0.10303633
112	0x3e0644f6	0.13112244
113	0xbdcb5a5c	-0.09929344
114	0x3d7f2ac0	0.06229663
115	0xbe09e213	-0.13465147
116	0xbe0ea731	-0.13930966
117	0xbdf34398	-0.11878127
118	0x3d959356	0.07303493
119	0x3e15cb23	0.14628272
120	0xbdc09058	-0.094025314
121	0x3d221620	0.03957188
122	0xbd14fe20	-0.036375165
123	0xbdb93351	-0.09042991
124	0xbdc9543d	-0.0983052
125	0xbdb286ad	-0.087170936
126	0x3e25f394	0.16206199
127	0x3d851f9d	0.065001704

bn1.weight f4 [128]
0	0x3f855938	1.0417852
1	0x3f7f98d8	0.99842596
2	0x3f81848a	1.0118573
3	0x3f783b94	0.9696591
4	0x3f816ce3	1.0111355
5	0x3f8c4e14	1.0961328
6	0x3f81cecc	1.0141234
7	0x3f7a6a40	0.97818375
8	0x3f7deeff	0.99192804
9	0x3f803ebc	1.0019145
10	0x3f8c3841	1.0954667
11	0x3f7efc81	0.9960404
12	0x3f7b1981	0.9808579
13	0x3f81639c	1.0108523
14	0x3f7eebd0	0.9957857
15	0x3f7d36fb	0.9891202
16	0x3f7c5b19	0.98576504
17	0x3f7d1b9a	0.9887024
18	0x3f7a3a46	0.9774517
19	0x3f803c52	1.0018408
20	0x3f7cec2c	0.9879787
21	0x3f7dc9b0	0.99135876
22	0x3f7c6b56	0.9860128
23	0x3f8485a8	1.0353289
24	0x3f88c2c9	1.0684444
25	0x3f7a7548	0.97835207
26	0x3f853cfd	1.0409237
27	0x3f7fd103	0.999283
28	0x3f81b240	1.0132523
29	0x3f7bab0b	0.98307866
30	0x3f8307ba	1.0236733
31	0x3f7c2057	0.98486847
32	0x3f7f1cbc	0.9965322
33	0x3f8426fc	1.0324397
34	0x3f7862d9	0.9702583
35	0x3f7c2784	0.98497796
36	0x3f856fd3	1.0424751
37	0x3f83df43	1.0302509
38	0x3f7b44a2	0.981516
39	0x3f7cf357	0.9880881
40	0x3f84651e	1.0343359
41	0x3f7ed9a8	0.9955087
42	0x3f8058f5	1.0027148
43	0x3f7f79d0	0.99795246
44	0x3f7fd9b7	0.9994158
45	0x3f7ba4b1	0.98298174
46	0x3f787447	0.97052425
47	0x3f7bbb79	0.98332936
48	0x3f7eb788	0.99498796
49	0x3f802c89	1.0013591
50	0x3f8098af	1.0046595
51	0x3f7c8c87	0.9865193
52	0x3f77008b	0.96485204
53	0x3f78cf32	0.97191155
54	0x3f7f4886	0.99720037
55	0x3f8025e8	1.0011568
56	0x3f8549d7	1.0413159
57	0x3f82891a	1.019809
58	0x3f83b431	1.0289365
59	0x3f8084c7	1.004052
60	0x3f7bc87b	0.98352784
61	0x3f7ce5ab	0.98787946
62	0x3f793176	0.97341096
63	0x3f83f5a8	1.0309343
64	0x3f7b81d3	0.9824497
65	0x3f825bbe	1.0184247
66	0x3f7b579a	0.98180544
67	0x3f7f593d	0.9974554
68	0x3f8297ad	1.0202538
69	0x3f8b691f	1.0891455
70	0x3f7fcbff	0.9992065
71	0x3f7ccc72	0.9874946
72	0x3f84366b	1.0329107
73	0x3f7ef7b3	0.9959671
74	0x3f796534	0.9742005
75	0x3f7d7d02	0.9901887
76	0x3f7b39d9	0.98135144
77	0x3f808acd	1.0042359
78	0x3f81689f	1.0110053
79	0x3f7d6299	0.98978573
80	0x3f811b3d	1.0086437
81	0x3f7fda39	0.99942356
82	0x3f7c0cb6	0.98456895
83	0x3f81e972	1.0149367
84	0x3f7769b9	0.96645695
85	0x3f7a80b5	0.9785264
86	0x3f86c58e	1.0529039
87	0x3f7c0b14	0.98454404
88	0x3f8010b5	1.0005099
89	0x3f827241	1.0191118
90	0x3f82a67d	1.0207058
91	0x3f783fdf	0.9697246
92	0x3f779e11	0.96725565
93	0x3f81f668	1.0153322
94	0x3f7e500b	0.99340886
95	0x3f7e70a4	0.99390626
96	0x3f793ee0	0.97361565
97	0x3f748c62	0.9552671
98	0x3f7c1832	0.9847442
99	0x3f817e15	1.0116602
100	0x3f818f06	1.0121772
101	0x3f8338b0	1.0251675
102	0x3f7ffc7b	0.9999463
103	0x3f808fc8	1.0043879
104	0x3f848d98	1.0355711
105	0x3f795356	0.97392786
106	0x3f85f162	1.0464289
107	0x3f80e15c	1.0068774
108	0x3f79c2fa	0.97563136
109	0x3f7bf052	0.98413575
110	0x3f82cdf0	1.0219097
111	0x3f7f63cb	0.99761647
112	0x3f811c7a	1.0086815
113	0x3f7f8abd	0.9982107
114	0x3f794919	0.97377163
115	0x3f77d120	0.96803474
116	0x3f7c379a	0.9852234
117	0x3f7d27d8	0.9888892
118	0x3f7c4588	0.98543596
119	0x3f78e45c	0.9722345
120	0x3f79bb8c	0.975518
121	0x3f81c4bf	1.0138167
122	0x3f80a9d5	1.0051829
123	0x3f86d582	1.0533907
124	0x3f869681	1.051468
125	0x3f83cf64	1.0297666
126	0x3f804148	1.0019922
127	0x3f84b91c	1.0368991

bn1.bias f4 [128]
0	0x3d4e15a9	0.050313625
1	0x3c781f01	0.015144111
2	0xbc915fb6	-0.017745834
3	0xbd2c3e5f	-0.04205167
4	0xbc851aac	-0.01624807
5	0x3d6c86b6	0.057745658
6	0x3d8cf5ee	0.06882845
7	0x3ca5b29d	0.020226771
8	0x3c8bdd6f	0.017073361
9	0xbd72ab4c	-0.059245393
10	0x3d4218c2	0.047386892
11	0xbc7a0097	-0.01525893
12	0xbca093f0	-0.019601792
13	0xbd5f7f05	-0.054564495
14	0xbc04e8e3	-0.008112165
15	0xbd2304a4	-0.039799348
16	0xbcf59c56	-0.029981773
17	0xbcc24a06	-0.023716938
18	0xbcd17dff	-0.025572775
19	0xbcab6554	-0.02092234
20	0x3c216dd2	0.009852843
21	0xbcb59002	-0.022163395
22	0xbd7d6d1c	-0.061871633
23	0x3d3528e2	0.044228442
24	0x3d8682b0	0.065678954
25	0xbcf7ab7a	-0.030233134
26	0x3d32d827	0.04366317
27	0xbcdf3e82	-0.027251486
28	0x3d4ae5b7	0.04953548
29	0xbd254286	-0.040346645
30	0xbc522a5b	-0.012827481
31	0x3c325080	0.0108834505
32	0xbccafe7b	-0.024779549
33	0x3d892b65	0.0669773
34	0x3c262ca8	0.010142483
35	0xbd761cdf	-0.060086127
36	0x3cbf2783	0.02333427
37	0x3d40afc6	0.04704263
38	0xbc832167	-0.016007138
39	0x39b08d0d	0.00033674427
40	0x3d3748e5	0.044747252
41	0xbccb8448	-0.02484335
42	0xbb3caa27	-0.0028787942
43	0x3cc72d87	0.024313701
44	0x39b3c4ff	0.00034288314
45	0xbcafa785	-0.021442184
46	0xbd2fe9c6	-0.042947553
47	0xbd0cee69	-0.034407053
48	0xbcf0bf4f	-0.029388098
49	0x3c429c92	0.01187815
50	0x3ce30421	0.02771193
51	0xbc2d85c0	-0.0105909705
52	0xbd1f632f	-0.03891295
53	0xbcf7c757	-0.03024642
54	0xbd3db24f	-0.046312626
55	0x3ca46f5f	0.020072637
56	0x3ce44624	0.027865477
57	0xbba44a72	-0.0050137574
58	0x3cd9b013	0.026573217
59	0xbd3c8f8e	-0.046035342
60	0xbc87a715	-0.016559163
61	0x3d1878fd	0.03722476
62	0xbd506af6	-0.050883256
63	0x3c269640	0.010167658
64	0x3ba8e8c3	0.0051547005
65	0x3c414fb3	0.011798787
66	0x3c53e7bf	0.012933671
67	0x3b17c0a8	0.0023155604
68	0x3c3754ee	0.011189682
69	0x3da6ee0d	0.08150873
70	0xbd35b479	-0.044361565
71	0xbcf0b165	-0.029381463
72	0x3c0b18b1	0.008489774
73	0xbd7e41c0	-0.062074423
74	0xbd5d27e3	-0.053993117
75	0xbcab6239	-0.02092086
76	0xbd458ea1	-0.048231725
77	0xbd1a6434	-0.037693217
78	0xbb8c5000	-0.0042819977
79	0x3a97f3e3	0.001159307
80	0x3b1b57ef	0.0023703536
81	0x3c82d2da	0.015969682
82	0xbb9a14c8	-0.0047021843
83	0x3cd693cd	0.026193524
84	0xbd08369e	-0.033255212
85	0xbcada1f5	-0.021195391
86	0x3d538c8f	0.05164772
87	0xbcb4a1fa	-0.022049893
88	0x3cce2d5a	0.02516811
89	0xbc083808	-0.00831414
90	0xbcfece35	-0.031104187
91	0xbc5423cf	-0.012947991
92	0xbcd8b073	-0.026451325
93	0x3c2c7f6f	0.010528429
94	0xbc091b7f	-0.008368372
95	0xbd2425d5	-0.040075142
96	0xbd392f8f	-0.04521137
97	0xbd895c38	-0.067070425
98	0xbc2948bd	-0.010332284
99	0xbc0f4213	-0.008743781
100	0xbcc0f62c	-0.023554884
101	0x3c0c16fe	0.008550404
102	0x3c8fc2b1	0.01754889
103	0xbd410e3a	-0.047132708
104	0x3d6624ad	0.05618732
105	0xbc5e8826	-0.013582265
106	0x3c27205f	0.010200589
107	0xbb50bd5b	-0.0031851146
108	0xbcf5c8bc	-0.030002944
109	0xbd2002c5	-0.03906514
110	0x3cc7a6f6	0.024371605
111	0x3d0abffd	0.0338745
112	0x3ae29abc	0.0017288546
113	0xbd18509c	-0.03718625
114	0xbbf4fd80	-0.0074765086
115	0xbd16ba03	-0.03679849
116	0x3b98ccbf	0.0046630795
117	0xbc63f8c4	-0.013914291
118	0xbcb505f0	-0.022097558
119	0x3c3034b8	0.010754757
120	0xbce8964e	-0.028391983
121	0xbcb936be	-0.02260911
122	0xbc93485c	-0.01797884
123	0x3d05e146	0.03268554
124	0x3d3d04bc	0.046147093
125	0x3d1aaa91	0.03776032
126	0xbd21722f	-0.039415535
127	0x3d062ad8	0.032755703

bn1.running_mean f4 [128]
0	0xbe1bc779	-0.15212812
1	0x3e1bf955	0.15231831
2	0x3d0841c4	0.033265844
3	0xbcc4e1ac	-0.02403339
4	0xbd9f9f6f	-0.077940814
5	0xbd8b44b1	-0.06800211
6	0xbdb43a78	-0.088002145
7	0x3e0f2931	0.13980557
8	0x3e0b3bd5	0.13597043
9	0xbd7d6563	-0.061864268
10	0xbccd3382	-0.025048975
11	0xbdc4e8ce	-0.096147165
12	0x3dc17675	0.09446422
13	0xbe118370	-0.14210296
14	0xbe08bc41	-0.13353063
15	0xbdfb2f92	-0.12264933
16	0x3c8cf22f	0.017205326
17	0xbd8a818f	-0.067629926
18	0x3d9c4da3	0.076319955
19	0x3d47023e	0.048586123
20	0x3dd294c8	0.10282284
21	0xbe02013e	-0.12695786
22	0x3bd7a272	0.0065806443
23	0xbcf45a76	-0.029828291
24	0xbce4e907	-0.027943147
25	0xbd24a40c	-0.04019551
26	0xbdcb62d5	-0.0993096
27	0x3ceb52a0	0.028725922
28	0x3dc13154	0.09433237
29	0xbb907c65	-0.0044093602
30	0x3e160947	0.14651977
31	0x3dbe2d0e	0.09285937
32	0x3d891f08	0.06695372
33	0xbd2475b1	-0.0401513
34	0xbe023ab2	-0.12717703
35	0x3e06952e	0.13142845
36	0x3db866c3	0.09003975
37	0x3d579d65	0.052640337
38	0xbdc3ed25	-0.09566716
39	0x3d56d702	0.05245114
40	0xbc296871	-0.010339842
41	0xbd8e8bf1	-0.069602855
42	0x3e1050c5	0.14093311
43	0xbdaa4fd2	-0.08316006
44	0xbdcb230e	-0.099187955
45	0xbd589add	-0.052882064
46	0xbda7bbb2	-0.08190097
47	0x3d37d189	0.044877563
48	0xbd628831	-0.055305663
49	0xbe172ba5	-0.14762743
50	0xbc6885f3	-0.014192092
51	0x3d9abd88	0.075556815
52	0x3dc519f1	0.096240886
53	0x3d5465f5	0.051855046
54	0xbcb31895	-0.021862308
55	0xbc8cf5fc	-0.017207138
56	0xbcf7e4e9	-0.03026052
57	0x3ded4460	0.11585307
58	0xbdeb3d38	-0.11486286
59	0xbd6982a8	-0.05700937
60	0xbe0ceed2	-0.13762978
61	0xbe1c775f	-0.15279911
62	0xbda2685d	-0.07930062
63	0xbd970f94	-0.07376018
64	0x3c4b5432	0.01241021
65	0xbd6ba9f9	-0.057535145
66	0xbe028c0d	-0.12748738
67	0x3dd22271	0.102604754
68	0xbd3ea5aa	-0.04654471
69	0xbc477eba	-0.01217621
70	0xbd5b2915	-0.053505976
71	0x3d408d3c	0.04700969
72	0xbe1839db	-0.1486582
73	0x3e17e368	0.14832842
74	0x3e09b88a	0.13449302
75	0x3b130e86	0.0022439077
76	0xbd577bc6	-0.052608274
77	0xbd035c0b	-0.0320702
78	0x3dd28afb	0.10280415
79	0xbe227dc1	-0.15868284
80	0x3dc31976	0.09526341
81	0xbe0cfd89	-0.13768591
82	0x3dffc64c	0.12488994
83	0x3d1083fc	0.03528212
84	0x3e06eb72	0.13175753
85	0x3dc89d5f	0.09795641
86	0x3cb7de0c	0.022444747
87	0xbe0d0336	-0.13770756
88	0x3e216829	0.1576239
89	0xbdcf287c	-0.10115144
90	0xbdcf9e44	-0.10137609
91	0xbe1fde86	-0.1561223
92	0xbc0b261a	-0.008492971
93	0xbc68f450	-0.014218405
94	0x3dab4830	0.08363378
95	0x3d6db5d6	0.05803474
96	0x3dc8086a	0.0976723
97	0x3d294c81	0.041332725
98	0x3da1a172	0.078921214
99	0xbe158e3d	-0.14605041
100	0xbd327b24	-0.043574467
101	0x3d07bbac	0.033137962
102	0xbe091dd6	-0.13390288
103	0xbe1a7cce	-0.15086672
104	0x3ce8451d	0.028353268
105	0x3deb157c	0.11478707
106	0x3db34879	0.087540574
107	0x3d9dffd4	0.07714811
108	0xbbb37af8	-0.0054773055
109	0xbe009363	-0.12556224
110	0xbe1148c3	-0.14187913
111	0x3dd114cd	0.102090456
112	0x3e075cee	0.13219044
113	0xbdc53b82	-0.09630491
114	0x3d6c205f	0.05764806
115	0xbe078063	-0.1323257
116	0xbe12a06a	-0.14319006
117	0xbdf6a8ab	-0.120438896
118	0x3d930633	0.07178917
119	0x3e0e6da5	0.13909014
120	0xbdc1e2ba	-0.09467073
121	0x3d2c3435	0.042041976
122	0xbd126f17	-0.035750475
123	0xbdbba2e0	-0.09161925
124	0xbdcca66a	-0.099926785
125	0xbdaed1ad	-0.08536086
126	0x3e27f3be	0.16401574
127	0x3d85e76f	0.06538283

bn1.running_var f4 [128]
0	0x3e89b7d8	0.26898074
1	0x3e8cbcf0	0.27487898
2	0x3ee05811	0.4381719
3	0x3f1d720a	0.61502135
4	0x3f139814	0.5765393
5	0x3e007c26	0.12547359
6	0x3e0b849c	0.13624805
7	0x3ea2b199	0.3177612
8	0x3e83f8cc	0.25775754
9	0x3e0a85ad	0.13527556
10	0x3de9208b	0.1138316
11	0x3eb40351	0.3515878
12	0x3e64d701	0.22347642
13	0x3eddbed2	0.43309647
14	0x3e78c1c5	0.24292667
15	0x3e486117	0.19568287
16	0x3e814419	0.25247267
17	0x3fd8bd92	1.6932852
18	0x3e246b63	0.1605659
19	0x3ed8a531	0.4231353
20	0x3ec4aad7	0.3841159
21	0x3e849675	0.2589604
22	0x3ea5ffac	0.32421625
23	0x3f7bf938	0.9842715
24	0x3e714e86	0.2356511
25	0x3e96ad0f	0.29428908
26	0x3e34ab45	0.17643459
27	0x3e414611	0.18874384
28	0x3f1a56f9	0.6028896
29	0x3e4fd002	0.20294192
30	0x3e4f117c	0.20221514
31	0x3ea7bf70	0.32763243
32	0x3ec60803	0.38677987
33	0x3e590dfc	0.21196741
34	0x3ede6002	0.43432623
35	0x3e35b558	0.17744958
36	0x3e241c4b	0.16026418
37	0x3e9b4510	0.30326128
38	0x3e66d23f	0.2254114
39	0x3f1c2e14	0.6100781
40	0x3dd6b186	0.10483079
41	0x3efbd11c	0.49182975
42	0x3f651ef5	0.8950036
43	0x3eb0b66e	0.34514183
44	0x3dab5542	0.08365871
45	0x3e65a65f	0.22426747
46	0x3e3fdae4	0.18735844
47	0x3ee22e8e	0.44176143
48	0x3e5e11f4	0.21686536
49	0x3fa402a3	1.2813305
50	0x3eadce31	0.33946374
51	0x3e97b6a6	0.29631537
52	0x3e3009c7	0.1719123
53	0x3f80e308	1.0069284
54	0x3f0c1218	0.5471511
55	0x3e710bc6	0.23539647
56	0x3f9cc7d4	1.2248483
57	0x3e8e783e	0.27826113
58	0x3f85c4e3	1.045071
59	0x3e99d39a	0.30044252
60	0x3f0b5bba	0.5443684
61	0x3e3c21f1	0.18372323
62	0x3f165370	0.58721066
63	0x3ee0f2b3	0.43935165
64	0x3f1975a8	0.59945154
65	0x3e53d6c0	0.2068739
66	0x3f2e4687	0.68076366
67	0x3f384017	0.71972793
68	0x3e071fd4	0.13195735
69	0x3e9c5e5d	0.30540743
70	0x3e6ab74f	0.22921489
71	0x3ed6e77f	0.41973493
72	0x3f6de125	0.9292167
73	0x3eb8046a	0.35940868
74	0x3e7f00f4	0.24902707
75	0x3debaf07	0.11507993
76	0x3e1f237f	0.15540884
77	0x3e3f43d1	0.18678214
78	0x3e66dc05	0.22544868
79	0x3ed3751c	0.41300285
80	0x3ef73a0c	0.48286474
81	0x3e9bf04f	0.30456778
82	0x3f4bc4be	0.7959708
83	0x3e96c43f	0.294466
84	0x3e42be23	0.19017844
85	0x3e7434a3	0.23848204
86	0x3e9feefb	0.31237015
87	0x3e9562f6	0.29177064
88	0x3f01381f	0.5047626
89	0x3e92a2a5	0.28639713
90	0x3ee38b2e	0.44442123
91	0x3e2bfa17	0.1679462
92	0x3fa09308	1.254487
93	0x3fc6f187	1.5542458
94	0x3f20193b	0.625385
95	0x3e530b81	0.20609857
96	0x3e87db04	0.26534283
97	0x3de46b8a	0.11153324
98	0x3ef8ede4	0.48618996
99	0x3ebff7f7	0.3749387
100	0x3f137926	0.5760673
101	0x3e3f3e06	0.18676004
102	0x3e964260	0.29347515
103	0x3eae1089	0.3399699
104	0x3e8197c4	0.253111
105	0x3e9af409	0.3026431
106	0x3e42cc50	0.19023252
107	0x3ed33cf6	0.41257447
108	0x3ead7a74	0.33882487
109	0x3e045fdc	0.12927192
110	0x3f57f2e6	0.8435501
111	0x3dd6d9f9	0.10490794
112	0x3e46e6e4	0.19424015
113	0x3e11d5ad	0.14241667
114	0x40045cbd	2.0681603
115	0x3e61b625	0.22042139
116	0x3fc8d314	1.5689416
117	0x3e92cfd2	0.2867418
118	0x3eb06ce6	0.34458083
119	0x3fb0a503	1.3800358
120	0x3eaf35ad	0.3422064
121	0x3e4b998c	0.19882792
122	0x3ea130b5	0.31482473
123	0x3e95170c	0.29119146
124	0x3e873e64	0.26414788
125	0x3f208f2c	0.6271846
126	0x3e864d90	0.2623105
127	0x3f169888	0.58826494

fc2.weight f4 [64, 128]
0	0xbd9e23f9	-0.07721705
1	0x3c9c06b0	0.019046158
2	0x3da18e8e	0.07888518
3	0xbda76ba7	-0.0817483
4	0x3d5976bf	0.05309176
5	0xbd8d5981	-0.06901837
6	0xbddbb75e	-0.10728334
7	0x3d033a45	0.032037992
8	0xbb38c8d0	-0.0028195865
9	0xbca2062d	-0.019778335
10	0x3d359045	0.04432704
11	0x3d67beaf	0.056578334
12	0x3cef6bd9	0.02922623
13	0x3d81ac7a	0.063317254
14	0xbd82265f	-0.06354975
15	0xbb9d0642	-0.0047920058
16	0x3d9de797	0.07710188
17	0xbba99f20	-0.00517644
18	0x3d361a2e	0.04445856
19	0xbc5d8e3b	-0.01352268
20	0xbd2fabd9	-0.042888496
21	0x3d845844	0.06462148
22	0x3d5f8b76	0.05457636
23	0x3d5fa3b9	0.054599497
24	0xbbf60e83	-0.007509054
25	0xbd4bd8d0	-0.049767315
26	0xbdb61e75	-0.08892528
27	0x3dc96eff	0.09835624
28	0x3c6eb694	0.014569897
29	0x3d404f33	0.04695053
30	0x3d3b1d47	0.045682218
31	0xbddba3f8	-0.10724634
32	0x3c6a6b28	0.014307775
33	0xbd9545a1	-0.07288671
34	0x3d1b7838	0.037956446
35	0x3d809984	0.06279281
36	0xbd883a5b	-0.066517554
37	0x3bd5c852	0.006524124
38	0x3d05353f	0.032521483
39	0x3bc5640e	0.0060238903
40	0xbdbf0c56	-0.09328525
41	0x3c483dd3	0.012221771
42	0xbd5ac3f1	-0.05340952
43	0xbcb6042e	-0.02221879
44	0xbce75d76	-0.028242808
45	0x3d691f5a	0.056914665
46	0xbd85816d	-0.06518827
47	0xbd9360ad	-0.07196174
48	0xbcc4ad82	-0.024008516
49	0xbd37ef95	-0.044906218
50	0xbbafced1	-0.0053652306
51	0xbd5984ad	-0.053105045
52	0x3c85eda3	0.016348666
53	0x3d12ec8a	0.035870112
54	0xbd6b53aa	-0.057452835
55	0xbd5887a6	-0.05286374
56	0x3d1d6f94	0.038436487
57	0x3d85b41d	0.065284945
58	0x3d81df09	0.06341369
59	0x3ca037b7	0.019557817
60	0xbc964913	-0.018345391
61	0xbcec261c	-0.028826766
62	0x3c051379	0.008122318
63	0x3dbe56d8	0.09293908
64	0xbd800d0a	-0.06252487
65	0xbd5e900b	-0.05433659
66	0xbd1d4de3	-0.038404357
67	0x3d44341f	0.04790127
68	0xbcda57f5	-0.02665327
69	0xbd10a6e2	-0.0353154
70	0x3d7a48cf	0.061104592
71	0x3d78cb7b	0.06074093
72	0x3d23bdbe	0.039975874
73	0x3dac1415	0.08402268
74	0x3cb0ccca	0.021582026
75	0x3da386ff	0.07984733
76	0xbd8f4a4a	-0.069965914
77	0x3dd78e34	0.1052517
78	0x3d45b2e9	0.048266325
79	0x3b0addec	0.0021189405
80	0x3d4abfe8	0.049499422
81	0xbd897306	-0.06711392
82	0x3ce0d1f8	0.02744387
83	0xbd99cd96	-0.075099155
84	0x3b87841e	0.0041356226
85	0x3c245a69	0.010031321
86	0xbd2d92b2	-0.042376228
87	0x3da1b274	0.07895365
88	0xbc7c9f44	-0.015418831
89	0xbd076495	-0.033054907
90	0x3d891e83	0.06695273
91	0x3d09fee1	0.033690337
92	0xbd8bd65a	-0.06827994
93	0x3cb963c9	0.02263059
94	0x3bef99cc	0.007312035
95	0x3d2e610d	0.042573024
96	0x3b9e8921	0.0048381244
97	0x3da20656	0.07911365
98	0xbd4a4e88	-0.0493913
99	0x3dc867e4	0.097854406
100	0x3d359feb	0.044341963
101	0x3db228cd	0.086991884
102	0x3d7d5aa8	0.061854035
103	0x3c897d5c	0.016783409
104	0xbcd6112a	-0.026131231
105	0xbdbbbdde	-0.09167074
106	0xba79ade9	-0.0009524511
107	0xbd229073	-0.03968854
108	0xbd3eab9c	-0.04655038
109	0x3cad2b23	0.021138733
110	0xbdc8e90c	-0.09810075
111	0xbdb61de3	-0.08892419
112	0xbd9b54ba	-0.0758452
113	0xbd442fe1	-0.047897223
114	0xbd3fde52	-0.04684288
115	0x3d9b343a	0.07578321
116	0xbd139c4c	-0.03603773
117	0x3c8bd2d7	0.01706831
118	0xba827d28	-0.0009955512
119	0xbd393eb6	-0.04522582
120	0xbd96f711	-0.07371343
121	0xbcf0ba06	-0.029385578
122	0xbd117eb7	-0.035521235
123	0x3cf549c3	0.029942399
124	0xbd0833c3	-0.03325249
125	0xbdd5daa1	-0.10442091
126	0x3dac2615	0.08405701
127	0xbd75af62	-0.05998171
128	0xbcff6847	-0.031177653
129	0x3d64913f	0.05580258
130	0xbd233035	-0.039840896
131	0x3d80e69f	0.062939875
132	0x3d9c3df5	0.07629005
133	0xbd8177fc	-0.06321713
134	0xbd8d9c35	-0.0691456
135	0xbcaa69cf	-0.020802407
136	0x3d803acd	0.06261215
137	0x3d0c26e1	0.034216765
138	0xbc69e085	-0.014274721
139	0xbcba0012	-0.022705112
140	0x3b97f3cb	0.0046372167
141	0x3dc960a5	0.098328866
142	0x3d67d86d	0.056602884
143	0x3c186e23	0.009303602
144	0xbb20ccd7	-0.0024536157
145	0x3d81d845	0.06340078
146	0x3db66a6f	0.08907019
147	0x3d9ad2b5	0.075597204
148	0x3d777706	0.060416244
149	0x3bbdc537	0.005791332
150	0x3dcd3432	0.10019721
151	0xb92b0fa5	-0.00016313659
152	0x3cf5e2e7	0.030015422
153	0xbd79a5b2	-0.060949035
154	0xbd4b67cc	-0.049659535
155	0xbd019242	-0.031633623
156	0xbcdddf7e	-0.027084108
157	0xbacc01ac	-0.0015564463
158	0x3d7efc5e	0.062252395
159	0xbcd8370a	-0.026393432
160	0xbd4de62c	-0.050268337
161	0x3d9fd6cf	0.07804643
162	0x3daed39b	0.08536454
163	0x3db565b4	0.08857289
164	0xbd0d7e20	-0.03454411
165	0x3dbed70b	0.0931836
166	0x3d0650f9	0.032792065
167	0xbc3f5beb	-0.01167963
168	0x3c7b92c0	0.015354812
169	0x3d8c02d9	0.06836481
170	0xbc90cb45	-0.017675051
171	0xbd294817	-0.041328516
172	0xbd56491f	-0.052315827
173	0x3d8dfdaf	0.06933152
174	0x3daba142	0.08380367
175	0xbd1da833	-0.038490485
176	0x3db49a1d	0.08818457
177	0x3daa0d52	0.08303322
178	0xbd5cc137	-0.0538952
179	0xbd89be27	-0.06725722
180	0xbd75de39	-0.06002638
181	0x3c308428	0.010773696
182	0x3bd6fabc	0.0065606516
183	0x3d9f498e	0.07777701
184	0xbd9cbdc0	-0.076533794
185	0x3caacd9c	0.020849995
186	0xbd57efaf	-0.052718814
187	0x3d29cead	0.041456867
188	0x3d0c4b14	0.034251288
189	0xbd468beb	-0.04847328
190	0xbd45f3f5	-0.04832836
191	0x3da7e681	0.08198262
192	0xbcbc70c3	-0.023002988
193	0xbd253622	-0.04033483
194	0x3c56104c	0.013065409
195	0xbd108c25	-0.035289902
196	0x3cfbaf29	0.030723171
197	0x3bfda6ff	0.0077408548
198	0x3c34a69e	0.011026053
199	0x3c7d1a73	0.0154482005
200	0x3bf5c3d7	0.0075001526
201	0xbd7c8153	-0.06164677
202	0xbd142570	-0.036168516
203	0xbd83fbe2	-0.06444527
204	0xbcff8b67	-0.031194402
205	0x3caf5fc7	0.021407975
206	0xbd8aee4f	-0.06783735
207	0xbcc03063	-0.023460573
208	0xbda0f0da	-0.07858439
209	0x3d4e21a8	0.050325066
210	0x3d167904	0.036736503
211	0xbcd2d9c1	-0.025738599
212	0x3d8484c0	0.064706326
213	0x3d311363	0.04323138
214	0xbd184c9a	-0.037182428
215	0x3d69589e	0.056969278
216	0x3d7d3e01	0.06182671
217	0xbcca5539	-0.02469884
218	0xbd8146d1	-0.06312335
219	0xbbbf5846	-0.0058393804
220	0xbcd568ba	-0.026050914
221	0x3c7be7d4	0.015375096
222	0x3d02d8f8	0.0319452
223	0x3d90e58e	0.07075034
224	0xbc2fdc02	-0.010733606
225	0x3ce42d7d	0.027853722
226	0xbcfbf258	-0.030755207
227	0x3dd130c3	0.10214379
228	0x3d9cd9c5	0.07658724
229	0xbc26cc69	-0.010180571
230	0xbd56d2f5	-0.052447278
231	0x3dc476e0	0.09592986
232	0xbb68401d	-0.0035438605
233	0x3d906048	0.07049614
234	0xbd986611	-0.074413426
235	0xbda30c50	-0.07961333
236	0xbd07b0ca	-0.033127584
237	0x3d258119	0.04040632
238	0x3cf01071	0.029304715
239	0x3c22936c	0.009922843
240	0xbd434c17	-0.047679987
241	0x3da2cba8	0.079490006
242	0x3d2071a9	0.039170895
243	0xbd96bf16	-0.073606655
244	0xbd985a72	-0.07439126
245	0xbd95d250	-0.073155046
246	0xbd81ccef	-0.06337916
247	0x3d41e697	0.04733905
248	0xbd52996e	-0.051415853
249	0x3d340ff9	0.043960545
250	0xbd4e68ac	-0.05039279
251	0xbd599939	-0.05312464
252	0x3c4a2e09	0.012340077
253	0x3d90aada	0.07063837
254	0x3cdbd01c	0.026832633
255	0xbd85e40a	-0.065376356

fc2.bias f4 [64]
0	0x3cc9e333	0.02464447
1	0x3daf3835	0.085556425
2	0xbd81c4d0	-0.06336367
3	0x3cffb3e9	0.031213718
4	0xbc80b16c	-0.015709601
5	0xbd5a1b3b	-0.053248625
6	0x3d92a159	0.07159681
7	0xbd16073d	-0.036627997
8	0xbd8031ab	-0.062594734
9	0x3d9e668b	0.07734402
10	0x3ccdede8	0.025137857
11	0xbcb97ea1	-0.02264339
12	0xbcfb7dcc	-0.030699633
13	0xbd1edac6	-0.038782857
14	0x3cbb6d8b	0.022879383
15	0xbda73546	-0.08164458
16	0x3ca73f88	0.020416036
17	0xbd05c4e3	-0.03265847
18	0x3c8ad4f8	0.016947255
19	0xbd07013e	-0.03296017
20	0x3d5ea468	0.05435601
21	0xbd1fd4f2	-0.03902144
22	0x3d245bfa	0.04012678
23	0x3d8adbb0	0.06780183
24	0xbd312406	-0.043247245
25	0x3cf53b7c	0.02993559
26	0xba29c435	-0.00064760755
27	0x3d49374f	0.049125012
28	0xbd2325ff	-0.039831158
29	0x3d92be8f	0.071652524
30	0x3d38603e	0.04501366
31	0xbcab05f3	-0.02087686
32	0x3d5e6432	0.054294772
33	0xbbeb2321	-0.0071758186
34	0xbb9c3276	-0.0047667576
35	0xbd73b0f9	-0.059494946
36	0xbbda8acf	-0.0066693793
37	0x3d0ff641	0.035146955
38	0x3d3842cf	0.04498559
39	0x3c2d0a6a	0.010561565
40	0x3a6a389c	0.0008934827
41	0x3d1a8f6a	0.037734427
42	0x3c6f8d85	0.014621143
43	0x3d4a7753	0.049430203
44	0x3d58195c	0.05275856
45	0xbda89da3	-0.08233192
46	0xbc384281	-0.0112463245
47	0x3d5a3381	0.053271774
48	0x3d1669e9	0.036722098
49	0xbd95588e	-0.07292281
50	0x3cff8e4e	0.031195786
51	0xbda8b0b0	-0.082368255
52	0x3d873afb	0.066030465
53	0x3c773343	0.015087905
54	0xbd78a7f4	-0.060707048
55	0xbd2c9cce	-0.042141728
56	0xbd042ba5	-0.032268185
57	0xbda258e6	-0.07927112
58	0xbda14e46	-0.078762576
59	0xbc7e24dd	-0.015511719
60	0xbb78ae49	-0.003794568
61	0x3d5dbedb	0.054137092
62	0x3d9dc233	0.07703056
63	0xbd7ab594	-0.061208323

bn2.weight f4 [64]
0	0x3f7f5d09	0.99751335
1	0x3f7e2c92	0.9928676
2	0x3f78d605	0.9720157
3	0x3f7fa956	0.9986776
4	0x3f83b02b	1.0288137
5	0x3f81dabd	1.0144879
6	0x3f7f918c	0.9983146
7	0x3f82299c	1.0168948
8	0x3f7706ee	0.9649495
9	0x3f89ce56	1.0766094
10	0x3f7d35ee	0.98910415
11	0x3f828f29	1.0199939
12	0x3f8697b8	1.0515051
13	0x3f83f746	1.0309837
14	0x3f82a63a	1.0206978
15	0x3f7abe5f	0.97946733
16	0x3f7ed1df	0.9953899
17	0x3f801a1e	1.000797
18	0x3f7f1836	0.9964632
19	0x3f7c5eac	0.9858196
20	0x3f85843b	1.0430979
21	0x3f8ac607	1.0841683
22	0x3f7ca3de	0.9868754
23	0x3f818684	1.0119176
24	0x3f7a3efb	0.9775235
25	0x3f7ee659	0.9957023
26	0x3f82e7a8	1.0226946
27	0x3f8430b4	1.0327363
28	0x3f85ce23	1.0453533
29	0x3f7984ff	0.9746856
30	0x3f7f324f	0.9968614
31	0x3f7ed557	0.9954428
32	0x3f8152f2	1.0103438
33	0x3f7acd3b	0.97969407
34	0x3f86fc6b	1.0545782
35	0x3f804356	1.0020549
36	0x3f763f1e	0.9619006
37	0x3f7b9224	0.9826987
38	0x3f7f3049	0.9968305
39	0x3f7b017f	0.9804916
40	0x3f7e0904	0.99232507
41	0x3f836d9b	1.0267824
42	0x3f79c652	0.9756824
43	0x3f7c6662	0.98593724
44	0x3f79be17	0.9755568
45	0x3f76b3f7	0.96368355
46	0x3f7bf8a4	0.9842627
47	0x3f825657	1.0182599
48	0x3f85b0d8	1.0444593
49	0x3f7ff897	0.99988693
50	0x3f7b4948	0.98158693
51	0x3f7a32d5	0.97733814
52	0x3f7a5741	0.9778939
53	0x3f8272f0	1.0191326
54	0x3f7c944d	0.9866379
55	0x3f7de5bb	0.99178666
56	0x3f8417e6	1.0319793
57	0x3f7af1c6	0.98025167
58	0x3f7c7723	0.9861929
59	0x3f850090	1.0390797
60	0x3f82f3ec	1.0230689
61	0x3f7a98c8	0.97889376
62	0x3f81d7e6	1.0144012
63	0x3f7cfda6	0.98824537

bn2.bias f4 [64]
0	0xbcfbc672	-0.030734275
1	0xbd57dae6	-0.052698992
2	0xbd6094eb	-0.05482952
3	0xbd789b45	-0.06069495
4	0x3c945879	0.018108593
5	0xbbfaf275	-0.0076582977
6	0x3cfdb726	0.030971121
7	0xbd7ae4b7	-0.061253276
8	0xbd37e29c	-0.044893846
9	0x3d9f1746	0.07768111
10	0x3d16eb34	0.0368454
11	0x3d07b6bd	0.033133257
12	0x3cd72bf2	0.026266072
13	0x3d465375	0.048419435
14	0xbd34b4cb	-0.04411773
15	0xbd4bff77	-0.049804177
16	0xb885ca0a	-6.379567e-05
17	0xbd92cf92	-0.07168497
18	0xbc9349ac	-0.017979465
19	0xbc0ca8ce	-0.008585168
20	0x3d831f90	0.064025044
21	0x3d889ccd	0.066705324
22	0x3c50a508	0.012734659
23	0xbd2ef386	-0.04271271
24	0xbb04a41f	-0.0020239425
25	0x3cf3d2bf	0.029763578
26	0x3cc9926a	0.024605948
27	0xbd86e39a	-0.0658638
28	0x3d5d5ca9	0.054043446
29	0xbd4fff90	-0.050780833
30	0x3c0b82d7	0.008515081
31	0x3c787a07	0.015165812
32	0x3d277f97	0.040893164
33	0xbc57e819	-0.013177895
34	0x3d2b75c6	0.041860364
35	0x3cc34256	0.023835342
36	0xbd732184	-0.059358135
37	0x3cbd818c	0.023133062
38	0xbb7be153	-0.0038433864
39	0xbc83f35e	-0.016107257
40	0xbd56ec7f	-0.052471634
41	0x3c688df8	0.014194004
42	0xbd375522	-0.044758923
43	0x3cadfb0c	0.021237873
44	0x3c33f7c6	0.010984367
45	0xbd0c25b9	-0.034215663
46	0xbc1daca5	-0.009623681
47	0xbd572e1a	-0.0525342
48	0x3d82646e	0.06366812
49	0xbd8b7823	-0.06810024
50	0x3d0485e4	0.03235425
51	0xbc4e43ee	-0.012589438
52	0x3b9bd40e	0.0047555035
53	0x3d2d9ed3	0.042387795
54	0x3c293048	0.010326453
55	0x3cbfed39	0.023428546
56	0x3ccf7357	0.025323553
57	0xbd4b7a55	-0.04967721
58	0xbbdf550f	-0.0068155597
59	0x3ce67e61	0.028136434
60	0x3d122955	0.03568395
61	0xbd3608b0	-0.04444188
62	0xbcfa1af5	-0.030530432
63	0xbcb50327	-0.02209623

bn2.running_mean f4 [64]
0	0xbddef272	-0.108860865
1	0x3e025239	0.12726678
2	0xbd2e6e7d	-0.04258584
3	0x3dcdb57d	0.10044382
4	0xbed9f983	-0.42573175
5	0xbeebcf76	-0.46056718
6	0x39b30e51	0.00034152207
7	0x3bf1a4b0	0.0073743686
8	0xbe9e116b	-0.30872664
9	0xbe14585a	-0.14486828
10	0xbe79c74b	-0.2439243
11	0xbe4b7dc7	-0.19872199
12	0xbe97aaa1	-0.29622367
13	0xbe698756	-0.22805533
14	0xbc031ed0	-0.008002952
15	0xbcada136	-0.021195035
16	0xbcb54dcc	-0.022131823
17	0xbdb41f0b	-0.087949835
18	0x3dfce3fc	0.12348172
19	0xbdeff1b2	-0.117160216
20	0xbbc835c1	-0.0061099236
21	0xbe3eecb0	-0.18644977
22	0x3d80b2a0	0.0628407
23	0x3e17be9a	0.14818802
24	0xbea22fea	-0.3167718
25	0xbd41259f	-0.04715502
26	0xbed2d750	-0.41179895
27	0x3de987d8	0.11402863
28	0xbe966e80	-0.2938118
29	0xbdf43350	-0.119238496
30	0xbec131d9	-0.37733343
31	0xbe7eda3d	-0.24887939
32	0xbe8e52d3	-0.27797565
33	0xbe9ff27a	-0.31239682
34	0x3cb6c6b8	0.022311553
35	0xbea69098	-0.3253219
36	0xbdfe2cda	-0.124108985
37	0xbe03c8c7	-0.12869559
38	0xbdaff6b5	-0.085919775
39	0xbcca300c	-0.024681114
40	0x3c4f2331	0.012642668
41	0x3d9be2b5	0.076116
42	0xbe26f6e0	-0.16305113
43	0xbd935c83	-0.071953796
44	0xbe552f61	-0.20818855
45	0xbe5868dd	-0.21133752
46	0xbd8f18c3	-0.06987145
47	0xbbaeff46	-0.0053404896
48	0xbd1c4003	-0.038146984
49	0xbb36d39f	-0.0027897132
50	0xbe7bf2ef	-0.2460439
51	0xbee7e299	-0.45290068
52	0x3d299627	0.041402962
53	0x3d1f114a	0.038834848
54	0xbe93f742	-0.2889958
55	0xbe1e646a	-0.15467992
56	0xbe8b3a09	-0.27192715
57	0xbe2dd2e3	-0.16974978
58	0xbdded268	-0.108799756
59	0x3d145572	0.0362143
60	0x3cc25a1c	0.023724608
61	0xbd05d469	-0.032673273
62	0x3e3332f6	0.17499909
63	0xbd6c0128	-0.05761829

bn2.running_var f4 [64]
0	0x3f15cccf	0.5851564
1	0x3f0ca1a6	0.54934156
2	0x3f1771ae	0.59157836
3	0x3f139903	0.5765535
4	0x3ee9129b	0.45522007
5	0x3ee6f394	0.4510771
6	0x3f27e844	0.65588784
7	0x3f0f1797	0.5589537
8	0x3eaecccf	0.34140632
9	0x3f9233d3	1.1422065
10	0x3f524ffa	0.82153285
11	0x3f08190b	0.5316321
12	0x3eb82942	0.35968977
13	0x3ee83f1f	0.45360658
14	0x3f200fd6	0.62524164
15	0x3ec265a9	0.37968186
16	0x3f0c81c8	0.5488553
17	0x3f021eee	0.50828445
18	0x3efa8bb1	0.489347
19	0x3f390ca2	0.722849
20	0x3f2ef700	0.6834564
21	0x3f765533	0.96223754
22	0x3f0d91e6	0.5530075
23	0x3ec53858	0.3851955
24	0x3f132400	0.57476807
25	0x3f19a5f7	0.6001887
26	0x3f647d2d	0.89253503
27	0x3f2bd4e3	0.67121714
28	0x3f405b9b	0.7513978
29	0x3eb1bef6	0.34716004
30	0x3ee70f7d	0.45129004
31	0x3f128632	0.57236016
32	0x3ed16841	0.40899852
33	0x3f32323e	0.69607913
34	0x3f616755	0.880483
35	0x3f05215e	0.5200404
36	0x3e50de5d	0.20397325
37	0x3fa199d6	1.2625072
38	0x3eb311cc	0.34974515
39	0x3ea435ed	0.32072392
40	0x3f1e3e83	0.61814135
41	0x3f491675	0.7854989
42	0x3ea92551	0.33036283
43	0x3f16ffc2	0.58984005
44	0x3f56ad3a	0.8385807
45	0x3f0921ad	0.5356701
46	0x3eb9f6eb	0.36321196
47	0x3f0635fe	0.52426136
48	0x3f2f9fc9	0.6860319
49	0x3e8f3e85	0.27977386
50	0x3f3eabf3	0.74481124
51	0x3edf7390	0.43642855
52	0x3e9ead0c	0.309914
53	0x3f28c339	0.65922886
54	0x3f0f97a2	0.5609075
55	0x3f3cde66	0.73776853
56	0x3f5335f7	0.8250422
57	0x3ec9c4f0	0.39408064
58	0x3ec98c75	0.39364973
59	0x3f37b8fc	0.7176664
60	0x3f257c31	0.64642626
61	0x3ecb9dc1	0.39768794
62	0x3f5800ea	0.84376395
63	0x3ed3ebc6	0.41390818

fc3.weight f4 [32, 64]
0	0x3c5d08fa	0.01349091
1	0xbda3cc56	-0.07997958
2	0x3ce66027	0.02812202
3	0xbaba85a3	-0.0014230501
4	0xbd7db854	-0.061943367
5	0x3dc36b1e	0.09541915
6	0xbda29f14	-0.07940498
7	0xbdbf6b2c	-0.09346613
8	0x3db8baef	0.0902003
9	0xbd46c790	-0.04853016
10	0xbde869c9	-0.11348302
11	0xbd1079ec	-0.035272524
12	0x3d1f579c	0.03890191
13	0xbdb2c7bc	-0.087295026
14	0xbcb148cc	-0.021641158
15	0xbe04a2d0	-0.12952733
16	0xbd790be3	-0.06080235
17	0x3d134e52	0.035963364
18	0x3dab1988	0.08354479
19	0x3cb4efb8	0.022086963
20	0xbda6cb12	-0.08144201
21	0x3d109ea1	0.03530753
22	0xbe032508	-0.12807095
23	0x3d549d0c	0.051907584
24	0xbdd943e6	-0.10608654
25	0xbd924d63	-0.071436666
26	0x3e194a88	0.14969838
27	0x3dda84da	0.10669871
28	0x3dd19dd1	0.10235179
29	0x3d8ac617	0.06776064
30	0xbde42ff9	-0.111419626
31	0xbe30c0fd	-0.17261119
32	0x3d6c19bd	0.057641733
33	0xbc831281	-0.016000034
34	0xbcdbeb6c	-0.026845656
35	0xbe31d6e0	-0.17367125
36	0xbd4c0e90	-0.049818575
37	0xbd9b0195	-0.07568661
38	0x3de200fc	0.11035344
39	0xbd92c8a7	-0.07167178
40	0xbd8670c8	-0.0656448
41	0x3b96fef5	0.00460803
42	0x3d2b933a	0.041888453
43	0xbdc3bf1c	-0.095579356
44	0x3cd3018b	0.025757572
45	0xbd0d7fb8	-0.03454563
46	0xbe32d3c7	-0.17463599
47	0xbd3872c5	-0.045031328
48	0xbdac7a81	-0.08421803
49	0xbd31d798	-0.043418497
50	0xbd78719a	-0.060655214
51	0xbde7ad20	-0.11312318
52	0xbd9913c6	-0.074744746
53	0xbded1f12	-0.11578192
54	0xbde60461	-0.11231304
55	0xbd54d219	-0.051958177
56	0x3d0fdb1f	0.03512108
57	0xbd067f21	-0.032836083
58	0xbdd0881b	-0.1018221
59	0xbdb07f9f	-0.08618092
60	0xbca9272f	-0.020648567
61	0xbd6d34f9	-0.057911847
62	0x3ddeb4f8	0.10874361
63	0xbd2703db	-0.04077516
64	0xbc329ef6	-0.010902157
65	0x3dc6d1f7	0.09708016
66	0x3d6d54fd	0.05794238
67	0x3b543fd8	0.0032386687
68	0x3d0af077	0.03392073
69	0xbc9918ea	-0.018688638
70	0x3d095b5e	0.0335344
71	0xbd6b22bf	-0.057406183
72	0xbda15896	-0.078782246
73	0x3c554a71	0.0130182365
74	0xbca1b10c	-0.019737743
75	0xbdd210b7	-0.10257094
76	0xbd5b5906	-0.053551696
77	0x3d724369	0.05914632
78	0xbd955ce9	-0.07293112
79	0xbdbbe9e3	-0.0917547
80	0x3dff6273	0.124699496
81	0x3e173b03	0.14768605
82	0x3d64e4f4	0.05588241
83	0xbd7f0fee	-0.06227105
84	0x3ca768d1	0.020435723
85	0xbd2c499c	-0.042062387
86	0x3dc9e7b9	0.09858651
87	0xbdb01682	-0.08598043
88	0x3ce950bc	0.02848088
89	0x3cf28aa7	0.02960713
90	0xbd9a2218	-0.07526034
91	0x3d837d95	0.06420437
92	0x3da3d8c7	0.08000331
93	0xbcc85755	-0.024455706
94	0xbd87dd77	-0.06634038
95	0x3d584cd2	0.052807637
96	0xbc64ab88	-0.013956912
97	0xbda96e22	-0.08272959
98	0xbdcccd18	-0.10000056
99	0xbda0ee47	-0.07857948
100	0x3cd7a71e	0.026324805
101	0x3da0de5a	0.0785491
102	0xbe012561	-0.12611915
103	0x3d5ffd71	0.05468506
104	0x3dde3bab	0.108512245
105	0x3df54e81	0.11977864
106	0x3d5d19a5	0.053979535
107	0xbd60de75	-0.05489965
108	0x3d964dda	0.07339068
109	0xbcbdb4f1	-0.023157569
110	0xbd2a3084	-0.041550174
111	0x3e13d3d9	0.14436282
112	0xbcc1fc45	-0.023679862
113	0x3d35e7c6	0.04441049
114	0x3d5deb17	0.054179277
115	0xbcea44d6	-0.028597277
116	0xbda884a6	-0.08228426
117	0xbdd755ca	-0.1051441
118	0xbddb9118	-0.10721034
119	0xbd21b8b5	-0.03948279
120	0xbda735f6	-0.08164589
121	0x3d9da880	0.076981544
122	0x3ac8f28c	0.0015331074
123	0x3d29bc01	0.04143906
124	0xbdc65343	-0.0968385
125	0xbdd8b99c	-0.10582277
126	0x3e03c93d	0.12869735
127	0xbde5ce7a	-0.11221023
128	0xbce05c84	-0.027387865
129	0xbdaed52e	-0.085367545
130	0x3d63e3c7	0.055637147
131	0xbd9d76c4	-0.07688668
132	0xbe209b39	-0.15684213
133	0x3c108636	0.008821061
134	0xbc858e34	-0.01630316
135	0x3d8a45c4	0.06751588
136	0xbcceec69	-0.025259214
137	0xbd9f87c6	-0.077895686
138	0x3d002339	0.03128359
139	0xbc1cb75f	-0.009565203
140	0x3d55a50e	0.05215936
141	0x3bd47871	0.0064840843
142	0xbde27c5c	-0.11058876
143	0x3ca1dc46	0.019758355
144	0x3d5d9160	0.05409372
145	0xbde749fa	-0.11293407
146	0xbd8976ea	-0.06712134
147	0xbd992c72	-0.074791804
148	0x3dd1a2a5	0.102361
149	0xbcebf4e3	-0.028803295
150	0xbde7c32d	-0.11316524
151	0xbdd7620d	-0.105167486
152	0x3d880343	0.06641247
153	0x3d942479	0.07233519
154	0xbd35e2b0	-0.04440564
155	0xbc325b11	-0.01088597
156	0x3dc451c7	0.0958591
157	0x3d748d8b	0.0597053
158	0xbdc34586	-0.09534745
159	0xbc1debb4	-0.009638716
160	0xbd939d10	-0.07207692
161	0x3deb0228	0.11475021
162	0xbe2041f6	-0.15650162
163	0xbde4255a	-0.11139937
164	0x3dac4100	0.08410835
165	0xbc0b354d	-0.008496595
166	0xbd85bf17	-0.06530588
167	0x3b955131	0.004556798
168	0x3db18df9	0.08669657
169	0x3ce8baf7	0.028409464
170	0x3b4ba3c0	0.0031072944
171	0xbdb48fd5	-0.08816496
172	0xbd2cb911	-0.04216868
173	0x3dad54fa	0.084634736
174	0xbdd37ee4	-0.10326937
175	0x3d99aa61	0.075032
176	0x3cf307d2	0.029666815
177	0xbd59cb30	-0.05317229
178	0xbd80d8b2	-0.06291331
179	0xbd4acd07	-0.049511936
180	0xbdc0e704	-0.09419063
181	0xbded7c16	-0.11595933
182	0xbe29ebfc	-0.16593927
183	0xbcbd8f06	-0.023139488
184	0x3d249f03	0.040190708
185	0x3d70333d	0.058642615
186	0xbe2a66bf	-0.16640757
187	0xbdaf0022	-0.08544947
188	0xbd9e0f2b	-0.07717737
189	0xbdae9e90	-0.08526337
190	0x3b53b604	0.0032304535
191	0xbdbaf317	-0.09128397
192	0xbde0885c	-0.109635085
193	0xbd6c6984	-0.057717815
194	0xbbcf5f13	-0.0063284724
195	0xbbefce17	-0.007318269
196	0x3de80af5	0.11330215
197	0xbe03c6a3	-0.12868743
198	0x3dc371e9	0.09543211
199	0xbdbf035c	-0.093268126
200	0x3bf6f432	0.0075364346
201	0xbe069849	-0.1314403
202	0x3d014e5b	0.031568866
203	0xbda8ac1a	-0.08235951
204	0xbba4814b	-0.0050202957
205	0xbd0a1167	-0.033708002
206	0x3d5e1338	0.054217547
207	0x3dbb1ce2	0.09136368
208	0xbd962882	-0.07331945
209	0xbc116962	-0.008875223
210	0xbde3c9c3	-0.11122467
211	0xbd4c9ed5	-0.04995616
212	0xbd974a21	-0.07387186
213	0xbe1068ab	-0.14102428
214	0x3d675bbb	0.056483965
215	0xbd9af09d	-0.075654246
216	0xbc6eb84d	-0.014570308
217	0xbe07db67	-0.13267289
218	0xbe184de3	-0.14873461
219	0xbd9b22fb	-0.07575031
220	0xbddcf7c3	-0.10789444
221	0x3da97d6e	0.08275877
222	0x3dcd340c	0.10019693
223	0x3bd8ec04	0.006619932
224	0xbccc580e	-0.024944331
225	0xbe273211	-0.16327693
226	0xbd6be6e6	-0.05759325
227	0x3deb1dc2	0.11480285
228	0x3d3f6dcd	0.046735574
229	0x3b85b98c	0.004080957
230	0xbdca2fc2	-0.0987239
231	0x3c7bfff9	0.015380853
232	0x3c691125	0.014225279
233	0xbdd8d20f	-0.105869405
234	0x3d9f118b	0.07767018
235	0xbb861bb9	-0.0040926603
236	0xbdc637f7	-0.09678643
237	0x3dcc05ba	0.0996203
238	0xbcf1ef28	-0.029532984
239	0xbd331982	-0.043725498
240	0xbcf1d138	-0.029518709
241	0x3ca44f2b	0.020057281
242	0x3da127ac	0.07868895
243	0x3d17a8a0	0.037026048
244	0x3b1b18d1	0.0023665915
245	0x3dc5bd50	0.09655249
246	0x3cbe89b7	0.023259027
247	0xbc3f6017	-0.011680624
248	0xbc22bf91	-0.009933368
249	0x3c7ebe9c	0.0155483745
250	0x3d90329f	0.07040905
251	0x3cddbf9e	0.02706891
252	0xbd27f3b9	-0.041003916
253	0xbca9bf85	-0.020721206
254	0xbd5604cf	-0.05225068
255	0x3d0ce4a7	0.034397747

fc3.bias f4 [32]
0	0x3de4fc09	0.111808844
1	0x3dfc8d29	0.12331612
2	0xbd900049	-0.070313044
3	0x3d5fe7c4	0.05466439
4	0xbc8cccf8	-0.01718758
5	0xbc26ad94	-0.01017322
6	0x3deb8c35	0.11501352
7	0x3dd917ca	0.106002405
8	0x3dcf997b	0.10136696
9	0xbdd76579	-0.10517401
10	0x3d6f7fdc	0.058471546
11	0x3d372bf7	0.044719663
12	0xbca776e5	-0.020442436
13	0xbde7befd	-0.11315725
14	0x3de6e079	0.112732835
15	0x3d212905	0.03934576
16	0x3cd039d3	0.025418198
17	0xbdef7c7c	-0.116936654
18	0x3dd91978	0.10600561
19	0xbd857749	-0.065168925
20	0xbdc8baaf	-0.09801232
21	0x3db3b0c1	0.087739475
22	0xbdff6aed	-0.12471566
23	0x3ca44515	0.020052472
24	0x3dbc5b42	0.091970935
25	0xbd44671b	-0.04794989
26	0x3deb0024	0.11474636
27	0xbcf6c9e8	-0.030125573
28	0xbccc7896	-0.024959844
29	0xbdfc8a86	-0.12331109
30	0x3de82ad9	0.113362975
31	0xbd9af5d3	-0.075664185

bn3.weight f4 [32]
0	0x3f86d676	1.0534198
1	0x3f7f119a	0.9963623
2	0x3f861cff	1.0477599
3	0x3f7fc8cc	0.99915767
4	0x3f791479	0.97296864
5	0x3f7512d7	0.9573187
6	0x3f7d676a	0.9898592
7	0x3f818718	1.0119352
8	0x3f7a1da1	0.9770146
9	0x3f7ca302	0.9868623
10	0x3f7ce9d9	0.98794323
11	0x3f7b5574	0.98177266
12	0x3f7236ab	0.94614667
13	0x3f752523	0.9575979
14	0x3f81e14d	1.0146881
15	0x3f70b317	0.9402327
16	0x3f7b6a38	0.9820895
17	0x3f8cfa78	1.1013937
18	0x3f831af7	1.0242604
19	0x3f7d8fce	0.99047554
20	0x3f861841	1.0476152
21	0x3f85e2d9	1.0459853
22	0x3f7f5b8b	0.9974906
23	0x3f83b7a4	1.0290418
24	0x3f848496	1.0352962
25	0x3f850bbe	1.0394208
26	0x3f7869f0	0.9703665
27	0x3f79d817	0.9759535
28	0x3f7ee931	0.9957457
29	0x3f7a7b1a	0.9784409
30	0x3f706ad2	0.93912995
31	0x3f7ec44e	0.9951829

bn3.bias f4 [32]
0	0x3d93edc0	0.072230816
1	0xbd849fb3	-0.06475773
2	0x3d41230d	0.047152568
3	0x3d27b964	0.040948287
4	0x3d6b901c	0.05751048
5	0x3cf11dd9	0.029433178
6	0x3d42305a	0.047409393
7	0xbd8d4cab	-0.06899389
8	0xbd46f342	-0.048571832
9	0xbdafe72a	-0.08589013
10	0x3da05991	0.078295834
11	0x3d9e1c2c	0.07720217
12	0xbd0ee3ab	-0.03488509
13	0xbbdfc99b	-0.006829453
14	0x3d68b45a	0.05681262
15	0xbd83d58c	-0.06437215
16	0x3c485249	0.01222665
17	0x3ddb77e8	0.1071623
18	0xbc8e1f9f	-0.017349062
19	0x3d0791d4	0.033098057
20	0x3d87cd94	0.06631008
21	0x3da3628a	0.07977779
22	0xbd58e5ca	-0.05295352
23	0x3d8ef491	0.06980241
24	0x3d986009	0.07440192
25	0x3d8a91b8	0.06766075
26	0xbd48b9e4	-0.049005404
27	0x3be0362c	0.0068423953
28	0xbd7f5a4b	-0.06234197
29	0xbc03d8c4	-0.008047286
30	0xbd06b862	-0.032890685
31	0xbcee07c0	-0.02905643

bn3.running_mean f4 [32]
0	0xbeaefe09	-0.34178188
1	0xbc280af4	-0.010256518
2	0xbed688da	-0.41901284
3	0xbe1a0cc4	-0.15043932
4	0xbe262e08	-0.16228497
5	0xbe606a77	-0.21915613
6	0x3d865ea8	0.06561023
7	0x3ea37fa4	0.3193332
8	0x3d4ba554	0.049718216
9	0x3baa3c7f	0.0051952
10	0xbe2a9db8	-0.16661727
11	0x3ce00c63	0.027349656
12	0xbdd97ea5	-0.10619859
13	0xbe80dc9c	-0.25168312
14	0xbe59a3cf	-0.21253894
15	0xbcf49bec	-0.029859506
16	0xbea1e4e2	-0.31619936
17	0xbe5b2ce8	-0.21403849
18	0x3e62117f	0.22076987
19	0xbea3d606	-0.31999224
20	0xbe87ffeb	-0.26562437
21	0xbc9d135b	-0.019174268
22	0x3e412397	0.18861233
23	0xbe620d6c	-0.22075433
24	0xbdfaf4e5	-0.12253741
25	0xbef63390	-0.48086214
26	0x3e841006	0.25793475
27	0x3d51bd35	0.051205833
28	0xbe5745d5	-0.21022733
29	0xbe83caeb	-0.25740752
30	0x3e2de866	0.16983184
31	0x3c69459e	0.014237789

bn3.running_var f4 [32]
0	0x3f84fd10	1.0389729
1	0x3f17e6b8	0.59336424
2	0x3f42c691	0.7608424
3	0x3f6481dc	0.8926065
4	0x3f4fb8cc	0.8114135
5	0x3f4061d0	0.7514925
6	0x3ed3bbd5	0.41354242
7	0x3f67078b	0.90245885
8	0x3f16d194	0.5891354
9	0x3f1ce71b	0.6129014
10	0x3f7c12f1	0.984664
11	0x3f642516	0.8911909
12	0x3f784d90	0.9699335
13	0x3f1c6298	0.6108794
14	0x3f0b9dde	0.5453776
15	0x3e410aa2	0.18851712
16	0x3f75b46a	0.95978415
17	0x3f3a70d3	0.72828406
18	0x3f4e5cef	0.80610555
19	0x3f1ca7cd	0.61193544
20	0x3f625199	0.8840576
21	0x3f8059cc	1.0027404
22	0x3f4c7e19	0.7987991
23	0x3f62f941	0.8866158
24	0x3f3cba57	0.7372183
25	0x3efefc67	0.49801943
26	0x3f13849e	0.5762423
27	0x3f453d41	0.7704659
28	0x3f3c7ba2	0.7362615
29	0x3f31d190	0.6946039
30	0x3f10bb54	0.5653584
31	0x3f4160e4	0.7553847
