MELOSDP/SDP/chkpt/mc1/linear/4/sdp_classifier_linear-440.pth (torch, 77408 bytes, 25 tensors)

fc1.weight f4 [128, 38]
0	0x3cc995df	0.024607597
1	0x3a853664	0.0010163304
2	0xbb0504d7	-0.0020297074
3	0x3c1eb354	0.00968631
4	0x3cbd98f0	0.023144215
5	0xbc875290	-0.016518861
6	0x3e0ef112	0.13959149
7	0xbd7d975e	-0.061911933
8	0x3df70770	0.120619655
9	0x3cd0a075	0.025467137
10	0xbcbeb22d	-0.02327832
11	0xbd857767	-0.06516915
12	0x3d9b4375	0.07581226
13	0xbd759d37	-0.059964385
14	0xbe088ec2	-0.13335708
15	0x3c979a5d	0.018506223
16	0xbcade456	-0.021227043
17	0x3d91a7b6	0.071120664
18	0x3cd436b6	0.025904994
19	0x3c3eb492	0.011639731
20	0xbccd01ae	-0.025025215
21	0x3e34482b	0.17605655
22	0xbd218e9f	-0.039442655
23	0xbca87421	-0.020563187
24	0xbd102301	-0.035189632
25	0x3c26cd3f	0.01018077
26	0x3e4dd975	0.20102485
27	0xbdc5ce8e	-0.09658538
28	0xbd917f51	-0.07104362
29	0x3db5ab0f	0.088705175
30	0x3bb1381a	0.005408299
31	0xbd91ff4c	-0.07128772
32	0x3d10cb72	0.03535027
33	0xbd84bf3a	-0.06481786
34	0xbda9800f	-0.08276378
35	0xbc911604	-0.017710693
36	0xbe8240ef	-0.25440165
37	0x3c420a4e	0.011843277
38	0xbd54294a	-0.05179719
39	0xbda8e3fc	-0.082466096
40	0xbc6fe181	-0.014641167
41	0x3dfd4860	0.1236732
42	0xbdcb88dd	-0.09938214
43	0x3c1f59c1	0.009725989
44	0xbd58bce5	-0.05291452
45	0x3dbf5fd8	0.093444526
46	0xbdc56cb2	-0.096398726
47	0x3e1cf96a	0.15329519
48	0x3dd410cc	0.10354766
49	0xbda12795	-0.07868878
50	0x3dbd7cc9	0.092523165
51	0xbce80084	-0.028320558
52	0xbdeb58d6	-0.114915535
53	0x3b5fc13b	0.0034142274
54	0x39746738	0.00023308105
55	0xbd0f3715	-0.03496464
56	0x3dcaf080	0.09909153
57	0x3dc91c6f	0.098198764
58	0x3e23e71e	0.16006133
59	0xbd4997b7	-0.049216952
60	0x3e0cf8c2	0.13766769
61	0x3cc47dd0	0.023985773
62	0xbda0ea1c	-0.07857153
63	0xbd371841	-0.044700865
64	0x3df0864a	0.117443636
65	0x3de0d9cb	0.10979041
66	0xbc8b004b	-0.016967913
67	0x3cd5d60e	0.026103046
68	0xbe146101	-0.14490129
69	0x3949831c	0.00019217696
70	0xbd686135	-0.05673333
71	0xbe03032b	-0.12794177
72	0x3cb8473c	0.022494905
73	0xbd4d0c05	-0.05006029
74	0xbe97f3cf	-0.296782
75	0x3db5477d	0.08851526
76	0x3dbde773	0.09272661
77	0x3d0566bd	0.032568682
78	0x3d00ffd3	0.031493973
79	0xbe3e88d3	-0.18606882
80	0x3ce48e37	0.027899845
81	0xbdf9216b	-0.12164577
82	0xbdeaf5d8	-0.11472672
83	0x3c3e8c75	0.011630167
84	0x3dd45c23	0.10369136
85	0xbe00e2f8	-0.12586582
86	0x3dba17a8	0.09086543
87	0xbdcf583f	-0.101242535
88	0xbd8e28d2	-0.069413796
89	0xbe1f5be7	-0.15562402
90	0xbe01886e	-0.126497
91	0x3d13b940	0.03606534
92	0xbd0fe946	-0.035134576
93	0xbe010323	-0.12598853
94	0xbd566b76	-0.052348576
95	0x3db8788c	0.090073675
96	0x3a1b53c2	0.00059252616
97	0x3c069827	0.008214987
98	0x3d96e2d1	0.073674805
99	0x3ce2976d	0.027660096
100	0x3dcbe660	0.0995605
101	0xbdbb9ea9	-0.091611214
102	0x3d80ac84	0.06282905
103	0x3cec8ee5	0.028876731
104	0x3dcdda2d	0.10051379
105	0x3e095932	0.13412932
106	0xbcd84e79	-0.026404606
107	0xbd6e6106	-0.058197998
108	0x3de20b8b	0.11037358
109	0x3d819ea6	0.06329088
110	0x3d92d6e0	0.071698904
111	0xbd1a711f	-0.037705537
112	0x3e505429	0.20344605
113	0xbcf3108f	-0.029670982
114	0x3cc85c09	0.024457948
115	0x3daa7999	0.08323974
116	0xbdd4e159	-0.10394544
117	0x3c8ff493	0.017572677
118	0xbdefca86	-0.1170855
119	0xbdad4eb6	-0.084622785
120	0xbc4c240d	-0.012459767
121	0x3dd2be69	0.10290224
122	0x3e1f9366	0.15583572
123	0xbdc26d8c	-0.09493551
124	0x3d4928c4	0.049111143
125	0x3d967dc1	0.073482044
126	0x3da80a2a	0.08205064
127	0x3dfb40ac	0.122681946
128	0xbd66a089	-0.056305442
129	0xbdfefa45	-0.12450079
130	0xbdbcea75	-0.09224407
131	0x3dff8575	0.12476627
132	0x3d3453b8	0.044025153
133	0xbdf757bf	-0.12077283
134	0x3e29d717	0.16585957
135	0x3d070422	0.032962926
136	0x3dc6877c	0.0969381
137	0x3e000ba5	0.12504442
138	0x3e098b66	0.13432083
139	0xbd9c0809	-0.0761872
140	0x3db9f619	0.090801425
141	0x3d3933e0	0.045215487
142	0x3ded7823	0.1159518
143	0xbd0d4c83	-0.034496795
144	0x3dd4d2a0	0.10391736
145	0x3dc4e55c	0.09614059
146	0xbc96ae15	-0.018393556
147	0xbd5898fe	-0.05288028
148	0xbcf32785	-0.02968193
149	0xbca66184	-0.020310171
150	0x3d133ca0	0.03594649
151	0xbe09da1d	-0.1346211
152	0x3d4b8ad8	0.04969296
153	0x3da4def9	0.08050341
154	0xbdde2d1d	-0.108484484
155	0x3dc2928b	0.09500607
156	0xbdb41c0f	-0.08794414
157	0xbe00aab8	-0.12565124
158	0xbda4170e	-0.0801221
159	0xbcafc8c5	-0.021458039
160	0x3cc963b4	0.024583675
161	0xbc9f9fce	-0.01948538
162	0xbd70baf8	-0.058772057
163	0xbc00c21f	-0.007858782
164	0x3e247844	0.16061503
165	0x3cbf5e29	0.023360329
166	0xbd90175e	-0.07035707
167	0xbdb6bf62	-0.08923222
168	0x3d6a194b	0.057153028
169	0x3e197c8b	0.14988916
170	0x3da92c82	0.08260442
171	0x3d2f60e0	0.042816997
172	0x3e19a172	0.15002993
173	0x3bc58a6e	0.006028465
174	0xbe0cdcc2	-0.13756087
175	0x3dcf4fbd	0.10122631
176	0xbde807e7	-0.11329632
177	0x3e132b54	0.14371997
178	0xbcb2b3db	-0.021814277
179	0xbde94b6e	-0.1139134
180	0x3d1ba419	0.037998293
181	0xbd141f5d	-0.036162723
182	0xbd1e1e84	-0.03860332
183	0xbd3aa01b	-0.045562845
184	0x3e1a874c	0.15090674
185	0x3db339fc	0.08751294
186	0xbe12b236	-0.14325795
187	0xbe00fc6e	-0.12596294
188	0x3e110c3f	0.14164828
189	0xbdfec9b0	-0.124408126
190	0x3c3c20cd	0.01148243
191	0x3e07801a	0.1323246
192	0x3d0c8515	0.034306604
193	0xbc14483e	-0.009050427
194	0xbdb4ed79	-0.08834357
195	0x3cc8bd8a	0.024504442
196	0x3e082df0	0.13298774
197	0x3e28ccba	0.16484347
198	0x3d2fcdf6	0.04292103
199	0xbce36e4e	-0.027762558
200	0x3defb576	0.11704533
201	0xbe13f5f6	-0.14449295
202	0xbe26d6bd	-0.16292854
203	0x3d84f793	0.064925335
204	0xbdbbbfd7	-0.0916745
205	0xbcbf7044	-0.023368962
206	0xbdcf18e8	-0.10112172
207	0xbddff38c	-0.10935125
208	0x3c4bbced	0.01243518
209	0xbe15ace8	-0.1461674
210	0x3e3dc666	0.18532714
211	0x3d843f18	0.06457347
212	0x3de9fce0	0.11425185
213	0x3da86132	0.082216635
214	0xbd857536	-0.06516497
215	0x3dddd77c	0.10832116
216	0x3e2597b5	0.16171153
217	0xb9add6b3	-0.00033157095
218	0x3dd9ec57	0.106407814
219	0xbe150e09	-0.14556135
220	0xbe0d0f1d	-0.13775297
221	0xbdc7df23	-0.09759357
222	0xbd4bc9b2	-0.0497529
223	0x3ce6ee24	0.028189726
224	0xbd30b48d	-0.043140937
225	0xbd7ba5f6	-0.06143757
226	0xbe3c0efb	-0.1836509
227	0x3d8441fa	0.064578965
228	0xbdc89968	-0.09794885
229	0xbe1dcfc2	-0.15411285
230	0x3d2913ae	0.041278534
231	0x3c7cc1cc	0.015427064
232	0x3c88c084	0.016693361
233	0x3db83747	0.08994918
234	0xbc8499ff	-0.016186712
235	0x3e06cc4d	0.13163872
236	0x3e056cb5	0.1302975
237	0x3e33fecb	0.17577665
238	0x3dbba10c	0.09161577
239	0xbc80084f	-0.015628962
240	0xbceb20de	-0.028702196
241	0xbdb51c8c	-0.088433355
242	0x3dc9498b	0.0982848
243	0xbe22283a	-0.15835658
244	0x3d00614a	0.031342782
245	0x3c645937	0.013937286
246	0x3d5f7875	0.054558236
247	0x3de63a3f	0.11241578
248	0x3d7706b5	0.06030913
249	0xbda576f5	-0.0807933
250	0xbc9d311e	-0.01918846
251	0xbdaa57c8	-0.08317524
252	0xbc925edf	-0.017867504
253	0x3df5aa4f	0.119953744
254	0xbdfcb02e	-0.12338291
255	0x3df0d68d	0.11759672

fc1.bias f4 [128]
0	0xbdd8e32b	-0.10590204
1	0xbe1ac390	-0.15113664
2	0x3e0757c8	0.1321708
3	0xbd484068	-0.048889548
4	0x3e10a9cf	0.14127277
5	0x3c3cbbe2	0.011519404
6	0xbdc3b269	-0.095555134
7	0xbd48d86e	-0.04903453
8	0xbdd4b2b1	-0.10385645
9	0x3e1e13cf	0.15437244
10	0xbd8dc194	-0.06921688
11	0x3d87a227	0.06622725
12	0xbd84b168	-0.0647915
13	0xbd4f0f7d	-0.05055188
14	0xbcede013	-0.029037511
15	0x3e1515de	0.14559123
16	0x3d6948f0	0.056954324
17	0xbd33d964	-0.04390849
18	0xbc5f223a	-0.013619
19	0x3d5a3ff7	0.053283658
20	0xbc7aeed3	-0.015315729
21	0xbbe0721e	-0.0068495413
22	0x3d26820f	0.040651377
23	0x3d865d67	0.06560784
24	0xbcd8dae0	-0.026471555
25	0xbce46fe3	-0.027885383
26	0x3de03e5a	0.109493926
27	0xbdcd351d	-0.10019896
28	0x3db06d97	0.086146526
29	0xbdb4064c	-0.087902635
30	0xbdaa4b97	-0.08315199
31	0xbdc13a15	-0.094349064
32	0xbdec3f0f	-0.11535465
33	0x3d4f92b4	0.050677016
34	0x3d45eb08	0.048319846
35	0xbd73e5b7	-0.059545245
36	0x3d196199	0.037446592
37	0xbe07b3e8	-0.13252223
38	0x3d8337ac	0.06407103
39	0xbcbad574	-0.02280686
40	0x3b1749c7	0.0023084746
41	0xbdf08744	-0.1174455
42	0xbde5d70a	-0.11222656
43	0x3d2ddb19	0.042445276
44	0x3dce7447	0.10080772
45	0x3d19814c	0.037476823
46	0xbdda594b	-0.106615625
47	0xbd0567dd	-0.032569755
48	0xbd35aa49	-0.04435185
49	0x3ca466c8	0.020068541
50	0xbc649ba7	-0.013953126
51	0x3dd78fbe	0.105254635
52	0x3e14e1c7	0.14539252
53	0xbdb11f40	-0.086485386
54	0xbdec3724	-0.11533955
55	0xbc16a098	-0.009193562
56	0x3ce3aa59	0.027791189
57	0x3e0a52ec	0.13508195
58	0xbcdb397b	-0.026760807
59	0x3de8c88e	0.11366378
60	0xbe1d525b	-0.15363447
61	0x3ddd5c00	0.10808563
62	0x3dda2d59	0.10653181
63	0xbd07528b	-0.033037703
64	0x3d9807b4	0.07423344
65	0xbd27085f	-0.040779468
66	0x3c7e30f5	0.015514602
67	0x3d299ae7	0.041407492
68	0x3e1b2837	0.1515206
69	0xbe0c1707	-0.13680659
70	0xbe238d3c	-0.15971845
71	0x3ddf569c	0.10905191
72	0xbe24d2b9	-0.1609601
73	0x3e17fe2a	0.1484305
74	0xbd19cf14	-0.037551
75	0x3e25146c	0.16121072
76	0x3dd49259	0.10379476
77	0x3df69658	0.120403945
78	0xbd9cc89d	-0.076554514
79	0xbdffc49b	-0.124886714
80	0xbb25ea0e	-0.002531651
81	0xbe17b218	-0.14814031
82	0xbe0bd2e8	-0.13654673
83	0xbdbbeeb6	-0.0917639
84	0xbe10d6af	-0.14144395
85	0x3cfd1674	0.030894496
86	0xbd8b1b76	-0.06792347
87	0xbcf26a67	-0.029591752
88	0x3e1f7e87	0.1557561
89	0xbc5718b5	-0.013128449
90	0x3d915736	0.07096712
91	0xbdc52e35	-0.09627954
92	0xbd816e06	-0.063198134
93	0x3d1bafe4	0.03800954
94	0x3db84b17	0.08998697
95	0xbc83c4a9	-0.016084986
96	0x3e149dfe	0.14513394
97	0xbddc4c0b	-0.107566915
98	0xbd99987c	-0.07499787
99	0x3dcdd31f	0.10050034
100	0x3de82bcd	0.11336479
101	0x3d7e170d	0.0620337
102	0x3d100a71	0.035166208
103	0x3e193a76	0.14963707
104	0x3ddbb61c	0.10728094
105	0xbdd75660	-0.105145216
106	0x3b32db05	0.002729119
107	0xbcfb1902	-0.030651573
108	0x3d80d565	0.06290702
109	0x3d3e9239	0.046526168
110	0x3da100e7	0.078615
111	0x3ded325c	0.11581871
112	0x3db03991	0.0860473
113	0xbddb6dbc	-0.107142895
114	0x3d7bc4d8	0.06146702
115	0x3d44f2d0	0.048083127
116	0xbd0f0687	-0.034918334
117	0x3cba8fcd	0.022773648
118	0xbd408ebb	-0.04701112
119	0xbdda0cf4	-0.10647002
120	0x3ddac7e1	0.10682655
121	0xbe09de1b	-0.13463633
122	0x3d3a8f0f	0.045546588
123	0xbdc46e54	-0.09591356
124	0xbdca7bea	-0.09886916
125	0x3d198a08	0.037485152
126	0xbe24f336	-0.16108403
127	0x3c361b5d	0.011114922

bn1.weight f4 [128]
0	0x3f9d762a	1.2301686
1	0x3f96bba4	1.1776013
2	0x3f8039e2	1.0017664
3	0x3f7b98d2	0.9828006
4	0x3f853ee2	1.0409815
5	0x3f856ad0	1.0423222
6	0x3f7ec617	0.9952101
7	0x3f83cd5f	1.0297049
8	0x3f795387	0.9739308
9	0x3f89b9a0	1.0759773
10	0x3f864194	1.0488763
11	0x3f862638	1.0480413
12	0x3f7f7cc2	0.9979974
13	0x3f7986c8	0.97471285
14	0x3f94ecd5	1.1634775
15	0x3f786c27	0.9704003
16	0x3f782952	0.9693805
17	0x3f801b36	1.0008304
18	0x3f88f994	1.0701165
19	0x3f808890	1.0041676
20	0x3f7a507c	0.9777906
21	0x3f6eb8f7	0.93250984
22	0x3f90a5c5	1.1300589
23	0x3f7d2ef1	0.9889975
24	0x3f818b35	1.0120608
25	0x3f7fd71e	0.9993762
26	0x3f84358d	1.0328842
27	0x3f81b447	1.0133141
28	0x3f83863b	1.0275339
29	0x3f839e75	1.0282732
30	0x3f96b774	1.1774735
31	0x3f73e6b9	0.9527393
32	0x3f7f7ee6	0.99803007
33	0x3f7ec182	0.9951402
34	0x3f7390aa	0.95142615
35	0x3f928453	1.1446632
36	0x3f8478be	1.0349348
37	0x3f685564	0.90755296
38	0x3f88e173	1.0693802
39	0x3f814f05	1.010224
40	0x3f7fbba9	0.9989572
41	0x3f92b3ea	1.1461155
42	0x3f7ad13d	0.9797552
43	0x3f76065d	0.9610346
44	0x3f89b309	1.0757762
45	0x3f7ea7a7	0.9947457
46	0x3f80c5cb	1.0060362
47	0x3f71f2c1	0.9451104
48	0x3f7b3c8b	0.98139256
49	0x3f815071	1.0102674
50	0x3f8a9441	1.0826494
51	0x3f7f4184	0.99709344
52	0x3f7eb786	0.99498785
53	0x3f8acaf8	1.0843191
54	0x3f89994b	1.0749906
55	0x3f7b6549	0.98201424
56	0x3f7c4a3f	0.9855079
57	0x3f903357	1.1265668
58	0x3f795885	0.97400695
59	0x3f803002	1.0014651
60	0x3f7837f4	0.9696038
61	0x3f7fede3	0.9997236
62	0x3f8453ed	1.0338112
63	0x3f900dff	1.1254271
64	0x3f67935e	0.9045924
65	0x3f840bf9	1.0316154
66	0x3f7811d0	0.9690218
67	0x3f837d74	1.027266
68	0x3f7761cf	0.9663362
69	0x3f891d4a	1.0712063
70	0x3f7e1952	0.99257386
71	0x3f752fb2	0.957759
72	0x3f810e67	1.008252
73	0x3f815abe	1.0105817
74	0x3f8c533a	1.0962899
75	0x3f795d93	0.9740841
76	0x3f9b0ad2	1.2112677
77	0x3f8c519e	1.0962408
78	0x3f7e0ce2	0.9923841
79	0x3f89c7b2	1.0764067
80	0x3f79447f	0.9737014
81	0x3f7c6fe6	0.98608243
82	0x3f823c6b	1.0174688
83	0x3f82ade2	1.0209315
84	0x3f8159c3	1.0105518
85	0x3f80a9c4	1.0051808
86	0x3f804a94	1.002276
87	0x3f753a1e	0.95791805
88	0x3f9203b2	1.1407378
89	0x3f7c60bb	0.985851
90	0x3f9476c2	1.1598742
91	0x3f879f4a	1.0595486
92	0x3f8136fd	1.0094906
93	0x3f87988a	1.0593426
94	0x3f896a01	1.0735475
95	0x3f811ec8	1.0087519
96	0x3f810580	1.0079803
97	0x3f7c3333	0.98515624
98	0x3f7237e0	0.9461651
99	0x3f756fe9	0.95873886
100	0x3f7c0687	0.9844746
101	0x3f7dd797	0.9915709
102	0x3f74451e	0.95417964
103	0x3f7dd58d	0.9915398
104	0x3f77523a	0.9660984
105	0x3f8b51ca	1.0884335
106	0x3f839c83	1.0282139
107	0x3f83a0b0	1.0283413
108	0x3f7f769b	0.9979035
109	0x3f8dd9f0	1.1082134
110	0x3f799745	0.97496444
111	0x3f8095cc	1.0045714
112	0x3f7ca6db	0.986921
113	0x3f7df83a	0.9920689
114	0x3f7ec51a	0.99519503
115	0x3f82d6db	1.0221819
116	0x3f7cb157	0.987081
117	0x3f792112	0.97316086
118	0x3f78bbf8	0.9716182
119	0x3f8fd287	1.1236123
120	0x3f77bcfa	0.9677273
121	0x3f80b04f	1.0053805
122	0x3f7dd5ce	0.99154365
123	0x3f8e7d8f	1.1132067
124	0x3f845b77	1.0340413
125	0x3f834809	1.0256358
126	0x3f808c06	1.0042732
127	0x3f8346c4	1.0255971

bn1.bias f4 [128]
0	0xbe3151e1	-0.1731639
1	0x3d1b31d6	0.037889324
2	0x3bc14c21	0.005898968
3	0xbd9ff7ac	-0.078109115
4	0xbd8e539e	-0.069495425
5	0xbceeeaeb	-0.029164752
6	0xbd574eb2	-0.052565284
7	0xbd8095e5	-0.0627859
8	0xbce7b602	-0.02828503
9	0xbdd456e0	-0.103681326
10	0x3c542a38	0.012949519
11	0xbcab53fd	-0.020914072
12	0xbe02acb9	-0.12761201
13	0xbda6fce4	-0.08153704
14	0xbd61d495	-0.055134375
15	0xbd5c64e3	-0.05380715
16	0xbcb73051	-0.022361906
17	0xbd537460	-0.051624656
18	0xbd835cd8	-0.06414193
19	0xbd883022	-0.066498056
20	0xbce17ddd	-0.027525837
21	0xbc4e41e3	-0.012588951
22	0xbd13baf2	-0.036066957
23	0xbd1a7c4c	-0.037716195
24	0xbdcca673	-0.09992685
25	0xbdb7077e	-0.08936976
26	0x3d091586	0.033467792
27	0x3da795f1	0.08182896
28	0xbdc654ea	-0.09684165
29	0xbd8ca9e1	-0.06868339
30	0xbdd7f4f5	-0.10544769
31	0xbd7a9adb	-0.061182838
32	0xbdb82243	-0.0899091
33	0xbd349849	-0.044090543
34	0xbc66b400	-0.014081001
35	0xbde3470e	-0.11097537
36	0x3ced8e7c	0.028998606
37	0xbdd7e777	-0.10542195
38	0xbd8bb3c2	-0.068213955
39	0xbcaa22b1	-0.020768495
40	0xbc83bdb1	-0.016081663
41	0xbdb50cde	-0.08840345
42	0xbda38be6	-0.07985668
43	0xbd7c3c1b	-0.06158076
44	0xbccd8449	-0.025087493
45	0xbdb1b1bc	-0.08676478
46	0x3c80a6df	0.01570457
47	0xbcec639d	-0.028856093
48	0xbd067231	-0.032823745
49	0xbd3e302b	-0.046432655
50	0xbc3a452b	-0.01136903
51	0xbd98e435	-0.07465402
52	0xbd7415ec	-0.05959122
53	0xbd8ee345	-0.06976942
54	0xbdb7b4f6	-0.089700624
55	0xbdd7345c	-0.10508034
56	0xbd469db1	-0.04849023
57	0xbd859996	-0.06523435
58	0xbdbd8561	-0.09253956
59	0x3cdeea80	0.027211428
60	0xbda7f859	-0.082016654
61	0xbd34a184	-0.044099346
62	0x3b2654a2	0.0025380035
63	0xbe11d043	-0.14239602
64	0xbdf048a4	-0.11732605
65	0x3cf73bd8	0.030179903
66	0xbd8e5cd5	-0.069513
67	0x3d103f38	0.03521654
68	0xbde7ab45	-0.11311964
69	0x3d678282	0.056520946
70	0x3c86200b	0.016372701
71	0xbd961b40	-0.07329416
72	0x3d3e3e8a	0.04644636
73	0xbd4b133e	-0.049578898
74	0xbd0a5b2b	-0.03377835
75	0xbd12d1f0	-0.035844743
76	0xbd80c421	-0.062874086
77	0xbde0febd	-0.109860875
78	0xbdc70213	-0.097171925
79	0xbd636c97	-0.05552348
80	0xbdacfaea	-0.084462956
81	0xbd0d899d	-0.034555066
82	0xbd7417ae	-0.059592895
83	0xbdaabe43	-0.08337071
84	0xbbb652a1	-0.0055640494
85	0xbda7bf4d	-0.081907846
86	0xbdbabbb0	-0.0911783
87	0xbcada863	-0.021198457
88	0xbd190ffe	-0.037368767
89	0xbd811055	-0.06301943
90	0xbccdbac8	-0.025113478
91	0xbd1ddf94	-0.0385433
92	0xbd9cf3cb	-0.07663687
93	0x3c0c5c6e	0.008566959
94	0x3ca7d4d7	0.020487232
95	0x3c2b7790	0.010465518
96	0xbd869d51	-0.065729745
97	0xbd251ae7	-0.04030886
98	0xbd6f9e7e	-0.05850076
99	0xbd763c22	-0.06011594
100	0xbdac70d5	-0.084199585
101	0xbd5b44f2	-0.05353255
102	0xbdca53a0	-0.098792315
103	0xbc8414ca	-0.016123194
104	0xbdd67049	-0.104706354
105	0xbdc7e6b6	-0.097608015
106	0xbca248c8	-0.019810095
107	0x3bab7dff	0.0052335258
108	0xbd86e88a	-0.06587322
109	0xbca5b90e	-0.020229843
110	0xbc35fe6a	-0.01110802
111	0x3cefdb66	0.029279422
112	0xbc838381	-0.016053917
113	0xbdb83919	-0.089952655
114	0xbdac5dd0	-0.08416331
115	0x3cd8c4e6	0.026461076
116	0xbd814ae4	-0.063131124
117	0xbc56fa27	-0.013121164
118	0xbd8a8b96	-0.06764905
119	0xbce9c4e5	-0.02853627
120	0xbd1b7f61	-0.037963275
121	0xbd88f582	-0.06687452
122	0x3c9f17c4	0.019420512
123	0xbd737b3d	-0.0594437
124	0xbc4cbf2b	-0.01249675
125	0xbdfad582	-0.12247755
126	0x3b31c1be	0.0027123536
127	0xbc4b4d94	-0.012408633

bn1.running_mean f4 [128]
0	0xbde0b94e	-0.10972844
1	0xbe1f5081	-0.15558054
2	0x3e077b86	0.13230714
3	0xbd44799f	-0.04796755
4	0x3e105321	0.14094211
5	0x3bfd7219	0.0077345488
6	0xbdba483b	-0.09095808
7	0xbd5c6400	-0.053806305
8	0xbdce2a31	-0.10066641
9	0x3e189cf3	0.14903621
10	0xbd8fe489	-0.070260115
11	0x3d7029bd	0.058633555
12	0xbd89cdb3	-0.06728687
13	0xbd32e60c	-0.04367642
14	0xbce23778	-0.02761434
15	0x3e140170	0.14453673
16	0x3d78a6a0	0.06070578
17	0xbd22c117	-0.039734926
18	0xbc7d75dd	-0.015469995
19	0x3d68afff	0.056808468
20	0xbc0ea40b	-0.008706103
21	0xbae808c2	-0.0017702805
22	0x3d122bec	0.03568642
23	0x3d82434f	0.06360494
24	0xbd0e992f	-0.034814056
25	0xbd1723af	-0.036899265
26	0x3dec37bb	0.11534067
27	0xbdcece12	-0.100978985
28	0x3da34666	0.07972412
29	0xbdb28e4d	-0.08718548
30	0xbdb4b630	-0.08823812
31	0xbdb05fe7	-0.08612042
32	0xbdf0c420	-0.11756158
33	0x3d50d6fa	0.050986268
34	0x3d724dfa	0.059156395
35	0xbd82cff3	-0.063873194
36	0x3d0e3f82	0.034728535
37	0xbdfbdff4	-0.12298575
38	0x3d6753e1	0.056476478
39	0xbcc1dee2	-0.02366585
40	0xbbd5d904	-0.0065261144
41	0xbdfafc58	-0.12255162
42	0xbded0d26	-0.115747735
43	0x3d2b31c7	0.04179552
44	0x3dbb8dc6	0.091579005
45	0x3d271ff7	0.04080197
46	0xbddb8877	-0.10719388
47	0xbd0c3fc7	-0.03424051
48	0xbd4f7f63	-0.050658595
49	0x3c8564fe	0.016283508
50	0xbc8e11f9	-0.017342554
51	0x3dced403	0.10099032
52	0x3e11ec90	0.14250398
53	0xbdc58ef1	-0.096464045
54	0xbdfa27ea	-0.12214644
55	0xbc1feeee	-0.009761555
56	0x3d0d5630	0.034506023
57	0x3e09ac39	0.13444604
58	0xbcec8cce	-0.028875735
59	0x3dd96731	0.10615385
60	0xbe1a80c4	-0.15088183
61	0x3dd95033	0.10611
62	0x3de16b84	0.11006835
63	0xbd25a86c	-0.040443823
64	0x3d994144	0.074831516
65	0xbd2037ee	-0.03911584
66	0x3cc98e0b	0.024603864
67	0x3d25f615	0.040517885
68	0x3e1d5793	0.15365438
69	0xbe0b37b9	-0.13595475
70	0xbe2379bd	-0.15964408
71	0x3deea9da	0.1165349
72	0xbe25829d	-0.16163106
73	0x3e11df53	0.14245348
74	0xbd3a067f	-0.04541635
75	0x3e28fbc1	0.16502286
76	0x3dd41726	0.10355978
77	0x3deed1dd	0.11661122
78	0xbda320d2	-0.07965244
79	0xbe050d91	-0.12993456
80	0x3b65c73c	0.003506138
81	0xbe1f9d39	-0.1558732
82	0xbe0df7aa	-0.13864008
83	0xbdb802ed	-0.08984933
84	0xbe165f8f	-0.1468489
85	0x3cd478b3	0.02593646
86	0xbd83c360	-0.06433749
87	0xbceca304	-0.028886326
88	0x3e208203	0.15674596
89	0xbc8a4c65	-0.01688213
90	0x3d89bc20	0.06725335
91	0xbdd2a301	-0.10284997
92	0xbd944e23	-0.07241466
93	0x3d0b3266	0.03398361
94	0x3db6d89a	0.08928032
95	0xbc6831df	-0.014172046
96	0x3e0eb570	0.139364
97	0xbdd05082	-0.10171606
98	0xbd9a86f7	-0.07545274
99	0x3dddaec7	0.10824352
100	0x3df0e72f	0.11762845
101	0x3d82546b	0.06363758
102	0x3ce113cb	0.027475258
103	0x3e154ed9	0.14580859
104	0x3dd928a0	0.10603452
105	0xbde5a784	-0.11213592
106	0x3b94009c	0.004516674
107	0xbcf9afba	-0.0304793
108	0x3d76eb30	0.060282886
109	0x3d37e94e	0.04490023
110	0x3d9d3e74	0.076779276
111	0x3df66931	0.120317824
112	0x3da7d251	0.081944115
113	0xbdd587ad	-0.10426269
114	0x3d6ea037	0.05825826
115	0x3d2bfc09	0.041988406
116	0xbcebe4dc	-0.028795652
117	0x3ca43f6f	0.020049779
118	0xbd34a19d	-0.04409944
119	0xbde08bd7	-0.10964172
120	0x3dd8ca23	0.105854295
121	0xbe12a526	-0.14320812
122	0x3d27437f	0.040835854
123	0xbdd25209	-0.10269553
124	0xbdcd6cc8	-0.10030514
125	0x3d18598f	0.037194785
126	0xbe255a07	-0.16147624
127	0x3c3a64ef	0.0113766035

bn1.running_var f4 [128]
0	0x3dfc6d9f	0.12325596
1	0x3e517ad8	0.20457017
2	0x3e0ad395	0.13557275
3	0x3ed708a9	0.41998795
4	0x3e118823	0.14212088
5	0x3eb3dd0e	0.3512959
6	0x3e8ed24f	0.27894828
7	0x3e489d66	0.19591293
8	0x3eb69baa	0.35665637
9	0x3ddf7dc7	0.10912662
10	0x3e2844dd	0.1643252
11	0x3f91679b	1.1359743
12	0x3e000ea0	0.12505579
13	0x3f2dc9ec	0.67886233
14	0x3e1f3e12	0.15551022
15	0x3e052f7a	0.13006392
16	0x3e2244eb	0.15846603
17	0x3f5fcd98	0.87423086
18	0x3e7a82bd	0.24463935
19	0x3f13c93d	0.5772894
20	0x3f84c4fa	1.0372612
21	0x3eb6548b	0.35611376
22	0x3ec75bf4	0.38937342
23	0x3e41678c	0.18887156
24	0x3ec56f4a	0.3856147
25	0x3f120747	0.57042354
26	0x3e9af55f	0.30265328
27	0x3e03f93f	0.12888049
28	0x3ec4ddf9	0.38450602
29	0x3ee99ddf	0.4562826
30	0x3e4498aa	0.19198862
31	0x3f05e160	0.5229702
32	0x3e95c5e9	0.29252556
33	0x3e380766	0.17971572
34	0x3f54e275	0.83158046
35	0x3deadbd7	0.114677124
36	0x3e8956d2	0.2682405
37	0x3f1a9887	0.6038899
38	0x3ea1efd8	0.316283
39	0x3e8fde3a	0.28099233
40	0x3f081f69	0.5317293
41	0x3df49331	0.11942137
42	0x3eb85412	0.3600164
43	0x3e9d76ff	0.3075485
44	0x3f07929e	0.52958095
45	0x3ea00cbe	0.31259722
46	0x3f81e0c9	1.0146724
47	0x3eae42b4	0.34035265
48	0x3f717de4	0.9433272
49	0x3dbc29ee	0.09187685
50	0x3e9bfcb4	0.30466235
51	0x3e411455	0.18855412
52	0x3e9a1433	0.30093536
53	0x3e966983	0.29377374
54	0x3e5cc9dd	0.2156138
55	0x3e46a1db	0.1939768
56	0x3f944f08	1.1586618
57	0x3dd7bdde	0.10534261
58	0x3e88862a	0.2666486
59	0x3f8676d9	1.050502
60	0x3e5338d7	0.20627151
61	0x3e54f919	0.20798148
62	0x3e49676e	0.19668362
63	0x3eb7593f	0.35810277
64	0x3e3aaaa5	0.18229158
65	0x3e007a77	0.12546717
66	0x3ed4787d	0.41498175
67	0x3e5742be	0.21021554
68	0x3e7a222c	0.24427098
69	0x3dadb91d	0.08482573
70	0x3df5431e	0.11975692
71	0x3eb2fdb2	0.3495918
72	0x3de39ef7	0.111143045
73	0x3f8b59a6	1.0886734
74	0x3e7b9e52	0.24572113
75	0x3e4fc048	0.20288193
76	0x3e5b013f	0.21387194
77	0x3dedeae8	0.116170704
78	0x3efb9654	0.4913813
79	0x3e40f744	0.18844324
80	0x3e2f8e72	0.17144182
81	0x3eeb924a	0.46010047
82	0x3e723458	0.2365278
83	0x3e509107	0.20367824
84	0x3ee6b8e4	0.45062935
85	0x3e8c2197	0.27369377
86	0x3eadc86a	0.33941966
87	0x3f19c916	0.6007246
88	0x3dccc578	0.09998602
89	0x3e641892	0.22274998
90	0x3dcd8828	0.10035735
91	0x3e9862b4	0.29762805
92	0x3ebcbf64	0.3686477
93	0x3e5af37f	0.21381949
94	0x3f31f358	0.6951194
95	0x3e8f5443	0.27993974
96	0x3e6e1f55	0.2325414
97	0x3f1bc667	0.6084961
98	0x3e643b15	0.22288163
99	0x3e54a281	0.20765115
100	0x3e7ecc52	0.2488263
101	0x3e3246e7	0.1740986
102	0x3e9cf70a	0.30657226
103	0x3e09f4f8	0.13472354
104	0x3e0a6385	0.13514526
105	0x3e49c740	0.19704914
106	0x3df6431c	0.12024519
107	0x3d8d16ec	0.068891376
108	0x3e7b09c0	0.24515438
109	0x3e212cac	0.15739697
110	0x3f14b861	0.5809384
111	0x3e005fb6	0.12536511
112	0x3e47bf08	0.19506466
113	0x3e1d6abf	0.15372752
114	0x3e93fec1	0.289053
115	0x3f05a274	0.5220101
116	0x3f1996fc	0.5999601
117	0x3f59a3c3	0.85015506
118	0x3f1d50af	0.6145124
119	0x3e0a0ca9	0.13481392
120	0x3e103785	0.14083679
121	0x3e9b4b99	0.30331114
122	0x3e73f588	0.23824131
123	0x3e7b4ed6	0.24541792
124	0x3e5d3a07	0.21604167
125	0x3e3a2a0f	0.18180107
126	0x3e6722d2	0.22571877
127	0x3e2b6672	0.16738299

fc2.weight f4 [64, 128]
0	0x3c6ceb77	0.014460436
1	0xbe1b3e40	-0.15160465
2	0x3bd06388	0.0063595213
3	0x3d850cb4	0.064965636
4	0xbd0908d9	-0.033455703
5	0xbd9d3af5	-0.07677261
6	0x3d8861b6	0.06659262
7	0xbd217e6a	-0.0394272
8	0xbd117c33	-0.035518836
9	0x3d2cbfe5	0.042175192
10	0x3d230db5	0.039807994
11	0xbcda39bc	-0.026638858
12	0xbc1b65c6	-0.009484714
13	0xbcf8ad44	-0.030356057
14	0xbd696fba	-0.056991316
15	0x3d9b384a	0.07579096
16	0x3d15b722	0.036551602
17	0xbcfeaaf3	-0.031087374
18	0xbd6b8560	-0.057500243
19	0xbc9348a3	-0.017978972
20	0x3d2160c5	0.039398927
21	0xbd94b8b5	-0.072617926
22	0x3cacd126	0.021095823
23	0xbd8a344d	-0.06748257
24	0x3ceab306	0.028649818
25	0xbd628092	-0.055298395
26	0xbdaf56c1	-0.08561469
27	0x3d7f1856	0.062279068
28	0xbd7b8426	-0.061405323
29	0xbc921846	-0.01783384
30	0xbe0a42c5	-0.13502033
31	0xbc583744	-0.01319677
32	0x3d22cd70	0.0397467
33	0xbc041717	-0.008062146
34	0x3c990e46	0.018683564
35	0x3bec3008	0.007207874
36	0xbdd8e268	-0.105900586
37	0xbd1139d9	-0.03545556
38	0x3cb5dd32	0.0222002
39	0x3cf14240	0.029450536
40	0xbbf5184a	-0.007479702
41	0xbb0bd9aa	-0.0021339455
42	0xbd4eb51e	-0.050465696
43	0xbd78be54	-0.060728386
44	0xbd7cacbd	-0.061688174
45	0x3d8c0cec	0.06838402
46	0xbd0ad8fb	-0.033898335
47	0xbd88427e	-0.066533074
48	0x3c677432	0.014126824
49	0x3cf21f7f	0.029556034
50	0x3bab7ab6	0.005233134
51	0x3c0665a7	0.008202947
52	0xbd82f44c	-0.06394252
53	0x3b0dce3f	0.0021637825
54	0x3cd868c7	0.02641715
55	0xbcf93982	-0.03042293
56	0x3b3dc84e	0.0028958502
57	0xbd21251f	-0.039342042
58	0xbdae3954	-0.08507028
59	0xbd577d13	-0.052609514
60	0x3d1f62c7	0.03891256
61	0x3d8986cc	0.067151636
62	0xbc29bc74	-0.010359872
63	0xbd42b9ba	-0.047540404
64	0xbbc60777	-0.0060433703
65	0xbc8145ce	-0.015780356
66	0xbd65b1b4	-0.056077674
67	0x3c0c94c6	0.008580392
68	0x3d836e81	0.06417561
69	0x3d549811	0.051902834
70	0x3d92b8ff	0.071641915
71	0xbd900fc6	-0.070342585
72	0xbd09cb92	-0.033641405
73	0xba2669d9	-0.000634817
74	0x3d3a233c	0.04544376
75	0xbc890934	-0.016728021
76	0x3c5428ec	0.01294921
77	0xbcf6f02f	-0.030143825
78	0xbd068c26	-0.0328485
79	0x3d53531b	0.051592927
80	0xbd3b9510	-0.045796454
81	0x3cb7b430	0.022424787
82	0xbbe0236e	-0.006840161
83	0x3d9235f3	0.07139196
84	0xbde42ea2	-0.11141707
85	0xbdcdaa56	-0.100422546
86	0x3c0842f1	0.008316741
87	0x3db7e45b	0.08979102
88	0xbdf22dd3	-0.118251465
89	0xbbb1dc6b	-0.005427887
90	0x3dd38753	0.103285454
91	0x3d6669bc	0.05625318
92	0x3daf193a	0.085497335
93	0xbdcf11f3	-0.101108454
94	0x3dd94e38	0.10610622
95	0x3d79675c	0.060889587
96	0x3d816306	0.06317715
97	0xbd86172a	-0.06547387
98	0x3c74eb86	0.014948731
99	0x3cab937e	0.020944353
100	0xbd0269e3	-0.031839263
101	0x3b6f0793	0.003647302
102	0xbd178056	-0.036987625
103	0xbd59a035	-0.0531313
104	0xbd358c57	-0.04432329
105	0xbd04cb92	-0.032420702
106	0xbc8d7d4c	-0.01727166
107	0x3d823572	0.0635785
108	0xbcf89069	-0.030342298
109	0xbe1e0378	-0.1543101
110	0xbc3eaff7	-0.011638633
111	0x3b0bc488	0.0021326859
112	0xbc931a3f	-0.017956851
113	0x3cc69c1f	0.024244366
114	0xbd17e605	-0.037084598
115	0xbd7f7403	-0.062366497
116	0x3d6793ed	0.056537557
117	0xbdad6924	-0.084673196
118	0xbd8d16e4	-0.06889132
119	0xbe200349	-0.15626253
120	0xbc94beb2	-0.018157337
121	0x3d610aee	0.054942064
122	0xbd5c5d97	-0.05380019
123	0x3d05326f	0.0325188
124	0xbc9eb49c	-0.01937323
125	0x3d583b70	0.05279106
126	0x3d5be3d5	0.053684074
127	0xbd608ffe	-0.05482482
128	0x3c108807	0.008821494
129	0x3d0cd690	0.03438431
130	0x3dab4dc9	0.08364446
131	0x3b95204c	0.004550969
132	0xbd921fff	-0.07135009
133	0x3d2b1a19	0.041772936
134	0xbdb1ef32	-0.08688201
135	0x3ca5f937	0.020260436
136	0xbd8eae55	-0.06966845
137	0xbe03d2b9	-0.12873353
138	0xbd5404ac	-0.051762268
139	0x3bbd8b79	0.0057844487
140	0xbdc399a4	-0.09550789
141	0x3d410f45	0.047133703
142	0x3cd344cd	0.025789643
143	0xbc269ad0	-0.010168746
144	0x3b8e4f09	0.004342918
145	0x3da40f7c	0.08010766
146	0xbb29db85	-0.0025918197
147	0xbd91105d	-0.07083199
148	0x3bf64f9b	0.007516814
149	0xbc0eb1c5	-0.008709376
150	0x3ced3371	0.028955193
151	0xbde7a0b4	-0.113099486
152	0xbc6da919	-0.014505648
153	0xbd3f87eb	-0.04676048
154	0xbab9f3d3	-0.0014187045
155	0x3d0a3efc	0.033751473
156	0x3d256d9b	0.04038773
157	0xbc526382	-0.012841107
158	0xbcab680a	-0.020923633
159	0xbc280eb5	-0.010257413
160	0x3c0a592e	0.008444114
161	0xbbc2d2ac	-0.005945524
162	0xbbeb03b4	-0.0071720723
163	0xbd97cfc0	-0.07412672
164	0x3d0861d8	0.033296436
165	0xbc43790d	-0.011930716
166	0xbdb7c0ac	-0.08972296
167	0x3c7d1e5d	0.015449134
168	0xbdfd2d70	-0.12362182
169	0xbdab993c	-0.083788365
170	0x3d7a30a7	0.061081555
171	0x3bb79908	0.0056029595
172	0x3c52897a	0.01285016
173	0xbbb44a7c	-0.0055020433
174	0xbdecdb08	-0.115652144
175	0x3dac9afa	0.08427997
176	0x3caadbe0	0.020856798
177	0xbdc069dc	-0.09395191
178	0xbc91271a	-0.01771884
179	0xbd1475f2	-0.036245294
180	0x3d9031c5	0.07040743
181	0xbd29075e	-0.04126679
182	0xbd920f8c	-0.071318716
183	0x3c804290	0.01565674
184	0x3dbeeec2	0.09322883
185	0x3d61b6fa	0.05510614
186	0x3d5b2e43	0.053510915
187	0xbc02e2ff	-0.00798869
188	0xbdc2a007	-0.09503179
189	0x3d1ca045	0.038238782
190	0xbd0dd41e	-0.03462612
191	0x3c8a172a	0.016856749
192	0xbbafa568	-0.005360294
193	0xbd821f4b	-0.06353625
194	0x3cfd2498	0.030901238
195	0xbdff8ed3	-0.124784134
196	0xbc9688fd	-0.018375868
197	0xbd85231d	-0.06500838
198	0xbd6dd646	-0.058065675
199	0x3d87e70f	0.06635868
200	0xbd7b16d9	-0.061301086
201	0xbcfd58ac	-0.030926071
202	0xbd62e257	-0.055391636
203	0xbd2c6154	-0.042085007
204	0xbd390227	-0.04516807
205	0x3db3da57	0.087818794
206	0xbd479a54	-0.048731163
207	0x3d42daba	0.047571875
208	0x3d0b9d09	0.034085307
209	0x3be85a18	0.007090818
210	0x3c10bb0b	0.008833657
211	0x3dc4b93e	0.09605645
212	0xbd604971	-0.05475754
213	0xbd9e6418	-0.07733935
214	0xbcc14776	-0.023593646
215	0xbcca65ed	-0.024706805
216	0x3c31f98b	0.010862718
217	0xbd9892ba	-0.07449861
218	0x3c4c6bc8	0.012476869
219	0xbcc3d249	-0.023903983
220	0xbd4f38b1	-0.050591175
221	0x3ce16948	0.027516022
222	0xbc62c232	-0.013840245
223	0xbd838edf	-0.06423735
224	0x3b3629c9	0.0027795902
225	0xbd4082c7	-0.04699972
226	0xbd07ad39	-0.033124182
227	0xbc473afd	-0.01216006
228	0x3d91a863	0.07112195
229	0xbcf3872f	-0.029727546
230	0x3ca829ab	0.020527681
231	0xbd2d0867	-0.04224434
232	0x3da70899	0.08155937
233	0x3c2e92b5	0.010655095
234	0xbd022b4e	-0.03177958
235	0xbbe7f47f	-0.0070787068
236	0x3ca96f62	0.020682994
237	0x3d5be91f	0.05368912
238	0x3c5861d0	0.013206914
239	0x3cbc56a4	0.022990532
240	0xbdc2bed3	-0.09509053
241	0xbc893226	-0.016747545
242	0x3d0f9838	0.035057276
243	0x3d5761e9	0.05258361
244	0x3d0380de	0.03210532
245	0x3cbbb174	0.022911765
246	0x3d61d36e	0.055133276
247	0x3d85c824	0.065323144
248	0x3d7ebb3f	0.06219029
249	0xbd933089	-0.07186992
250	0xbdbfa2ef	-0.09357249
251	0xbdee0490	-0.11621964
252	0xbc9278c0	-0.017879844
253	0x3d0be8d0	0.034157574
254	0xbd179b53	-0.037013363
255	0xbd2be4ec	-0.041966364

fc2.bias f4 [64]
0	0x3d4da4b4	0.0502059
1	0x3cb1dbfd	0.021711344
2	0xbca8c21b	-0.02060037
3	0x3d5e97e0	0.054344058
4	0x3d79858f	0.060918387
5	0x3d127ea2	0.035765298
6	0x3bacdb7c	0.005275188
7	0xbd119586	-0.035542987
8	0x3cc211d1	0.023690136
9	0xbda84dfe	-0.08218001
10	0x3dacbd8d	0.084345914
11	0x3d923759	0.07139463
12	0x3dae2ab5	0.085042395
13	0xbd1db09d	-0.03849851
14	0x3d4cc726	0.04999461
15	0x3d00c23b	0.031435233
16	0xbd512bc5	-0.051067133
17	0xbc93dad4	-0.018048681
18	0x3d81614f	0.06317388
19	0x3d9548c3	0.07289269
20	0x3d038151	0.032105748
21	0x3d8f7db4	0.07006398
22	0x3d5cff57	0.05395445
23	0xbd4e39d4	-0.050348118
24	0xbd7bfaf2	-0.061518617
25	0xbd7bb440	-0.061451197
26	0x3d21250b	0.039341968
27	0xbd7aec65	-0.0612606
28	0x3d7c6677	0.061621156
29	0xbcfda23c	-0.030961148
30	0x3b52cfed	0.003216739
31	0xbc97c356	-0.01852576
32	0xbd09a490	-0.033604205
33	0xbc38c760	-0.011278003
34	0xbd4a5808	-0.04940036
35	0x3d549128	0.051896244
36	0x3d87c8d0	0.06630099
37	0xbd9e18d5	-0.0771958
38	0x3cc8b1c5	0.02449883
39	0xbd7eb02f	-0.06217974
40	0x3d5e3b28	0.054255635
41	0xbd818bfe	-0.063255295
42	0x3dad4c4a	0.084618166
43	0x3d5db503	0.054127704
44	0xbb9c086f	-0.0047617476
45	0xbd4a6aa3	-0.049418103
46	0x3d763f48	0.060118943
47	0xbce399bd	-0.027783269
48	0xbcef1ed8	-0.029189512
49	0x3c3a66ce	0.01137705
50	0x3c59bce9	0.013289669
51	0xbd4be43a	-0.0497782
52	0xbb74eaa9	-0.0037371314
53	0x3d0ea379	0.03482387
54	0xbd807c68	-0.062737286
55	0x3da24d06	0.07924847
56	0xbcdc8251	-0.026917608
57	0x3c096996	0.00838699
58	0x3d85dd65	0.06536368
59	0x3da4dc2c	0.08049807
60	0x3c9e2550	0.019304901
61	0xbc1884bd	-0.009308991
62	0x3ce77255	0.02825276
63	0x3db1c8ea	0.086808994

bn2.weight f4 [64]
0	0x3f817922	1.0115092
1	0x3f7fba74	0.9989388
2	0x3f82bdce	1.0214174
3	0x3f887eb5	1.0663668
4	0x3f8a1dca	1.0790341
5	0x3f960a16	1.1721828
6	0x3f9073c6	1.1285331
7	0x3f802e3c	1.001411
8	0x3f81d688	1.0143595
9	0x3f8488ab	1.0354208
10	0x3f790f53	0.9728901
11	0x3f8f098e	1.1174791
12	0x3f7a3364	0.97734666
13	0x3f7e35c9	0.9930082
14	0x3f768e8b	0.96311253
15	0x3f74a942	0.95570767
16	0x3f791ec2	0.9731256
17	0x3f8fed37	1.1244267
18	0x3f8c11d0	1.0942936
19	0x3f820b4f	1.0159701
20	0x3f7ddbf9	0.99163777
21	0x3f908d6a	1.1293156
22	0x3f800f4f	1.0004672
23	0x3f80ed70	1.007246
24	0x3f80a667	1.0050782
25	0x3f7c3b5d	0.9852808
26	0x3f848374	1.0352616
27	0x3f8ac0b4	1.0840058
28	0x3f88abd6	1.067744
29	0x3f77fa06	0.9686588
30	0x3f775a9c	0.96622634
31	0x3f81b1d9	1.01324
32	0x3f803022	1.0014689
33	0x3f8049cd	1.0022522
34	0x3f77ac8b	0.96747655
35	0x3f758e0f	0.9591989
36	0x3f7ffaec	0.9999225
37	0x3f792b05	0.9733127
38	0x3f831917	1.0242032
39	0x3f817928	1.0115099
40	0x3f84848c	1.035295
41	0x3f7d546a	0.9895693
42	0x3f7dcae2	0.991377
43	0x3f741b80	0.9535446
44	0x3f859712	1.0436728
45	0x3f7b74d4	0.9822514
46	0x3f82c603	1.0216678
47	0x3f736b35	0.9508546
48	0x3f7a0d76	0.9767679
49	0x3f738987	0.95131725
50	0x3f8e04cb	1.1095213
51	0x3f8ae6a0	1.0851631
52	0x3f8d0811	1.1018087
53	0x3f81bd2b	1.0135854
54	0x3f7d0983	0.9884264
55	0x3f801a60	1.0008049
56	0x3f76b11e	0.9636401
57	0x3f942b5e	1.1575735
58	0x3f7e25c4	0.99276376
59	0x3f8071d7	1.0034741
60	0x3f77511f	0.96608156
61	0x3f897388	1.0738382
62	0x3f818655	1.011912
63	0x3f9696e7	1.1764802

bn2.bias f4 [64]
0	0x3d335206	0.043779396
1	0xbd66a90f	-0.05631357
2	0xbd9abb0a	-0.07555206
3	0x3d6316f3	0.055441808
4	0x3d9e3eca	0.0772682
5	0x3d349a33	0.04409237
6	0x3d93ef2f	0.07223355
7	0xbda826d4	-0.08210531
8	0xbcce9322	-0.025216643
9	0xbd4bd0c1	-0.04975963
10	0x3be9a09a	0.007129741
11	0x3d46645f	0.048435565
12	0xbde4a92b	-0.11165079
13	0xbd71a672	-0.058996625
14	0xbc45782f	-0.01205258
15	0x3c98b300	0.018640041
16	0xbb54b323	-0.0032455407
17	0xbcaa3ea5	-0.020781824
18	0x3d478034	0.04870625
19	0x3d9e8ce3	0.07741716
20	0xbcc8ade2	-0.024496976
21	0xbd53daef	-0.051722463
22	0xbe13439b	-0.14381258
23	0x3d919dc7	0.07110172
24	0xbcf518c0	-0.029919028
25	0x3c838c06	0.01605798
26	0x3dd0da36	0.101978704
27	0xbc891799	-0.016734885
28	0xbb0079e5	-0.0019603905
29	0xbdee63bc	-0.116401166
30	0x3ddeb196	0.108737156
31	0x3ba9287b	0.0051622964
32	0x3cb73cb4	0.022367813
33	0x3d6aae83	0.057295334
34	0xbe03f96c	-0.12888116
35	0xbd6db5e2	-0.058034785
36	0xbd8de4b5	-0.06928388
37	0xbdd7247b	-0.10505005
38	0x3ad869b1	0.0016510991
39	0x3d3f13df	0.04664981
40	0x3cd8c81c	0.026462607
41	0x3bc95cd4	0.006145099
42	0xbd9dc1a9	-0.07702953
43	0xbd29fab0	-0.04149884
44	0xbd79799b	-0.060906988
45	0x3d0a0ceb	0.033703726
46	0xbbaae975	-0.0052158185
47	0xbd007a06	-0.03136637
48	0xbc724e3b	-0.014789159
49	0xbdfa95c6	-0.12235598
50	0x3db4d9f2	0.08830632
51	0xbe03c665	-0.1286865
52	0x3d86304d	0.065521814
53	0xbda8d382	-0.08243467
54	0x3d001395	0.031268675
55	0x3c44471c	0.011979844
56	0xbe04679f	-0.12930153
57	0x3df6c996	0.12050168
58	0xbbe5eeed	-0.0070170076
59	0xbd94fc6d	-0.07274709
60	0xbc565000	-0.013080597
61	0x3d6d9477	0.058002915
62	0xbd50a4c7	-0.050938394
63	0x3d3c4aa3	0.045969617

bn2.running_mean f4 [64]
0	0xbeaf493b	-0.34235558
1	0xbe893388	-0.26797128
2	0xbd740dbb	-0.059583407
3	0xbd79fbaa	-0.06103102
4	0xbe6e242f	-0.2325599
5	0xbde0fca5	-0.10985688
6	0xbe23d646	-0.15999708
7	0xbc92e5e8	-0.017931893
8	0xbe1921c3	-0.14954285
9	0xbe804151	-0.25049832
10	0x3d8aa5c3	0.06769898
11	0xbdb65a46	-0.08903937
12	0x3db52714	0.08845344
13	0xbea96d55	-0.33091226
14	0xbeb8c329	-0.36086395
15	0x3d8fd431	0.07022894
16	0xbe9ceafe	-0.30648035
17	0xbeb0fa23	-0.3456584
18	0x3e310223	0.17285971
19	0xbe59b91e	-0.21262023
20	0xbe26d118	-0.162907
21	0xbe4a2d62	-0.19743875
22	0x3e54addf	0.20769452
23	0xbd893e40	-0.06701326
24	0xbd17587a	-0.036949612
25	0xbeb5c84e	-0.35504383
26	0xbe04ffb6	-0.12988171
27	0xbe1f0b33	-0.15531616
28	0xbe9f20fb	-0.3107985
29	0xbec9bbb8	-0.3940103
30	0x3e3f88b4	0.18704492
31	0xbd61969f	-0.055075284
32	0xbe7b862a	-0.24562898
33	0xbf0f1ba9	-0.5590158
34	0x3e896bdc	0.26840103
35	0xbe5e02b1	-0.21680714
36	0xbd068c69	-0.03284875
37	0xbe79c1fc	-0.24390405
38	0xbcf43a8c	-0.029813074
39	0xbe97e2ef	-0.29665324
40	0xbd1b121c	-0.037859067
41	0xbed87fc6	-0.42284983
42	0xbe0029bd	-0.12515922
43	0x3d64c05e	0.05584752
44	0xbe5b2bd9	-0.21403445
45	0xbe33ee0b	-0.17571275
46	0x3e1018a3	0.14071898
47	0xbe99e767	-0.30059358
48	0x3d609042	0.054825075
49	0x3cb57d29	0.022154408
50	0xbe73f37c	-0.2382335
51	0xbec74ed7	-0.38927338
52	0xbf293d66	-0.6610931
53	0xbe0def7e	-0.1386089
54	0xbec41cd8	-0.38303256
55	0xbe0fdb32	-0.1404846
56	0xbe9c5a8c	-0.30537832
57	0xbe30d362	-0.17268136
58	0xbec1999f	-0.37812516
59	0xbe4a06b9	-0.19729127
60	0xbdf9624a	-0.1217695
61	0xbce18bb8	-0.027532443
62	0xbe0080e7	-0.12549172
63	0xbd246189	-0.04013208

bn2.running_var f4 [64]
0	0x3f085abe	0.5326346
1	0x3ee0a76c	0.43877733
2	0x3f2c886d	0.6739567
3	0x3f6bce60	0.9211178
4	0x3f2d0887	0.67591137
5	0x3f36519c	0.71218276
6	0x3f0290b1	0.5100203
7	0x3f1562e1	0.58354
8	0x3f39e226	0.726107
9	0x3f5f229b	0.8716218
10	0x3f217174	0.6306374
11	0x3f0d79b6	0.5526384
12	0x3e9605c5	0.29301277
13	0x3f02c288	0.5107808
14	0x3ed1b8dd	0.40961352
15	0x3f0ecd6f	0.55782217
16	0x3ef404e7	0.4765999
17	0x3f81f3ae	1.015249
18	0x3f30134d	0.6877945
19	0x3ebc319e	0.36756605
20	0x3e97150f	0.29508254
21	0x3f466d35	0.77510387
22	0x3f0adee5	0.5424636
23	0x3eb7381d	0.35785
24	0x3f0d6034	0.5522492
25	0x3f5eee04	0.87081933
26	0x3f2bec61	0.6715756
27	0x3f6afab5	0.917888
28	0x3f43444b	0.7627608
29	0x3f15504e	0.5832566
30	0x3ef81ce2	0.48459536
31	0x3f0b6296	0.54447305
32	0x3eff118c	0.49818075
33	0x3ece829c	0.40334022
34	0x3f273894	0.65320706
35	0x3ef0849f	0.46976182
36	0x3f1ddf56	0.6166891
37	0x3eff1c6e	0.49826378
38	0x3edabec6	0.42723674
39	0x3ef8c794	0.48589766
40	0x3f3cc68f	0.73740476
41	0x3ed9f433	0.42569122
42	0x3f278a9b	0.6544587
43	0x3ea056e0	0.3131628
44	0x3f1593d4	0.5842869
45	0x3f319011	0.6936045
46	0x3f433501	0.7625275
47	0x3ed8672f	0.42266223
48	0x3ece8f19	0.4034355
49	0x3e95ff2d	0.29296246
50	0x3f3eb48c	0.7449424
51	0x3f266fbb	0.6501424
52	0x3f59b0e9	0.8503557
53	0x3e5742b8	0.21021545
54	0x3f0d7129	0.55250794
55	0x3f35067f	0.7071304
56	0x3edaa5a9	0.42704514
57	0x3f759d82	0.9594346
58	0x3f002154	0.50050855
59	0x3f0adb89	0.54241234
60	0x3ee1ae45	0.4407827
61	0x3f376cd9	0.71650463
62	0x3f371db8	0.7152972
63	0x3effbe72	0.49949986

fc3.weight f4 [32, 64]
0	0xbe0aa98e	-0.13541242
1	0x3daadfbf	0.083434574
2	0x3d004cca	0.03132323
3	0x3caa3b6b	0.020780286
4	0xbcfb4eac	-0.030677162
5	0xbcc56fbe	-0.024101134
6	0xbdb26945	-0.08711485
7	0xbcab906c	-0.02094289
8	0xbc54bf3c	-0.012985047
9	0x3ddb6818	0.10713214
10	0xbdaac3a8	-0.083381
11	0x3b4da2a5	0.0031377461
12	0x3ca0f0b4	0.019646026
13	0xbe0f31f1	-0.13983895
14	0x3db4c79a	0.088271335
15	0xbd0a5c9d	-0.03377973
16	0xbddd5cdf	-0.108087294
17	0xbc74532e	-0.01491241
18	0xbde67112	-0.11252035
19	0xbdbb90fb	-0.09158512
20	0xbe03b779	-0.12862958
21	0xbc2be2f9	-0.010491126
22	0xbd931c94	-0.07183185
23	0x3c7ba0ef	0.015358194
24	0xbd8250fc	-0.06363103
25	0x3d82903a	0.06375165
26	0x3d8b0272	0.06787576
27	0xbe2fcc1a	-0.17167702
28	0x3daf9d44	0.08574918
29	0x3d9b7cd4	0.075921685
30	0xbdade4c5	-0.084909
31	0x3d3dbccf	0.04632264
32	0xbcd85524	-0.026407786
33	0x3d740cfe	0.059582703
34	0xbb2a6baa	-0.0026004114
35	0xbd322337	-0.043490615
36	0x3d7acac5	0.061228532
37	0xbdadc04a	-0.08483942
38	0x3d50b40a	0.05095295
39	0xbe4da0ca	-0.20080867
40	0xbc774293	-0.015091556
41	0x3d27223b	0.04080413
42	0xbcadc76b	-0.021213254
43	0xbdbe33c3	-0.092872165
44	0xbdee774d	-0.116438486
45	0x3cf4ce2b	0.029883465
46	0x3d134e9d	0.035963643
47	0xbde93ecc	-0.11388931
48	0xbdd09730	-0.10185087
49	0xbe08d295	-0.1336158
50	0xbdf07deb	-0.11742767
51	0x3d627097	0.055283155
52	0x3ca44bfb	0.020055762
53	0x3bd6b9c8	0.0065529086
54	0x3d5a7875	0.053337533
55	0x3d3dab28	0.046305805
56	0x3d117500	0.03551197
57	0xbd5cfd39	-0.05395243
58	0xbd8c56f6	-0.06852524
59	0x3c9d49a2	0.01920015
60	0xbc88b33f	-0.016687034
61	0xbdfe0c10	-0.124046445
62	0x3dae9a8f	0.085255735
63	0xbdb7aa89	-0.08968074
64	0xbc6f905d	-0.014621821
65	0xbb339600	-0.002740264
66	0x3dc60d3a	0.096704915
67	0x3cd26a0c	0.025685333
68	0xbcbd14d9	-0.02308123
69	0xbda8ac87	-0.08236032
70	0xbcc2383b	-0.023708453
71	0x3cf8e288	0.030381456
72	0xbcffdec1	-0.031234147
73	0xbb9cfe25	-0.0047910386
74	0x3de885cf	0.11353647
75	0xbdaf3afb	-0.085561715
76	0xbd7fc9b3	-0.062448215
77	0x3e0678cf	0.13132022
78	0x3d7801c2	0.06054855
79	0xbde13309	-0.10996062
80	0xbc4e1674	-0.012578595
81	0x3d8bd56a	0.06827815
82	0xbdeb7e22	-0.11498667
83	0xbe0c3057	-0.13690315
84	0x3d860dea	0.06545623
85	0xbcad4d50	-0.02115503
86	0xbd5151b5	-0.051103313
87	0xbc5b2e71	-0.013377772
88	0x3e1405f9	0.14455403
89	0xbcbe5492	-0.023233686
90	0x3d196125	0.03744616
91	0xbdb2b7cd	-0.087264635
92	0x3d8ece9f	0.069730036
93	0x3d8bb13d	0.06820915
94	0x3ddc0da1	0.10744787
95	0xbdd276fa	-0.10276599
96	0xbdd03ed9	-0.10168237
97	0x3d8a65b1	0.06757677
98	0x3d426e80	0.047468662
99	0xbd792e0a	-0.060834922
100	0x3dfd26b4	0.12360898
101	0x3ce74169	0.028229432
102	0xbd5818a9	-0.052757893
103	0x3cb8523e	0.022500154
104	0xb993ff21	-0.0002822811
105	0xbd708ae0	-0.05872619
106	0xbd808857	-0.06276005
107	0xbdabca3e	-0.08388184
108	0xbd6a8c78	-0.057262868
109	0x3c9d6df9	0.019217478
110	0xbd8f07c7	-0.06983905
111	0xbd2b8c9e	-0.04188215
112	0x3d9780b7	0.07397597
113	0xbc46cb3c	-0.012133416
114	0x3a303c5f	0.0006722863
115	0x3c98625a	0.018601585
116	0x3d902662	0.07038571
117	0xbdcf4c9e	-0.101220354
118	0xbdd90e46	-0.105984256
119	0x3cbaad28	0.022787645
120	0x3d9005b9	0.070323415
121	0xbdda7a83	-0.106678985
122	0xbdf3b244	-0.11899236
123	0x3d113a97	0.035456266
124	0xbb9ca62c	-0.0047805514
125	0xbdf58214	-0.11987701
126	0xbbe49b2f	-0.006976507
127	0xbe300696	-0.17190012
128	0x3d988455	0.07447115
129	0xbcb22fb9	-0.021751272
130	0x3d3e8a2e	0.046518497
131	0x3bd7bb5f	0.0065836157
132	0xbd0e16bc	-0.03468965
133	0x3d9a486e	0.07533346
134	0x3dd1e6a8	0.10249072
135	0x3d5a7f63	0.05334414
136	0xbddb4673	-0.107067965
137	0xbbbcdc91	-0.0057635983
138	0xbda75439	-0.08170361
139	0x3cac8477	0.021059258
140	0xbdd423ed	-0.10358415
141	0xbc4d816d	-0.012543065
142	0x3d13e66e	0.036108427
143	0x3c846598	0.016161725
144	0xbd821ede	-0.06353544
145	0xbdb8c5ee	-0.09022127
146	0xbd7a5862	-0.061119445
147	0xbdd7f845	-0.105454005
148	0x3dc85739	0.097822614
149	0xbe2a1a66	-0.16611633
150	0x3d023768	0.03179112
151	0xbcbc603f	-0.022995112
152	0xbdd3ee3d	-0.10348175
153	0xbcdcddd3	-0.026961243
154	0xbdfb37d2	-0.12266506
155	0xbd8bae81	-0.06820393
156	0xbe566087	-0.2093526
157	0x3b1114a4	0.0022137547
158	0xbdcdbb38	-0.10045475
159	0xbda6b1c9	-0.081393786
160	0x3cf4e8a6	0.029896092
161	0xbd66638b	-0.056247275
162	0xbcb8290f	-0.022480516
163	0x3d6360bc	0.055512175
164	0xbcdfcc7f	-0.027319191
165	0x3d59cd06	0.05317404
166	0xbe0af9da	-0.13571873
167	0x3d9ef2e6	0.07761173
168	0xbe0c7599	-0.13716735
169	0x3af8c4db	0.0018979566
170	0xbd07da84	-0.033167377
171	0x3d49e52d	0.049290825
172	0xbd966e32	-0.07345237
173	0xbe18e4b5	-0.14930995
174	0xbe148a7e	-0.14505956
175	0x3da0d012	0.07852186
176	0x3d370b9b	0.044688802
177	0x3cdbf4fd	0.026850218
178	0x3df109a7	0.11769419
179	0xbd32e42f	-0.043674644
180	0x3d22e6c0	0.03977084
181	0x3dfcb248	0.12338692
182	0xbcdad96c	-0.026715003
183	0xbd9e067c	-0.077160805
184	0x3ad9c715	0.0016615117
185	0xbdab3fbc	-0.08361766
186	0x3deb02e8	0.11475164
187	0x3c754b02	0.014971497
188	0x3c1eb33a	0.009686286
189	0xbe5cf1fc	-0.21576685
190	0xbdef4147	-0.116823725
191	0x3d58d99e	0.05294191
192	0xbda86a3a	-0.08223386
193	0xbd5f2b72	-0.054484792
194	0x3c139835	0.009008457
195	0xbcfcb5b0	-0.030848354
196	0x3dee86a1	0.11646772
197	0xbe847663	-0.25871572
198	0xbe68ddb3	-0.22740822
199	0xbdc1ccf5	-0.094629206
200	0x3d53206e	0.0515446
201	0xbdade76b	-0.08491405
202	0x3cc6390a	0.02419712
203	0xbe4dad37	-0.20085607
204	0xbd8702b5	-0.06592313
205	0x3dde081f	0.10841393
206	0xbc66efc6	-0.014095252
207	0x3d02261c	0.031774625
208	0x3d28d8ec	0.041222498
209	0xbd7e5b3b	-0.062098723
210	0xbe1b3cd0	-0.15159917
211	0x3d8baa05	0.06819538
212	0xbd535dff	-0.051603314
213	0x3de1e5cb	0.11030158
214	0xbde33b3d	-0.11095283
215	0xbbac1452	-0.005251446
216	0xbdee03d3	-0.11621823
217	0x3bd7b5b2	0.006582939
218	0x3d73b21c	0.05949603
219	0x3c4fce3f	0.01268345
220	0x3dc69648	0.096966326
221	0x3da0f166	0.07858543
222	0xbd0690e0	-0.032853007
223	0xbd66cc48	-0.05634716
224	0xbd0d05f8	-0.03442952
225	0xbd8f7f1d	-0.07006667
226	0xbdd22f0a	-0.10262878
227	0x3d0b8dfe	0.03407096
228	0xbd878faf	-0.06619202
229	0x3dc6a42c	0.09699282
230	0x3e012364	0.12611157
231	0xbcbf9aba	-0.023389209
232	0x3cf51ede	0.029921945
233	0xbbf2bbd5	-0.007407645
234	0xbd880c0a	-0.06642921
235	0xbdbe73c8	-0.09299427
236	0xbb991617	-0.004671823
237	0xbd9365af	-0.07197129
238	0xbcdf760d	-0.02727797
239	0x3d4917fb	0.049095135
240	0x3ca78804	0.0204506
241	0x3d898712	0.06715216
242	0xbe6690af	-0.2251613
243	0xbda39d15	-0.079889454
244	0xbe1b8747	-0.15188323
245	0x3d4ad0b6	0.04951545
246	0xbe03adca	-0.12859264
247	0x3dd6ef27	0.104948334
248	0x3c9c6331	0.019090267
249	0x3d86d5ce	0.06583749
250	0xbd1ed646	-0.038778566
251	0xbda6a29d	-0.08136485
252	0xbcdeb268	-0.02718468
253	0x3c20a6ba	0.009805376
254	0xbce2f711	-0.027705701
255	0xbda8e28d	-0.08246336

fc3.bias f4 [32]
0	0xbde9f7d2	-0.11424221
1	0x3d052ebe	0.03251528
2	0x3d758516	0.059941374
3	0x3d16e992	0.036843844
4	0x3da35b1b	0.07976361
5	0x3dc7f780	0.09764004
6	0xbdb74cd1	-0.089501984
7	0xbdc14f85	-0.09438995
8	0xbd3e57c6	-0.046470426
9	0x3bc6fe37	0.0060727852
10	0xbc40a61a	-0.011758352
11	0xbd1f82af	-0.03894299
12	0xbdb17c0a	-0.08666237
13	0x3cd63689	0.026149051
14	0x3d81a997	0.06331175
15	0xbb9691df	-0.004595026
16	0x3dbd2c69	0.09236986
17	0xbc17f1f9	-0.009273999
18	0xbdd38b13	-0.10329261
19	0x3cec6d82	0.028860811
20	0xbcc1fcf9	-0.023680197
21	0x3d5245e8	0.0513362
22	0xbc22ffba	-0.009948665
23	0xbdfc34f9	-0.12314791
24	0xbdfaf0db	-0.12252971
25	0x3d8851c8	0.066562235
26	0x3da36037	0.07977336
27	0xbdba3242	-0.09091617
28	0xbcd8665a	-0.026415993
29	0xbd321baf	-0.043483432
30	0x3cd68edf	0.026191173
31	0x3de6b1e8	0.11264402

bn3.weight f4 [32]
0	0x3f8d9fb8	1.1064367
1	0x3f71d270	0.9446173
2	0x3f832cbe	1.0248029
3	0x3f6f7141	0.93532187
4	0x3f88b5fc	1.0680537
5	0x3f658193	0.8965084
6	0x3f70b35c	0.9402368
7	0x3f8a59aa	1.0808613
8	0x3fa38629	1.2775317
9	0x3f6a3834	0.9149201
10	0x3f898a2a	1.0745289
11	0x3f7eb11b	0.9948899
12	0x3f98c4a3	1.1935009
13	0x3f81fc70	1.0155163
14	0x3f6c0912	0.9220134
15	0x3f6f9bb9	0.9359699
16	0x3f6a7b4e	0.915944
17	0x3f8ac3fe	1.0841062
18	0x3f93b9fd	1.1541134
19	0x3f958b3c	1.1683116
20	0x3f71984e	0.94373024
21	0x3f85343f	1.0406569
22	0x3f7fb9e2	0.9989301
23	0x3f89dbd7	1.0770215
24	0x3f9d8a1c	1.2307773
25	0x3f8ae92f	1.0852412
26	0x3f8ab454	1.0836282
27	0x3f6eb5c0	0.9324608
28	0x3f88cf70	1.0688305
29	0x3f662743	0.8990366
30	0x3f74be5f	0.95602983
31	0x3f7015d7	0.93783325

bn3.bias f4 [32]
0	0x3d2747fe	0.04084014
1	0xbdd6f71a	-0.1049635
2	0x3c6a0a98	0.014284752
3	0x3be3656a	0.0069395797
4	0xbdd09583	-0.10184767
5	0x3d11fc49	0.03564099
6	0xbdb2863f	-0.08717012
7	0x3d93b900	0.0721302
8	0xbe1b7eea	-0.15185133
9	0xbdc3b890	-0.09556687
10	0x3dbce885	0.09224037
11	0xbdc1531d	-0.09439681
12	0x3c04d156	0.00810655
13	0xbd54add4	-0.051923588
14	0xbd26c5bf	-0.04071593
15	0xbd65d7a8	-0.05611387
16	0xbe263f5a	-0.16235104
17	0xbcacaf78	-0.021079764
18	0xbce29c24	-0.027662344
19	0x3b57a7b8	0.0032906365
20	0x3e238fb2	0.15972784
21	0x3d400988	0.04688409
22	0x3d0c7746	0.034293436
23	0xbbf69c95	-0.0075259903
24	0xbdd8e2ad	-0.1059011
25	0xbde411f6	-0.11136238
26	0x3cd40a9f	0.02588397
27	0xbe2f242d	-0.17103644
28	0x3cae1b7e	0.021253344
29	0xbdbd8d26	-0.092554376
30	0xbdc6edea	-0.09713347
31	0xbe23c254	-0.15992099

bn3.running_mean f4 [32]
0	0xbf04f3ee	-0.5193471
1	0xbe92eb5c	-0.2869519
2	0xbec515ce	-0.38493198
3	0xbed62854	-0.41827643
4	0xbe288418	-0.1645664
5	0x3d1cd206	0.03828623
6	0xbe74cefc	-0.23907083
7	0xbf106a48	-0.5641217
8	0xbf7fc13f	-0.99904245
9	0xbe04400c	-0.12915057
10	0xbedd31a3	-0.43201932
11	0xbf69557c	-0.91146064
12	0xbf3e3e71	-0.7431403
13	0xbee419d3	-0.44550952
14	0xbe296b45	-0.16544826
15	0xbeadd61d	-0.33952418
16	0x3e5d6cda	0.21623555
17	0xbf522638	-0.8208957
18	0xbf70f906	-0.9412998
19	0xbf09e561	-0.5386563
20	0xbd39b87d	-0.045341957
21	0xbeb3e5fc	-0.35136402
22	0xbea46df9	-0.32115152
23	0xbf51abc7	-0.81902736
24	0xbf8510a6	-1.0395706
25	0x3d42bef7	0.0475454
26	0xbf1451bf	-0.57937235
27	0xbf3c3f7f	-0.7353439
28	0xbf42db9f	-0.76116365
29	0xbe11112a	-0.14166704
30	0xbf6537aa	-0.8953806
31	0x3e7ef043	0.2489634

bn3.running_var f4 [32]
0	0x3f8510b1	1.0395719
1	0x3f273ffa	0.65331995
2	0x3f79e9cd	0.97622377
3	0x3fd5dd21	1.6708108
4	0x3f291afe	0.6605681
5	0x3f4d5a3a	0.802158
6	0x3f756833	0.9586212
7	0x3f2f6d36	0.6852602
8	0x3fc2e008	1.5224619
9	0x3f33cbec	0.70233035
10	0x3f2231eb	0.6335742
11	0x3f35f9fc	0.7108457
12	0x3fa35395	1.2759882
13	0x3f555ba5	0.83342963
14	0x3f3d752b	0.7400691
15	0x3f1325c8	0.57479525
16	0x3ebf5287	0.3736765
17	0x400657de	2.099113
18	0x3fafedf3	1.3744491
19	0x3f8d51d5	1.1040598
20	0x3f66de2b	0.9018275
21	0x3f427ef0	0.7597494
22	0x3f45bdb2	0.7724258
23	0x3fd0f104	1.6323552
24	0x3f91d771	1.1393872
25	0x3f2baf04	0.6706393
26	0x3f3a9396	0.7288145
27	0x3f3f8740	0.7481575
28	0x3fa3e452	1.2804053
29	0x3f09d88e	0.5384606
30	0x3f6e8ae8	0.93180704
31	0x3f12c996	0.57338846
