MELOSDP/SDP/chkpt/mc1/linear/4/sdp_classifier_linear-20.pth (torch, 77374 bytes, 25 tensors)

fc1.weight f4 [128, 38]
00000000: 9d3a 8e3d 0f9c 25bb dd41 56bd 03db c2bc
00000010: 2f3e 65bc 0ca3 45bd fc04 ce3c 6ba1 eabc
00000020: f16e ad3d ccfd bbbd eb10 37bd a9e7 9fbd
00000030: 78ee 293b 45fc 09be fecb 96bd f679 8e3d
00000040: 533c a4bd 3a6c 753d e801 1e3c db50 c6bd
00000050: 9e44 bebd ff09 f83d 607c adbd fe27 91bd
00000060: b215 d3bd 7a07 37bd 94e3 0c3e cb4f febd
00000070: 90ae d2bd 082d 9d3d 7df9 913d c887 eebd
00000080: 7a81 1ebc cf36 67bd 27c3 1bbe 1d55 f93c
00000090: f398 d33c 9750 763d 9c57 bcbd 7454 a2bd
000000a0: 5982 14be d4be 153e c7e3 debd 7bde 49bb
000000b0: 2d01 32bd c57f 113e 33c4 e7bd cc22 2a3e
000000c0: 5aea fe3d 5143 b8bd 5557 78bc 9574 ebbd
000000d0: 92b4 f4bd 227f 39be a835 6dbd 1e78 e7bd
000000e0: 87ef 263d acac ab3d 629c 1a3e a3c2 9dbd
000000f0: 12b4 e63d 8cc7 123e 697f b3bd 048e 8fbd
00000100: 4fcb 9abd 0778 ce3d e614 f4bc 74aa 163c
00000110: 4fa6 bdbc 9edd d6bc 293b a5bd 53e1 1ebe
00000120: bf5e 493d 7238 61bd 5ca3 8cbd aa0b ad3d
00000130: 1d3e 8b3d 4399 613c 1bef f13d ff00 12be
00000140: 3f05 c83d a191 0fbe 8349 e2bd da23 0c3d
00000150: 9f6f a63d 8828 f6bd 06e9 fd3d ba7e e1bd
00000160: 81a5 9abc a935 28be 9b57 08be 8d3f 023e
00000170: f0b7 08bd eaf2 19be 86d2 e4bc 3121 8b3d
00000180: 90b0 253b 1371 e0bb b131 5c3d 20de 153d
00000190: 37dd cf3d 6e0f d9bd 11ac 313d 28a2 643c
000001a0: 39d8 a73d 4720 013e 9e1b 12bd b79e 9bbd
000001b0: f653 b63d dfe1 933d c760 1c3d a084 dbbc
000001c0: 3d20 053e 1aba f6bc b430 b43d 3142 c23d
000001d0: 9da9 64bd aa2c 833d 9318 c5bd 34c7 afbd
000001e0: b6b2 a0bc 5351 463d 7c68 1c3e 0906 fabd
000001f0: 785d b43b d1be cb3d d056 ce3d 5b1b 243e
00000200: fb8a 333c a5e8 04be 358d f2bd 496b b73d
00000210: 84e9 c43d c2cb 02be 7c03 033e ce64 8a3d
00000220: 9898 153e 0252 8f3d a16f c53d b27a 29bd
00000230: 1d9d ad3d 1f24 3c3d 2f07 eb3d 7e2d b8bb
00000240: 54d7 9f3d 68d9 0e3e 7c88 093d 9eeb 9a3c
00000250: cb1d f73c 060d 3a3d 65a3 4e3d 0c5d 8cbd
00000260: 244e 333d 863f b63d 3558 5ebd 4925 913d
00000270: c997 9bbd 5e04 e6bd 225c a1bd f4c1 b4bd
00000280: df60 1d3d e354 7bbc 78a5 03be 5c3a e93b
00000290: a945 1d3e 0ae0 ff3c 2fcb 5ebd ed3c e1bd
000002a0: 695e a13d d652 103e 8173 873d 93e6 3a3d
000002b0: aa25 1c3e 5e9d 42ba 7cfd 13be 2220 013e
000002c0: 78ff e2bd 18d6 0c3e 3852 56bd edfe cebd
000002d0: 3f80 523d 1f92 9cbc ed37 a3bd 5475 54bd
000002e0: 43e3 123e 98fc b93d 5305 ddbd da78 f2bd
000002f0: ae3c a43d e61f ebbd 20ff 6a3d 05a4 0c3e
00000300: 1c5e b73d b89a 89bc e049 c1bd 04d7 dd3c
00000310: 45c1 fa3d a447 0b3e e434 343d b9f3 23bd
00000320: 8d96 153e d7dc 0dbe 8ba5 24be 5995 d53d
00000330: 02ff 78bd f5aa cebd 3722 dbbd 91be e1bd
00000340: 1132 8d3d c273 1bbe 9d2d 2e3e 237c 863d
00000350: 4777 f13d 9164 c93d cca6 a4bd cd47 e03d
00000360: 31e7 0d3e a95e 723b 4b2f df3d c8d9 0ebe
00000370: c514 11be 8166 c4bd 20c3 36bd ff06 b63d
00000380: 2b9a 4bbc 3e15 0bbd 80ec 72bd 2210 be3d
00000390: 6d9d 3bbd 97a6 f8bd 3776 653d be1f 993d
000003a0: 18e8 063d 9669 aa3d 306d 16bc cf5b f73d
000003b0: a763 e73d a166 1a3e f894 c13d ed1e 043d
000003c0: e3b0 553c f418 a1bd ccd1 043e 0e2b 01be
000003d0: 0ac0 d13c 8d5d c9bd 8cc5 a33d ab57 c73d
000003e0: 7445 283d 9a09 33bd 6c93 133d 8252 d1bd
000003f0: bdf0 17bd 8a02 223e 1410 e1bd 045d fa3d
0.06944773 -0.002527002 -0.052308906 -0.023786074 -0.0139918765 -0.048251197 0.025148861 -0.028641423
0.08468426 -0.09179267 -0.04469387 -0.078078575 0.0025929492 -0.1347514 -0.07363127 0.06956856
-0.080193184 0.059917666 0.009644009 -0.09683391 -0.092904314 0.121112816 -0.08470988 -0.07087706
-0.103068724 -0.044684865 0.13758689 -0.12417563 -0.102872014 0.07674605 0.07127664 -0.11646992
-0.009674424 -0.056448754 -0.15211163 0.030436093 0.025829768 0.06013545 -0.09196398 -0.079262644
-0.14502849 0.14623576 -0.10883289 -0.0030802775 -0.043458153 0.14208896 -0.11316719 0.16614836
0.12447043 -0.089972146 -0.01515754 -0.11496846 -0.119485036 -0.18114904 -0.0579125 -0.113022074
0.040755775 0.08382544 0.15098718 -0.0770314 0.112648144 0.14333934 -0.08764536 -0.07009509
-0.07558309 0.10081487 -0.029795121 0.009195913 -0.023150591 -0.026228722 -0.080679245 -0.15515642
0.049162623 -0.05498547 -0.06867096 0.0844949 0.067989565 0.013769451 0.11813184 -0.14258192
0.097666256 -0.14020397 -0.110491775 0.03421388 0.08126759 -0.120194495 0.12397961 -0.11010499
-0.018877747 -0.1642672 -0.13314669 0.12719555 -0.03337854 -0.1503407 -0.027932417 0.0679344
0.0025282241 -0.006849417 0.053758327 0.036588788 0.10149615 -0.10598646 0.043376986 0.013954677
0.08195538 0.12609969 -0.03567087 -0.07598632 0.08902733 0.07220816 0.03817823 -0.026796639
0.13000579 -0.030118037 0.08798352 0.09485281 -0.05582582 0.06405003 -0.09623828 -0.08582917
-0.019616466 0.0484174 0.15274233 -0.12208182 0.0055043064 0.09948505 0.10075152 0.1602606
0.0109584285 -0.12979372 -0.11843339 0.0895601 0.09614852 -0.1277304 0.12794298 0.06757508
0.14608991 0.069980636 0.09640432 -0.041376777 0.084772326 0.045932885 0.114759795 -0.0056206575
0.078047425 0.13950121 0.033577427 0.01891118 0.030165574 0.045422576 0.050448794 -0.06853685
0.043775693 0.08898835 -0.05428334 0.0708719 -0.0759731 -0.11231302 -0.07878901 -0.08826056
0.03842246 -0.015340063 -0.1285609 0.0071175527 0.15358604 0.03123476 -0.05439299 -0.10997949
0.078793354 0.140941 0.066138275 0.04563005 0.15248743 -0.0007423962 -0.14452165 0.12609914
-0.11083883 0.13753545 -0.052324504 -0.10107217 0.051391836 -0.019112645 -0.07969651 -0.051869705
0.14344506 0.090813816 -0.10792031 -0.11839457 0.08019386 -0.114806935 0.057372212 0.13734443
0.08953497 -0.016797408 -0.09437919 0.027080067 0.122438945 0.13601547 0.043995753 -0.040027354
0.14608212 -0.13853775 -0.16078775 0.104288764 -0.06079007 -0.10091201 -0.10699885 -0.11022676
0.06894315 -0.15180877 0.17009588 0.06566646 0.117903285 0.09833635 -0.080396265 0.10951195
0.13857724 0.0036982691 0.10897692 -0.13950264 -0.14168079 -0.095898636 -0.04461968 0.08888053
-0.012426893 -0.033955805 -0.059307575 0.09280421 -0.04580443 -0.121411495 0.05602094 0.074767575
0.032936186 0.0832092 -0.009181306 0.12078058 0.11298304 0.15078212 0.09452242 0.032256056
0.013042661 -0.078660876 0.12970656 -0.1261408 0.025604267 -0.098322965 0.079966635 0.09733518
0.04108186 -0.04371033 0.036029264 -0.10220815 -0.03709482 0.15821281 -0.10989395 0.122247726

fc1.bias f4 [128]
00000000: e5c2 d8bd b4b4 1abe 645a 073e 7a60 48bd
00000010: cc9e 103e 5a50 3c3c 50af c3bd 90dd 48bd
00000020: 12af d4bd 81e0 1d3e 72d0 8dbd eaab 873d
00000030: 60e8 84bd 4326 4fbd ebd8 eebc 6448 153e
00000040: 4d64 693d 4dd4 33bd 5ca9 62bc eb47 5a3d
00000050: 6784 7bbc b6f2 e0bb 42bb 263d 793b 863d
00000060: 81a7 d9bc 1ea5 e5bc d332 e03d eb46 cdbd
00000070: a672 b03d de0a b4bd 8f74 aabd 344e c1bd
00000080: 135b ecbd ec48 4f3d 02fe 453d 6189 73bd
00000090: 348c 193d dfd5 07be eb2b 833d 110c babc
000000a0: c996 1b3b a561 f0bd 9021 e6bd 3b3c 2e3d
000000b0: d676 ce3d 482d 193d 0661 dabd f8a1 05bd
000000c0: 97aa 35bd d2f6 a03c 360d 66bc c7a0 d73d
000000d0: a8d7 143e b91b b1bd 9fb5 ebbd 1bd7 18bc
000000e0: 1847 e33c a846 0a3e 13cd dbbc 48b8 e83d
000000f0: fe7e 1dbe 8244 dd3d 3f32 da3d 4c0e 08bd
00000100: 5d0e 983d 0ca2 26bd 6dd7 7d3c 679d 293d
00000110: 5327 1b3e 3503 0cbe 8aa8 23be 0771 df3d
00000120: 66ed 24be 71f6 173e abf1 19bd f601 253e
00000130: fb4d d43d 702e f63d bde2 9cbd 7db7 ffbd
00000140: 06f5 25bb 97c4 17be 7880 0bbe 13e4 bbbd
00000150: 3bca 10be 7f06 fe3c d42f 8bbd 10c2 f2bc
00000160: 3f51 1f3e 6b5b 57bc dd32 913d 86e0 c4bd
00000170: 9440 81bd 3796 1b3d f849 b83d 7b1d 84bc
00000180: 5688 143e d06b dcbd 0df0 99bd 22d5 cd3d
00000190: 763e e83d 03ff 7d3d 30fb 0f3d 0b42 193e
000001a0: fcef db3d d699 d7bd 3496 363b 72b9 fabc
000001b0: 99be 803d 7664 3d3d 2c33 a13d 6a10 ed3d
000001c0: ec59 b03d 699c dbbd 2017 7b3d 74e4 443d
000001d0: a402 0fbd 9353 ba3c deb6 40bd d1aa d9bd
000001e0: 760b db3d bfdb 09be bebe 3a3d f463 c4bd
000001f0: 2141 cabd 7652 193d 03db 24be e124 343c
-0.10584048 -0.15107995 0.13218075 -0.048920132 0.14123076 0.011493767 -0.095549226 -0.049039423
-0.103849545 0.15417673 -0.069245234 0.06624587 -0.064896345 -0.0505736 -0.029156169 0.14578396
0.05698042 -0.043903638 -0.013834324 0.053291243 -0.015351391 -0.006864871 0.040705927 0.06554312
-0.02656913 -0.028032836 0.10947194 -0.10023292 0.086156175 -0.08791135 -0.08323013 -0.09438744
-0.115408085 0.050606653 0.048337944 -0.059457187 0.037487224 -0.13265179 0.06404861 -0.022710832
0.0023740998 -0.11737374 -0.1123687 0.04253791 0.1008126 0.0373967 -0.10663037 -0.03262517
-0.04435214 0.019648943 -0.014041236 0.10528713 0.14535391 -0.08647866 -0.11509251 -0.009328629
0.027743861 0.13503516 -0.026831185 0.11363274 -0.15380475 0.108040825 0.10654115 -0.03321676
0.074246146 -0.040681884 0.015493256 0.041409876 0.1515172 -0.13673098 -0.15982261 0.1091023
-0.16106185 0.14840104 -0.03758399 0.1611403 0.10366436 0.12020576 -0.076604344 -0.124861695
-0.0025323047 -0.14821087 -0.13623226 -0.09174361 -0.14139645 0.031008957 -0.06796232 -0.029633552
0.15558337 -0.013144354 0.070897795 -0.09613137 -0.063111454 0.037985053 0.089984834 -0.016127339
0.14505133 -0.10762751 -0.07516489 0.100504175 0.113400385 0.062010776 0.03515166 0.149666
0.10739133 -0.10527389 0.0027860524 -0.030606005 0.062863536 0.046238385 0.078710884 0.11575396
0.08610901 -0.10723192 0.06130135 0.048069432 -0.034914628 0.02274493 -0.047049396 -0.10628284
0.106955454 -0.13462733 0.045592062 -0.09589377 -0.098757036 0.037432157 -0.16099171 0.010995121

bn1.weight f4 [128]
00000000: 707a 7f3f a9fd 813f 821e 7d3f 6cd5 7d3f
00000010: 92de 803f 1875 813f 548a 7f3f 2e5a 7e3f
00000020: 913f 813f c715 803f 588f 803f 8d4f 813f
00000030: 5025 7f3f a2b7 803f 383d 803f a29c 803f
00000040: 0e1d 7e3f a77e 7f3f 4537 7f3f 41c8 803f
00000050: eceb 7d3f d72a 803f 1561 7c3f f4ae 803f
00000060: 4184 803f 4d14 813f 9880 813f 15db 803f
00000070: 30e7 803f ac5f 813f 2e85 7b3f d05f 803f
00000080: 9eaf 7f3f 5cf4 803f 9317 7e3f e076 7f3f
00000090: ea37 813f 7b57 7d3f 2cab 803f 3ab4 803f
000000a0: 8cb7 7e3f 513f 7f3f 1b10 7f3f a3cb 7d3f
000000b0: f99c 7e3f 4084 803f ed33 7c3f f95e 813f
000000c0: ae14 7e3f 92b5 813f 3019 813f 9ce2 803f
000000d0: 62a0 803f d9ea 7e3f 1679 803f 4c39 7d3f
000000e0: 6dbe 803f 7343 7e3f 5967 7f3f 823e 823f
000000f0: b7b9 803f 76e4 7f3f 1873 813f 9574 7d3f
00000100: 77f2 803f f08b 7f3f 2528 7d3f a73d 823f
00000110: db66 7f3f 1142 803f 9fc1 7f3f 5edd 7e3f
00000120: 9068 803f 2c7a 7c3f d616 803f edfd 7c3f
00000130: 29c7 813f c801 813f 5d00 803f 8bda 7c3f
00000140: c6bc 7f3f 9d24 7f3f f06a 803f 1e67 7f3f
00000150: 3af1 803f 7bf0 813f 65cd 7f3f a5a7 7d3f
00000160: 3f33 803f 20eb 7e3f f806 803f 449d 7e3f
00000170: a545 803f 966d 803f d90e 803f 0362 813f
00000180: a7f3 7c3f cbe9 803f a861 7d3f 0b6b 7d3f
00000190: 9ddf 7f3f 5e59 7d3f e251 7f3f a487 803f
000001a0: 1e90 7e3f 4091 7f3f 73ff 7f3f bd83 7f3f
000001b0: df17 803f 5d07 813f a473 803f 6c7b 7d3f
000001c0: 77db 7f3f fef6 7e3f 6619 7e3f 1147 813f
000001d0: 1da9 7d3f eb94 7e3f c24b 7f3f 11d2 803f
000001e0: 819b 7e3f 2672 803f 1a77 803f abd0 7d3f
000001f0: 657e 803f cd9c 803f 76ac 7e3f f4b7 7f3f
0.997962 1.0155536 0.98874676 0.9915378 1.0067923 1.0113859 0.99820447 0.99356353
1.0097524 1.0006646 1.0043745 1.0102402 0.9966631 1.005604 1.0018682 1.00478
0.99263084 0.9980263 0.9969371 1.0061113 0.99188113 1.0013074 0.98585635 1.0053391
1.0040361 1.008432 1.0117369 1.0066859 1.0070553 1.0107322 0.9825009 1.002924
0.99877346 1.0074573 0.9925472 0.99790764 1.0095189 0.9896161 1.0052238 1.0055001
0.9949882 0.9970599 0.9963395 0.9913885 0.9945827 1.004036 0.9851673 1.0107108
0.99250305 1.0133536 1.0085812 1.0069156 1.0048945 0.995771 1.0036952 0.98915553
1.0058113 0.9932167 0.9976707 1.0175326 1.0056676 0.9995798 1.0113249 0.99006015
1.0073994 0.998229 0.9888938 1.0175065 0.9976632 1.0020162 0.9990482 0.9955653
1.003191 0.9862392 1.0006969 0.9882496 1.0138904 1.0078669 1.0000111 0.9877097
0.9989742 0.9966524 1.0032635 0.9976672 1.0073617 1.0151514 0.9992278 0.9908393
1.0015639 0.9957752 1.0002127 0.9945872 1.0021254 1.0033443 1.0004531 1.0108036
0.98809284 1.0071348 0.98977137 0.9899146 0.9995058 0.9896449 0.9973432 1.0041394
0.99438655 0.9983101 0.9999916 0.9981039 1.0007285 1.0080372 1.0035291 0.9901645
0.9994425 0.9959563 0.99257505 1.0099813 0.9908617 0.9944598 0.9972497 1.0064107
0.9945603 1.0034835 1.0036347 0.9914653 1.0038573 1.0047852 0.99481905 0.99890065

bn1.bias f4 [128]
00000000: 7241 583c e73c 613c ff8f 39bc 1366 73bc
00000010: 5c6e d63b f131 253c e3c9 b43a 0901 003c
00000020: 18d3 6abc 2439 f9bb 22b5 993c 0ff5 893c
00000030: a298 92bc f150 21bb eac9 813a 1084 2cba
00000040: 0fbc 33bc 6bc5 97bc aa6b d13b 6804 64bb
00000050: f2a6 8fba 833b 913c 6597 37bc 1ab2 193c
00000060: da20 6e3c e0c4 f9ba 8378 da3b 31aa 863c
00000070: 140c 9b3c adf3 9dba 1f6c 83bc 405a 28bc
00000080: a12e 52bb c70e 88bb 1425 9cbb a0f0 a8bb
00000090: 26a0 8f3c 80a8 553c 82d9 3a3c 2799 b23b
000000a0: 8084 fb3a e551 46bc ab0c 00bc 442e ccbb
000000b0: 4e59 47bb 2453 80bc 8c0f 80ba e7ef 843c
000000c0: 1209 adbb b522 ab3b 3d66 153c 5f4f 503c
000000d0: 254b 7bbc 50dc 99bb 99da 3a3c 766d f6bb
000000e0: f877 99bc 0277 6cbc 3d43 16bb e2b3 a33c
000000f0: 4bcc 2b3c 7116 08bc ff9c 323c b51a 1abc
00000100: 0619 4cba d9f8 b93b 2376 2cbc 3f15 7c3c
00000110: ed6a 17bc ae92 683a 8078 533b ba32 51bc
00000120: fa9a 023c 9a41 57bc 172a 9dbb b187 7dbc
00000130: 28ea 95bb 1e67 20bc b824 87bc 644c 2bbc
00000140: fd11 75bc 61d6 6c3b 7d4c bf3b f617 423b
00000150: 7616 7b3c 037b 903b ac5e 62bc ebe0 27bc
00000160: 3eb3 8d3c f88f 4abc e8a3 21bc f8e8 eebb
00000170: e150 c93b 658f 6f36 65e1 8dbb 5756 8b3c
00000180: b255 34bc 88fa 8fbc 9912 37bc 322e 5cbc
00000190: a072 17bc 2bca e5bb 585b 9cbb 49e5 933c
000001a0: c2d0 fa3b 7663 9bba 9b01 34bc ea0c c23b
000001b0: f417 5a3c 0830 8a3c e15d acba 6274 e3bb
000001c0: 29df 273b 9919 483b 638c d3b8 cac6 7e3c
000001d0: 87c8 15bc 7261 1cbc fa76 a3bb 48f5 c93b
000001e0: e605 dcbb 2889 1bba 789e 613c 396f 8bbc
000001f0: b4b1 47b9 e4b3 5abc 2c93 433c 18d6 783b
0.013199197 0.01374743 -0.011325835 -0.014855879 0.0065439176 0.010082708 0.0013793077 0.007812747
-0.014332555 -0.0076056886 0.018763129 0.016840486 -0.017895047 -0.0024614895 0.0009902094 -0.0006580958
-0.01097013 -0.018526753 0.0063910084 -0.0034792665 -0.0010959788 0.017728573 -0.011205529 0.009380842
0.0145342 -0.0019055866 0.006667198 0.016438575 0.018926658 -0.001205077 -0.016042767 -0.0102754235
-0.003207125 -0.004152152 -0.0047651622 -0.005155638 0.01753242 0.013040662 0.011404397 0.005450386
0.0019189268 -0.012104486 -0.00781552 -0.006231101 -0.003041822 -0.015664645 -0.0009770258 0.016227676
-0.0052806223 0.0052226433 0.009118614 0.012714236 -0.01533774 -0.0046954527 0.011404657 -0.007520373
-0.018733963 -0.014432671 -0.002292826 0.019983236 0.010485719 -0.008306132 0.010901689 -0.0094057815
-0.0007785711 0.005675417 -0.010526213 0.015385925 -0.009241802 0.00088719546 0.0032267869 -0.012768442
0.00797152 -0.013138199 -0.0047962773 -0.015474246 -0.0045750327 -0.00979021 -0.016497001 -0.010455225
-0.014957902 0.0036138522 0.0058379755 0.0029616333 0.015325179 0.0044091954 -0.013816517 -0.010246496
0.017297383 -0.012363426 -0.009865738 -0.0072909556 0.0061436747 3.5697242e-06 -0.0043298476 0.017008943
-0.0110067595 -0.017575517 -0.011173868 -0.013438748 -0.009243637 -0.0070126257 -0.004771631 0.018053668
0.0076542804 -0.0011855203 -0.010986711 0.0059219496 0.013311375 0.016868606 -0.0013150537 -0.006941364
0.0025615192 0.0030532836 -0.00010087413 0.015550325 -0.009142048 -0.009544717 -0.0049885483 0.006163273
-0.0067145703 -0.00059332186 0.013770692 -0.017020809 -0.00019044318 -0.013348553 0.011936944 0.0037969407

bn1.running_mean f4 [128]
00000000: 27d7 ccbd 63af 0abe d546 ec3d be34 11bd
00000010: 8039 fd3d 109f 283c 0729 99bd feb2 36bd
00000020: 6054 aebd ae47 0a3e b5ae 79bd fe11 663d
00000030: 81e6 78bd 10bb 1cbd 481c c8bc 1375 023e
00000040: ad48 553d 8146 ecbc 2ec1 49bc 8e38 4f3d
00000050: cc04 0abc 0d24 e4ba d690 e03c 6d0b 4c3d
00000060: 2628 cebc 9e37 0abd adea cc3d a9b3 b1bd
00000070: c819 863d 51b3 96bd eda7 a8bd 5734 97bd
00000080: 9d82 ccbd db1f 373d b241 503d ea90 5bbd
00000090: 99a7 1a3d ea83 e3bd fbd2 663d 99d4 a3bc
000000a0: ba15 36bb 0ff5 dcbd 2f69 c9bd 203d 2d3d
000000b0: 45ee a23d fa6f 223d cefd c1bd 80dd cbbc
000000c0: 7e18 1bbd 1466 4f3c 4f21 89bc e2cd bc3d
000000d0: 7f0d 033e 1f83 abbd 336f d6bd e60e e6bb
000000e0: 231d 013d 6bf3 f23d f320 bbbc b04b ca3d
000000f0: 0219 04be 63be be3d 3608 c43d 21bb 13bd
00000100: de7e 803d 623f 05bd 264b c13c d574 0f3d
00000110: a835 153e e871 f5bd 21d6 0cbe 61c2 d73d
00000120: f6a3 13be c18a 013e 284b 14bd 6dfe 0f3e
00000130: 7e78 b13d 2bd8 d03d bda3 8abd d8a1 e6bd
00000140: c0cc b43a 445f 06be bd4a f5bd 86ce 9fbd
00000150: 7165 00be a700 c73c 8f0f 51bd dbfe c5bc
00000160: 2b48 0a3e cc30 24bc 0f91 623d d23c bcbd
00000170: ce69 73bd b0ce fd3c bd37 9c3d b676 15bc
00000180: 522a 023e 5705 b7bd 923b 8fbd 45dc c43d
00000190: 85fb d53d ec64 683d ea58 df3c 2eda 033e
000001a0: b5ad c13d cc36 c4bd 5fd3 a73b 9a16 c8bc
000001b0: 7a4b 563d e21c 253d 3faa 953d af50 df3d
000001c0: b4b5 9b3d f923 b9bd 5ce9 5c3d f182 2c3d
000001d0: 65b9 88bc a5eb c23c 3050 19bd f39f cbbd
000001e0: 3b04 c13d 6534 f6bd ca2f 223d 4b16 b4bd
000001f0: 1e65 b1bd a805 103d 37ad 0cbe cb35 4b3c
-0.100019746 -0.13543467 0.11536948 -0.03545069 0.12364483 0.01029183 -0.074785285 -0.044604294
-0.08512187 0.13503906 -0.06095763 0.056169502 -0.0607667 -0.038264334 -0.024427548 0.12739973
0.052071262 -0.028842213 -0.012314124 0.050591044 -0.008423995 -0.0017405764 0.027412813 0.049815584
-0.025165629 -0.033744447 0.10005698 -0.086768456 0.06547886 -0.07358421 -0.08235154 -0.0738303
-0.0998585 0.044708114 0.050843902 -0.053604998 0.03775749 -0.11109145 0.05635355 -0.019998835
-0.0027783946 -0.10788929 -0.09834515 0.04229462 0.079556026 0.03965757 -0.094722375 -0.024885893
-0.037865154 0.012658615 -0.016739516 0.092189565 0.12798117 -0.08374619 -0.10470428 -0.007020819
0.031521928 0.118628345 -0.02284286 0.098777175 -0.12900165 0.09313657 0.095718786 -0.036067132
0.06274198 -0.03253115 0.023595404 0.03502353 0.1457125 -0.119846165 -0.13753559 0.10535122
-0.14418015 0.12650587 -0.036204487 0.140619 0.0866556 0.10197481 -0.06769512 -0.11261338
0.001379393 -0.13122278 -0.11977146 -0.07803063 -0.12538697 0.024292303 -0.05104023 -0.024169376
0.13504092 -0.0100214 0.05531412 -0.09191288 -0.059427075 0.030982345 0.07627819 -0.009122541
0.12711456 -0.08936565 -0.06993784 0.096123256 0.10448364 0.05673687 0.027264077 0.12876198
0.0945696 -0.09580764 0.005121633 -0.02442484 0.052318074 0.040310748 0.073078625 0.10904061
0.076030165 -0.09040064 0.053933486 0.042117063 -0.016689966 0.023794005 -0.03742999 -0.09942617
0.09424635 -0.12021712 0.039596356 -0.087933145 -0.08661865 0.035161644 -0.13737951 0.012402962

bn1.running_var f4 [128]
00000000: 3235 613f deb7 453f 1d84 773e 7220 363f
00000010: d076 6b3e 6043 913e 8cdc 593f f2d9 6b3e
00000020: 459d 443f 6027 3d3e 81e7 a13e b4a0 e93e
00000030: 4d09 643e 9f1c 213f c634 ee3e 0610 663e
00000040: 3b2b 8d3e fd10 ce3f 5be5 8a3e 32c8 2d3f
00000050: b17e 4a3f 0e6d da3e 7e8a 4f3f 9196 253f
00000060: d79f ba3e d496 0b3f e925 923e ddd0 763e
00000070: d24c 4e3f fcd6 ee3e 66b4 903f 9fca 423f
00000080: f35a 053f dde7 a03e 4890 553f 1d2c 5e3e
00000090: f681 ba3e a4cb b83e 245a 763e 9284 bb3e
000000a0: eb96 013f ba69 a03e 09aa 9b3e bfb2 c93e
000000b0: a930 6e3f c7ec f23e 45bb 773f 63db 7c3e
000000c0: 4d1f 1b3f 76bc 4f3e 6b21 e93e a7a6 663e
000000d0: 25e7 2a3f 27c4 313f 0285 5d3e 3082 813e
000000e0: e967 8d3f a12d a83e 603e 7d3e f8fd b33e
000000f0: 59cd f33e fa7e 893e f591 9f3e 64aa 1d3f
00000100: f3c1 423e f5a9 a13e fefd 273f 391f ae3e
00000110: 17e1 0d40 9882 6f3e 9dcf 813e 3d4d 233f
00000120: bb40 753e 60bc 6b3f e493 db3e 48f0 973e
00000130: 4728 1d3f 5af3 873e a59f e03e 63a7 cd3e
00000140: 2df5 683e dec7 f43e 058e 843e a744 913e
00000150: c042 ba3e 3117 b23e 6391 743f 6c9d a93e
00000160: 766b a23e 2da5 b23e 6239 ac3e 9074 133f
00000170: 761c 9a3e fcbb 773e fe73 363f 001e b83e
00000180: 6000 753e d6c3 2f3f 5a40 8a3e 7971 8c3e
00000190: 6eb1 a23e f43d 893e 7367 573e b73e 7b3e
000001a0: afb0 ad3e d252 943e d479 9a3e 1c41 763e
000001b0: 23f7 883e 6e67 953e b98e bd3e e9e0 d83e
000001c0: 8abe 8a3e 30ab b73e 1d11 4c3e 4472 4f3e
000001d0: 2a3a e13f 5166 773e c5d3 233f 5315 443f
000001e0: 7687 753e cf55 ad3e acc1 ce3e 47e3 873e
000001f0: 5b45 a93e 322a 883e 0114 993e af4a 773e
0.87971795 0.77233684 0.24171491 0.7114326 0.22994542 0.28371716 0.8510215 0.23032358
0.76802474 0.18472052 0.31621936 0.4563042 0.22269173 0.629343 0.46524638 0.2246705
0.27572045 1.6098934 0.2712811 0.678836 0.79099566 0.42661327 0.810707 0.6468287
0.36450073 0.5452702 0.28544548 0.24103113 0.8058597 0.46648395 1.1305053 0.76090425
0.520919 0.31426898 0.8342328 0.21696515 0.36427277 0.36092865 0.24057823 0.3662458
0.5062091 0.31330663 0.30403164 0.39394185 0.93043 0.47446272 0.96770126 0.24693064
0.60594636 0.20286736 0.45533308 0.2252451 0.6675895 0.6943993 0.2163277 0.25294638
1.1047336 0.32847312 0.24730825 0.351547 0.47617605 0.26854688 0.31166044 0.6158812
0.19019298 0.3157498 0.65621936 0.34008196 2.2168634 0.23389661 0.2535371 0.6378973
0.23950474 0.9208431 0.4288627 0.29675508 0.61389583 0.2655285 0.438718 0.40166768
0.22749777 0.47808737 0.25889602 0.2837269 0.3637905 0.3478332 0.9553434 0.33127916
0.3172261 0.34891644 0.3363753 0.57599735 0.3009984 0.24192804 0.7127074 0.35960388
0.23925924 0.68658197 0.2700222 0.27430323 0.31775993 0.2680508 0.21035556 0.24535643
0.3392386 0.28969437 0.30171072 0.24048275 0.2675105 0.29180473 0.3702295 0.42359093
0.27098495 0.35872793 0.19928403 0.20258433 1.7595875 0.24160124 0.6399501 0.7659504
0.23977455 0.3385453 0.40382135 0.26540586 0.33060727 0.26594692 0.29898074 0.24149583

fc2.weight f4 [64, 128]
00000000: 2e72 853d 7483 b8bd 45ae 91bc ca4e 9c3d
00000010: 2637 18bd 5591 68bd fedd 803d 827e 80bc
00000020: ffb0 1cbd d368 903d 9a1a 773c 1a4d d03b
00000030: c590 e53a 2f77 c5bc 6ccd 9dbd 6f20 c03d
00000040: 9377 8f3d f6c0 edbc 7130 3abc 99b7 73bc
00000050: 48ad 3e3d 40e9 a7bd 37d6 50bd 0791 41bd
00000060: e1a1 2c3d d432 49bd 50c3 91bd fdf4 633d
00000070: 2132 1bbd 128f 42bc 6ac8 9cbd df76 fabb
00000080: cea0 413d 2ce8 3d3c 7adb e83c 93ce dbb9
00000090: 4e03 c1bd 72c2 d5bc 99f7 2e3d 9092 203d
000000a0: b464 20bc 8239 b4bc b9c4 49bd 00df 59bd
000000b0: ea30 1cbd 7b01 a93d 8f2b 33bd 3d36 87bd
000000c0: 3d1c 17bb 1920 3a3d c36b c8bc 078e 47bc
000000d0: fa4e 80bd 6a7a 203d 9feb 333d 4ecb b0bc
000000e0: b5ad 6b3c ff66 37bd 643b b6bd a87d 52bd
000000f0: 971f 433d 008f 983d 8ebf adbb b8cc 86bc
00000100: 0dde 1a3c 2589 143c a009 76bd 2474 1dbb
00000110: 27eb 7d3d 2351 1c3d f655 a83d af70 9cbd
00000120: f6b0 5dbd 1bf8 fbbc 0eaf 193d 9e3c 00bd
00000130: 71b2 46bd 74a2 55bd feaa 05bd 3223 8c3d
00000140: a602 d4bc da77 0f3d df62 a33b e60f 7d3d
00000150: 044a cdbd a263 b8bd 78a2 423c 1d35 b93d
00000160: 6454 c3bd eda0 d1ba 407a c93c 0b40 1e3d
00000170: bf9a c13d 0239 8ebd f4e3 873d 61c6 823d
00000180: 0356 9f3d 6de4 74bd e9dd f03c 6ecc 193d
00000190: a151 dbbc 658b 06bc 93ac 8dbd cac6 a0bd
000001a0: 9998 49bd 40a3 f53b 5858 05bd 433f 933d
000001b0: 0c9c 05bd 0c3c acbd 8d77 2fbb a38a 943c
000001c0: 26c5 49bc 7947 c63c ca03 aebc 8ab5 0cbd
000001d0: 54ce 723d 8d41 7abd 100a 71bd 4a42 78bd
000001e0: c894 5abc 407a 973d cdf3 79bd 5e96 d23c
000001f0: 4177 75bc f7ff 413d 7cbe 763d 5b40 debc
00000200: 1593 a8bc 65ac a33b fe5a 6e3d 04d1 d0bb
00000210: 51e1 44bd b418 be3c 360f babd 3f08 fc3b
00000220: f9d2 86bd b9d7 c5bd d570 34bd 090f 573a
00000230: 4130 98bd edc9 5e3d 8a43 debb e463 a3bc
00000240: 3430 2d3d 2933 933d d2a2 07bc 6047 8fbd
00000250: d5aa 543c f2e5 21bc fc4b ef3c 7510 d2bd
00000260: e4d8 6dbb fdb5 9abd b901 1a3d 8a0b 903d
00000270: f62d f03c b908 d1bc fea9 8bbd 5302 48bc
00000280: ab32 1fbb 1d62 9cbc 436d e3ba fa99 c73a
00000290: 0d83 233d 98e4 183c 6a7e 9cbd 6c5b 37ba
000002a0: ad8b c6bd 8b94 eebc 069b 843d c1a6 1bb9
000002b0: 57e9 27ba afbe cfbb ad9b 4bbd 889f bb3d
000002c0: c84f 083d e15f bfbd 602f 73bd 46cf ffbc
000002d0: 094c 813d 1b0b 7ebc 6e8d a0bd 93ca 3a3d
000002e0: 2eb6 aa3d 5c7d 883d 52ea 8a3d daf6 9fbc
000002f0: 5d10 bcbd f54b 6c3c bdb5 a1bc 82f0 12bd
00000300: e8f1 533c b46e 56bd 3577 443d 64c0 b9bd
00000310: a8c1 c5bc 4f2d 81bd 8038 07bd 16f8 803d
00000320: 459c 8dbd 8852 29bd c446 2ebc 11ac b2bb
00000330: 1196 22ba 95cd 8c3d 3ee8 6dbd 96c2 8b3d
00000340: 20d5 633d a347 643a d3c9 ae3b 0e57 a43d
00000350: 2329 97bd 0b0b 99bd 8c3b 00bd f92e 14bd
00000360: 08b2 413c 8224 99bd 3cf2 493d d0cb 313d
00000370: 1b44 e13a b717 9b3c 331b 8ebd b861 6cbd
00000380: 0d85 2c3d b86d 42bd 5640 3cbd 2533 153b
00000390: d32f 8f3d 2294 35bd 1b92 823c def0 3abd
000003a0: 37de 8e3d 4bd1 c43c 94b5 713c a658 923c
000003b0: 4d70 433c 67d3 943d e08f 483b bcfa 073d
000003c0: 7c1a 53bd 6c50 e3bc 84cd b23c 567d ba3d
000003d0: 090c b73c c861 ec3c 116d 383d ae6c 9a3d
000003e0: 4ed0 a13d aa89 93bd 7ad8 abbd e414 86bd
000003f0: ffdf bb3c f39b 2d3d b2ba d9bc 2b0d 8dbd
0.06515919 -0.09009448 -0.017783294 0.07632215 -0.03716197 -0.056779224 0.06292342 -0.015685324
-0.038254734 0.07051244 0.015082026 0.0063568475 0.0017514458 -0.024104683 -0.07705197 0.09381186
0.07005229 -0.029022675 -0.011364088 -0.014875316 0.046551973 -0.08198786 -0.05098554 -0.04725745
0.042146567 -0.04912074 -0.07117331 0.05565356 -0.037889604 -0.011874931 -0.076554134 -0.007643565
0.047272496 0.011590999 0.028424967 -0.00041924845 -0.094244584 -0.026093695 0.042716596 0.039202273
-0.0097896345 -0.022000078 -0.049259875 -0.053191185 -0.038132586 0.082522355 -0.043742713 -0.06602142
-0.0023057603 0.045440767 -0.024465447 -0.012179858 -0.062650636 0.039179243 0.043925878 -0.021581318
0.014384677 -0.04477596 -0.088980466 -0.051389366 0.04763755 0.0744915 -0.005302376 -0.01645504
0.009452355 0.009065901 -0.060067773 -0.0024025524 0.061991837 0.038163316 0.08219521 -0.0763868
-0.05412384 -0.030757954 0.03752046 -0.03130781 -0.04851002 -0.05215688 -0.032633774 0.068426505
-0.02588017 0.03502641 0.0049861516 0.06178274 -0.10023883 -0.090033785 0.011879556 0.09043334
-0.095375806 -0.0015993394 0.024594426 0.038635295 0.094533436 -0.06944467 0.066352755 0.06385494
0.07780077 -0.059788156 0.02940269 0.037548475 -0.026772322 -0.008211945 -0.069176815 -0.07850416
-0.049217794 0.0074962676 -0.032554954 0.071898006 -0.03261952 -0.084098905 -0.0026774139 0.018132513
-0.01231507 0.024204003 -0.021242041 -0.034352817 0.0592788 -0.06109767 -0.058847487 -0.060610093
-0.013341136 0.07396364 -0.061023522 0.025706466 -0.014982046 0.047363248 0.060240254 -0.027130296
-0.020577947 0.0049949163 0.058192246 -0.006372573 -0.04806644 0.023205139 -0.090849325 0.0076914127
-0.065832086 -0.096602865 -0.044052918 0.00082038395 -0.07431079 0.05439179 -0.0067829536 -0.019945092
0.0422823 0.071874924 -0.0082785655 -0.069960356 0.012980183 -0.009881483 0.029211037 -0.10257045
-0.0036292607 -0.07554243 0.0375993 0.07033451 0.02931879 -0.025516855 -0.06819533 -0.012207585
-0.0024291675 -0.019089753 -0.0017351288 0.0015228384 0.0399199 0.009331845 -0.07641299 -0.0006994519
-0.0969461 -0.029123565 0.06474881 -0.00014844073 -0.0006405315 -0.00633987 -0.04970901 0.091612875
0.03327921 -0.09344459 -0.059371352 -0.031226765 0.06313331 -0.015505577 -0.078394756 0.045603346
0.08335529 0.066645354 0.06782974 -0.019526888 -0.091828085 0.014422406 -0.01973998 -0.035873897
0.012936093 -0.05235167 0.047965247 -0.09069899 -0.024140194 -0.0630747 -0.033012867 0.06297319
-0.06914572 -0.041338474 -0.010636989 -0.005452641 -0.0006202171 0.06875149 -0.05808281 0.06824224
0.055623174 0.00087081845 0.005334118 0.08024417 -0.07380893 -0.074728094 -0.03130679 -0.03617761
0.011822231 -0.074776664 0.04930328 0.04340726 0.0017186435 0.018932207 -0.069387816 -0.05771038
0.042119075 -0.047467917 -0.045959793 0.002276608 0.069915436 -0.044330724 0.01593881 -0.045639865
0.06975978 0.02402558 0.014752764 0.017864536 0.01192863 0.07266884 0.0030603334 0.033198103
-0.05153893 -0.02774831 0.021826513 0.09105937 0.022344606 0.02885522 0.04502589 0.0754026
0.07901059 -0.07203992 -0.08390899 -0.06546953 0.022933958 0.042385053 -0.026578281 -0.06887277

fc2.bias f4 [64]
00000000: 02a1 4e3d ab43 b23c 109d aabc 8d28 5e3d
00000010: 5163 7a3d bd5f 133d 9bbe b23b 9f98 11bd
00000020: b3e3 c13c 8923 a8bd d0c1 ac3d 477f 923d
00000030: ab19 ae3d 4ec6 1dbd 95b8 4c3d ce86 013d
00000040: 3e31 51bd a3ae 92bc 6654 813d dcf3 953d
00000050: 6b79 033d 01d6 8f3d f797 5c3d 1008 4ebd
00000060: 7821 7cbd 5b0e 7cbd 2e1f 223d 827a 7abd
00000070: 24cd 7d3d 7d2e febc 3d11 5c3b 69cc 97bc
00000080: 31c1 09bd 1a00 3bbc 941d 4abd 92a8 523d
00000090: ebce 873d f41a 9ebd 1166 c93c a62c 7ebd
000000a0: 9af8 5d3d 1fb4 81bd b37e ad3d 3776 5e3d
000000b0: 9c06 a1bb 8e33 4abd d6cd 753d aa62 e5bc
000000c0: e9c2 eebc 6037 373c 7e2b 583c f5e1 4bbd
000000d0: 739e 75bb 5d9b 0e3d 6270 80bd 093a a23d
000000e0: 617a debc 8b97 0b3c 31aa 853d 0ded a43d
000000f0: 3cea 9e3c 67e9 17bc f2e2 e73c 2f70 b23d
0.050446518 0.021760782 -0.020826846 0.05423789 0.06112987 0.035979975 0.005454851 -0.03554594
0.023668146 -0.08209903 0.08435404 0.071531825 0.085009895 -0.038519196 0.04998072 0.0316227
-0.05107235 -0.017905539 0.06314926 0.07321903 0.032098215 0.0702324 0.053855862 -0.050300658
-0.061555356 -0.061537128 0.039580517 -0.06115199 0.061963215 -0.031028027 0.003357961 -0.018530088
-0.033631507 -0.011413598 -0.049344614 0.051430292 0.06631263 -0.07719985 0.024584802 -0.0620543
0.054192163 -0.063331835 0.084714316 0.054311957 -0.004914118 -0.049365573 0.060010754 -0.028001148
-0.029145675 0.011182636 0.013193963 -0.049776036 -0.0037478476 0.034816135 -0.06271435 0.079212256
-0.027157964 0.008520017 0.06526602 0.08053026 0.019398801 -0.009271956 0.028306458 0.087128036

bn2.weight f4 [64]
00000000: 050b 7f3f 5669 7d3f 8e58 813f 0a14 813f
00000010: dc8d 813f 196d 7c3f 6c18 813f 0862 803f
00000020: cab6 7f3f 9765 7d3f 20c8 7f3f c832 803f
00000030: 9c36 7e3f 80f8 7f3f a1ed 7f3f 87ab 803f
00000040: c46d 803f 6edb 7c3f 37f4 803f a545 7f3f
00000050: 6bae 7f3f b59d 7c3f e41a 813f f695 7e3f
00000060: b633 813f 024f 7d3f 2038 803f 4ad0 7e3f
00000070: fac9 813f 90a1 7f3f 6e95 7f3f 2a31 7e3f
00000080: 8e0c 7e3f 55ee 813f b7d9 803f 856c 803f
00000090: d4a1 803f 0bb3 7f3f 5c4b 803f dd61 803f
000000a0: 0b4c 7e3f 6d73 803f 26a2 7e3f ea27 7d3f
000000b0: 7640 803f 159f 7e3f 83cf 7f3f d16a 7f3f
000000c0: e234 803f a215 803f 2170 7d3f fe31 7e3f
000000d0: 1c3c 813f af1b 7f3f 6b3f 803f 6e75 7e3f
000000e0: 4598 7d3f b1a6 7e3f 7544 823f b4c9 803f
000000f0: 6f06 803f c840 7e3f e7cb 7c3f 6fcc 803f
0.9962619 0.98988855 1.010515 1.008424 1.0121417 0.9860397 1.0085578 1.0029917
0.9988829 0.9898314 0.9991474 1.0015497 0.9930208 0.99988556 0.9997197 1.0052346
1.0033498 0.98772323 1.0074528 0.99715644 0.99875516 0.9867814 1.0086331 0.9944757
1.0093906 0.9894868 1.0017128 0.99536574 1.0139763 0.998559 0.99837387 0.9929377
0.99237907 1.0150858 1.0066441 1.0033118 1.0049386 0.9988257 1.0022998 1.0029866
0.9933478 1.0035225 0.9946617 0.9888903 1.0019672 0.9946149 0.9992601 0.99772364
1.0016139 1.0006602 0.9899922 0.9929503 1.0096469 0.99651617 1.0019354 0.99397933
0.9906047 0.994731 1.0177141 1.0061555 1.0001963 0.993176 0.9874863 1.0062388

bn2.bias f4 [64]
00000000: a4f2 8c3c e26a 4abc 1987 79bb 2071 8239
00000010: 1722 8a3c 0b74 4bbc 814e d7bb a0f1 44bc
00000020: 605a 463c bb01 76bc 946e 0d3c 0c22 0dbb
00000030: 7437 6fbc 28f9 37bc f003 703c bb2f 663c
00000040: 0a04 803c d910 39bc b9b0 f43b f13b 213c
00000050: 954a 32bc 7ed9 67bc c82a 66bb 2735 23bc
00000060: b3d3 30bc 0d87 0abc 0142 953c a807 463b
00000070: fcbc a63c ddd8 a6bb 1d8d 38bb 2a3f 78bc
00000080: a637 a03c f341 3f3c cf2b 6fbc 1413 483c
00000090: db4b 11bc 3796 3cbc 6f11 263a 8232 17bb
000000a0: b7c2 abbb 9fa5 573c 17b9 84bc 1565 843c
000000b0: a73e a7bb 3bd3 02bc 4206 ccbb 896a 9d3c
000000c0: 38e5 d3bb 2083 163c 173c 59bc 7910 5fbc
000000d0: bb1a 253c 3fdd 9e3b 8af8 2b3c c106 7c3b
000000e0: 58c1 05bc 7a4c 293c b0f2 a53c 45e8 5dbc
000000f0: 7615 cbbb 0340 233c 8dd1 0c3b 8f49 553c
0.017205544 -0.012354584 -0.003807491 0.00024879817 0.016861958 -0.0124178035 -0.0065706377 -0.0120204985
0.012106508 -0.015015061 0.008632321 -0.0021535186 -0.014600623 -0.011228837 0.014649376 0.014049466
0.015626926 -0.011295521 0.007467356 0.009840951 -0.01088204 -0.014150975 -0.0035120714 -0.009961403
-0.0107926605 -0.00845505 0.01821995 0.0030216966 0.020353787 -0.00509177 -0.0028160282 -0.015151778
0.019557785 0.011673438 -0.014597847 0.01221158 -0.008868183 -0.011510423 0.0006334995 -0.0023070876
-0.0052417177 0.013162046 -0.016201539 0.01616148 -0.0051039043 -0.007984932 -0.006226332 0.019215839
-0.006466534 0.009186536 -0.013258955 -0.013614767 0.010077174 0.004848152 0.010496268 0.0038456174
-0.0081637725 0.010333175 0.020257324 -0.013544147 -0.0061976267 0.009963992 0.0021487207 0.013018026

bn2.running_mean f4 [64]
00000000: a3c0 45bd 402f 8abd f5d4 153e 0c7f 5f3d
00000010: eb08 3b3b 63fc 893c 4f44 a6bb fff8 d2bc
00000020: 3a30 ed3d b710 00be 1617 6c3e 515a bfbd
00000030: 1634 6b3e 5a4f 9dbd c9af 063e 9057 b73d
00000040: a419 15bd b122 58bd ab08 073e 332f b23d
00000050: af9e b1bc 615f 63bd 7ffe 033e b589 3b3d
00000060: 7ea8 133d e50a 5ebc 33e5 95bc b883 d5bd
00000070: a420 1cbe 6ad3 5b3d 01e1 0d3e b049 c4bc
00000080: e03e 393b ea73 dcbd 2427 663d f38b 39bd
00000090: 4ae2 383e 7ae1 753c 45fd 943c 7631 53bc
000000a0: 9866 6d3d c5aa 673c 0a14 343e e5e6 2b3e
000000b0: 1439 45be 2650 a33d 194e 0b3e 63aa 88bc
000000c0: af83 163e e031 eabb c917 383c 469d 20be
000000d0: 7a4e cebd ce11 013d c408 a73c 88aa c73c
000000e0: ab9b 95bc 339c 9ebc c473 59bc a8e8 f13a
000000f0: f9e1 c33d de57 633b fe1d 1d3d bd2f 953b
-0.048279416 -0.067472935 0.14632018 0.05456452 0.002853925 0.01684398 -0.005074061 -0.025753496
0.11581464 -0.12506376 0.23055682 -0.09343398 0.22969088 -0.07681151 0.13152994 0.08952248
-0.036401406 -0.05276746 0.131869 0.08700409 -0.021682112 -0.055510882 0.12890051 0.045785625
0.03604936 -0.013552402 -0.018297767 -0.10425514 -0.15246826 0.053668417 0.13855363 -0.023960918
0.0028266236 -0.10764296 0.05618967 -0.04529948 0.18055072 0.015007371 0.018187175 -0.01289021
0.05795917 0.014139836 0.1758577 0.16787298 -0.19260055 0.079742715 0.1360401 -0.01668281
0.14698671 -0.007147059 0.01123614 -0.15684995 -0.10073562 0.03151112 0.020389922 0.024373308
-0.018262705 -0.019361591 -0.01327223 0.0018456178 0.09564585 0.0034689824 0.03835868 0.00455281

bn2.running_var f4 [64]
00000000: 0130 883e 7e3f 9e3e 8f30 2f3f 1688 8d3e
00000010: 6d44 8b3e 2579 643f 96ca 8b3e 2346 053f
00000020: 7342 913e 9c3e 9f3e 5192 083f 310d 973e
00000030: edff a33e 92da c43e d108 7d3e e5f1 853e
00000040: 24fe 843e 3470 103f a4a3 a73e aa7a 843e
00000050: b277 803e 4c5c 7a3e b651 d73e b910 913e
00000060: 6591 c13e 456b d43e acb7 783e 29b8 bb3e
00000070: eb8b d13e d34d e43e 1c7e f63e 7277 933e
00000080: 65bf 813e 090f 953e c7ea f53e 1b2e 913e
00000090: fc82 313f 1fec 893e fbbf 5e3e 5351 793e
000000a0: 02c5 9a3e 7b8d 7e3e 69af 8b3e f410 ad3e
000000b0: a63d e93e c453 a43e 7117 b13e 4f97 ba3e
000000c0: 3fe7 9c3e 946e 8d3e aecd 8a3e b9f4 903e
000000d0: cc6e 0d3f 689c 743e 031c 323f 6b67 a73e
000000e0: 9242 933e d24e a43e d2e3 823e 714f a43e
000000f0: fdbf d63e 4168 5f3e 2436 c23e da7c c23e
0.26599124 0.30907816 0.6843347 0.27642888 0.27200642 0.8924735 0.27302998 0.52060145
0.2837101 0.31102455 0.5334826 0.29502252 0.32031193 0.38448006 0.24710394 0.26161113
0.25975144 0.5642121 0.32742035 0.25874835 0.2509132 0.24449271 0.42054528 0.2833307
0.3780624 0.4148809 0.24288815 0.3666394 0.4092706 0.44590625 0.4814309 0.28802067
0.25341335 0.29113033 0.48030683 0.28355488 0.6934049 0.2693796 0.21752922 0.24347429
0.3022843 0.24858658 0.27282265 0.33801997 0.45554847 0.32095158 0.34588197 0.36443564
0.30645177 0.27623427 0.27110046 0.2831171 0.5524719 0.23887789 0.6957399 0.3269609
0.28761727 0.32091385 0.25564438 0.3209186 0.4194335 0.21817113 0.3793193 0.3798588

fc3.weight f4 [32, 64]
00000000: 41fa a1bd 4202 a33d da67 113d 1a85 83bd
00000010: 4378 0fbc 928f be3d 670f 78bd b9b1 82bc
00000020: 5031 35bd e638 d83d c4f3 a0bd 46e9 643d
00000030: d63d 8c3c 693d 05be f505 e03d 579d 1d3c
00000040: d500 a3bd d81c 14bd d1d3 edbd bc5c 9abb
00000050: 9a99 e3bd dae4 b6bd 2bc2 bcbd 1787 533d
00000060: 95f4 66bd f1d5 c63d e02a e33d eb82 98bd
00000070: 4e3f 0c3e a299 a13d b548 bbbd b14f d73d
00000080: 9323 583d 4f52 ab3d f7ce 03bc ea56 e2bb
00000090: 3ca5 8a3d 6d4c cfbc 6e8b 543d 7b26 e0bd
000000a0: a925 26bc 1368 063d f423 56bd 24cd 03be
000000b0: 55bf a03d 9351 ed3c d6bb 4f3d 2321 babd
000000c0: 920b bdbd 10f5 02be f52c b0bd c8bf 8f3c
000000d0: dba6 1dbc 2ae8 44bd f0ad 0a3d c614 cc3d
000000e0: 7261 663d 4010 74bb 9065 7ab8 bf78 003d
000000f0: 9a9c 773c 647c ccba 3f48 c43d 8931 91bd
00000100: 6363 3d3c 440d 2f3c a87e a43d 2dd5 f63c
00000110: 48c7 24bc 6079 bdbc fef0 da3c f20f 7d3c
00000120: 83da 7dbd 62d9 dfbc addc 043e 6584 9dbd
00000130: 6659 c4bd 0b48 023e 9ff7 7f3d 4985 88bd
00000140: b837 883b ca1e de3d 055b bebd 8bfd e7bd
00000150: d77d ca3d e0fe 41bd dc3c a7bd 07f2 d43c
00000160: 060e 063e 0c11 91bd 8fb8 2e3d 2eae 31bd
00000170: bbc5 f23d 6131 473d 4986 ed3d 74a0 9bbd
00000180: f614 aebd 135e 943d 2c36 f83c 056e 9abd
00000190: fd02 de3d ac1b ab3d 5faf a5bd b6fa a93d
000001a0: d3ff 9bbc ec5c afbd a0ad e5bd 037c 8dbd
000001b0: bb47 083d d4a9 223d bbaa babd 4cba 15bd
000001c0: 910a a13d 0cee 41bc f0b1 713d 1a7b 3c3c
000001d0: 9fd7 c93d 23d0 c2bd 563f cfbd 4dbb 743d
000001e0: 4453 433d 4df7 dfbd 8f4a d1bd c93b da3c
000001f0: 9f78 2b3c c8cd 9dbd 5f2f 00bd a7cd dfbd
00000200: 924b d73d 61a0 013b 56ea 823d 3006 e13c
00000210: 8510 db3d 4119 773b cac9 d53d daa5 833d
00000220: 8b1b ecbd 127a e4ba 4a55 c1bd ba67 e23c
00000230: b5d6 debd 4bc6 473c 0451 a83c 9789 963d
00000240: 54cb b3bd a7fe 593d 470c fdbd e359 99bd
00000250: c32f 003e 27e0 dbbd a700 663d bc93 8fbd
00000260: a49f d7bd f101 8ebd 5248 2abd bbb0 d4bb
00000270: d49c cebd e4f8 6e3c 659b f1bd c9be a1bd
00000280: d7ed a23d b592 a9bd 52d7 95bc c5b4 e33d
00000290: 1737 1abc 7971 073e 6b0d d2bd 9059 d53d
000002a0: 56e4 a6bd f0aa 493b 2ebf bd3b 739d 81bb
000002b0: 899a 3cbd 20da e0bd fad8 d2bd ca60 df3d
000002c0: 6e51 403d 49ff 883c 928a 9b3d 858f 5e3a
000002d0: bce3 8cbd 04f7 c73d 2a26 82bd 22e6 333d
000002e0: 3c96 993c 7e0a cc3d ea96 0b3e 8895 683d
000002f0: b7a3 343c d0d8 00be d418 b8bd 4498 0d3d
00000300: 5508 3dbd 9f60 bbbd bd99 9c3c 01cc c9bd
00000310: cceb fa3d 04e9 86bd 9f63 0dbe 4a12 b2bd
00000320: 2242 693d 5149 e6bd edda 5a3d f54f e2bd
00000330: 7b23 acbd 60a9 eb3d 7dd3 b53c a83f 653d
00000340: b238 7c3d 4c41 79bd 4e35 ccbd 4ac5 d03d
00000350: e656 4f3d 694a e83d 43f4 e9bd 0565 c53d
00000360: 282c debd 7a72 653d c7f7 863d 866b a23c
00000370: fd9f de3d 5e81 bd3d 8fea 01bc 2bba 0fbc
00000380: cd96 2abd 20c0 97bc 54e8 c0bd b9db 2c3d
00000390: 886d 87bd 250b fb3d 770e 003e 4905 3fbc
000003a0: a35f 293d fb62 7c3b df53 cdbd 834e b2bd
000003b0: 4aa7 a9bd 7f18 e8bd 323c 17bd c6f7 933d
000003c0: f37e 583d 3c00 9f3d 0a8b cbbd dd11 f6bd
000003d0: 866a edbd 0a37 813d cac4 ddbd 0e04 f73d
000003e0: 6ed2 c73c f88d d53d c9db df3c d4a6 b5bd
000003f0: 695f da3c 9056 fb3c aa50 ecbc 6208 bf3d
-0.0790906 0.07959415 0.03549943 -0.064218715 -0.0087567 0.093047276 -0.060561564 -0.015953885
-0.04423648 0.105577275 -0.078589946 0.05588653 0.01711933 -0.13011707 0.10938636 0.009620032
-0.07959143 -0.03616032 -0.116126664 -0.004710762 -0.111132815 -0.08930369 -0.09216722 0.051642504
-0.056385595 0.09708775 0.11092162 -0.074468456 0.13696024 0.07890631 -0.09144727 0.10513247
0.0527683 0.083653085 -0.00804495 -0.0069073336 0.06769797 -0.025304997 0.051890783 -0.109448396
-0.010140815 0.032814097 -0.05228038 -0.12871224 0.07848994 0.028969562 0.050716244 -0.090883516
-0.092307225 -0.12788796 -0.08602325 0.017547503 -0.009622301 -0.04807297 0.033857286 0.099649
0.056245275 -0.003724113 -5.9699232e-05 0.031365152 0.01511302 -0.0015601036 0.09584092 -0.07089526
0.01155934 0.010684315 0.0803197 0.030130947 -0.010057278 -0.023129165 0.026726242 0.015445696
-0.061975967 -0.027325336 0.12974806 -0.07691268 -0.09587364 0.12722795 0.06249201 -0.06666047
0.004157033 0.10845716 -0.09294704 -0.11327656 0.09887283 -0.04736221 -0.08165905 0.025994314
0.13091287 -0.070833296 0.042656478 -0.043379 0.1185412 0.048631076 0.115978785 -0.075989634
-0.08500092 0.07244506 0.030299269 -0.07540516 0.10840414 0.08354887 -0.0809009 0.082997724
-0.019042885 -0.08562645 -0.11214757 -0.06908419 0.033271533 0.039712742 -0.091145955 -0.03655462
0.078633435 -0.01183654 0.059007585 0.011503959 0.098555796 -0.09512355 -0.10119502 0.059748936
0.04768683 -0.10935841 -0.10219299 0.026639836 0.01046577 -0.07705265 -0.031295177 -0.10927897
0.10512461 0.0019779431 0.06392352 0.02746877 0.1069651 0.0037704261 0.10438879 0.06428118
-0.11528691 -0.0017431399 -0.09440096 0.027637351 -0.10880796 0.012193273 0.020546444 0.07350462
-0.08779016 0.05322137 -0.12355857 -0.07487848 0.1251822 -0.10736113 0.056152966 -0.070106
-0.10528496 -0.06933964 -0.041572876 -0.0064907945 -0.10088506 0.014585707 -0.11797217 -0.078977175
0.079555206 -0.08279935 -0.01829115 0.111184634 -0.0094125485 0.1322688 -0.102564655 0.10417473
-0.081490204 0.0030772053 0.0057906127 -0.003955537 -0.046045814 -0.10979104 -0.10295291 0.10907133
0.046952657 0.016723292 0.075947896 0.0008490014 -0.068793744 0.09763911 -0.063549355 0.043920644
0.018748395 0.09962939 0.13631788 0.05678323 0.011025361 -0.12582707 -0.089891106 0.03456904
-0.046150524 -0.091492884 0.019116277 -0.09853364 0.12252006 -0.06587413 -0.13807534 -0.086948946
0.056947835 -0.11244453 0.05343144 -0.11050407 -0.08405205 0.11506915 0.022195572 0.05596891
0.061577506 -0.060853288 -0.099711046 0.1019388 0.050619982 0.113423176 -0.11423542 0.096384086
-0.10848266 0.056017376 0.065902285 0.019826662 0.10870359 0.092531905 -0.007929458 -0.008772413
-0.04164772 -0.01852423 -0.09419313 0.04220173 -0.06612688 0.12257985 0.12505518 -0.011658975
0.041350972 0.0038511145 -0.10025763 -0.08706381 -0.08283861 -0.11332797 -0.03692264 0.072249934
0.052855443 0.077637166 -0.09938629 -0.12015126 -0.11592583 0.06309326 -0.1082855 0.1206132
0.024392333 0.10427469 0.027326481 -0.088697106 0.026656823 0.030680925 -0.028847057 0.09327771

fc3.bias f4 [32]
00000000: 9a7f e8bd 58ba 033d a44f 753d 010e 163d
00000010: 7652 a13d 2099 c93d 1efb b7bd b9bd c0bd
00000020: bf64 39bd da41 db3b 00fc 38bc 80b7 20bd
00000030: c845 b0bd 473e d63c cc31 833d 882a 9ebb
00000040: f778 bf3d 05c3 03bc 10fb cebd d389 ed3c
00000050: ee85 bbbc 809e 533d 3188 1dbc dc2d fbbd
00000060: 65d2 f7bd c346 863d 0cd9 a43d 521e bdbd
00000070: b23a d1bc 9c26 34bd 9cbb d43c 03ad e73d
-0.11352463 0.032160133 0.059890404 0.03663445 0.07877056 0.098436594 -0.08983444 -0.09411187
-0.045262095 0.0066911997 -0.01129055 -0.0392375 -0.0860706 0.026152743 0.064059824 -0.0048268475
0.09349244 -0.008042102 -0.1010648 0.028996384 -0.022891011 0.05166483 -0.00961499 -0.12264606
-0.121006764 0.065564655 0.08049211 -0.09234299 -0.025540683 -0.043982133 0.025968365 0.11312296

bn3.weight f4 [32]
00000000: 9d8d 803f 6f3a 803f 030f 813f e4a6 7c3f
00000010: d7e9 803f 0679 803f d12f 813f e078 813f
00000020: a093 7b3f 014c 7f3f 3877 803f c840 823f
00000030: 27ce 7b3f 8ff4 7e3f 955b 803f 1704 823f
00000040: 52f2 803f 88a8 803f 331c 813f 0981 7d3f
00000050: dc4a 7c3f eb6f 803f e172 7e3f 157a 7d3f
00000060: 848c 7c3f fb59 813f 3ce6 803f 66d6 7b3f
00000070: 4879 813f 64a8 803f 1708 7d3f 5e39 813f
1.0043217 1.0017833 1.0082706 0.98692155 1.0071362 1.0036933 1.0092717 1.0115013
0.9827213 0.9972535 1.0036383 1.017602 0.9836144 0.99591917 1.0027949 1.0157498
1.007395 1.0051432 1.0086731 0.9902502 0.98551726 1.0034155 0.9939404 0.9901441
0.9865191 1.0105585 1.0070262 0.9837402 1.0115137 1.0051389 0.9884047 1.0095632

bn3.bias f4 [32]
00000000: eada a63c c21b e8bb cd52 023c 23b4 35bc
00000010: f249 30bc f204 9d3c c2c9 1d3c d13e 9f3c
00000020: 9398 8fbc 68ea 5bbb e3be a63c 85af a03c
00000030: ff7a 8bbc f1ea 8dbc f2f7 42bc 16dd a23c
00000040: 981c 95bc 15f4 483c 39e8 023c 67df 81bc
00000050: 8987 32bc 1777 a73c 1b2b 8c3b 3a5a 653b
00000060: 904b 3bbc 8471 8bbc ec18 1bbb 6673 d83a
00000070: 5aa9 843c d9a1 5ebc 43f4 06bc 4299 69bc
0.020368058 -0.007083387 0.007954312 -0.011090311 -0.010759817 0.019167397 0.009630622 0.019439133
-0.017528808 -0.0033556465 0.020354694 0.019614944 -0.017026423 -0.017323943 -0.011899935 0.019880813
-0.018202111 0.012265225 0.0079899365 -0.015853597 -0.010896572 0.020442529 0.0042775995 0.0034996406
-0.01143159 -0.017021902 -0.0023665978 0.0016513884 0.016194034 -0.013588392 -0.0082369475 -0.014257731

bn3.running_mean f4 [32]
00000000: 1e4a e3bd bac2 46bd 185d da3c 2af8 6e3d
00000010: a72a 7c3d d6d2 2f3e fef0 26bd 4b5b 2bbd
00000020: 343f 69be 04d4 a03d 9323 c13d f03d 49be
00000030: 8430 3fbe 1b49 9c3c 55ad fa3d 2097 e53c
00000040: 2e7e 223e 0e7f 45be dcd9 57be f4b0 9a36
00000050: 0961 c13d f310 953d 0847 193d 07a7 49be
00000060: 34a6 59be 614b e43d 27b2 7bbd 9b22 9cbd
00000070: 48ac 08be 68c3 013b 3739 08be 5d03 303e
-0.11098121 -0.04852555 0.026655719 0.058342136 0.061564114 0.17170271 -0.04075717 -0.04183511
-0.22778016 0.07852939 0.09430613 -0.19652534 -0.18670851 0.019077828 0.12240092 0.028026164
0.15868446 -0.19286749 -0.210792 4.6101577e-06 0.09442336 0.072786234 0.037421256 -0.19692622
-0.21254808 0.1114719 -0.061449196 -0.07623788 -0.1334697 0.001980031 -0.13303076 0.17188783

bn3.running_var f4 [32]
00000000: 3268 a63e eca0 913e 6edd a13e c367 a83e
00000010: 2971 8c3e e54e a73e da86 e23e abe9 9a3e
00000020: 418e 263f 61ef 8b3e c1e7 a33e 4b92 b23e
00000030: aeaf b33e 20a8 8b3e e923 903e d71d a13e
00000040: fc60 a73e a175 d03e ffb9 b13e fff7 b93e
00000050: 8160 a73e 9790 b03e c846 873e eb1a 9d3e
00000060: 1128 063f 4849 a03e 9eb8 b43e ca56 983e
00000070: 336e a83e 217e 9c3e b5fc e33e 8992 963e
0.3250137 0.28443086 0.3161425 0.32891664 0.27430084 0.3267738 0.4424351 0.302564
0.6506081 0.2733107 0.32012752 0.34877238 0.3509497 0.27276707 0.28152397 0.31468078
0.3269118 0.40714744 0.34712216 0.36322019 0.32690814 0.34485313 0.2642119 0.306846
0.52404886 0.3130591 0.35297102 0.29753715 0.32896575 0.3056498 0.44528738 0.29408672
