MELOSDP/SDP/chkpt/mc1/linear/13/sdp_classifier_linear-120.pth (torch, 77408 bytes, 25 tensors)

fc1.weight f4 [128, 38]
00000000: 5444 293d dba5 68bd e86a 46bd e89f a4bd
00000010: d7b1 77bb 93cf 9bbc a6da 25be 6bf5 233e
00000020: 6165 5a3d 3487 15bb 5856 c23d 2c78 f03d
00000030: 1cdb 043e d54d 263c 50cb d93d ab19 0a3e
00000040: 7425 12bc f7b1 203d 06e4 b9bc 89eb af3d
00000050: 999f bebd 375a d3bd 3eac 0a3e 7e9c 6abd
00000060: 51f9 e9bd f914 9a3d 3f4f abba c8f7 efbc
00000070: 7503 95bd 8dfe cabd 996e 283e e164 acbd
00000080: 88ee 08be 70a4 e8bd 6975 ef3d 4e4f 00be
00000090: 967a 4bbd 34cf d43d b52d 13be 91b5 073e
000000a0: 2959 23be 38b6 c8bd 0fce ff3d b913 e13d
000000b0: 24aa 533d 8cc3 0f3e be3f 9a3d 483f ee3c
000000c0: b494 2c3e c0c1 92bd 9d47 7abd 410d 623d
000000d0: 7cc2 cd3d e909 813d 41c3 1dbd 1e95 5fbd
000000e0: e08d 0ebe aac5 1a3e 7cdd d53d 0e35 ee3d
000000f0: 519b 1fbe d9b2 6d3c 1387 093e 15a9 1abe
00000100: c6ca 45bd 3d99 b3bd fc84 6dbd 979d f7bd
00000110: 58c3 ff3d cb20 d13d 7f8c 89bd 7176 c8bd
00000120: 9ecf b9ba fb3e 023d b97e 26bd 0383 a33c
00000130: 7b1f 323c 7b45 0abe 7c39 02be cb91 e13d
00000140: 5f0b 093e 1a33 d9bd a7c4 8e3d 7742 e83d
00000150: 99dc 24be eb2c b43d b476 8abd b1f4 43bd
00000160: 77f3 0cbe 5f5c 0abe 52b4 d8bd 32aa 28be
00000170: 82de c43d 74c7 94bd 110b edbc 1a92 03be
00000180: b5b7 183e 57ec fa3d 420a b63d bea5 4cbd
00000190: 83f7 abbc 213d 6abb 5aa2 9c3d 5a41 32bd
000001a0: 8b25 b83c 25ba b7bd 94d0 2e3e defc 10be
000001b0: 1a50 edbd 1809 7a3d 9d86 f23b d1b3 c43d
000001c0: 7ad8 463c db96 a23d c7ff 093e e0fa 0fbc
000001d0: db42 a23d ec25 c13d eb88 553a d98b f0bd
000001e0: 573f ec3d 0839 aa3d fefa 05be b39e fdbc
000001f0: 2b5d 16be a95d 953d 50f7 3e3e 06ca 203e
00000200: 070a 06be 999f c3ba 22f1 883d 841b c5bc
00000210: ddfa 533d 3df7 ffbd ee8b fd3d 0c39 f03c
00000220: 968f 1b3e aa19 0ebc f1f4 7c3d 4348 243d
00000230: 0bbf 9bbd bf8c 803d 7eb1 5cbd 9aca d6bd
00000240: 13cb 273e 1a55 39bc f981 dc3c d881 123d
00000250: 95b7 45bd 9afa 58bc 4f77 703d c7b7 4e3d
00000260: bf4b d2bd 6ea7 aabd 2e0c dc3d d6a5 ff3d
00000270: 4423 40bc 6e38 18bd c812 cd3d 4573 183e
00000280: 4b09 653d 34f1 93bd 02f9 eb3d 1f40 8f3d
00000290: ee5f a43d af16 d5bc 0459 8a3c 5b50 bf3a
000002a0: 0acb 2cbd b924 363d 4690 f1bd 5fa5 9cbd
000002b0: eb1f 8e3b a772 0c3e bfb6 e23d 4e2c 1abd
000002c0: 19b5 af3c bbbf b23c 7ac4 583d f2d1 00be
000002d0: 3f2c 4b3d b54a b83c 0e4f ddbc 7c9d ba3c
000002e0: e786 3bbd 4fb6 96ba 1e41 0b3d 6feb f5bd
000002f0: 2347 0ebd 459c a5bd e16a db3d 1090 b73c
00000300: 0514 103e 0c1c a6bd 109c 4d3d 2e46 1e3e
00000310: 696a c73d c4fd 213e 03b2 373b 9419 a0bd
00000320: a8f2 0abc f440 ddbd 43be 98bc 3760 c7bc
00000330: 9325 b13c f583 b53d 4c29 013e bef6 58bd
00000340: 9ec0 64bd 7297 0d3e 81bd a0bc f603 093d
00000350: d7eb c73d f0e8 60bc d465 febd 64ce 2cbe
00000360: 8b86 ad3d ef0b 0fbe f47f fabd edcc 74bd
00000370: a969 d23d d534 92bd 73ef 0d3e 7208 823d
00000380: 054e f4bd 5986 ebbd 206f d5bd df92 583d
00000390: 40e5 b43c 0ed7 26be e0a2 aa3d 0c15 9ebd
000003a0: 13a2 fc3d ac6b 183e 278e e7bd 95c2 87ba
000003b0: c171 9b3d 8121 e0bd 1555 babd 04d7 fc3d
000003c0: 551c c93d b16b 28be 7e97 c1bd 6953 aab9
000003d0: 2e6b 2b3c 02bc c7bd a963 50bb 5a2a e83b
000003e0: 18d0 ec3d 25bd b33d 5879 9f3c a80c e2bd
000003f0: 0ae6 a0bd c893 bebd cb8a 153e f6c5 5b3d
0.04132493 -0.056798797 -0.048441797 -0.08038312 -0.003779521 -0.019019878 -0.16196689 0.16011588
0.05331934 -0.0022816183 0.09489125 0.11741671 0.12974209 0.010150393 0.10634482 0.13486354
-0.008920062 0.03923222 -0.022691738 0.08589847 -0.093077846 -0.103199415 0.13542268 -0.05727815
-0.114245065 0.075235315 -0.0013069882 -0.029292956 -0.0727605 -0.09911833 0.1644844 -0.084176786
-0.13372242 -0.11359489 0.11692316 -0.12530252 -0.049677454 0.10391083 -0.14372905 0.13252856
-0.1595198 -0.098003805 0.124904744 0.1099009 0.05167593 0.14039439 0.07531689 0.02908291
0.168536 -0.07165861 -0.061103452 0.05518842 0.100468606 0.06300718 -0.038516287 -0.05458557
-0.13921309 0.15114465 0.104426354 0.11631213 -0.15586592 0.014507973 0.13430433 -0.15103562
-0.048289083 -0.08769462 -0.057988152 -0.12090605 0.12488431 0.10211333 -0.06716251 -0.09788216
-0.0014176255 0.031798344 -0.040648196 0.019959932 0.010871763 -0.13503067 -0.12717241 0.11014136
0.13383244 -0.1060545 0.06971102 0.11340802 -0.16099776 0.0879763 -0.06760922 -0.047840778
-0.1376475 -0.135118 -0.10581268 -0.16471174 0.096127525 -0.07264605 -0.028935941 -0.12848702
0.14913829 0.122521095 0.08888675 -0.04996275 -0.020992046 -0.0035742002 0.076481536 -0.043519355
0.02247884 -0.08971051 0.17071754 -0.14158961 -0.11587544 0.06104383 0.007401301 0.0960461
0.012136573 0.0793893 0.13476478 -0.008787841 0.07922908 0.09431061 0.00081457075 -0.11745424
0.115355186 0.08311659 -0.13084027 -0.030959463 -0.14683978 0.07293255 0.1864903 0.15702066
-0.13089763 -0.0014924883 0.066866174 -0.024060972 0.051752914 -0.12498329 0.12380205 0.029324077
0.15191492 -0.008673111 0.06175703 0.040107977 -0.07604798 0.06276845 -0.053880207 -0.10487862
0.1638606 -0.011311794 0.026917445 0.03576836 -0.04827078 -0.013243342 0.05870753 0.050468232
-0.10268354 -0.08332716 0.107445106 0.124828026 -0.011727158 -0.03716319 0.10013348 0.14887722
0.055917066 -0.0722374 0.11522104 0.06994652 0.0802611 -0.026011793 0.01688815 0.0014596091
-0.04218582 0.044468615 -0.11795096 -0.076487295 0.004337301 0.13715611 0.11070012 -0.03763991
0.021448659 0.02181994 0.05292175 -0.12580088 0.049602743 0.02249656 -0.027015235 0.022780173
-0.04578295 -0.0011498424 0.033997647 -0.12007796 -0.03473581 -0.08086447 0.10713745 0.022407562
0.14070137 -0.08110818 0.05019766 0.15456459 0.09737093 0.1581946 0.0028029687 -0.07817379
-0.008480705 -0.108034045 -0.018645411 -0.024337871 0.021624362 0.088630594 0.1261341 -0.052969687
-0.055847757 0.13827303 -0.019621613 0.033451043 0.0976178 -0.013727412 -0.12421766 -0.16875607
0.08472928 -0.13969396 -0.12231436 -0.059765745 0.10274059 -0.07138983 0.13860874 0.06349267
-0.119289435 -0.11500234 -0.10421586 0.052874442 0.022081971 -0.16292974 0.08331847 -0.07718858
0.12335601 0.14884824 -0.1130641 -0.0010357673 0.07590056 -0.1094389 -0.09098259 0.123456985
0.09819857 -0.16447331 -0.09452723 -0.00032487072 0.010462565 -0.097526565 -0.0031797683 0.007085127
0.11563128 0.08776311 0.01946704 -0.1103757 -0.078563765 -0.09305531 0.14603727 0.053655587

fc1.bias f4 [128]
00000000: 97b9 17be 01ae dd3d 8a35 10be e11f 2e3d
00000010: 674d 2b3c 616f 0abd 3e94 bd3d 4709 b0bb
00000020: 3e27 50bd 450d 99bd b681 d8bd b32e e3bd
00000030: 008f 3f3d e791 d13d 2e4c e83d fda4 8cbd
00000040: 5159 683d ab08 b7bd c96c 20be c764 fabd
00000050: a5ee 903d 5ab1 a13d d94c e73d 69bd 483d
00000060: 54b8 10be 5233 a1bb c291 e83c efa0 8b3c
00000070: 82dc a8bc a8d8 b4bd 449e 783d fc2b c03d
00000080: d3cb 6f3c 7575 873d 05bf b23d 1569 95bd
00000090: 7ba5 173e 3191 33bd 8539 2fbd af6f bbbd
000000a0: 4dd0 c23c 8eca 2abd e4af 82bc 898f 083e
000000b0: 716b 043d 32fd 7e3d d6b6 243e 455d 983d
000000c0: 7040 0a3e af0d 013e 2301 22be 1473 823d
000000d0: 333c 0d3c ba3f 80bd 6642 1cbe a59a 613d
000000e0: c7b8 a93d ec0d 5ebd 6b6e 1fbe 8a0b 24bd
000000f0: e6ba 63bd 4ebc 133e 77f1 15be de9b e23d
00000100: 585a 6f3d 1219 07bd 06e3 84bc abdd 06be
00000110: 6313 453d c456 25be 4fda 183e eb1e dc3d
00000120: d795 b8bd 104e 80bc 05b9 9c3d 4933 b93d
00000130: 104c c13c f35e a5bd 9283 5b3d f665 0a3e
00000140: 3c66 6bbc 56a1 edbd aa8b 96bb 2c67 803d
00000150: e639 c5bc 832c 50bd c867 fd3d 8bd3 0a3e
00000160: e3f8 cabd 4608 93bd 03b3 253e 265e 65bd
00000170: 47b7 5738 03ee f9bd fddf e13d 6bd5 1ebe
00000180: 5f93 8d3d a8de 16be 83fc 36bd 86a3 f8bd
00000190: 6b38 03be a55d dc3d 4108 193e 3f10 153e
000001a0: 9a1a 113e 97ef 123e 5a5e 063d 2978 41bc
000001b0: 8800 ddbb 9315 efbd 563e 8d3d ca52 21bd
000001c0: e9c9 cb3d 6f7c 56bd 25ab d6bd 5e23 223e
000001d0: ae60 af3d f942 d2bd 907b 7c3d 31ed 1cbc
000001e0: ba30 f439 583f de3d 0068 adba af9f 003e
000001f0: ca69 fa3b d1fd 0e3e 439e 9dbd 4d89 703d
-0.1481689 0.10824204 -0.14082924 0.04251087 0.010455466 -0.033797625 0.092567906 -0.0053721997
-0.050818674 -0.07473234 -0.105716154 -0.110928915 0.046767235 0.10232907 0.11342655 -0.068674065
0.056725804 -0.089372 -0.15666498 -0.12226253 0.07076768 0.07895155 0.112939544 0.04900876
-0.14132816 -0.004919448 0.028389815 0.017044513 -0.020612959 -0.088303864 0.06069781 0.09383389
0.014635998 0.066142 0.0872784 -0.072954334 0.1480922 -0.043839637 -0.042779464 -0.09152161
0.023780966 -0.041697077 -0.015953012 0.13336004 0.032329027 0.062253185 0.16085371 0.07439665
0.13501143 0.12602876 -0.15820746 0.06369606 0.00862031 -0.06262155 -0.15259704 0.05507912
0.082871966 -0.054212496 -0.15569465 -0.040050067 -0.055598162 0.14427301 -0.14642893 0.110648856
0.058435768 -0.032982893 -0.016221534 -0.13170497 0.04811419 -0.1614638 0.14927028 0.10748085
-0.09012955 -0.015662223 0.07652477 0.09042985 0.02359584 -0.08074751 0.053592272 0.13515458
-0.014367636 -0.11603038 -0.004594286 0.062696785 -0.02407546 -0.0508237 0.1237331 0.1355726
-0.099107526 -0.071793124 0.16181569 -0.05599799 5.1430685e-05 -0.122036 0.110290505 -0.155111
0.069128744 -0.14733374 -0.044674408 -0.121405646 -0.1281449 0.10760049 0.14944555 0.14556979
0.14170304 0.14349209 0.032804824 -0.011808434 -0.006744448 -0.11674037 0.06896655 -0.039385594
0.09950621 -0.052364763 -0.10481862 0.15833804 0.08563362 -0.1026668 0.061641276 -0.009578035
0.0004657561 0.108519256 -0.0013229847 0.12560914 0.0076420056 0.13964011 -0.07696202 0.05872469

bn1.weight f4 [128]
00000000: 761c 833f 6966 813f 228e 833f cfe5 7e3f
00000010: 1def 853f b941 823f d332 7a3f 881a 803f
00000020: d93c 803f 0821 823f ac44 793f edc9 783f
00000030: 7656 7d3f 62e1 793f ad9f 833f a6c3 803f
00000040: cba8 7c3f 45f5 803f 98c1 893f f949 7b3f
00000050: e9b3 7c3f 236b 843f 49c0 813f 0760 833f
00000060: f89c 813f 5081 7d3f ada2 833f 96e9 7a3f
00000070: ae5f 843f cd61 803f e209 813f 37b0 803f
00000080: 5546 783f 7177 7a3f 27c5 873f a2f3 7f3f
00000090: 898a 823f 789e 803f b7e4 813f c24d 813f
000000a0: 568a 773f 0653 7f3f c26c 813f 633d 7c3f
000000b0: c1a7 793f e7b9 803f b0cc 7a3f 6c64 803f
000000c0: a803 823f 7df6 803f 77a5 7a3f 30b4 7d3f
000000d0: 1595 7d3f a2bc 803f 8107 7c3f 6c66 8c3f
000000e0: 3835 813f 3e77 7f3f 44a2 843f 1e00 813f
000000f0: 1bb4 7b3f 2329 803f fe52 823f fd32 7c3f
00000100: 4fef 7f3f 163e 7c3f 33ce 813f b2e9 793f
00000110: 7da5 853f ea7c 7c3f 70e6 7f3f 7b9d 7d3f
00000120: b70c 873f d211 803f e5ac 7a3f d7ef 7b3f
00000130: 9d7e 833f caef 7e3f 01a2 803f 7bda 813f
00000140: ebae 7d3f 7d65 813f 0ae7 7e3f 0045 803f
00000150: 4a18 7e3f a75c 7e3f c583 843f e11a 823f
00000160: 5304 823f 1bcf 7a3f 29a8 833f 8d19 823f
00000170: d14d 803f 8eca 7a3f 13a9 7c3f 1621 803f
00000180: 7cbf 7d3f 33ec 873f 796c 7c3f 8344 7f3f
00000190: 8d73 8b3f 7661 7c3f 59a7 833f a087 7b3f
000001a0: 92c0 7e3f d624 823f 823e 7a3f 4370 843f
000001b0: 8a9d 7f3f 3d86 823f 282f 783f 79f9 863f
000001c0: 85f2 7d3f 0077 843f 2502 833f f13e 7b3f
000001d0: 5f03 7d3f 784e 793f 66da 873f 7179 7b3f
000001e0: 1747 803f 735c 823f ae8c 7e3f 2d30 793f
000001f0: 9d27 823f 37e4 7c3f ef1e 823f d081 7c3f
1.024306 1.0109378 1.027775 0.9956941 1.0463597 1.0176307 0.977338 1.0008097
1.0018569 1.016633 0.9737041 0.97183114 0.98960054 0.9760953 1.0283104 1.0059707
0.9869506 1.007485 1.0762205 0.9815975 0.9871202 1.0345196 1.0136806 1.026368
1.0126028 0.9902544 1.028402 0.98012674 1.0341699 1.0029846 1.0081141 1.0053777
0.9698232 0.97838503 1.0607041 0.9998113 1.0198528 1.0048361 1.0147923 1.0101855
0.9669546 0.9973606 1.0111315 0.9853117 0.975216 1.0056733 0.9796858 1.0030646
1.0157366 1.0075222 0.9790873 0.9910307 0.99055606 1.0057566 0.9844895 1.0968757
1.0094366 0.99791324 1.036202 1.0078161 0.98321694 1.0012554 1.0181577 0.985153
0.9997453 0.98532236 1.0141052 0.97622216 1.0441128 0.98628104 0.99960995 0.9906842
1.0550755 1.0005438 0.97920066 0.9841284 1.0273014 0.9958464 1.004944 1.01448
0.9909503 1.0109097 0.9957129 1.0021057 0.9925581 0.99360126 1.0352713 1.0164453
1.015757 0.9797227 1.0285693 1.0164047 1.0023748 0.97965324 0.98695487 1.0010097
0.99120307 1.0618957 0.98603016 0.99713916 1.0894638 0.98586214 1.0285445 0.9825382
0.9951259 1.0167491 0.9775163 1.034676 0.9984976 1.0197216 0.96946955 1.0544883
0.9919818 1.0348816 1.023503 0.98142916 0.9883327 0.9738536 1.0613525 0.9823218
1.0021695 1.0184463 0.9943341 0.97339135 1.0168339 0.9878573 1.016569 0.9863558

bn1.bias f4 [128]
00000000: e117 b33c b4b4 91bc c93e 003d 4e4e 7d3c
00000010: 6215 7e3c b806 053d 7bd6 04bd a8eb 973b
00000020: e2d7 753c ff05 bb3c 113a 8d3c 43a7 c3bc
00000030: 6797 493c 1629 2abd 8e9c 4b3d 7417 3e3b
00000040: 25f0 f739 6206 643d 4bdd 403d 01f4 b4bc
00000050: 0548 32bc 3d0c 0d3c 47af 19b9 b5c7 213d
00000060: adff 023d b811 3cbd 5f48 313c d458 07bc
00000070: 080d 503c b565 19bc 9715 4b3d 2684 563b
00000080: c1ec b73c a05d 9bbc 4a19 ec3c 08b0 43bc
00000090: 1094 563b f53b 073c e8a5 173d 4e08 153d
000000a0: 4fcb 1bbd c944 1a3c cd80 ef39 43e0 fbbc
000000b0: 1870 60bb 61cf e63b 4bce 1cbd 9103 1e3c
000000c0: ab78 2b3c c817 023d 4a19 91bc 024b 42bc
000000d0: d817 72bb d723 573c 62ad 86bc 3704 323d
000000e0: 8b25 853c d1f5 9aba 7d00 093d 8b2c 31bc
000000f0: 25ea 04bc 12bf 1fbc 4811 9dbc 6f32 823b
00000100: 45b3 4239 cecd 58bc 4b14 9a3c 7454 99bc
00000110: 01ab 033d 4e7a a9bc cd6a 4bbd c00d 08bc
00000120: a439 ba3b 9dc4 04bd edda 7fbb d88c 0bbd
00000130: 893f c03c 454f 2c3c 788f ed3c b006 abbc
00000140: 4024 1bbc 4223 3e3c fa41 29bd fb8b ff3c
00000150: 0591 7dbc 35b3 b5bc 5b27 9c3c 3763 843d
00000160: 7e70 893c cb53 b4bc 9d25 b73c c0f1 acba
00000170: c713 0239 6185 b3bc 8bf9 463b b209 153b
00000180: 9218 a4bc 4c9d 623d fac7 56bd 7af3 8a3c
00000190: 3d0e 033d f6f5 983c 6a5a 813c 16ad 38bd
000001a0: f13e d1bc 0bd6 083c 8dec 9fbc c8b7 123d
000001b0: d0f9 2fbb 7c28 f53c da3e 3fbd f499 343d
000001c0: 40b8 3a3b 24e5 e2bc f471 1cbc bd37 acbc
000001d0: 7185 ec3c c747 503b 08ba fb3c 7dc5 41bc
000001e0: 3f2a 16bc 259a 2c3c 6529 d63b 2563 20bd
000001f0: 3ce6 533b d163 3abc 836c ac3c 70ee 323a
0.021861972 -0.017786361 0.031309877 0.015460564 0.015508028 0.03247711 -0.032431107 0.0046362467
0.015005084 0.022830008 0.017239602 -0.023883468 0.012304164 -0.04154309 0.04970985 0.0029005678
0.00047290433 0.05567015 0.04708604 -0.022089006 -0.010881429 0.008608875 -0.00014656513 0.039497096
0.031982113 -0.045915335 0.010820477 -0.008260924 0.012698419 -0.009362628 0.049581137 0.0032732575
0.02245176 -0.018965542 0.028820653 -0.011943825 0.003274206 0.008254041 0.037023455 0.036384873
-0.038035687 0.009415814 0.00045681596 -0.030746585 -0.00342465 0.0070437645 -0.038282674 0.009644405
0.010465781 0.03176096 -0.017712254 -0.011858704 -0.0036940482 0.0131311035 -0.016440097 0.04346105
0.016253253 -0.0011822527 0.03344773 -0.0108138425 -0.008112465 -0.009750145 -0.01917328 0.0039732973
0.00018568065 -0.013232661 0.018808505 -0.018717028 0.032145504 -0.020688202 -0.0496624 -0.0083040595
0.005683141 -0.032414068 -0.0039040402 -0.034069866 0.023467796 0.010516946 0.028999075 -0.020877212
-0.009469092 0.011605086 -0.041322686 0.031194678 -0.01547647 -0.02218018 0.019061735 0.06464236
0.016777273 -0.022012612 0.022356803 -0.0013194606 0.00012405134 -0.021914186 0.0030361142 0.0022741375
-0.020031247 0.05532579 -0.052436806 0.016961802 0.031996 0.01867197 0.015790183 -0.045086943
-0.025542708 0.008351813 -0.019521976 0.0358198 -0.002685178 0.029926531 -0.0466908 0.044092134
0.002849117 -0.027697153 -0.009548653 -0.021022672 0.028872224 0.0031781064 0.030728355 -0.01182687
-0.009165346 0.010534798 0.0065356963 -0.03915705 0.0032333275 -0.011376337 0.021047836 0.0006825691

bn1.running_mean f4 [128]
00000000: a93d 10be 8de2 db3d 328e 11be 7416 413d
00000010: caac 463c 5dc6 00bd 2512 c03d 259a 07bb
00000020: 829b 4abd 485e a0bd 23e9 d4bd f89d d1bd
00000030: 90fc 493d 72c6 d73d 6b1f ed3d 94b6 7dbd
00000040: 54d8 823d 06a3 bbbd 9b61 1fbe e3b8 ebbd
00000050: f556 8f3d 73f2 a73d 0bd8 ea3d c84b 573d
00000060: 4169 13be b975 fbbb 6064 003d 2208 813c
00000070: 173a 99bc 3b41 bdbd 2fcd 763d 99f4 bd3d
00000080: cbeb 503c e30b 873d a223 ba3d e9af 9fbd
00000090: b161 193e 94b7 23bd cda6 2bbd 020e cabd
000000a0: cd6e ea3c 3e4a 16bd f97f 69bc 5c16 033e
000000b0: 67aa 0a3d f5b1 6c3d 6f3b 223e 1eda a53d
000000c0: d8bd 083e 4f75 023e 63a6 27be e05e 7c3d
000000d0: 78a4 1c3c f36a 8cbd 9041 1abe bc26 633d
000000e0: 06e6 aa3d 9635 83bd a38f 15be 19a9 31bd
000000f0: 6384 5ebd cda7 123e e39d 12be af88 d03d
00000100: 4332 663d 5320 01bd 0dea 79bc 2a4f 07be
00000110: 026c 4b3d 5992 25be ab2e 173e 12de ed3d
00000120: 9a32 aebd 20ec 23bc 31ad a33d cf24 c33d
00000130: d6c5 aa3c dc0b 99bd 916b 523d 06e4 073e
00000140: 576a 62bc 38b3 e0bd ae2c f9ba d162 813d
00000150: c385 c4bc 222c 46bd 1063 063e 1ff7 0d3e
00000160: cfb0 c2bd 3cbb 8dbd 1386 273e 753e 6bbd
00000170: 3c03 10bb 11cc fbbd bcfe ea3d 96cf 1ebe
00000180: b8a7 853d 5e55 15be 0c7f 2ebd 5a15 efbd
00000190: a52a 01be 0245 dd3d c554 173e ab81 1b3e
000001a0: cea8 163e 28ce 153e 49b6 123d 8635 cebb
000001b0: e1ee 17bc 195b f3bd 6290 8f3d 8ae4 14bd
000001c0: a5d5 d13d 67d5 59bd cbd5 cdbd 3e28 203e
000001d0: 114c a53d 808a d1bd de09 833d c350 2fbc
000001e0: b085 963b 5d06 e03d b335 e3bb dcd6 f93d
000001f0: 175a c53b ee68 073e c9bf 98bd ac28 6f3d
-0.14086021 0.107365705 -0.142144 0.047140554 0.012126157 -0.031439174 0.09378461 -0.0020691243
-0.04946471 -0.07830483 -0.1039603 -0.10235208 0.049313128 0.10535897 0.11578258 -0.0619417
0.063889176 -0.09161954 -0.15564577 -0.11509874 0.069990076 0.082005404 0.11466988 0.052562505
-0.1439562 -0.0076739457 0.031345725 0.015750948 -0.018704457 -0.09240957 0.060254272 0.09275169
0.01275153 0.06594064 0.09088828 -0.07797224 0.14978673 -0.039969996 -0.04190712 -0.09865953
0.028617287 -0.036691897 -0.014251702 0.12801498 0.033853915 0.0577869 0.15842985 0.08098243
0.1335367 0.12740062 -0.16372065 0.061613917 0.009560697 -0.068563364 -0.15064073 0.05545686
0.08344655 -0.06406705 -0.14605574 -0.043374155 -0.054325473 0.14321823 -0.14318042 0.1018232
0.056200277 -0.031524967 -0.015253556 -0.13213792 0.04966355 -0.16169108 0.14763896 0.11614622
-0.08505745 -0.010005027 0.07992018 0.09528505 0.020846289 -0.07472965 0.051372115 0.13270578
-0.013819299 -0.10971683 -0.0019010508 0.06317676 -0.023989564 -0.048381932 0.13123727 0.138638
-0.0950638 -0.06920478 0.16359739 -0.05743261 -0.0021974584 -0.12294782 0.11474368 -0.15508875
0.065261304 -0.14583346 -0.04260163 -0.11673994 -0.12613924 0.10804178 0.14778431 0.15186183
0.14712831 0.14629424 0.035818372 -0.0062930016 -0.009273262 -0.1188261 0.07009961 -0.036350764
0.102458276 -0.053182032 -0.100505434 0.15640351 0.08071149 -0.10231495 0.063983664 -0.010700407
0.0045935735 0.10938714 -0.0069338917 0.12199184 0.0060227024 0.13223621 -0.07458455 0.058388397

bn1.running_var f4 [128]
00000000: 2c81 923e c713 fe3e c355 ca3e e11e 8c3e
00000010: 5d9c d83d 07ed 213e 5468 2b3e 4dc6 683e
00000020: 88ec 9c3e e612 093e 5180 1e3f 5549 6d3f
00000030: ce69 fb3e 6810 5f3e 332b 083e 0cf3 0e3f
00000040: 8b41 773f 53e9 823e 383b f53d 721a 013f
00000050: ceb2 003e a56b 643e 711f cf3e 10e1 973e
00000060: c146 e33d 67a7 253e c732 803e 272f e33d
00000070: e6f4 863e 8837 6b3e 068f 983e d3a9 883e
00000080: b529 5c3e 38c8 603e f8dc 0e3e 109a 673e
00000090: e070 103e c32f 143e 6f5d 423f 906d dd3e
000000a0: 7c6f 5f3e 0146 333e 1ec3 633e 38cf 1a3e
000000b0: c2d5 d23e 8887 dd3e 5fb6 e53e a992 1e3f
000000c0: 975e 263e 0871 483e db15 363e 5d7c af3e
000000d0: 1139 883d 53eb 223f 319f 8b3e 6db5 fb3d
000000e0: 7176 bd3d 39dc 9c3e 2c97 573f b95a 493e
000000f0: ceab 603e 60f7 423e b37c af3e 2122 463f
00000100: 4745 183e 287f d73e 73a4 683e 1e80 183f
00000110: c22e b73e 29dc 5c3e ca5b 2c3f f0fb 643e
00000120: 9e19 a23e 5f45 e63e 8df5 1f3f c0df ff3d
00000130: 5155 103f fdcc 333f 14f5 353e 9100 c43d
00000140: b4ab ff3d c91c b53d 03a0 3e3e 4f4d 883e
00000150: 6f20 4e3e ce0a 3e3e 6473 833f fe57 343f
00000160: c1a8 503f 9e98 893e 986b 953e 7a9d 863e
00000170: b2c6 e53d 4cf4 5e3e 63d0 323e e131 6b3e
00000180: 4056 1d3e 96ab 233e c7a9 8a3e 4e1f 2f3e
00000190: 74d7 c03d 23aa 0c3e 05dc 7d3e d136 9b3e
000001a0: e20c f73e a676 243e 8fc6 b03d 4b6b 673e
000001b0: 5fe8 d03e 3c1e 173e 7cae d33e 719e 273e
000001c0: d052 a63d 9eb0 b23d 70f4 1c3e d59e 263e
000001d0: 1366 043f 80dd 6c3e 7920 013e 94d1 153e
000001e0: 4438 fd3d 596d 303e 1f5a 583e 3e4b 313f
000001f0: 0b26 0c3e 8a76 d83e 5841 473f 7b49 073e
0.28614175 0.49624464 0.39518556 0.2736731 0.10576699 0.15813075 0.16739017 0.22731896
0.3064921 0.13386115 0.61914545 0.9269002 0.4910416 0.21783602 0.13297729 0.5583961
0.96584386 0.25568637 0.11974186 0.5043098 0.12568209 0.22306688 0.40453675 0.29663897
0.110974796 0.1617714 0.2503874 0.11092978 0.26358718 0.22970402 0.29796618 0.26692066
0.21500285 0.21951377 0.1395148 0.22617364 0.14105558 0.14471345 0.7592382 0.43247652
0.21819872 0.17507173 0.222424 0.1511811 0.4117871 0.43267465 0.448657 0.61942536
0.1624702 0.19574368 0.17781775 0.3427457 0.066515096 0.63640326 0.2726989 0.122904636
0.092511065 0.30636767 0.84215045 0.19663514 0.21940538 0.19039679 0.34274825 0.77395827
0.14870177 0.420892 0.22718982 0.5957049 0.3577786 0.2156836 0.6732756 0.22361732
0.3166017 0.449748 0.62484056 0.12493849 0.5638018 0.7023466 0.17769271 0.095704205
0.12483922 0.08843381 0.18615727 0.26621482 0.2012956 0.18558809 1.026959 0.70446765
0.815075 0.2687425 0.2918365 0.2629202 0.11219539 0.2177288 0.17462306 0.22968246
0.15364933 0.15983424 0.27082655 0.17101786 0.094160944 0.13736777 0.24790962 0.3031526
0.48252016 0.16060886 0.08631622 0.22599523 0.40802285 0.14757627 0.4134406 0.16369034
0.08121264 0.08725093 0.1532762 0.16271527 0.5171825 0.2313137 0.12610044 0.14630729
0.123642474 0.17229213 0.21128128 0.69255435 0.13686387 0.42277938 0.7783408 0.13211624

fc2.weight f4 [64, 128]
00000000: a9bc d2bc 5210 bcbd bcf5 66bd 555e 3ebc
00000010: 72a7 adbd 3f33 863d 193f 1cbd b0a7 3b3d
00000020: a5a1 2abc a5ba ba3d 983f 45bd c200 243c
00000030: e280 ffbc 73b8 b3bd 178b 0c3d 67c9 01bd
00000040: 48c2 a63d 7c85 82bc b918 bbbd cc76 853d
00000050: 0a54 91bc 0fb2 c83c 67ca cdbc 91d6 a4bd
00000060: f903 c13c da54 90bd 81c9 4e3d aed3 2fbd
00000070: 6bfb cfbc 0567 803d f736 833d fc88 e83d
00000080: fc3c 313c 4b0b e9bb 7b4b 99bc 297c b0bc
00000090: 7a11 403d 4553 7fbd 895e 05be 581b 1b3b
000000a0: 222e db3c 6133 ff3c 7a9e ccbc ed02 bdbd
000000b0: 18bc cb3b 91a1 20bc 571f 01bd 55f5 04bd
000000c0: 38a8 833d 1f95 c0bc 485e 9e3d b79a a8bc
000000d0: 0db1 c73c 59f7 5e3d a888 26bd 7997 d4bc
000000e0: a716 e63d 5d5f 61bc 1ea7 443d f05f a63c
000000f0: 4d93 8e3d 60e9 633c 0d2b 83bd df49 fabc
00000100: 0924 e9bb 4db7 a43d f492 febc c61f 3ebd
00000110: 6ea3 02bd a120 8cbd 1840 8e3d edd0 02bd
00000120: 0e4f 3c3d 7eae babd bbf3 323d 2290 cabc
00000130: bfee 5abd 278e d3bd 6d13 5fbd 7aab 383d
00000140: ec79 e23c c99b 153c 2b97 fdbc 5d38 993c
00000150: d050 1e3c 8112 0abc 95b6 893c 8300 6c3c
00000160: 0f94 96bd 9b22 14bd a020 81bd 9846 35bd
00000170: ccba c13b 4df6 9a3b 0d9c 19bd 5acc 8a3c
00000180: 7002 87bd beff 61bd b61c 21bd 1e84 a0bc
00000190: ad51 08be ed7a 1abd fcdc 973a 8fdb dbba
000001a0: 7203 65bc 005e ec3c 02d1 b2bd 03d3 3b3d
000001b0: 3000 af3d 0b8d 19bc df2c 0b3c 28bf 973d
000001c0: 54a4 8fba 80c4 473d 5c99 b53d 8bc6 f0b9
000001d0: e4d2 333d bb30 7b3c cc15 41bd 79b8 58bd
000001e0: 497d 623d a781 a0ba 829d 8ebd 9fa8 69bd
000001f0: be50 e33c cb81 bcbd d5b6 bbbd 58c9 a5bd
00000200: 80db 7d3c e3ee abbd 929f ee3c afbb cf3d
00000210: d843 39bd b589 153d 5fc0 ba3d b974 97bd
00000220: 5a84 03bc a8b9 313d 25ab 1bbc 7684 7cbc
00000230: 0b8e cabb 4b46 a638 9a0c babd 03b7 d43b
00000240: 86fe 55bd 00cb 73bd 2a63 c6bb 6f4d c8bd
00000250: e7a8 8b3d b0f9 913d 2a2d 17bd 2943 b03d
00000260: 5706 32ba 448e 22bd 2f53 9c3b f84f 6ebd
00000270: 3911 21bd 3792 fd3b 3fc3 cdbc ad5f 81bc
00000280: 4f93 f2bc e2ff a13c 47ba a63c 1304 173d
00000290: bd2e b33d 3d13 523d 73b0 103d 1f61 073d
000002a0: 9c98 8cbd 9676 8abd d062 a63d 3934 093d
000002b0: 96c6 033c 6c4b 02bd b897 9f3d 5c84 db3c
000002c0: 4174 aebb c871 a63c fc30 ef3c ea2f b1bc
000002d0: 3af4 93bc d239 493d 4030 83bd b3a1 293c
000002e0: e133 063d f9ec 373d 0ec9 0abd 4bae 1bbd
000002f0: 0113 983d 6a06 f9bb 1bb9 b53d fea3 5b3d
00000300: 1704 73bd efda 4f3b 4c09 ccba aee4 a13d
00000310: 9cd7 af3d 14ba d6bc 9ef3 693c 8334 813d
00000320: 9616 843d 93a4 5c3d dd77 773c 5d30 62bd
00000330: 254f 2bbc 4db0 60bd fd52 24bd bd2c 483d
00000340: 94d5 5fbd 9433 8c3d be98 5bbd f4a6 1c3d
00000350: da09 92bd fd9a 94bd 6d81 853d dd99 62bc
00000360: b47d aa3d 94fa 243c 1959 ac3d 4bf3 b53c
00000370: cd0c 8dbd 7462 d23c 04ea 803d 06d8 0f3d
00000380: fea8 aabc a524 1dbd dc76 343d d269 2bbd
00000390: 21a3 89bc a7da c4bc c725 4f3d caf3 aabc
000003a0: 8f20 93bd 76cd fcbd 73e9 8abc a629 3a3b
000003b0: 1981 2a3d d0e4 6bbd d189 fbbc 1784 443b
000003c0: fd73 bdba 041a 163d e7e5 033c 8c49 4cbd
000003d0: 30ea d53c 25b2 8bbd 6436 63bd 0b63 a93c
000003e0: eb3a 74bd 1158 f5bd 62ad 9d3c 2cbf fb3c
000003f0: 5830 bd3d 082d d63c b035 84bc 963c 23bd
-0.025724726 -0.091828 -0.056386694 -0.01161917 -0.08479203 0.06552743 -0.038146112 0.045814216
-0.010414516 0.09117631 -0.04815635 0.010009946 -0.031189386 -0.08775415 0.034312334 -0.031686213
0.08142525 -0.015932791 -0.09135575 0.06516799 -0.017740268 0.024498967 -0.025120927 -0.08048738
0.023561465 -0.07047434 0.050485138 -0.042926483 -0.02538844 0.062696494 0.06406968 0.11354253
0.010817762 -0.007111942 -0.01871275 -0.02154358 0.046891667 -0.06233527 -0.13024344 0.0023667421
0.026755396 0.031152429 -0.024977911 -0.09229074 0.006217491 -0.009804145 -0.03152403 -0.03246053
0.064285696 -0.023508606 0.077328265 -0.020581586 0.024376417 0.054435108 -0.04065767 -0.025951134
0.11234789 -0.0137556465 0.048010938 0.020309418 0.06961689 0.013910621 -0.06404696 -0.030552803
-0.0071148914 0.08042774 -0.031075932 -0.04641702 -0.03189414 -0.06842161 0.06945819 -0.03193753
0.04597383 -0.09115313 0.04368947 -0.024726931 -0.053450342 -0.10329848 -0.054461885 0.045085408
0.027646028 0.00913138 -0.030955872 0.018703634 0.009662822 -0.008427263 0.016810695 0.014404419
-0.07352459 -0.036165815 -0.06305051 -0.044256777 0.0059121605 0.0047290684 -0.037502337 0.016943146
-0.06592262 -0.055175535 -0.03933402 -0.019594248 -0.13312407 -0.037714887 0.0011586244 -0.0016773808
-0.013977872 0.028853416 -0.08731271 0.045855533 0.08544958 -0.009372006 0.008494585 0.07409507
-0.0010959008 0.04877138 0.088671416 -0.00045924293 0.043902293 0.0153314425 -0.047139928 -0.0529103
0.055295262 -0.0012245671 -0.06963636 -0.057045575 0.027748462 -0.092044435 -0.09165732 -0.08095044
0.015494227 -0.083951734 0.029128823 0.1014322 -0.045230716 0.03650828 0.09118723 -0.0739531
-0.008027161 0.043389946 -0.009501253 -0.0154124405 -0.0061814836 7.92859e-05 -0.09084435 0.0064915433
-0.052244686 -0.059519768 -0.0060543017 -0.09780394 0.06819325 0.07127702 -0.036908306 0.0860656
-0.0006791106 -0.039686456 0.0047706584 -0.058181733 -0.039323065 0.0077383774 -0.025117515 -0.015792692
-0.029611258 0.019775335 0.020352496 0.03686912 0.08749149 0.05128788 0.035324525 0.033051606
-0.068650454 -0.067609 0.08124316 0.03349707 0.008042952 -0.03181021 0.0779261 0.026796512
-0.005323917 0.020317927 0.029198162 -0.021629293 -0.018060792 0.049127407 -0.06405687 0.0103534935
0.03276432 0.04490373 -0.033883147 -0.038008016 0.074255 -0.0075996416 0.08873197 0.053623192
-0.059330072 0.0031716188 -0.0015566736 0.07904945 0.08586046 -0.026211776 0.014279274 0.06308844
0.064496204 0.053867888 0.015104261 -0.055221904 -0.010455881 -0.054855634 -0.040118206 0.04887079
-0.054647043 0.06845775 -0.053612463 0.038245156 -0.07130785 -0.07256124 0.06518827 -0.013830629
0.08324757 0.010069508 0.084154315 0.022210738 -0.06887207 0.025681712 0.06294635 0.035118125
-0.020832535 -0.038365025 0.044058666 -0.041848965 -0.016801419 -0.024030043 0.050573137 -0.0208682
-0.071839444 -0.12343876 -0.01695702 0.0028406172 0.041627023 -0.05759126 -0.030705364 0.0029985958
-0.0014454123 0.036645904 0.008050418 -0.049874827 0.026112646 -0.06821088 -0.055471793 0.02067711
-0.0596265 -0.11979688 0.019247714 0.030730806 0.092377365 0.02614452 -0.016138881 -0.0398527

fc2.bias f4 [64]
00000000: e7db 993d 2fbc 5cbc c0bd 5d3d eb8e 9fbd
00000010: 4aec 2abd 9f09 99bc 349a b13c ace0 edbb
00000020: 180b c23c 0d10 58bd 9a4e 46bd d9bd 24bd
00000030: 1fd9 b43d db72 b23a ce71 a93d 0b72 5b3a
00000040: 9b46 98bd 0e80 0b3d ffb9 133d 0e87 a9bc
00000050: 6045 6abd b781 5fbc 43cf 62bc 8df2 47bc
00000060: 2593 473d 61be 8ebd c67f 38bd fb07 1ebd
00000070: 9916 833d 3bfb 4abc 59c5 7cbd 4b6c 993c
00000080: 2d47 f5bc d7d5 a3bd fe6d 063d a5fb 243d
00000090: f12d 1abd 87fa 843d b2bf b2bd 6292 7d3d
000000a0: d999 74bd 765d 403d 3b80 afbc aa97 7d3d
000000b0: 61c2 713d f87a e33c 6ed6 3dbc 7351 47bc
000000c0: 6155 443d c508 96bd 8454 52bd 01a0 443d
000000d0: e5f7 4abd b173 dfbc 9b70 87bd 7fcc 393d
000000e0: 9ac3 853d e792 8e3d 1040 7e3d 56c6 113d
000000f0: 86c4 6e3d 5734 673d c722 a8bd 7330 693c
0.07512646 -0.013472601 0.054136038 -0.07790931 -0.04172925 -0.018681346 0.021679975 -0.007259449
0.02368693 -0.052749682 -0.048414804 -0.040220115 0.08830475 0.0013614552 0.0827366 0.0008371181
-0.07435342 0.03405767 0.03606605 -0.020694282 -0.057195067 -0.013641766 -0.01384336 -0.012203825
0.048724312 -0.06969906 -0.04504373 -0.03858183 0.064007945 -0.012389 -0.061711643 0.018728396
-0.029941166 -0.07999771 0.03281974 0.04027905 -0.03764147 0.06493097 -0.08727969 0.06190718
-0.059717033 0.04696413 -0.02142345 0.061912216 0.059023265 0.027768597 -0.011586769 -0.012165415
0.047932986 -0.073258914 -0.05135013 0.048004154 -0.049552817 -0.027276846 -0.06613275 0.04536104
0.06531449 0.06961613 0.062072814 0.03558954 0.058292888 0.0564464 -0.08209758 0.014232743

bn2.weight f4 [64]
00000000: 5336 7c3f ca8d 7b3f b2fc 7e3f 4dda 8a3f
00000010: 0ac2 7e3f 2b53 853f f049 833f 42aa 793f
00000020: 92cd 773f 32af 813f c47e 813f c262 783f
00000030: bceb 783f a699 853f 9893 7a3f 7d71 883f
00000040: 6fd5 7d3f a2fc 803f c79b 863f b155 873f
00000050: 92dd 883f 6377 803f f0e3 843f 612b 843f
00000060: 3fb6 813f 90fd 803f f56d 773f c1ed 793f
00000070: e4a7 7f3f 9e01 823f 9547 793f c7c7 7e3f
00000080: 89c3 8c3f eac2 853f 4f2c 853f 47c9 833f
00000090: 7676 7a3f df5a 7d3f 0408 813f 000b 863f
000000a0: 0df0 803f 2d56 7a3f 5ded 823f 8d79 773f
000000b0: 19e3 853f 3fb9 793f ae3b 773f 56ae 793f
000000c0: 2779 7a3f cca1 793f 2437 773f 99e9 773f
000000d0: b407 733f c918 8b3f 315f 843f a27a 7b3f
000000e0: cc74 7e3f b1a9 793f 8ca9 7b3f c904 793f
000000f0: b785 853f 7e3d 873f 6f71 7d3f fe1b 813f
0.9852039 0.9826323 0.9960433 1.084787 0.9951483 1.0416006 1.0256939 0.9752542
0.9679805 1.013159 1.0116811 0.9702569 0.972347 1.0437515 0.9788146 1.0659634
0.991538 1.0077097 1.051629 1.0573026 1.0692618 1.0036434 1.0382061 1.0325738
1.0133742 1.0077381 0.96652156 0.9762841 0.99865556 1.0156744 0.9737485 0.99523586
1.0997173 1.0450108 1.0404147 1.02958 0.9783701 0.98966783 1.0080571 1.0472107
1.0073258 0.97787744 1.0228688 0.96669847 1.045993 0.9754829 0.9657544 0.9753164
0.97841114 0.9751251 0.9656851 0.96840817 0.9493363 1.0866939 1.034155 0.98234
0.9939697 0.97524554 0.98305583 0.97272927 1.0431432 1.0565641 0.9900121 1.0086668

bn2.bias f4 [64]
00000000: bde3 cdba 4f7d adbc 3a2b 6fb9 3ce6 8f3d
00000010: 930c 17bc a424 703d 4748 8f3b 5be4 d4bc
00000020: 5284 10bd 610e 7a3d 8cb2 133d e534 cebc
00000030: dad5 67bc 0298 313d 27ff 86bc a9ba 3c3d
00000040: 91cc ca3a 65d8 1a3d 1bc0 763d edd3 673d
00000050: a1b3 7a3d 44b1 7d3b 2a81 0f3d 9700 f13c
00000060: 4cf1 2ebc 6e08 e53c c1ee 27bd 0569 47bd
00000070: d4c9 9cbc 3e22 af3c d75b 00bd 8689 cebb
00000080: 9915 ca3d a2be 383d f8f3 98bc 3c0f 863d
00000090: 9a9d 32bc 1cb3 683c e299 913d 06f1 4e3d
000000a0: c096 66bd 3f47 08bd 1737 2c3d f9cb 01bd
000000b0: f265 353d a5e7 b0bc 880a 5abd 41ec 4cbc
000000c0: 2579 adbc 9494 b7bc 2b03 39bd 4e5c 6ebd
000000d0: 7396 3bbd 4f39 aa3d fdbb 1c3d a6ba 6abc
000000e0: 5178 0f3d ca2b 90bd f723 b43c 479e 4ebd
000000f0: 2e1e 4a3d 08cd 493d 73ca 14bc f92e 7c3a
-0.001570813 -0.021177916 -0.0002280892 0.070263356 -0.0092193065 0.058628693 0.00437263 -0.025987795
-0.03528244 0.06104887 0.036058947 -0.025171706 -0.014150107 0.043357857 -0.016479088 0.04607645
0.0015472342 0.037804026 0.0602418 0.056598593 0.061206464 0.0038710395 0.03503529 0.029419227
-0.010677647 0.027958121 -0.040999178 -0.04868414 -0.019139208 0.021378633 -0.031337585 -0.006303015
0.09867401 0.045103677 -0.01867102 0.065458745 -0.010901833 0.014202859 0.07109429 0.050522827
-0.05629611 -0.03327107 0.042044725 -0.031688664 0.044286676 -0.021594832 -0.0532327 -0.012507499
-0.02117593 -0.022409715 -0.045169037 -0.058193497 -0.045797776 0.08311712 0.038265217 -0.014326727
0.035026852 -0.07039602 0.021989806 -0.050443914 0.049345188 0.0492678 -0.009081471 0.00096200366

bn2.running_mean f4 [64]
00000000: 65fc 03be a812 143d 01a5 4b3e 25cd 51bd
00000010: 701d 9abe b85c 833e f31b c0bd 2d32 91be
00000020: d72c 96be f737 5a3e 28b5 8fbd b6a6 dabe
00000030: fa8c 6dbe 475e 5bbe c0a7 95bc 5f32 a0be
00000040: fb94 f2be 8d2e 3c3d 885a f7bd a861 903d
00000050: c73e e8be f6c0 97be 5e5b f2be f0a0 b3be
00000060: 7c61 7d3e 84c0 b6bd 3905 9bbe 0bb6 abbe
00000070: e65c 72bc 203b 0abd dc0d 373e 15d1 58be
00000080: f62a 483d a2b1 113e 7a1c 0dbe 3816 81be
00000090: d8b7 1b3e 377f ddbe b7ea 083e b88d abbc
000000a0: aca4 ad3d ecb3 743e 92f3 a03c 4de0 bdbe
000000b0: b05f 543e 14a2 9abd 82db 263d f261 1ebc
000000c0: 6294 a33e 1135 bab9 ddfd 2abe 58e1 0cbe
000000d0: 3038 2ebe bdb2 95bc 980f 8cbd 9957 b23d
000000e0: c64b 8dbe 48b4 3c3f 72aa 193d 8342 2bbe
000000f0: d793 a53e c917 87be 1b75 90be 72ce c73d
-0.1288925 0.036150604 0.19887163 -0.05122103 -0.30100584 0.25656676 -0.09380331 -0.28358594
-0.29331085 0.21310411 -0.07016975 -0.42705315 -0.2319831 -0.21422683 -0.018268466 -0.3128843
-0.47379288 0.04594283 -0.12077814 0.070498765 -0.45360395 -0.29639405 -0.47335333 -0.35083723
0.24744219 -0.08923438 -0.30277422 -0.33537325 -0.0147926565 -0.033747792 0.1787638 -0.21173508
0.048869096 0.14227918 -0.13780394 -0.25212264 0.1520685 -0.4326112 0.13370787 -0.0209416
0.08478674 0.2389676 0.019647393 -0.3708519 0.20739627 -0.07550445 0.040736683 -0.009666907
0.31949145 -0.00035516222 -0.16698404 -0.13757837 -0.17013621 -0.018273706 -0.06838912 0.08708114
-0.27596873 0.7371259 0.037516065 -0.16724591 0.32339355 -0.26385334 -0.28214344 0.09756173

bn2.running_var f4 [64]
00000000: 320a a23e fa7c c13e e939 a13e 53b5 683f
00000010: 07ca ff3e d20c 7b3f 3d39 e93e 96e6 203f
00000020: 25bc 233f f4ea 3b3f cf4d 023f a948 cb3e
00000030: 0996 bb3e ccd6 103f e2da 723e 6a08 233f
00000040: badc 193f dfe0 333f 117e fe3e 929b 053f
00000050: 3d9f 103f 8d31 703f a4e0 223f e132 fd3e
00000060: 998b f23e 05d5 b23e cf82 293e 45f0 fb3e
00000070: 5f37 8d3e 0fae 363f 0ff9 8d3e da13 c63e
00000080: 0020 593f 4e84 d23e fed2 493f 71ec 053f
00000090: 0c9d 583f db8b 233f e7f3 413f 4b15 383f
000000a0: 6f03 973e baf9 b13e 72bf 043f 6b77 b43e
000000b0: 068d fb3e 5b8e c53e c69c 143f 1d72 0d3f
000000c0: ad92 c43e faeb 783e 7bf6 973e 6caa 333f
000000d0: 31d8 f23e 0642 523f 8067 7b3f 919a 053f
000000e0: 6ae7 4e3f 6ed4 1e3f 54fd ec3e 9319 c83e
000000f0: 2584 863f cff4 0b3f 2235 9b3f d946 1d3f
0.31648403 0.37790662 0.31489494 0.9090168 0.49958822 0.9806644 0.45551482 0.62851846
0.6395896 0.73405385 0.50899976 0.39703873 0.36637905 0.56577754 0.2371631 0.63684714
0.60102427 0.70265 0.49705556 0.52190506 0.5649298 0.9382561 0.63624024 0.4945288
0.4737213 0.34928146 0.16553806 0.4920675 0.27581307 0.7135934 0.2772908 0.3868702
0.84814453 0.41116565 0.78837574 0.52313906 0.84614635 0.6388528 0.7576279 0.7190749
0.29494807 0.3476084 0.5185462 0.3524736 0.4913103 0.3858517 0.5805172 0.5525225
0.38393155 0.24308768 0.29680237 0.7018192 0.47430566 0.82131994 0.98204803 0.52188975
0.8082186 0.6204289 0.46287024 0.39082012 1.0509077 0.54670423 1.212559 0.6143623

fc3.weight f4 [32, 64]
00000000: 496c f13c fdef 27be 9171 05be 7181 45bd
00000010: 6c0c 943d 70be 29be 2f1a 2c3d 40be b2bd
00000020: 2d38 473d e0b5 e6bd e464 67bd 2806 d93d
00000030: a1df 22bd 5707 1cbd 1f8a f03c dc5d 50bd
00000040: 2ba6 533d 7ab2 9bbd 391a 51bd 7535 29be
00000050: ba0c 583c f703 53bd e93b a23d 9ba6 dabc
00000060: 636e d3bb 168f 76bb a04e 4abd 6596 e93d
00000070: 12ca a0bd b84d a2bd f3ca 1fbd c135 abbb
00000080: 6a59 d8bc 6eaf b0bd d9a5 31bd 0171 aabd
00000090: f390 ad3c 2d07 193d dab5 33be e998 b8bd
000000a0: 658e 41bd 3875 97bc 17ae 8b39 dbf5 313d
000000b0: fe4c 563d 3cae 82bd 4538 c83d 5b5e 0ebd
000000c0: 2255 b0bd 4b8a b33d 5c83 98bd 0c91 c0bd
000000d0: fe74 d0bd cf27 33be 56ca 463d 75d3 8c3d
000000e0: 46fc a2bd 2c5a c8bd ff01 ae3d 28ac 88bd
000000f0: cff6 c6bd 99f4 c63a eb22 6f3d 2b4e fdbd
00000100: 03bb 1e3d cf33 52bd 297b 50bd 9d35 ebbd
00000110: d926 a8bd 0533 05be 873d efbd 2915 d8bc
00000120: 7886 d23d 8066 17be 6d5a 96bd 9ffb 1b3d
00000130: d0b3 0f3d 65c5 743c 2fb8 d3bc 6478 70bd
00000140: 128f f6bc b51a d03c 7d44 debd f471 55bd
00000150: 8871 e43d e6d0 113a d9cb ef3d 027b a33d
00000160: c176 803d df6c b1bc 31a0 52bd 5986 5d3d
00000170: 8cd5 f5bc 217b 373c 3651 dc3c 1e3f 32bd
00000180: e6e0 82bd 0b13 a5bd 15e2 46bd 2583 b63c
00000190: b7d7 853d 0656 a53c 7393 f2bc a867 abbd
000001a0: 42a4 ecbd 61d7 90bd 253c 2e3d defc cb3d
000001b0: 042d 9c3b 39e3 873d 52e4 85bd 7a12 58bd
000001c0: f89f afbd c3a3 cf3d 4aea dcbc e30f b8bd
000001d0: d008 84bc 1961 84bd aba5 e6bd 4aaa 043d
000001e0: 9200 0fbb cb87 02be ea8f 713d 5860 59bd
000001f0: 0379 cabd e9ff bd3d d0b7 67bd b6d4 52bd
00000200: 48b4 33bd e48c 2bbd 55ba 653d 9f74 443d
00000210: ffd2 6a3c e250 a83d 45a2 233d 68d1 793c
00000220: a9a0 13bd f31e 9ebd 2fb4 f9bc a7d3 1dbe
00000230: d618 1abd bd8a 23be 037d 353d 8360 18be
00000240: 628d 91ba bac4 24bd 889a 16be 6691 b33c
00000250: 9f45 ccbd 3881 913d 58c7 04be a696 aabb
00000260: 0fa3 3b3d d8fd f4bc 3cfb 5e3d c6ef af3d
00000270: 6f0d b23c 8f84 113e 997f 583d 678a ac3d
00000280: b9a4 fc3c ed1c 61bc 958d f53d 42e5 2bbd
00000290: ecfa a23d c70a 28be ea8f c73d 9e8a cfbd
000002a0: 131a debd 9645 6abd e5ab e7bc 0161 0abe
000002b0: 6f69 4b3d 29f6 1f3d 643d 0b3d 724f 38bc
000002c0: 54fc 673c 4303 b9bd ae6e 57bd 66fa db3c
000002d0: 81d6 9abd 6ac3 c63d d984 703c de75 ff3d
000002e0: 38bf b33b 80f9 92bd 7894 7d3d c0f5 d93d
000002f0: 49fb c4bc a6c1 c0bd 074f 553d 1524 a6bd
00000300: ebe4 1bbc 990c 2abd d182 05bd 6d9d 1bbd
00000310: 39d2 54bd 1dc4 d0bd ac2e 16bd 8f82 6a3d
00000320: 14fe 4dbd c326 6e3c 1b83 433c ec98 4b3d
00000330: f18b 94bd 837c debd b67d f2ba fa84 2fbd
00000340: e4f3 bbbd 1673 ecbc 0952 183c 3f0a a43d
00000350: f000 683c 66d6 983d 39d2 2abe 725d dc3c
00000360: a879 8cbd 9eae 4fbd d050 4b3d 5e86 093c
00000370: 66f1 143d 55c1 b23d 76ad a1bd 6b0b 653d
00000380: 8cca 13bd 0d11 e9bc 6959 213d 87b3 6c3d
00000390: 74ee e33c 4aae 27be 142b d63c bc27 18be
000003a0: 916f fabd 4e07 c93d a2f9 8d3c 246d c53d
000003b0: a0f6 f2bc 8594 f23c 5eb8 bdbd 4a60 093d
000003c0: cf67 94bd 16aa d3bd 345f 773b 81ba a93d
000003d0: 1c43 bb3d 7709 4abd 79d5 903d d390 84bd
000003e0: 9c5b 3abd 40c6 05be fe65 9abd a500 cb3c
000003f0: daa6 e53d 879a fdbd c50d 6c3d 80e0 8abd
0.02947058 -0.16400142 -0.13031603 -0.048219148 0.07228932 -0.16576552 0.042017158 -0.087276936
0.048637558 -0.11265159 -0.0564927 0.10596877 -0.03976405 -0.038092937 0.029362736 -0.05087076
0.051672142 -0.07602401 -0.0510504 -0.16524298 0.013186628 -0.051517453 0.07921583 -0.026690772
-0.006452368 -0.0037621907 -0.04939139 0.114056386 -0.07851042 -0.0792498 -0.039011907 -0.005224914
-0.026409823 -0.086272106 -0.043371055 -0.08322335 0.021187281 0.03736036 -0.1754984 -0.0901354
-0.04725494 -0.018488511 0.00026641853 0.043447357 0.05231952 -0.06380889 0.097763576 -0.034757953
-0.08609988 0.08766612 -0.0744693 -0.094026655 -0.101785645 -0.17495655 0.048532806 0.0687627
-0.079582736 -0.09782824 0.084964745 -0.06673461 -0.09715044 0.0015179097 0.05838291 -0.12368425
0.038752567 -0.05131894 -0.050898705 -0.11484835 -0.082105346 -0.13007744 -0.11681657 -0.026377277
0.10279554 -0.14785194 -0.07341466 0.03808176 0.035083592 0.014939641 -0.025844662 -0.058708563
-0.030097518 0.02540336 -0.10852907 -0.052110627 0.11154467 0.00055624393 0.11708803 0.07982446
0.062726505 -0.02165836 -0.0514223 0.054083202 -0.030009054 0.01119879 0.026894193 -0.043517224
-0.06390552 -0.08060273 -0.048555452 0.022279331 0.06535285 0.02018262 -0.029611325 -0.0836938
-0.11554767 -0.0707233 0.042537827 0.0996034 0.0047661085 0.06635136 -0.06537689 -0.052751996
-0.085754335 0.10138657 -0.026967186 -0.08987405 -0.016117483 -0.064638324 -0.112620674 0.032388963
-0.0021820408 -0.12747113 0.058975138 -0.053070396 -0.098863624 0.092773266 -0.05657178 -0.05147239
-0.0438731 -0.04188241 0.056085903 0.04796278 0.014332532 0.08218552 0.039949674 0.01524768
-0.03604189 -0.07720747 -0.030481426 -0.1541277 -0.03762134 -0.15970893 0.044308674 -0.14880566
-0.0011104757 -0.040226676 -0.14707386 0.021919917 -0.09974217 0.07104725 -0.12966669 -0.005205947
0.0458098 -0.029906198 0.054438815 0.08590655 0.021734921 0.14210723 0.05285606 0.08424836
0.030840265 -0.013739807 0.11989895 -0.041966684 0.07958016 -0.16410361 0.09744246 -0.10133861
-0.10844817 -0.05719527 -0.028280208 -0.13513567 0.049661096 0.039053116 0.033994094 -0.01124941
0.014159281 -0.09033825 -0.052595787 0.026852798 -0.075604446 0.09705241 0.014680111 0.12473653
0.0054854415 -0.071764946 0.06190917 0.10642576 -0.024045603 -0.094119355 0.05207732 -0.08112351
-0.0095150275 -0.04151592 -0.03259546 -0.03799193 -0.051958296 -0.10193656 -0.036665604 0.057253417
-0.050291136 0.014535609 0.011933113 0.049706385 -0.07253254 -0.108635925 -0.00185006 -0.042851426
-0.09177378 -0.028863471 0.009296902 0.08009767 0.01416038 0.07462768 -0.16681756 0.026900027
-0.068591416 -0.050703637 0.049637616 0.008393852 0.036363028 0.087282814 -0.07894413 0.055919092
-0.036081836 -0.028450513 0.03939191 0.057788398 0.027823664 -0.1637508 0.026143588 -0.14858907
-0.12228311 0.098158464 0.017330948 0.096399575 -0.029658616 0.029611835 -0.09263681 0.033539094
-0.072463624 -0.10335176 0.0037745954 0.08287526 0.091436595 -0.049325433 0.07071967 -0.064729355
-0.04549752 -0.13063908 -0.07538985 0.02478058 0.11213465 -0.123829894 0.05763032 -0.06781101

fc3.bias f4 [32]
00000000: 04d4 3f3d 461e 82bc cf1d e43a cdc3 7c3d
00000010: 5ec1 9cbd a780 3a3d 695e f2bd 6f1f f8bc
00000020: 7d52 34bd 1739 233d ef41 bcbd b214 c0bb
00000030: b35f dfbd db08 00be 4579 da3d c961 433d
00000040: 9c59 f53d b1da 12ba 19a9 f7bd 3393 15bd
00000050: 3b5e 6bbc 34ae acbd 5503 e33d f706 2c3c
00000060: d598 03bc d09a 523d 097a bf3c 6a06 69bd
00000070: 7828 41bd 654c b93c abd0 8dbd 4882 bf3d
0.046833053 -0.015883576 0.0017403903 0.061710168 -0.07654069 0.04553285 -0.118344136 -0.030288426
-0.04402398 0.039849367 -0.09192263 -0.005861842 -0.10906925 -0.12503378 0.106676616 0.047700677
0.11979982 -0.00056020456 -0.120928 -0.036517333 -0.014365728 -0.08431664 0.1108462 0.010499707
-0.008032043 0.051417172 0.02337362 -0.056890883 -0.047157735 0.022619436 -0.06924566 0.09351021

bn3.weight f4 [32]
00000000: a1fb 763f 62d2 8b3f 0132 7f3f c1e2 723f
00000010: 82fe 7d3f 5470 813f ce0e 793f 4080 6e3f
00000020: e717 793f 2829 753f c2aa 813f de7d 7d3f
00000030: cdc0 843f 2794 783f cfaf 7e3f 1226 8a3f
00000040: 3216 7e3f 7b5f 713f f42f 7c3f d001 873f
00000050: 6e61 853f cef0 7d3f e7f8 7e3f 2097 853f
00000060: 49c4 7d3f 077c 743f bf02 833f eb3f 873f
00000070: d433 823f 8abd 893f 459e 7b3f 3e40 763f
0.96477705 1.0923579 0.99685675 0.9487725 0.99216473 1.0112405 0.97288215 0.93164444
0.973021 0.95765924 1.0130236 0.99020183 1.0371338 0.9710106 0.9948701 1.0792868
0.9925262 0.94286317 0.9851067 1.0547428 1.0420358 0.99195564 0.99598545 1.0436745
0.9912763 0.9550175 1.0235213 1.0566381 1.0172067 1.0760968 0.98288375 0.96191776

bn3.bias f4 [32]
00000000: 89f9 25bc 0fe0 f83d a153 5b3d b344 c3bc
00000010: ce62 273d 36fa 673d fb73 9fbc f1e9 6ebd
00000020: 23c6 833a bee2 28bb fc06 563d f7bb 973d
00000030: ccf9 d23d b78c 9cba 81a7 9fbc fb7e b23d
00000040: f6cd 093d ead3 55bd cf26 3dbd 5e5d cf3d
00000050: 57b6 ef3c 5714 5a3d 8fe5 813d 5a0f 923d
00000060: 8a1a 093d 8391 9bbd e73d 6d3d cc6e 4e3d
00000070: 9a24 c2bd 4e1b db3d 6a4e 833c da48 81bd
-0.010130295 0.12152111 0.05354655 -0.02383647 0.040865712 0.056635104 -0.019464483 -0.058328573
0.0010053556 -0.0025769915 0.052252755 0.07408898 0.10301551 -0.0011943792 -0.019489052 0.08715626
0.033643685 -0.05220405 -0.04617959 0.1012523 0.029261751 0.053242054 0.06342613 0.07131834
0.033472575 -0.075961135 0.057920363 0.050398633 -0.094796374 0.10698567 0.016028602 -0.063127235

bn3.running_mean f4 [32]
00000000: 87fc 09bf 786c b5be 73f2 34be 6940 5dbe
00000010: 3ba8 f9be 08a6 8cbe 03e5 8dbe f4cf 17be
00000020: 87d2 e4be 4379 943d 58a6 a8be e9e5 d1be
00000030: 274f adbe f24e 1dbf 01d1 d9be 8b56 a4bd
00000040: 12b1 9fbe 04aa 8cbd 9f43 4fbf e1e9 92be
00000050: 7809 a9be d21c 0abf ec6b 29bd 9de1 b2be
00000060: f839 8fbe dfbd b1bc d1ac 15bf 89d1 25bf
00000070: ba36 8e3c 09ef 4ebe 68e1 abbe caa0 cabc
-0.5390095 -0.35434318 -0.17670612 -0.21606602 -0.48761162 -0.27470422 -0.27713785 -0.14825422
-0.4469187 0.07249691 -0.3293941 -0.4099572 -0.3384945 -0.61448586 -0.4254227 -0.08024319
-0.3118978 -0.068683654 -0.80962557 -0.2869406 -0.33015037 -0.53950226 -0.041362688 -0.34937754
-0.27973914 -0.021696983 -0.5846682 -0.6477285 0.01736008 -0.20208372 -0.3357041 -0.024734873

bn3.running_var f4 [32]
00000000: 408c 423f 92a1 473f 698f 3f3f a0e0 e63e
00000010: ba26 e63e e08d 7b3f cbec 0e3f c867 e53e
00000020: 3994 133f f115 fa3e 612e 983f be37 533f
00000030: fe68 8e3f e0c6 3e3f d5f1 b03e b4eb 923f
00000040: 29ab 263f e1f8 a23e 4c70 e73e fb93 5a3f
00000050: ef7c 423f b94f fe3e e9bb 313f 75ae 243f
00000060: f4fa 8e3f e33d 9c3e 5d91 283f ca06 1a3f
00000070: b727 773e f76c 3e3f dc8a 2a3f cf6f 093f
0.75995255 0.7798091 0.748282 0.4509325 0.4495142 0.9826336 0.5583007 0.4480574
0.57648045 0.48844865 1.1889154 0.8250693 1.1125791 0.7452221 0.34559503 1.1478181
0.6510492 0.31830505 0.45202863 0.8538205 0.75971884 0.496702 0.69427353 0.643287
1.1170335 0.30515966 0.65846807 0.6016661 0.24136244 0.7438502 0.6661813 0.5368623
