MELOSDP/SDP/chkpt/mc1/linear/1/sdp_classifier_linear-160.pth (torch, 77408 bytes, 25 tensors)

fc1.weight f4 [128, 38]
00000000: 7f6a 25be 7005 db3d 643c 653d 48de 133e
00000010: 9e80 febc a6e8 583d c229 033e 9f46 b33d
00000020: fcd8 0bbe e120 df3c c573 d3bd d0be bcbc
00000030: 43c0 6f3d ab65 f9bc 3623 82bd 8505 3b3d
00000040: 107b ffbc c31c b2bd e8a1 b43d a1fe fabd
00000050: 259d 8f3d 3e3e 52bb 283e 1e3d aa5f 86bd
00000060: 11c2 b93d 2f9a 42bc b7bb 143e da2b 3a3d
00000070: 91fb b5bc 2496 3ebc ca91 373d 6510 a83d
00000080: 4374 f83d 625c fc3d 08b7 00be 9ab0 13be
00000090: 335d 0abe ba01 f5bd 3c55 bbbd 7aa9 fabb
000000a0: 1363 753d 03de 883b 12fb efbd 5bb0 193e
000000b0: 2b28 8e3d 6e26 333e 5fa5 893c 8811 053b
000000c0: 9453 bcba 524a d63d 3fb9 e73d 816b a3bd
000000d0: 2031 e0bd 00f5 48bc 939b 14bd e65e 083d
000000e0: 95f1 e4bd 7504 1c3c 20b9 a6bd 6fd8 563c
000000f0: 0786 81bd dee2 513a 18b3 c5bd b48a 093d
00000100: c2f1 d33d ec48 17be 268b ac3c 8aa2 853d
00000110: ca39 163e 44b2 c1bd 326f 133e 1767 653d
00000120: be4b 9039 5424 20bd f379 e53c c596 1fbe
00000130: 0e7a a73d 6e7c abbc d8ba c3bb df37 3abd
00000140: 145b aabd 79e3 2abe 6898 59bc 77e1 003e
00000150: d5ce 1139 110b 003c 07d1 06be fa33 14be
00000160: 7fed a73d 6cea 79bd 65bb b33d 5f7d e73d
00000170: 4e0d 383c 5e6f dd3d ecf1 aa3b f62d 67bd
00000180: 1d88 e9bd 7b7d e3bd c1a5 7cbd ace6 bdbc
00000190: 83dd cc3c a80f db3d 7582 5ebc 4309 2dbd
000001a0: eb2f e8bc fcb9 0b3e ea2e 33bc e526 27be
000001b0: 9d7c d8bd 4bb5 a63d 3613 4cbd a43b 0abe
000001c0: 9a08 47be 8efa 05be cba4 31be 3c05 06be
000001d0: 568a c7bd 91f9 fbbd e376 063d 8952 15be
000001e0: d5cd 23bd 1504 1b3d 75d9 f4bd 3c78 33bd
000001f0: a686 d1bd 128d 633d a2e8 d2bd c492 e13d
00000200: ee01 bbbd d2eb d3bd a9b0 b03d 66d5 61bd
00000210: 4f9e aa3d 3ab7 5c3d 11d9 1cbd 4152 14bd
00000220: 0107 023d 7735 ab3d 806d 18be 38a2 2cbe
00000230: c062 dc39 e069 f83d bf09 0c3e 9ba4 e1bd
00000240: 9521 543b 4444 bbbd 4bc9 423d 2663 b4bd
00000250: 11fc af3c 4bde 79bd 60ae 40be b68d 07be
00000260: db41 fd3d e7f3 da3d 904e 373c e459 09be
00000270: 3d57 83bd 1cd6 023e 9b55 dd3d 5818 c4bd
00000280: e001 dfbc 460b 3abd 4ee5 5ebc 2b0d d33d
00000290: 6ea6 15bd eb14 0cbd d00d 78bb a081 a73d
000002a0: 4e09 9dbd 3223 0dbe fbfa cf3d 654a 1a3d
000002b0: 68b0 f1bd 042e 32bd e9f0 1bbe 95ae 093e
000002c0: e742 9f3d 6a89 53bd 841f 89bd c3df 123e
000002d0: bbe8 89bc e5f6 e2bd 1707 2ebd a91d 99bd
000002e0: 00fa afbd fd06 603d 82ab 193e 6736 03bd
000002f0: 835d 0b3e caf1 b1bc 0f00 52bd a11c 22bb
00000300: 3e34 0e3e 782e d23c e107 82bd d683 31be
00000310: 2ab3 fbbb 5510 2abe a608 a73d 3edf 063d
00000320: f048 153d 9be6 323d 79e8 8fbc 4770 a03d
00000330: 4e23 70bd 1e54 c93d e266 cabd a5eb ddbd
00000340: c49d a4bd 5f3c 233d 3335 073c 5a0f 5a3d
00000350: ef73 ac3d 67cc 453d 9639 eabd 3d60 e43c
00000360: ff4f 02be 6dd4 1dbe c972 e83b 99b7 09be
00000370: 303b a6bc 6750 01bd 80e5 e63c 08da 8cbd
00000380: bdb3 a3bd 121d 52bd 8907 133e 27d5 073d
00000390: 58e0 063e 5bde 12bd 9269 273d 70f0 a7bd
000003a0: b27f 983d 46d2 8cbc 6832 a3bd ca91 1b3e
000003b0: 77b5 ebbd a68a 13bc 5d50 133e 3f49 ef3c
000003c0: 419e 39bd f599 d53d 87be 9dbc 6648 523d
000003d0: 7a78 b6bd db3c 843d d974 13bd 3d64 62bd
000003e0: f8d9 7abd 886b 9c3d 40aa 0b3d 828d 5bbc
000003f0: 2cb1 db3d f275 11bd 46ac c9bc c8e1 a2bd
-0.16153906 0.106943965 0.055965796 0.14440262 -0.031067189 0.052956246 0.12808898 0.08753704
-0.13656992 0.027237358 -0.10324816 -0.023040205 0.058532964 -0.030443987 -0.06354372 0.04565956
-0.03118661 -0.08696892 0.08819944 -0.12255598 0.07012395 -0.0032080556 0.038633496 -0.06561215
0.09070218 -0.011877581 0.14524733 0.045451976 -0.022214683 -0.011632476 0.04481677 0.08206252
0.1213155 0.12322308 -0.12569821 -0.14422837 -0.13512115 -0.1196322 -0.091471165 -0.0076495977
0.059908938 0.0041768565 -0.1171781 0.1500868 0.06941255 0.17495129 0.016802488 0.002030464
-0.001436817 0.10463394 0.1131463 -0.07979489 -0.1094687 -0.012265444 -0.03628118 0.033293627
-0.111788906 0.009522547 -0.081407785 0.013113125 -0.06324392 0.0008006523 -0.096533 0.033579543
0.10348846 -0.14773911 0.021062445 0.065251425 0.14670482 -0.094578296 0.14397886 0.056006517
0.00027522253 -0.039097145 0.028012251 -0.15584858 0.08177577 -0.020933356 -0.0059732012 -0.04546344
-0.08318153 -0.16688336 -0.013280965 0.12586008 0.00013905329 0.007815138 -0.13165675 -0.14472952
0.08199596 -0.061014578 0.08775977 0.113032095 0.011233641 0.10812257 0.0052168276 -0.056440316
-0.11402915 -0.11107918 -0.061681513 -0.023181282 0.025007969 0.106963456 -0.013580908 -0.04224516
-0.028343162 0.13645166 -0.010936478 -0.16323431 -0.10570643 0.08140048 -0.04982301 -0.13499314
-0.19436875 -0.1308386 -0.1734802 -0.13087934 -0.09743182 -0.123034604 0.032828223 -0.14582266
-0.03999122 0.03784569 -0.11955539 -0.043815836 -0.1023076 0.055554457 -0.102982774 0.110143214
-0.091312274 -0.103477135 0.08627445 -0.055135153 0.08330976 0.053885676 -0.03829295 -0.036211256
0.03174496 0.08359807 -0.14885521 -0.16858757 0.00042035244 0.12129569 0.13675593 -0.11017724
0.003236865 -0.0914388 0.04755525 -0.088079736 0.0214825 -0.06100301 -0.18816519 -0.13237652
0.123660766 0.10691052 0.011188164 -0.13413197 -0.06413124 0.12776989 0.108073436 -0.09574956
-0.027222574 -0.045420907 -0.013604475 0.10305246 -0.036535673 -0.034199636 -0.003785003 0.08179021
-0.0766779 -0.13782957 0.101552926 0.037668604 -0.11801225 -0.043500915 -0.15228619 0.13445504
0.077764325 -0.05164472 -0.06695464 0.14343171 -0.016834607 -0.11082248 -0.04248723 -0.0747636
-0.085926056 0.054694165 0.15006831 -0.032034304 0.1360989 -0.02172174 -0.051269587 -0.0024736302
0.13887116 0.025656924 -0.06349159 -0.17335448 -0.00768127 -0.16607793 0.081559464 0.032927744
0.03644651 0.043676954 -0.017566906 0.07833915 -0.05862742 0.09830497 -0.098829046 -0.10835961
-0.08037904 0.039852496 0.00825243 0.053237297 0.0842055 0.048290636 -0.11436765 0.027877921
-0.12725829 -0.15413065 0.0070937616 -0.13448943 -0.020291895 -0.03157082 0.028185606 -0.06877524
-0.07993267 -0.051297255 0.14358343 0.033162262 0.13171518 -0.035856586 0.040872164 -0.08200157
0.07446231 -0.01719011 -0.079685986 0.15192333 -0.11509221 -0.009005224 0.14386125 0.029209731
-0.04531694 0.104297556 -0.01925589 0.051338576 -0.08909698 0.0645692 -0.036000106 -0.055271376
-0.061243027 0.076376975 0.03409791 -0.013400437 0.10727152 -0.035512872 -0.02461828 -0.079532206

fc1.bias f4 [128]
00000000: d45b bfbc 8db2 cc3d 85e5 013e b7fd ce3d
00000010: 82db 5a3d ba9f 8bbc ac4a 933d 3c9d 1cbd
00000020: 6110 d33d 497b c73d 8f96 17be 3131 41bd
00000030: f85f 24be f2c8 813d a025 073c bd0b 06be
00000040: 08c9 173e 8e35 5e3d 4ed7 023e d16c de3d
00000050: fb04 253e c83d 56bd 08b3 f7bd 3c7c 9bbd
00000060: f408 963d d899 163e 7a71 233e a7ab 11be
00000070: 07f4 c7bd dbc1 813c 7048 6d3d 059e 52bd
00000080: 1fe0 c03d c1e0 18be 02c6 133b e6d7 0fbe
00000090: 1f9a f5bd d84a 8b3d 4c19 23be eee2 06be
000000a0: b6d5 90bd 0241 8f3d 3819 3ebd 33d5 aebd
000000b0: 78df 0ebe 35cc 12be 4b10 813c 6bb4 0d3d
000000c0: 79cb 60bd ce08 af3d 2f35 01be 0d19 26bd
000000d0: b9cb fdbc 5e37 24be 97f7 12bd 77eb 023d
000000e0: bb6c cfbd 95e4 0bbe 3c6a 0c3e 1e84 95bd
000000f0: 9a14 d5bd 063b 2e3d 5ac8 bbbc 1d92 2fbd
00000100: bbaf f43d ef65 97bb a889 703c 05f4 0a3e
00000110: 7f3d 84bd 8578 28bd 6707 af3d a713 983d
00000120: d829 f03d 982f b43c c447 193e 0418 03ba
00000130: b8b0 143b b4c3 fbbd 14f4 253d 52b9 deb9
00000140: 7129 05be da46 afbd 5e4b 093e 17be 02be
00000150: a991 123e b398 e9bd 69c7 093e b10b 1d3e
00000160: 91cd debd 5663 94bd 0feb 823d 6603 113d
00000170: 5816 b13d 6f1c 933d ec75 ec3d 3ad9 043e
00000180: 9f87 0d3e 4d7d e9bd 7aaa a13c 01a2 86bc
00000190: 27a2 87bd 60e4 fcbd e993 963d a4dc 4cbd
000001a0: 5ab1 86bc 64a8 e43d 8ffc 0e3e daab 5a3d
000001b0: 11b3 033e c083 46bc 3232 b6bd 6fe5 91bd
000001c0: cb86 cbbd 4042 ab3d e68b 203e af59 b03d
000001d0: 7f66 933d 38fe 673d 354b c83c bf7a ee3d
000001e0: d0ff c13c b9c4 b2bd 778f dc3d a186 9b3d
000001f0: 6c47 e2bd 3894 ff3b f008 1b3e 492d 4fbd
-0.023359217 0.09994993 0.12685211 0.10106986 0.053431995 -0.017043937 0.07191977 -0.038235888
0.103058584 0.09740312 -0.14803527 -0.047166053 -0.16052234 0.063371554 0.008248717 -0.13090415
0.14822781 0.054250292 0.12777445 0.10860599 0.16115181 -0.052305013 -0.120946944 -0.07592055
0.073259264 0.14707124 0.15961257 -0.14225636 -0.097633414 0.015839508 0.05793041 -0.05142023
0.09417748 -0.14929487 0.0022548442 -0.14047202 -0.11992287 0.06801385 -0.15927619 -0.13172504
-0.07072012 0.06994821 -0.04641077 -0.08536758 -0.13952434 -0.14335711 0.01575484 0.034595888
-0.054881547 0.08546601 -0.12617944 -0.040551234 -0.030980932 -0.16036746 -0.03588065 0.031962838
-0.101281606 -0.13661416 0.137124 -0.0730059 -0.1040432 0.042536758 -0.022922684 -0.042863954
0.119475804 -0.0046203057 0.014681257 0.13569649 -0.06457042 -0.04113056 0.08546334 0.074256234
0.11726731 0.02199535 0.14968783 -0.0005000832 0.002268834 -0.12293187 0.040515974 -0.00042481214
-0.1300409 -0.08558436 0.13407657 -0.12767826 0.14313377 -0.11406078 0.13454975 0.15336491
-0.108790524 -0.07245509 0.0639249 0.03540363 0.0864684 0.07183158 0.11545929 0.1297349
0.13821267 -0.11400852 0.01973461 -0.016434671 -0.06622725 -0.123482466 0.073524304 -0.050015107
-0.01644199 0.111649305 0.13963531 0.053386547 0.12861277 -0.012116373 -0.08896293 -0.07123839
-0.09937819 0.083622456 0.15678367 0.08610856 0.07197284 0.056638926 0.024449924 0.11644506
0.023681551 -0.08728928 0.10769551 0.07594038 -0.11048779 0.0077996515 0.15140128 -0.050580297

bn1.weight f4 [128]
00000000: 8ae3 7b3f 73ae 843f c6cb 7f3f 92c8 803f
00000010: 3a16 7a3f 979e 823f 8205 7e3f fea1 7f3f
00000020: 0f24 843f b174 7d3f 395e 7f3f cc39 7e3f
00000030: c5f5 813f b7da 7b3f bd04 803f 7c9b 803f
00000040: 4db0 7d3f cea8 7a3f ad9b 843f 8368 7e3f
00000050: 4888 833f 8616 803f d011 7f3f 93eb 793f
00000060: c7bf 813f ffa1 7b3f 074c 793f b743 813f
00000070: 845d 7e3f 68d7 793f 7045 743f 657d 7d3f
00000080: b153 813f 6ae3 793f 8c3c 803f 9bf9 883f
00000090: a14c 7e3f 0fe6 833f 899a 7d3f fe8f 823f
000000a0: ff34 843f 33d6 733f 1442 813f 7605 7c3f
000000b0: a45f 823f 2eb8 783f 1737 873f ebc4 853f
000000c0: 9fcd 7e3f 663e 7a3f 7d5d 823f 6f19 7c3f
000000d0: 5335 853f 55ca 7b3f 65b1 7b3f e4bd 8d3f
000000e0: e32b 813f e839 7e3f f938 813f 4c2a 833f
000000f0: dc15 793f 8255 813f 4655 7e3f de9a 803f
00000100: bf6c 873f 18bc 813f b3c2 823f 6141 823f
00000110: 117c 7f3f 0912 7d3f c732 803f 5b98 803f
00000120: 0962 7b3f 250e 883f c27e 813f 63bd 833f
00000130: b0d7 763f 5c98 7b3f 0767 7a3f 0a39 763f
00000140: d377 7a3f e80f 823f be9a 793f 1922 793f
00000150: 2789 7e3f 838f 7a3f eaac 7f3f 1e21 853f
00000160: d0ff 793f 709a 763f b91f 7b3f 931f 7d3f
00000170: 73c6 813f 9dd3 7d3f 26e0 7f3f 7334 813f
00000180: b328 883f ee1d 803f f5c4 793f d293 7d3f
00000190: a22e 803f 6773 883f 2e1f 823f 2338 7d3f
000001a0: 2045 7b3f ed19 893f 1379 7f3f 93fb 793f
000001b0: e550 7e3f 0fc0 7c3f 3910 823f 017e 813f
000001c0: 89f8 823f cc13 833f d809 7d3f e1ef 783f
000001d0: 0481 883f 6788 793f 558a 803f f6f3 803f
000001e0: 43f0 763f 82a2 803f 168c 7c3f 1e23 7c3f
000001f0: 1822 773f 9d9a 783f 7f1f 7f3f 76cd 813f
0.9839407 1.0365738 0.9992031 1.0061209 0.97690165 1.0204648 0.99227154 0.99856555
1.0323504 0.9900618 0.9975315 0.9930694 1.0153128 0.9838061 1.0001446 1.004745
0.9909714 0.97913826 1.0360008 0.9937822 1.0275965 1.0006874 0.99636555 0.9762508
1.0136651 0.9829406 0.97381634 1.009879 0.99361444 0.9759431 0.95418453 0.9901946
1.0103666 0.9761263 1.0018477 1.0701174 0.99335676 1.0304583 0.99063927 1.0200193
1.0328673 0.9524872 1.009829 0.9844583 1.0185437 0.97156036 1.0563687 1.045072
0.995325 0.9775146 1.018478 0.9847631 1.0406898 0.9835561 0.9831756 1.1073575
1.0091518 0.9930711 1.0095512 1.0247283 0.9729898 1.010422 0.99348867 1.0047262
1.0580062 1.0135527 1.0215667 1.0176202 0.99798685 0.98855644 1.0015496 1.0046495
0.98196465 1.0629317 1.0116808 1.0292171 0.96422863 0.98279357 0.9781346 0.96180785
0.9783909 1.0161104 0.9750174 0.97317654 0.9942803 0.9787523 0.9987322 1.0400732
0.97655964 0.963294 0.9809528 0.98876303 1.0138687 0.9915102 0.999514 1.0094131
1.063742 1.0009134 0.9756616 0.9905368 1.0014231 1.0660218 1.0165765 0.9891378
0.9815235 1.0711037 0.9979412 0.97649497 0.99342185 0.9873056 1.0161201 1.0116578
1.0232097 1.0240417 0.98843145 0.97241026 1.0664372 0.9747376 1.0042216 1.0074451
0.9646036 1.0049593 0.98651254 0.98491085 0.965364 0.9711092 0.99657434 1.0140827

bn1.bias f4 [128]
00000000: 4021 26bd 0e55 d73b 35f7 c3bb 5bf8 b13a
00000010: 98de 11bc 2ee1 5c3d 3f82 e5bc 5d20 a0bc
00000020: 3da6 9d3d 17c6 dabc a24d 27bc cb4e 03bc
00000030: dc06 22bd 7cd7 b9bc db24 14bd 9f0b 0ebd
00000040: 64af 22bd b0fd d2bc dc7f 5e3d b3e7 67bd
00000050: f1b8 c7bb fc92 b13c d88a b5bc 2508 cbbc
00000060: 2573 98bc d388 56bd bb4d 26bd 4299 91bd
00000070: 16f7 983c f073 3bbd ac90 07bd 86b6 19bc
00000080: 6d7f c5bc f154 32bd d0a9 8abd 172f 463d
00000090: 0b7d bd3c 26a6 b13c b0d6 42bd ba39 a3bc
000000a0: 14a1 413d a1b8 2e3c 4409 043d 7063 cdbc
000000b0: c012 33bd fcae 35bd 5d7c f0bb b33b 10bb
000000c0: 710a 08bd 6c54 32bd 7895 0b3d 327b 17bd
000000d0: 2a72 4a3d 979d 2f3c 8046 21bd 0076 a2bc
000000e0: 91b2 94bc d1bd 2bbd d73b 853c f1a6 443d
000000f0: 6e53 c6bc fe91 633c 7eb5 2abd 9cbd 94bc
00000100: a2a0 8f3c 8bf5 c4bc 9be8 f9ba 7b24 a0bd
00000110: e076 b1bc e930 b8bc 2091 02bd 87b2 bd3b
00000120: 90e8 bfbc 2a10 1e3d 468f 26bd fa15 a43c
00000130: 6336 8fbc e9cb 06bd da74 76bd caf3 79bd
00000140: e1b6 a8bc cbce 3fbd 08c0 b9bc 11c4 ffbc
00000150: 17bb 46ba 0078 08bd 6d29 1e3d 58ba 4a3d
00000160: 59b6 c9bc 5760 b0bb a090 19bd 86be edbc
00000170: 46e5 183c 75fe fe3c 15fd 1c3b e76d 353c
00000180: baa1 343d 2f46 ac3b f44f 01bd a1a7 f1bc
00000190: 6e51 0c3d 6b94 103d d2b5 5cbd 49a4 003d
000001a0: 7b91 abbc 943f 983b c02f 1fbd 3dd4 01bd
000001b0: 11ea 7f3c 6f36 a6bb 8535 11bd 94b4 5fbd
000001c0: 6aa5 323d 7b91 dfbc 1c8b 50bc 32f2 04bd
000001d0: cc73 4dbc 734e fbbc a2f6 96bd 9a82 79bc
000001e0: 2e9d 14bd 84da 05bd 3373 c3bc 8e7d 4abd
000001f0: 375a 31bd 58a2 3cbd 1af3 c63c 8cfb 20bc
-0.040559053 0.0065714186 -0.005980397 0.0013578044 -0.008903168 0.053925686 -0.028016208 -0.019546682
0.07697723 -0.026705785 -0.01021138 -0.008014391 -0.039557323 -0.022685759 -0.03616796 -0.03467905
-0.039718047 -0.025755733 0.054321155 -0.05661745 -0.006095045 0.021676533 -0.022160932 -0.024784157
-0.018609593 -0.05237658 -0.040601473 -0.0710931 0.018672507 -0.045764863 -0.033096954 -0.009381896
-0.024108613 -0.043538038 -0.067706704 0.048384752 0.023130914 0.021685671 -0.047568023 -0.019924987
0.047272757 0.010664136 0.0322354 -0.02507183 -0.043719053 -0.04435633 -0.007339044 -0.002200824
-0.033213083 -0.043537542 0.03407809 -0.036982723 0.04942528 0.010718725 -0.039373875 -0.019831657
-0.018151553 -0.04192907 0.016263885 0.04801077 -0.024209704 0.013889788 -0.04167699 -0.018156819
0.01753265 -0.024042865 -0.0019066514 -0.07819458 -0.02166313 -0.02248426 -0.031876683 0.0057891044
-0.023426324 0.038589634 -0.04066398 0.02003001 -0.017481988 -0.032909308 -0.060170032 -0.06102351
-0.020595016 -0.046828073 -0.022674575 -0.031221421 -0.0007580979 -0.033317566 0.038613725 0.049494117
-0.024623083 -0.0053825784 -0.03749144 -0.029021513 0.009332007 0.031127194 0.002395456 0.011073566
0.044099547 0.00525739 -0.03157039 -0.029498877 0.034257345 0.035297792 -0.053884335 0.031406675
-0.020943394 0.004646251 -0.038863897 -0.031696547 0.015619771 -0.005072407 -0.03545143 -0.054615572
0.043614782 -0.02729105 -0.012728479 -0.032457538 -0.012539815 -0.030677056 -0.0737126 -0.015228892
-0.03628271 -0.032679096 -0.023858642 -0.049436145 -0.043298926 -0.04605326 0.024285842 -0.009825598

bn1.running_mean f4 [128]
00000000: 90d6 d2bc 832f cc3d 3db1 f53d 13f1 bf3d
00000010: 336c 593d 3330 a6bc 3b7c 933d 7aa3 18bd
00000020: d5b3 d53d a8d9 d53d 4efa 16be 4c95 41bd
00000030: 940b 23be 37d2 843d 40ea 353c 08f9 06be
00000040: 990f 183e dfda 483d 234f 043e 2acf ed3d
00000050: ec30 233e c6f2 5dbd c7b0 febd 58dd 9fbd
00000060: f2f6 a13d a1ea 163e ce4a 1f3e 078b 0dbe
00000070: 1640 cbbd 3b1d 613c 7f69 573d cee8 3ebd
00000080: 35f7 c33d 6e52 16be cec1 b93b 22b3 0fbe
00000090: 7f2b f8bd 5bc1 8b3d d7cc 21be 902c 09be
000000a0: 71dd 8ebd 1eb1 7b3d 82a0 4dbd cbf3 adbd
000000b0: a577 0abe f241 14be 27dc 5c3c 877d 063d
000000c0: a007 54bd 464d b13d dd68 02be 50fb 26bd
000000d0: 8d01 0bbd b1a5 22be f687 fabc c5f1 f73c
000000e0: 3de3 d9bd 964f 08be 8e01 083e da15 99bd
000000f0: 9ec7 e0bd 168a 373d 979d a3bc ab30 2dbd
00000100: 81d1 f53d f424 95bb d35b 8e3c 4eae 0e3e
00000110: b4c6 87bd 96f3 1dbd 7e11 b53d 3568 963d
00000120: 11a7 f43d 86e8 b33c 07b2 183e 4eb3 01bb
00000130: 69d3 e03b 3fe2 fbbd e34d 3f3d a9db b4bb
00000140: b37a 04be b3bc a7bd 5fc8 053e 904e fabd
00000150: acbc 113e 3569 e4bd 26a6 083e dacc 203e
00000160: de25 dabd 4cf2 abbd 5a7b 873d 2fb8 223d
00000170: 5299 b63d 074a 993d c66b e53d 793c fd3d
00000180: 5bf6 0c3e 8beb e9bd 1cc6 af3c 93a1 6cbc
00000190: e3c3 82bd ac14 fbbd 931b 9a3d 1ca2 38bd
000001a0: bd3d 8dbc 4444 e53d fbf1 0e3e 3391 633d
000001b0: fdd3 033e ea5c 65bc 6f4b b2bd 73c2 89bd
000001c0: 1a9b cdbd 7d23 b23d c69f 1c3e 77c0 9c3d
000001d0: 0e49 923d 508c 613d 5e90 dd3c 9e03 e93d
000001e0: 9742 e03c 3451 a9bd 775b de3d 92a7 a73d
000001f0: 093e dfbd cbe7 033c 7bb1 183e cf5e 50bd
-0.025737077 0.0997 0.11996696 0.09372153 0.053081702 -0.020286655 0.072014295 -0.03726528
0.10434691 0.10441905 -0.14743921 -0.04726152 -0.15922385 0.06485408 0.011103213 -0.13180935
0.148497 0.049036857 0.12920813 0.11611779 0.15936631 -0.054186605 -0.12436061 -0.0780589
0.07908429 0.14737941 0.1555588 -0.13822566 -0.09924333 0.013739879 0.052590843 -0.04660874
0.095686354 -0.14679882 0.0056688553 -0.14033177 -0.12117671 0.06823989 -0.15800796 -0.13395905
-0.0697583 0.06144821 -0.0502019 -0.084937654 -0.13522203 -0.14478281 0.013480223 0.032834556
-0.051765084 0.08657317 -0.12735315 -0.040767014 -0.033937026 -0.15883519 -0.03058241 0.030266652
-0.106390454 -0.1331161 0.13281843 -0.07474871 -0.10975574 0.044809423 -0.019972606 -0.04228274
0.1200285 -0.0045515243 0.01737777 0.1393368 -0.066296965 -0.03856238 0.08841227 0.07344095
0.11945928 0.021961462 0.14911662 -0.0019790712 0.0068611396 -0.122990124 0.046705138 -0.0055193496
-0.12937431 -0.081902884 0.13064717 -0.12222016 0.14232129 -0.11152879 0.1334463 0.15703145
-0.10651754 -0.08395824 0.06615324 0.039726432 0.08915962 0.07484823 0.11202197 0.1236505
0.13765852 -0.114218794 0.02145677 -0.014442819 -0.06385019 -0.12259802 0.075247906 -0.045076475
-0.017241353 0.11194661 0.13959496 0.055558395 0.12873836 -0.013999203 -0.08705794 -0.06726541
-0.10039349 0.08698175 0.15295324 0.07653897 0.0714284 0.055065453 0.027046379 0.11377643
0.027375503 -0.082674414 0.10857289 0.081862584 -0.10900504 0.008050869 0.14911453 -0.050871667

bn1.running_var f4 [128]
00000000: 998f 443e 901a a53e a42b 7d3f 8d56 bc3f
00000010: 575a 533e 5363 7c3e cf65 243e 2b01 4e3e
00000020: d7e6 fa3d 9850 6c3f e539 ae3e 92bf 723e
00000030: 0bdc 863d 2b09 383e 671b c23d 9316 db3e
00000040: 79a2 833e 317c f33e ffae c93d b09b 623f
00000050: 4321 183e 2357 ad3e f4a3 d73f 8bc4 453f
00000060: 4395 573f 6622 773e 985d 8d3e 9209 ba3e
00000070: aa54 703e ff11 a03e 139e bc3f a884 b83e
00000080: aa46 a03e ef1d f03e 9d44 9e3e dcab 743e
00000090: 9d4c 183f 6ba9 c13e 31f6 e93d 0c4b d63e
000000a0: bef7 8e3e 7a51 2a40 1e20 ce3f ddd0 1f3e
000000b0: cb98 173f fd53 053e fa7a ef3d 04e5 2e3e
000000c0: 27f7 be3e fc9f b73e 31df e43d 6b6a 393e
000000d0: 6081 343e 32cc 763e 3327 5d3f 2129 bd3d
000000e0: c283 e03e 8515 bd3e 7533 673f 25e2 253e
000000f0: 8e46 823f 0bf3 1c3e b9c3 1a3f 9df1 aa3e
00000100: 3c6d 1f3e e8ed be3d 13ac d73e 5588 b43e
00000110: f180 253e 088c 963e b888 173e 02e6 573e
00000120: 6a23 cd3e 7a7c 023e b6d3 423e cbb3 c83d
00000130: 3416 983e 23dd b43e ad4c 313f 5fa9 f93e
00000140: fe26 443e d082 d63e 5e69 c43e bb1d 523f
00000150: a981 883e 0f7b 5f3e 8e37 d93e c72c 023e
00000160: 0ece 9a3e 1e52 3340 2312 e73e 2857 633f
00000170: 89e3 433e caf0 a43e 684b 4d3f b6a4 493f
00000180: 20d3 323e 117a 833e 4313 5c3e 1418 9f3e
00000190: 21d0 cc3e 68f6 403e 9760 a93e 4d27 893f
000001a0: a95e ae3e 720a b93d 4a8f 883e 6695 8d3e
000001b0: 747a 1d3e 4d61 df3e 069e ab3e 28e4 5c3f
000001c0: c876 9b3e f6c3 d93e ce54 023f dab2 1140
000001d0: 2427 0c3f 35de 1b3e 1381 d33e 0560 103e
000001e0: d125 3d3e e492 263f d79e f33d 3df9 403f
000001f0: 6df0 943e fdd6 c23e fa0f 2c3e 59af 7b3e
0.19195403 0.32246828 0.98894715 1.4713913 0.2063993 0.24647264 0.16054462 0.20117633
0.122510605 0.92310476 0.34028545 0.23705891 0.065849386 0.17972247 0.09477883 0.4279066
0.25709894 0.47555688 0.09847831 0.8851881 0.14856438 0.33855543 1.684691 0.77253026
0.8421213 0.24134216 0.2761047 0.36335427 0.23469797 0.3126373 1.473574 0.3603871
0.31303912 0.46897838 0.30911723 0.23893684 0.594919 0.37824568 0.114239104 0.4185413
0.27923387 2.661223 1.6103551 0.15607019 0.5921752 0.1302032 0.11693378 0.1707955
0.37297937 0.35864246 0.11175383 0.18107001 0.17627478 0.24101332 0.8638794 0.0923636
0.43850523 0.3693048 0.9031289 0.16199549 1.0177782 0.15327089 0.604549 0.3338746
0.15569013 0.09322721 0.4212347 0.35260263 0.16162468 0.2940371 0.14798248 0.21083835
0.4006608 0.12742797 0.19026074 0.09799918 0.2970444 0.35324964 0.6925762 0.48762032
0.191555 0.41896677 0.3836164 0.82076615 0.26661423 0.21824287 0.42425197 0.12712394
0.30235332 2.801887 0.45131025 0.88804865 0.19129767 0.32214957 0.80193186 0.78766954
0.1746335 0.25679067 0.21491723 0.31073058 0.4000254 0.18843997 0.33081505 1.0715119
0.34056595 0.090351954 0.2667182 0.27653044 0.15378743 0.43628922 0.33519 0.8628564
0.3036406 0.4253232 0.5091065 2.2765412 0.54747224 0.15221484 0.41309413 0.14099129
0.18471457 0.6506789 0.11895531 0.7538031 0.2908968 0.38054648 0.1680297 0.24578609

fc2.weight f4 [64, 128]
00000000: b755 3fbd 6ba7 33bb 90c7 72bd 76a1 bbbc
00000010: e0f4 f63c 03e9 15bd f698 e4bc b90b 88bc
00000020: f02c 1abd e3d0 b5bd 9f09 33bc 120c 76bd
00000030: 29a8 a0bc cf93 593d 6242 59bd 374b fdbc
00000040: 3465 dd3c 7e3c 85bd 7547 2bbd 5182 8ebd
00000050: 6e26 543d 30e8 55bd 52ad 92bd 15be 92bd
00000060: bfa3 6f3b 420a 4a3d c2b5 ab3c 60c4 b43c
00000070: cf93 893d a2ee aabc 31ab 943d dd7e 8e3d
00000080: 967c 56bd e5d6 5d3c 3bcf a6bd aaba c53c
00000090: 7f9a 6d3d 810c 05bd ddd8 3ebd 494e 4d3d
000000a0: 9a33 ef3c 0553 80bd 13d0 51bd 6f80 573d
000000b0: c650 523c 574d 92bc 985a 29bc 5603 503d
000000c0: 53b4 883b 409a 8d3d 975d 8ebd 3873 413d
000000d0: 851d b9bd da6f 67bd 2583 003d 758e 64bd
000000e0: 6cb5 0e3c 6dfe 7ebc bd31 6e3d 5ddf 043d
000000f0: eeff aa3b b561 85bd c438 30bd 92d8 bcbc
00000100: 5550 093d 4d7a 733d dac5 623d 9a85 093d
00000110: c560 573d 8799 81bd 2273 59bd fea4 ab3b
00000120: 1820 b83d 515a 5ebd 7c1d c1bd 0cb1 3b3c
00000130: 882e 94bc 6278 2dbd 193c 7d3d d064 24bd
00000140: b30f 7abd 6f03 76bd 636d bbbd 9c4e aabd
00000150: c769 84bc 0531 cbbd 6661 5c3d 3dc0 0abd
00000160: 276c 8fbd 4537 82bb 245f 373d b214 3ebd
00000170: 8395 6cbd fcb2 12bc dcc0 553d a45d d53b
00000180: f571 413c cd4f 12bd 9780 c1bd 59c3 a43d
00000190: 2082 79bd 6abd cbbd faa8 acbc b86d 8ebc
000001a0: abb9 9fbd 90a6 933b 4145 143d 35e0 a33c
000001b0: e99b f83c bc85 6b3c 5eb0 b23d 0788 80bc
000001c0: e187 cabd 68e5 8d3d ccc9 08bc 0650 ddbc
000001d0: 6f68 bbbd 293e 41bd 6db8 d4bb 92ef 8cbb
000001e0: f56c 85bb aa6f 643d d870 e4bb c19e 03bc
000001f0: de3a b4bc a30d f9bb 465d 1abd 8d8a 9b3d
00000200: 35df e4bb 6198 b23c bf54 e53d 1933 b33d
00000210: a4b2 0fbd 8b89 78bd 0ac1 ae3d 27a7 783c
00000220: 6a0a 15bc d289 75bd 2e29 7dbc d9a3 603d
00000230: 45a3 37bb 0bd9 4e3d e951 6f3d bbde 4bbc
00000240: 51e8 f13c faab df3c 2ecd ecbc b3e1 21bb
00000250: 1ef1 ba3c 6db9 a7bc 2b35 6ebc 7256 863d
00000260: 9009 07bd 458d 36bd 81f8 c5bc 561b c13b
00000270: e996 6abc 509c febc 9421 e0ba 4b02 a53c
00000280: 4390 bc3d 7f5b 843d d658 43bd 6ae3 583c
00000290: ba08 b1bc fd43 eabc 90db 7cbd 5777 01bd
000002a0: 6638 51bd b53d 833d 6949 26bd fdb4 82bc
000002b0: 2caf 0dbd 52e8 6c3d 41a9 a03d 9f21 c03d
000002c0: 6538 1dbc 1856 35bc 06b2 b4bb ed00 fb3c
000002d0: 974a c6bd f501 9c3d 07a5 763d 6901 1c3d
000002e0: 91fb 96bd 3162 1f3d c159 743d 31d3 b8bd
000002f0: 418c 983d 0a08 e03b 4aa3 aabd d49b 7cbb
00000300: 8df9 c2bd 6c54 46bd 3799 c13d 1086 783d
00000310: 3fd9 09bd acb2 383d 3064 5ebd 92a0 ecbb
00000320: 6a6d 013c c7e0 04be da37 25bd e19e adbb
00000330: a849 bbbc 04b0 043d 8e63 103c 8230 40bd
00000340: aec3 78bd 4374 4d3d 2d6c a93d 3dac 7bbc
00000350: 4569 df3c f224 633d 23db 5abd 55d0 cebd
00000360: a1b7 8cbc 7f0f 533b 9de6 bfbd a141 553d
00000370: 3ce2 073d edd7 8abd e1cb afbd f20b d7bb
00000380: e9c4 0cbc 0723 91bd 6030 8c3d cb75 473c
00000390: cdb9 9abd cabc de3b e414 5b3d 0ff9 64bd
000003a0: 9f85 2dbc 9762 d33d 70d9 02bd af2e bd3d
000003b0: d8cc 8fbc 4274 b73d 1584 b5bc 9adf fbbc
000003c0: eb48 aa3d 1f8e 163d 3151 d33c 672b e43d
000003d0: 3425 f53c 4bf9 b5bd cac0 32bd 36d4 8abd
000003e0: 82c4 c13c d44b 25bc 373c 85bd 732e f33c
000003f0: d3be d2bc 16cd 613c d4e3 383b 68ef c4bd
-0.046712603 -0.0027413021 -0.05927235 -0.022904139 0.030146062 -0.03659917 -0.027904969 -0.016607152
-0.037640512 -0.088777326 -0.010927587 -0.060070105 -0.019611435 0.053119477 -0.053041823 -0.030919654
0.027025796 -0.065056786 -0.041816194 -0.0695845 0.051794462 -0.052223384 -0.071619645 -0.071651615
0.0036566106 0.04932619 0.020960692 0.022066295 0.067176454 -0.020865742 0.07259215 0.06957791
-0.05236491 0.013540004 -0.08144995 0.02413686 0.058008667 -0.032482628 -0.046593536 0.050123487
0.02919941 -0.06265835 -0.051223826 0.05261272 0.012836641 -0.017859144 -0.010336541 0.05078443
0.004171887 0.069141865 -0.069514446 0.04722902 -0.090388335 -0.056503154 0.03137507 -0.05579992
0.0087102465 -0.0155635895 0.058152903 0.03243958 0.0052184975 -0.06512777 -0.043022886 -0.023052488
0.033523876 0.059442807 0.055364467 0.033574678 0.05258252 -0.06328111 -0.053088315 0.0052381745
0.089904964 -0.05428535 -0.09429452 0.0114557855 -0.018088594 -0.042351134 0.06182489 -0.040135205
-0.06105013 -0.06006187 -0.09151723 -0.08315775 -0.01616372 -0.09921459 0.053803824 -0.03387474
-0.0700305 -0.003973874 0.044768468 -0.046406455 -0.057759773 -0.008953806 0.05218588 0.006511407
0.011806955 -0.035720635 -0.09448355 0.08045072 -0.060915112 -0.09948237 -0.021076668 -0.017386302
-0.07799085 0.00450594 0.03619886 0.020004371 0.030347781 0.0143751465 0.087250456 -0.015689863
-0.09889198 0.069285214 -0.008348893 -0.027015697 -0.091507785 -0.04717842 -0.006491712 -0.00430102
-0.0040718266 0.055770554 -0.00697146 -0.008033455 -0.022000726 -0.0076005026 -0.03768661 0.07594786
-0.006984616 0.021801176 0.11197805 0.087499805 -0.035082474 -0.060678046 0.08532913 0.015176571
-0.009096721 -0.05994589 -0.0154517125 0.054843757 -0.00280209 0.050499957 0.058427725 -0.01244324
0.029529722 0.027303685 -0.028906431 -0.0024701178 0.022820052 -0.02047416 -0.014539043 0.06559457
-0.032968104 -0.04456832 -0.024166347 0.0058931513 -0.014318206 -0.031080395 -0.0017099851 0.020142695
0.09207203 0.06462764 -0.047692142 0.0132378135 -0.021610606 -0.028596872 -0.06173283 -0.031607952
-0.051079176 0.06408254 -0.040597353 -0.015955443 -0.034590885 0.057838745 0.078447826 0.09381413
-0.009595965 -0.01106789 -0.005514386 0.03064009 -0.09682196 0.07617561 0.060215976 0.038087282
-0.07372201 0.038912002 0.05965591 -0.090246566 0.07448626 0.006836896 -0.08331926 -0.003854503
-0.09520254 -0.048420355 0.094530515 0.060674727 -0.033654448 0.04509227 -0.054294765 -0.00722129
0.0078996215 -0.12976371 -0.040336467 -0.005298481 -0.02286227 0.032394424 0.008812798 -0.04692126
-0.06073349 0.050159704 0.08272586 -0.015360889 0.027271876 0.055455156 -0.05343164 -0.1009833
-0.017177405 0.0032205281 -0.09370158 0.05206454 0.03317474 -0.06779466 -0.08583809 -0.0065627033
-0.008591869 -0.07086759 0.06845164 0.01217408 -0.0755497 0.0067974078 0.05348672 -0.055901583
-0.01059094 0.10321539 -0.031945646 0.0923742 -0.017553732 0.08957721 -0.022157708 -0.03074627
0.08314689 0.03675663 0.025795551 0.11141091 0.029924966 -0.088854395 -0.04364089 -0.06778757
0.023653273 -0.01008888 -0.06505626 0.029685235 -0.025725758 0.013781806 0.0028211968 -0.096159756

fc2.bias f4 [64]
00000000: cb1c ab3c 2613 1bbd a15c 86bd 794d 60bd
00000010: c4d5 a93d 7c0a 70bd 5416 71bb 624b aa3c
00000020: 319b 1f3b 43e7 b23c 5bc2 23bc 8d58 9bbd
00000030: 6066 16bd a3f6 89bd 0270 713d 67ed a3bd
00000040: a0f5 2a3d 4122 243d 222d 063d dfe8 2d3d
00000050: e164 cf3c 5b10 ed3c f184 a7bc 1cfa 213b
00000060: 572f 313d 9e31 abbd e8aa 1b3d 735b 77bc
00000070: 73c4 a1bd cfbd 323d bddd 973d 53e9 1fbd
00000080: 3cfa d9bc 2315 febc e92d 7b3d e76a 34bd
00000090: 4a76 ab3d 872f 853d 0eb1 9a3d 5b36 06bd
000000a0: 238c 43bd 03a3 96bc 75ab 743d 91c3 5a3d
000000b0: f530 e8bc 3d71 723d 0955 e83b 1b64 453d
000000c0: 989b a1bd 5a69 43bd aaeb 973d 1068 02bd
000000d0: 3c1b a8bc 67df 553b 1be8 89bd f7cd ad3d
000000e0: c9f8 363d 1f6e 2f3c ffdd b33d f874 2b3d
000000f0: e6bd d43c 3960 56bd ce90 12bd 20ca 56bd
0.020887753 -0.03786006 -0.06560636 -0.054761384 0.08292726 -0.05860375 -0.003678699 0.020787898
0.0024353976 0.02183879 -0.009995068 -0.07585249 -0.036718726 -0.06736495 0.05894471 -0.08004265
0.041738153 0.04007173 0.032757886 0.04245841 0.025316657 0.028938463 -0.020449134 0.0024715727
0.043258037 -0.08359073 0.038004786 -0.015097487 -0.07898798 0.043638047 0.0741534 -0.039040875
-0.026608579 -0.031015938 0.06132308 -0.044047263 0.08372171 0.06503206 0.07553302 -0.03276668
-0.047741067 -0.018388277 0.059733827 0.053409163 -0.028343657 0.059190024 0.007090215 0.04819117
-0.07891005 -0.047707893 0.07417996 -0.031837523 -0.020520799 0.003263438 -0.06733724 0.0848655
0.044670854 0.010707407 0.08782577 0.041859597 0.025969457 -0.05233786 -0.035782628 -0.052438855

bn2.weight f4 [64]
00000000: a3db 743f 6b27 863f 84c6 793f 6299 773f
00000010: 646c 813f 8e65 783f 52b5 813f babf 7b3f
00000020: 2da3 823f 019b 823f 1eee 793f 5cfb 7f3f
00000030: e739 813f 08f0 783f c4d5 853f 9703 783f
00000040: 66cf 7a3f 0672 753f 69b8 773f 8a78 733f
00000050: b02c 863f 68a5 8b3f 6aa2 863f 0716 7e3f
00000060: c5c8 803f 8720 7b3f 5d35 833f 9a93 853f
00000070: 902f 833f 55f2 7a3f e6c6 7b3f 17e1 803f
00000080: 14b5 783f 6866 7c3f 93c6 783f d8f1 813f
00000090: d422 823f a6c2 873f a7f4 893f 0dc7 7a3f
000000a0: 5048 813f d6e2 783f 4dae 7a3f 3131 7a3f
000000b0: 29fa 773f e1e7 833f 2bf1 763f 5674 813f
000000c0: 1d81 823f 41e6 833f 33f2 853f 95d9 7f3f
000000d0: 7b38 813f 32d7 763f cecf 793f f595 833f
000000e0: a996 7d3f 6c25 873f ccd5 833f e17d 803f
000000f0: a336 7f3f c548 803f d9e2 763f 9cda 783f
0.9564764 1.048078 0.97568536 0.9671842 1.0111203 0.9702996 1.013346 0.98339427
1.0206047 1.0203553 0.97628963 0.9999292 1.0095795 0.9724126 1.0455861 0.9688048
0.97972715 0.9587711 0.9676576 0.95105803 1.0482388 1.0909853 1.0518315 0.9925236
1.006127 0.9809651 1.025066 1.043567 1.024889 0.9802602 0.9835037 1.0068692
0.97151303 0.9859376 0.97178 1.015193 1.0166879 1.0606277 1.0777787 0.9795998
1.0100193 0.97221124 0.9792221 0.9773131 0.9686609 1.0305139 0.96461743 1.0113628
1.0195652 1.0304643 1.0464538 0.9994138 1.0095361 0.9642211 0.9758271 1.0280138
0.99058014 1.0558295 1.0299621 1.0038415 0.99692744 1.0022207 0.9643989 0.9720857

bn2.bias f4 [64]
00000000: 2a25 68bd b4c3 6f3d bd16 17bc 0245 62bd
00000010: 3107 85bc ce3c 49bc 375f 81bd 71f3 9f3a
00000020: 8440 8cbd 78a3 7abd 3324 8bbc 5be8 2cbd
00000030: 61f0 c8bc 63b9 afbd ead7 073d 32c6 883c
00000040: 3cc7 d6bc 159b 3cbd 7b62 87bd 9779 7cbd
00000050: 21d6 703d b95f 773d 7472 493d 2052 dfbc
00000060: 33c6 983b b199 03bd 46f2 a3bc e442 abbd
00000070: 32d4 8abd a6f8 92bd 491c f4bc a862 233d
00000080: 7a40 54bd 625d a8bc 25a7 0fbd 6429 e13b
00000090: f3ec 2bbd a3f9 8d3d 81e1 383d 2f46 13bd
000000a0: 7d96 79bd b7ee 143c 9792 8cbd c9d7 65bc
000000b0: 0496 8cbd d9a2 393d 6fc7 fabb c3d6 99bc
000000c0: 2d10 b5bd 813f 8dbd 3f54 ce3c 7d7e be3c
000000d0: e62b aabd 5e73 3cbd b1bf 34bd 675f 063d
000000e0: 3791 4dbd d98a 563d 9584 1cbc 885d 4ebd
000000f0: bebf 8ebd 7279 74bd 4122 13bd b544 60bd
-0.056676067 0.058536246 -0.00922173 -0.055241592 -0.01623878 -0.012282563 -0.06316989 0.0012203288
-0.06848243 -0.061191052 -0.016985035 -0.04221378 -0.024528684 -0.085802816 0.033164896 0.01669607
-0.02621805 -0.046046335 -0.066105805 -0.061639395 0.05879796 0.060394023 0.049181417 -0.02726084
0.004662299 -0.032128993 -0.020012986 -0.08362368 -0.06778754 -0.07176332 -0.029798644 0.039889008
-0.051819302 -0.02055234 -0.03507151 0.006871389 -0.04197402 0.0693238 0.045136932 -0.035955604
-0.060934532 0.009090117 -0.06863897 -0.014028498 -0.06864551 0.04532132 -0.007653169 -0.018779164
-0.08840976 -0.06896878 0.025186656 0.023253674 -0.08309154 -0.04600846 -0.044128124 0.032805827
-0.050187316 0.05237851 -0.009553094 -0.050382167 -0.06970166 -0.05968613 -0.03592134 -0.054753024

bn2.running_mean f4 [64]
00000000: 7d8f 8abe 95a0 16bd 0738 cdbd 68b9 913c
00000010: 3ab2 933e af46 29be e156 c43d 4a46 dcbd
00000020: 6eb1 2b3e 27fb 8b3e 1a34 b6be 7292 f2bd
00000030: b091 a83c 497a 80be 584f 0d3e 3b92 64be
00000040: 7389 f93d 07b9 b7bd a008 cf3d 1ecc 4e3e
00000050: 11c6 49be ac1a 83bd 1d15 91be d2ae fdbd
00000060: ca79 0a3c 416e dbbd c535 603e 3ee2 413c
00000070: 221a 2dbe db85 083e 1d50 aabd cce3 dcbd
00000080: 7071 82be b5b2 56be bac9 803e 9962 013e
00000090: 5b5d cb3e d003 393e ab61 a53d 7a1f 0fbe
000000a0: 6d5e c73d 4bbc 88be fed5 e0bc e9a1 233e
000000b0: 8c0c 3ebe a922 053e a5c4 a2bc c105 5c3c
000000c0: a21b ebbd 1cfc 943c 7801 a2bd 22b6 84be
000000d0: 404e dbbd 73ab 4abe b3fc d4bd 136b 15be
000000e0: 5417 c63e 8dd6 8bbc 7656 e8bd bfa4 c83e
000000f0: ef7b 113e c3cc 49bd 040b b8bd 0a93 413d
-0.27062598 -0.036774237 -0.10020452 0.017788604 0.28846914 -0.1653087 0.09586883 -0.10755594
0.16766903 0.27340052 -0.35586625 -0.118443385 0.020577282 -0.25093296 0.13799798 -0.22321407
0.121844195 -0.08970838 0.10109067 0.20195052 -0.19704463 -0.06401572 -0.2833642 -0.1238686
0.008451888 -0.10714389 0.21895511 0.0118337255 -0.169045 0.13332312 -0.08316062 -0.10785636
-0.2547717 -0.20966609 0.25153905 0.12635268 0.39719662 0.1806786 0.08075269 -0.13976851
0.09734807 -0.26706156 -0.02744579 0.15979733 -0.18559474 0.13001503 -0.019869158 0.013429106
-0.1147988 0.018186621 -0.079104364 -0.25920206 -0.107082844 -0.19791965 -0.10399761 -0.14591627
0.38689673 -0.01707008 -0.11344616 0.3918819 0.14207433 -0.04926754 -0.08986476 0.047259368

bn2.running_var f4 [64]
00000000: e150 b93e ce28 333f d6a0 c93e 95f3 233f
00000010: 64a5 133f cd67 ff3e 4892 223f c676 593f
00000020: 23e9 1c3f 40b8 433f 0f88 243f 6fb0 013f
00000030: 2f19 423f d7ce 613e 56d4 303f 3073 293f
00000040: 6765 0e3f 5d3c 173f a203 523e e5e9 f73e
00000050: e986 0d3f 2767 5f3f 62d1 ac3f 6965 1b3f
00000060: 3f73 2e3f e5bb 043f 057d 463f 67d2 7e3f
00000070: 8f0c 243f 828b b53e b2e4 0a3f ae26 0c3f
00000080: a30a ce3e 256f 903e f640 3b3f e9f8 533f
00000090: 74f9 1c3f c5d6 7c3f 6b08 2f3f 9743 0c3f
000000a0: 3440 2e3f c0ac 213f 223d f33e 6701 383f
000000b0: ee7b 4a3f a2b1 0f3f a349 fe3e 8723 5f3f
000000c0: 3057 253f 4d9b 453f 6705 573f a925 2c3f
000000d0: cfb2 103f 92b1 313f ca66 b23e 84b7 093f
000000e0: b29d 913f c291 823f 1488 563f a8e2 373f
000000f0: 2253 b13e df12 333f c226 e43e 2e18 f63e
0.36194518 0.6998414 0.3938052 0.6404355 0.5767424 0.4988388 0.6350446 0.8494686
0.6129324 0.7645302 0.6427011 0.5065984 0.7581968 0.2205156 0.69074 0.6619139
0.5562348 0.5907648 0.20509198 0.48420635 0.5528398 0.87266773 1.3501399 0.60701615
0.681446 0.51849204 0.77534515 0.995398 0.6408166 0.35458 0.5425521 0.5474652
0.4024249 0.28209797 0.73146 0.8280168 0.61318135 0.9876521 0.6837222 0.54790634
0.68066716 0.6315422 0.47507578 0.7187714 0.7909535 0.5613042 0.49665555 0.87163585
0.6458616 0.77190095 0.8399262 0.67244965 0.5652284 0.69411576 0.34844047 0.5379565
1.137625 1.0200732 0.8380139 0.71830225 0.34633738 0.6995067 0.4456082 0.48065323

fc3.weight f4 [32, 64]
00000000: 5c7f 3bbd 8aad e6bd 0134 c1bc 51ac d43d
00000010: c401 09be 9699 ccbc 6182 9ebd cef8 4d3b
00000020: 7fa5 8bbd df45 7cbd 481f 853d 8b03 8dbd
00000030: 8f1c 03bd fde8 82bd 7a43 b2bc bec9 d53d
00000040: f870 d9bc 7c2c c2bb 2bdf 263d ebb1 2b3d
00000050: 54e8 3abd d368 40be f741 dfbd 9163 fb3c
00000060: a032 09bd 5616 bbbd 1aa9 ad3d d949 583d
00000070: 73ed 00bd 7654 e8bd 7fd8 2fbd 80e3 85bd
00000080: 8178 d73c 50bb 8d3d 5185 49bd 8a30 dcbd
00000090: cda4 85bd 21cb f7bd aa5b 2abe 0c94 92bd
000000a0: 3abd bb3d 8254 223d e12d b73d bc94 b2bd
000000b0: d8d1 db3d a378 91bd f2ee 84bd f775 253d
000000c0: 74a8 ddbd 96c0 883c 3fc3 fbbd b8b3 383d
000000d0: 72da 0c3d 55af b8bc 5c2d 6f3d 4685 98bd
000000e0: 1933 7fbd 6511 45be a8ae 973d 6b69 7cbd
000000f0: 7218 b0bd a1fa 04bd 911e 573d 5d79 863d
00000100: 69a7 56bd 6766 0cbd c9d0 42bd 1de2 e5bd
00000110: 901c 8ebd 2897 56bd 5417 84bb 79a2 44bd
00000120: 7304 fa3b b21f 5abd de16 42bd 8ee8 023e
00000130: 0d0b 913d 299d 573d 8298 d03d 0e1b 8c3c
00000140: 6208 98bc b11d 88bb a2f8 8a3d 73ee 3e3c
00000150: 12b8 883c 57c6 2d3d a971 d53d 87a4 e1bc
00000160: ddbf bb3c c4ae b53c 80ba 4cbd 3e51 c9bd
00000170: e100 f0bd 9369 7bbd 05d0 813d 862f b93d
00000180: 397e d4bd 4fd8 d13c 45d0 b73d a07b 06bc
00000190: f76e 7b3c db18 b43d 1cc3 513d 3ef5 39bd
000001a0: de01 843d 5e4c f8bc 6fc9 16be 2ccc d13d
000001b0: b069 f03d b6f0 7a3d 20d8 103d ed2b 233d
000001c0: eb97 c5bd 0f02 ebbd 8a21 703d cf39 eabd
000001d0: 09f0 d0bd 95d8 c0bd 9cd5 723d 80c6 02be
000001e0: 6a2f 58bd bd54 7d3c 10da 4bbc e602 92bd
000001f0: 4de5 853c b360 a9bd 46c0 a43d afdf 993c
00000200: c0da 943d bcde 1cbd 35f0 413d fb90 933b
00000210: b8a5 b6bd 2cce 3fbd 26c0 ea3d 1d17 223d
00000220: 95a2 4e3d 986f 0d3e 11de fa3d dda1 bbbd
00000230: 91a1 953d bd5c 4e3c 44d3 e83c b4d4 87bb
00000240: cf61 0e3e 3b57 98bd 0856 6fbd 4227 963d
00000250: 2fb9 52bb 7bf3 edbd 2425 02bd 7d46 9bbd
00000260: 3aab 3a3b 70cf fd3d 688a 90bd 289d d13d
00000270: cb5e 1dbd bca0 eebd 5e3a 663d d123 c9bd
00000280: 4cea 2fbd 03a7 7c3d ce2b c53c b41e 16be
00000290: fd60 75bd e6a4 91bd 2de0 a23c 8ec2 c43d
000002a0: 2062 01bd 032a d33d 5450 acbc 9685 5d3c
000002b0: da79 933d 60a8 17be e696 89bb d9f3 a4bd
000002c0: 66ac e33d 6e1e a6bc f345 bebc 8137 87bd
000002d0: c6a6 963c 7f34 a93d 3546 b93d 2947 f33d
000002e0: 4a73 aabc 2f69 39bd f4d5 123d 2f31 563d
000002f0: d63f 4a3d a54e 1a3d e8c3 473d 51ec 2cbd
00000300: d7d5 023d 1ca1 f3bd 6686 89bb c699 11bd
00000310: 2573 c13c 1c9e 663d 1e73 0a3e f96f 413d
00000320: 3e1a 07bd b331 1dbd 352a 383d 5846 043e
00000330: 4acc bd3c d8a0 313d bc83 0dbe 3ec3 233d
00000340: f0bd 92bd 6c71 da3d 6e79 a8ba 7ddd 0a3d
00000350: 46ba 9e3d 33de 93bd 066e 20be 8602 ae3d
00000360: a36e cbbc 9852 b6bd 400e 0c3e d115 e83d
00000370: 0b5e e3bc 5a8e bb3d beed 6f3d 8947 613c
00000380: 5784 f83d ab2f c6bd a5f9 c63d 3ea9 6d3c
00000390: afe6 11be 4f71 84bd f18e 22be ccb7 adbd
000003a0: 5f41 98bd 1ea9 20bd 62c2 d53d 45fa d4bd
000003b0: 24b0 7b3d 0531 31bd bbad c43b 9df8 043d
000003c0: 0a00 993d 9133 0e3d 6db8 da3c 4f35 ae3c
000003d0: e3ee 183e 8c28 323d 4e85 943d 1f80 563d
000003e0: 6149 5f3d d44e b63c bcc7 69bd 029e 9dbd
000003f0: 7641 273d 5c1e cc3d c477 3cbd 1fe3 85bd
-0.045775756 -0.11263569 -0.023584368 0.10384429 -0.1337958 -0.02497558 -0.077397116 0.0031428817
-0.06818675 -0.06159007 0.06500107 -0.068854414 -0.032009657 -0.06392095 -0.021760691 0.1043887
-0.026543126 -0.005925713 0.040740173 0.041917723 -0.04563172 -0.18789987 -0.10901254 0.030687125
-0.033495545 -0.091351196 0.08479519 0.0528048 -0.03147645 -0.11344235 -0.042931076 -0.06537533
0.026302578 0.06920493 -0.049199406 -0.107514456 -0.06525574 -0.12099291 -0.1663653 -0.07157144
0.091669515 0.039631374 0.089442976 -0.08719775 0.10733384 -0.07103088 -0.06490888 0.040395703
-0.108231455 0.016693395 -0.122930996 0.04509327 0.034388013 -0.022544542 0.058392867 -0.07447295
-0.06230459 -0.19244917 0.0740636 -0.061623972 -0.085984126 -0.03246558 0.052519385 0.06566117
-0.05240575 -0.034277346 -0.047562394 -0.11224768 -0.069390416 -0.052390248 -0.0040311012 -0.04800651
0.007629925 -0.053252883 -0.04738509 0.12784025 0.07082186 0.052640114 0.101853386 0.017102744
-0.018558685 -0.00415393 0.06785704 0.01165353 0.016689334 0.04242548 0.104220696 -0.027544273
0.022918636 0.022178061 -0.049982548 -0.09829949 -0.11718918 -0.06137998 0.06338505 0.090422675
-0.103756376 0.02561584 0.08975271 -0.008208185 0.01534628 0.08793803 0.05121146 -0.045399897
0.06445669 -0.030309852 -0.14725278 0.10244021 0.11738908 0.061264716 0.035362363 0.039836813
-0.09648117 -0.11475002 0.058625735 -0.11436807 -0.10202033 -0.0941631 0.059285745 -0.12771034
-0.052779593 0.015462098 -0.012442127 -0.07129459 0.01634469 -0.08270397 0.08044486 0.018783418
0.07268286 -0.038298354 0.04734822 0.004503367 -0.08918327 -0.04682748 0.11462431 0.039572824
0.05044802 0.13812101 0.12249387 -0.09161732 0.07306207 0.012595353 0.028421052 -0.0041452292
0.13904499 -0.07438513 -0.058431655 0.073317066 -0.0032153835 -0.11618706 -0.0317737 -0.07581804
0.0028483407 0.12393081 -0.07057649 0.10235053 -0.03842048 -0.116517514 0.056208007 -0.098212846
-0.042948052 0.061682712 0.02406874 -0.1466015 -0.05990695 -0.0711153 0.019882286 0.09607421
-0.03158772 0.103107475 -0.021034397 0.013520619 0.07200976 -0.14810324 -0.0041988967 -0.08054323
0.11116867 -0.020278182 -0.023226714 -0.066023834 0.01839007 0.08261966 0.09046594 0.11878807
-0.020806927 -0.045266327 0.035848573 0.052293 0.049377285 0.037672658 0.048770815 -0.042217556
0.031942215 -0.118959635 -0.0041969297 -0.03554704 0.023614476 0.05630313 0.13520476 0.047225926
-0.03298401 -0.038377475 0.044962127 0.12917459 0.023168702 0.043366283 -0.13819784 0.03998112
-0.07165134 0.10666165 -0.0012853572 0.033902634 0.077503726 -0.072201155 -0.1566697 0.08496575
-0.02483303 -0.08902472 0.13677311 0.11332286 -0.027754804 0.09158011 0.058576338 0.0137499655
0.12134617 -0.09677061 0.09715585 0.0145056825 -0.14248155 -0.064669244 -0.1587484 -0.08482322
-0.074343435 -0.039223783 0.10437466 -0.103992976 0.061447278 -0.04325964 0.0060021556 0.03246366
0.074707106 0.034717146 0.02669927 0.021265654 0.14934878 0.0434957 0.07251988 0.05236828
0.05451334 0.022254385 -0.057075247 -0.07696153 0.040833913 0.09966728 -0.046012655 -0.065374605

fc3.bias f4 [32]
00000000: 1962 853d 68f7 eebd 175a 6dbd 551b 2cbd
00000010: 19b7 623c 6541 a1bd 8236 ea3d 01bb 63bd
00000020: e3b7 1a3d e25f 933c 8072 f5bd 8278 b23a
00000030: 0496 683d 1284 3cbc 8d03 a03d 705e b73d
00000040: 2a68 8ebd 9af1 53bd e316 afbd 8572 f23d
00000050: 6cfc 71bd 3961 233d 4761 c13d 5c9c 6f3d
00000060: a443 52bd 7f44 c33d 7b71 e3bd bc1b 1c3c
00000070: 2872 e6bd 93a2 953d 9346 e73d 1fe2 a83d
0.06512851 -0.11668283 -0.057947244 -0.042018253 0.013837599 -0.07873801 0.11436178 -0.055598263
0.037773024 0.017990056 -0.1198473 0.0013616236 0.05678369 -0.011506097 0.07813177 0.089535594
-0.069534615 -0.05174408 -0.08549287 0.11838249 -0.05907862 0.03988764 0.09442382 0.058498725
-0.05133404 0.09534549 -0.11105629 0.009528097 -0.11252242 0.07306399 0.11292758 0.08246254

bn3.weight f4 [32]
00000000: d0a4 823f a90a 713f 5482 7b3f 144c 773f
00000010: 0a35 873f 24ce 863f c560 803f fb78 833f
00000020: 9105 7a3f 828f 803f 7179 7f3f bdb8 833f
00000030: 9b17 7c3f 2279 733f 7474 8c3f d239 7b3f
00000040: 4bc4 803f e570 793f 26af 6c3f 7008 7a3f
00000050: 3b57 783f f84a 813f bd22 803f 3ce2 733f
00000060: 6d7f 833f 25d0 873f 6993 783f abc2 853f
00000070: 8135 773f ca59 893f a398 733f e5e6 853f
1.0206547 0.9415689 0.9824574 0.9660046 1.0563061 1.0531659 1.0029532 1.0271295
0.97664744 1.0043795 0.9979468 1.0290753 0.9847352 0.9510671 1.0973039 0.981351
1.0059904 0.9743789 0.92454755 0.97669125 0.97008103 1.0101004 1.0010601 0.9526708
1.0273262 1.0610396 0.9709993 1.0450033 0.96566015 1.0730526 0.9515478 1.0461088

bn3.bias f4 [32]
00000000: 54b7 683d bd92 3bbd af27 1e3d bb47 85bd
00000010: 35ec 7ebd 2524 a63d 65f2 adbd 04be 893d
00000020: 711c 4d3c 0e98 e63c bd34 aabd 1d18 333d
00000030: df91 b83c dd80 5cbd 7fb0 e73d 7843 30bd
00000040: b101 04bd c49a 99bc 7072 7fbd 0030 4b3c
00000050: cf75 983d 1433 423d 9760 62bc b7d7 a8bd
00000060: bf4a b13c 2408 a53d 67cd 3f3d 5891 8bbd
00000070: 77df 57bd 2267 9a3d 9628 32bd 5399 893d
0.05681546 -0.045794237 0.038612064 -0.06507822 -0.062236983 0.08112363 -0.08493499 0.06725696
0.012518988 0.028148677 -0.0831084 0.043724168 0.022530494 -0.05383383 0.11312961 -0.043033093
-0.032228176 -0.018750556 -0.062364995 0.012401581 0.07444345 0.047411993 -0.013816974 -0.08244269
0.021642087 0.08058193 0.046826746 -0.068148315 -0.052703347 0.07539202 -0.043495737 0.067186974

bn3.running_mean f4 [32]
00000000: aa0b debe b0c1 bc3b 460d 03be 3d9e 0ebe
00000010: 6652 12be c42a 0abf 37bd 323e 968e dcbe
00000020: da2e 573e c7e4 263e 0871 21be 087c d0be
00000030: f733 fa3c bd8b debc 5956 f7bd 134a 08ba
00000040: 4a46 dfbd 2621 3fbe 46f6 bbbd b511 9bbe
00000050: c785 1f3d fd7f 0fbd 5f92 a8be ff6e 7ebe
00000060: fc5f 0bbd d539 efbe 07a2 e5be 09d2 933c
00000070: a21a cebd 5735 05bf 5b10 6fbe e668 91be
-0.43368274 0.005760394 -0.12798032 -0.1392755 -0.14289245 -0.53971505 0.17454992 -0.43077534
0.21013966 0.16298209 -0.15765774 -0.40719628 0.030542357 -0.027166242 -0.120770164 -0.0005199026
-0.109020784 -0.18664989 -0.09177832 -0.30286947 0.03894594 -0.03503417 -0.32924172 -0.24847029
-0.034027085 -0.4672381 -0.4485018 0.018044489 -0.100636736 -0.52034515 -0.23346083 -0.28400344

bn3.running_var f4 [32]
00000000: fa2a 433f 3927 323f 94b4 433f e404 fe3e
00000010: 6e93 293f 1e37 563f 8fa4 643f 4859 753f
00000020: 5f44 233f 2d90 8f3f 57a1 7e3e 7b39 823f
00000030: 86b5 1e3f 9d3d 1a3f db88 6f3f 7cc2 003f
00000040: f02c 2c3f 628b 2a3f 3b8e eb3e 0248 273f
00000050: fb7e 123f e5cc 623f 0c86 7a3f d8bc 3e3e
00000060: ee04 223f 31db 8f3f f92d ed3e 0aea 4b3f
00000070: a73e ba3e a89b 2e3f ed9e 383e be64 4c3f
0.7623745 0.695911 0.76447415 0.49613106 0.66240585 0.8367785 0.89313596 0.9583936
0.637762 1.1215874 0.24866234 1.0173792 0.6199573 0.60250264 0.935682 0.5029676
0.6725607 0.6661893 0.4600695 0.6534425 0.57225007 0.88593894 0.9786079 0.18626726
0.6328877 1.1238767 0.46324137 0.7965399 0.36375925 0.6820626 0.18029375 0.7984122
