MELOSDP/SDP/chkpt/mc1/linear/15/sdp_classifier_linear-400.pth (torch, 77408 bytes, 25 tensors)

fc1.weight f4 [128, 38]
0	0x3e114138	0.14185035
1	0x3d6357ca	0.055503644
2	0x3c575705	0.013143306
3	0xbcfd80a8	-0.030945137
4	0xbd57d1b9	-0.05269024
5	0x3e36344a	0.17793384
6	0x3db39792	0.08769144
7	0x3e1d6d77	0.15373789
8	0xbc9a8464	-0.018861957
9	0xbd42becd	-0.047545243
10	0xbd4ac983	-0.049508583
11	0xbccffe27	-0.025389744
12	0x3e35f243	0.17768197
13	0xbdafa1c4	-0.08575776
14	0xbce8c2cb	-0.028413197
15	0xbd7ad865	-0.061241526
16	0x3d83d0e3	0.06436326
17	0xbdcd689b	-0.100297175
18	0x3d14247a	0.0361676
19	0x3ccc3aab	0.024930319
20	0xbe2573f4	-0.16157514
21	0x3bb2cf5c	0.005456848
22	0xbd7070dc	-0.05870138
23	0xbdf731b2	-0.120700255
24	0xbde8b47f	-0.11362552
25	0xbd0fdb17	-0.03512105
26	0xbd876ebd	-0.066129185
27	0xbd92b80d	-0.07164011
28	0x3d711e88	0.058867007
29	0xbd7bb8cc	-0.061455533
30	0x3e261465	0.16218717
31	0xbce59a93	-0.028027808
32	0x3dc97936	0.09837572
33	0xbdff0f4d	-0.1245409
34	0x3c81ddd8	0.015852854
35	0x3e05ce7d	0.1306705
36	0x3d8c382b	0.06846651
37	0x3d9a9433	0.07547798
38	0xbe3945a3	-0.1809297
39	0x3d6bde25	0.0575849
40	0x3e20df41	0.15710165
41	0x3d13be7c	0.036070332
42	0xbd5d69cb	-0.05405597
43	0x3e255896	0.16147074
44	0xbda0dc09	-0.078544684
45	0xbdc758b0	-0.09733713
46	0x3d374e49	0.044752393
47	0x3dea488f	0.11439621
48	0x3db8c50f	0.09021961
49	0x3d79e06d	0.061005045
50	0x3ddc61c6	0.10760836
51	0x3de0a4db	0.10968944
52	0x3df57a4f	0.11986219
53	0x3c835f23	0.016036576
54	0xbc843e2d	-0.016142929
55	0x3d942dbc	0.07235286
56	0xbe25a0fa	-0.16174689
57	0xbd2c3c5c	-0.04204975
58	0x3cb49269	0.02204247
59	0x3c107deb	0.008819084
60	0xbd440206	-0.047853492
61	0x3d9d7e1a	0.076900676
62	0x3e202e80	0.15642738
63	0xbe0f8f68	-0.14019549
64	0xbd17f14d	-0.037095357
65	0xbe1fb4f8	-0.15596378
66	0x3ddc874e	0.10767995
67	0x3d2cda67	0.042200472
68	0xbd8835c3	-0.06650879
69	0xbdeb7b52	-0.11498131
70	0x3cf6571e	0.030070838
71	0x3d752c80	0.05985689
72	0xbd26d0ac	-0.04072635
73	0xbddeb17b	-0.108736955
74	0x3dba6bac	0.09102568
75	0xbbd905c6	-0.0066230027
76	0x3cf97320	0.030450404
77	0xbd33c7ce	-0.04389172
78	0x3dfe4ca4	0.12416962
79	0x3cb45b47	0.02201618
80	0x3d378297	0.044802275
81	0x3e134215	0.14380677
82	0xbe09d1e8	-0.13458979
83	0x3e76f0ab	0.24115245
84	0xbde2f72c	-0.110823005
85	0xbe068f6e	-0.13140652
86	0xbd63b329	-0.055590782
87	0x3cff390b	0.03115513
88	0xbd9b8831	-0.07594336
89	0x3e077f30	0.13232112
90	0x3d98ede4	0.07467249
91	0x3c901535	0.017588237
92	0xbdf8ce50	-0.12148726
93	0x3d198329	0.0374786
94	0x3c5cceb2	0.013477014
95	0x3d1d7846	0.03844478
96	0x3e2d8cc4	0.16948229
97	0x3dea7e65	0.11449889
98	0xbde21275	-0.11038677
99	0x3bdc2f3f	0.0067194994
100	0x3e128f84	0.1431256
101	0x3d0db208	0.034593612
102	0xbd0ce9f2	-0.034402795
103	0xbdc4f99d	-0.096179225
104	0xbe07f57b	-0.13277237
105	0xbd6ae59f	-0.05734789
106	0x3e098a8e	0.1343176
107	0xbca7d2a7	-0.020486189
108	0x3dfe159f	0.12406468
109	0xbc14a97a	-0.0090736095
110	0xbca7d3a9	-0.02048667
111	0xbda54110	-0.0806905
112	0xbdab78cc	-0.083726496
113	0x3d24846d	0.040165354
114	0x3d6e5d3a	0.058194377
115	0x3e10fac1	0.14158155
116	0x3bb44139	0.005500939
117	0x3d926c60	0.07149577
118	0xbd0681b0	-0.032838523
119	0xbda49645	-0.08036474
120	0xbd9e74d9	-0.07737131
121	0x3d88ad53	0.06673684
122	0x3cf2cd3d	0.02963888
123	0x3d8ec822	0.06971766
124	0xbbc8cb7a	-0.006127772
125	0xbe164d99	-0.14678039
126	0x3c745d0e	0.014914764
127	0xbd6d859d	-0.05798875
128	0xbcaf64ba	-0.021410335
129	0xbe0c7301	-0.13715746
130	0x3d967c65	0.07347945
131	0xbdb9b7fd	-0.09068296
132	0x3c2da073	0.010597336
133	0xbe1abdec	-0.15111512
134	0x3e0b751a	0.1361889
135	0x3e04f923	0.12985663
136	0x3dadc996	0.08485715
137	0x3dceb040	0.10092211
138	0x3e1f0e2d	0.15532751
139	0xbe0c12b0	-0.13679004
140	0x3e36d1e4	0.17853504
141	0x3de51bc3	0.11186936
142	0x3dabdad7	0.0839135
143	0xbd92401e	-0.07141136
144	0x3df3d0d2	0.11905064
145	0xbe096142	-0.13416007
146	0x3e12ebce	0.14347765
147	0xbe1f7261	-0.15570976
148	0x3d6667de	0.0562514
149	0xbde8e7cb	-0.11372336
150	0xbca95501	-0.020670416
151	0x3e160248	0.14649308
152	0xbdbb828e	-0.09155761
153	0x3e42e7af	0.19033693
154	0x3dc8c7ae	0.09803711
155	0xbd452e19	-0.048139665
156	0xbd52df61	-0.051482562
157	0x3c118457	0.00888165
158	0x3c2e175c	0.0106256865
159	0xbde95f31	-0.113951094
160	0xbe0dcbe7	-0.13847314
161	0x3dd46ac5	0.10371927
162	0xbdb0cb7a	-0.0863256
163	0xbd537314	-0.05162342
164	0xbe422d59	-0.18962611
165	0xbd2d8719	-0.042365167
166	0xbd6585ec	-0.05603592
167	0xbd269c03	-0.040676128
168	0x3da14405	0.07874302
169	0xbd0ddfd2	-0.03463728
170	0x3e056fc1	0.13030912
171	0xbd3a4a6b	-0.045481127
172	0xbd1b6c5b	-0.037945133
173	0x3ca663ca	0.020311255
174	0xbd30fdcc	-0.04321079
175	0xbd2c9c51	-0.042141262
176	0xbcb521c9	-0.022110837
177	0xbda16285	-0.07880119
178	0x3e0cb358	0.13740289
179	0xbdc68888	-0.0969401
180	0x3da807a0	0.08204579
181	0x3c577b70	0.013151988
182	0x3cb5d84e	0.022197869
183	0x3e3c576d	0.18392725
184	0x3e1141cc	0.14185256
185	0xbc8915f4	-0.0167341
186	0x3e07b3ac	0.13252133
187	0xbe1a4805	-0.15066536
188	0xbe7813d5	-0.24226315
189	0xbdba17cd	-0.09086571
190	0xbe0768c6	-0.13223562
191	0x3e0778b2	0.13229635
192	0xbde148f5	-0.110002436
193	0xbc2018ac	-0.009771507
194	0x3dd4cc4c	0.10390529
195	0xbd47702d	-0.048690964
196	0xbba7afeb	-0.0051174066
197	0xbe6ad262	-0.22931817
198	0xbd92d03e	-0.07168625
199	0xbb58b44c	-0.003306645
200	0xbc91d5e0	-0.017802179
201	0x3cfe302b	0.031028828
202	0xbe06358d	-0.13106366
203	0xbcfc472e	-0.03079566
204	0xbdc9d91f	-0.09855866
205	0x3d5325ab	0.051549595
206	0xbe1ce55e	-0.15321872
207	0x3d144d40	0.036206484
208	0xbd65d841	-0.05611444
209	0x3dab82c1	0.08374549
210	0x3e02a2e3	0.12757449
211	0xbda95b7b	-0.08269402
212	0x3d079e5a	0.03311
213	0x3e018137	0.12646948
214	0x3de54ed1	0.11196674
215	0x3c81d0aa	0.01584657
216	0xbb319690	-0.00270978
217	0xbb74d2e9	-0.0037357158
218	0x3e246b34	0.1605652
219	0x3cffae8c	0.03121116
220	0xbe3043eb	-0.17213409
221	0x3ce4b691	0.027919086
222	0xbdf02252	-0.11725296
223	0xbe10370e	-0.14083502
224	0x3dcd391e	0.1002066
225	0xbcf3a2a0	-0.029740632
226	0x3d89b69f	0.06724285
227	0xbde1d901	-0.11027718
228	0x3ce05784	0.02738548
229	0x3e06f58d	0.13179608
230	0xbe06e713	-0.13174085
231	0xbde1f4c6	-0.11033015
232	0x3e1e6dbd	0.1547155
233	0x3cb378ae	0.02190813
234	0xbd98e385	-0.07465271
235	0x3e8bf8a8	0.27338147
236	0xbdbe1588	-0.092814505
237	0x3d3edb6a	0.04659597
238	0x3cb99da7	0.022658182
239	0x3c4c1aa0	0.01245752
240	0xbd7af0f3	-0.061264943
241	0x3dc7eed4	0.0976235
242	0x3d01a2c8	0.03164938
243	0x3daf3715	0.08555428
244	0xbda0cb6e	-0.07851301
245	0xbc15721d	-0.009121445
246	0xbdcfaf1d	-0.10140822
247	0x3dc1f5af	0.094706886
248	0xbd25a480	-0.040440083
249	0x3d8d721a	0.06906529
250	0xbdb2c785	-0.087294616
251	0x3c81dd77	0.015852673
252	0x3dc7aaac	0.0974935
253	0xbe03fe25	-0.12889917
254	0xbdf03dad	-0.11730514
255	0x3d88bd0c	0.06676683

fc1.bias f4 [128]
0	0x3df3c8c6	0.11903529
1	0xbd6846dd	-0.056708205
2	0x3d7926eb	0.06082813
3	0x3d1c6629	0.038183365
4	0x3cffb739	0.031215297
5	0xbe1e5aa2	-0.15464261
6	0x3d02237e	0.03177213
7	0x3dfeb3ea	0.1243666
8	0x3d886e17	0.06661623
9	0x3deecf7c	0.11660668
10	0xbe134a88	-0.143839
11	0xbe0143c2	-0.12623504
12	0x3db79a89	0.08965022
13	0x3d2ac1fa	0.041688897
14	0x3d85e72e	0.06538235
15	0x3de7b921	0.113146074
16	0x3de4ff21	0.111814745
17	0xbd0dd21c	-0.034624204
18	0xbe079604	-0.1324082
19	0xbe1789b9	-0.14798631
20	0x3dcf298c	0.10115346
21	0xbdd9a8b7	-0.10627883
22	0x3e0ac495	0.13551553
23	0xbdc447bf	-0.09583997
24	0xbdc5316c	-0.09628567
25	0xbd1cf362	-0.038318045
26	0x3da45197	0.080233745
27	0xbdab67dd	-0.0836942
28	0x3d682774	0.05667825
29	0xbd770b07	-0.06031325
30	0x3e1a38c0	0.15060711
31	0xbd7323af	-0.059360202
32	0xbdcd7973	-0.1003293
33	0x3dc18c39	0.094505735
34	0x3de84d60	0.11342883
35	0xbdbcae53	-0.09212937
36	0xbde4c07d	-0.11169527
37	0x3e07ee41	0.1327448
38	0x3ce819ed	0.028332675
39	0x3df6b3fc	0.12046048
40	0xbc9370ce	-0.017998125
41	0x3de26f2c	0.110563606
42	0xbe0d97bd	-0.13827415
43	0x3deeaad3	0.11653676
44	0xbdbcff6d	-0.09228406
45	0xbd475cf3	-0.048672628
46	0x3dcc2bde	0.099693045
47	0x3db729de	0.089435324
48	0x3d438847	0.047737386
49	0x3d9025be	0.07038449
50	0xbb808669	-0.003922273
51	0xbdada3d3	-0.084785126
52	0xbd813faf	-0.06310975
53	0x3bd4f963	0.006499456
54	0x3dede987	0.116168074
55	0xbd195119	-0.037430856
56	0xbdde8e5f	-0.10866999
57	0xbd1f85c2	-0.03894592
58	0x3dfafdb1	0.12255419
59	0x3a3f7da2	0.00073047925
60	0x3e23fdec	0.16014832
61	0xbd41ec2e	-0.04734438
62	0x3ced65cb	0.028979203
63	0xbd30b5c3	-0.04314209
64	0x3ca12e11	0.019675286
65	0xbe0fd946	-0.14047727
66	0xbdd1a278	-0.102360666
67	0xbd8e955b	-0.06962081
68	0x3db63b5e	0.08898042
69	0xbd8407bf	-0.0644679
70	0xbbac1ab7	-0.005252208
71	0x3d39223e	0.04519867
72	0xbba12df8	-0.00491881
73	0xbdbd0bc2	-0.09230758
74	0xbdbc02a2	-0.0918019
75	0x3ca66ffc	0.02031707
76	0x3d3f0a56	0.046640716
77	0x3cd70932	0.026249502
78	0xbdf7cd77	-0.12099736
79	0x3e1c1506	0.15242395
80	0x3d843a2f	0.0645641
81	0xbd625d71	-0.055264894
82	0x3dfe6c83	0.12423041
83	0x3e08a1e5	0.13343008
84	0xbca05b46	-0.019574773
85	0xbd980685	-0.074231185
86	0xbdcf9992	-0.10136713
87	0x3e0d8f0b	0.13824098
88	0xbd22fed4	-0.039793804
89	0x3dd19abe	0.10234593
90	0xbdcd1c88	-0.100152075
91	0xbe2074a2	-0.15669492
92	0xbcdd7b33	-0.027036285
93	0x3de08d0a	0.10964401
94	0x3d42b1eb	0.047532957
95	0xbdd98a7e	-0.106221184
96	0xbdea1b2a	-0.114309624
97	0x3df76d1e	0.12081359
98	0x3e1a4329	0.15064682
99	0x3dbe74d7	0.09299629
100	0x3dce9987	0.10087877
101	0xbdc8c2eb	-0.09802803
102	0xbdc3f8bb	-0.09568926
103	0xbcc560b5	-0.024093965
104	0xbbf21394	-0.007387588
105	0x3cf62082	0.030044798
106	0xbdc4092b	-0.09572061
107	0xbd894d3a	-0.06704183
108	0x3ccc1c9d	0.024915988
109	0xbd91545f	-0.07096171
110	0xbd90cfa9	-0.07070858
111	0xbd2c1714	-0.042014197
112	0xbe01aafd	-0.12662883
113	0x3b930b80	0.004487455
114	0x3e229266	0.15876159
115	0xbd3347c6	-0.04376962
116	0x3dd66be9	0.10469801
117	0x3c9b97f9	0.018993365
118	0x3d77610b	0.06039528
119	0x3cd02260	0.025407016
120	0xbcf54299	-0.029938983
121	0xbdfe9abc	-0.12431857
122	0x3e244226	0.16040859
123	0xbdf27416	-0.11838548
124	0xbe0f9cff	-0.14024733
125	0x3ddb61c9	0.107120104
126	0x3e097532	0.13423613
127	0x3e0de812	0.13858059

bn1.weight f4 [128]
0	0x3f8749f1	1.056944
1	0x3f7d861e	0.9903277
2	0x3f8f8d7e	1.1215055
3	0x3f800c1c	1.0003695
4	0x3f8c7f0f	1.0976275
5	0x3f85bd34	1.0448365
6	0x3f94726b	1.1597418
7	0x3f97fb76	1.1873615
8	0x3f87308b	1.0561689
9	0x3f7938f2	0.97352517
10	0x3f7c26cb	0.98496693
11	0x3f815830	1.0105038
12	0x3f84f4d4	1.0387216
13	0x3f7f13da	0.99639666
14	0x3f83aed4	1.0287728
15	0x3f7972a9	0.9744058
16	0x3f7c60f1	0.9858542
17	0x3f71d3d2	0.9446384
18	0x3f78ca78	0.9718394
19	0x3f80bd7f	1.005783
20	0x3f7774c7	0.96662563
21	0x3f7f5b9c	0.9974916
22	0x3f73f70b	0.9529883
23	0x3f807a99	1.0037414
24	0x3f827ced	1.0194374
25	0x3f8077f9	1.0036613
26	0x3f836d30	1.0267696
27	0x3f87bdb4	1.0604768
28	0x3f7a0fa9	0.97680146
29	0x3f7f01f0	0.9961233
30	0x3f7d9bbc	0.99065757
31	0x3f8e73f0	1.1129131
32	0x3f7532be	0.9578055
33	0x3f773111	0.96559244
34	0x3f810df3	1.0082382
35	0x3f85348d	1.0406662
36	0x3f82310b	1.0171217
37	0x3f984980	1.189743
38	0x3f7912bb	0.97294205
39	0x3f8ff11b	1.1245455
40	0x3f7622da	0.9614693
41	0x3f7ee13d	0.99562436
42	0x3f83b22f	1.0288752
43	0x3f81e5ac	1.0148215
44	0x3f86f170	1.0542431
45	0x3f7d0794	0.9883969
46	0x3f7e8c4b	0.9943282
47	0x3f838866	1.0276
48	0x3f7950d4	0.9738896
49	0x3f76c14a	0.96388686
50	0x3f7980df	0.97462267
51	0x3f7644b1	0.96198565
52	0x3f7e8c55	0.9943288
53	0x3f85f0ae	1.0464075
54	0x3f83e896	1.0305355
55	0x3f843504	1.0328679
56	0x3f838f71	1.027815
57	0x3f79fbc5	0.97649795
58	0x3f80ff0a	1.0077832
59	0x3f828e7c	1.0199733
60	0x3f7d8326	0.9902824
61	0x3f7b7e86	0.98239934
62	0x3f80dded	1.0067726
63	0x3f8098be	1.0046613
64	0x3f89f8d3	1.077906
65	0x3f873256	1.0562236
66	0x3f7e3bef	0.993102
67	0x3f721c98	0.9457488
68	0x3f779cc1	0.9672356
69	0x3f7af871	0.9803534
70	0x3f78ffff	0.9726562
71	0x3f79568c	0.97397685
72	0x3f816466	1.0108764
73	0x3f81fbc4	1.0154958
74	0x3f80cddc	1.0062823
75	0x3f810287	1.0078896
76	0x3f79653b	0.9742009
77	0x3f7cf247	0.98807186
78	0x3f852270	1.0401134
79	0x3f8129b6	1.0090854
80	0x3f801218	1.0005522
81	0x3f829359	1.0201217
82	0x3f770cc1	0.96503836
83	0x3f80f1d4	1.00738
84	0x3f78b134	0.9714539
85	0x3f782240	0.9692726
86	0x3f8551c8	1.0415583
87	0x3f8494b9	1.0357887
88	0x3f844736	1.0334232
89	0x3f78edc3	0.97237796
90	0x3f7ecee1	0.9953442
91	0x3f813c85	1.0096594
92	0x3f824502	1.017731
93	0x3f74b9b3	0.95595855
94	0x3f8039d0	1.0017643
95	0x3f8eaaca	1.1145871
96	0x3f6bac6f	0.9205999
97	0x3f81de31	1.0145932
98	0x3f7b545e	0.9817561
99	0x3f80bb8b	1.0057234
100	0x3f81b6ec	1.0133948
101	0x3f7e67cc	0.9937713
102	0x3f856c28	1.0423632
103	0x3f7cb0b7	0.98707145
104	0x3f76fe27	0.96481556
105	0x3f79f57c	0.97640204
106	0x3f7fa1e0	0.99856377
107	0x3f7bb281	0.9831925
108	0x3f94b09e	1.1616399
109	0x3f75fb8a	0.96086943
110	0x3f812759	1.0090133
111	0x3f7fa42b	0.99859875
112	0x3f8af8cc	1.0857177
113	0x3f7e485e	0.99329174
114	0x3f972c2b	1.1810354
115	0x3f7da5a5	0.9908088
116	0x3f7b8ab5	0.98258525
117	0x3f7cdda2	0.98775685
118	0x3f7eb40e	0.9949349
119	0x3f81c517	1.0138272
120	0x3f80c6ca	1.0060666
121	0x3f7ccf29	0.987536
122	0x3f7818c1	0.9691277
123	0x3f914e6e	1.135206
124	0x3f88bb4a	1.0682156
125	0x3f803129	1.0015002
126	0x3f8e298c	1.1106429
127	0x3f93cf44	1.1547627

bn1.bias f4 [128]
0	0xbd56707e	-0.052353375
1	0xbd0d8faf	-0.034560855
2	0xbd962189	-0.07330615
3	0xbcd9c11e	-0.026581343
4	0xbc8afe09	-0.016966837
5	0x3d705796	0.05867728
6	0x3cb2ab3c	0.021810167
7	0xbce1b179	-0.027550446
8	0xbafe0b1b	-0.0019381972
9	0xbd93a209	-0.0720864
10	0xbcf224ef	-0.029558627
11	0xbd6a4e7f	-0.057203766
12	0xbb2bc320	-0.0026208833
13	0x3c02408b	0.007949959
14	0x3b87c8ab	0.0041437945
15	0xbca453fb	-0.020059576
16	0xbd032296	-0.032015406
17	0xbd54a1b6	-0.051912032
18	0xbd875d53	-0.06609597
19	0x3c139914	0.009008665
20	0xbd759c5f	-0.05996358
21	0xbc977c40	-0.018491864
22	0xbd95e001	-0.07318116
23	0xbd305251	-0.043047253
24	0xbcfbf0f8	-0.030754551
25	0xbd93f1c8	-0.072238505
26	0xbca71eb7	-0.020400388
27	0x3d11ee77	0.03562781
28	0xbd2a79e1	-0.04162014
29	0xbd27903f	-0.04090905
30	0x3c091195	0.008366008
31	0xbdb238aa	-0.08702214
32	0x3a2d30fe	0.00066067267
33	0xbda20fd5	-0.07913176
34	0x3c8205df	0.01587194
35	0xbd8cfd09	-0.068842
36	0x3cfab19b	0.030602267
37	0x3acbfc87	0.001556293
38	0xbd71dab6	-0.05904647
39	0x3d8beb46	0.06831984
40	0xbd8bd786	-0.06828217
41	0xbd69a28f	-0.057039794
42	0xbaf70f6a	-0.0018849198
43	0xbdbbf409	-0.091774054
44	0xbc9e1789	-0.019298332
45	0xbd275f12	-0.04086215
46	0xbce0ef93	-0.027457988
47	0xbd2caebf	-0.04215884
48	0xbd871f33	-0.06597748
49	0xbd71e393	-0.059054922
50	0xbda50a11	-0.08058561
51	0xbb09f914	-0.0021053003
52	0xbdd28c23	-0.10280635
53	0x3bf64ec9	0.007516716
54	0xbd5ec4f1	-0.054387037
55	0xbd1c917d	-0.038224686
56	0xbd70003c	-0.058593974
57	0xbd068ef5	-0.03285118
58	0x3c345e7b	0.011008854
59	0x3cb55e88	0.022139803
60	0xbd8df2cb	-0.06931075
61	0xbd7740af	-0.06036442
62	0x3c08b14c	0.008343052
63	0x3c0aa831	0.0084629515
64	0xbbcf396c	-0.006323984
65	0xbc67a544	-0.0141385235
66	0xbd4c5039	-0.049881194
67	0xbd92eb83	-0.071738265
68	0x3a204c8a	0.0006114921
69	0xbcdce4c1	-0.026964547
70	0xbdd38e62	-0.10329892
71	0x3d11f00e	0.035629325
72	0xbc5b89c6	-0.013399547
73	0xbbd17e95	-0.0063932636
74	0x3d5aa1a8	0.053376824
75	0x3abb9bd5	0.0014313409
76	0xbce82065	-0.02833576
77	0x3c359792	0.0110835
78	0xbe22f44a	-0.15913501
79	0x3d137bd9	0.036006782
80	0xbc8c4691	-0.017123492
81	0x3c071a33	0.0082459925
82	0xbd55f0b1	-0.052231494
83	0xbc2c7269	-0.010525324
84	0xbd206fe3	-0.039169203
85	0xbd560a4f	-0.052255925
86	0xbd1757ad	-0.03694885
87	0x3a6558f0	0.00087489095
88	0xbd0d4f17	-0.034499254
89	0xbda6d0f7	-0.08145326
90	0xbbe13ee5	-0.0068739527
91	0x3c18d403	0.009327891
92	0xbd1aa75b	-0.03775726
93	0xbdd256fa	-0.10270496
94	0xbd4806bb	-0.048834544
95	0xbd13d6d0	-0.036093533
96	0xbdd8878a	-0.10572727
97	0xbd27d437	-0.04097387
98	0xbd2a4fff	-0.041580196
99	0xbda4a760	-0.08039737
100	0xbcb12bbc	-0.0216273
101	0xbcc05a9c	-0.023480706
102	0x3c9ba9d1	0.019001873
103	0xbc6ba651	-0.014382915
104	0xbc14c34e	-0.009079767
105	0xbd79a7ff	-0.06095123
106	0xbcc74ed8	-0.024329588
107	0xbd97d77d	-0.07414148
108	0xbb894cf0	-0.00419008
109	0xbd9d9846	-0.076950595
110	0x3cbf7cee	0.023375
111	0xbd2c15f6	-0.04201313
112	0x3cff972f	0.03120002
113	0xbbca978b	-0.006182616
114	0xbc4c27c8	-0.012460656
115	0xbd83ca30	-0.064350486
116	0x3c7209bd	0.01477283
117	0xbd5d76a2	-0.054068215
118	0xbdb4769d	-0.08811686
119	0xbd8c5060	-0.06851268
120	0x3d1fa92e	0.0389797
121	0xbd174f6a	-0.03694097
122	0xbd5c6354	-0.053805664
123	0x3cd5e8f5	0.02611206
124	0xbd509ef2	-0.050932832
125	0xbdbc893c	-0.09205863
126	0xbb9bd87e	-0.0047560325
127	0x3d306603	0.043066036

bn1.running_mean f4 [128]
0	0x3df67ef1	0.12035931
1	0xbd746ae1	-0.05967224
2	0x3d7beaa3	0.061503064
3	0x3d0fe65a	0.03513179
4	0x3ceab22d	0.028649414
5	0xbe21ac38	-0.15788352
6	0x3cf31700	0.029674053
7	0x3dfb7aa7	0.122792535
8	0x3d93b9e7	0.072131924
9	0x3dee7185	0.11642746
10	0xbe151061	-0.1455703
11	0xbe024494	-0.12721473
12	0x3db874f4	0.09006682
13	0x3d2ba275	0.041902978
14	0x3d82ee85	0.0639315
15	0x3dec8518	0.11548823
16	0x3de308d2	0.11085667
17	0xbd07a872	-0.033119626
18	0xbe04962f	-0.12947915
19	0xbe169e17	-0.14708744
20	0x3ddac18d	0.10681448
21	0xbde1d42a	-0.11026795
22	0x3e0c3abb	0.13694279
23	0xbdca8788	-0.09889132
24	0xbdc6200d	-0.09674082
25	0xbd301ce5	-0.042996306
26	0x3da55a94	0.08073917
27	0xbdb3d573	-0.087809466
28	0x3d5f9cb9	0.05459282
29	0xbd717485	-0.058949012
30	0x3e18c310	0.1491816
31	0xbd848d25	-0.06472234
32	0xbdc7cef6	-0.097562715
33	0x3db89394	0.09012523
34	0x3deb9e58	0.11504811
35	0xbdb8cb2f	-0.09023129
36	0xbde8738a	-0.11350162
37	0x3e06f1df	0.13178204
38	0x3d053380	0.032519817
39	0x3deee6c2	0.11665107
40	0xbcaad25c	-0.02085226
41	0x3ddca2c5	0.10773233
42	0xbe0d662e	-0.1380851
43	0x3de89ee3	0.1135843
44	0xbdbd9b0e	-0.0925809
45	0xbd4e57a8	-0.050376564
46	0x3dd010ba	0.1015944
47	0x3daed142	0.085360065
48	0x3d38a228	0.04507652
49	0x3d90f816	0.07078569
50	0xbabaf263	-0.0014262911
51	0xbdad34a1	-0.08457304
52	0xbd85377f	-0.06504726
53	0x3c2f32f0	0.010693297
54	0x3df1ae73	0.11800852
55	0xbd19e3e1	-0.037570838
56	0xbde3d0d3	-0.111238144
57	0xbd2e0fbd	-0.042495478
58	0x3df6464c	0.12025127
59	0x3a664bff	0.0008785128
60	0x3e21c0f9	0.1579627
61	0xbd50b954	-0.050957993
62	0x3cd9ab1e	0.026570853
63	0xbd37d346	-0.04487922
64	0x3c9abb75	0.018888215
65	0xbe111681	-0.14168741
66	0xbde6b989	-0.11265857
67	0xbd9619bf	-0.073291294
68	0x3daee504	0.08539775
69	0xbd8b41df	-0.06799673
70	0xbbcbbebf	-0.006217807
71	0x3d309cf7	0.043118443
72	0xbc1ba9d7	-0.009500942
73	0xbdbd2d4c	-0.09237155
74	0xbdb50cdd	-0.08840344
75	0x3c83c182	0.016083483
76	0x3d383d93	0.044980597
77	0x3cda4a9d	0.026646907
78	0xbdece167	-0.115664296
79	0x3e1e1ecd	0.15441437
80	0x3d7ff339	0.062487815
81	0xbd55d3bf	-0.05220389
82	0x3e007b97	0.12547146
83	0x3e070e8d	0.13189144
84	0xbc8a297c	-0.016865484
85	0xbd9c324e	-0.07626782
86	0xbdd06a36	-0.10176508
87	0x3e0927b1	0.13394047
88	0xbd2ae2e2	-0.04172028
89	0x3dd4fb5f	0.10399508
90	0xbdd165be	-0.10224484
91	0xbe1caaa0	-0.15299463
92	0xbcf6885a	-0.030094314
93	0x3de71543	0.11283352
94	0x3d3a2f30	0.045455158
95	0xbddee679	-0.10883803
96	0xbde716a6	-0.11283617
97	0x3dfbca17	0.12294405
98	0x3e18d467	0.14924775
99	0x3db70681	0.089367874
100	0x3dd05149	0.10171754
101	0xbdc95a62	-0.09831692
102	0xbdc82bee	-0.09774004
103	0xbcdac56b	-0.026705464
104	0xbb6cfd64	-0.0036161775
105	0x3cf330b5	0.029686311
106	0xbdcc67e3	-0.09980752
107	0xbd92ea2e	-0.071735725
108	0x3cc10238	0.023560628
109	0xbd93bdc4	-0.07213929
110	0xbd9eb5a2	-0.077494875
111	0xbd391fad	-0.045196224
112	0xbdfedf50	-0.12444937
113	0x370ed507	8.513459e-06
114	0x3e1deedb	0.15423147
115	0xbd45e28e	-0.048311763
116	0x3ddfb1d2	0.109225884
117	0x3c9d156d	0.019175256
118	0x3d622de3	0.055219542
119	0x3ca7d35d	0.020486528
120	0xbd071cd9	-0.032986496
121	0xbe021d86	-0.12706575
122	0x3e1ecd52	0.15508011
123	0xbdf87d1e	-0.12133239
124	0xbe0fb182	-0.14032558
125	0x3dd1f080	0.1025095
126	0x3e0a9e35	0.13536914
127	0x3e0cca6f	0.13749097

bn1.running_var f4 [128]
0	0x3e7fffd9	0.24999942
1	0x3e2550ee	0.16144153
2	0x3e46edbc	0.19426626
3	0x3e94c3d9	0.2905567
4	0x3e07e769	0.1327187
5	0x3e730bbe	0.23734948
6	0x3e012579	0.12611951
7	0x3da97c7b	0.08275696
8	0x3da88c62	0.08229901
9	0x3e1c3eea	0.15258375
10	0x3e252430	0.16127086
11	0x3dde2189	0.1084624
12	0x3e0eb3e4	0.1393581
13	0x3e0cc4ef	0.13746999
14	0x3e26b78c	0.16280955
15	0x3eee9405	0.46597305
16	0x3e9d162e	0.30680984
17	0x3f377bd5	0.7167333
18	0x3efeac80	0.49740982
19	0x3e6b0d78	0.22954357
20	0x3f1614df	0.58625597
21	0x3e2190a6	0.15777835
22	0x3e42c25b	0.19019453
23	0x3e9ce8f9	0.30646494
24	0x3e97d1a8	0.29652143
25	0x3e81314b	0.2523292
26	0x3ea24693	0.3169447
27	0x3e16dc25	0.14732416
28	0x3dc5f97d	0.09666727
29	0x3e8b4367	0.2719986
30	0x3eb3f608	0.35148644
31	0x3e27ad5b	0.16374724
32	0x3e51dd5f	0.20494603
33	0x3e603ab1	0.21897389
34	0x3f0c69fe	0.5484923
35	0x3e59a0c9	0.21252741
36	0x3e223bd5	0.15843137
37	0x3e1b1fe8	0.1514889
38	0x3ec6590e	0.38739818
39	0x3dc1c300	0.094610214
40	0x3ed3200d	0.4123539
41	0x3e89da0e	0.26924175
42	0x3eaebe75	0.34129682
43	0x3e9da070	0.30786467
44	0x3e4d6ad5	0.20060284
45	0x3e10991b	0.14120905
46	0x3e25a6d1	0.16176917
47	0x3e898e2b	0.26866278
48	0x3e5bc5cc	0.21462172
49	0x3e797694	0.2436164
50	0x3f1f4916	0.62220895
51	0x3e9319dc	0.28730667
52	0x3e296b64	0.16544873
53	0x3e143407	0.14472972
54	0x3e8260c7	0.2546446
55	0x3dba8439	0.09107251
56	0x3e0b648c	0.13612574
57	0x3f2e5600	0.68099976
58	0x3e5318dc	0.20614952
59	0x3de5b382	0.11215879
60	0x3e968982	0.29401785
61	0x3e23a439	0.15980615
62	0x3e35ede8	0.17766535
63	0x3ebba2cc	0.36647642
64	0x3e6030c5	0.21893604
65	0x3de759e7	0.112964444
66	0x3e4b6048	0.19860947
67	0x3f4826e9	0.7818437
68	0x3fba5ab1	1.4558927
69	0x3e5700d6	0.20996413
70	0x3e3725c2	0.17885497
71	0x3e4a1cdf	0.19737576
72	0x3e4446d0	0.19167638
73	0x3e9e8eb1	0.3096824
74	0x3e0f88ad	0.14016981
75	0x3e28e53e	0.16493699
76	0x3ec24a63	0.37947378
77	0x3e62b6a8	0.2213999
78	0x3e78e640	0.24306583
79	0x3eb8c62d	0.36088696
80	0x3e01e2c1	0.12684156
81	0x3de563f7	0.112007074
82	0x3e04fa26	0.12986049
83	0x3e0bd9d9	0.13657321
84	0x3ee97529	0.455972
85	0x3f4d60eb	0.8022601
86	0x3e034219	0.12818183
87	0x3df37242	0.11887027
88	0x3e23476a	0.15945211
89	0x3e8b9563	0.2726241
90	0x3f2292ae	0.63505065
91	0x3e2b3ea4	0.16723114
92	0x3e82efa4	0.25573456
93	0x3e7617a6	0.24032459
94	0x3e0f362e	0.13985512
95	0x3da40ec5	0.080106296
96	0x3f002364	0.50054
97	0x3e4d7329	0.20063461
98	0x3e455d52	0.1927388
99	0x3e4cf1e0	0.20014143
100	0x3e9b386c	0.30316484
101	0x3e621080	0.22076607
102	0x3ea355f0	0.31901503
103	0x3f178a11	0.5919505
104	0x3fae85e8	1.3634615
105	0x3e898f75	0.26867262
106	0x3e44b551	0.19209792
107	0x3ee183f3	0.44045982
108	0x3dde967f	0.108685486
109	0x3e711526	0.23543224
110	0x3e424626	0.18972072
111	0x3e7d3ed5	0.24731
112	0x3e7bc92d	0.24588461
113	0x3f821efb	1.0165704
114	0x3e3540fa	0.17700568
115	0x3e01bd3b	0.12669842
116	0x3eb902f6	0.36135072
117	0x3e35b7c2	0.1774588
118	0x3e93ab1b	0.2884148
119	0x3eda602e	0.42651504
120	0x3e5d91c5	0.21637638
121	0x3dd07f6f	0.10180556
122	0x3e375dd3	0.17906885
123	0x3e17fdba	0.14842883
124	0x3df768aa	0.1208051
125	0x3e17a2bf	0.14808176
126	0x3daeb3ed	0.08530412
127	0x3ec09c54	0.3761927

fc2.weight f4 [64, 128]
0	0xbe004aa0	-0.12528467
1	0xbd1a1879	-0.037620995
2	0xbb143bf4	-0.0022618743
3	0xbbc45f1e	-0.005992784
4	0x3d766530	0.060155094
5	0xbb5e3977	-0.0033908763
6	0xbba4c94c	-0.0050288793
7	0xbd2acbc4	-0.041698232
8	0x3d4ff52b	0.05077092
9	0x3d93583a	0.07194562
10	0x3c41dacb	0.011831949
11	0xbd630b74	-0.055430844
12	0xbd52342f	-0.051319297
13	0x3dabfe50	0.08398116
14	0x3b134f83	0.0022477813
15	0xbd6cff72	-0.0578608
16	0x3d6efc30	0.058345973
17	0xbd645b90	-0.055751383
18	0x3d8d7add	0.069082
19	0xbdf58ff0	-0.119903445
20	0x3d2ce1ee	0.04220765
21	0x3d6c48df	0.057686683
22	0x3d9f6ffb	0.077850305
23	0x3d1f9a3f	0.03896546
24	0xbdc0668c	-0.09394559
25	0x3d9ddd77	0.07708257
26	0x3d01d8ba	0.031700827
27	0xbd836712	-0.064161435
28	0xbd7fd238	-0.06245634
29	0x3d10fd5b	0.03539787
30	0xbd355160	-0.04426706
31	0xbd11eb2e	-0.035624675
32	0xbd71dcb9	-0.05904839
33	0x3c8f5536	0.017496686
34	0xbd7228c2	-0.0591209
35	0xbd780821	-0.060554627
36	0x3d359ff0	0.04434198
37	0xbdaa0a25	-0.08302716
38	0x3d035f4b	0.0320733
39	0xbcc1020f	-0.023560552
40	0x3d715625	0.058920044
41	0xbce3a1cf	-0.027787117
42	0x3da51cd7	0.080621414
43	0xbd14d502	-0.036335953
44	0xbd231749	-0.03981713
45	0x3cba94ba	0.022775996
46	0xbd2f92bb	-0.042864542
47	0x3d1a2749	0.03763512
48	0x3dabecc6	0.0839477
49	0x3d80192b	0.062548004
50	0x3d0ec0f2	0.034851976
51	0x3c4a40f0	0.012344584
52	0xbd85f6f7	-0.065412454
53	0x3c546dee	0.012965662
54	0x3da791cf	0.08182108
55	0xbd56d87a	-0.052452542
56	0x3da5fef7	0.08105271
57	0x3c2fff82	0.01074207
58	0xbcd20c4b	-0.025640627
59	0xbc9a8f78	-0.01886724
60	0x3a1fd46c	0.0006097022
61	0x3d135792	0.035972185
62	0xbbd3f19e	-0.006468012
63	0xbc8ee52c	-0.017443262
64	0x3d85f35f	0.0654056
65	0x3c0c85ab	0.008576791
66	0xbda47421	-0.08029962
67	0xbd436ab2	-0.047709174
68	0xbd5024ea	-0.050816454
69	0xbd7b2412	-0.061313696
70	0x3d6b5935	0.05745812
71	0x3cbd5407	0.023111356
72	0x3c88f6a4	0.01671917
73	0xbd1cce6e	-0.038282804
74	0xbd47f555	-0.04881795
75	0x3c81fb0d	0.01586678
76	0xbb1db531	-0.0024064297
77	0xbd08b2d7	-0.03337368
78	0x3c9d842a	0.01922806
79	0xbac89110	-0.0015302021
80	0x3d0779f1	0.033075277
81	0x3dd2d744	0.10294965
82	0xbd9900c9	-0.07470853
83	0x3c86a662	0.01643676
84	0x3df9b4d6	0.12192695
85	0xbc95e0b4	-0.018295623
86	0xbe05fa4b	-0.1308376
87	0xbbc9a791	-0.0061540087
88	0xbc9c7481	-0.019098522
89	0x3c5298c4	0.012853805
90	0x3db03f5a	0.08605833
91	0xbd8bf926	-0.06834631
92	0x3d9ca650	0.07648909
93	0x3c9987f2	0.018741582
94	0xbd868f00	-0.06570244
95	0xbcd71ec5	-0.02625979
96	0xbbf01547	-0.007326755
97	0x3e15d2c7	0.14631186
98	0xbb121ff1	-0.002229687
99	0x3d9f2386	0.077704474
100	0x3d856fc3	0.065154575
101	0xbd120606	-0.035650276
102	0xbd2f9e85	-0.042875785
103	0xbcd92501	-0.026506903
104	0x3d00bf08	0.03143218
105	0x3d414afa	0.047190644
106	0xbd5f5806	-0.054527305
107	0xbd893bf2	-0.06700887
108	0xbb559cb9	-0.0032594635
109	0x3ce1e44e	0.027574684
110	0x3d9cd11e	0.076570734
111	0x3d6a658d	0.057225753
112	0x3d9cbd64	0.07653311
113	0x3d502035	0.050811965
114	0x3cc05fa4	0.023483105
115	0xbd2195cc	-0.039449498
116	0x3cb0fc58	0.021604702
117	0x3d30673c	0.043067202
118	0xbc91522b	-0.017739376
119	0x3d8b640e	0.06806193
120	0x3cf074f8	0.02935265
121	0x3d2dad7c	0.042401776
122	0x3cecc346	0.028901707
123	0x3a7b9dab	0.00095983845
124	0x3c996810	0.018726379
125	0x3db718ac	0.08940253
126	0x3b9d2643	0.004795821
127	0xbcf3b99b	-0.02975159
128	0xbd522d15	-0.051312525
129	0x3cdc321c	0.026879363
130	0x3d1d827e	0.038454525
131	0xbc68f78a	-0.014219174
132	0xbd02e959	-0.03196082
133	0xbd82d67c	-0.06388566
134	0x3d65bc72	0.05608792
135	0xbd54d6db	-0.051962715
136	0xbda73e27	-0.081661515
137	0x3d1572a6	0.03648629
138	0x3d3337d6	0.04375442
139	0x3d04101d	0.03224193
140	0xbdd354e2	-0.103189245
141	0xbc117440	-0.008877814
142	0xbda1b981	-0.0789671
143	0x3d044edf	0.03230178
144	0x3d2b7bd2	0.04186613
145	0xbd960027	-0.07324248
146	0x3cb52d5e	0.02211636
147	0x3d1a9965	0.037743945
148	0x3d026be1	0.031841163
149	0xbc31bd3f	-0.010848342
150	0xbd520b63	-0.05128039
151	0xbdac581e	-0.084152445
152	0x3becc3fc	0.0072255116
153	0xbc9c6492	-0.019090924
154	0x3b795acc	0.0038048504
155	0x3c12b168	0.00895343
156	0x3ab299f6	0.0013626206
157	0x3d1cbd99	0.038266752
158	0xbccc6b60	-0.024953544
159	0xbc40df45	-0.011771982
160	0x3d8665d1	0.06562389
161	0xbd897b59	-0.0671298
162	0xbd7112ac	-0.058855698
163	0xbd8bb9eb	-0.068225704
164	0xbc9b00f2	-0.01892135
165	0x3d0c935d	0.034320224
166	0xbc4f7e04	-0.012664322
167	0xbc6080f3	-0.013702619
168	0xbd2c1133	-0.04200859
169	0xbdbe44aa	-0.092904404
170	0xbca3e2fd	-0.020005697
171	0x3cbc627c	0.02299618
172	0x3c193b8b	0.009352575
173	0x3c4c44fd	0.01246762
174	0x3c31ece5	0.010859703
175	0xbc826029	-0.015914993
176	0xbcba1351	-0.022714289
177	0x3d4fba0e	0.050714545
178	0x3d4cb4d7	0.04997715
179	0x3d27b62e	0.040945224
180	0x3c97cd35	0.018530468
181	0xbd6e8b85	-0.058238525
182	0xbcd8b3da	-0.026452947
183	0x3d07fdba	0.033200957
184	0xbd94ba72	-0.07262124
185	0xbb843176	-0.0040342165
186	0x3d4106dc	0.047125682
187	0x3c8b739f	0.017022906
188	0x3b2cb7cf	0.0026354676
189	0x3c209bdf	0.009802788
190	0x3cbfb79b	0.02340298
191	0x3d531668	0.05153504
192	0x3d5b7aff	0.053584095
193	0x3da22301	0.07916833
194	0x3ce0c229	0.027436333
195	0xbce33aed	-0.027738059
196	0xbd483409	-0.04887775
197	0x3cb8299d	0.02248078
198	0xbd0910f2	-0.033463426
199	0x3d647dc3	0.055784
200	0x3d532c6f	0.051556047
201	0xbdaae008	-0.08343512
202	0xbcc56acb	-0.024098774
203	0x3d7b6082	0.061371334
204	0x3c9992e0	0.018746793
205	0x3c41f07b	0.01183712
206	0xbce39286	-0.027779829
207	0xbd861638	-0.06547207
208	0xbd95b852	-0.07310547
209	0xbdc5fa05	-0.09666828
210	0x3d3ffeb3	0.04687376
211	0xbb4d532c	-0.0031330092
212	0xbc30dc20	-0.010794669
213	0x3c91240b	0.017717382
214	0x3d0642a3	0.032778393
215	0xbdb8baa1	-0.09019972
216	0x3d8d060e	0.068859205
217	0xbd04b8e0	-0.032402873
218	0x3d8fc870	0.07020652
219	0xbc6f44d6	-0.014603814
220	0x3ca93e57	0.020659609
221	0xbbc5101e	-0.006013884
222	0xbccf7d95	-0.025328437
223	0xbdaf091c	-0.08546659
224	0xbd30de30	-0.043180645
225	0xbcdb525f	-0.026772676
226	0xbd01336b	-0.031543177
227	0x3d9cab0a	0.076498106
228	0x3d727279	0.0591912
229	0x3d733217	0.05937394
230	0xbd792d09	-0.060833964
231	0x3d94aa9e	0.07259105
232	0xbcb6259e	-0.022234734
233	0xbd179f62	-0.037017234
234	0xbd978c34	-0.073997885
235	0x3c202239	0.009773784
236	0xbbfd70fb	-0.0077344156
237	0xbdba108d	-0.09085188
238	0xbd26bddf	-0.04070842
239	0xbd5004b7	-0.050785746
240	0x3d6602f5	0.056155164
241	0x3d1cb259	0.038256023
242	0xbd477af7	-0.048701253
243	0x3d4cb912	0.049981184
244	0xba2c2f34	-0.0006568313
245	0x3d07e368	0.033175856
246	0x3d5b7180	0.05357504
247	0xbc8302f6	-0.015992623
248	0xbc6f3a38	-0.014601283
249	0xbdbc0979	-0.09181494
250	0x3a2216bf	0.0006183199
251	0x3dc4c613	0.09608092
252	0x3cd6b05a	0.026207138
253	0xbcffd125	-0.031227658
254	0x3dc5466e	0.09632574
255	0x3ccc1f6b	0.024917325

fc2.bias f4 [64]
0	0xbd269724	-0.040671483
1	0xbd2a39f9	-0.041559193
2	0x3cd6401f	0.026153622
3	0xbda80f1a	-0.082060054
4	0x3d8c1532	0.0683998
5	0x3cba45cb	0.022738358
6	0x3d8fab0c	0.070150465
7	0xbc720d26	-0.014773643
8	0x3ca67624	0.020320006
9	0xbc0a9021	-0.008457215
10	0xbd1edd95	-0.038785536
11	0x3d2d7d7a	0.042355992
12	0x3d8c782a	0.06858857
13	0x3b39264c	0.0028251586
14	0x3ba831f6	0.005132909
15	0xbd99a531	-0.07502211
16	0xbb3906a7	-0.0028232725
17	0x3d8411bf	0.06448697
18	0x3c4f9363	0.012669417
19	0xbd424f7c	-0.047439083
20	0x3bc0033e	0.0058597615
21	0x3d386d5a	0.04502616
22	0xbd666e9f	-0.05625784
23	0x3c58a848	0.013223715
24	0xbc1b617a	-0.009483689
25	0xbd566f24	-0.052352086
26	0x3d4b6b6b	0.04966299
27	0xbda310ad	-0.07962165
28	0x3d9cecd5	0.076623596
29	0x3d9aac6d	0.07552419
30	0x3d19f08b	0.037582915
31	0xbc40f22b	-0.011776487
32	0xbd6ec631	-0.05829448
33	0x3d6fbe75	0.058531243
34	0xbd510be6	-0.051036738
35	0xbd7b625b	-0.061373096
36	0x3d464627	0.048406746
37	0x3bbd38b5	0.0057745823
38	0x3d859a63	0.065235876
39	0x3d8aa3a5	0.06769494
40	0x3da4b2fc	0.08041951
41	0x3db150d1	0.08657993
42	0x3dace887	0.084427886
43	0x3cc6c977	0.024265988
44	0x3daf3b64	0.0855625
45	0xbc9e2557	-0.019304914
46	0xbd8a8b28	-0.06764823
47	0xbd1e3673	-0.038626146
48	0xbcbec519	-0.023287343
49	0x3d8b31c7	0.06796604
50	0x3d214eb4	0.039381698
51	0xbca47303	-0.020074373
52	0xbcbfb125	-0.023399899
53	0x3ccc67a1	0.024951758
54	0xbdacbc31	-0.08434332
55	0x3b4ff11b	0.0031729403
56	0xbcd38fa3	-0.025825327
57	0xbd8b0c57	-0.06789463
58	0xbc750d58	-0.014956795
59	0x3d7d57be	0.061851256
60	0xbd21b3c7	-0.03947809
61	0xbcf59356	-0.029977482
62	0x3d849333	0.064733885
63	0xbda9537c	-0.082678765

bn2.weight f4 [64]
0	0x3f800185	1.0000464
1	0x3f752415	0.9575818
2	0x3f8ab057	1.0835065
3	0x3f862bf4	1.0482163
4	0x3f805d78	1.0028524
5	0x3f763d31	0.9618712
6	0x3f759f5f	0.95946306
7	0x3f81461b	1.009952
8	0x3f760b92	0.96111405
9	0x3f83a1d6	1.0283763
10	0x3f830733	1.0236572
11	0x3f8446c8	1.0334101
12	0x3f7c47ef	0.9854726
13	0x3f7aeb3e	0.980152
14	0x3f7985d8	0.97469854
15	0x3f87673f	1.0578383
16	0x3f7fe5d4	0.99960065
17	0x3f8255ef	1.0182475
18	0x3f80376b	1.0016912
19	0x3f798fb3	0.9748489
20	0x3f8c8646	1.0978477
21	0x3f79ac3e	0.97528446
22	0x3f7b6a9c	0.9820955
23	0x3f835d2d	1.026281
24	0x3f850950	1.0393467
25	0x3f7f44eb	0.99714535
26	0x3f7ce4c2	0.98786557
27	0x3f741cd6	0.953565
28	0x3f81dd63	1.0145687
29	0x3f841745	1.0319601
30	0x3f739241	0.9514504
31	0x3f883056	1.0639751
32	0x3f78d804	0.97204614
33	0x3f796b24	0.9742911
34	0x3f85f23b	1.0464548
35	0x3f7a9f55	0.9789937
36	0x3f8c8bc5	1.0980154
37	0x3f78035c	0.96880126
38	0x3f7643fa	0.96197474
39	0x3f80d96f	1.0066355
40	0x3f843b09	1.0330516
41	0x3f83daec	1.0301185
42	0x3f8e4863	1.1115841
43	0x3f860753	1.0470985
44	0x3f8b0dfb	1.0863642
45	0x3f8a2249	1.0791713
46	0x3f7388f6	0.9513086
47	0x3f89f5f9	1.077819
48	0x3f7ed3ab	0.9954173
49	0x3f8a161e	1.0788
50	0x3f744d5a	0.9543053
51	0x3f872de0	1.0560875
52	0x3f87b1d0	1.0601139
53	0x3f8c78f2	1.097441
54	0x3f700387	0.9375538
55	0x3f7e983e	0.99451053
56	0x3f7703ad	0.96489984
57	0x3f92ffe5	1.1484343
58	0x3f7891ec	0.9709766
59	0x3f82118e	1.0161607
60	0x3f7a3212	0.9773265
61	0x3f8d81f4	1.1055284
62	0x3f9229b9	1.1418983
63	0x3f76d75a	0.9642235

bn2.bias f4 [64]
0	0xbdf453a5	-0.119300164
1	0xbd8dce47	-0.0692411
2	0x3d5d5f47	0.05404594
3	0xbdebd5b9	-0.11515374
4	0xbe202473	-0.15638904
5	0xbe3264ae	-0.17421219
6	0xbc434b46	-0.011919802
7	0xbdde9bfe	-0.10869597
8	0xbd8b8215	-0.068119206
9	0x3b27064d	0.0025485933
10	0xbc36398c	-0.011122119
11	0xbdae71e7	-0.08517819
12	0xbcf99c89	-0.03047015
13	0xbccd2980	-0.025044203
14	0xbdd57a99	-0.10423774
15	0x3d8892b3	0.06668606
16	0xbd845284	-0.06461051
17	0xbe058af0	-0.13041282
18	0xbe21e478	-0.1580981
19	0xbb37aa89	-0.002802523
20	0x3db31760	0.08744693
21	0xbe02d978	-0.1277827
22	0xbddef540	-0.108866215
23	0x3b1e0863	0.0024113886
24	0x3d19dd79	0.03756473
25	0x3d4c75e8	0.04991713
26	0xbce7aead	-0.028281534
27	0xbd86d37a	-0.06583305
28	0xbb353cfd	-0.002765476
29	0x3c9e44d5	0.019319931
30	0x3b9f904e	0.0048694974
31	0x3d25f7fa	0.040519692
32	0xbcf0fc3b	-0.029417148
33	0xbe044e28	-0.12920439
34	0x3dc72b48	0.09725052
35	0xbc2aba96	-0.010420462
36	0x3dd238af	0.10264718
37	0xbd9e3784	-0.077254325
38	0xbd949d33	-0.07256546
39	0x3c3fd6ab	0.011708896
40	0x3c046029	0.008079567
41	0xbaf62551	-0.0018779432
42	0x3d7b2233	0.06131191
43	0x3da83729	0.08213646
44	0x3d946625	0.07246045
45	0x3db154aa	0.086587265
46	0xbccf27fe	-0.025287624
47	0x3d849655	0.06473986
48	0xbe198ea2	-0.14995816
49	0x3d5e7a71	0.054315988
50	0xbd484eb3	-0.04890318
51	0x3d0305a9	0.03198782
52	0xbdbe4b8b	-0.092917524
53	0x3d7d65ac	0.06186454
54	0xbda876fe	-0.08225821
55	0x3c1c8935	0.009554197
56	0xbde245af	-0.11048447
57	0x3dc78034	0.0974125
58	0xbd2aa7e5	-0.041664023
59	0x3cd1eefa	0.025626648
60	0x3a3df007	0.00072455447
61	0x3dbe304a	0.09286554
62	0x3d6f67b5	0.058448512
63	0xbd928afb	-0.07155415

bn2.running_mean f4 [64]
0	0x3c141337	0.009037784
1	0xbdb0d36b	-0.08634075
2	0xbd7ba7bd	-0.061439265
3	0xbe95f581	-0.29288867
4	0x3e333505	0.17500694
5	0xbe936c31	-0.2879348
6	0xbe7f8a18	-0.24955022
7	0xbd56668f	-0.0523439
8	0xbed44db9	-0.41465548
9	0xbe1b4002	-0.15161136
10	0xbe84bef4	-0.25926936
11	0x3d85eb94	0.065390736
12	0xbdccfb38	-0.10008854
13	0xbe89975f	-0.268733
14	0xbcc4c083	-0.024017578
15	0xbe8ac67a	-0.2710455
16	0x3e34800b	0.1762697
17	0x3d457f1c	0.048216924
18	0xbdd58d71	-0.104273684
19	0xbe8460d6	-0.2585513
20	0xbe39115a	-0.18073025
21	0xbda04fd1	-0.07827724
22	0xbe112741	-0.1417513
23	0xbec638f1	-0.38715318
24	0x3d387f5f	0.045043346
25	0xbe570c6b	-0.21000831
26	0xbe19f57d	-0.15035053
27	0xbe0e47cd	-0.13894577
28	0x3e400a4c	0.18753928
29	0xbd32f623	-0.043691766
30	0x3e02e4aa	0.12782541
31	0xbed9223e	-0.42408937
32	0xbce8081c	-0.02832418
33	0xbcfe8b71	-0.03107235
34	0xbd3ef273	-0.046617936
35	0xbeb5ae69	-0.35484627
36	0xbcb30a9f	-0.02185565
37	0xbdac8f5a	-0.0842578
38	0xbe6bbc38	-0.23021019
39	0xbec6d2aa	-0.388326
40	0x3cb8f508	0.022577778
41	0xbe5fd897	-0.21859966
42	0x3d887395	0.066626705
43	0xbe735793	-0.23763876
44	0xbd89e0cf	-0.06732332
45	0xbd8cd0cd	-0.06875763
46	0x3e7509c5	0.23929508
47	0xbd5e90a9	-0.054337177
48	0x3dca241e	0.0987017
49	0xbc861ea4	-0.016372032
50	0xbd7b6c9a	-0.061382867
51	0xbe48c843	-0.19607644
52	0xbe36500d	-0.17803974
53	0xbe220532	-0.15822294
54	0xbeabaaaa	-0.33528644
55	0xbf196205	-0.5991519
56	0x3db8ec30	0.09029424
57	0xbedc34df	-0.43009087
58	0x3d8036b9	0.062604375
59	0xbe9a010d	-0.30078927
60	0xbb132ac6	-0.0022455915
61	0xbe1bc1dd	-0.15210672
62	0xbe8c36ac	-0.2738546
63	0xbcccc7c5	-0.024997601

bn2.running_var f4 [64]
0	0x3ed3eb7d	0.413906
1	0x3e955793	0.29168376
2	0x3f045136	0.5168642
3	0x3f4712ec	0.7776325
4	0x3f172af1	0.590499
5	0x3e75a87c	0.23990053
6	0x3f2aa71f	0.66661257
7	0x3f37335a	0.7156273
8	0x3f856d7e	1.0424039
9	0x3f208649	0.627049
10	0x3f5668f1	0.8375388
11	0x3f5e15fe	0.8675231
12	0x3f43e43e	0.76520145
13	0x3f27e9e0	0.6559124
14	0x3f56217e	0.83644855
15	0x3f138058	0.5761771
16	0x3f579b49	0.8422132
17	0x3f5b8258	0.85745764
18	0x3f4b3a6b	0.79386014
19	0x3f1c2e9c	0.6100862
20	0x3f2d85bd	0.67782193
21	0x3e84ec6e	0.25961632
22	0x3f1bc7a9	0.6085153
23	0x3f12e1ab	0.5737559
24	0x3f13782b	0.57605237
25	0x3f570f91	0.8400813
26	0x3f26471f	0.6495227
27	0x3ed992cb	0.42494807
28	0x3f7f4320	0.997118
29	0x3f262372	0.64897835
30	0x3ea18ddf	0.31553552
31	0x3faef080	1.3667145
32	0x3e96e52e	0.29471725
33	0x3ebd64a1	0.36990836
34	0x3f32cc2b	0.69842786
35	0x3f1a2b2f	0.6022214
36	0x3f67d0cb	0.9055297
37	0x3eb45adc	0.3522557
38	0x3f210a3a	0.6290623
39	0x3ef51f4a	0.47875434
40	0x3f7d82e1	0.9902783
41	0x3f2bbcc5	0.67084914
42	0x3f9e3bd7	1.2362012
43	0x3f2bfbb6	0.67180955
44	0x3f489b56	0.78362024
45	0x3f443671	0.7664557
46	0x3f61b0f4	0.88160634
47	0x3f2ebdf9	0.68258625
48	0x3f76c904	0.96400476
49	0x3f787b99	0.97063595
50	0x3f039b6f	0.5140905
51	0x3f7dd104	0.9914706
52	0x3ed12bbe	0.40853685
53	0x3f58479b	0.8448426
54	0x3e984727	0.29741785
55	0x3f09eda2	0.53878224
56	0x3f3c5e5e	0.7358149
57	0x3f533db6	0.8251604
58	0x3eec37d5	0.46136346
59	0x3f550629	0.83212525
60	0x3f48b0a8	0.78394556
61	0x3f4369e7	0.7633347
62	0x3f4bf7aa	0.7967478
63	0x3ee928ce	0.45538944

fc3.weight f4 [32, 64]
0	0xbd8824b9	-0.06647629
1	0x3d341ccd	0.04397278
2	0x3c72bd3a	0.014815623
3	0xbd2376a3	-0.039908063
4	0xbe0859dc	-0.13315529
5	0xbd9956ee	-0.07487284
6	0x3bd97b7e	0.006637036
7	0x3d0b3426	0.03398528
8	0xbcf952e7	-0.030435039
9	0xbe1e0166	-0.15430221
10	0xbc999806	-0.018749248
11	0xbd98498e	-0.074359044
12	0x3d7820f4	0.0605783
13	0xbd0a4139	-0.033753607
14	0x3dae6c84	0.085167915
15	0xbe2cc58c	-0.16872233
16	0x3dccb97f	0.09996318
17	0x3b13250b	0.00224525
18	0xbcf30486	-0.029665243
19	0x3dc80103	0.09765818
20	0x3d52045c	0.05127369
21	0xbdb401f2	-0.087894335
22	0xbd74361e	-0.059621923
23	0xbc026ccf	-0.007960512
24	0xbccb7660	-0.024836719
25	0x3ca5402e	0.020172205
26	0x3bdfe3ad	0.006832561
27	0x3c3ed4f0	0.011647448
28	0xbcb50040	-0.022094846
29	0x3d818368	0.06323892
30	0xbe050cd2	-0.12993172
31	0xbc91729b	-0.017754843
32	0x3db3f422	0.08786799
33	0xbc79ea1f	-0.015253573
34	0xbde1b004	-0.110199004
35	0xbb43c39e	-0.0029871236
36	0xbe20fd6d	-0.15721674
37	0xbd485102	-0.04890538
38	0x3d9be635	0.07612268
39	0x3dd88354	0.10571924
40	0xbdad13dd	-0.08451054
41	0x3dc9ebd2	0.09859432
42	0xbde20923	-0.11036899
43	0xbd37cd76	-0.044873677
44	0xbcabb93a	-0.020962346
45	0x3d0afd28	0.033932835
46	0x3d1e0ce8	0.038586527
47	0x3da5f901	0.08104134
48	0xbe21c6e9	-0.15798534
49	0xbdbd525e	-0.09244226
50	0xbd0bf869	-0.03417245
51	0xbe2dea45	-0.16983898
52	0xbdf4706c	-0.11935505
53	0xbd452e3d	-0.0481398
54	0xbc7d028f	-0.015442505
55	0x3dcb2b73	0.09920397
56	0x3d6b54a9	0.057453785
57	0xbd9d351e	-0.07676147
58	0x3d808852	0.06276001
59	0x3d82936c	0.06375775
60	0x3d929770	0.07157791
61	0x3de0f54c	0.10984287
62	0xbe48acf1	-0.19597222
63	0xbcf2b748	-0.029628411
64	0xbda1271c	-0.07868788
65	0x3dd6b483	0.10483649
66	0xbd780706	-0.060553573
67	0x3e145aa4	0.14487702
68	0x3cc135e1	0.023585262
69	0xbd938946	-0.07203917
70	0xbdc42d1c	-0.095789164
71	0x3ca6313f	0.020287154
72	0x3d3a55e3	0.045492064
73	0xbd26457c	-0.04059361
74	0xbcbc9a5a	-0.02302282
75	0x3da22790	0.07917702
76	0x3c950fce	0.018196013
77	0x3c8ace30	0.016944021
78	0xbd67b272	-0.056566663
79	0x3c48c907	0.01225496
80	0xbd29bf42	-0.041442163
81	0x3d8f146a	0.069863155
82	0x3ddc03a6	0.107428834
83	0xbd831a19	-0.06401462
84	0xbd931e07	-0.07183462
85	0x3cbd12c2	0.023080233
86	0x3d3d4ef1	0.046217863
87	0xbd98a2e1	-0.07452942
88	0x3dc3799c	0.095446795
89	0x3cd57330	0.026055902
90	0x3de75688	0.112958014
91	0x3dad59e5	0.08464412
92	0x3e20c9a0	0.15701914
93	0x3d0cb4cb	0.034352105
94	0xbd7ea615	-0.062170107
95	0xbd705507	-0.05867484
96	0xbd42b6cd	-0.047537614
97	0x3e047065	0.129335
98	0xbd800f4c	-0.06252918
99	0x3c7f2ba1	0.015574367
100	0xbdaf54bb	-0.08561083
101	0x3d1b684e	0.03794127
102	0xbdf3e930	-0.11909711
103	0x3dd447d8	0.103652656
104	0xbe02ebaf	-0.12785219
105	0xbd5eb740	-0.05437398
106	0xbd3f4636	-0.046697818
107	0x3d657fa4	0.05602993
108	0x3d320f53	0.043471646
109	0x3da9abc9	0.082847185
110	0x3d5d3420	0.05400479
111	0xbd3dab4c	-0.04630594
112	0x3dff7e3b	0.124752484
113	0xbd4ab2a0	-0.049486756
114	0x3d0866a6	0.03330102
115	0xbdc85b5a	-0.09783049
116	0xbd497648	-0.049185067
117	0xbd4dfac0	-0.050287962
118	0x3d3929f0	0.04520601
119	0x3dcaec1e	0.09908317
120	0x3e1be5cd	0.15224381
121	0xbe0da5c5	-0.13832767
122	0xbd62974b	-0.055320065
123	0xbd25b33e	-0.04045414
124	0xbd0cb86a	-0.03435556
125	0xbd9ba7ff	-0.07600402
126	0xbdb10e5b	-0.08645316
127	0x3b5ba434	0.003351462
128	0xbdf16d5c	-0.11788437
129	0x3cd51e90	0.02601555
130	0x3d8a7f89	0.06762607
131	0x3d8baff9	0.068206735
132	0x3ce3a849	0.027790206
133	0xbd62bfd2	-0.055358715
134	0xbd29255f	-0.041295405
135	0xbdfb01dd	-0.12256215
136	0x3dd131c2	0.10214569
137	0x3cc0c1c5	0.023529897
138	0x3da69130	0.08133161
139	0xbd0d743e	-0.034534685
140	0x3d32d966	0.04366436
141	0xbd24de58	-0.040251106
142	0x3d890ef3	0.066923045
143	0xbe5bc1d8	-0.21460664
144	0xbd258a2e	-0.04041498
145	0xbc9bcf76	-0.019019824
146	0x3bbb7a4c	0.005721366
147	0x3d141168	0.036149412
148	0x3b92153d	0.004458098
149	0xbd82104e	-0.06350766
150	0xbd94d053	-0.07266297
151	0xbcb489ea	-0.022038419
152	0x3d19faf8	0.037592858
153	0xbd96374c	-0.07334766
154	0xbe1d75f2	-0.15377024
155	0xbcf51ede	-0.029921945
156	0x3dc6baa2	0.09703566
157	0x3d03da2b	0.032190483
158	0xbd7743e2	-0.060367472
159	0xbd376a26	-0.044778965
160	0xbdc50860	-0.09620738
161	0x3d80fd4f	0.06298315
162	0x3db43fa0	0.08801198
163	0xbd35de24	-0.044401303
164	0xbe3e5ad8	-0.18589342
165	0x3de54426	0.11194639
166	0x3d750604	0.05982019
167	0x3d0d4633	0.034490775
168	0xbc6160e1	-0.013756008
169	0x3d135c13	0.03597648
170	0x3dd08fa4	0.10183647
171	0x3c882160	0.016617477
172	0x3c22afc7	0.009929604
173	0x3dc605b5	0.09669057
174	0x3a291ea7	0.0006451406
175	0x3c86cab0	0.01645407
176	0x3cccd14b	0.025002142
177	0xbe1be1a4	-0.15222794
178	0xbe19033d	-0.14942642
179	0xbda29012	-0.079376355
180	0xbe67bcca	-0.22630611
181	0x3d21dc9b	0.039517026
182	0x3d321600	0.043478012
183	0x3d03149c	0.032002077
184	0xbc7ff5c0	-0.015622556
185	0xbe4c2781	-0.19936945
186	0xbe509881	-0.20370676
187	0x3dda70cb	0.10666045
188	0xbddc7388	-0.10764223
189	0x3d3f7e67	0.046751406
190	0xbe1c1a68	-0.15244448
191	0xbdc318bb	-0.09526201
192	0xbdd34ba2	-0.1031716
193	0x3dba3a4e	0.09093152
194	0xbd94901e	-0.07254051
195	0x3d20a397	0.03921851
196	0xbdaffba4	-0.085929185
197	0x3cc60b69	0.024175363
198	0x3da43376	0.08017628
199	0xbe08323d	-0.13300414
200	0xbd8b1103	-0.06790354
201	0x3d5e5f3e	0.05429005
202	0xbd69cbf1	-0.05707926
203	0x3d2c08af	0.04200047
204	0xbdc01448	-0.09378868
205	0xbcc5d174	-0.024147727
206	0xbdd8177d	-0.10551355
207	0xbde43c1a	-0.11144276
208	0xbdac0348	-0.08399063
209	0xbc573a2c	-0.013136428
210	0x3c23e80a	0.010004053
211	0xbd7ee572	-0.062230535
212	0x3d41dcdc	0.04732977
213	0xbd0ece65	-0.034864802
214	0x3d094263	0.033510577
215	0xbd7e2ed7	-0.06205639
216	0x3d7f591d	0.062340844
217	0x3c302154	0.010750134
218	0x3da86dcb	0.08224066
219	0xbcfe1039	-0.031013595
220	0xbdce4baa	-0.100730255
221	0x3cf44c85	0.029821644
222	0x3d152ee3	0.036421668
223	0x3d591799	0.05300102
224	0x3d1b8ab3	0.03797407
225	0xbd9c4ab8	-0.07631439
226	0x3c5be46c	0.013421159
227	0x3d00237e	0.031283848
228	0xbe44ccca	-0.19218746
229	0x3d8e7a8d	0.069569685
230	0x3df9f37a	0.122046426
231	0xbd679dda	-0.056547023
232	0x3d9bd3a8	0.076087296
233	0x3de79e19	0.113094516
234	0xbdf47f10	-0.11938298
235	0xbc9207e6	-0.017826032
236	0x3cefe344	0.029283173
237	0x3d39024a	0.0451682
238	0x3d93e78d	0.07221899
239	0x3ca2393c	0.019802682
240	0xbc43bfc3	-0.011947575
241	0xbd086d0a	-0.033307113
242	0x3ddef3cd	0.10886345
243	0xbc136004	-0.00899506
244	0x3d322746	0.043494485
245	0xbd05edbc	-0.032697424
246	0x3db9d76c	0.090742916
247	0x3d1bd64a	0.03804616
248	0x3ddabc58	0.10680455
249	0xbe5957b3	-0.21224861
250	0x3cb5e786	0.022205126
251	0x3c859641	0.016306998
252	0x3dc0bd1f	0.09411072
253	0x3d1fa08b	0.038971465
254	0xbe29e908	-0.165928
255	0xbdbd92cf	-0.09256517

fc3.bias f4 [32]
0	0xbd935d54	-0.07195535
1	0xbd87c1a9	-0.066287346
2	0x3d36af08	0.044600517
3	0x3d0210f2	0.03175444
4	0xbd1bf8e1	-0.038079146
5	0x3c8fa9b9	0.017536985
6	0x3c350517	0.011048577
7	0x3cd46653	0.025927698
8	0x3ccd101e	0.0250321
9	0x3db44421	0.08802057
10	0xbceddcef	-0.029036013
11	0x3d4e398b	0.050347846
12	0x3dea8ff1	0.11453236
13	0xbd58608b	-0.052826446
14	0xbb63ddb2	-0.0034769592
15	0x3dd5cfc9	0.104400225
16	0x3df34c34	0.11879769
17	0x3c71c86e	0.014757259
18	0x3ce473e6	0.027887296
19	0xbd029171	-0.031876985
20	0xbdce95b4	-0.10087147
21	0xbd55693a	-0.052102305
22	0x3d58d121	0.052933816
23	0x3db7fb07	0.089834265
24	0x3d2836f4	0.041068032
25	0xbdbc9aa2	-0.09209181
26	0x3c392e72	0.011302577
27	0x3d966972	0.07344331
28	0xbcd0cad4	-0.025487341
29	0xbd135377	-0.03596827
30	0xbd6c2f9f	-0.057662603
31	0xbd2f885b	-0.042854648

bn3.weight f4 [32]
0	0x3f77cbfb	0.96795624
1	0x3f6c70fa	0.9235989
2	0x3f75c776	0.9600748
3	0x3f6c147f	0.92218775
4	0x3f804913	1.00223
5	0x3f9cc69f	1.2248114
6	0x3f76b604	0.96371484
7	0x3f927437	1.1441716
8	0x3f85f5d0	1.0465641
9	0x3f8d3970	1.1033154
10	0x3f73e35c	0.952688
11	0x3f821082	1.0161288
12	0x3f78859e	0.97078884
13	0x3f6ac321	0.91703993
14	0x3f97096b	1.1799749
15	0x3f936402	1.1514895
16	0x3f836bff	1.0267333
17	0x3f7641c9	0.9619413
18	0x3f76032b	0.96098584
19	0x3f856885	1.0422522
20	0x3f843053	1.0327247
21	0x3f70b7f9	0.9403072
22	0x3f647b57	0.892507
23	0x3f7a2645	0.97714645
24	0x3f7621b4	0.96145177
25	0x3f7cafeb	0.9870593
26	0x3f7271cf	0.9470491
27	0x3f764b89	0.9620901
28	0x3f86f076	1.0542133
29	0x3f842c16	1.0325954
30	0x3f90d4a0	1.1314888
31	0x3f6ca034	0.9243195

bn3.bias f4 [32]
0	0x3d909ed9	0.07061548
1	0xbe26c560	-0.1628623
2	0x3c9ebc2f	0.019376842
3	0xbdcd3d13	-0.100214146
4	0x3d2d5a60	0.042322516
5	0x3e46c628	0.19411528
6	0xbe1119d7	-0.14170013
7	0x3dc4e6ae	0.09614311
8	0x3d8c0615	0.068370976
9	0x3d66ccde	0.05634772
10	0xbdbe54de	-0.09293531
11	0xbe03896b	-0.1284539
12	0xbe0f3296	-0.13984141
13	0xbe0bb279	-0.136423
14	0x3dcef6c0	0.101056576
15	0x3d8e9d9d	0.06963656
16	0x3db85447	0.0900045
17	0x3c869c8d	0.016432071
18	0x3c0c13cd	0.008549643
19	0x3df8eb25	0.12154225
20	0x3d65dd90	0.0561195
21	0xbe275ad3	-0.1634324
22	0xbe2682e1	-0.16260864
23	0x3d197df4	0.037473634
24	0xbdaf0864	-0.08546522
25	0x3de4ea2d	0.11177478
26	0xbda9f2b2	-0.082982436
27	0xbe11ad21	-0.142262
28	0x3e018973	0.12650089
29	0x3e041e6a	0.12902227
30	0x3defa07f	0.11700534
31	0xbe2f18d4	-0.17099315

bn3.running_mean f4 [32]
0	0xbed9b753	-0.42522678
1	0xbe8fe615	-0.28105226
2	0xbe8e51f4	-0.277969
3	0xbe0f5b68	-0.13999712
4	0xbf190127	-0.59767383
5	0xbf096f93	-0.53685874
6	0xbd7276cc	-0.059195325
7	0xbe920149	-0.28516605
8	0xbed1e09f	-0.40991685
9	0xbefd7b5b	-0.49508175
10	0xbcfb16db	-0.030650547
11	0xbde32b28	-0.11092216
12	0x3db9d922	0.09074618
13	0xbee559e4	-0.44795144
14	0xbf40de2a	-0.75338995
15	0xbe6d6908	-0.23184597
16	0xbdcf42b2	-0.10120143
17	0xbec3e810	-0.38262987
18	0xbf17c100	-0.5927887
19	0xbf429022	-0.7600118
20	0xbf16bfae	-0.5888623
21	0xbd816ff4	-0.063201815
22	0xbf0a9b08	-0.5414281
23	0xbee1123a	-0.43959218
24	0xbe8c28f9	-0.2737501
25	0xbed25326	-0.41079062
26	0xbedf5694	-0.4362074
27	0x3e170ada	0.14750233
28	0xbe982a79	-0.29719904
29	0xbe1bb83d	-0.15207
30	0xbf3c6fd5	-0.7360814
31	0xbec02ac2	-0.37532622

bn3.running_var f4 [32]
0	0x3f8854ac	1.065084
1	0x3f05a79f	0.52208894
2	0x3f4fb262	0.81131566
3	0x3f18f086	0.5974201
4	0x3f36019a	0.71096194
5	0x3fbf59db	1.4949297
6	0x3f2ea923	0.6822683
7	0x3f1c94b8	0.61164427
8	0x3fbe42cb	1.4864134
9	0x3f4f1843	0.80896395
10	0x3f176bff	0.59149164
11	0x3f3e3872	0.7430488
12	0x3f5422b4	0.8286545
13	0x3f3c7f45	0.736317
14	0x3f703750	0.938344
15	0x3fa7783a	1.3083565
16	0x3f26ffa8	0.6523385
17	0x3f481c39	0.78168064
18	0x3fb0ca5c	1.3811755
19	0x3f673742	0.9031869
20	0x3f4a04f8	0.7891383
21	0x3f0b0359	0.54301983
22	0x3f20f794	0.62877774
23	0x3f778e18	0.9670119
24	0x3fa40392	1.281359
25	0x3f73d1c9	0.9524198
26	0x3f3ba592	0.73299515
27	0x3f17c1c2	0.59280026
28	0x3f7fb3bd	0.99883634
29	0x3fc275a2	1.5192149
30	0x3f7e4a3b	0.99332017
31	0x3ef355d0	0.47526407
