MELOSDP/SDP/chkpt/mc1/linear/3/sdp_classifier_linear-900.pth (torch, 77408 bytes, 25 tensors)

fc1.weight f4 [128, 38]
00000000: 67c5 a0bd f5b5 7abd 209f ab3d 4118 3b3e
00000010: d046 6dbd 5425 3c3e 3469 993d e9df 083c
00000020: ad63 993d ee54 21be ed89 e7bc aa49 46bd
00000030: ab46 a2bd 03c1 943d d2c8 103e 9a74 f1bc
00000040: 0f9a 5dbd f9f5 eebd 80c5 12be f3e1 2c3e
00000050: 8d51 a43d 2efd bb3c 31e9 91bd 16e1 c4bc
00000060: 9e2c aabd 103a f73d 00a0 46bc 5c9d 6f3d
00000070: f6ea cbbd 5d6c 76bd cf0d 3e3e 2884 b53d
00000080: c6ee d03d ad6f 323d 8208 0b3c b280 c23c
00000090: 30a1 86be 217b 253e e7b9 c63d 495c 7ebd
000000a0: 707d 383d bd26 97bd 2d81 6b3c 8c29 4c3d
000000b0: 40d2 be3c 2636 99bc 62ce 2e3e 2ae4 203e
000000c0: 13c4 b73d 5c34 0abc 1a80 f73d fdfb 09bd
000000d0: 4a0b 6ebd c5e3 923d fd2e 793d e9ca 28bd
000000e0: e221 ba3d 933f a7bd 9939 9dbd ce77 313e
000000f0: 49be 58bc e857 be3d c3aa 043e 6feb ff3d
00000100: 8ae9 463e 9a86 87bd af11 1c3e f20c e13d
00000110: 6848 9d3d 9f29 d5bd 76bc 0e3e 3307 c43d
00000120: 24d3 0d3d 497b 07be ec14 76be 5f95 833c
00000130: 9c37 dab9 d79f c63d 93fc 823b 4eb2 d8bd
00000140: 82f4 25bb b6da ddbd 15d2 10be 5fca 463e
00000150: d3ef d0bd 359e 253e 4e75 bb3c 8c33 203e
00000160: e8d7 48bd 480c dbbd b46f 8cbd edd0 f4bc
00000170: 6145 f33d 3c19 81ba cd2e 6ebd 5d1a 89bc
00000180: 7022 dcbd aa7a f33d 2939 513c 885b 10bc
00000190: 75b7 a23d 8daf 06be 91c2 1e3d a510 81bd
000001a0: 623d 57bd 1083 133d 355c afbd cdf5 7b3d
000001b0: 52e4 3b3c c7a9 e83d 8ceb 56bd 9513 023c
000001c0: 1a4c 8d3c 8c9a c03b 1f7e a6bd 05cb 98bd
000001d0: 6820 083d adb3 f0bd 2153 c7bc 354b 5dbd
000001e0: 518a ef3d b809 353e cc70 2fbe 75a0 8fbb
000001f0: 9929 6d3d 4799 183e 0a29 073e f975 a1bc
00000200: ee7f 0a3e 95d7 0b3b eb7a b23d ee15 083d
00000210: 9a61 893d fc34 80bd c60b 23bc b565 8a3d
00000220: e0b5 0e3e 52c8 523d bda7 9bbc 805d e5bd
00000230: e6ec 6b3c fc82 c0bd 0f27 26be 93f1 2bbb
00000240: 3955 33bb 7615 d83d 35ca ecbc b8f4 9bbd
00000250: 29c0 bbbd 4529 6bbc 35e5 6c3d 9548 c23d
00000260: 2fb9 44bd 87b8 763d 1191 1abd b481 bfbc
00000270: 5401 7b3d 9554 d139 4bae 173d ac9d 823d
00000280: 5f39 2f3e f0a1 0a3e eec5 2f3e 6b59 99bd
00000290: cba9 263e 421f 063d fba2 4c3c 5f02 2a3d
000002a0: 48e7 553e ee8e 053e d02f 1a3d 151d 0ebd
000002b0: 23b2 2abe d609 0a3e 5005 a8bc b7f9 0ebd
000002c0: 8fa1 1ebe 12a4 2fbc c602 0b3c 0373 8dbd
000002d0: e906 69bd 6a34 bfbd fea9 093e 2861 b83d
000002e0: 4627 b1bd 65be c63c 26fa ea3d 4efa e43d
000002f0: 2064 f23d 63c3 5fbd 1f9d 83bd f03e 53bc
00000300: 8db9 633d e193 7f3d 5b86 03be 196d 603d
00000310: bf4f dd3d 045f 03bd ae2a acbd d1b0 103d
00000320: 6b9a ec3d 5708 f2bd 0ba1 8f3c 328b 743d
00000330: 9c7e 40bc 2dd9 7bbe 25f8 1cbe aa4b 5b3e
00000340: e341 523e 8aa2 093c f357 603c fda4 c7bc
00000350: 8c2e 19be 34ec 2c3d 2324 e8ba 9564 debd
00000360: 291e f1bd 771d 053e 2731 9f3b 8078 1b3e
00000370: 0f7d 143e 1041 a2bd 7688 edbd 79b3 bcbd
00000380: fffa 9ebd 4cbe 9a3d d733 27bd 85ae d33d
00000390: 64dd b73d e72a b73b 79b6 023d ef84 eebd
000003a0: 5a76 c03d 5939 d83d 79c5 903d c78c 143e
000003b0: 318e 22bd 0678 113e 7b35 703d 957e f0bd
000003c0: 5fae b3bd e2b7 013e 40b4 c1bd 9aa7 8cbc
000003d0: eccd b5bd c773 80bd b459 273e 27e9 ba3d
000003e0: 018f ad3d dcb6 ad39 a2c2 0e3e 0910 33bd
000003f0: c0e1 f9bd 11db 923c 4b7c db3d 2abb 1d3c
-0.078501515 -0.061208684 0.0837996 0.18270971 -0.05792886 0.18373615 0.07490769 0.008354166
0.07489715 -0.15755054 -0.02826401 -0.048410095 -0.07923635 0.072633766 0.14139107 -0.029474545
-0.054102 -0.11668009 -0.14333153 0.16883068 0.08023367 0.022947874 -0.07124556 -0.02403311
-0.08309291 0.120716214 -0.012123108 0.05849968 -0.099569246 -0.060161937 0.18559955 0.088630974
0.102017924 0.043563534 0.008485915 0.023743007 -0.2629485 0.16160251 0.09703427 -0.06209973
0.0450415 -0.073804356 0.01437406 0.04984431 0.023293614 -0.018702578 0.17070916 0.15712038
0.08972945 -0.008435335 0.1208498 -0.03368758 -0.058116235 0.0717235 0.060835827 -0.041209135
0.09088494 -0.08166423 -0.076770015 0.17330858 -0.013228961 0.092941105 0.12955765 0.12496077
0.19425026 -0.0661747 0.15241121 0.10988797 0.07679826 -0.10408329 0.1393908 0.09571686
0.034625188 -0.13230623 -0.24031419 0.016062437 -0.00041621632 0.09698456 0.0039973943 -0.10580884
-0.002532274 -0.108327314 -0.1414264 0.19413136 -0.10201993 0.16173632 0.022883084 0.15644664
-0.04903403 -0.10695702 -0.06857243 -0.02988478 0.11878467 -0.0009849439 -0.0581501 -0.016736204
-0.10748756 0.11888631 0.012769976 -0.008810885 0.07945148 -0.13152905 0.03875977 -0.06302003
-0.052548774 0.036013663 -0.08562509 0.06151371 0.01146801 0.113605075 -0.05247073 0.007939239
0.017248202 0.0058777984 -0.081295244 -0.07460598 0.03323403 -0.117530204 -0.024331631 -0.0540268
0.11696304 0.17679489 -0.17132872 -0.0043831416 0.057901 0.1490222 0.13199249 -0.019709574
0.13525364 0.0021338214 0.08714851 0.03322404 0.06708069 -0.06260106 -0.0099515375 0.0675768
0.13936567 0.05146057 -0.019000882 -0.11199474 0.014399743 -0.09399983 -0.16225837 -0.0026236519
-0.002736403 0.10550968 -0.028905014 -0.07615036 -0.09167511 -0.014353101 0.057835776 0.094865
-0.048028167 0.060234573 -0.037736002 -0.023377277 0.061280563 0.00039926605 0.037031453 0.0637773
0.17111729 0.13538337 0.17165348 -0.07487758 0.16275708 0.032744654 0.012490029 0.041506168
0.20889008 0.13042805 0.037643254 -0.034695704 -0.16669516 0.13480315 -0.020510346 -0.034906115
-0.15491317 -0.01072027 0.008484548 -0.06906702 -0.056891356 -0.09336169 0.13443753 0.09002906
-0.08650069 0.024260709 0.11473493 0.11180554 0.118355036 -0.054629695 -0.06426453 -0.012893423
0.055596877 0.062396888 -0.12844221 0.054791544 0.10806226 -0.032073036 -0.08406578 0.035324875
0.115528904 -0.11817997 0.017532846 0.05970306 -0.011748936 -0.24594565 -0.15329035 0.21415582
0.20532946 0.008400569 0.013692844 -0.024370665 -0.14959162 0.04221745 -0.0017710965 -0.10859028
-0.11773331 0.12999521 0.0048581543 0.15182686 0.14500831 -0.07922566 -0.115982935 -0.09213919
-0.077627175 0.075558275 -0.040820923 0.10336021 0.08977774 0.005589831 0.0319123 -0.11646449
0.09397574 0.10557813 0.07068915 0.14506827 -0.039686386 0.14205942 0.058644753 -0.117428936
-0.08773493 0.12667802 -0.09458208 -0.017169762 -0.08877167 -0.06272083 0.16342813 0.091265015
0.084745415 0.00033133372 0.13941434 -0.043716464 -0.122012615 0.017926725 0.107170664 0.009627143

fc1.bias f4 [128]
00000000: 4ac6 7ebd 0e7b 113d 6212 373d 1a8d a6bd
00000010: 3b9c bf3d a34d 1abe 6095 083e be71 a6bd
00000020: 097b 853d a5af 713d 608f 0d3e 19a5 65bd
00000030: d457 b73d 99a5 bfbd f2a8 d03c b983 153e
00000040: efe4 a3bb ce46 c43d f481 97bc c951 96bd
00000050: af96 943b c096 2fbc 17c8 9b3d d0a7 a23d
00000060: 5a49 e93b faea d73d b327 263e 1650 e83c
00000070: 995d b23d ca0a af3d a849 143e 1097 023d
00000080: f0cd 15bd aaa5 b2bd ada9 a03d 9d85 8c3d
00000090: de0f a33d 4d5e 0b3e d471 ca3d c32e fcbd
000000a0: 6c89 3abd fcb6 a8bd 0539 21be b87d 223c
000000b0: 1352 5abc a501 80bd de80 153e ee65 6c3d
000000c0: 348e 05bc 22f1 473b 20f5 06be 1b97 bcbd
000000d0: ef7d 9a3d e44c 913d ebdd 99bd d39e 86bd
000000e0: 5507 143e 1784 f9bd a02e 0ebc a6bd 9cbd
000000f0: 6dfc fcbd 0a40 aebd f485 1abe b15e 6e3c
00000100: 6b38 cf3d 8cbd 153d c692 cd3d e510 143e
00000110: ac86 213e de71 c03d a5a5 05be 65fd 04bd
00000120: 40d9 0dbe deb3 a83d 4be8 b83d 1260 02be
00000130: 04f4 fdbd f53e 373d e04b 8cbd 65da e4bd
00000140: e9f1 f43c 928d 52bc b1d7 25bd 1576 f83d
00000150: 6505 b1bd d147 08bd 616c d83d d1a5 703d
00000160: 4faf b73d 600b d5bd 7ee0 c4bd a8f9 d83c
00000170: 4849 913c ac04 17be e7b6 213d aae2 bc3d
00000180: 64cc 193c 37a3 99bd c020 f23d 3059 8b3c
00000190: 2b52 17be 9757 78bd 512d 03be 9e0c 2a3d
000001a0: 03e1 a2bd 9658 a4bd ad48 2c3d bd17 9dbd
000001b0: 9786 c53c 3baa 153e 8c6f 393d 469f 8b3d
000001c0: fd14 05bd b664 ecbd b5de 9c3d 7532 b23b
000001d0: b059 8b3d 3b2e e5bd 8fcb 233c fda4 c3bc
000001e0: 4e46 79bc 3452 263c e01e 053e d91f 82bd
000001f0: 2184 fe3c 0096 063e bc0b de3d 3433 6abd
-0.062200822 0.035517745 0.044695266 -0.08132382 0.093559705 -0.15068679 0.13338232 -0.08127163
0.06517608 0.0590054 0.13824224 -0.056065653 0.08952299 -0.09357757 0.025471184 0.1460103
-0.0050016562 0.095838174 -0.018494584 -0.07339818 0.0045345644 -0.010717094 0.076065235 0.07942164
0.00711934 0.10542865 0.16226082 0.0283585 0.087092586 0.0854698 0.14481223 0.031882346
-0.03657335 -0.08723004 0.07844863 0.06861422 0.07962011 0.13610192 0.09884992 -0.123136066
-0.045541212 -0.082380265 -0.15744407 0.009917669 -0.013325232 -0.06250314 0.1459994 0.057714395
-0.00815158 0.0030508717 -0.13179445 -0.092085086 0.07543551 0.07094744 -0.075130306 -0.06573262
0.14455922 -0.12183397 -0.008678108 -0.0765336 -0.12352834 -0.08508308 -0.15090162 0.014548943
0.10118183 0.03655772 0.100377604 0.1445957 0.1577403 0.093967184 -0.1305147 -0.03246822
-0.13852406 0.08237432 0.09028681 -0.1273196 -0.12400058 0.044737775 -0.068504095 -0.11174468
0.029900508 -0.012851136 -0.040488902 0.12131897 -0.08643607 -0.033271614 0.10567547 0.058751885
0.08968984 -0.1040256 -0.09613131 0.026486233 0.017735139 -0.14747876 0.03948107 0.0922292
0.009387109 -0.07501834 0.11822653 0.017010301 -0.14777438 -0.060630407 -0.12810256 0.04151594
-0.07953074 -0.08024709 0.042061497 -0.07670543 0.024112029 0.14615719 0.045272395 0.06817488
-0.03249072 -0.115426466 0.076596655 0.005438144 0.06804216 -0.111904584 0.009997263 -0.023882383
-0.015214516 0.010151435 0.13000059 -0.06353731 0.031068863 0.13143158 0.10842082 -0.057177737

bn1.weight f4 [128]
00000000: 9309 613f 5ecf 723f 6896 7f3f 1391 8b3f
00000010: 5553 7e3f e610 823f 4b94 8d3f 4b58 8c3f
00000020: 4366 843f 5824 963f c1fa 843f 6518 853f
00000030: 7cc8 893f 3c2c 893f 7a10 773f e7aa 793f
00000040: 66db 843f 2165 793f a4d8 823f 93f3 6b3f
00000050: 9c13 853f 818a 7a3f b33b 7f3f 221e 753f
00000060: acb4 7a3f 05d8 8d3f 95b0 7a3f 0de9 853f
00000070: 57b2 8d3f 00ed 883f faa0 713f 0c7d 813f
00000080: ea8b 8d3f fa39 9c3f f5d8 813f 4f82 713f
00000090: 3c39 7d3f 451d 863f cdab 713f 5ee6 8d3f
000000a0: 200c 773f 14c7 843f e84f 933f 4793 993f
000000b0: 0500 8e3f 1e56 bc3f a839 a63f a86b a23f
000000c0: 2075 a53f d8e3 8e3f 6e17 873f fd86 7f3f
000000d0: 0591 883f f7d1 6b3f 50c0 6f3f feb1 7b3f
000000e0: 969d 853f 1143 873f 8cac a33f 5adb 883f
000000f0: 36cf 8f3f 4ef1 ae3f abcf 9c3f 8b74 5b3f
00000100: fbf8 893f 12c8 7e3f ffc9 7f3f 40c2 933f
00000110: e2a5 7b3f 5ba4 9a3f b1f4 643f 1699 7f3f
00000120: 7bef 8a3f e448 7e3f ba79 723f 0632 923f
00000130: 214e 7f3f 8ff4 823f 1792 793f 48cd 813f
00000140: a8b9 6a3f 6916 803f aaee 883f b15b 763f
00000150: 3756 6e3f 12be 603f 996a 6e3f 091e b83f
00000160: d777 7a3f ba10 713f c876 833f 2f62 973f
00000170: d13c 703f 1cef 7f3f 34a3 7e3f 34af 893f
00000180: 211e 9c3f f7ad 663f 097f b63f 3efe 803f
00000190: 3c50 953f 49ed 783f 9cb9 a93f fe3d 923f
000001a0: f7f7 623f 5109 7a3f 36c1 883f f955 853f
000001b0: 548f 8a3f 8f89 8b3f 1d71 653f d803 723f
000001c0: 54d9 903f 9c6c 7c3f 3b68 863f 82d8 8c3f
000001d0: 9e15 9b3f b396 813f f32d 923f 96f7 823f
000001e0: e188 7f3f f469 823f a976 833f b11d 8d3f
000001f0: 0944 a23f 8da4 6b3f ee9c 7c3f 931b 693f
0.87905234 0.9484767 0.99838877 1.0903648 0.99345905 1.0161407 1.106088 1.0964445
1.0343708 1.1729841 1.0389024 1.039807 1.0764308 1.0716624 0.96509516 0.975264
1.0379455 0.97419935 1.0222363 0.9216854 1.0396609 0.9786759 0.9970047 0.95749104
0.97931933 1.1081549 0.9792569 1.0461746 1.107005 1.0697327 0.94386256 1.0116286
1.1058323 1.2205193 1.0144335 0.9433946 0.9891546 1.0477682 0.9440277 1.1085927
0.96502876 1.0373254 1.150876 1.199807 1.1093756 1.4713781 1.2986345 1.2689104
1.2926369 1.1163282 1.0554025 0.9981535 1.0669256 0.92117256 0.9365282 0.9831847
1.0438716 1.0567342 1.2787032 1.0691941 1.1235111 1.366739 1.2250875 0.85724705
1.0779108 0.99524033 0.99917597 1.1543655 0.9829999 1.2081407 0.8943587 0.99842966
1.0854334 0.9932997 0.9471699 1.1421516 0.9972859 1.0230883 0.9748854 1.0140772
0.9168954 1.0006839 1.0697834 0.9623366 0.93100303 0.87790024 0.93131405 1.4384166
0.9783911 0.9416615 1.0270624 1.1826838 0.938428 0.99974227 0.9946778 1.0756593
1.2196695 0.901092 1.4257518 1.0077589 1.166511 0.9723707 1.3259768 1.1425169
0.88659614 0.97670466 1.0683963 1.0416862 1.082499 1.0901355 0.8962572 0.94537115
1.1316323 0.98603225 1.0500559 1.1003573 1.2115972 1.0124115 1.1420273 1.0231807
0.99818236 1.0188584 1.0270587 1.1024686 1.2677013 0.9204796 0.98676956 0.910577

bn1.bias f4 [128]
00000000: 75c3 3abe fc1c acbd 3f30 0fbe b23c febd
00000010: 4e99 4abe 5611 f3bd 367c b7bd 8b84 48be
00000020: b651 f2bc 87a5 83bd ecc6 2fbe 1423 2bbe
00000030: ad4b 88be bacd 03be f4df eebd 1c9e aebd
00000040: 64bc c4bd dda0 0fbe 72c1 09be 478a 2bbe
00000050: 3b56 08be fa43 a9bd 8087 5fbd 414a bbbd
00000060: 1f1a b1bd 00b5 5bbd 8186 90bb 35f7 7fbd
00000070: cd0f 8e3c aa80 a6be ad8b 12be 798a 53bd
00000080: 7f6b f3bd 28a0 b3bd 320d 99bd c3fe 0abe
00000090: 3759 d7bd 655a 8fbe f3ad 32be 37e1 c8bd
000000a0: 777e fabd 02a5 8dbd 196b 82be 2c4e 96bd
000000b0: a4fe 0dbe 53f7 7dbe 8ac7 acbd 6c5d 83bd
000000c0: 1124 1ebe 6b49 71be 60f0 31be 3386 fabc
000000d0: 9f79 b4bd 8180 05be 326f c3bd 7b17 b4bd
000000e0: 9720 24be a98c 78be ad5e 3abe 180e 0fbe
000000f0: 83f3 dfbd c985 a0be 3b3d 6ebe 5082 f4bd
00000100: ca8f 80bd cd2e 58bd ba5b 57bd c7b5 40be
00000110: 6b54 1fbe d4b8 6bbd 6989 7abe ce37 55be
00000120: 006e 8cbd 45dd 46bd 432b efbc 968d a7be
00000130: 7ecc 753c 0318 31be 7066 10bd 23a7 b9bd
00000140: 6007 7f3d 2fda 3fbd 6858 13be 4df8 38be
00000150: 6e0c b4bd e451 f5bd c0b5 57be 533d 54be
00000160: 1555 74bd 3565 d2bd 7cb1 4cbe aacc 9bbd
00000170: 9138 1fbd ec7b 47be 865d f9bb 4c0f 913d
00000180: 65bb 4dbe 7ee7 6fbe e0e3 54be 97b7 84bd
00000190: e49f 57be bb80 19be a47a b8be d414 14be
000001a0: 5d31 34be fdf6 20be d04d 8dbe b71c 42be
000001b0: 8d42 3cbe 70b6 26be 7649 afbd 5efa e8bd
000001c0: 14d8 12be 5523 1dbe 90e2 c9bd 20d0 acbd
000001d0: 80f5 45be d8cb 63be 1888 67bd c80f 40be
000001e0: c54f bebd 9b7c bfbd e3d6 6dbd 8614 43be
000001f0: 94e3 86be 897b aebd 7e0c 9cbd ffbc bfbd
-0.18238623 -0.08403966 -0.13983248 -0.124139205 -0.19785044 -0.11868541 -0.08959238 -0.19581811
-0.029579978 -0.06428056 -0.17165726 -0.167126 -0.26620236 -0.12871447 -0.116638094 -0.08526251
-0.09606245 -0.14026208 -0.134527 -0.16751967 -0.13314144 -0.082649186 -0.054572582 -0.09145022
-0.0864756 -0.053639412 -0.0044105654 -0.062491614 0.017341519 -0.32520038 -0.14311095 -0.05164573
-0.11885738 -0.08770782 -0.0747322 -0.13573746 -0.10515063 -0.27998653 -0.17449169 -0.09808581
-0.122311525 -0.06916238 -0.25472334 -0.07339129 -0.13866669 -0.24801378 -0.084364966 -0.06414303
-0.15443446 -0.23563163 -0.17376852 -0.03058157 -0.0881226 -0.13037302 -0.09542693 -0.08793541
-0.16028057 -0.24272408 -0.18200178 -0.1397022 -0.10935118 -0.3135207 -0.23265545 -0.11938918
-0.062774256 -0.052779008 -0.05257771 -0.18819343 -0.15559547 -0.057549313 -0.2446648 -0.20822069
-0.06856918 -0.048550863 -0.029195433 -0.3272521 0.015002368 -0.17294316 -0.035253942 -0.09065082
0.062262893 -0.046838935 -0.14389193 -0.18063469 -0.08791433 -0.1197851 -0.21065426 -0.20726518
-0.059651453 -0.1027321 -0.1998958 -0.07607396 -0.038872305 -0.19480866 -0.007610026 0.07082996
-0.20091017 -0.23428151 -0.20790052 -0.064803295 -0.21057087 -0.14990513 -0.36031067 -0.1446107
-0.17596956 -0.15719219 -0.2759843 -0.18956266 -0.18384762 -0.16280532 -0.085589334 -0.11375879
-0.1434024 -0.1534551 -0.098576665 -0.08438134 -0.19331932 -0.22245729 -0.056526273 -0.1875602
-0.092925586 -0.093499385 -0.05806626 -0.19050798 -0.26345503 -0.08519656 -0.0761957 -0.0936222

bn1.running_mean f4 [128]
00000000: dc28 7bbd 578b 063d 7d22 373d 7459 a4bd
00000010: 01ce bd3d 9a61 1cbe dc4d 0a3e 88e9 a0bd
00000020: 00ac 8a3d 9188 653d 7470 0b3e 7b83 61bd
00000030: 3841 b63d 291b b9bd bd45 c63c 01df 153e
00000040: 0bb1 afbb 54f5 ca3d bb67 a1bc e3d1 a5bd
00000050: 4f70 d63b 2e59 63bc 2826 983d 2b96 a73d
00000060: 1694 3b3b 7f3c d53d 3247 283e 9744 fe3c
00000070: c6a6 b53d b8e3 ae3d 4257 163e cfc4 fc3c
00000080: 89cf 0ebd fac1 b5bd 64f3 9d3d 1846 873d
00000090: bd56 a93d bc94 0d3e 4885 d43d e155 f3bd
000000a0: dcb5 3cbd e31a 9cbd 0056 1fbe eea5 203c
000000b0: 1799 78bc e1e2 78bd 25c8 133e bf81 5a3d
000000c0: c6b7 03bc 35c9 8b3b a100 06be 4d4f c6bd
000000d0: ecdc a33d 455d 943d 5540 8bbd f59e 91bd
000000e0: c0e6 133e 32c3 f3bd 985a 11bc ab02 98bd
000000f0: 15d5 f4bd 2363 a9bd 6a08 16be cabf 393c
00000100: b276 d43d ed0d 1a3d 64c1 cd3d 4f4d 133e
00000110: e7e7 223e 415b be3d 3f87 08be d370 04bd
00000120: f3b7 08be 0734 a03d a3b1 b43d 9f44 02be
00000130: 27f4 00be e368 363d 9f9c 8dbd fbd7 e2bd
00000140: fcfd ba3c e0f4 00bc f018 27bd 4070 ff3d
00000150: 69d6 aebd 16c8 1ebd 57a1 d83d 41f8 773d
00000160: bb84 b13d 4577 d3bd 7b02 c3bd 06f4 ec3c
00000170: 3d40 923c b6d3 12be ed97 0f3d b68d b63d
00000180: 0a9e f13b 2beb 9cbd 797f f63d ee4c a93c
00000190: 0805 13be 4ca4 89bd 98d8 00be e43a 353d
000001a0: dca6 a2bd 1c6e 9fbd 8406 243d 204c a3bd
000001b0: 9203 e03c 9019 103e c425 343d 0dd0 883d
000001c0: 4464 f7bc dca4 ebbd 22de a03d ebc6 d13b
000001d0: 7b9d 8f3d 360b e9bd b4be 213c 746c c4bc
000001e0: dd5a 86bc b5c4 483c 8f6f 023e c6d6 83bd
000001f0: c691 033d e78b 033e 9af2 da3d 2b26 82bd
-0.061318263 0.03284773 0.044710625 -0.08024874 0.09267808 -0.15271607 0.13506263 -0.078570426
0.06771088 0.056038443 0.13617116 -0.05505703 0.08899158 -0.090383835 0.024203176 0.1463585
-0.0053616813 0.09910074 -0.019702783 -0.08096673 0.00654415 -0.013876243 0.07429153 0.08182939
0.0028622202 0.10411929 0.16433409 0.031038566 0.088697 0.08539528 0.14681724 0.030855564
-0.03486589 -0.08874889 0.07712439 0.06605166 0.08268497 0.13826269 0.10376984 -0.118816145
-0.046071872 -0.07622316 -0.1556015 0.009805186 -0.015173218 -0.060763244 0.14431818 0.05334639
-0.0080394205 0.004265929 -0.13086177 -0.09683094 0.08001122 0.07244352 -0.0679938 -0.07110397
0.14443493 -0.11902465 -0.008871697 -0.07422384 -0.11954705 -0.08270862 -0.14651647 0.01133723
0.10374202 0.037610937 0.10046652 0.1438496 0.15908776 0.09294749 -0.13332842 -0.03233416
-0.13351421 0.078224234 0.08822944 -0.1272149 -0.12593137 0.04453362 -0.06914639 -0.11076351
0.022826187 -0.007870883 -0.040795267 0.12472582 -0.08536989 -0.038765036 0.10577648 0.060539488
0.086678945 -0.10325483 -0.095219575 0.028924953 0.017852897 -0.14338574 0.035056997 0.08913748
0.007373576 -0.07662042 0.12036032 0.020666566 -0.14357388 -0.0672079 -0.12582624 0.044245616
-0.07941982 -0.077846736 0.040045276 -0.07973504 0.027345452 0.14072251 0.04398133 0.066803075
-0.030199178 -0.11506054 0.078548685 0.0064018867 0.07012459 -0.113790914 0.009872127 -0.023977496
-0.016400749 0.01225393 0.12737869 -0.06437449 0.032121442 0.12846337 0.10690804 -0.06354936

bn1.running_var f4 [128]
00000000: c10a f93e 7542 253f 5589 c73d 0dc2 e13d
00000010: fcec 3e3e d1e0 6f3e 80a5 493e c273 223e
00000020: 6305 7c3e eff9 633e 7ed3 033e 4d8e 853e
00000030: 10c5 3b3e f23f 1f3f a412 413e 7bc8 283e
00000040: e16c 703e 6ef4 fd3e a681 e03e 5335 953f
00000050: b01d 7a3e 65f2 8b3e 1d1a 703e 78e4 ee3d
00000060: 35ba 253e 8490 623e 4cef 083f 398a da3d
00000070: 73db 0d3e 18b7 073e d8e2 ee3d 0c08 873e
00000080: 63dd 4f3e 3bc5 c93d 1718 6d3e 139f 923e
00000090: 06c9 ae3e 7b35 173e ac4d 223f 49dc 523e
000000a0: bb65 c83d f405 893e 866b 173e 88ea 1e3f
000000b0: f4c7 9f3d 22df a13d 31a8 633e 0e69 983d
000000c0: 913b a63d 2e1a 713e e61a 253e 0af3 c83e
000000d0: 4299 2c3e e2dc 873e f46a 193f baf5 b73e
000000e0: c026 a53d e112 5c3e dd73 723d 5ca6 0c3e
000000f0: 510a 913e 9d9b 6e3e df7c 533e cd2a 973e
00000100: 65ee 313e 374e 313e ee14 263e 008d 233e
00000110: b39c 6f3e 0311 733e 98f9 f33e ca0a af3e
00000120: efcf 9e3e cd58 683e e55a 2c3e b448 803d
00000130: 8033 2d3e 8e4a 113e d26a 813e 60f6 053e
00000140: cda8 c63e 77e3 db3f 819b cb3d bdd7 213e
00000150: 4f9d 8f3e 7ee5 6c3f 73b2 183e f2e3 a13d
00000160: 0118 ed3e f66c 3d3e 1a14 db3d 0d0c 263f
00000170: 33a1 6f3e bae4 8f3e 3ee3 3f3e b584 2b3e
00000180: 5214 e73d 370e 103e 6bc7 0f3e ec4f 6a3e
00000190: 61a0 483e c900 013f a453 193e 6788 303e
000001a0: 335b be3e c96a 1d3f 023a f73d 26ca d23d
000001b0: d35c 3c3e 5e70 ba3d 4b33 613e 626f 843e
000001c0: fb71 393e 9aac d63d 6538 293e 0f3a 863e
000001d0: 4af7 493d 2446 853d 1a76 b43d 59f9 773e
000001e0: eb93 a03d 5313 dd3e 2725 143e 7979 d13d
000001f0: 7f59 8e3d 3f6d 1f3e f86f 123f 5c8d 583e
0.48641017 0.6455453 0.09742991 0.110233404 0.1864509 0.23425604 0.1969204 0.1586447
0.2461143 0.22263311 0.12873647 0.2608513 0.18336892 0.6220695 0.18854767 0.16482727
0.23479034 0.49600548 0.43848914 1.1656898 0.24425387 0.2733337 0.23447461 0.11664671
0.16184314 0.22125441 0.5349014 0.10670895 0.13853244 0.13253438 0.11664361 0.26373327
0.20299296 0.09852072 0.23153721 0.2863699 0.34137744 0.14766495 0.6339977 0.20591845
0.097850285 0.26762354 0.1478711 0.62076616 0.0780181 0.07903887 0.22232129 0.074419126
0.0811683 0.23545143 0.16123542 0.39247924 0.16855338 0.26535708 0.5992882 0.35929662
0.080640316 0.21491577 0.059192527 0.13735336 0.28328183 0.2330155 0.20653103 0.29524842
0.17376097 0.17314993 0.16218922 0.15971756 0.2339962 0.23736958 0.47651362 0.3418792
0.31018016 0.22690125 0.16831549 0.06263867 0.16914177 0.14188597 0.2527681 0.13082266
0.3880066 1.7178792 0.099417694 0.15804954 0.28049704 0.9253768 0.14911823 0.07904805
0.46307376 0.18498597 0.106971934 0.6486214 0.23401336 0.28104192 0.1873903 0.16749842
0.11283173 0.14067923 0.14040916 0.2288205 0.1959243 0.50391823 0.14973313 0.17239533
0.37178954 0.61491066 0.12071611 0.10292463 0.18394785 0.091034636 0.21992223 0.25866228
0.18109886 0.1048214 0.16525419 0.2621617 0.0493081 0.06507519 0.088115886 0.24216212
0.07840713 0.43178806 0.14467297 0.10228247 0.06950664 0.15569018 0.572021 0.21147674

fc2.weight f4 [64, 128]
00000000: 0fb5 d9bc 3325 d03c f6bb 63bd 9021 a0bd
00000010: 2e5c c93c 330f a3bd f81e b0bd 6a00 0bbc
00000020: 7cf3 80bd 5c75 103e 9247 c83b 2a41 8fbd
00000030: 39c8 1ebd 8cea 7d3d 62ff f0bb 9cf4 edbc
00000040: 7bcd 3cbd 8f2a 4cbd 1642 6abd 7014 b6bc
00000050: 1e73 5f3c d3b3 f43c 5b2b 793d da9d e5bc
00000060: a3ca 84bd f876 c6bd 383f 19bd 022d 0dbd
00000070: 42c5 0fbe ef0c 9bbc 79cc 863c 59dc c1bb
00000080: 3686 b0bd 3b5f 4b3e 55e9 84bd 8df5 9b3d
00000090: 89ba 073d e738 99bd 7574 e6bc d019 f13c
000000a0: 30ea a23c ad5e fcbd 5fae f7bc 0a8a 323e
000000b0: 4757 a23c b6b0 2e3d 75f4 d63d d67a 7f3d
000000c0: ad6a e83d f114 0b3e cb0a aeb9 4c40 513d
000000d0: ea31 f7bb 43ac 8c3c 770e a63c 4e12 183d
000000e0: 31dd 223d 35e8 113d 9294 4abd 5082 1fbd
000000f0: 5c8d 1a3d 4b0a 70be 5038 4cbe b8f6 77bc
00000100: 4d74 b13d 5344 1abd eff6 f1bc b7a4 ffbd
00000110: e1d3 89bd c3e3 883d 94ab 993b 6fe9 49bc
00000120: 83bd 9b3d e546 3bbd 2c4c 42bd bd00 c3bd
00000130: feb5 80bd 23d9 8bbd e00e 753c 5ba1 733d
00000140: 9188 0d3d 1456 653c ddca ccbc 16c2 663d
00000150: 227b 653d 7581 973c 3023 0d3c 796b e33d
00000160: b366 aa3c 8333 823d 1dc5 b3bd 311b b6bd
00000170: 5a71 643d debb 953d c49f b8bb e22a 89bb
00000180: 4ebe 7b3d 5c09 ecbc c331 85bd abe5 69bd
00000190: f099 82bc b1a2 733c 80a5 48be a827 04be
000001a0: 7814 e5bc a2e8 8e3d c0ed 1b3d 5309 bb3d
000001b0: 5490 a63d 6418 e23d b9c2 13bd cd71 13bc
000001c0: 9bcd 6bbd 00ad 93bc 3c21 11bc 0fc8 003d
000001d0: f6cc c53d 2b62 533d 2d44 5a3d 956b 9cbd
000001e0: 384f 9e3d 3ecb 5dbd f43a cabc 353f d23d
000001f0: 72d8 c33d 8337 df3c 495c 323d 0cd1 d7bc
00000200: bc8d 713d c953 4e3c 1857 a93d dc95 be3d
00000210: 05ec 90bd 7b81 f9bc 9a36 723d 8692 30bc
00000220: d85c 603d dc57 963c f458 79bd 3876 a83d
00000230: a508 0e3d 6f98 7fbc d0bd b03c a8ec 823d
00000240: 6360 693d ac07 83bc fd4b b13c 3c5c 1cbd
00000250: 0b6e 2bbd 3811 f63c 6e12 923d 4bdb 893d
00000260: 35d7 263c bf20 683d cb02 0bbe 3872 c8bd
00000270: 687b f73b 3feb 063d 1435 9fbc 300b c9bc
00000280: 6f3e 27bd e972 cfbd 612a c43d abdf c83c
00000290: f802 1d3d b53a 81ba c33d 2bbd ee85 8abc
000002a0: b979 babd 5376 693d 08fb fe3c b152 0fbd
000002b0: 4663 ebba 3b73 c0bc 2770 9fbd 6f31 8ebd
000002c0: 08b2 94bd 57cb 193d 684f 67bc d721 53bd
000002d0: f025 673d c715 873d 06aa 453d b6bb 683d
000002e0: 7a4e c4bc d8dc 58bd e9d4 863c c504 08bd
000002f0: 4353 4c3d d8d7 4ebd 39a4 14bd b130 9bbd
00000300: ed1e 05bc 3ebd 0ebd e81d 303d eb69 b33d
00000310: 68bf 0c3d 7403 2abd a295 623d 55d8 15bc
00000320: 60b2 843d debd 36bd d630 3cbd 9cf4 8a3a
00000330: 657b 693d 96d0 5bbb 4232 813d d505 3dbc
00000340: 07d3 b5bd 1e2a d9bc 7ed6 82bd 8e95 5ebd
00000350: b8c2 cb3c 1831 8f3c 0c9a babd b695 aebc
00000360: cf85 f73d 978e 7abd e30d 7dbd 6a05 923d
00000370: 389a 5bbd de0e ce3c 225b b4bd db16 b2bb
00000380: e14b f9bd 717e 983b 7c10 063c 399e ba3c
00000390: 9269 ce3c c4f2 783d 035a 803d b3aa f4bc
000003a0: 67f0 d2bc e5ac 973d f478 0bbc 2006 36ba
000003b0: 4d8c 893d 55c2 e9bc 8c0e 633d f0ab 98bd
000003c0: a3fd 203d 0256 9abd cb31 b93d 0c28 3b3d
000003d0: 5ce3 6e3d 9fee 193d 9f78 54bd 8a93 97bd
000003e0: 6611 813a 4b06 ab3d 3b80 f2bd 46ae 633c
000003f0: 8bdf c0bd f4a4 c5bd 2d28 573d 3a88 9bbd
-0.026575593 0.025408363 -0.055599175 -0.078189015 0.024580088 -0.079618834 -0.08599657 -0.008483985
-0.06296441 0.14107269 0.0061120475 -0.06994851 -0.038765166 0.06199126 -0.0073546628 -0.029047303
-0.0460944 -0.049845275 -0.05719193 -0.022226542 0.013638286 0.029870903 0.060832363 -0.028029371
-0.064839624 -0.0969066 -0.037413806 -0.03446675 -0.14040092 -0.018927066 0.016454922 -0.00591616
-0.08619349 0.19860546 -0.06489817 0.076151945 0.03313688 -0.074815564 -0.028131703 0.029431254
0.01988706 -0.123227455 -0.030234514 0.1743547 0.019817008 0.042648993 0.10495845 0.062373005
0.11348472 0.13582207 -0.00033195908 0.05108671 -0.007543792 0.017171985 0.02027057 0.03712683
0.039761726 0.03562184 -0.049458094 -0.038942635 0.037732467 -0.23441426 -0.19943357 -0.015134506
0.08664761 -0.037662815 -0.029536692 -0.12482589 -0.06729866 0.06684067 0.004689643 -0.012323721
0.07604506 -0.045721907 -0.047435924 -0.09521625 -0.06284712 -0.06828525 0.01495716 0.059480052
0.034554068 0.013997573 -0.024999077 0.05633744 0.05602563 0.018494347 0.008614346 0.11104483
0.020800924 0.06357481 -0.08777831 -0.08891905 0.055772163 0.073112234 -0.00563428 -0.00418602
0.061460786 -0.028813057 -0.06503632 -0.057103794 -0.015942544 0.014870332 -0.19594383 -0.12905753
-0.027963862 0.06977965 0.038068533 0.09132638 0.08132997 0.110398084 -0.036074374 -0.0089993
-0.057569128 -0.018026829 -0.008858021 0.03144079 0.09658234 0.051607292 0.053287674 -0.07637707
0.077299535 -0.054148905 -0.024686314 0.10265962 0.09562768 0.02724815 0.04354504 -0.026344799
0.05897306 0.012593218 0.08268565 0.09305927 -0.07076267 -0.030457249 0.059134103 -0.010777121
0.054776043 0.018352441 -0.060875848 0.082256734 0.034676213 -0.015600308 0.021574885 0.06392795
0.056976687 -0.01599487 0.02164268 -0.0381739 -0.041852992 0.030037507 0.071324214 0.0673128
0.010183145 0.056671854 -0.13575284 -0.097874105 0.007552553 0.032939192 -0.01943449 -0.024541467
-0.040831026 -0.10129339 0.09578396 0.024520716 0.03833291 -0.0009859415 -0.041806947 -0.016909566
-0.09105248 0.05699761 0.03112556 -0.03499097 -0.0017958663 -0.023492446 -0.07785063 -0.069430225
-0.07260519 0.037547436 -0.014118053 -0.051545944 0.056432664 0.065959506 0.04825785 0.05681964
-0.023963202 -0.052944988 0.016458945 -0.033207674 0.049884092 -0.050498813 -0.036289427 -0.075776465
-0.008125049 -0.034848444 0.04299727 0.087604366 0.034362227 -0.0415072 0.055318482 -0.009145816
0.06479335 -0.044614665 -0.04594501 0.0010601464 0.057002444 -0.0033541075 0.06308414 -0.011537035
-0.08878141 -0.02650934 -0.063885674 -0.054341845 0.024873123 0.017479464 -0.09111413 -0.021311622
0.12086069 -0.06117114 -0.06178082 0.07129939 -0.05361387 0.025153574 -0.08806445 -0.0054348535
-0.12172676 0.004653745 0.008182641 0.022780525 0.025196824 0.060778394 0.062671684 -0.029866552
-0.025749398 0.07406024 -0.008512724 -0.0006943662 0.067162134 -0.028535048 0.055433795 -0.074546695
0.039304387 -0.07535936 0.090427004 0.04569249 0.058322296 0.037581082 -0.051872846 -0.07401188
0.0009847104 0.0835081 -0.11840864 0.0138965305 -0.094176374 -0.09650603 0.05252855 -0.075943425

fc2.bias f4 [64]
00000000: 15b5 68bd 9959 733d 8b8e 5abd 59e4 fdbc
00000010: 0fce 9fbd fb94 b43d 8848 5b3d 4663 1a3d
00000020: d0ba 3abd 5456 963d 2ff1 f6bc 7b9d 033d
00000030: 3dda 643d 0361 afbd f3d7 d4bc 0971 10bc
00000040: 78b0 57bd 9fbb 653d a156 0a3d f8da 153d
00000050: d464 60bd 68f7 44bd f383 1e3d 62e5 973d
00000060: c3f2 e4bc 5aa7 03bd 1561 713d b058 303d
00000070: 0010 623d 52e4 5abd 2ba8 35bd a369 ffbb
00000080: 8685 79bd 9149 753d 0e21 a03b a85b 553d
00000090: b5c8 0c3b c920 323d 9fcf 323c 2647 333d
000000a0: c145 8a3d 2bf2 f73c c483 87bc 96b2 d63c
000000b0: f226 6bbb 614c 8fbb 2094 0fbd facc 6cbd
000000c0: 493d 5cbc 782b af3d fa51 8abd 4b07 9c3d
000000d0: c548 8abd e7f8 d53b 1f35 ea3b 6dfa e63b
000000e0: 8699 c03c d92b 4f3d b16c fc3c 1301 a7bd
000000f0: 5e07 38bd e68b c0bc 8872 33bd e102 1cbc
-0.05681332 0.05941162 -0.053358596 -0.030992674 -0.078029744 0.08817478 0.053535968 0.03769233
-0.045588315 0.073406845 -0.030144302 0.032132607 0.05587219 -0.085634254 -0.025981879 -0.008816012
-0.052658528 0.056087133 0.033774022 0.036585778 -0.054783657 -0.048087507 0.038700055 0.07416798
-0.027947789 -0.03214202 0.058930475 0.04305333 0.05519104 -0.0534404 -0.04434983 -0.0077945753
-0.060918353 0.05988461 0.004886753 0.052089363 0.0021481935 0.043488298 0.010913759 0.043769024
0.06751586 0.030266842 -0.016542323 0.026208203 -0.0035881368 -0.0043731187 -0.035053372 -0.05781267
-0.013442346 0.08553213 -0.06753917 0.076185785 -0.06752161 0.0065299156 0.007147446 0.007048896
0.023510706 0.050578926 0.030813547 -0.08154502 -0.0449289 -0.023504209 -0.043810397 -0.009522171

bn2.weight f4 [64]
00000000: df03 893f 7d94 813f 822a 813f a240 803f
00000010: be32 893f e656 803f a2f4 7b3f 69c1 783f
00000020: 8d82 883f 7d7e 7c3f 93fa 7e3f 084a 773f
00000030: 8fb8 823f 0236 803f 25a2 7f3f c01b 833f
00000040: fd16 883f 272d 803f 1f68 783f 2c86 783f
00000050: b911 733f 888d 853f f6a2 7f3f e21a 733f
00000060: 5ee6 873f 5a8c 7c3f 538c 8e3f 6475 7a3f
00000070: 3011 913f cd11 863f 570e 743f 453d 883f
00000080: 548d 8c3f 9ac2 893f 4bd1 903f edc0 863f
00000090: bbce 813f 1dfd 7f3f 0aa7 6c3f cd1e 7e3f
000000a0: 9cf3 9b3f bcbc 853f 292a 8a3f de2e 893f
000000b0: 238c 853f 8265 833f 82d2 7b3f f7b6 813f
000000c0: 49c3 753f 083d 7f3f 2dfb 7f3f 7f66 843f
000000d0: 429d 823f 0152 7f3f 3149 6d3f c69b 953f
000000e0: 2e1d 7d3f d097 783f c92e 8d3f a63e 823f
000000f0: a534 893f 74a3 923f 05ac 7d3f 7e12 873f
1.0704306 1.012344 1.0091097 1.0019724 1.071861 1.0026519 0.98420155 0.9717012
1.0664841 0.98630506 0.99601096 0.9659734 1.0212573 1.0016482 0.9985679 1.0242844
1.0632015 1.0013779 0.97033876 0.9707973 0.9494892 1.0433817 0.99858034 0.94962895
1.0617177 0.9865166 1.1136574 0.97835374 1.133337 1.0474182 0.9533438 1.0643698
1.098063 1.0762513 1.1313871 1.0527626 1.0141214 0.99995595 0.9244238 0.9926575
1.2183719 1.0448222 1.0794116 1.0717428 1.0433391 1.0265353 0.98368084 1.0133961
0.96001107 0.997025 0.9999264 1.0343779 1.0204241 0.99734503 0.92689806 1.1688163
0.9887265 0.9710665 1.1029903 1.0175369 1.0719191 1.1456132 0.99090606 1.0552518

bn2.bias f4 [64]
00000000: 9748 3cbc 77a9 2e3c c8d3 afbd 2b6f cbbe
00000010: 6843 963d e517 e2bd fab0 10bd 5036 1abd
00000020: 8367 d33c 3e6c 0abe e0ea 96bd 1562 a7be
00000030: 959b e3bd 1766 6fbc 1fda d4bd 7ce0 84bd
00000040: a7f1 10bf 2fb0 39bd 3173 cbbd 28fd 22bd
00000050: ca50 1ebe 0f6d 82bc adea eebc d915 abbd
00000060: c7bf 9dbd 146a 18bd 58fd 493d a28f bbbd
00000070: 5a17 2bbd 9798 ad3a 5c86 9ebd 2927 e23a
00000080: c2e1 edbe 75d4 183d 16fe 47bd 7d0c 6c3d
00000090: 904e acbd cfb7 993c b916 8abe 65e9 f73c
000000a0: 2ec0 533d 76bd 88be c19d abbd 6aaa 03bd
000000b0: f6a4 803c c19c 34bd f572 d4be 2bf0 19bd
000000c0: d7d8 cbbd edc6 10bd 80bb 0abd 367f f9bc
000000d0: 1bb8 113d 9312 20be 1227 09be 42a9 1038
000000e0: ea48 eebd 7edd 9abd 2d8f 8bbd e0ad 4abd
000000f0: 6cfb 603d c8cb ac3d 0db6 51bc 6c63 8c3d
-0.011491916 0.010660521 -0.08585316 -0.39733252 0.073370755 -0.11039714 -0.035325028 -0.037649453
0.025806194 -0.13517854 -0.073690176 -0.32692018 -0.11113659 -0.014611742 -0.10393166 -0.064881295
-0.5661873 -0.045334037 -0.099340804 -0.03979221 -0.15460506 -0.015921144 -0.029164637 -0.083537765
-0.07702594 -0.03721054 0.049313873 -0.09158255 -0.041770317 0.0013244328 -0.07740471 0.0017254102
-0.46461302 0.03731199 -0.0488263 0.057629097 -0.08413422 0.018764405 -0.2697046 0.030262658
0.05169695 -0.26707047 -0.083796985 -0.03214494 0.01570366 -0.044094805 -0.41493955 -0.037582558
-0.09953468 -0.03534596 -0.03387022 -0.030456167 0.035575967 -0.15632086 -0.1339381 3.448991e-05
-0.11635001 -0.075617775 -0.06814418 -0.049482226 0.054927275 0.08437306 -0.012799752 0.06854901

bn2.running_mean f4 [64]
00000000: 5134 76be 327b 273d e6f1 78be 7bd4 7b3b
00000010: f208 793e 0b28 1e3d 3054 39bd 9e81 10be
00000020: 39c3 28be a5dd 5f3d e46c 59be e67b 3cbe
00000030: 21c9 24be f22a 1b3c 706b 403e e8a4 92be
00000040: 8812 e0be 21a1 74be 8d0d 2c3e c781 2abd
00000050: 3eb7 9abe e072 213e fbec a13e b953 8d3d
00000060: f0b0 7fbe 7de1 7f3e 31f3 dabd 070c fcbd
00000070: 4924 cabd 09fc 0b3d 6012 a5be a564 65be
00000080: c2b1 12bf c8dd f63d 50bb 81be 3756 ad3d
00000090: cde6 3cbe 4b40 833e ab16 3cbe ae3d 823d
000000a0: a69c 403e 0713 babe 7107 a8be 464b e9bd
000000b0: d327 51bd 514f 73be 74ab 2abe 4553 9dbe
000000c0: f55e b7be 1cd8 7e3e bc0b 39bd 683d 5f3d
000000d0: 35bf 373d f01e eabd 6f1b c9be f782 373e
000000e0: 897e 80be 186a be3d 1280 84be 921d c3bd
000000f0: 1cca 183e cdd0 923e e3bd 31be 9eb1 433e
-0.24043395 0.040888973 -0.24311027 0.0038426209 0.24319819 0.038612407 -0.045246303 -0.14111945
-0.16480722 0.054654736 -0.21232945 -0.18406639 -0.1609235 0.009470688 0.18790984 -0.28641438
-0.43764138 -0.23889591 0.16802044 -0.04162767 -0.30217928 0.15766478 0.31626114 0.069007345
-0.2496984 0.2498836 -0.10690916 -0.123069815 -0.09870202 0.034175906 -0.32240582 -0.22401674
-0.57302487 0.1205402 -0.2533822 0.0846371 -0.18447419 0.2563499 -0.18368022 0.06359421
0.18809757 -0.36342642 -0.32818177 -0.113913104 -0.05106337 -0.23760726 -0.16666967 -0.30727592
-0.35814634 0.24887127 -0.045177206 0.05450192 0.044860084 -0.11431682 -0.39278743 0.17921053
-0.2509654 0.092975795 -0.2587896 -0.095271245 0.14920849 0.28674927 -0.17357592 0.19110724

bn2.running_var f4 [64]
00000000: 4f3b d93e 0251 1b3f 986e 023f 34df 723e
00000010: c123 723f 9343 fc3e da30 ba3e ab88 2f3f
00000020: e51a de3e 2412 d23e 3715 e13e 11a7 a63e
00000030: dc5c ef3e 43e7 033f 81c9 013f 15b0 0f3f
00000040: 8b0d a23e bc9f 053f 8ec4 133f 9438 d63e
00000050: d519 043f d47e fc3e f857 e53e e331 c03e
00000060: f7c2 a33e 5cbd f33e 1c7a 0a3f 9098 a53e
00000070: 1b61 123f 11f6 d33e 48da 013f 049f f73e
00000080: 126b f23e 42b0 1d3f 30ff fb3e 3f17 363f
00000090: f46a 0b3f 76c3 6e3f c190 a83e 4eef 9f3e
000000a0: 38bc dd3e 34c7 123f 6407 103f 22bb 033f
000000b0: 072b 2e3f ae7a 8d3e 14f7 983e d122 093f
000000c0: f107 e53e d731 c83e 33ce 8f3e b9e7 003f
000000d0: 37b3 283f ffb1 d23e 9380 e93e 4c55 513f
000000e0: 6c11 e63e 90f2 d93e b322 fb3e ab7c de3e
000000f0: ca5c 543f 1fca 653f 3a4d 133f bbcf 163f
0.4242806 0.60670483 0.5095 0.23717958 0.94585806 0.49270305 0.36365396 0.68567914
0.43379894 0.41029465 0.43961498 0.32549337 0.46750534 0.5152475 0.50698096 0.56128055
0.31650957 0.5219686 0.57721794 0.4184004 0.51601917 0.49315512 0.44793677 0.3753806
0.31984684 0.47605407 0.54092574 0.32342958 0.5717942 0.4139867 0.50723696 0.48363507
0.47347313 0.61597073 0.4921813 0.7112922 0.5446007 0.93267 0.32922938 0.31237262
0.43307662 0.5733521 0.5626128 0.51457417 0.68034405 0.2763266 0.29876006 0.5356875
0.4473262 0.39100525 0.28087005 0.5035358 0.6589846 0.41151425 0.45605907 0.8177078
0.44935167 0.42567873 0.4904991 0.4345449 0.82954085 0.8976154 0.57539713 0.5891072

fc3.weight f4 [32, 64]
00000000: 13d5 93bd 68ae f4bd e8f9 b63d 2336 0ebd
00000010: d316 28be c52d 9e3d a238 2fbb 5e75 9a3c
00000020: 3d5b c5bd 2e6a 38bc b738 d8bb 3985 003e
00000030: 9a5d c63a 60f1 9bbd ca38 4dbc 0240 223d
00000040: cc43 013e d459 0cbd d185 a9bd 1e20 dd3c
00000050: 690d 843d bbe5 b6bd 4333 dbbd 9f38 c13c
00000060: 26b6 fbbb 28d5 99bd f318 0ebe fcef dbbd
00000070: 0572 1d3b db5f ca3d d278 06bc cf3c 4a3d
00000080: ede1 d13d 0eae c1bd aef4 d83c b16a 1bbe
00000090: 3141 39bd b836 b43c 28cf 7f3d 5578 39bd
000000a0: 49a9 92be a417 a53d 9b21 2e3d 5da4 00bd
000000b0: 3045 58bd 32dc 8b3c 2789 543d c5d6 993b
000000c0: aafa bdbd dbec 10bd b8da d4bc fc2b 12be
000000d0: 58d7 00be a613 cbbd 657b 7b3d 6664 efbd
000000e0: 6bea 8e3d f1a8 f6bb e6de acbd 6479 d4bc
000000f0: cb33 94bd 18a3 b2bd e798 2ebd 9912 c7bc
00000100: c9a4 21bd 2500 38bd 9bc1 6e3d e6a0 f6bd
00000110: 3043 e437 5986 633d a074 9cbd 12c5 7bbd
00000120: ee47 17be ab9b 11be a03a 0dbe 4d98 d53d
00000130: 6054 39bd 70cb 72bd 6645 913d ed6a d4bb
00000140: c9a7 ec3c 4ad3 e1bd 83a9 70bc 379f 5a3c
00000150: d6c0 263c fac3 c4bc f704 9f3d a983 833c
00000160: 99ed 773c e328 51bd 13ff 18be eea3 d7bd
00000170: d384 1b3d f499 51bd 32fd 67bd 528b 143c
00000180: 0b7d ed3d 8edd d7bc 0faf 41bd ab61 5bbd
00000190: aa05 40be 849c 29bc c738 9cbd c20c d3bd
000001a0: d496 a83d 1859 143e 0734 31be 9dd8 803d
000001b0: efe6 ca3d e415 bb3c f7a7 cf3d 8a2c 093b
000001c0: 8c0d 45bd 62d4 b1bd ba12 8e3d 7aac 333d
000001d0: d70d 843d 6601 eabd 051a bd3d d751 76bd
000001e0: 44b8 6cbd d0fa fabc d50a cabd 24a8 03be
000001f0: 0c5a 8f3c 53d8 853d 5109 0a3b e177 44bd
00000200: a8cf c73c cd97 653d 2758 18be f46d c73d
00000210: 1551 2d3c 95e8 02be ec34 583b 61e5 153d
00000220: 49df aabd c3f0 ad3c 672f 25bd 231b 803d
00000230: a450 763c 7af0 a9bc 36f7 29bd 5633 f3bd
00000240: 9c7c 033e 392b 2dbe 0055 673d b2ea 79bc
00000250: 2251 3abd 0d55 453c 02f9 61bb 7f79 eebd
00000260: 27b6 cebd 70c5 963d ed78 8abd 486b 38bd
00000270: c4c7 c1bd ddc0 dabc 483d 22be 3e0f 653c
00000280: 4b43 073e 1f73 213d bc00 b6bd ccc9 89bc
00000290: 2a1e b0bd 31b7 013d 5aea c9bc a1b1 903c
000002a0: dddd 1ebb 1498 1a3d e280 d3bd 2469 44bd
000002b0: c609 0abd 236c 79bc 0955 df3d 71b2 00be
000002c0: dd6a abbc 37ac c0bc 79eb 89bd b827 80bd
000002d0: 8b94 d2bd 62bd 9bbd 1f80 a9bc 9bb4 95bd
000002e0: d2ef 0bbe c180 3c3c 8d6e 92bd b668 c73a
000002f0: 0cbd fcbc 10e1 9fbc 5c7d 8abd 5adc d2bc
00000300: 9b99 b9bd aad4 bdbc 6670 b93d b9bb a23d
00000310: f84c 013c b0aa 013e f7fd e73d b60d c93d
00000320: 1ce6 98bd 1138 f83d 4cab 94bd db04 043e
00000330: 65b3 68bd fa7c 153c 0bf6 9aba 7e3f 7a3d
00000340: 48c2 863c 377b 973c 3bf2 1e3d 08c4 03be
00000350: de5e 35bd c50b 30be c66a cebd 690b 0cbd
00000360: 6cba 9abd 4446 c4bd 6400 06be d88b 6fbc
00000370: f2bf 8abc 01c3 43bb 4257 803d 9fd5 d7bc
00000380: 329c 6abc 0b71 053d 1cb5 863b 3618 5e3b
00000390: a5cc a13d fe61 e93c 5f8c 703d 47d5 903d
000003a0: 20b4 98bd e1bf fb3c 92b4 7dbd 43ed dabc
000003b0: cfd7 873d 9ef4 f2bd 4fcc 65bd 022c 0ebe
000003c0: e14f eabc bc36 ea3c 3302 9bbb 514b 7a3d
000003d0: 8b21 e4b9 5d17 8b3d af34 aa3d ac7d 7e3d
000003e0: 4e87 593d ab6b dabc a16b f3bd 6c59 963c
000003f0: a0a2 473d 2226 083d ea39 553d 1203 29bd
-0.07218375 -0.11947328 0.089343846 -0.034719598 -0.16414957 0.077235736 -0.0026736637 0.018854793
-0.09636543 -0.011255784 -0.006598558 0.1255082 0.0015134097 -0.07614398 -0.012525747 0.039611824
0.12623519 -0.034265354 -0.082774766 0.026992854 0.0644787 -0.08930536 -0.10703137 0.02358657
-0.007681626 -0.075113595 -0.13876705 -0.10739133 0.002402426 0.09881564 -0.008207517 0.049374398
0.1024817 -0.094570264 0.02648386 -0.15177418 -0.045228187 0.021998748 0.06245342 -0.045280773
-0.2864478 0.0806115 0.042512517 -0.03140675 -0.052800357 0.01707277 0.05188861 0.004694792
-0.09276326 -0.035382133 -0.0259832 -0.14274591 -0.12582147 -0.09915857 0.061396975 -0.11689071
0.069783054 -0.0075274636 -0.08440952 -0.02593679 -0.07236441 -0.08722514 -0.042626288 -0.02430086
-0.039463792 -0.044922013 0.058290105 -0.12042408 2.7211005e-05 0.055548046 -0.07639432 -0.061467238
-0.14773533 -0.14219539 -0.13791895 0.1042944 -0.045246482 -0.059276044 0.07093315 -0.006482473
0.0288886 -0.11026628 -0.014688852 0.013343624 0.010177812 -0.02401923 0.07764619 0.016053991
0.015132331 -0.051064383 -0.14941053 -0.10529314 0.037968468 -0.05117221 -0.05663795 0.00906642
0.11596116 -0.026350763 -0.04728609 -0.05355994 -0.1875216 -0.010352258 -0.07628017 -0.10305168
0.08231893 0.14487112 -0.17305003 0.06291316 0.09907328 0.022837587 0.101394586 0.0020931088
-0.048108622 -0.08683087 0.069371656 0.04386566 0.06447952 -0.11426048 0.092334785 -0.060136642
-0.057792917 -0.030637175 -0.09865347 -0.1285711 0.017498992 0.06535401 0.0021062682 -0.047965888
0.02439101 0.05605297 -0.14877377 0.09737769 0.0105784135 -0.12784036 0.0032990528 0.036595706
-0.083433695 0.021232968 -0.04032841 0.06255176 0.015033875 -0.020744551 -0.041495524 -0.11875026
0.12840503 -0.1691102 0.056477547 -0.01525371 -0.04548753 0.0120442035 -0.0034480696 -0.11644267
-0.100933366 0.07361877 -0.06761346 -0.045024186 -0.094619304 -0.026703293 -0.1584369 0.013980685
0.13209264 0.03941643 -0.08886859 -0.016819857 -0.08599503 0.031668846 -0.02464788 0.017662825
-0.0024241128 0.03774269 -0.10327317 -0.047951832 -0.033700727 -0.015223536 0.10904891 -0.1256807
-0.02092498 -0.023519618 -0.06734366 -0.06257576 -0.102822386 -0.07604481 -0.020690976 -0.073098384
-0.13665703 0.011505307 -0.07149992 0.0015213701 -0.030851863 -0.019516498 -0.06762192 -0.025739837
-0.09062501 -0.023172695 0.090546414 0.079459615 0.007891886 0.12662768 0.11327737 0.09817068
-0.07465765 0.12120069 -0.07259235 0.12892477 -0.05681171 0.009124035 -0.0011822594 0.061095707
0.016450062 0.01849137 0.038805228 -0.12867749 -0.044279926 -0.1719199 -0.10078959 -0.03419057
-0.075550884 -0.095837146 -0.13086087 -0.014620744 -0.01693723 -0.002987087 0.06266643 -0.02634698
-0.014319466 0.03257851 0.0041109454 0.0033888943 0.07900361 0.02848911 0.05872762 0.070719294
-0.07456231 0.030731143 -0.061939783 -0.026724463 0.06632959 -0.11863063 -0.056103047 -0.13883975
-0.028602542 0.028590553 -0.004730487 0.061106984 -0.0004351254 0.067915656 0.0831083 0.06213157
0.053107552 -0.026662668 -0.11885763 0.018353187 0.048739076 0.03323949 0.052057184 -0.041262694

fc3.bias f4 [32]
00000000: ccee f23d 309d 973d 23fd a7bd 896f 8b3c
00000010: 48b1 6f3d 99c4 e53d 3272 ad3d 530f 583c
00000020: 78b7 10bd d714 693d 03cb a4bc ca55 f5bb
00000030: 31cc 9ebc dd3f d53d 0a26 b63d f4ae 7ebd
00000040: d633 adbd c162 e0bd f6b2 793c 42f2 fa3c
00000050: 3735 c2bc 911b 4dba 7c2b 1abd 331d 24bc
00000060: 7f80 84bd 3250 b83d 078b b53d 3fca 9f3d
00000070: 68b7 e1bc b791 e0bd 84dd aebd ae24 043c
0.11861953 0.07403028 -0.08202579 0.017020958 0.058518678 0.11219139 0.08469047 0.013187247
-0.03533122 0.05690464 -0.020116335 -0.0074870335 -0.019384475 0.104125716 0.08893974 -0.062178567
-0.084571525 -0.10956336 0.0152404215 0.030633096 -0.023707015 -0.0007824237 -0.037639126 -0.010016727
-0.06469821 0.08999671 0.08864408 0.07802247 -0.027553275 -0.10965293 -0.085383445 0.008065386

bn3.weight f4 [32]
00000000: d7e1 943f 1465 713f 860d 7c3f 503b 6f3f
00000010: 5363 923f 9782 883f 71c4 da3f 3d99 a93f
00000020: 93f1 763f 701c 633f 6b4c 663f c673 8b3f
00000030: b0aa 613f 9468 843f c35f 633f 1022 663f
00000040: 6e4d a53f ce16 623f 6a6b 663f 82d4 703f
00000050: 5fc8 653f 1d35 a93f 0fa1 703f cf64 bf3f
00000060: d45a 9f3f a0fa 8d3f ebac ad3f cc60 713f
00000070: d8cf 803f d57c 6e3f 25cd 683f 855c 913f
1.1631421 0.9429486 0.98458135 0.9344988 1.1436561 1.0664853 1.7091199 1.324989
0.96462363 0.8871527 0.89960355 1.0894706 0.88151073 1.0344415 0.88817996 0.89895725
1.2914255 0.8831605 0.9000765 0.9407426 0.8975887 1.3219334 0.93995756 1.4952639
1.2449594 1.109211 1.3568395 0.94288325 1.0063429 0.9315923 0.90938026 1.135636

bn3.bias f4 [32]
00000000: 9da0 cdbb fdd0 a0bd 0399 2bbe c614 9dbe
00000010: 820f 90bd 4ab8 51bd b893 e53e 4ffd e33d
00000020: 2e72 cdbe d37a 77be efd7 80be 3c37 8abe
00000030: f6e8 8ebe 21da e9be d96e 16be e3c6 2ebe
00000040: 321a a23c 4253 5dbe 74a7 a8bd c1c9 94be
00000050: a677 19be f244 293c 1ee6 4dbe 85a9 da3d
00000060: fdd2 703d 3f7f bb3a fcd4 cdbc 2063 05be
00000070: 3f0a 11bd e00f 13be 6276 59be 1d22 653d
-0.00627525 -0.07852361 -0.16757588 -0.3067991 -0.07034208 -0.051201142 0.44839263 0.11132299
-0.40126175 -0.24167947 -0.25164744 -0.26995265 -0.2791211 -0.45674232 -0.14690723 -0.17068057
0.019787882 -0.21613792 -0.08235064 -0.29060176 -0.14987049 0.010331379 -0.20107314 0.106768645
0.058794964 0.001430489 -0.025125973 -0.13026094 -0.035410162 -0.14361525 -0.21236566 0.055940736

bn3.running_mean f4 [32]
00000000: 621d f5be 295a 6ebe 9fe5 17bf 4640 e7bd
00000010: 33e4 fbbe 3857 32bf f8ce c2be 4cbf 1dbf
00000020: 3bc2 b3be 01ec 4c3d 6eb2 07be e9eb 1dbf
00000030: 3681 84be d1ff 50be 8412 bebe 76b4 0abf
00000040: 1387 44bf 27cb b1be a503 14bf e3c7 89bd
00000050: 6ebb 24be 582a 03bf 2c55 1ebf 1da5 0dbf
00000060: 2717 f4be c775 f2be eea1 debe c1be bbbe
00000070: 1d8f 2bbf 0df8 dfbe 3195 88bd 60a1 e3be
-0.4787398 -0.23276581 -0.5933475 -0.11291556 -0.4919754 -0.69664335 -0.3804853 -0.6162002
-0.35109124 0.05002976 -0.1325166 -0.61688095 -0.2587983 -0.20410086 -0.371235 -0.5418161
-0.76768607 -0.34725305 -0.5781806 -0.067275785 -0.16087124 -0.51236486 -0.6184871 -0.5533007
-0.47673914 -0.47355482 -0.43482918 -0.3666897 -0.6701525 -0.43743935 -0.06669081 -0.44459057

bn3.running_var f4 [32]
00000000: 3720 783f c5db e63e 8bd5 c83e 155b 0e3f
00000010: 305e 6f3f f508 7b3f 32ff 0240 c047 d13f
00000020: a7c4 6c3e 6339 f33e a9e7 f23e e742 153f
00000030: 8ad3 1d3f e13a 433e 00a6 063f 4965 183f
00000040: 36f2 9f3f 08bb 183f 1589 3d3f 1e37 1f3f
00000050: 80e0 293f 8d5a 983f f8bf 423f f122 e53f
00000060: 7e29 843f 2fc0 333f cae6 9c3f 0be6 7b3f
00000070: e2ee 293f 34f8 213f e6cf a23e f884 713f
0.96924156 0.45089546 0.3922542 0.5560773 0.93503094 0.9806054 2.046826 1.6350021
0.23121892 0.4750472 0.47442368 0.5830521 0.6165091 0.1906543 0.52597046 0.5952955
1.2495792 0.5966039 0.74037296 0.6219348 0.66358185 1.1902634 0.7607417 1.7901288
1.0325162 0.70215124 1.2257931 0.9839789 0.6638013 0.6326935 0.3179924 0.9434352
