MELOSDP/SDP/chkpt/mc1/linear/3/sdp_classifier_linear-760.pth (torch, 77408 bytes, 25 tensors)

fc1.weight f4 [128, 38]
-0.08236962 -0.06070929 0.09324337 0.17538376 -0.07042445 0.18353434 0.08990097 0.016211377
0.07404316 -0.14904277 -0.028074699 -0.043190002 -0.06605248 0.07317184 0.13684559 -0.023195112
-0.05537834 -0.12732579 -0.13372906 0.17025556 0.078858405 0.027553026 -0.065279715 -0.017084949
-0.08446818 0.12547632 -0.019273529 0.05892715 -0.09977478 -0.05345219 0.19322808 0.095476545
0.1072772 0.056825973 0.0037377053 0.014300256 -0.25656536 0.15503426 0.08833709 -0.055677973
0.060564805 -0.07279677 0.020268973 0.040794373 0.018873814 -0.006186657 0.15963225 0.14608297
0.107749805 0.0031552063 0.11454304 -0.03039073 -0.04533379 0.071911395 0.048521057 -0.031880476
0.0730055 -0.08759971 -0.08898614 0.18100485 -0.008167196 0.111699775 0.11734157 0.13281932
0.20757441 -0.073144585 0.14336425 0.12090998 0.088657975 -0.10218291 0.14620848 0.096141316
0.036429856 -0.12281124 -0.24211651 0.02694955 -0.009648161 0.100507334 0.007064866 -0.09533409
0.0023579139 -0.101672545 -0.14546153 0.19541962 -0.09577163 0.1597556 0.032704387 0.15977873
-0.044119116 -0.10530137 -0.06387311 -0.039482858 0.11648774 0.0012607143 -0.056973796 -0.012228191
-0.10612002 0.12418184 0.018089619 -0.021142935 0.08081902 -0.1253707 0.04719069 -0.055988565
-0.045894165 0.03913205 -0.090448186 0.065944955 0.017426815 0.11525187 -0.043990996 0.009927475
0.019161446 0.0112489415 -0.0832948 -0.073125534 0.03222083 -0.10481315 -0.030793665 -0.05043309
0.121741965 0.17671423 -0.16778001 -0.0009572665 0.03398867 0.15140204 0.1258446 -0.0257601
0.14230181 0.037296414 0.09510655 0.0539524 0.06483064 -0.0631546 -0.010929736 0.066537365
0.13960856 0.027577525 -0.019979086 -0.11128147 -0.008736714 -0.09037398 -0.15865329 0.00061191904
0.010918186 0.10740506 -0.029932342 -0.06442265 -0.08302112 -0.01255596 0.0344706 0.10346447
-0.051220573 0.056373656 -0.04194971 0.0073929257 0.047364485 -0.013430833 0.041186523 0.053908903
0.15960033 0.15324141 0.15953204 -0.08082506 0.1633332 0.022099966 -0.0008520413 0.02073179
0.22065231 0.121451564 0.04911345 -0.029593738 -0.15261237 0.13057308 -0.024581539 -0.027997978
-0.14083037 -0.016851746 0.010001154 -0.08494424 -0.07072738 -0.10073604 0.13335717 0.08039597
-0.08680748 0.018113088 0.12055884 0.10570807 0.11772971 -0.05673347 -0.077238336 -0.018271673
0.04088198 0.077681646 -0.11331162 0.04407376 0.10933588 -0.04251977 -0.09567413 0.027892638
0.095578834 -0.124737054 0.019319696 0.061991375 -0.01311552 -0.23965266 -0.1514533 0.19509807
0.21422656 0.0065630227 0.010367413 -0.023124404 -0.14897555 0.030756157 -0.0050965347 -0.10631406
-0.11710407 0.12011665 -0.005856632 0.14413604 0.14455883 -0.08135614 -0.1135942 -0.091211975
-0.072916515 0.07773307 -0.035269536 0.106718175 0.09428658 0.0015708111 0.020992376 -0.08096336
0.099001355 0.1032534 0.06754568 0.15230183 -0.04171966 0.1374906 0.046058394 -0.1234474
-0.09988607 0.12321648 -0.09965463 -0.01297667 -0.090051554 -0.06012481 0.1657171 0.08277919
0.08356943 -0.002111202 0.13548346 -0.037391234 -0.123188585 0.014693226 0.105088264 0.007018666
00000000: 67b1 a8bd 4eaa 78bd 61f6 be3d cd97 333e
00000010: b23a 90bd 6df0 3b3e 001e b83d b9cd 843c
00000020: f1a3 973d ab9e 18be e9fc e5bc 00e8 30bd
00000030: 8646 87bd 1edb 953d 4021 0c3e ad03 bebc
00000040: 66d4 62bd b161 02be 45f0 08be 7957 2e3e
00000050: 8480 a13d e2b6 e13c 5fb1 85bd bcf5 8bbc
00000060: a7fd acbd dd7c 003e 85e3 9dbc 985d 713d
00000070: b856 ccbd aff0 5abd 95dd 453e 3589 c33d
00000080: 26b4 db3d 5ac2 683d 4af4 743b 9f4b 6a3c
00000090: 895c 83be 4dc1 1e3e 14ea b43d 960e 64bd
000000a0: cd12 783d 7916 95bd 1e0b a63c 0018 273d
000000b0: 429d 9a3c 71b9 cabb a376 233e c696 153e
000000c0: eeab dc3d 94c7 4e3b 8b95 ea3d fbf5 f8bc
000000d0: edaf 39bd 4846 933d 04be 463d 1a95 02bd
000000e0: e883 953d 7a67 b3bd 5e3e b6bd 5659 393e
000000f0: b4cf 05bc dac2 e43d c750 f03d ca01 083e
00000100: 638e 543e d4cc 95bd 14ce 123e a79f f73d
00000110: 5092 b53d 4645 d1bd adb7 153e bde5 c43d
00000120: 7937 153d 7684 fbbd 64ed 77be 4dc5 dc3c
00000130: 5213 1ebc cad6 cd3d 6480 e73b 853e c3bd
00000140: 3b87 1a3b b239 d0bd def3 14be 151c 483e
00000150: eb23 c4bd f996 233e 09f5 053d 099d 233e
00000160: 3fb6 34bd 3fa8 d7bd e8cf 82bd c7b8 21bd
00000170: 2091 ee3d 8d3e a53a 5b5d 69bd c058 48bc
00000180: 7455 d9bd 0c53 fe3d ae30 943c f333 adbc
00000190: 7184 a53d 2d61 00be 064b 413d 4454 65bd
000001a0: 85fb 3bbd ee48 203d e63c b9bd 260e 873d
000001b0: aec2 8e3c 2c09 ec3d e72f 34bd d9a6 223c
000001c0: 77f8 9c3c 7b4d 383c 7796 aabd d7c2 95bd
000001d0: fdf9 033d 47a8 d6bd ff42 fcbc ee92 4ebd
000001e0: da53 f93d 93f4 343e 86ce 2bbe 11f1 7aba
000001f0: b437 0b3d 2309 1b3e 68dd 003e d806 d3bc
00000200: 91b7 113e 20c4 183d 39c7 c23d 31fd 5c3d
00000210: edc5 843d 3357 81bd a312 33bc be44 883d
00000220: 8cf5 0e3e 43ea e13c 2eab a3bc 8ae7 e3bd
00000230: 6f24 0fbc fe15 b9bd 0276 22be 3169 203a
00000240: 31e2 323c 2ff7 db3d ac34 f5bc 06f0 83bd
00000250: fa06 aabd 83b7 4dbc 0b31 0d3d 2ee5 d33d
00000260: aacc 51bd 10e8 663d 76d3 2bbd 5b40 f23b
00000270: 4301 423d ff0c 5cbc 33b3 283d 95cf 5c3d
00000280: 456e 233e 51eb 1c3e 5e5c 233e 9c87 a5bd
00000290: d240 273e fd0a b53c 865b 5fba b7d5 a93c
000002a0: aef2 613e 99bb f83d 2f2b 493d 916e f2bc
000002b0: 6b46 1cbe f3b4 053e 395f c9bc 045c e5bc
000002c0: d635 10be ac0c 8abc e1db 233c 3ff7 adbd
000002d0: 84d9 90bd b24e cebd c88e 083e a4a6 a43d
000002e0: 1fc8 b1bd e661 943c 8ee7 f63d 797d d83d
000002f0: 461c f13d 5b61 68bd 222f 9ebd 7aae 95bc
00000300: dd73 273d 8e17 9f3d ec0f e8bd b086 343d
00000310: 7deb df3d 3629 2ebd ccf0 c3bd 1a7f e43c
00000320: d6be c33d 2476 ffbd 5744 9e3c abea 7d3d
00000330: 7ae2 56bc 8267 75be 9316 1bbe cac7 473e
00000340: 355e 5b3e a00e d73b 15dc 293c 646f bdbc
00000350: 0c8d 18be 56f4 fb3c d500 a7bb 30bb d9bd
00000360: 42d4 efbd b8ff f53d fde8 bfbb 6698 133e
00000370: 3b07 143e 0c9e a6bd 13a4 e8bd 58cd babd
00000380: 4155 95bd 8432 9f3d ca76 10bd 0f8f da3d
00000390: 5319 c13d ade3 cd3a 34f8 ab3c 1ed0 a5bd
000003a0: 39c1 ca3d 8576 d33d 6455 8a3d 03f5 1b3e
000003b0: 3ce2 2abd 56ca 0c3e baa7 3c3d fed1 fcbd
000003c0: 1191 ccbd ec58 fc3d ba17 ccbd 199c 54bc
000003d0: f36c b8bd 6f45 76bd beb1 293e 2388 a93d
000003e0: 7326 ab3d 185c 0abb 2dbc 0a3e 8d27 19bd
000003f0: 4c4a fcbd dbbb 703c 8438 d73d d6fc e53b

fc1.bias f4 [128]
-0.06220974 0.035517976 0.044657074 -0.08131312 0.0935454 -0.15069816 0.13346784 -0.08134009
0.06521925 0.058798485 0.13821138 -0.056074984 0.08969971 -0.09362318 0.025449151 0.1459923
-0.005003328 0.09583222 -0.01852007 -0.073413536 0.0044934116 -0.010743703 0.07603163 0.079443604
0.007076518 0.10547902 0.1622729 0.028236078 0.087089755 0.08536634 0.14482254 0.031860657
-0.036567412 -0.08732025 0.07846049 0.06861173 0.07967685 0.13611837 0.09885236 -0.1231024
-0.04549294 -0.08241094 -0.15742736 0.009837853 -0.0132905925 -0.06264163 0.14592245 0.0573458
-0.008133136 0.0031793856 -0.13183923 -0.09208032 0.07541233 0.07094977 -0.07513041 -0.06573668
0.14441709 -0.12184322 -0.009141173 -0.076706976 -0.12367541 -0.085384645 -0.15113446 0.014530452
0.10113899 0.036497325 0.1003633 0.1445111 0.15775307 0.09381619 -0.13052773 -0.032483608
-0.138525 0.082319334 0.09025094 -0.12735592 -0.1239975 0.044645067 -0.06854215 -0.111744635
0.029896723 -0.012837591 -0.040424783 0.12135146 -0.08644564 -0.03327722 0.10575417 0.058802076
0.089689024 -0.10403183 -0.09635741 0.02645262 0.017688056 -0.1474933 0.039488446 0.09213783
0.008860206 -0.075029194 0.11790724 0.017034577 -0.14781463 -0.06065107 -0.12767386 0.041381374
-0.07955751 -0.08026327 0.04196425 -0.07667665 0.024111642 0.1460032 0.045281712 0.06816305
-0.032539647 -0.115504354 0.07664278 0.005362791 0.06790996 -0.11185421 0.009919078 -0.023853831
-0.015180781 0.0101187965 0.13004336 -0.06358217 0.03113808 0.13144945 0.108431436 -0.05720636
00000000: a4cf 7ebd 4c7b 113d 56ea 363d 7e87 a6bd
00000010: bb94 bf3d 9e50 1abe cbab 083e a295 a6bd
00000020: ac91 853d aed6 703d 4987 0d3e e2ae 65bd
00000030: 7bb4 b73d 83bd bfbd bd7a d03c 017f 153e
00000040: f5f2 a3bb af43 c43d 67b7 97bc d659 96bd
00000050: 783d 933b 5b06 30bc 79b6 9b3d 54b3 a23d
00000060: 23e2 e73b 6205 d83d de2a 263e 594f e73c
00000070: 1d5c b23d 8cd4 ae3d 5c4c 143e 5280 023d
00000080: b6c7 15bd f6d4 b2bd e5af a03d 4f84 8c3d
00000090: 9e2d a33d 9d62 0b3e 1b73 ca3d 1c1d fcbd
000000a0: ce56 3abd 11c7 a8bd a334 21be f22e 213c
000000b0: c9c0 59bc 414a 80bd b26c 153e 6ee3 6a3d
000000c0: d840 05bc 3d5d 503b dd00 07be 9b94 bcbd
000000d0: c871 9a3d 1d4e 913d f9dd 99bd f4a0 86bd
000000e0: 13e2 133e f088 f9bd dcc4 15bc 8c18 9dbd
000000f0: 8949 fdbd 25de aebd fec2 1abe 2211 6e3c
00000100: f521 cf3d 387e 153d 468b cd3d b8fa 133e
00000110: 058a 213e b422 c03d 10a9 05be 880d 05bd
00000120: 7fd9 0dbe 0a97 a83d 7cd5 b83d 9769 02be
00000130: 67f2 fdbd bfdd 363d d45f 8cbd 5fda e4bd
00000140: f9e9 f43c c254 52bc 7594 25bd 1d87 f83d
00000150: 690a b1bd b24d 08bd a495 d83d 72da 703d
00000160: e1ae b73d a40e d5bd 0957 c5bd 2ab3 d83c
00000170: 8be6 903c 7c08 17be a3be 213d c2b2 bc3d
00000180: 662a 113c e8a8 99bd 5a79 f13d 198c 8b3c
00000190: b85c 17be 426d 78bd f0bc 02be 847f 293d
000001a0: 0cef a2bd 1261 a4bd b5e2 2b3d a608 9dbd
000001b0: c785 c53c dd81 153e 5179 393d 1299 8b3d
000001c0: 4b48 05bd 8c8d ecbd e4f6 9c3d 5aba af3b
000001d0: 6114 8b3d d213 e5bd a183 223c 1c69 c3bc
000001e0: cfb8 78bc 4fc9 253c 162a 053e 5e37 82bd
000001f0: 4915 ff3c af9a 063e 4d11 de3d 3751 6abd

bn1.weight f4 [128]
0.8925498 0.95384216 1.0052147 1.0805423 0.9902218 1.0132573 1.098046 1.0916921
1.0327986 1.1361514 1.0354902 1.0284922 1.0637549 1.0427265 0.9622631 0.9571774
1.0442959 0.97277373 1.0237546 0.9261603 1.0359071 0.97466666 1.0052843 0.9516548
0.9778132 1.1026794 0.98240036 1.0462685 1.0756172 1.0681915 0.94829947 1.0100722
1.0392922 1.2054915 1.0113488 0.9494722 0.99610984 1.0219948 0.95417833 1.0549786
0.96684766 1.0385438 1.1403433 1.1427598 1.1120889 1.411478 1.2676107 1.2258345
1.2473271 1.1222984 1.0592914 0.99131393 1.0565503 0.9265129 0.9425933 0.9867719
1.0209826 1.0597619 1.2907236 1.0692637 1.1091323 1.3300864 1.1832594 0.8635197
1.0590001 0.9887004 0.9929891 1.1443534 0.97681254 1.1891428 0.9085042 1.0003766
1.0563991 0.99780726 0.9501004 1.1237316 0.99706495 1.0025343 0.98085433 1.0162585
0.9349241 1.0000672 1.0517857 0.9576802 0.9375321 0.8994903 0.9498448 1.3613943
0.985535 0.94382906 1.019295 1.1560875 0.94682366 1.0019159 1.0137879 1.080807
1.1856432 0.90345657 1.3803787 1.0124422 1.165617 0.9815309 1.2975023 1.1235778
0.8998506 0.99519205 1.0600586 1.0364016 1.0697085 1.0563974 0.89365953 0.95007706
1.1404433 0.97800523 1.0402545 1.0824592 1.1861676 1.0023293 1.1011714 1.0118179
0.98067135 1.0126514 1.0361476 1.0923275 1.2554475 0.92579573 0.99325365 0.91996294
00000000: 257e 643f 002f 743f e0aa 803f 364f 8a3f
00000010: 2d7f 7d3f 6ab2 813f c58c 8c3f 91bc 8b3f
00000020: bf32 843f 696d 913f f18a 843f a2a5 833f
00000030: 1f29 883f 1078 853f e056 763f 9409 753f
00000040: 7dab 853f b307 793f 640a 833f d718 6d3f
00000050: 9b98 843f c183 793f 28ad 803f a69f 733f
00000060: f751 7a3f 9924 8d3f 977e 7b3f 20ec 853f
00000070: d3ad 893f 80ba 883f c1c3 723f 0c4a 813f
00000080: 8707 853f 8c4d 9a3f e173 813f 9c10 733f
00000090: 0e01 7f3f bad0 823f 0845 743f 8a09 873f
000000a0: 5483 773f 01ef 843f c5f6 913f f445 923f
000000b0: ee58 8e3f 50ab b43f 1141 a23f 25e8 9c3f
000000c0: 6aa8 9f3f 79a7 8f3f dc96 873f c0c6 7d3f
000000d0: 0a3d 873f f32f 6d3f cb4d 713f 159d 7c3f
000000e0: 8faf 823f 47a6 873f 6e36 a53f a2dd 883f
000000f0: 0cf8 8d3f 4540 aa3f 0b75 973f a10f 5d3f
00000100: 518d 873f 781b 7d3f 8934 7e3f 2c7a 923f
00000110: 6310 7a3f d535 983f bb93 683f 570c 803f
00000120: 1638 873f 4c70 7f3f c839 733f 70d6 8f3f
00000130: a63f 7f3f 0b53 803f 4519 7b3f c214 823f
00000140: 3057 6f3f 3402 803f eaa0 863f 882a 753f
00000150: 1b02 703f ff44 663f 0729 733f 2b42 ae3f
00000160: 064c 7c3f c89e 713f 4278 823f adfa 933f
00000170: 0963 723f c83e 803f cdc3 813f e257 8a3f
00000180: 28c3 973f ee48 673f 40b0 b03f b597 813f
00000190: f032 953f 9c45 7b3f 8e14 a63f 66d1 8f3f
000001a0: 9c5c 663f e8c4 7e3f 00b0 873f cfa8 843f
000001b0: 35ec 883f 0838 873f dfc6 643f 4038 733f
000001c0: 0cfa 913f 8d5e 7a3f 0f27 853f 068e 8a3f
000001d0: 57d4 973f 544c 803f 2ff3 8c3f 4083 813f
000001e0: 470d 7b3f 909e 813f 7ca0 843f 63d1 8b3f
000001f0: 81b2 a03f f300 6d3f df45 7e3f b182 6b3f

bn1.bias f4 [128]
-0.17230818 -0.09527822 -0.11149486 -0.09856417 -0.16775192 -0.088169545 -0.07098794 -0.16985212
-0.039710995 -0.05420296 -0.1596 -0.13840495 -0.2256379 -0.11900468 -0.09800374 -0.055428147
-0.073294535 -0.11266923 -0.11443977 -0.15308711 -0.118041135 -0.06462171 -0.049829878 -0.09631968
-0.07506741 -0.03299867 -0.0071967836 -0.038066044 0.03048932 -0.27820346 -0.121405095 -0.044838257
-0.071968004 -0.06431859 -0.07255306 -0.14175516 -0.07729894 -0.23160495 -0.15026698 -0.07915811
-0.108073205 -0.058330953 -0.22413558 -0.042355333 -0.101695 -0.21405837 -0.0692089 -0.018390836
-0.1271536 -0.21621676 -0.15119131 -0.03175363 -0.078150295 -0.12378871 -0.08271036 -0.079688266
-0.14332473 -0.21625684 -0.14790234 -0.115507096 -0.089171425 -0.26085415 -0.1996685 -0.10319466
-0.031615417 -0.04583909 -0.036992576 -0.16445586 -0.127166 -0.033055797 -0.21877572 -0.20415434
-0.038196363 -0.021759069 -0.01369321 -0.30699506 0.0058433046 -0.15292068 -0.013449458 -0.060206965
0.055645324 -0.02081099 -0.11094562 -0.16464323 -0.07325962 -0.11121023 -0.15571308 -0.19010317
-0.0720409 -0.11307068 -0.16302127 -0.06131352 -0.033867896 -0.17826639 0.020386074 0.07648865
-0.14931212 -0.21289411 -0.1680807 -0.048137605 -0.18915693 -0.13157345 -0.31825513 -0.12449998
-0.1595488 -0.13059998 -0.22682078 -0.15562588 -0.1626522 -0.13812372 -0.09076784 -0.124682456
-0.12124445 -0.132466 -0.080457404 -0.075732306 -0.17057659 -0.18119636 -0.053833056 -0.16044977
-0.08840032 -0.06829829 -0.052384887 -0.14980784 -0.24082412 -0.07094951 -0.06928588 -0.09177524
00000000: 8e71 30be 3a21 c3bd 6b57 e4bd 03dc c9bd
00000010: 29c7 2bbe 3c92 b4bd 2062 91bd b7ed 2dbe
00000020: ffa7 22bd ec03 5ebd 2f6e 23be 07ba 0dbe
00000030: 9f0d 67be bab8 f3bd 2fb6 c8bd a008 63bd
00000040: 721b 96bd 20bf e6bd 665f eabd dec2 1cbe
00000050: 8dbf f1bd 6358 84bd 6a1a 4cbd 4143 c5bd
00000060: f1bc 99bd 9d29 07bd ffd2 ebbb 24eb 1bbd
00000070: bdc4 f93c af70 8ebe 3ca3 f8bd 52a8 37bd
00000080: f663 93bd 77b9 83bd b396 94bd 4428 11be
00000090: e84e 9ebd d929 6dbe 96df 19be a61d a2bd
000000a0: 7c55 ddbd 70ec 6ebd cc83 65be c97c 2dbd
000000b0: 7845 d0bd 1e32 5bbe 65bd 8dbd 61a8 96bc
000000c0: 8e34 02be ed67 5dbe e5d1 1abe 1810 02bd
000000d0: 430d a0bd ef84 fdbd 0d64 a9bd 9a33 a3bd
000000e0: b8c3 12be 6f72 5dbe b673 17be fc8e ecbd
000000f0: 829f b6bd ad8e 85be e675 4cbe b957 d3bd
00000100: 2b7f 01bd c5c1 3bbd 8785 17bd 1e67 28be
00000110: ce37 02be 8465 07bd be06 60be d60d 51be
00000120: ca73 1cbd 1340 b2bc 7c59 60bc 752e 9dbe
00000130: 3179 bf3b 3d97 1cbe 1e5b 5cbc 949b 76bd
00000140: 5aec 633d cf7b aabc 7537 e3bd 3c98 28be
00000150: 2409 96bd 30c2 e3bd 4073 1fbe 68aa 42be
00000160: 2e8a 93bd 9a91 e7bd 0cef 26be e323 7bbd
00000170: 10b9 0abd 778b 36be b200 a73c 15a6 9c3d
00000180: 47e5 18be ea00 5abe 591d 2cbe f02b 45bd
00000190: 5bb2 41be 31bb 06be 56f2 a2be d8f9 febd
000001a0: c360 23be 00bc 05be b543 68be 645c 1fbe
000001b0: 4c8e 26be 4e70 0dbe 7de4 b9bd 8459 ffbd
000001c0: 034f f8bd 2ba5 07be dac6 a4bd 8a19 9bbd
000001d0: a1ab 2ebe 8a8b 39be 0d80 5cbd f24c 24be
000001e0: 3a0b b5bd f9df 8bbd 8991 56bd 3a67 19be
000001f0: 999a 76be fa4d 91bd c1e5 8dbd a8f4 bbbd

bn1.running_mean f4 [128]
-0.06158619 0.032795094 0.0443322 -0.08090642 0.09340757 -0.15204448 0.13594903 -0.07868169
0.06777935 0.056443654 0.13648589 -0.054262627 0.08996598 -0.090799734 0.024077775 0.14651556
-0.005354574 0.09947328 -0.020184735 -0.08096828 0.006479513 -0.0136298565 0.073525764 0.08171173
0.0023473438 0.1039444 0.16410081 0.030349245 0.088052996 0.08516945 0.14677984 0.030929795
-0.03517434 -0.088689536 0.07709625 0.06563807 0.08254699 0.13805524 0.10347141 -0.118507095
-0.046200387 -0.076472536 -0.15509467 0.009497261 -0.014530976 -0.060780503 0.1447644 0.053194027
-0.0076294877 0.0046706283 -0.13112107 -0.09674973 0.079891555 0.07164357 -0.06831086 -0.07205715
0.14454418 -0.11919167 -0.0090113515 -0.074678525 -0.1194201 -0.083415344 -0.14652646 0.011501245
0.10355228 0.037257303 0.10066424 0.14421467 0.15831111 0.09265666 -0.13336928 -0.03227527
-0.13327293 0.077795886 0.08774194 -0.127528 -0.12538314 0.044859458 -0.06970617 -0.1107155
0.022885095 -0.0084967185 -0.04120679 0.124840096 -0.08456948 -0.038371876 0.10536587 0.060871962
0.08662235 -0.10369046 -0.09571588 0.02880126 0.017110227 -0.14341792 0.035441756 0.08881033
0.006513258 -0.07722708 0.1197753 0.020759806 -0.14372033 -0.06767493 -0.12547348 0.04393985
-0.080387175 -0.078020476 0.039888896 -0.07947521 0.027068948 0.14050645 0.043202486 0.06681924
-0.029605126 -0.114813685 0.07850449 0.0062097306 0.069868684 -0.11404604 0.010308557 -0.023864286
-0.016014634 0.012240563 0.12765034 -0.06454003 0.03230952 0.12863325 0.10615303 -0.06333252
00000000: cd41 7cbd 2654 063d ae95 353d 44b2 a5bd
00000010: 784c bf3d 8cb1 1bbe 3936 0b3e de23 a1bd
00000020: e6cf 8a3d 7631 673d f5c2 0b3e 7d42 5ebd
00000030: 1540 b83d 36f5 b9bd c13e c53c 2d08 163e
00000040: 6c75 afbb a6b8 cb3d 755a a5bc b3d2 a5bd
00000050: 1852 d43b c34f 5fbc ad94 963d 7b58 a73d
00000060: e5d5 193b cde0 d43d 0b0a 283e fb9e f83c
00000070: 2155 b43d 526d ae3d 744d 163e 7b60 fd3c
00000080: f812 10bd dca2 b5bd a4e4 9d3d 416d 863d
00000090: 650e a93d 5a5e 0d3e d2e8 d33d d9b3 f2bd
000000a0: 9e3c 3dbd a29d 9cbd 23d1 1ebe 669a 1b3c
000000b0: 5513 6ebc faf4 78bd 1e3d 143e fbe1 593d
000000c0: c800 fabb 120c 993b 9a44 06be b924 c6bd
000000d0: 2f9e a33d ddb9 923d 90e6 8bbd b392 93bd
000000e0: 6403 143e c31a f4bd 59a4 13bc 0ef1 98bd
000000f0: 8692 f4bd aad5 aabd 080b 16be b86f 3c3c
00000100: 3813 d43d 1d9b 183d 0e29 ce3d 03ad 133e
00000110: 4f1c 223e c6c2 bd3d f591 08be 1333 04bd
00000120: b378 08be 7353 9f3d 0cb2 b33d b396 02be
00000130: 7064 00be 8dbe 373d 1cc2 8ebd cfbe e2bd
00000140: 8679 bb3c d235 0bbc 73c8 28bd 2aac ff3d
00000150: c332 adbd d42b 1dbd 10ca d73d e154 793d
00000160: 0f67 b13d aa5b d4bd b006 c4bd 9ff0 eb3c
00000170: bf2a 8c3c 26dc 12be 602b 113d 31e2 b53d
00000180: 2b6d d53b 3b29 9ebd c14c f53d 7810 aa3c
00000190: 6c2b 13be 2799 8abd 1f7c 00be 46fa 333d
000001a0: 08a2 a4bd 33c9 9fbd 8a62 233d e6c3 a2bd
000001b0: b3bf dd3c ece0 0f3e 17f5 303d 87d8 883d
000001c0: 7386 f2bc 7023 ebbd f6c6 a03d ff7a cb3b
000001d0: 5017 8f3d f890 e9bd 39e5 283c 097f c3bc
000001e0: 1f31 83bc a48c 483c c5b6 023e 902d 84bd
000001f0: fd56 043d 6fb8 033e c366 d93d 7bb4 81bd

bn1.running_var f4 [128]
0.5486094 0.69238657 0.087060645 0.094368204 0.14180036 0.24880986 0.22188221 0.1489645
0.2774735 0.21878111 0.13705197 0.38973752 0.2002414 0.5550418 0.18010136 0.14572139
0.21168512 0.56833357 0.36599797 1.0956323 0.23973748 0.30711132 0.18235524 0.11525409
0.18454006 0.22738959 0.45768282 0.08413871 0.1543427 0.16295582 0.12141243 0.2953426
0.23844478 0.09966438 0.23807274 0.36047107 0.26495004 0.1483207 0.6046893 0.23592035
0.12183701 0.25546154 0.15618299 0.6322415 0.09496426 0.09769798 0.2494792 0.075826705
0.08259941 0.25783625 0.1476186 0.38781574 0.17396586 0.18057014 0.53403586 0.44657847
0.09556564 0.18242323 0.056060456 0.13547559 0.3144993 0.21191382 0.19838841 0.2794682
0.1584676 0.18031915 0.17399752 0.15339324 0.2575989 0.2398102 0.6412058 0.34247229
0.34464028 0.27990437 0.17701977 0.07331131 0.22071898 0.13698074 0.2092581 0.13483572
0.37190893 1.6730428 0.11448852 0.15225515 0.3503517 0.7836385 0.15410522 0.087073795
0.42942694 0.20756818 0.107637405 0.6470224 0.19425978 0.33290946 0.20951314 0.17095774
0.07857141 0.18334165 0.12489593 0.25884554 0.1893133 0.5371785 0.14839873 0.18590929
0.5062857 0.5555513 0.12144654 0.09439041 0.1847884 0.10188736 0.3071583 0.27340287
0.22222437 0.12019534 0.15313582 0.26038864 0.05278322 0.0714758 0.08385947 0.26429495
0.098650835 0.43955 0.16135791 0.09948526 0.07853667 0.18109292 0.49957415 0.22620395
00000000: aa71 0c3f 3f40 313f da4c b23d 1e44 c13d
00000010: 1d34 113e 03c8 7e3e 1735 633e 268a 183e
00000020: 0211 8e3e 2808 603e 5a57 0c3e ad8b c73e
00000030: 150c 4d3e 3817 0e3f 7e6c 383e fd37 153e
00000040: fcc3 583e 4f7e 113f 1664 bb3e ae3d 8c3f
00000050: be7d 753e b23d 9d3e 55bb 3a3e 560a ec3d
00000060: 12f8 3c3e d1d8 683e 6755 ea3e ea50 ac3d
00000070: 030c 1e3e e4dd 263e 15a7 f83d 2537 973e
00000080: de2a 743e d71c cc3d 57c9 733e aa8f b83e
00000090: 88a7 873e 62e1 173e ebcc 1a3f 1b95 713e
000000a0: af85 f93d dbcb 823e 6fee 1f3e 94da 213f
000000b0: 9f7c c23d e115 c83d 7a77 7f3e 084b 9b3d
000000c0: e129 a93d 1d03 843e 5529 173e c98f c63e
000000d0: 1b24 323e 61e7 383e 93b6 083f efa5 e43e
000000e0: ebb7 c33d 28cd 3a3e a69f 653d 1dba 0a3e
000000f0: 0d06 a13e f0ff 583e 5526 4b3e 7516 8f3e
00000100: 5545 223e 95a5 383e 682c 323e 1e13 1d3e
00000110: 01e4 833e ce90 753e 1026 243f 8758 af3e
00000120: b174 b03e a04f 8f3e ac44 353e 3d24 963d
00000130: 2804 623e ae44 0c3e c147 563e 6012 0a3e
00000140: d96a be3e 4426 d63f f578 ea3d c6e8 1b3e
00000150: 4c61 b33e 889c 483f c2cd 1d3e bf53 b23d
00000160: d9dd db3e c18c 543e 0071 dc3d 43a3 253f
00000170: 09ec 463e 1c73 aa3e 9d8a 563e 8c0f 2f3e
00000180: 0cea a03d eabd 3b3e 70c9 ff3d 6787 843e
00000190: 59db 413e 8884 093f d6f5 173e 015f 3e3e
000001a0: f19b 013f 9c38 0e3f f7b8 f83d c24f c13d
000001b0: 2c39 3d3e 52aa d03d da43 9d3e 76fb 8b3e
000001c0: c98e 633e f928 f63d a3cf 1c3e a951 853e
000001d0: 3833 583d e761 923d 84be ab3d ab51 873e
000001e0: 7309 ca3d b30c e13e 023b 253e eebe cb3d
000001f0: d5d7 a03d 6c70 393e 2fc8 ff3e 02a2 673e

fc2.weight f4 [64, 128]
-0.031702068 0.026392737 -0.05481413 -0.08198448 0.035901442 -0.10657045 -0.09491212 -0.008657672
-0.05414546 0.14356233 -0.0010883857 -0.07913983 -0.0349337 0.059893683 -0.00864398 -0.017849064
-0.054661863 -0.06470774 -0.049801745 -0.013861299 0.021228446 0.026239976 0.07004652 -0.01889466
-0.06289814 -0.10123611 -0.033860307 -0.041765474 -0.11969202 -0.023362739 0.014027774 0.004295447
-0.08439612 0.20017293 -0.063296594 0.07452517 0.023219854 -0.06798817 -0.028859213 0.022895683
0.005082405 -0.13093391 -0.0370996 0.15504509 0.0348715 0.057259012 0.097765505 0.053189386
0.093569435 0.13125117 -0.024316354 0.057005987 -0.017712357 0.002440979 0.0018885885 0.035125796
0.033028007 0.027566323 -0.08046042 -0.05234331 0.028522894 -0.21168213 -0.20574757 -0.031049639
0.07967252 -0.01728378 -0.026493624 -0.13771681 -0.06967869 0.05996859 -0.009519802 -0.012563866
0.0702051 -0.043295797 -0.03332043 -0.08094806 -0.06867284 -0.0713039 0.010299483 0.042306546
0.031725325 0.01175682 -0.028226666 0.062216554 0.034779374 0.005132661 0.0067469683 0.10686267
0.034414474 0.07172327 -0.09226181 -0.05877667 0.06653427 0.062550105 -0.015430538 -0.015714463
0.046603408 -0.023253946 -0.07301031 -0.06413158 -0.0224375 0.016613083 -0.18262653 -0.13302714
-0.028148929 0.064384215 0.034238 0.09028594 0.071722716 0.10788632 -0.02699352 -0.011799328
-0.06685281 -0.00835905 -0.007952476 0.035507966 0.09436694 0.037907023 0.050952654 -0.06911923
0.07334373 -0.04185702 -0.02980446 0.10873218 0.088048935 0.010672006 0.04347694 -0.023579089
0.054616224 0.013959189 0.084981374 0.09496505 -0.071572565 -0.036969956 0.06279615 -0.012523321
0.056543577 0.016315902 -0.064411566 0.09498504 0.03551709 -0.009717285 0.024296574 0.06294146
0.05950275 -0.018361898 0.024377102 -0.043490916 -0.04355511 0.03168185 0.07543115 0.06451022
0.007407657 0.05372552 -0.13133699 -0.09889887 0.007345106 0.019286137 -0.023698986 -0.026012624
-0.047663033 -0.1001704 0.09359559 0.026218232 0.037631895 -0.0043326616 -0.041650027 -0.01481775
-0.08506967 0.058736067 0.032040175 -0.035279498 -0.009570898 0.0028421276 -0.06772117 -0.07074054
-0.08109493 0.048517775 -0.011983573 -0.04974377 0.0598647 0.0641622 0.04494405 0.05785421
-0.026553232 -0.05846718 0.016947836 -0.03652885 0.048138145 -0.059452236 -0.0360466 -0.07170824
0.00030395263 -0.033871878 0.03953863 0.09520562 0.03527181 -0.046276446 0.053101394 -0.010723073
0.068553574 -0.041521333 -0.05546136 -0.0074794395 0.057810653 -0.008140909 0.063108295 -0.007334488
-0.08993082 -0.025577147 -0.06513563 -0.05248303 0.024845246 0.017366402 -0.08834158 0.018688634
0.1142177 -0.061770476 -0.06393115 0.07059844 -0.049479317 0.02734099 -0.08800072 -0.0009875667
-0.12339396 0.003366216 0.008868039 0.024425015 0.033487435 0.057168733 0.045470525 -0.032685142
-0.030184787 0.07648051 -0.0069732624 -0.0009558839 0.06531042 -0.027384575 0.04856621 -0.07771343
0.04835999 -0.07582147 0.09318805 0.036222696 0.05205795 0.0368891 -0.05364401 -0.07402925
-0.00047648145 0.083826534 -0.115346886 -0.0013051588 -0.08828815 -0.08663639 0.050781317 -0.083417684
00000000: 07da 01bd 9535 d83c c884 60bd 7be7 a7bd
00000010: 640d 133d 9c41 dabd 4961 c2bd e9d8 0dbc
00000020: a1c7 5dbd 0102 133e 2aa8 8eba 1014 a2bd
00000030: a416 0fbd 1453 753d 7b9f 0dbc 3338 92bc
00000040: 1ee5 5fbd 7e85 84bd eafc 4bbd 801a 63bc
00000050: 47e7 ad3c 38f5 d63c 8d74 8f3d f9c8 9abc
00000060: bdd0 80bd e154 cfbd 1bb1 0abd 4612 2bbd
00000070: 1721 f5bd 3763 bfbc c0d4 653c d2c0 8c3b
00000080: dfd7 acbd 22fa 4c3e a5a1 81bd a7a0 983d
00000090: 9037 be3c 623d 8bbd 286a ecbc ba8f bb3c
000000a0: 4e8a a63b 8a13 06be c0f5 17bd 24c4 1e3e
000000b0: 6bd5 0e3d 6d88 6a3d 4839 c83d 1ddd 593d
000000c0: 55a1 bf3d b566 063e 1733 c7bc 1c7f 693d
000000d0: 8119 91bc d5f8 1f3b 848a f73a 11e0 0f3d
000000e0: 6048 073d c5d2 e13c 6fc8 a4bd f065 56bd
000000f0: d8a8 e93c 33c3 58be 7eaf 52be d05b febc
00000100: 592b a33d b796 8dbc 2809 d9bc a305 0dbe
00000110: b3b3 8ebd a0a1 753d f2f8 1bbc acd8 4dbc
00000120: b1c7 8f3d ef56 31bd 017b 08bd 19c8 a5bd
00000130: 59a4 8cbd c707 92bd 2abf 283c a149 2d3d
00000140: 6af2 013d ad9f 403c 9c3b e7bc c9d6 7e3d
00000150: d174 0e3d e22f a83b ac15 dd3b d1da da3d
00000160: 31f6 0c3d a6e3 923d c3f3 bcbd cebf 70bd
00000170: 1f43 883d 451a 803d 5ed0 7cbc 9ebb 80bc
00000180: 37e3 3e3d 0f7f bebc 6e86 95bd 6b57 83bd
00000190: d9ce b7bc 2918 883c 7302 3bbe 4438 08be
000001a0: 9598 e6bc dfdb 833d 253d 0c3d d6e7 b83d
000001b0: 5ce3 923d 81f3 dc3d 8421 ddbc f851 41bc
000001c0: 20ea 88bd 66f4 08bc 1a4b 02bc cd70 113d
000001d0: 7443 c13d 6544 1b3d bbb3 503d 628e 8dbd
000001e0: 3d35 963d 4472 2bbd 7c28 f4bc faae de3d
000001f0: 0053 b43d a3d9 2e3c e014 323d ef28 c1bc
00000200: 43b5 5f3d 15b5 643c b70a ae3d 097d c23d
00000210: a394 92bd cf6d 17bd 459b 803d 9e2e 4dbc
00000220: 3d9a 673d eda8 853c 36ea 83bd 8487 c23d
00000230: 5e7a 113d 3f35 1fbc 9c09 c73c 74e7 803d
00000240: 28b9 733d b16b 96bc 7db2 c73c 8823 32bd
00000250: d866 32bd d4c4 013d a67b 9a3d ef1d 843d
00000260: eebb f23b 4a0f 5c3d 347d 06be 7e8b cabd
00000270: 37af f03b f6fd 9d3c 6024 c2bc 6d18 d5bc
00000280: 503a 43bd 2426 cdbd 0baf bf3d 9ec7 d63c
00000290: e723 1a3d 00f9 8dbb 3899 2abd 26c6 72bc
000002a0: 0239 aebd 3b95 703d 8f3c 033d 3c81 10bd
000002b0: 41cf 1cbc fd42 3a3b 66b1 8abd 6be0 90bd
000002c0: 1915 a6bd 93ba 463d c056 44bc 20c0 4bbd
000002d0: b034 753d 7967 833d 4117 383d 89f8 6c3d
000002e0: 2a86 d9bc 487b 6fbd 30d6 8a3c 479f 15bd
000002f0: 812c 453d 3084 73bd 9aa5 13bd c5db 92bd
00000300: d55b 9f39 3dbd 0abd 42f3 213d 2afb c23d
00000310: 2c79 103d 5f8c 3dbd d980 593d d4af 2fbc
00000320: d165 8c3d 4612 2abd 732b 63bd 1616 f5bb
00000330: ddca 6c3d 7261 05bc ec3e 813d 2556 f0bb
00000340: a62d b8bd 2a87 d1bc d465 85bd 72f8 56bd
00000350: 4288 cb3c fc43 8e3c 6eec b4bd e818 993c
00000360: f8ea e93d 0a03 7dbd 56ee 82bd ea95 903d
00000370: d3aa 4abd 36fa df3c b939 b4bd 3d71 81ba
00000380: f9b5 fcbd bc9b 5c3b 404b 113c f816 c83c
00000390: 1f2a 093d c329 6a3d 4d3f 3a3d dbe0 05bd
000003a0: 1646 f7bc d0a1 9c3d f77f e4bb 4894 7aba
000003b0: 78c1 853d 9e55 e0bc 5ded 463d 3828 9fbd
000003c0: 2015 463d 4948 9bbd 60d9 be3d 405e 143d
000003d0: b83a 553d 0619 173d d2b9 5bbd a69c 97bd
000003e0: 42d0 f9b9 3fad ab3d fd3a ecbd dd11 abba
000003f0: 6bd0 b4bd 6b6e b1bd 1200 503d e4d6 aabd

fc2.bias f4 [64]
-0.05682535 0.059406534 -0.05336025 -0.031009523 -0.078043215 0.088174395 0.05343447 0.03770794
-0.045569967 0.07341353 -0.030166829 0.032091767 0.055923324 -0.085636765 -0.025973823 -0.008814374
-0.052682936 0.056108795 0.033769652 0.036562763 -0.054807626 -0.048086576 0.038684078 0.07418907
-0.028054874 -0.03217173 0.059021093 0.042991452 0.055187102 -0.05341796 -0.044359166 -0.007782361
-0.061131492 0.059880204 0.0047527384 0.05205026 0.0021476399 0.043488532 0.010822792 0.043751113
0.06755096 0.03008296 -0.016563118 0.026279809 -0.0035924343 -0.004440175 -0.034956172 -0.057867628
-0.01342247 0.08554287 -0.06754394 0.07617505 -0.06749416 0.0065022153 0.0071292263 0.007039132
0.023402514 0.050568763 0.030825788 -0.08155119 -0.04494269 -0.023502536 -0.043819048 -0.009511211
00000000: b3c1 68bd 4454 733d 4790 5abd af07 febc
00000010: 1fd5 9fbd c794 b43d 1ade 5a3d a473 1a3d
00000020: 93a7 3abd d559 963d 6d20 f7bc a872 033d
00000030: db0f 653d 5462 afbd 0ec7 d4bc 2a6a 10bc
00000040: 10ca 57bd 56d2 653d 0c52 0a3d d6c2 153d
00000050: f67d 60bd 6ef6 44bd 3273 1e3d 70f0 973d
00000060: 56d3 e5bc 81c6 03bd 1ac0 713d ce17 303d
00000070: df0b 623d cacc 5abd f5b1 35bd 2d03 ffbb
00000080: 0465 7abd f244 753d dcbc 9b3b a732 553d
00000090: 6bbf 0c3b 0821 323d 1452 313c 5e34 333d
000000a0: 2858 8a3d 8a70 f63c 60af 87bc c148 d73c
000000b0: 0c6f 6bbb e37e 91bb 342e 0fbd 9b06 6dbd
000000c0: ebe9 5bbc 1a31 af3d 7a54 8abd aa01 9c3d
000000d0: 613a 8abd 8910 d53b 499c e93b 85a8 e63b
000000e0: a1b6 bf3c 3121 4f3d 5d86 fc3c 4f04 a7bd
000000f0: d315 38bd 6488 c0bc 9a7b 33bd e9d4 1bbc

bn2.weight f4 [64]
1.0811878 1.0224904 1.0114614 1.0046182 1.0735301 1.0051819 0.9693002 0.95961726
1.050253 0.9886258 0.9998076 0.9661275 1.0371836 1.0072304 1.0020007 1.0218532
1.0460025 0.99418324 0.97757965 0.96814793 0.9503616 1.0298536 0.99431276 0.9457579
1.0445219 0.9802675 1.0980536 0.979242 1.1329167 1.0330942 0.9432531 1.0739036
1.0674276 1.0815314 1.1354005 1.0575914 1.0061679 1.0096861 0.9274749 0.9960619
1.1650188 1.0227532 1.0668772 1.086949 1.0422668 1.0240557 0.98370725 1.0105972
0.96066636 1.003629 0.9690227 1.0373266 1.0287877 1.0016801 0.93167037 1.1657889
0.98825294 0.9769116 1.0940346 1.0194583 1.0682834 1.1489519 0.9858166 1.05118
00000000: 5d64 8a3f f7e0 823f 9177 813f 5497 803f
00000010: 6f69 893f cda9 803f 0f24 783f 7aa9 753f
00000020: b16e 863f 9516 7d3f 64f3 7f3f 2254 773f
00000030: 6fc2 843f edec 803f 8f41 803f 16cc 823f
00000040: 69e3 853f cb82 7e3f a942 7a3f 8bd8 773f
00000050: e64a 733f 3ed2 833f 488b 7e3f 311d 723f
00000060: e5b2 853f d0f2 7a3f 058d 8c3f 9baf 7a3f
00000070: 6a03 913f 6e3c 843f 0979 713f ac75 893f
00000080: 78a1 883f 9f6f 8a3f ce54 913f 285f 873f
00000090: 1cca 803f 653d 813f ff6e 6d3f eafd 7e3f
000000a0: 561f 953f 94e9 823f 6f8f 883f 2521 8b3f
000000b0: 0069 853f 4214 833f 3dd4 7b3f 405b 813f
000000c0: 3bee 753f ea76 803f df11 783f 1ec7 843f
000000d0: 51af 833f 0e37 803f f381 6e3f 9238 953f
000000e0: 25fe 7c3f e116 7a3f 5309 8c3f 9c7d 823f
000000f0: 83bd 883f db10 933f 7a5e 7c3f 118d 863f

bn2.bias f4 [64]
0.0018303399 0.023112692 -0.084557064 -0.3198356 0.07594376 -0.100589216 -0.03139454 -0.03393103
0.046991684 -0.119311094 -0.052327517 -0.2829494 -0.08635238 0.018228639 -0.09789432 -0.049137525
-0.46288192 -0.033639856 -0.07875634 -0.039997227 -0.15005867 -0.020711688 -0.034339722 -0.08139006
-0.06392453 -0.059335463 0.044394467 -0.07086987 -0.018300574 -0.010539391 -0.08445073 -0.003239668
-0.35597864 0.04067609 -0.028763209 0.07616373 -0.08097101 0.043193705 -0.22710824 0.030207982
0.036502708 -0.19170322 -0.0663428 -0.022403572 0.031272523 -0.045511834 -0.34783646 -0.03275474
-0.082232065 -0.039388888 -0.0557839 -0.01938568 0.048834037 -0.14455277 -0.119484276 0.02826363
-0.11035072 -0.0594591 -0.04851334 -0.03721368 0.065926015 0.07821414 0.019816084 0.07530752
00000000: 04e8 ef3a d456 bd3c 412c adbd 7ec1 a3be
00000010: 6788 9b3d b801 cebd 9097 00bd 44fb 0abd
00000020: 5a7a 403d 6059 f4bd 6155 56bd bede 90be
00000030: 84d9 b0bd 3a54 953c d17c c8bd 6e44 49bd
00000040: dcfe ecbe f2c9 09bd 014b a1bd 22d4 23bd
00000050: fba8 19be 8fab a9bc cfa7 0cbd d5af a6bd
00000060: ddea 82bd be09 73bd f9d6 353d 3924 91bd
00000070: 16eb 95bc 69ad 2cbc 81f4 acbd 9c50 54bb
00000080: d542 b6be f99b 263d d2a0 ebbc bbfb 9b3d
00000090: 21d4 a5bd e2eb 303d 108f 68be bb76 f73c
000000a0: dd83 153d d94d 44be bcde 87bd b287 b7bc
000000b0: 9e17 003d 9e6a 3abd 9f17 b2be d629 06bd
000000c0: 4969 a8bd 3e56 21bd a97d 64bd b8ce 9ebc
000000d0: 3306 483d a405 14be 2cb4 f4bd 2189 e73c
000000e0: 8fff e1bd 638b 73bd edb5 46bd 5f6d 18bd
000000f0: 3804 873d bc2e a03d 5755 a23c d43a 9a3d

bn2.running_mean f4 [64]
-0.2840439 0.029121313 -0.21823883 0.00866767 0.26178554 0.057732455 -0.04476254 -0.0860115
-0.16211304 0.026369914 -0.19223654 -0.12522209 -0.14419577 0.055727053 0.18844204 -0.25462902
-0.44678247 -0.24577197 0.22728999 -0.05250446 -0.3217645 0.24199393 0.33157983 0.009241422
-0.20330697 0.2842358 -0.048744533 -0.20384121 -0.110444956 0.08785054 -0.320305 -0.17922415
-0.58882874 0.14968614 -0.24691632 0.046941757 -0.18666819 0.26235726 -0.08358397 0.08246845
0.19988112 -0.33273837 -0.34419844 -0.16390115 -0.052751277 -0.2401761 -0.07866106 -0.3499763
-0.27998728 0.30521697 -0.09726811 0.0521199 0.07711625 -0.1133619 -0.43590498 0.18496425
-0.27997026 0.13763238 -0.2060333 -0.08185168 0.15239751 0.30162632 -0.19178486 0.23107205
00000000: 346e 91be d28f ee3c 007a 5fbe d802 0e3c
00000010: c108 863e de78 6c3d ed58 37bd cc26 b0bd
00000020: f600 26be b805 d83c a8d9 44be 383a 00be
00000030: 0ea8 13be 0d42 643d f3f6 403e bc5e 82be
00000040: acc0 e4be a6ab 7bbe b5be 683e eb0e 57bd
00000050: 51be a4be 42cd 773e d5c4 a93e 5569 173c
00000060: b42f 50be 5b87 913e 59a8 47bd c0bb 50be
00000070: f730 e2bd fcea b33d 04ff a3be 8986 37be
00000080: 7bbd 16bf 5347 193e a2d7 7cbe 0046 403d
00000090: f225 3fbe b153 863e 132e abbd 38e5 a83d
000000a0: a3ad 4c3e af5c aabe c73a b0be b4d5 27be
000000b0: b911 58bd b9f0 75be 0d19 a1bd 1830 b3be
000000c0: 7e5a 8fbe 6645 9c3e 8134 c7bd ad7b 553d
000000d0: 20ef 9d3d 492a e8bd f02e dfbe 4567 3d3e
000000e0: 4358 8fbe 81ef 0c3e 65fa 52be dba1 a7bd
000000f0: 180e 1c3e c46e 9a3e 4063 44be 279e 6c3e

bn2.running_var f4 [64]
0.41675484 0.6225538 0.5135916 0.23914611 0.99476224 0.47199407 0.3503551 0.60696846
0.45233512 0.38962838 0.4143343 0.27922645 0.5008695 0.57549167 0.52905995 0.52812785
0.27524954 0.5315789 0.64791864 0.41873032 0.59412426 0.5460518 0.4750024 0.44997346
0.29840094 0.4256811 0.52954656 0.27993935 0.55310845 0.5654045 0.51821154 0.4408959
0.37198797 0.6788225 0.43046772 0.69168377 0.50546324 0.89939404 0.2801605 0.2895024
0.48919958 0.40714312 0.5207365 0.56812125 0.6763725 0.2573294 0.24953972 0.5573656
0.3349166 0.36757433 0.26414183 0.5332404 0.71284175 0.40697902 0.6665 0.8583726
0.42795977 0.46342775 0.4623758 0.44485494 0.9105863 0.9157325 0.5929502 0.6928202
00000000: e460 d53e b05f 1f3f bd7a 033f b8e2 743e
00000010: bda8 7e3f 35a9 f13e be61 b33e 4962 1b3f
00000020: 7898 e73e 5f7d c73e a023 d43e c5f6 8e3e
00000030: fc38 003f 6c53 133f 7970 073f 6333 073f
00000040: 82ed 8c3e 8e15 083f ffdd 253f d263 d63e
00000050: 8718 183f 0dca 0b3f 8433 f33e ec62 e63e
00000060: 02c8 983e e0f2 d93e 5d90 073f 3654 8f3e
00000070: 8498 0d3f 59be 103f 83a9 043f 1bbd e13e
00000080: 3575 be3e 50c7 2d3f 4466 dc3e 3012 313f
00000090: 0a66 013f b03e 663f 3271 8f3e a939 943e
000000a0: 5e78 fa3e 1075 d03e fd4e 053f 6570 113f
000000b0: c026 2d3f aec0 833e 5787 7f3e 83af 0e3f
000000c0: 307a ab3e b432 bc3e 993d 873e 7182 083f
000000d0: cc7c 363f 8e5f d03e be9f 2a3f 4fbe 5b3f
000000e0: 8b1d db3e 6746 ed3e 85bc ec3e 07c4 e33e
000000f0: 2f1c 693f 726d 6a3f 96cb 173f aa5c 313f

fc3.weight f4 [32, 64]
-0.06795534 -0.12556684 0.090833135 -0.04355113 -0.16778815 0.075875215 0.003839153 0.023129357
-0.095941715 -0.009866316 -0.00467859 0.12609468 0.012045106 -0.0768666 -0.015366895 0.041206863
0.120082535 -0.0309068 -0.08209188 0.03168887 0.06956553 -0.07903318 -0.10084615 0.027366703
0.002207966 -0.07138335 -0.13376059 -0.10278446 -0.0033423337 0.09908531 -0.0054366975 0.053262882
0.07057675 -0.099787526 0.027747322 -0.16506317 -0.043192584 0.021225736 0.061779086 -0.044788934
-0.26808873 0.06406562 0.049288493 -0.029509805 -0.05988972 0.022779211 0.05241713 0.0044561676
-0.09346211 -0.032539215 -0.026556712 -0.14612357 -0.13877805 -0.096574895 0.056012273 -0.13919373
0.07155686 -0.0076713185 -0.07407929 -0.024806231 -0.07340117 -0.092170864 -0.04865642 -0.024735333
-0.03372149 -0.04456608 0.060924944 -0.13317493 0.009269371 0.051411808 -0.06333323 -0.059099976
-0.13453886 -0.14803655 -0.1439229 0.08007712 -0.044900592 -0.057550974 0.07022721 -0.0045140595
-0.0037731926 -0.1049443 -0.010089557 0.020944735 0.0100096455 -0.024103874 0.089470185 0.020235652
0.017684344 -0.041195374 -0.14772485 -0.112066865 0.044939637 -0.042999092 -0.050092593 0.007233255
0.09217875 -0.021220801 -0.051890917 -0.046358664 -0.1861609 -0.007312731 -0.094398536 -0.109256394
0.0869016 0.13615756 -0.16602686 0.06332367 0.10347404 0.017635675 0.085592926 0.0022483082
-0.05081289 -0.085217364 0.08452048 0.04721385 0.07419432 -0.11778136 0.06754573 -0.05247559
-0.052715294 -0.02700073 -0.098942086 -0.13474861 0.020076422 0.074481 0.014283406 -0.041232947
0.020975668 0.055862356 -0.15516129 0.07366012 0.009474589 -0.13270622 0.015715353 0.04516158
-0.07622236 0.004508238 -0.039401304 0.047816895 0.018186053 -0.022598887 -0.039397456 -0.13115814
0.07956208 -0.16998059 0.05441295 -0.009479828 -0.04440788 0.016329687 0.011618927 -0.11225537
-0.09632825 0.0806646 -0.054796398 -0.054461747 -0.089880094 -0.027024511 -0.15023921 0.008186653
0.07681904 0.047946762 -0.09089331 -0.005355069 -0.10658443 0.03505945 -0.054340493 0.013932924
0.0019300468 0.011632989 -0.09972896 -0.067221195 -0.033885762 -0.021508168 0.08986869 -0.124021
-0.026938265 -0.03786976 -0.09632529 -0.06051119 -0.10727711 -0.08979947 -0.06215679 -0.06941947
-0.13260236 0.009241203 -0.055506952 -0.008624555 -0.039595485 -0.018038042 -0.057892248 -0.023621535
-0.08860278 -0.029252967 0.08844698 0.075718 0.011637733 0.13084577 0.111104764 0.10314388
-0.074804716 0.11686728 -0.07156151 0.1356498 -0.057513427 0.014923785 0.0016318824 0.05899921
0.036803417 0.016876116 0.036428142 -0.124365106 -0.04493269 -0.16762193 -0.1012198 -0.033105887
-0.06651246 -0.0938275 -0.1291647 -0.012254846 -0.021786736 -0.00024826505 0.06255995 -0.018434618
-0.009528388 0.031908017 0.0056008818 0.002791403 0.07833477 0.030373309 0.05342597 0.07316862
-0.05472058 0.02901371 -0.06532536 -0.01892222 0.06675489 -0.1214111 -0.046827592 -0.13460726
-0.029111821 0.03313277 -0.008410051 0.059749145 0.0011603066 0.07336526 0.098709434 0.06558102
0.053775452 -0.020811956 -0.116383255 0.021994632 0.053334992 0.035864443 0.05714919 -0.04790278
00000000: 2b2c 8bbd 9894 00be b906 ba3d ab62 32bd
00000010: a8d0 2bbe 7764 9b3d 4d9a 7b3b c779 bd3c
00000020: 177d c4bd 54a6 21bc dc4e 99bb f71e 013e
00000030: d658 453c 3c6c 9dbd 6ec5 7bbc 87c8 283d
00000040: d5ed f53d 4230 fdbc ca1f a8bd 30cc 013d
00000050: 5f78 8e3d 26dc a1bd 6d88 cebd 2330 e03c
00000060: 86b3 103b 6f31 92bd 89f8 08be a980 d2bd
00000070: 0e0b 5bbb 3ded ca3d 5326 b2bb 2e2a 5a3d
00000080: 8b8a 903d 675d ccbd 5a4e e33c 5206 29be
00000090: b5ea 30bd 98e1 ad3c 110c 7d3d 9a74 37bd
000000a0: ed42 89be d634 833d bbe2 493d 8cbe f1bc
000000b0: ec4e 75bd 789b ba3c 58b3 563d 0b05 923b
000000c0: 1069 bfbd d747 05bd 768d d9bc 6ba1 15be
000000d0: d51b 0ebe 0fc9 c5bd 206d 653d cd88 0ebe
000000e0: 678c 923d af5f fbbb e2b6 97bd 7036 cbbc
000000f0: 5a53 96bd 14c4 bcbd f44b 47bd c1a1 cabc
00000100: 8c1f 0abd ec8a 36bd 6f8c 793d 025f 08be
00000110: 8fde 173c 3095 523d dab4 81bd d112 72bd
00000120: 8ec4 09be e596 17be 8660 13be 79ff a33d
00000130: afe9 37bd 92ba 6bbd 49d3 8f3d adea 93bb
00000140: ab47 77bb 0aed d6bd ab4e 25bc 4b94 ab3c
00000150: 7fff 233c 7d75 c5bc 253c b73d 3dc5 a53c
00000160: c2de 903c 7bbc 28bd 2f45 17be 5083 e5bd
00000170: a012 383d d11f 30bd e42d 4dbd f104 ed3b
00000180: 36c8 bc3d 3fd7 adbc 928b 54bd 95e2 3dbd
00000190: f7a0 3ebe a29f efbb 0554 c1bd d1c1 dfbd
000001a0: 77f9 b13d e36c 0b3e f202 2abe d7af 813d
000001b0: 33ea d33d b178 903c 584b af3d 5a58 133b
000001c0: 2d21 50bd 7186 aebd 1319 ad3d 4f63 413d
000001d0: 31f3 973d 5b37 f1bd 6a55 8a3d a5f0 56bd
000001e0: feeb 57bd a330 ddbc 26a2 cabd 8afb 09be
000001f0: 4f77 a43c 7f89 983d f204 6a3c e1e3 28bd
00000200: 2ad5 ab3c edcf 643d 9ae2 1ebe 1edb 963d
00000210: 4e3b 1b3c 24e4 07be 7cbd 803c 59fb 383d
00000220: 781a 9cbd d7b9 933b 4363 21bd a6db 433d
00000230: ebfa 943c 4d21 b9bc 3a5f 21bd 524e 06be
00000240: 72f1 a23d 640f 2ebe 1de0 5e3d 4851 1bbc
00000250: 0ae5 35bd d6c5 853c 505d 3e3c 25e6 e5bd
00000260: bf47 c5bd 7b33 a53d 3072 60bd 4813 5fbd
00000270: 0e13 b8bd 8262 ddbc 4fd8 19be 5021 063c
00000280: 4d53 9d3d d363 443d 4626 babd 9379 afbb
00000290: f048 dabd 7f9a 0f3d 2394 5ebd eb46 643c
000002a0: a0f9 fc3a 4b98 3e3c b23e ccbd 44ab 89bd
000002b0: cccb 0abd e631 b0bc 130d b83d b9fe fdbd
000002c0: a3ad dcbc 521d 1bbd 3246 c5bd 95da 77bd
000002d0: 1ab4 dbbd c9e8 b7bd 1e98 7ebd cc2b 8ebd
000002e0: eac8 07be 6a68 173c 425b 63bd 014e 0dbc
000002f0: e02e 22bd 84c4 93bc 6c20 6dbd f381 c1bc
00000300: 6075 b5bd eba3 efbc b123 b53d 0a12 9b3d
00000310: 31ac 3e3c 6ffc 053e e58a e33d 193d d33d
00000320: 3733 99bd 1d58 ef3d d78e 92bd c8e7 0a3e
00000330: 3393 6bbd e482 743c e3e4 d53a 28a9 713d
00000340: 2ebf 163d c83f 8a3c ad35 153d 22b3 febd
00000350: 570b 38bd 15a5 2bbe 544c cfbd 0a9a 07bd
00000360: af37 88bd a228 c0bd c043 04be 8dc8 48bc
00000370: 197a b2bc 9229 82b9 6e1f 803d 3204 97bc
00000380: f51c 1cbc fbb1 023d 9a87 b73b f9ef 363b
00000390: fb6d a03d 72d1 f83c 31d5 5a3d 6ed9 953d
000003a0: b022 60bd 29ae ed3c 4dc9 85bd c602 9bbc
000003b0: cab6 883d 62a6 f8bd 4ace 3fbd 7cd6 09be
000003c0: ea7b eebc 3ab6 073d 50ca 09bc 85bb 743d
000003d0: 6e15 983a 8740 963d 2c28 ca3d 584f 863d
000003e0: a643 5c3d d67d aabc 585a eebd 162e b43c
000003f0: cb75 5a3d 98e6 123d 4515 6a3d b535 44bd

fc3.bias f4 [32]
0.11852692 0.07398638 -0.08200983 0.017015329 0.0584302 0.112046376 0.08499106 0.0132494625
-0.035491746 0.05691438 -0.020141147 -0.0075301044 -0.019456439 0.10407507 0.08893979 -0.062220916
-0.084591985 -0.10960433 0.01524619 0.030609882 -0.02374072 -0.0008213892 -0.037603565 -0.009994073
-0.064690426 0.09002169 0.08860871 0.07802862 -0.027668286 -0.109667845 -0.08538466 0.0081233485
00000000: 3ebe f23d 2c86 973d c5f4 a7bd bb63 8b3c
00000010: 8154 6f3d 9278 e53d cb0f ae3d 4614 593c
00000020: cb5f 11bd 0e1f 693d 0cff a4bc 18bf f6bb
00000030: 1c63 9fbc 4f25 d53d 1126 b63d 5cdb 7ebd
00000040: 903e adbd 3c78 e0bd 28cb 793c 93c1 fa3c
00000050: e67b c2bc 7f52 57ba 3206 1abd 2ebe 23bc
00000060: 6a7c 84bd 4b5d b83d 7c78 b53d 78cd 9f3d
00000070: 9aa8 e2bc 8999 e0bd 27de aebd cb17 053c

bn3.weight f4 [32]
1.1753417 0.92914873 0.9568832 0.9443848 1.1046062 1.0878527 1.6138871 1.2795737
0.96264637 0.89392 0.90667117 1.0767362 0.89773 1.0202409 0.86045486 0.89910966
1.2778234 0.8920624 0.8967101 0.9451918 0.91030025 1.2890794 0.922175 1.4414306
1.2273061 1.1013836 1.3255099 0.9329488 1.0221285 0.93313897 0.919937 1.1206069
00000000: 9971 963f b1dc 6d3f 4cf6 743f 34c3 713f
00000010: bc63 8d3f c23e 8b3f da93 ce3f 12c9 a33f
00000020: fe6f 763f f1d7 643f 9a1b 683f 7ed2 893f
00000030: a2d1 653f 4197 823f c546 5c3f 0d2c 663f
00000040: b88f a33f 345e 643f cb8e 653f 17f8 713f
00000050: 7009 693f 8e00 a53f a913 6c3f cc80 b83f
00000060: 5e18 9d3f 23fa 8c3f 4faa a93f bcd5 6e3f
00000070: 1bd5 823f 32e2 6e3f fe80 6b3f 0c70 8f3f

bn3.bias f4 [32]
0.055656657 -0.059746828 -0.112456754 -0.27479807 -0.016091544 -0.009442804 0.36301908 0.12749858
-0.28678703 -0.22264375 -0.23075286 -0.19376513 -0.2286334 -0.35097188 -0.12255416 -0.1493399
0.06820923 -0.18576951 -0.06570768 -0.25629804 -0.1292495 0.06934578 -0.18822308 0.13827923
0.11726152 0.0558369 0.043078337 -0.11791449 -0.010802153 -0.13773353 -0.18522759 0.13220905
00000000: 3cf8 633d 17b9 74bd ba4f e6bd 55b2 8cbe
00000010: 6ad2 83bc feb5 1abc a3dd b93e fd8e 023e
00000020: c0d5 92be b9fc 63be 7a4a 6cbe 5e6a 46be
00000030: e01e 6abe 96b2 b3be adfd fabd 8fec 18be
00000040: 48b1 8b3d 5d3a 3ebe c091 86bd 7f39 83be
00000050: fb59 04be 2905 8e3d 8dbd 40be 1299 0d3e
00000060: cf26 f03d 3cb5 643d e972 303d 277d f1bd
00000070: 83fb 30bc 050a 0dbe 4dac 3dbe cf61 073e

bn3.running_mean f4 [32]
-0.49936336 -0.18645534 -0.57148546 -0.081105046 -0.4669141 -0.70558697 -0.5028357 -0.6759551
-0.3975253 0.084101655 -0.09674019 -0.66226596 -0.2076846 -0.25579664 -0.41571096 -0.52084565
-0.8167528 -0.35088533 -0.5340615 -0.08325327 -0.095243074 -0.5028605 -0.5657027 -0.5550376
-0.45511267 -0.52626675 -0.42581296 -0.38193414 -0.66817075 -0.43368992 -0.033396903 -0.4610933
00000000: 8eac ffbe 26ee 3ebe df4c 12bf 671a a6bd
00000010: 5d0f efbe 59a1 34bf d7b9 00bf 650b 2dbf
00000020: 7088 cbbe 7d3d ac3d b91f c6bd 438a 29bf
00000030: 46ab 54be c7f7 82be 11d8 d4be 2456 05bf
00000040: b616 51bf 3ea7 b3be 41b8 08bf b180 aabd
00000050: cd0e c3bd 77bb 00bf e4d1 10bf f216 0ebf
00000060: 8704 e9be 6bb9 06bf 2804 dabe df8c c3be
00000070: 3d0d 2bbf 9b0c debe 31cb 08bd 6c14 ecbe

bn3.running_var f4 [32]
0.98996246 0.5917393 0.52577996 0.5661028 1.020243 0.96949273 2.089274 1.633043
0.21774656 0.43157476 0.40855986 0.682213 0.7202384 0.20913899 0.89835817 0.6306737
1.3011711 0.73259896 0.83526605 0.6098571 0.6988953 1.2517804 0.85497195 2.0570278
1.1653689 0.7483213 1.3415498 1.0394075 0.6764071 0.7329695 0.32370797 0.9758115
00000000: 2e6e 7d3f 3a7c 173f 8499 063f 1dec 103f
00000010: 5397 823f ad30 783f aab6 0540 8e07 d13f
00000020: f4f8 5e3e 5ef7 dc3e c22e d13e 83a5 2e3f
00000030: 8b61 383f 8828 563e cdfa 653f d573 213f
00000040: c68c a63f 9b8b 3b3f ffd3 553f 981f 1c3f
00000050: cdea 323f 573a a03f 71df 5a3f 58a6 0340
00000060: cf2a 953f fc91 3f3f e7b7 ab3f 4e0b 853f
00000070: 0429 2d3f e4a3 3b3f 0dbd a53e c8ce 793f
