MELOSDP/SDP/chkpt/mc1/linear/3/sdp_classifier_linear-720.pth (torch, 77408 bytes, 25 tensors)

fc1.weight f4 [128, 38]
00000000: d3f3 a2bd a7ec 80bd 8481 b93d 162d 333e
00000010: 71b5 94bd d8be 373e 5f4c bc3d 874a 2a3c
00000020: 3724 8f3d 02d4 18be 59a3 09bd 278d 2fbd
00000030: 7133 87bd 50d2 ad3d c9c9 0b3e b782 f1bc
00000040: f403 6dbd 5aa9 05be 506c 06be b80f 2f3e
00000050: 18e4 9f3d b4ad e93c 46c0 82bd c93d aabc
00000060: 139a aebd ad7f 013e 0789 b5bc 08db 603d
00000070: e3ba d4bd 48a3 57bd 8056 403e 3385 c73d
00000080: 09d9 dd3d 02be 7f3d 31fa f03b 8239 5e3c
00000090: 1744 80be 2f51 1e3e 9c90 c23d 96ad 4ebd
000000a0: 51bc 7e3d d990 8dbd b2cb eb3c 58e4 283d
000000b0: d9b3 a03c 1a11 60bc 569a 223e 757d 153e
000000c0: 75cc d83d 36eb 253c cd01 f23d f570 c5bc
000000d0: 7673 1fbd 0da6 903d 9e10 443d fdcb 06bd
000000e0: 3d3f 9a3d 3524 a6bd 28ee b8bd 40e8 3e3e
000000f0: 9d63 fb38 d27d dc3d fda0 ed3d 2b8f 0d3e
00000100: 3855 523e 4265 92bd 4f41 133e 151e 033e
00000110: 1db6 a73d a88f bfbd 0d85 1d3e d19b cd3d
00000120: 664a 343d 834d ecbd 546f 6fbe a9b7 073d
00000130: 2256 7abc d178 c93d ef3f cbbb a279 bcbd
00000140: e180 ffba 0986 d4bd 63fd 15be 2dc3 493e
00000150: b350 c8bd 02f9 233e 4c27 113d 2d48 203e
00000160: 27c5 28bd bb17 ddbd 0f9e 8dbd 79cd 23bd
00000170: bc76 f03d bfb8 053b d864 7cbd 2978 40bc
00000180: db5b d8bd 56c3 f93d 3199 863c 2f1a b8bc
00000190: 0a7e a63d 7673 02be 2326 423d 2c27 6ebd
000001a0: 4694 44bd 7909 123d a7ae b0bd 72b6 833d
000001b0: 9208 813c 2882 de3d e808 3abd 284c 8e3b
000001c0: bfbe 673c dcd8 df3b a1cb a6bd 9ec4 96bd
000001d0: 63ad 083d 412f d0bd a431 e8bc 9d1f 4abd
000001e0: 8041 f83d 1cd7 353e 292d 2abe c65d b6ba
000001f0: b9c3 013d 458e 1a3e 482c fa3d 912b 88bc
00000200: 50de 113e 1515 213d 51e3 c53d 3080 6d3d
00000210: 7553 8a3d 9c67 87bd 6f4e 32bc f995 863d
00000220: 51b2 0d3e 1e21 f03c 1349 a3bc 8107 e5bd
00000230: 81c7 11bc f1d8 b7bd 6858 21be eee8 f239
00000240: d73a 6f3c ef15 db3d 5c1b 02bd 0f71 7dbd
00000250: 6efb b2bd dd1b 45bc 48be 183d c86d d53d
00000260: b0b8 5bbd 30df 563d d7cf 3dbd a3c1 ab3b
00000270: 97ad 483d 8459 82bc ed85 0a3d a8a0 523d
00000280: 177f 213e 998b 153e 986f 273e bf18 aabd
00000290: aabd 223e 5d6b c73c 534e 99bb 4153 8e3c
000002a0: 959b 563e 4955 053e df9a 4a3d 5af1 ebbc
000002b0: 5717 1dbe 8a34 073e 1b58 c1bc f767 e0bc
000002c0: c106 11be f7e2 82bc 6718 823c ae20 b4bd
000002d0: bbec 95bd 2a43 d1bd 099c 063e bec3 a53d
000002e0: 9434 afbd b132 903c 2a79 f63d 21dd d23d
000002f0: 7b7d f93d 26b5 77bd b4b3 97bd d05e 49bc
00000300: 0145 2e3d 841b b43d 9559 e2bd d1c3 593d
00000310: fe08 ec3d baf5 2fbd 401a b1bd 17f1 fa3c
00000320: 2413 b03d 3c4e f5bd fc4a f33c 6f71 783d
00000330: 24b9 13bc cf26 6cbe 55f1 18be c699 4b3e
00000340: d35a 553e 118b 363c cda1 193c 232f 9bbc
00000350: 8642 14be 45c0 bd3c 6975 c7bb 1d81 d0bd
00000360: 05ac f9bd cb2c 043e 8411 543b 27cc 183e
00000370: c01e 163e d05c a0bd c59a debd a943 b6bd
00000380: 1bf5 84bd acaf a93d 37b6 fabc 9e24 e73d
00000390: 6170 c13d 8afd c0b8 1f28 703c e50a 9ebd
000003a0: 5a47 c83d 92d0 d13d 651f 883d ead6 1a3e
000003b0: 8287 2dbd f640 0b3e 191b 273d 986a 00be
000003c0: c531 d6bd 7b1d 053e a572 cbbd a243 51bc
000003d0: ce0e bbbd d1df 85bd 30f6 293e 1a1a a53d
000003e0: cc50 aa3d 91bb 3ebb 9589 093e 2515 1dbd
000003f0: f31f fdbd 50a0 5e3c 5371 d73d 5089 c63b
-0.07956662 -0.06295138 0.09057906 0.17497668 -0.0726117 0.17943895 0.09194254 0.010393745
0.06989329 -0.14924625 -0.033603046 -0.042859223 -0.066016085 0.084873796 0.13651194 -0.029481275
-0.057865098 -0.13052884 -0.13127255 0.1709584 0.07807177 0.02852521 -0.063843295 -0.020781415
-0.08525481 0.1264636 -0.022160066 0.054896384 -0.10387208 -0.05264595 0.18782997 0.097422026
0.10832412 0.062437065 0.007354044 0.013563516 -0.25051948 0.15460657 0.09500238 -0.050458513
0.06219131 -0.06912393 0.028783653 0.04123339 0.019617008 -0.013675952 0.15879187 0.1459864
0.10585872 0.010126879 0.1181675 -0.024101714 -0.03892847 0.07062922 0.04786741 -0.032909382
0.07531593 -0.08112375 -0.090298 0.18643284 0.00011987167 0.10766186 0.11602972 0.13824145
0.20540321 -0.0714822 0.14380382 0.12804444 0.08189032 -0.09353572 0.15382786 0.10039485
0.044016264 -0.11538222 -0.23382312 0.033134136 -0.015279325 0.09837497 -0.00620269 -0.09202887
-0.0019493365 -0.10377128 -0.1464744 0.1970336 -0.09781017 0.16012958 0.035437867 0.15652533
-0.041203644 -0.10795542 -0.06914913 -0.039990876 0.11741397 0.0020404307 -0.06161961 -0.011747398
-0.10564395 0.121954605 0.01643047 -0.022473423 0.08129509 -0.12739357 0.04739965 -0.058142826
-0.047992967 0.035653565 -0.08627062 0.06431283 0.015751157 0.10864669 -0.04541865 0.0043425746
0.0141445985 0.0068312716 -0.08144308 -0.073617205 0.03336848 -0.10165263 -0.028343983 -0.049346555
0.12121868 0.17757839 -0.1661879 -0.0013913445 0.031680796 0.15093334 0.12215477 -0.016622337
0.14244962 0.039326746 0.09662498 0.057983577 0.067541994 -0.06611559 -0.010882958 0.06571574
0.13837554 0.029312667 -0.019932305 -0.11183072 -0.008897663 -0.08976925 -0.1575638 0.00046331383
0.014601431 0.10697543 -0.031764373 -0.0618754 -0.08739363 -0.012030569 0.03729084 0.1042133
-0.05364293 0.052458942 -0.04634079 0.005241589 0.048993673 -0.015911825 0.033819128 0.051422745
0.15771137 0.14604034 0.16351163 -0.08305501 0.15892664 0.024343187 -0.0046785264 0.017373683
0.20957787 0.13020815 0.049464103 -0.028801609 -0.15340935 0.13203636 -0.023601582 -0.027393324
-0.14162733 -0.015977366 0.015880777 -0.08795296 -0.073205434 -0.10217889 0.1314546 0.080939755
-0.0855495 0.017602297 0.12034829 0.10296083 0.121821366 -0.06047549 -0.074073225 -0.0122906715
0.042546276 0.08794311 -0.11052243 0.05316526 0.115251526 -0.042958952 -0.08647585 0.030632539
0.08597401 -0.11977813 0.029698841 0.060655054 -0.009016309 -0.2306168 -0.14935811 0.19882879
0.20835428 0.011141554 0.009376955 -0.018943375 -0.14478502 0.02316297 -0.0060869944 -0.101808764
-0.12191013 0.12907712 0.0032359073 0.14921628 0.14660168 -0.078302026 -0.10869364 -0.08899624
-0.06492063 0.0828546 -0.030604465 0.11286281 0.09445263 -9.202499e-05 0.014658003 -0.07716922
0.09779234 0.1024486 0.06646613 0.15121046 -0.04236556 0.13599 0.040797327 -0.12540662
-0.104587115 0.12999527 -0.09933976 -0.012772473 -0.09133683 -0.0653683 0.1659782 0.08061619
0.08316192 -0.0029103498 0.1343139 -0.038350243 -0.123596095 0.013588026 0.10519662 0.0060588494

fc1.bias f4 [128]
00000000: cfd8 7ebd 9a7b 113d 4ad0 363d af9b a6bd
00000010: 338b bf3d ff59 1abe 9bab 083e fb8a a6bd
00000020: 888b 853d b8c0 703d 7c85 0d3e 0cbb 65bd
00000030: 86b2 b73d 10bf bfbd 3c2f d03c 3882 153e
00000040: a248 a4bb 5c3e c43d 2dcc 97bc e05c 96bd
00000050: 7fab 923b bec5 2fbc 61b8 9b3d 62b6 a23d
00000060: 0db7 e73b 560c d83d 3827 263e 5224 e73c
00000070: b259 b23d e3d3 ae3d a04b 143e 7678 023d
00000080: e9dd 15bd e4cc b2bd dbb0 a03d 8582 8c3d
00000090: 9f24 a33d 1163 0b3e 6b73 ca3d 8617 fcbd
000000a0: ab70 3abd d7bd a8bd ad35 21be d5b7 203c
000000b0: fa8e 5abc a714 80bd 9a77 153e 422a 6a3d
000000c0: 4813 05bc 6e39 4f3b 0102 07be 7f91 bcbd
000000d0: 6a7a 9a3d 8750 913d 9cdf 99bd 29a2 86bd
000000e0: bade 133e 0993 f9bd 7b81 14bc 0313 9dbd
000000f0: 1355 fdbd 7508 afbd 38d2 1abe 4daa 6d3c
00000100: 9f01 cf3d 1b8f 153d e582 cd3d a9ec 133e
00000110: 208b 213e 8917 c03d d9ab 05be 1814 05bd
00000120: 0ee3 0dbe 6d96 a83d 5be1 b83d 553f 02be
00000130: 36ec fdbd e5e5 363d 8d4b 8cbd 25e7 e4bd
00000140: f8f1 f43c 0355 52bc 6791 25bd d785 f83d
00000150: 9509 b1bd 064f 08bd ca8f d83d 624a 703d
00000160: 0da9 b73d 4218 d5bd 7c35 c5bd 870f d93c
00000170: 1a8e 903c 6409 17be 72c0 213d e7a7 bc3d
00000180: 4348 103c 05a9 99bd 6c74 f13d fc80 8b3c
00000190: d362 17be 0f70 78bd 9c90 02be bb44 293d
000001a0: f5eb a2bd 735f a4bd a4ed 2b3d 9643 9dbd
000001b0: 1f7b c53c cc62 153e 4075 393d e193 8b3d
000001c0: a947 05bd e67c ecbd c30a 9d3d ae68 b13b
000001d0: 8d2c 8b3d 8520 e5bd 7410 233c e98c c3bc
000001e0: 7aba 78bc fcb6 253c 282f 053e 4644 82bd
000001f0: 66f0 ff3c fb98 063e 6013 de3d a749 6abd
-0.062218484 0.035518266 0.044632234 -0.08135163 0.09352722 -0.15073393 0.13346712 -0.08131977
0.06520754 0.05877754 0.13820451 -0.056086585 0.089695975 -0.09362614 0.025413148 0.14600456
-0.0050135413 0.095822066 -0.018529976 -0.07341933 0.0044760103 -0.010728298 0.07603527 0.07944943
0.007071382 0.10549228 0.16225898 0.028215561 0.08708514 0.08536508 0.14481974 0.03185316
-0.036588583 -0.08730486 0.078462325 0.06860832 0.07965969 0.1361201 0.098852955 -0.12309174
-0.045517605 -0.08239334 -0.15743132 0.009809454 -0.013339752 -0.06253939 0.14596406 0.057169206
-0.008122273 0.0031619924 -0.13184358 -0.09207439 0.0754288 0.070954375 -0.07513353 -0.06573898
0.14440432 -0.12186248 -0.009064074 -0.07669642 -0.12369742 -0.08546535 -0.15119255 0.014505935
0.10107731 0.03651343 0.10034732 0.14445747 0.15775728 0.09379489 -0.13053836 -0.032489866
-0.13856146 0.082318164 0.09027358 -0.12719472 -0.12398569 0.04465284 -0.06850348 -0.111769
0.029900536 -0.012837651 -0.04042187 0.12134903 -0.08644406 -0.033278488 0.105743006 0.058664687
0.08967791 -0.104050174 -0.09629342 0.026496662 0.017645884 -0.14749676 0.03949017 0.09211712
0.008806291 -0.07502941 0.11789784 0.017029278 -0.14783792 -0.060653742 -0.12750477 0.041325312
-0.079551615 -0.08026018 0.04197468 -0.076789066 0.02410656 0.1458847 0.045277834 0.06815315
-0.032539044 -0.1154726 0.07668068 0.00541409 0.06795607 -0.11187843 0.009952653 -0.023870902
-0.015181178 0.010114428 0.1300627 -0.063606784 0.03124256 0.13144295 0.10843539 -0.057199147

bn1.weight f4 [128]
00000000: d3e2 653f c023 753f fc63 803f 9157 893f
00000010: b746 7d3f 1873 813f ec9c 8b3f 9ef1 8b3f
00000020: 4ee6 833f b1d5 903f f351 843f d8a8 833f
00000030: a225 873f 4eea 833f 8a69 773f 528a 743f
00000040: 1546 863f 1bc0 793f 1ee4 823f 5a0e 6e3f
00000050: 8e99 843f 196d 7b3f c055 803f 2baf 733f
00000060: b126 7a3f ff01 8c3f 0be8 7b3f e50e 853f
00000070: 074b 893f 86b3 883f 7e0c 733f 9d0b 813f
00000080: 0062 833f 3711 993f 7232 813f 9445 743f
00000090: 0213 7e3f 302c 813f 2108 753f bd15 853f
000000a0: 7543 753f ca4d 843f c1ab 913f 5dcc 8f3f
000000b0: 9c6d 8f3f 219d b23f 9e87 a03f 7f59 993f
000000c0: 1da2 9c3f 94d8 8f3f fd32 873f 3bfc 7c3f
000000d0: c968 863f c1fb 6d3f 6ecb 713f 466e 7c3f
000000e0: 32b5 813f 5aad 873f 904d a53f 415c 893f
000000f0: d4b8 8d3f ba3b a83f 2ede 953f 2110 603f
00000100: 6eaf 863f 3292 7c3f 9a21 7e3f aa0c 913f
00000110: 7cdb 783f a070 973f c9be 6a3f d832 803f
00000120: dcfe 853f bd29 7f3f facb 733f 67d4 8e3f
00000130: 22b5 7e3f 799f 7e3f b586 7c3f 88ed 813f
00000140: 9dbf 713f 55f4 7f3f 9696 853f 07d8 743f
00000150: 900b 713f febd 673f ae94 743f 0014 ac3f
00000160: 5ffc 7b3f beb6 713f b145 823f 1599 933f
00000170: 0ade 703f 8541 803f 425e 813f e8fc 8a3f
00000180: 641c 963f bf75 663f a19a ae3f a5e4 813f
00000190: b16a 943f 3b61 7b3f 314e a33f 0599 8f3f
000001a0: 1f13 673f b924 803f eda1 883f 89f6 833f
000001b0: 71e8 873f bba7 853f 2b48 663f 2bc9 743f
000001c0: 25b5 913f 0cd5 793f 056c 843f 60f0 893f
000001d0: e7fe 963f a9e4 7f3f 8379 8b3f 8afa 803f
000001e0: 7155 7a3f 0cc3 813f fd42 853f 91e3 8b3f
000001f0: dcf5 9f3f ed0a 6f3f 2edb 7e3f 6997 6b3f
0.8979923 0.95757675 1.0030513 1.0729848 0.9893603 1.0113249 1.0907264 1.0933111
1.0304658 1.1315213 1.0337509 1.0285902 1.055836 1.0305879 0.96645415 0.9552356
1.0490137 0.97558755 1.0225866 0.9299065 1.0359361 0.98213345 1.0026169 0.9518916
0.9771529 1.0938109 0.98400944 1.039517 1.0726022 1.0679786 0.94940937 1.0081669
1.0264282 1.1958379 1.009352 0.9541867 0.99247754 1.009161 0.9571553 1.0397259
0.95806056 1.0336239 1.138054 1.1234242 1.1205325 1.3954202 1.2541387 1.1980437
1.2236973 1.1237969 1.0562435 0.98822373 1.0500728 0.9296227 0.94451034 0.98605764
1.0133421 1.0599778 1.2914295 1.0731279 1.107203 1.3143227 1.1708429 0.8752461
1.0522287 0.98660576 0.9927002 1.133199 0.97209907 1.1831245 0.91697365 1.0015516
1.0468402 0.9967306 0.9523312 1.115857 0.99495137 0.99462086 0.98643047 1.0150614
0.94433004 0.99982196 1.043658 0.9564213 0.9415827 0.9052428 0.9553937 1.3443604
0.9843196 0.9441947 1.0177518 1.1531092 0.94088805 1.0019995 1.010689 1.0858431
1.1727414 0.90023416 1.3640939 1.0147902 1.159506 0.98195237 1.2758237 1.1218573
0.9026355 1.0011207 1.0674416 1.0309612 1.061781 1.0441812 0.8995387 0.9561946
1.1383406 0.9759071 1.0345465 1.0776482 1.179654 0.9995828 1.0896457 1.0076458
0.97786623 1.0137649 1.0411068 1.0928823 1.2496905 0.93376046 0.9955319 0.9202791

bn1.bias f4 [128]
00000000: f59d 2abe 9399 b8bd d061 e2bd 4d58 b0bd
00000010: f311 20be 7490 9dbd 9ad1 84bd 5c69 26be
00000020: e504 5abd a228 4ebd d506 23be f85b ffbd
00000030: e661 5abe 2fbc e8bd c254 acbd d6ae 3bbd
00000040: 45cf 92bd 5d4f d1bd ec42 e5bd e7db 10be
00000050: 3aa2 efbd 6bed 3cbd dd73 50bd c0e7 bdbd
00000060: 3c39 88bd 6e22 04bd d410 83bb 6da5 07bd
00000070: a3d4 113d 6e44 85be ce5f edbd 0acf 2abd
00000080: 69ae 43bd 1696 78bd cfe8 9ebd a788 07be
00000090: 55a5 8abd 7b78 59be ffe2 10be 7d3d a1bd
000000a0: e602 debd d5e9 6bbd c078 5abe b707 0abd
000000b0: 7691 acbd d878 4cbe 4ea4 6dbd 8a06 8cbc
000000c0: 8a19 ebbd 856d 53be 345b 13be 5464 f2bc
000000d0: d805 a3bd 1b52 efbd 3489 aebd 74c9 a0bd
000000e0: 8967 0cbe 549e 54be 3079 12be 8494 e2bd
000000f0: 9ec0 a6bd 5cbb 7cbe 6595 3dbe b379 b2bd
00000100: 0458 9bbc 6dc3 2abd 01f5 0dbd 972f 23be
00000110: 9659 ecbd fda9 a2bc 0a72 53be 547f 49be
00000120: 1b7d f3bc f063 e0bc d79c 7bbb fddc 98be
00000130: 5f1a 953a c6f7 21be e762 39bb 8f0c 61bd
00000140: e84f 843d e623 92bc 9f63 ddbd 80d5 1cbe
00000150: a324 93bd 69e7 e3bd 2571 0ebe 5a6a 39be
00000160: 42e9 97bd 10d0 d6bd e840 13be a25c 62bd
00000170: 5745 24bd 667f 2dbe 2310 933c a2f3 af3d
00000180: 9f7a 0bbe 6f6a 57be b146 2abe d489 43bd
00000190: 4470 42be 6ab8 fabd 0b00 9dbe 508a f3bd
000001a0: 2108 1cbe e61d fdbd fa15 52be cb99 1ebe
000001b0: 2ba8 1bbe c97d 02be 7878 b3bd 20d7 e4bd
000001c0: cd39 fabd d8ad fabd 6c97 a3bd fdca 99bd
000001d0: ae0b 26be c87c 2bbe b967 68bd 501d 20be
000001e0: 4767 c7bd 1969 83bd 9ca2 33bd ddf9 0dbe
000001f0: 3978 6bbe 9ab4 83bd 3ad9 87bd 36e1 bcbd
-0.16661818 -0.09013667 -0.110538125 -0.08610592 -0.15631847 -0.07693568 -0.06485291 -0.16251129
-0.053227324 -0.05033172 -0.15920575 -0.124687135 -0.21326408 -0.11364018 -0.08414604 -0.045821033
-0.0716844 -0.102202155 -0.11194405 -0.14146386 -0.11700864 -0.046124857 -0.050891746 -0.092727184
-0.066515416 -0.032259397 -0.003999809 -0.033116747 0.035603177 -0.2602877 -0.11590539 -0.041701354
-0.047773752 -0.060690008 -0.077592485 -0.13235722 -0.06769816 -0.21237366 -0.14149092 -0.07873056
-0.108403966 -0.057596046 -0.21335125 -0.033698764 -0.08426182 -0.19967973 -0.05801802 -0.017092962
-0.114794806 -0.20647247 -0.1439026 -0.029588856 -0.07960099 -0.11685582 -0.08522263 -0.07850924
-0.1371137 -0.20763522 -0.14304042 -0.11063483 -0.081422076 -0.24680847 -0.1851402 -0.087146185
-0.018962868 -0.04169028 -0.034657482 -0.15936123 -0.11540525 -0.019856447 -0.20648971 -0.19677478
-0.02972274 -0.027391404 -0.0038393044 -0.298561 0.0011375657 -0.15817174 -0.002828771 -0.054943617
0.064605534 -0.017839383 -0.10810017 -0.15315819 -0.07184722 -0.11128122 -0.13910349 -0.18106976
-0.07417537 -0.104889035 -0.14380229 -0.055264123 -0.04010519 -0.1694313 0.01795203 0.08591391
-0.13620995 -0.21036695 -0.16628529 -0.047738865 -0.18988138 -0.122422054 -0.30664095 -0.118916154
-0.15237476 -0.12359218 -0.20516196 -0.15488355 -0.1520087 -0.12743296 -0.08763212 -0.11173844
-0.12218056 -0.12240189 -0.07987866 -0.0750942 -0.16215393 -0.16746819 -0.056739543 -0.15636182
-0.097364955 -0.0641653 -0.04385625 -0.13864847 -0.2299508 -0.064309314 -0.066332296 -0.09222643

bn1.running_mean f4 [128]
00000000: 5bab 7bbd 3fb3 053d bfd4 353d 094b a5bd
00000010: e61d bf3d 3ce8 1bbe aa71 0b3e 5994 a1bd
00000020: 8753 8b3d 193e 673d 3ac2 0b3e 16ce 5dbd
00000030: a559 b73d 9a2c babd 75bc c13c c4e1 153e
00000040: 978e abbb f8cd ca3d ab23 a6bc 7c70 a5bd
00000050: 0bc1 cd3b 1a76 67bc dbca 963d 1b86 a73d
00000060: 8a40 2a3b eaea d43d 7efd 273e 6077 f83c
00000070: b63e b53d cb9e ae3d 9fdc 163e 3ef0 fd3c
00000080: 23cc 10bd 10ad b5bd 4429 9e3d f50d 863d
00000090: 7596 a93d a49f 0d3e 0fcd d33d e535 f3bd
000000a0: ea8d 3cbd 36c9 9cbd b838 1fbe a795 1b3c
000000b0: 1713 76bc 27a7 78bd 3540 143e d2b0 583d
000000c0: 7252 f6bb 2357 9c3b 7c48 06be 1791 c5bd
000000d0: 1fe7 a23d 1b0d 933d a276 8cbd 4f3c 93bd
000000e0: b5dc 133e 7fbb f3bd f7c3 14bc e043 98bd
000000f0: bb0a f5bd 8ad5 abbd 5767 15be a7c9 3c3c
00000100: f4b8 d33d e088 193d d489 cd3d b857 143e
00000110: 7108 223e 8895 bc3d c973 08be 1042 04bd
00000120: 6158 08be 2b89 9f3d 3785 b33d c35d 02be
00000130: bb19 00be bfdc 363d f0d0 8ebd 6238 e3bd
00000140: 7071 ba3c 3b56 0bbc ec1a 27bd 5089 ff3d
00000150: cdfc adbd 0886 1dbd a5af d83d 323f 793d
00000160: b468 b13d ca71 d5bd 3b27 c3bd 0c2d e83c
00000170: 0263 8e3c 6e02 13be 2ce8 103d e2bf b43d
00000180: 42bd dc3b 61fa 9ebd ad26 f53d 382e a83c
00000190: 158d 13be 7168 8abd aa7e 00be b5ac 363d
000001a0: d02b a5bd 14b2 9fbd 5ec9 233d 46e2 a2bd
000001b0: 2774 db3c 72b6 0f3e e3ff 303d 1a9e 883d
000001c0: 2618 f1bc 2940 ebbd 0173 a13d 3755 c23b
000001d0: a0d8 8e3d 4c34 eabd 36be 283c 44b5 c6bc
000001e0: 086e 82bc 6056 423c 0876 023e 1d05 84bd
000001f0: 90b7 053d deba 033e b16e d93d 7af0 81bd
-0.061442714 0.032641646 0.044392344 -0.080709524 0.093318745 -0.15225309 0.13617578 -0.07889623
0.06803041 0.056455705 0.1364831 -0.054151617 0.08952645 -0.09090538 0.023649434 0.14636904
-0.005235504 0.09902567 -0.02028068 -0.08078095 0.006279116 -0.014127279 0.0736291 0.081798755
0.002597841 0.10396369 0.16405293 0.03033036 0.08849852 0.08526381 0.14732598 0.030998345
-0.03535093 -0.088709 0.077227145 0.06545631 0.082806505 0.1383043 0.10341846 -0.11875514
-0.046033777 -0.076555654 -0.1554898 0.009496129 -0.0150192 -0.060706284 0.14477618 0.052903004
-0.0075171525 0.0047711297 -0.13113588 -0.09646814 0.07954239 0.07180234 -0.06858565 -0.07189237
0.14439662 -0.119009964 -0.009079925 -0.07434821 -0.11964937 -0.08390339 -0.14590202 0.011522687
0.103380114 0.03748405 0.10036054 0.14486587 0.15823533 0.09208208 -0.13325419 -0.032289565
-0.13314964 0.077898346 0.08765643 -0.1273108 -0.12509815 0.044644114 -0.069734454 -0.110947385
0.02275917 -0.008504446 -0.04079716 0.12477362 -0.084954835 -0.0384579 0.105803765 0.060851283
0.08662549 -0.10422094 -0.09528967 0.028341793 0.017381195 -0.14356396 0.035377666 0.08825661
0.0067364285 -0.077626 0.119702674 0.020529851 -0.14409287 -0.06758202 -0.12548319 0.0445983
-0.08064997 -0.077976376 0.03998696 -0.079533145 0.026788784 0.14034441 0.043212783 0.066707805
-0.02943046 -0.11486847 0.078832634 0.0059305686 0.06974912 -0.11435756 0.010299256 -0.024256356
-0.015921608 0.011861414 0.12740338 -0.06446288 0.032645762 0.12864253 0.10616816 -0.063446954

bn1.running_var f4 [128]
00000000: cdfe 073f 9afd 403f af7d b73d 278b cd3d
00000010: d3b7 103e 32f4 613e f14d 693e fdd1 053e
00000020: cf3f 8d3e dcff 523e 1417 fe3d 2d48 c83e
00000030: 5ea4 433e 9298 143f 17f9 2c3e 3dcf 153e
00000040: d2b8 5b3e 164a e73e e063 b73e c74c 873f
00000050: 802a 6b3e 9527 623e 91ae 413e 152b f63d
00000060: 0063 353e 2a6b 643e 815d e73e 2c48 cc3d
00000070: f435 113e 6602 1c3e 3e10 e03d b8b5 a03e
00000080: 4eb6 743e b0bf c93d 7a8b 723e 1645 ce3e
00000090: 1244 913e e79c 173e 1aa3 1d3f 293e 5f3e
000000a0: 5b31 bf3d 4fc8 7e3e 3982 0e3e 894b 103f
000000b0: 08c7 8d3d 35e4 d63d 2c9c 7a3e 442a 9e3d
000000c0: 3318 b43d 52cb 743e 7b8d 113e 6ac1 c63e
000000d0: 2a4e 343e c7a1 3c3e 6a47 ef3e 64aa e03e
000000e0: 5f37 d53d cee5 2d3e c650 5f3d a517 003e
000000f0: d1c0 853e 5aa6 523e 2ba4 753e 2dde 913e
00000100: a5e1 133e 6170 4b3e f93c 1d3e 9099 5a3e
00000110: 0048 893e 3120 463e d4bc 353f a7e6 a93e
00000120: d1b5 bb3e 11c8 833e dd5b 343e 9df8 7a3d
00000130: 3bb7 7e3e 6de9 103e a50b 4d3e bf1f 003e
00000140: 17a2 cf3e 3aad e33f d90f 083e 8dbf 0d3e
00000150: 14ff 853e 5965 4c3f 962c 2f3e fe54 ac3d
00000160: 60f8 dc3e da43 833e 9340 ef3d 2adf f83e
00000170: d0ed 5c3e fb51 9d3e b51d 5b3e d8bb 013e
00000180: 0a12 c13d a86d 533e da29 003e 9609 763e
00000190: 0d80 0e3e 0fc5 043f 65ab 0a3e 890e 7b3e
000001a0: b607 143f 5b96 163f 4c75 f43d 6f54 ce3d
000001b0: e929 313e 9761 cc3d 81cc aa3e 1a22 913e
000001c0: d35d 773e bfd1 ff3d 4860 3b3e 0da9 833e
000001d0: 5688 713d 6977 923d 7c91 a53d ac2c 803e
000001e0: e0db cf3d 1413 e63e b599 023e 95a6 d03d
000001f0: 2f94 a53d 6ab6 383e d14f 013f 5b5a 673e
0.5312317 0.75386965 0.08959519 0.10036307 0.14132623 0.2206581 0.22783639 0.13068385
0.27587745 0.20605415 0.124067456 0.39117566 0.1910567 0.58045304 0.16891895 0.14629836
0.21457222 0.4517371 0.35818386 1.0570306 0.22965431 0.22085412 0.18914248 0.12019936
0.17713547 0.22306505 0.45188525 0.09974703 0.14180738 0.1523529 0.10940598 0.3138864
0.23897669 0.098510146 0.23686019 0.40287083 0.28372246 0.14805947 0.61577 0.21801056
0.09335586 0.24881099 0.13916864 0.5636526 0.06922728 0.10492746 0.24473637 0.07722905
0.08793678 0.23905686 0.14214127 0.38819438 0.17607942 0.18421088 0.46734172 0.43879998
0.10410952 0.16982195 0.05452039 0.1250902 0.2612367 0.2057127 0.23988406 0.2848982
0.14441545 0.19867088 0.1535529 0.21347642 0.26812744 0.19348218 0.70991254 0.33183786
0.36662152 0.25738576 0.17613168 0.061272252 0.24874584 0.14151545 0.20023973 0.1251211
0.40553352 1.778724 0.13287295 0.13842602 0.26171172 0.79842144 0.17106852 0.084146485
0.43158245 0.25637704 0.116822384 0.4860776 0.21575093 0.3072661 0.21398051 0.12669313
0.09427269 0.206473 0.12515965 0.24027094 0.13916035 0.5186319 0.13541944 0.24517263
0.57824266 0.58823174 0.11936435 0.10074698 0.17301144 0.09979551 0.3335915 0.2834633
0.24156885 0.12491178 0.18298447 0.25714913 0.05896791 0.07151682 0.080843896 0.25034082
0.1014936 0.4493643 0.12753947 0.10188023 0.080849044 0.18038335 0.50512415 0.22593062

fc2.weight f4 [64, 128]
00000000: 58ce bfbc 4711 e63c 3d4d 58bd 3bfc a5bd
00000010: ba71 0e3d 7cbb cfbd a3ec b6bd 190f 8cbc
00000020: 9803 56bd 4707 193e fc6c d137 3c04 b5bd
00000030: 3c89 f4bc caa2 573d cbd7 2bbc 815c b5bc
00000040: ba78 4abd 443f 7fbd cfa3 44bd 61db 6fbc
00000050: ae10 b43c 5a9d f93c 643d 913d 9d48 56bc
00000060: 67e2 7cbd 024f c8bd bcc2 cabc 1ed5 2cbd
00000070: 7b6d e9bd 8cff f3bc c5c5 533c 3bf4 113c
00000080: eecf a9bd 419f 4f3e 11ad 7cbd 166c 973d
00000090: 1b28 913c e871 8dbd f5ed eebc b98a f43c
000000a0: 00e9 f33a 522b 04be 2b30 0bbd 71be 1d3e
000000b0: 12be fd3c 6038 8a3d fbad d23d a901 453d
000000c0: 99f3 bc3d 2a0b 0b3e 5197 c5bc 2940 733d
000000d0: dcc5 5ebc 94d1 dc3b a40e 123b 0d90 103d
000000e0: 82ea f93c f60b f33c b788 b3bd f1c0 30bd
000000f0: ed9b bf3c 3697 52be b45b 4cbe 2af6 c6bc
00000100: a427 b13d e861 95bc f047 b0bc a253 04be
00000110: cf19 8cbd 73a5 843d 8f49 52bc 4be6 38bc
00000120: 859a 903d b15c 2abd 0d84 eebc 5537 95bd
00000130: 6489 89bd c148 8ebd d75b 273c 024d 363d
00000140: df18 e93c 95ec 143c fdb6 f2bc eeb1 793d
00000150: 8c90 0d3d bcbb 9d3b ff05 153a 0e33 ea3d
00000160: cad4 183d b8cd 993d 369e c8bd 49e8 68bd
00000170: 52c3 813d a618 513d edf3 58bc 681c 25bc
00000180: f78e 453d 2f72 bcbc ad26 8dbd d61a 81bd
00000190: cd30 83bc ad58 b83c 31bb 37be 0332 03be
000001a0: 4d93 f1bc bea0 843d 42cd f93c c48f bf3d
000001b0: 1932 963d cc4d d13d 8e33 abbc 686b 3dbc
000001c0: 0c0d 86bd 5323 f3bb 5c4e d2bb 0468 1d3d
000001d0: 7554 ca3d 41da 1c3d 69ea 6b3d 6078 8fbd
000001e0: d911 983d d554 23bd bb1f f7bc 2e75 f23d
000001f0: caa0 c73d ddb8 b53b f0e0 323d 0c27 a2bc
00000200: bdea 5d3d 54d9 5c3c 1424 ac3d 6265 c33d
00000210: 7ae6 9abd 6bf5 17bd 560f 803d fb85 61bc
00000220: 26b5 5c3d 8ad8 6a3c 9937 86bd a6f8 c43d
00000230: 31a6 173d 9140 1bbc d03d ce3c a666 7f3d
00000240: b1fa 743d c622 a4bc d189 c83c 22d4 39bd
00000250: 1793 38bd 3409 0a3d afd5 973d d866 813d
00000260: def4 f13b 3edb 533d 08b2 04be fef7 c9bd
00000270: 0777 cb3b 4720 573c 2fb4 c4bc 1043 debc
00000280: 230f 48bd 68df d0bd e3ed c03d b69a d63c
00000290: c6fc 183d 7474 82bb 8ada 2fbd 0a4d 81bc
000002a0: 2d51 adbd 9f98 723d fa1a 093d f9fa 10bd
000002b0: 3df8 64bc 8ea1 df3b 4741 88bd 9444 92bd
000002c0: d0fa a2bd c4a4 503d ae08 47bc c139 55bd
000002d0: 7aaa 753d c767 843d 152a 363d 5bb4 6c3d
000002e0: 0c7c e2bc 73dc 75bd 3bc0 543c e218 1dbd
000002f0: b8b7 423d 8d3d 7cbd d9ef 16bd c80e 8fbd
00000300: 0aff 113b 8a1d 0abd e131 1e3d 0c71 c93d
00000310: 9c3a 113d 558c 43bd 2762 593d 8d01 44bc
00000320: 17ca 8d3d f5a8 28bd b837 63bd 2ffc 30bc
00000330: 9eb3 6d3d 4d23 16bc 2c96 823d 8778 dfbb
00000340: 53a2 b7bd dffd d9bc 4538 87bd c584 53bd
00000350: c38d c03c d3ba 863c 0bc5 b1bd 4349 173d
00000360: 1f18 e33d 1beb 82bd fc0f 83bd d1ec 8f3d
00000370: 1cc2 4ebd 1db6 db3c fd0e b1bd c4ad a3ba
00000380: 26f8 fdbd 7cf9 6e3b 87eb 203c 4f22 c83c
00000390: b55e 0e3d ae18 633d eeda 3b3d fac8 0dbd
000003a0: 3297 f9bc 8c5d 9d3d 9cb0 a8bb dea2 b4ba
000003b0: a291 843d 6196 e0bc 85e8 3f3d e5c6 9ebd
000003c0: ac86 483d c555 9cbd f96b bf3d 877e 073d
000003d0: b79f 513d 72aa 183d b833 5cbd 7418 99bd
000003e0: 4ab1 56ba f9b5 aa3d 4428 edbd 336b 99bb
000003f0: 3d81 b3bd 5eca aebd cf09 503d 417c adbd
-0.023413822 0.02808441 -0.052808035 -0.0810475 0.034776427 -0.10143182 -0.089318536 -0.017097043
-0.05224952 0.14944182 2.4965491e-05 -0.08838698 -0.029850595 0.052645482 -0.010488461 -0.022138836
-0.04943154 -0.062316194 -0.048007783 -0.014639706 0.02198061 0.030470539 0.070917875 -0.013078836
-0.06173935 -0.097806945 -0.02475106 -0.042195432 -0.11397835 -0.02978494 0.01292557 0.008908327
-0.082916126 0.20275594 -0.061688486 0.07393663 0.01771932 -0.069064915 -0.029166201 0.029851304
0.0018608868 -0.1290715 -0.033981483 0.15404679 0.030974422 0.06749034 0.102870904 0.048097286
0.0922615 0.13578478 -0.024120005 0.05938736 -0.013596978 0.006738851 0.0022286559 0.035293628
0.03050733 0.02966879 -0.08766311 -0.043152753 0.02338978 -0.20565495 -0.19956857 -0.024287302
0.08650139 -0.018235162 -0.021518677 -0.12922528 -0.0684086 0.064768694 -0.012834921 -0.011285375
0.07060722 -0.041592304 -0.029115701 -0.07285944 -0.06715658 -0.069474705 0.010214767 0.044507034
0.028454242 0.009089609 -0.029628271 0.060960703 0.03456168 0.0048136394 0.00056847924 0.11435519
0.037312306 0.07509941 -0.09795801 -0.05686215 0.063360825 0.051048897 -0.01324175 -0.010077573
0.048232045 -0.023003666 -0.068921424 -0.06303947 -0.016014481 0.022503221 -0.17942502 -0.12812047
-0.029489184 0.06475972 0.030493382 0.09353593 0.07333774 0.10219917 -0.020898607 -0.011561252
-0.06545457 -0.0074199825 -0.0064180326 0.038429275 0.0987939 0.03829408 0.057596598 -0.070053816
0.07425279 -0.039875824 -0.030166497 0.118387565 0.09747465 0.005545719 0.04367155 -0.01979401
0.054178942 0.013479549 0.08405319 0.095408216 -0.07563491 -0.037099283 0.06252925 -0.013764854
0.053883694 0.0143338535 -0.06553573 0.096177384 0.037023727 -0.009475843 0.025175959 0.062353753
0.05980939 -0.020036113 0.024479778 -0.04536832 -0.04506215 0.033700183 0.07413804 0.06318444
0.007383927 0.051722758 -0.12958539 -0.09861754 0.0062092575 0.013130254 -0.0240117 -0.027131587
-0.04884256 -0.10198861 0.09420373 0.026196819 0.03735044 -0.0039811675 -0.042933024 -0.015783805
-0.08462749 0.059227582 0.033472992 -0.035395596 -0.0139752 0.0068246787 -0.06653076 -0.071419865
-0.07957995 0.050938383 -0.0121480655 -0.05205703 0.059977032 0.064651065 0.044473726 0.057789188
-0.02764704 -0.06002469 0.012985284 -0.03835381 0.04753849 -0.061582137 -0.03684983 -0.06985241
0.002227726 -0.033719577 0.038621787 0.09836015 0.035456285 -0.047741253 0.05307212 -0.01196326
0.06923311 -0.041176755 -0.05547306 -0.010802313 0.058032624 -0.00916369 0.06376299 -0.006819788
-0.08966508 -0.026610313 -0.066025294 -0.05164029 0.023505097 0.016446507 -0.08680161 0.036935102
0.11088585 -0.06392499 -0.06399533 0.07027591 -0.050478086 0.026820237 -0.08645437 -0.0012487699
-0.12400846 0.0036464622 0.009821779 0.024430422 0.03475829 0.05544346 0.045863084 -0.034615494
-0.030467603 0.07683858 -0.0051480066 -0.0013781448 0.0647309 -0.027415456 0.046852607 -0.0775278
0.048956558 -0.07633547 0.09346766 0.03307965 0.051177707 0.037271924 -0.05376026 -0.07475367
-0.000818987 0.0833549 -0.11579946 -0.0046819686 -0.087648846 -0.08534692 0.050790604 -0.08470965

fc2.bias f4 [64]
00000000: 2094 68bd 644c 733d c18c 5abd 2720 febc
00000010: 65d3 9fbd 6894 b43d 60de 5a3d e07b 1a3d
00000020: 1393 3abd e35b 963d 3e9a f6bc 9b78 033d
00000030: a020 653d 8a60 afbd 84c5 d4bc ae90 0fbc
00000040: cb18 58bd 69b3 653d b550 0a3d 5dcd 153d
00000050: bd6c 60bd edf6 44bd 556f 1e3d 2fe6 973d
00000060: 7aa3 e5bc 9ad2 03bd f4b5 713d 630e 303d
00000070: 8606 623d 08bd 5abd 6fa2 35bd 838f fdbb
00000080: 890d 7abd 0043 753d b545 9a3b 7244 553d
00000090: e43d 0d3b 1628 323d 0a6b 313c b328 333d
000000a0: dc55 8a3d 6c84 f63c aa53 87bc b166 d73c
000000b0: e16f 6bbb 48c7 90bb a12c 0fbd 2718 6dbd
000000c0: 51f1 5bbc 2b2a af3d 6154 8abd 2f02 9c3d
000000d0: 7d36 8abd e9c2 d33b dc7b e93b 7661 e63b
000000e0: c1aa bf3c 3821 4f3d fadf fb3c 1f04 a7bd
000000f0: f516 38bd 6e8a c0bc 2085 33bd 81e1 1bbc
-0.056781888 0.059399024 -0.05335689 -0.03102119 -0.07803992 0.08817369 0.05343473 0.037715793
-0.045550417 0.07341745 -0.030102845 0.03209744 0.055939317 -0.08563335 -0.025973089 -0.008762522
-0.05275802 0.056079302 0.033768374 0.036572803 -0.0547912 -0.04808705 0.038680393 0.07416951
-0.028032053 -0.032183267 0.059011415 0.04298247 0.055182002 -0.05340293 -0.044344362 -0.007738055
-0.061048064 0.05987835 0.0047080168 0.052067228 0.0021551782 0.04349526 0.010828743 0.043739986
0.067546576 0.03009244 -0.016519386 0.026294084 -0.003592484 -0.0044182874 -0.03495467 -0.05788436
-0.0134242335 0.08552965 -0.06754375 0.07617604 -0.06748674 0.006462444 0.007125361 0.007030661
0.023396851 0.05056879 0.030746449 -0.08155083 -0.04494377 -0.023503508 -0.04382813 -0.009514214

bn2.weight f4 [64]
00000000: d738 893f bc2e 833f 3259 813f dab1 803f
00000010: 9d09 8a3f 0588 803f da4d 773f 81fe 743f
00000020: a9a8 863f 02fd 7c3f 680f 803f 4980 773f
00000030: d6fb 833f 0a03 813f df64 803f f27c 823f
00000040: 4b89 843f 3a44 7e3f 186a 7a3f cc10 783f
00000050: e2d8 723f fa09 843f 6a0d 7e3f 2d19 723f
00000060: 7d07 853f a105 7b3f c16a 8c3f 15ca 7a3f
00000070: 43b6 903f 6537 843f 1163 713f ff37 8a3f
00000080: e32c 873f d585 8a3f 011b 913f 3389 873f
00000090: 85f9 803f eac3 813f 0ed5 6c3f a7c9 7f3f
000000a0: e1a2 923f 4955 813f 7b6c 873f de83 8b3f
000000b0: 252b 853f 6a63 833f eca6 7d3f d33a 813f
000000c0: d2c1 753f 8c7f 803f 7528 773f bd18 853f
000000d0: 32fd 833f 6c38 803f 63af 6e3f b73c 953f
000000e0: e0c0 7c3f 09cb 7a3f 6ef8 8c3f d3bf 823f
000000f0: 08a1 883f 48b7 923f 2ac5 7b3f d42e 863f
1.0720471 1.0248637 1.0105345 1.0054276 1.0784184 1.004151 0.9660317 0.9570084
1.0520221 0.9882356 1.0004702 0.9668012 1.0311229 1.0079052 1.0030783 1.019438
1.0354398 0.99322855 0.97818136 0.9690063 0.94862187 1.0315545 0.9923922 0.94569665
1.039291 0.98055464 1.0970079 0.979646 1.1305622 1.0329405 0.9429179 1.0798339
1.0560573 1.0822092 1.1336366 1.0588745 1.0076147 1.0137913 0.92512596 0.9991707
1.1455957 1.0104152 1.0579981 1.0899618 1.0403792 1.0264714 0.9908283 1.0096077
0.9599887 1.0038924 0.9654611 1.0398175 1.0311644 1.0017219 0.9323637 1.1659154
0.98731804 0.9796606 1.1013315 1.021479 1.0674143 1.1462183 0.98347723 1.0483041

bn2.bias f4 [64]
00000000: 809c c6bb c206 da3c 565c a4bd 0631 99be
00000010: 010a ae3d a997 c5bd 9e06 c9bc aed0 11bd
00000020: 45dc 5e3d 0e77 f1bd 51af 3dbd 4694 8abe
00000030: b1fe afbd c1e4 ab3c d29b b9bd eb15 2abd
00000040: 6c8b debe c6fb dbbc da12 9abd 2372 1cbd
00000050: 5652 17be 9a7e c2bc 5821 11bd 577b 9cbd
00000060: 4e36 76bd 5aa6 85bd 79ad 2f3d 81be 8abd
00000070: eb93 73bc f7c1 2fbc ceee b0bd fa6b 083b
00000080: 4d01 a7be 64cc 2f3d a359 babc d8c2 9f3d
00000090: cafb 94bd 5051 523d 4199 60be 8ee5 433d
000000a0: c7df fc3c c4a8 30be a5ee 92bd c897 b7bc
000000b0: c90e 053d 1ae2 0bbd 1632 9fbe 9975 dfbc
000000c0: aba8 9fbd f919 29bd 53fe 66bd e648 4fbc
000000d0: e00b 523d 72a7 0bbe 6eb8 edbd 9157 253d
000000e0: 1216 e9bd c14d 4cbd 1473 26bd 1a0e 09bd
000000f0: cdcd 953d 7157 a23d aedc a73c 0d46 9e3d
-0.0060611367 0.02661455 -0.08025424 -0.29920214 0.08498002 -0.096480675 -0.024539288 -0.035599403
0.054409284 -0.11790286 -0.046309773 -0.2706625 -0.085935004 0.020983102 -0.090629235 -0.04152481
-0.43465745 -0.026853453 -0.07523127 -0.038194787 -0.14777502 -0.023742009 -0.03543219 -0.07640713
-0.060110383 -0.0652587 0.042890046 -0.06774617 -0.014866809 -0.010727397 -0.086392984 0.0020816312
-0.3261818 0.04291953 -0.02274782 0.07800835 -0.072745875 0.051347077 -0.21933462 0.047826342
0.030868424 -0.17251879 -0.07174424 -0.022411242 0.032484803 -0.034151174 -0.310929 -0.027277755
-0.07795843 -0.041284535 -0.056394886 -0.012651658 0.051280856 -0.13638094 -0.11607443 0.040366713
-0.11381163 -0.04987884 -0.04063709 -0.033460714 0.07314644 0.079268344 0.02049097 0.07728205

bn2.running_mean f4 [64]
00000000: 51c1 78be 6db9 b53c 6250 74be 2c4c ea3b
00000010: a432 813e 2c73 5e3d 0b08 5abd 4821 c5bd
00000020: 3f90 40be 4e98 a03c cf4e 41be 3591 08be
00000030: 5dc3 0dbe 385c 563d e9e6 323e 25d8 8cbe
00000040: 5708 eebe 61a4 7dbe ce08 5b3e 8a2b 30bd
00000050: ca2f b1be f4d1 893e bd88 b43e 0f6c 0c3a
00000060: ec4f 72be 4042 a03e 1c17 66bd 80c0 4cbe
00000070: 3e75 01be b26f eb3d 0e72 a4be 984f 6ebe
00000080: 956a 19bf e8a2 023e d239 89be 66e1 2e3d
00000090: acbd 2abe 73af 863e 393f bfbd 1568 813d
000000a0: a60c 6d3e 080d a9be 13bb 9ebe 2933 15be
000000b0: 64b6 96bd ddd6 82be 5591 e6bd 0368 b0be
000000c0: b2be 8dbe 9fdb a03e 0ec3 cebd 28fb 903c
000000d0: 9306 863d ff0c fdbd 4d99 e8be 477e 1f3e
000000e0: b037 94be 4055 1a3e c338 5abe bfc8 34bd
000000f0: e4b0 133e 9a59 993e 10ae 58be 2768 693e
-0.24292494 0.022183144 -0.23858789 0.0071501937 0.25233948 0.054309055 -0.053230327 -0.096254885
-0.18805026 0.019603875 -0.1887772 -0.13336642 -0.13844056 0.05233404 0.17470898 -0.27508655
-0.46490738 -0.24769737 0.21390077 -0.043010272 -0.34606773 0.26917994 0.35260573 0.0005356678
-0.236633 0.31300545 -0.056174383 -0.19995308 -0.1264238 0.114959136 -0.32118267 -0.2327255
-0.59928256 0.12757456 -0.26801926 0.042695425 -0.16673917 0.26305732 -0.09338231 0.0631868
0.23149356 -0.33017755 -0.310021 -0.14570297 -0.07359007 -0.25554553 -0.11258189 -0.34454355
-0.2768455 0.31417558 -0.100957975 0.017697886 0.06544223 -0.123559944 -0.4542946 0.15575515
-0.28948736 0.15071583 -0.21310715 -0.04413676 0.14422947 0.29951173 -0.2116015 0.22793637

bn2.running_var f4 [64]
00000000: e2d8 d53e 86e9 263f 7b99 053f cc04 873e
00000010: 2853 7c3f 834b 083f 27ae d53e f705 163f
00000020: 6d88 ed3e 7c25 df3e a225 e03e 348a 973e
00000030: 1ed2 ef3e 4a35 2d3f 5ac8 053f 0ac2 133f
00000040: 3284 9a3e b1ca 143f 8e0f 373f 9839 c83e
00000050: a573 3f3f 7551 1b3f 7aeb 023f 18ad f83e
00000060: 08c6 a13e 98ba cb3e 2013 053f 14a9 8e3e
00000070: 08aa 273f 9c3c 183f e6eb 073f 9f77 f03e
00000080: bdaa d13e da8c 3a3f 8e3c dd3e 784c 273f
00000090: 8e27 fc3e 9445 653f 3793 933e d029 aa3e
000000a0: 7eeb 0c3f c410 cc3e f4b2 e93e 0868 193f
000000b0: 786e 3d3f 74d7 943e aa6c 493e deb8 113f
000000c0: 342a bf3e 7808 ca3e d870 583e 037e 153f
000000d0: 3e03 3b3f d7cc d53e 6a2d 363f 705e 6e3f
000000e0: ebdf d93e f437 dc3e 612e db3e 800a ef3e
000000f0: 6c2f 7e3f ef9d 7c3f e81c 073f a503 373f
0.4176703 0.6520008 0.5218732 0.26370847 0.98564386 0.5324022 0.4173443 0.5860285
0.46393147 0.43583286 0.43778712 0.29597628 0.46839994 0.6765944 0.5225884 0.57717955
0.30178982 0.5812178 0.7150811 0.3910644 0.74785835 0.6067117 0.5114056 0.4856956
0.31596398 0.39790797 0.5198231 0.2786337 0.6549382 0.5946748 0.5309433 0.46966264
0.40950575 0.7287117 0.43210262 0.6535106 0.49248928 0.8955929 0.28823254 0.33235025
0.5504683 0.3985654 0.45644343 0.59924364 0.73996687 0.29070628 0.19670358 0.5692271
0.37336886 0.39459586 0.21136796 0.58395404 0.7305182 0.41757843 0.71163046 0.9311285
0.42553648 0.4301144 0.42808822 0.46687698 0.9929111 0.9867849 0.5277848 0.71489936

fc3.weight f4 [32, 64]
00000000: 5c7e 85bd c9e1 02be fbad bc3d b8da 33bd
00000010: c57d 30be 0f7f 9c3d 714e 083c 6635 c13c
00000020: 5ac5 babd b72b 18bc 0129 60bb 6406 fe3d
00000030: 4ac5 803c ba7e 9dbd 0f71 7cbc 9874 2a3d
00000040: 09f6 ed3d 3d40 ebbc 7e7b a7bd ef0f 033d
00000050: 674c 953d 4713 a2bd 7cb4 c7bd 2fe6 ee3c
00000060: 9bde dc3b 1f28 92bd 3727 07be fc73 d0bd
00000070: f262 adbb 72df cb3d 6e88 83bb 5da8 5d3d
00000080: d642 703d 8432 d3bd 677f 073d 67d5 2bbe
00000090: 8298 2bbd 19b4 b03c 650c 773d 811b 33bd
000000a0: b64f 87be 07d7 6f3d 1cd3 633d 6d71 e4bc
000000b0: 1ab7 7bbd 1836 cb3c 09df 503d 6d0a e23b
000000c0: ebd7 bfbd 285c 06bd 4ba9 cdbc 167a 17be
000000d0: 1bdf 10be 21f5 c3bd 6aeb 663d 0cd9 15be
000000e0: 27ce 963d 6473 f9bb 5c43 8ebd b7b9 cebc
000000f0: a3f3 98bd 30c2 bebd d561 47bd cfb8 cbbc
00000100: 4730 f5bc 3b86 44bd 9410 7b3d 9571 09be
00000110: a98e bb3b 7bf3 4d3d b8a4 77bd 380c 86bd
00000120: 01fb 0abe b667 17be d7d4 13be d358 a13d
00000130: 0c5f 27bd 97d3 76bd 4d98 8c3d 74b9 77bb
00000140: 789b 67bc a765 d5bd b50e 4cbc 67f4 b63c
00000150: dba5 4b3c 84d2 c2bc def2 b83d 450b b23c
00000160: 11ce 973c 32fa 20bd 45e2 17be de23 e0bd
00000170: f195 283d e52a 37bd f7f9 48bd 99ac bf3b
00000180: 1f35 af3d 9505 c3bc 4cda 56bd 0420 49bd
00000190: 5f26 3ebe cfa9 27bc beef c0bd 0889 e0bd
000001a0: 3ca1 a53d b298 073e e4ec 27be 92e0 783d
000001b0: e439 d23d 5d8b 7d3c 83a3 ab3d 6def 503b
000001c0: 3c82 56bd c352 babd eca0 b33d 5e62 323d
000001d0: 68e2 923d 9628 f3bd 5d83 8a3d 47e2 78bd
000001e0: 2d47 4dbd c019 efbc aa33 d6bd 1819 0ebe
000001f0: 6418 973c 222b 923d fac9 1f3c ee88 40bd
00000200: bb46 d43c b644 5d3d 5212 1fbe 2816 973d
00000210: 0149 1c3c f835 09be e6af 9b3c b77f 2b3d
00000220: baa5 9abd bcc4 933b c2f9 18bd f34f 413d
00000230: 90f4 b93c af1d bebc 5c0e 22bd cae9 06be
00000240: 87a0 813d 50c4 2cbe b900 5a3d de99 f1bb
00000250: 2611 25bd 28d0 ab3c 50af 9e3c cbd1 e0bd
00000260: c24e babd a256 ab3d d167 63bd 946a 51bd
00000270: a5ab bfbd ee8e d3bc 8228 17be c01c 6e3b
00000280: fee5 7d3d ed85 3e3d 6762 b5bd d120 07bc
00000290: 2d88 e1bd 883b 103d d341 67bd 59e9 7c3c
000002a0: 13a7 1d3c f5b1 08bb 6eb0 c7bd 5102 88bd
000002b0: d31d 0dbd aba8 cdbc 10a3 b43d 04f7 fcbd
000002c0: c7f2 eabc 43a5 17bd 7e81 cebd 5982 83bd
000002d0: 0afa e1bd 4c97 b8bd 762a 72bd b787 94bd
000002e0: f774 05be f7f2 073c 4cb6 5ebd f324 2cbc
000002f0: 516b 2ebd e0ac b3bc f7c3 79bd f113 cabc
00000300: 9d42 bebd 4249 01bd 7c97 ae3d b627 993d
00000310: 8b84 f53b a2dd 003e 9a91 e03d 0e2d da3d
00000320: 7c55 a2bd f69b e83d 5217 95bd 15d9 0c3e
00000330: 4dc6 75bd de85 443c ff3f 163a dd44 653d
00000340: 3110 293d 8031 833c 8d0e 113d 057d 00be
00000350: a7f3 3dbd ce43 32be 11b4 d4bd 44d5 0dbd
00000360: 52fd 92bd 965a c1bd 88d9 06be a6d6 83bc
00000370: 8992 b6bc 495a ad3a dae0 793d 0e01 aabc
00000380: eb35 f2bb 2499 063d b84a ef3a 242d 7a3b
00000390: 0e5c 963d a695 f43c 7d88 5b3d 2630 953d
000003a0: e3d0 75bd 7696 003d 82d5 8cbd 31f9 fcbc
000003b0: b7fe 8e3d 5318 febd bb63 41bd fd5b 0bbe
000003c0: 9011 edbc fd96 013d 896e 15bc 58b5 7d3d
000003d0: 68a2 e13a 8b03 8b3d c40b ce3d 9cf3 8c3d
000003e0: 14dc 593d 4462 a4bc 8b9e f3bd 5f53 c93c
000003f0: bbf3 3a3d 17ac 123d fb45 743d 95d5 48bd
-0.06518242 -0.12781443 0.09212872 -0.04390976 -0.17235477 0.07641422 0.008319483 0.023585033
-0.09119673 -0.009287766 -0.0034204128 0.12403563 0.015719075 -0.07690187 -0.015407815 0.0416151
0.11619193 -0.028717155 -0.08177851 0.031997617 0.07289963 -0.07913833 -0.097512215 0.029162494
0.006740404 -0.07136559 -0.13198553 -0.10178372 -0.005291336 0.09954728 -0.0040140664 0.05411564
0.05865749 -0.103123695 0.033080485 -0.16780625 -0.04189349 0.021570252 0.060314555 -0.0437274
-0.26428002 0.058554675 0.05562125 -0.027886117 -0.061453916 0.024806067 0.050993953 0.0068982155
-0.09367355 -0.03280273 -0.02510514 -0.14792666 -0.14147608 -0.09568239 0.056376852 -0.14633578
0.07363539 -0.0076126326 -0.069464415 -0.02523504 -0.07468345 -0.09314382 -0.048677284 -0.024868397
-0.029930247 -0.047979575 0.061295107 -0.13422234 0.0057237935 0.05028103 -0.060459822 -0.06545299
-0.13572313 -0.14785656 -0.1443666 0.0787827 -0.04086213 -0.06026038 0.068649866 -0.0037799748
-0.014136188 -0.10419779 -0.012454678 0.022333337 0.01242968 -0.023782022 0.09030698 0.02173389
0.018530877 -0.039301105 -0.14832409 -0.10944341 0.04115862 -0.04471864 -0.04906651 0.0058494327
0.08555054 -0.023806373 -0.052454278 -0.049102798 -0.18569325 -0.010233357 -0.09420727 -0.10963637
0.08087394 0.13241842 -0.1639896 0.060761042 0.10264948 0.015475121 0.08380797 0.003188099
-0.052370295 -0.09097817 0.08770928 0.04355084 0.0717209 -0.118729755 0.06763337 -0.06076267
-0.050116707 -0.029187083 -0.10459073 -0.1387676 0.018444248 0.07137133 0.009752745 -0.047005586
0.025912633 0.054020606 -0.15534332 0.07377273 0.00953889 -0.13399494 0.019004773 0.041869845
-0.07551141 0.0045095365 -0.037347563 0.047195386 0.022699624 -0.023207514 -0.039564475 -0.13175121
0.06329446 -0.16871762 0.053223345 -0.0073730787 -0.040299557 0.02097328 0.019370705 -0.10977515
-0.09097053 0.08366133 -0.05551893 -0.05112703 -0.093589105 -0.02582499 -0.14761546 0.0036333054
0.061986916 0.04651444 -0.088566594 -0.00824757 -0.110123016 0.035213023 -0.05645926 0.015436494
0.009622353 -0.0020858024 -0.09750448 -0.06641067 -0.03445227 -0.025104841 0.08820164 -0.12351802
-0.028680218 -0.03702284 -0.100832924 -0.06421346 -0.11034019 -0.090132326 -0.059122525 -0.07252448
-0.130329 0.008297673 -0.05437307 -0.010506856 -0.042582814 -0.02193302 -0.060977902 -0.024667712
-0.09290049 -0.031564005 0.08524987 0.074782774 0.007492607 0.12584546 0.10965271 0.10653125
-0.07926461 0.11357872 -0.072798386 0.13754685 -0.060003567 0.011994807 0.0005731582 0.055973876
0.041275207 0.016014814 0.035414267 -0.12547691 -0.046374943 -0.17408678 -0.103859074 -0.034627214
-0.07177223 -0.09441106 -0.13168919 -0.016093563 -0.02228667 0.001322576 0.06100545 -0.020752456
-0.0073916814 0.03286089 0.0018256521 0.0038173879 0.07341777 0.029856514 0.053596962 0.07284574
-0.060013663 0.03139349 -0.06876661 -0.030880542 0.06982177 -0.12406983 -0.04721425 -0.1360931
-0.028939039 0.031638134 -0.009120592 0.06194052 0.0017214539 0.06787785 0.10060838 0.06882402
0.0531884 -0.020066388 -0.11895474 0.024575887 0.045642596 0.03580865 0.05963705 -0.049031813

fc3.bias f4 [32]
00000000: d6a8 f23d e181 973d 06df a7bd 3650 8b3c
00000010: 3e59 6f3d bc5d e53d d03f ae3d 94a2 593c
00000020: b991 11bd 8023 693d f30f a5bc 2e72 f6bb
00000030: 855f 9fbc 3621 d53d d72b b63d edd6 7ebd
00000040: 4e3d adbd e177 e0bd 96b8 793c 56c3 fa3c
00000050: e581 c2bc a192 53ba cc15 1abd 0fe0 22bc
00000060: eb95 84bd f759 b83d 4097 b53d 9ed0 9f3d
00000070: bbe0 e2bc 359e e0bd d4df aebd 0c5a 053c
0.11848609 0.07397819 -0.08196835 0.017006021 0.058434717 0.11199519 0.08508265 0.013283391
-0.035539363 0.05691862 -0.020149207 -0.0075209355 -0.019454727 0.10406725 0.088950805 -0.062216688
-0.084589586 -0.10960365 0.015241763 0.030610722 -0.02374358 -0.00080708606 -0.037618443 -0.009941115
-0.06473907 0.090015344 0.08866739 0.078034624 -0.02769505 -0.109676756 -0.085387856 0.008139145

bn3.weight f4 [32]
00000000: 24c2 963f bc24 6d3f c8ea 733f 11ff 713f
00000010: b41e 8c3f dbd5 8b3f d3b4 ca3f 48d7 a13f
00000020: 206b 763f 8371 653f b0d1 683f d5b8 883f
00000030: e634 663f 9b36 823f 0dda 583f 892c 663f
00000040: 6cbe a23f 793a 653f f5d2 653f b699 723f
00000050: de25 6a3f 7f49 a33f 580f 6b3f e613 b63f
00000060: 5ebc 9c3f 242c 8c3f ffd8 a73f faf7 6d3f
00000070: 71b7 833f 92d9 6e3f e4fb 6b3f d705 8e3f
1.1777997 0.9263418 0.9528012 0.94529825 1.094687 1.0924639 1.5836433 1.2643824
0.9625721 0.8962633 0.9094496 1.0681406 0.89924467 1.0172914 0.8470772 0.89911705
1.2714362 0.8954235 0.8977502 0.94765794 0.9146403 1.2756804 0.9182029 1.4224823
1.2244985 1.0950971 1.3113097 0.9295651 1.0290357 0.93300736 0.9218123 1.1095532

bn3.bias f4 [32]
00000000: 358e 983d 8751 42bd 1bad c6bd 3cbc 87be
00000010: 7418 6b3b 98fc 2e3b 9ae4 ae3e d47d 033e
00000020: 1651 81be b5f0 5cbe 7a21 67be 09e2 2fbe
00000030: d3a3 63be 8959 a3be 39d7 01be f498 13be
00000040: 08d2 a33d 6635 33be 9798 80bd 8d6b 78be
00000050: 2648 fabd c862 af3d 7496 3cbe b1dd 123e
00000060: 5906 0c3e 8b79 853d 130c 773d 2dbe efbd
00000070: 7934 1bbb e02a 0fbe 8f0f 37be 57e1 143e
0.07448999 -0.04744103 -0.09700986 -0.265108 0.003587273 0.002670085 0.34158784 0.12840968
-0.25257176 -0.21576197 -0.22571364 -0.1717607 -0.22230463 -0.31904247 -0.12679757 -0.14413816
0.07999045 -0.17500839 -0.06279104 -0.24259777 -0.122207925 0.08563763 -0.18416768 0.14342381
0.13674296 0.06517323 0.06031425 -0.11706195 -0.00236824 -0.139812 -0.17877029 0.14539085

bn3.running_mean f4 [32]
00000000: 6789 fdbe f157 3dbe de05 13bf 1e0d b5bd
00000010: cfcb f7be 4c2c 32bf 4421 02bf d35c 2ebf
00000020: 1526 d7be 691d b83d d1b9 bdbd 296a 2cbf
00000030: b8b9 50be 9f95 8dbe 8407 d0be bc3d 02bf
00000040: ad20 53bf b567 b7be 69be 00bf 86f9 c8bd
00000050: 46d6 adbd 6f20 00bf 8562 0dbf 1a84 10bf
00000060: 3f21 ebbe 64e7 08bf f865 d5be 728e c2be
00000070: 9cb7 27bf e42a d7be b99f c7bc a2d3 d8be
-0.49518892 -0.18490578 -0.5743083 -0.088403925 -0.4839768 -0.6959884 -0.5083201 -0.6811039
-0.42021242 0.089899845 -0.09263957 -0.6734949 -0.20383346 -0.27653214 -0.40630734 -0.5087545
-0.82471734 -0.3582131 -0.5029054 -0.09813218 -0.08488135 -0.5004949 -0.55228454 -0.5645157
-0.45923802 -0.53478074 -0.41679358 -0.37999302 -0.6551454 -0.4202491 -0.024368154 -0.42348963

bn3.running_var f4 [32]
00000000: dc9a 8f3f 6082 223f 498f 003f e12e 113f
00000010: 464a 763f 7709 853f 114a 0240 1114 df3f
00000020: 46cd 7e3e 6e59 ed3e d434 f83e 04d8 2e3f
00000030: 1067 463f 658c 923e 5e23 9b3f d95f 413f
00000040: 6b8f ac3f 1f17 393f 15cb 5f3f bd73 343f
00000050: b34b 313f 6564 9f3f b745 5e3f be40 0340
00000060: f411 8f3f 4ff0 4a3f 134c ad3f a74e 7e3f
00000070: 268f 3a3f e072 4e3f 5e2a c43e 0471 8a3f
1.1219134 0.63480186 0.50218636 0.56712157 0.9620708 1.0393513 2.0357707 1.7427999
0.24882993 0.46357292 0.48477805 0.68298364 0.7750101 0.28622738 1.2120168 0.75536877
1.3481268 0.72300905 0.87419254 0.704891 0.6925613 1.2452513 0.86825126 2.0508265
1.1177354 0.7927293 1.3538841 0.99338764 0.7287468 0.80644035 0.38313574 1.081574
