MELOSDP/SDP/chkpt/mc1/linear/3/sdp_classifier_linear-800.pth (torch, 77408 bytes, 25 tensors)

fc1.weight f4 [128, 38]
-0.08550416 -0.059415504 0.08845841 0.16734064 -0.069106534 0.18779801 0.08686293 0.01797299
0.07847135 -0.15060748 -0.024742132 -0.043678895 -0.07442398 0.06254491 0.13548377 -0.022252206
-0.055173036 -0.12830827 -0.14008066 0.1705724 0.08071477 0.02689552 -0.066527925 -0.016564721
-0.082611814 0.12476296 -0.021504344 0.06301941 -0.095508285 -0.054035664 0.19470419 0.093949795
0.10624644 0.046733145 -0.0011911102 0.012117618 -0.26772234 0.1512989 0.089127265 -0.059100114
0.052129503 -0.06961722 0.016330658 0.04207184 0.021351745 -0.014334088 0.16145982 0.15210703
0.09909816 -0.0004928534 0.1160935 -0.029461786 -0.053016692 0.073792785 0.05529477 -0.042344075
0.086586244 -0.08345916 -0.082107134 0.18040994 -0.0073340735 0.104582205 0.12422058 0.13217214
0.2034186 -0.07241524 0.14463958 0.117839985 0.081149146 -0.1002366 0.14630179 0.09638637
0.034290705 -0.12808095 -0.23897089 0.021271091 -0.012622305 0.09503018 -0.0068029254 -0.10407241
-0.008320306 -0.107834935 -0.14408758 0.20048977 -0.101469524 0.16096632 0.031148719 0.15274653
-0.0477353 -0.106302656 -0.07423632 -0.03669752 0.118997976 0.006846949 -0.06477339 -0.016068533
-0.10636642 0.11678753 0.011090483 -0.010690202 0.08057262 -0.13299511 0.045471836 -0.06258288
-0.052056313 0.031965956 -0.08329364 0.059822746 0.009801975 0.10486826 -0.05502894 -3.1491953e-05
0.011234648 0.0009219021 -0.08197648 -0.072695956 0.03459063 -0.10632948 -0.029521856 -0.050819293
0.12040448 0.17329131 -0.16819827 -0.0014441885 0.03922993 0.15266646 0.12806466 -0.023064926
0.14098667 0.031128367 0.09360933 0.0512786 0.06814065 -0.062345006 -0.010242943 0.06771778
0.1409895 0.032257676 -0.019292293 -0.11047424 -0.003360195 -0.09072915 -0.1590429 0.0020185513
0.0036217095 0.108589925 -0.028410416 -0.06570311 -0.08527625 -0.012795558 0.04628327 0.10201975
-0.056096442 0.05888385 -0.048096206 -0.0060500316 0.044959236 -0.0044748206 0.041581582 0.059309613
0.1682854 0.15013188 0.16485362 -0.07894629 0.16177422 0.027035167 0.0025115318 0.021143425
0.22309966 0.13108529 0.041562103 -0.026501697 -0.14939012 0.13461493 -0.020710109 -0.031964835
-0.13760811 -0.01235694 0.010460677 -0.07578454 -0.06177128 -0.09842957 0.13632058 0.086464755
-0.08443635 0.016140843 0.11626019 0.10339698 0.11369698 -0.057710577 -0.06486104 -0.012509747
0.049683627 0.07999194 -0.10896922 0.051030677 0.11447915 -0.04397903 -0.08827991 0.033828232
0.098802105 -0.11932637 0.02052618 0.061930478 -0.007179789 -0.23954085 -0.14660569 0.19873299
0.21817487 0.009360666 0.013256153 -0.018985221 -0.14477955 0.03353854 -0.0022077924 -0.10246367
-0.1199417 0.12665556 0.0010999709 0.14961846 0.14151578 -0.07635596 -0.109953016 -0.08385807
-0.07002313 0.08443551 -0.026122564 0.11212721 0.09208934 0.0029542323 0.024039607 -0.09233325
0.09600939 0.10405959 0.06846638 0.15195218 -0.041015793 0.13871428 0.048222706 -0.12195576
-0.094058014 0.12596317 -0.09948552 -0.014911694 -0.089767076 -0.058450628 0.16239643 0.08540128
0.083830476 -0.0021678424 0.13574307 -0.037222218 -0.12292754 0.014954646 0.10745485 0.007924554
00000000: ce1c afbd ac5d 73bd af29 b53d 585b 2b3e
00000010: ba87 8dbd 1f4e 403e 31e5 b13d 183c 933c
00000020: 96b5 a03d d938 1abe 03b0 cabc a4e8 32bd
00000030: 9a6b 98bd 8c17 803d 42bc 0a3e 424a b6bc
00000040: 1ffd 61bd 3e63 03be 4e71 0fbe 88aa 2e3e
00000050: c94d a53d fe53 dc3c cb3f 88bd bdb2 87bc
00000060: 6230 a9bd b983 ff3d e129 b0bc 5210 813d
00000070: d999 c3bd 8054 5dbd 8960 473e c068 c03d
00000080: bc97 d93d 416b 3f3d 071f 9cba f988 463c
00000090: e712 89be 19ee 1a3e 5b88 b63d f612 72bd
000000a0: bf85 553d 7993 8ebd dfc7 853c 8653 2c3d
000000b0: dbe9 ae3c 86d9 6abc b955 253e f2c1 1b3e
000000c0: faf3 ca3d d532 01ba 6ec2 ed3d d859 f1bc
000000d0: 0828 59bd ac20 973d c57c 623d fb70 2dbd
000000e0: 2154 b13d a3ec aabd c927 a8bd 62bd 383e
000000f0: ab52 f0bb 322f d63d 5c67 fe3d 2258 073e
00000100: f74c 503e 714e 94bd 661c 143e 1756 f13d
00000110: 8631 a63d d948 cdbd 23d0 153e 3866 c53d
00000120: 6974 0c3d a727 03be c9b4 74be b640 ae3c
00000130: c9cd 4ebc 2f9f c23d 13eb debb ea23 d5bd
00000140: e551 08bc 90d8 dcbd b28b 13be 314d 4d3e
00000150: 41cf cfbd 5bd4 243e 992b ff3c 9669 1c3e
00000160: 1786 43bd 35b5 d9bd 3609 98bd 2450 16bd
00000170: 36b5 f33d 5f5c e03b e9a7 84bd 28a2 83bc
00000180: a3d6 d9bd 4d2e ef3d dbb4 353c f525 2fbc
00000190: 4203 a53d df2f 08be ad40 3a3d 742b 80bd
000001a0: 0039 55bd bcee 023d db95 aabd b208 753d
000001b0: 7798 203c 2cc5 d63d 0766 61bd 3a16 04b8
000001c0: 8711 383c cdab 713a 49e3 a7bd 9ee1 94bd
000001d0: e8ae 0d3d 45c3 d9bd d2d7 f1bc e427 50bd
000001e0: a096 f63d 4773 313e 2b3c 2cbe ed4a bdba
000001f0: 90af 203d 9954 1c3e 6223 033e a8f2 bcbc
00000200: cf5e 103e eb00 ff3c 40b6 bf3d 8209 523d
00000210: 538d 8b3d 7a5d 7fbd 04d2 27bc 9faf 8a3d
00000220: 8d5f 103e a020 043d df0a 9ebc 5140 e2bd
00000230: b836 5cbb 34d0 b9bd 24dc 22be ac49 043b
00000240: 345a 6d3b 6564 de3d f6bc e8bc 5a8f 86bd
00000250: 51a5 aebd 76a4 51bc 8793 3d3d bbef d03d
00000260: 62c5 65bd 3130 713d 8700 45bd 583f c6bb
00000270: 2d27 383d 84a1 92bb 7351 2a3d a3ee 723d
00000280: 0253 2c3e 2cbc 193e 63cf 283e 98ae a1bd
00000290: 24a8 253e db78 dd3c 8398 243b fa34 ad3c
000002a0: 3d74 643e 393b 063e 063d 2a3d 161a d9bc
000002b0: b9f9 18be 7fd8 093e 3fa8 a9bc 8fed 02bd
000002c0: 24e9 0cbe c374 4abc 4263 2b3c ed34 9bbd
000002d0: e203 7dbd 7195 c9bd 9f97 0b3e 6f14 b13d
000002e0: f7ec acbd cd39 843c d319 ee3d ccc1 d33d
000002f0: f6d9 e83d ed61 6cbd ddd5 84bd aff5 4cbc
00000300: 0f81 4b3d d0d2 a33d 412b dfbd 8b05 513d
00000310: 0b74 ea3d 5b23 34bd 19cc b4bd 798f 0a3d
00000320: c258 ca3d 6261 f4bd 8526 a83c d0aa 7d3d
00000330: 6f44 ebbb 324a 75be cd1f 16be a980 4b3e
00000340: 3c69 5f3e 7b5d 193c 5630 593c e586 9bbc
00000350: 1741 14be b55f 093d 9cb0 10bb 79d8 d1bd
00000360: fea3 f5bd ffb1 013e e62c 903a 9535 193e
00000370: 83e9 103e 8360 9cbd 0c2f e1bd c8bd abbd
00000380: 4968 8fbd 86ec ac3d fdfe d5bc f3a2 e53d
00000390: 5699 bc3d cb9b 413b b6ee c43c 3719 bdbd
000003a0: 92a0 c43d 321d d53d 1a38 8c3d 5a99 1b3e
000003b0: 2d00 28bd 1e0b 0e3e 2c85 453d f1c3 f9bd
000003c0: 7da1 c0bd 7dfc 003e 10bf cbbd 2e50 74bc
000003d0: cdd7 b7bd ed69 6fbd 404b 263e dee6 ae3d
000003e0: 50af ab3d 5c12 0ebb 3b00 0b3e 5376 18bd
000003f0: 6fc1 fbbd 5504 753c 4a11 dc3d fdd5 013c

fc1.bias f4 [128]
-0.062200904 0.035516158 0.0446485 -0.08128928 0.09356004 -0.15067483 0.13339679 -0.081345074
0.065218315 0.0588947 0.13819031 -0.056076154 0.08974237 -0.09363675 0.025465973 0.14603324
-0.0050009084 0.095834225 -0.018507067 -0.07341481 0.0045061433 -0.010745217 0.076033756 0.07942929
0.0070949798 0.105492964 0.16227156 0.028293084 0.087154254 0.085437045 0.14482863 0.031856123
-0.03658989 -0.08729899 0.07843446 0.06861117 0.07968949 0.13614579 0.0988504 -0.12314243
-0.045499314 -0.08240985 -0.15739836 0.009895411 -0.013324887 -0.062519595 0.14594696 0.0575244
-0.00820514 0.0031764228 -0.13179463 -0.09207902 0.07538469 0.07095037 -0.07513391 -0.06573785
0.14443934 -0.121871844 -0.008954684 -0.07666646 -0.12367043 -0.08540818 -0.15115145 0.014540998
0.101141594 0.036536507 0.1003659 0.14457348 0.15773942 0.09394092 -0.13052532 -0.03248031
-0.13849604 0.08233268 0.09024615 -0.1271785 -0.12399332 0.04465449 -0.06853629 -0.111764655
0.029905051 -0.012840756 -0.040430203 0.12132412 -0.08644062 -0.03328205 0.10573905 0.05878734
0.089698136 -0.10403179 -0.096317515 0.026448667 0.017733958 -0.14748153 0.039499458 0.092160024
0.009246407 -0.075022034 0.11805693 0.017041206 -0.14782164 -0.060644172 -0.1275582 0.041409872
-0.07955475 -0.08026577 0.041956518 -0.07668298 0.024119405 0.14607051 0.045276377 0.06817889
-0.0325148 -0.115493335 0.07664496 0.0053657303 0.06788214 -0.1118708 0.00991198 -0.023843901
-0.015194672 0.010119667 0.13001132 -0.06354007 0.03117195 0.13145739 0.108429216 -0.05720147
00000000: 60c6 7ebd 6479 113d 58e1 363d fe7a a6bd
00000010: 689c bf3d 814a 1abe 2b99 083e 3f98 a6bd
00000020: 2e91 853d 923b 713d c381 0d3e 1cb0 65bd
00000030: d9ca b73d a0c4 bfbd 049e d03c bd89 153e
00000040: a9de a3bb bc44 c43d 229c 97bc 815a 96bd
00000050: 45a8 933b b50c 30bc 96b7 9b3d d3ab a23d
00000060: 017d e83b b20c d83d 842a 263e e6c6 e73c
00000070: ee7d b23d 9ef9 ae3d f54d 143e 917b 023d
00000080: 48df 15bd d0c9 b2bd 3fa2 a03d 0384 8c3d
00000090: 3e34 a33d cd69 0b3e 1472 ca3d 1932 fcbd
000000a0: 7d5d 3abd 7fc6 a8bd 092d 21be 5d20 223c
000000b0: a050 5abc 460a 80bd 1f73 153e b59e 6b3d
000000c0: da6e 06bc 882b 503b 2cf5 06be ed93 bcbd
000000d0: 4a63 9a3d 6d4e 913d cfdf 99bd 91a1 86bd
000000e0: e8e7 133e f297 f9bd abb6 12bc 4e03 9dbd
000000f0: ec46 fdbd 7cea aebd 72c7 1abe 5e3d 6e3c
00000100: 5323 cf3d 4ea7 153d a38c cd3d 120b 143e
00000110: 7186 213e 1964 c03d 6ea8 05be 130a 05bd
00000120: e8d1 0dbe 099e a83d f9d2 b83d 153b 02be
00000130: 36f0 fdbd a0e7 363d c15c 8cbd dee4 e4bd
00000140: 70fb f43c 0962 52bc 249a 25bd c878 f83d
00000150: c807 b1bd c252 08bd b78d d83d feca 703d
00000160: a8b3 b73d 9e0e d5bd 1e42 c5bd e0aa d83c
00000170: ce46 913c 6605 17be 2fca 213d 65be bc3d
00000180: 3e7e 173c 27a5 99bd d5c7 f13d 009a 8b3c
00000190: 8e5e 17be 0666 78bd 9e9e 02be 669d 293d
000001a0: 9aed a2bd 6162 a4bd 99da 2b3d f70b 9dbd
000001b0: 0f96 c53c 8293 153e b973 393d 60a1 8b3d
000001c0: 3d2e 05bd c587 ecbd 08f8 9c3d 02d3 af3b
000001d0: cb05 8b3d 851c e5bd db65 223c 4954 c3bc
000001e0: 13f3 78bc f6cc 253c b021 053e 4c21 82bd
000001f0: 515c ff3c c49c 063e 2310 de3d 174c 6abd

bn1.weight f4 [128]
0.88424736 0.95589 1.003284 1.0864679 0.9923176 1.0167792 1.1014771 1.0885662
1.0310982 1.1496165 1.0410461 1.0268779 1.0699371 1.0478966 0.96097577 0.9629752
1.0406543 0.972159 1.0198736 0.92547387 1.0366544 0.97521937 0.9999662 0.9535921
0.9769047 1.1093693 0.9839166 1.0445535 1.0880955 1.0644202 0.94639796 1.0083861
1.0604635 1.2092147 1.0108821 0.9526729 0.99557585 1.0352483 0.9502966 1.0651779
0.96730006 1.0391556 1.1458313 1.1662626 1.1127411 1.4307407 1.277931 1.237091
1.2665049 1.1198143 1.0565089 0.994547 1.0607206 0.9273823 0.9446312 0.98706096
1.0279207 1.0556246 1.2872196 1.0686127 1.114799 1.3456078 1.196718 0.8603745
1.0660487 0.9862369 0.9925867 1.1450337 0.9797318 1.1962395 0.9043373 1.0007224
1.0699706 0.9972954 0.95200133 1.127318 0.9970002 1.0096508 0.9837032 1.0141279
0.9288204 1.0016359 1.0558771 0.96190983 0.9353233 0.8928332 0.9406035 1.3862922
0.9833758 0.9443203 1.013506 1.16374 0.94269484 1.0010312 1.0097649 1.084521
1.1963003 0.90114945 1.3929846 1.0116898 1.1680155 0.98072153 1.307374 1.131395
0.8971079 0.99099195 1.0651883 1.0393924 1.0748321 1.0636389 0.8909695 0.95162827
1.1366556 0.9806885 1.0410463 1.0868949 1.1928693 1.0046585 1.1144284 1.0130328
0.9821009 1.0159404 1.0379401 1.0948234 1.254496 0.92665 0.98986363 0.9188738
00000000: 095e 623f 35b5 743f 9c6b 803f 6111 8b3f
00000010: 8708 7e3f d225 823f 34fd 8c3f 2356 8b3f
00000020: 07fb 833f a226 933f 0041 853f bc70 833f
00000030: b3f3 883f 7a21 863f 8202 763f 8b85 763f
00000040: 2934 853f 6adf 783f 388b 823f dbeb 6c3f
00000050: 17b1 843f faa7 793f c9fd 7f3f 9d1e 743f
00000060: 6d16 7a3f d0ff 8d3f f5e1 7b3f eeb3 853f
00000070: b746 8b3f ec3e 883f 2347 723f cc12 813f
00000080: 45bd 873f 8cc7 9a3f 9664 813f 5fe2 733f
00000090: 0fde 7e3f 0483 843f a346 733f c057 883f
000000a0: faa0 773f 0d03 853f 9aaa 923f 1848 953f
000000b0: 4d6e 8e3f 8322 b73f 3e93 a33f ff58 9e3f
000000c0: d51c a23f 1356 8f3f af3b 873f a29a 7e3f
000000d0: b1c5 873f ed68 6d3f 5ad3 713f 07b0 7c3f
000000e0: e892 833f b51e 873f 9dc3 a43f 4dc8 883f
000000f0: bcb1 8e3f e03c ac3f 0e2e 993f 8141 5c3f
00000100: 4974 883f 057a 7c3f 291a 7e3f 7790 923f
00000110: b4cf 7a3f 601e 993f a682 673f ac17 803f
00000120: ccf4 883f c04e 7f3f 5cb6 733f f54b 903f
00000130: 683b 7f3f 3d3c 813f f9d3 7b3f f1ce 813f
00000140: 2cc7 6d3f 9b35 803f fb26 873f b93f 763f
00000150: 5971 6f3f b790 643f 64cb 703f 0672 b13f
00000160: 84be 7b3f fabe 713f 91ba 813f 6ff5 943f
00000170: 7354 713f ca21 803f fa3f 813f 96d1 8a3f
00000180: 5e20 993f bbb1 663f 524d b23f 0d7f 813f
00000190: 8881 953f 9110 7b3f 0858 a73f 8dd1 903f
000001a0: dda8 653f a6b1 7d3f 1758 883f cf0a 853f
000001b0: 1994 893f 5225 883f 9416 643f e99d 733f
000001c0: ee7d 913f 670e 7b3f 0141 853f 5f1f 8b3f
000001d0: f1af 983f a698 803f 97a5 8e3f 0fab 813f
000001e0: f76a 7b3f 560a 823f 39db 843f 2c23 8c3f
000001f0: 5393 a03f ef38 6d3f b467 7d3f 503b 6b3f

bn1.bias f4 [128]
-0.18011528 -0.08487985 -0.11918619 -0.10422819 -0.17551407 -0.08633011 -0.07641987 -0.18343924
-0.042615842 -0.05002513 -0.16191925 -0.14788464 -0.23993024 -0.121106714 -0.10558965 -0.06081264
-0.083690204 -0.121378556 -0.12770753 -0.1504842 -0.12330102 -0.06930266 -0.04810348 -0.0940064
-0.079289675 -0.04033598 0.0017346231 -0.050182417 0.024474502 -0.2987234 -0.12650847 -0.049866408
-0.06903559 -0.072415486 -0.07117872 -0.13842821 -0.08530875 -0.23507096 -0.16035852 -0.086750686
-0.11412419 -0.062494773 -0.23129943 -0.060136016 -0.106934175 -0.22357261 -0.066434406 -0.03911428
-0.13309899 -0.22745593 -0.16045873 -0.024819307 -0.08005321 -0.120526426 -0.08039749 -0.08070084
-0.15061037 -0.22453125 -0.15638207 -0.11952706 -0.09131274 -0.2764179 -0.21127014 -0.105889834
-0.036754478 -0.04786833 -0.04486291 -0.17365153 -0.13099582 -0.03723126 -0.22798993 -0.20373075
-0.04840426 -0.02114477 -0.014654094 -0.3136686 0.007641169 -0.15942162 -0.019169334 -0.0696472
0.056975737 -0.029712206 -0.12396228 -0.16727327 -0.07444217 -0.11064238 -0.17499794 -0.19586016
-0.06591897 -0.11130344 -0.1811873 -0.068891436 -0.040217236 -0.18644294 0.013247196 0.08057672
-0.17285773 -0.22765051 -0.18084392 -0.057721753 -0.19674605 -0.1390803 -0.33448297 -0.13345036
-0.16233823 -0.13996948 -0.23967642 -0.163086 -0.16875342 -0.15134346 -0.09047001 -0.12127451
-0.12820971 -0.13988887 -0.085418075 -0.07964273 -0.17777084 -0.19809859 -0.054556172 -0.17033823
-0.08905698 -0.072817326 -0.050126445 -0.16501048 -0.24875347 -0.073207594 -0.069190174 -0.0923336
00000000: 2470 38be 7dd5 adbd e417 f4bd 9775 d5bd
00000010: f6b9 33be d7cd b0bd 0582 9cbd 7fd7 3bbe
00000020: f38d 2ebd 27e7 4cbd 29ce 25be 126f 17be
00000030: 46b0 75be cc06 f8bd 633f d8bd ad16 79bd
00000040: c565 abbd 5295 f8bd c3c5 02be 8818 1abe
00000050: 3f85 fcbd 8eee 8dbd 2808 45bd 6d86 c0bd
00000060: a062 a2bd 5737 25bd 4b5c e33a 148c 4dbd
00000070: c07e c83c 46f2 98be 708b 01be b840 4cbd
00000080: 8862 8dbd 924e 94bd 26c6 91bd 20c0 0dbe
00000090: 5bb6 aebd 71b6 70be 0635 24be 58aa b1bd
000000a0: f1b9 e9bd 85fa 7fbd c2d9 6cbe 2f51 76bd
000000b0: 4e00 dbbd 38f0 64be c30e 88bd 4c36 20bd
000000c0: 1a4b 08be 35ea 68be 4b4f 24be dc51 cbbc
000000d0: f0f2 a3bd 8fd6 f6bd 70a7 a4bd 7b46 a5bd
000000e0: 9b39 1abe 85eb 65be 9f22 20be 9aca f4bd
000000f0: 2d02 bbbd a686 8dbe 3357 58be c5dc d8bd
00000100: dd8b 16bd 9511 44bd 2cc2 37bd b5d1 31be
00000110: c523 06be ce7f 18bd 3176 69be cb9e 50be
00000120: 8c43 46bd cc37 adbc ba17 70bc 2c99 a0be
00000130: c562 fa3b 6c3f 23be 0209 9dbc 31a3 8ebd
00000140: 645f 693d 0367 f3bc f0df fdbd af49 2bbe
00000150: 2375 98bd 7998 e2bd a932 33be 918f 48be
00000160: 8600 87bd 0ff3 e3bd 2a89 39be f416 8dbd
00000170: d4ba 24bd e6ea 3ebe c40a 593c 6805 a53d
00000180: 9e01 31be 371d 69be 262f 39be a56d 6cbd
00000190: cc77 49be 116b 0ebe 5a41 abbe 36a7 08be
000001a0: fe3b 26be 2954 0fbe bc6d 75be 0400 27be
000001b0: b2cd 2cbe c8f9 1abe 5748 b9bd c55e f8bd
000001c0: 6849 03be 073f 0fbe acef aebd ba1b a3bd
000001d0: 8f09 36be 5bda 4abe 4b76 5fbd 256d 2ebe
000001e0: 8263 b6bd 4021 95bd 6351 4dbd 82f8 28be
000001f0: 3bb9 7ebe dded 95bd 94b3 8dbd 6619 bdbd

bn1.running_mean f4 [128]
-0.061611526 0.03304467 0.044696536 -0.080684006 0.0929074 -0.15216625 0.1356786 -0.07824104
0.067872494 0.056369957 0.13595071 -0.054256234 0.09021053 -0.09061014 0.024379285 0.14657839
-0.005109217 0.09955146 -0.019530308 -0.08062108 0.0065091443 -0.013612998 0.07384415 0.081739485
0.0023137317 0.10401536 0.16398692 0.030623622 0.088298894 0.08520218 0.14678502 0.0313455
-0.03495096 -0.0889134 0.07729935 0.065529644 0.082420155 0.13806973 0.103524595 -0.11820525
-0.04599736 -0.07649226 -0.15529248 0.008743684 -0.014441765 -0.060845707 0.1448246 0.053105563
-0.007894321 0.0044309204 -0.13101892 -0.096670255 0.07982987 0.07186063 -0.068330295 -0.07187591
0.14430763 -0.11892948 -0.009144127 -0.074315995 -0.11953583 -0.083372064 -0.14656746 0.011127472
0.1035022 0.03714758 0.100709535 0.14401859 0.1585469 0.092880905 -0.13337934 -0.032347523
-0.13390732 0.077938624 0.08772 -0.12739979 -0.12554581 0.044456042 -0.06950038 -0.11047643
0.022824762 -0.008342891 -0.040506978 0.12445645 -0.08466028 -0.038573656 0.10569861 0.060785033
0.08668096 -0.10308355 -0.09549471 0.028433044 0.0175777 -0.14339525 0.035366178 0.08869711
0.0069077318 -0.07681748 0.1200187 0.020824606 -0.14398773 -0.067708455 -0.12537959 0.043724194
-0.08024521 -0.077957265 0.03962655 -0.07917024 0.027288716 0.14087336 0.043334153 0.066493034
-0.029760411 -0.11457572 0.07883968 0.0062051946 0.0698371 -0.113953486 0.010026466 -0.023827776
-0.015907297 0.0123124095 0.12750734 -0.064541966 0.032233614 0.12847148 0.106440805 -0.0636594
00000000: 5e5c 7cbd d959 073d b713 373d a83d a5bd
00000010: 3c46 be3d 78d1 1bbe 55ef 0a3e d73c a0bd
00000020: bc00 8b3d 2fe4 663d aa36 0b3e c93b 5ebd
00000030: 4cc0 b83d cf91 b9bd 11b7 c73c a518 163e
00000040: 386b a7bb a3e1 cb3d 06fe 9fbc aa1c a5bd
00000050: a94a d53b 0d09 5fbc 9a3b 973d 0867 a73d
00000060: faa1 173b 0106 d53d 30ec 273e 64de fa3c
00000070: 0dd6 b43d 7b7e ae3d d04e 163e 2464 003d
00000080: bd28 0fbd 3b18 b6bd 1f4f 9e3d 6834 863d
00000090: e6cb a83d 2762 0d3e b404 d43d 9815 f2bd
000000a0: ba67 3cbd f9a7 9cbd fe04 1fbe ab41 0f3c
000000b0: 279d 6cbc 5939 79bd e64c 143e 3885 593d
000000c0: 2f57 01bc 4131 913b d329 06be 0efb c5bd
000000d0: d87d a33d aa2b 933d c1f0 8bbd ad33 93bd
000000e0: 61c5 133e 4d91 f3bd 40d1 15bc fc32 98bd
000000f0: 34cf f4bd f9be aabd c815 16be 0050 363c
00000100: f6f8 d33d 1028 183d cd40 ce3d 9c79 133e
00000110: 1e5a 223e 5838 be3d 9894 08be d67e 04bd
00000120: 001f 09be 499e 9f3d 8ba6 b33d 1775 02be
00000130: 158f 00be 8a17 363d 3756 8ebd 7741 e2bd
00000140: fffa ba3c 9fb0 08bc a5ea 25bd 06e3 fe3d
00000150: 5e62 adbd 69ff 1dbd 8378 d83d baf9 783d
00000160: ca85 b13d 781d d3bd bb92 c3bd 6aec e83c
00000170: 1cff 8f3c 34d6 12be 20dc 103d d5a6 b53d
00000180: 415a e23b 7c52 9dbd 5dcc f53d 5d98 aa3c
00000190: 8571 13be bbaa 8abd 8263 00be 2418 333d
000001a0: 9a57 a4bd 0fa8 9fbd 734f 223d 0224 a2bd
000001b0: 968c df3c 1b41 103e 277f 313d 802d 883d
000001c0: 1bcc f3bc ada6 eabd b376 a13d f254 cb3b
000001d0: c106 8f3d 7260 e9bd 0c46 243c 7832 c3bc
000001e0: 0550 82bc fdb9 493c 4991 023e 942e 84bd
000001f0: 6507 043d 078e 033e a3fd d93d dc5f 82bd

bn1.running_var f4 [128]
0.5298947 0.6368273 0.11870589 0.100596465 0.17297459 0.22978339 0.21085575 0.20044594
0.26000547 0.21525869 0.10426382 0.3744873 0.20534211 0.6031211 0.19762716 0.14513712
0.25492376 0.61727226 0.44476613 0.95806897 0.24324244 0.315806 0.20119986 0.1189283
0.17770669 0.22261274 0.45598775 0.09413735 0.14682184 0.1417402 0.12238157 0.30424142
0.20696062 0.098867 0.22545047 0.38368258 0.27558193 0.14447474 0.60516983 0.26395625
0.10933312 0.25111026 0.14504509 0.4571412 0.102725804 0.0903791 0.2435331 0.072109476
0.076921105 0.24107772 0.14694689 0.38468936 0.1724536 0.19491524 0.5196791 0.4135365
0.08842983 0.1882689 0.057172302 0.13986929 0.26549405 0.21776848 0.20631862 0.31208962
0.15105194 0.1580067 0.17818022 0.15161523 0.24778454 0.20674539 0.6034009 0.33308658
0.28846306 0.27477092 0.17652614 0.06275699 0.19895601 0.15874763 0.22592998 0.14788826
0.3825384 1.6536661 0.11900079 0.1242975 0.35163733 0.86596805 0.1633308 0.088014625
0.4187401 0.14244299 0.10900776 0.58691543 0.20473082 0.3233996 0.1989578 0.14199398
0.08626912 0.15888967 0.13491514 0.26044467 0.16155022 0.55425 0.14777309 0.17332037
0.5047699 0.58951056 0.10897967 0.108308695 0.1854379 0.11109268 0.2917407 0.29072696
0.20813005 0.108676344 0.16492544 0.2597433 0.051464997 0.070441596 0.08304138 0.26830867
0.09834445 0.4329918 0.14538349 0.107127845 0.073569514 0.16983576 0.526943 0.25430298
00000000: 2ea7 073f 1d07 233f 131c f33d 8505 ce3d
00000010: 4020 313e 564c 6b3e 92ea 573e b341 4d3e
00000020: 701f 853e c66c 5c3e 4588 d53d cdbc bf3e
00000030: 3445 523e 2566 1a3f c65e 4a3e d39e 143e
00000040: 5e85 823e 8e05 1e3f 63b8 e33e 0244 753f
00000050: 8c14 793e 53b1 a13e 5607 4e3e ae90 f33d
00000060: bef8 353e 98f4 633e 3a77 e93e 15cb c03d
00000070: 7758 163e 5824 113e 30a3 fa3d 88c5 9b3e
00000080: 7ced 533e c87a ca3d 7ddc 663e 0b72 c43e
00000090: 1319 8d3e 30f1 133e 69ec 1a3f 4625 873e
000000a0: 0bea df3d 8691 803e b386 143e 690e ea3e
000000b0: e861 d23d ad18 b93d be60 793e 22ae 933d
000000c0: d088 9d3d 14dd 763e 3f79 163e 01f6 c43e
000000d0: ad97 303e dc97 473e b109 053f 0ebb d33e
000000e0: b31a b53d 90c9 403e 812d 6a3d e539 0f3e
000000f0: d6ee 873e b3fe 5e3e 3045 533e 36ca 9f3e
00000100: 5cad 1a3e 82cc 213e e074 363e 0641 1b3e
00000110: 3bbb 7d3e 10b5 533e 7b78 1a3f 538a aa3e
00000120: 6eb1 933e c6ae 8c3e 45c3 343e bd86 803d
00000130: 20bb 4b3e bd8e 223e 305a 673e 0570 173e
00000140: 13dc c33e 55ab d33f b0b6 f33d b08f fe3d
00000150: cf09 b43e 15b0 5d3f 3040 273e 0341 b43d
00000160: 1a65 d63e 93dc 113e 763f df3d 1740 163f
00000170: f5a4 513e a294 a53e 98bb 4b3e df66 113e
00000180: ddad b03d f9b3 223e 3227 0a3e 0159 853e
00000190: 6c6d 253e 54e3 0d3f d451 173e e57a 313e
000001a0: 9a38 013f 2aea 163f bc30 df3d f3d0 dd3d
000001b0: 6fe3 3d3e 8f84 e33d 095f 953e 2ada 943e
000001c0: 0b20 553e b491 de3d 37e2 283e 13fd 843e
000001d0: f6cc 523d af43 903d 9911 aa3d c15f 893e
000001e0: d168 c93d 1ab1 dd3e 69df 143e d865 db3d
000001f0: 9dab 963d 6de9 2d3e bde5 063f 0034 823e

fc2.weight f4 [64, 128]
-0.028448 0.026506409 -0.054579254 -0.080756605 0.030693972 -0.10270622 -0.08575232 -0.0028815346
-0.055619247 0.14218953 0.001276787 -0.06642562 -0.031191122 0.060403462 -0.0075295214 -0.018470954
-0.05269024 -0.061627142 -0.051483836 -0.014040538 0.018662518 0.026009692 0.068027325 -0.023090534
-0.064300224 -0.09945506 -0.04190283 -0.031567827 -0.12568532 -0.02182266 0.021119595 0.0035403895
-0.08604146 0.19906723 -0.06393789 0.07592397 0.039642744 -0.06919115 -0.029476801 0.021101605
0.016888622 -0.12873596 -0.025398362 0.16126087 0.031621713 0.056053113 0.10201624 0.05342743
0.1028052 0.13502774 -0.015709857 0.054438215 -0.009889836 0.0074569555 0.014122908 0.03582672
0.033625077 0.031685103 -0.07204692 -0.052469697 0.034170866 -0.21943459 -0.20025943 -0.0276275
0.08459058 -0.027881885 -0.026683861 -0.13249053 -0.07058722 0.06301986 -0.0047914498 -0.011729716
0.074312024 -0.04522785 -0.04683782 -0.087904915 -0.0680386 -0.07095976 0.017737035 0.045745395
0.02985304 0.0163963 -0.02630773 0.06686883 0.041696 0.007747619 0.015611757 0.11107017
0.03141221 0.06909113 -0.088312045 -0.06797819 0.067495756 0.06844325 -0.01272944 -0.016695596
0.048853718 -0.028096497 -0.06449251 -0.059060086 -0.012373459 0.0133433705 -0.18431343 -0.13427252
-0.027242478 0.064033546 0.03443781 0.090711705 0.07339294 0.10651049 -0.028304059 -0.009722601
-0.062382683 -0.009843466 -0.007729068 0.036285836 0.09657076 0.042875875 0.053793028 -0.070369385
0.07368279 -0.047086563 -0.02394797 0.104246326 0.089152284 0.007613161 0.04357099 -0.02622873
0.056300633 0.011615768 0.08377594 0.094363995 -0.06905612 -0.03578665 0.06433063 -0.013674781
0.054325245 0.015888877 -0.06330176 0.092798576 0.033920232 -0.0107447235 0.0234093 0.06055897
0.059657574 -0.017015027 0.021926748 -0.042294037 -0.047598694 0.031611007 0.07188771 0.06440367
0.00722987 0.05515628 -0.13238771 -0.09893918 0.009366092 0.022439431 -0.021928158 -0.028826926
-0.047523696 -0.100789376 0.09382236 0.024629854 0.037000522 -0.0024750982 -0.041974783 -0.01549965
-0.08646728 0.058606647 0.029158825 -0.033235636 -0.008400338 -0.004466297 -0.07038325 -0.07117329
-0.0805946 0.04594852 -0.012146048 -0.052813288 0.062228244 0.06689029 0.046491623 0.055315
-0.027168065 -0.059476126 0.018448377 -0.03541568 0.0496186 -0.057402655 -0.034822874 -0.07234261
-0.0011630167 -0.034739394 0.039397277 0.09348334 0.034321412 -0.04548699 0.050516993 -0.0094947945
0.06841089 -0.04509809 -0.053046867 -0.0039280956 0.057064395 -0.00801226 0.060501933 -0.008628861
-0.09246267 -0.026695091 -0.06503367 -0.0528098 0.025827171 0.017090213 -0.087287225 0.0024506608
0.11430969 -0.064315 -0.061551984 0.070790395 -0.049410664 0.027116891 -0.08988463 -0.0031445716
-0.124200985 -8.037176e-05 0.010363278 0.02477037 0.029533627 0.056970358 0.045286905 -0.030547092
-0.03035437 0.07638991 -0.004870411 -0.0022312878 0.06545193 -0.02983235 0.050187707 -0.08024325
0.049354263 -0.07692478 0.09299647 0.03852131 0.0520772 0.0371416 -0.0523126 -0.076410584
0.00016725592 0.07951024 -0.11660231 0.0012322997 -0.08962683 -0.091426216 0.050023843 -0.08384305
00000000: c80b e9bc f823 d93c 7f8e 5fbd b863 a5bd
00000010: ed71 fb3c a357 d2bd ea9e afbd 21d8 3cbb
00000020: 02d1 63bd 229a 113e dd59 a73a 280a 88bd
00000030: 8684 ffbc 9f69 773d 34ba f6bb 6650 97bc
00000040: b9d1 57bd be6c 7cbd b7e0 52bd 490a 66bc
00000050: 23e2 983c 4712 d53c e951 8b3d 5c28 bdbc
00000060: d6af 83bd 18af cbbd 4da2 2bbd 444d 01bd
00000070: a7b3 00be 6fc5 b2bc 0003 ad3c e105 683b
00000080: 8136 b0bd 48d8 4b3e def1 82bd 077e 9b3d
00000090: 6e60 223d 17b4 8dbd 5579 f1bc 46dd ac3c
000000a0: 025a 8a3c 5cd3 03be 3a10 d0bc 9221 253e
000000b0: c585 013d f397 653d e4ed d03d b9d6 5a3d
000000c0: 888b d23d b644 0a3e f5b1 80bc 9bfa 5e3d
000000d0: fb08 22bc 7a59 f43b c563 673c 0abf 123d
000000e0: 73ba 093d 3dc8 013d 568d 93bd 77ea 56bd
000000f0: c0f6 0b3d 76b3 60be cf10 4dbe 1153 e2bc
00000100: d33d ad3d 8d68 e4bc 1d98 dabc 99ab 07be
00000110: 0890 90bd 8e10 813d 9801 9dbb ff2d 40bc
00000120: e730 983d d740 39bd 04d9 3fbd 7e07 b4bd
00000130: d257 8bbd 5a53 91bd 424d 913c 865f 3b3d
00000140: 5d8e f43c 8951 863c 4f83 d7bc 86f2 883d
00000150: 6dc9 2a3d bddf fd3b 74c8 7f3c c278 e33d
00000160: 17aa 003d a67f 8d3d f2dc b4bd 2638 8bbd
00000170: 373b 8a3d fa2b 8c3d 248f 50bc 34c5 88bc
00000180: d61a 483d a02a e6bc a614 84bd fde8 71bd
00000190: 0cba 4abc 279e 5a3c a9bc 3cbe bc7e 09be
000001a0: 9e2b dfbc 0524 833d a90e 0d3d 0fc7 b93d
000001b0: 0a4f 963d 2c22 da3d eadd e7bc 8b4b 1fbc
000001c0: fc84 7fbd 7d46 21bc 1f44 fdbb 75a0 143d
000001d0: e4c6 c53d 9d9e 2f3d 1456 5c3d d31d 90bd
000001e0: 01e7 963d d7dd 40bd 882e c4bc 197f d53d
000001f0: 7995 b63d d377 f93b 7f77 323d a2dd d6bc
00000200: 7e9b 663d 1050 3e3c b892 ab3d e941 c13d
00000210: 4c6d 8dbd 0695 12bd c7bf 833d 300c 60bc
00000220: 2684 5e3d 6429 823c 5aa4 81bd 2e0d be3d
00000230: f1ef 0a3d a30a 30bc dcc4 bf3c af0c 783d
00000240: 805b 743d 1963 8bbc b99f b33c 833c 2dbd
00000250: d9f6 42bd 8b7a 013d dd39 933d 12e6 833d
00000260: 8ce8 ec3b 8deb 613d a590 07be a0a0 cabd
00000270: 3d74 193c e6d2 b73c aea2 b3bc 7226 ecbc
00000280: 35a8 42bd a96a cebd f025 c03d 8cc4 c93c
00000290: dc8d 173d 4235 22bb c0ed 2bbd 3ef2 7dbc
000002a0: c215 b1bd 860d 703d 7dde ee3c 1722 08bd
000002b0: 92a1 09bc 045a 92bb 1825 90bd 4dc3 91bd
000002c0: c80e a5bd 8434 3c3d 3800 47bc bf52 58bd
000002d0: 0be3 7e3d c7fd 883d 006e 3e3d fb91 623d
000002e0: 908f debc 3d9d 73bd 0d21 973c 0810 11bd
000002f0: e03c 4b3d 0c1f 6bbd 6ea2 0ebd 5d28 94bd
00000300: 5d70 98ba e54a 0ebd 0a5f 213d 3274 bf3d
00000310: 9c94 0c3d 9150 3abd e8ea 4e3d 0e90 1bbc
00000320: 021b 8c3d c6b8 38bd ac47 59bd 41b7 80bb
00000330: 5bbc 693d db45 03bc e0d0 773d 1160 0dbc
00000340: 115d bdbd aaaf dabc 5f30 85bd 174f 58bd
00000350: 8193 d33c c600 8c3c a5c3 b2bd 449b 203b
00000360: 331b ea3d 95b7 83bd ef1d 7cbd 8efa 903d
00000370: d662 4abd 3e24 de3c 6f15 b8bd 2815 4ebb
00000380: 165d febd 438d a8b8 bdca 293c 3beb ca3c
00000390: 81f0 f13c c059 693d c37e 393d e53d fabc
000003a0: baa9 f8bc 5072 9c3d f897 9fbb cc3a 12bb
000003b0: a90b 863d f962 f4bc a091 4d3d 9356 a4bd
000003c0: b227 4a3d bd8a 9dbd ef74 be3d 85c8 1d3d
000003d0: e74e 553d ca21 183d bd45 56bd 277d 9cbd
000003e0: 6b61 2f39 44d6 a23d 31cd eebd 1e85 a13a
000003f0: 458e b7bd ab3d bbbd cde5 4c3d e8b5 abbd

fc2.bias f4 [64]
-0.056812383 0.05940862 -0.053353067 -0.031011254 -0.07804651 0.08817634 0.05346915 0.037706297
-0.045523316 0.07341384 -0.030156206 0.032100208 0.05586735 -0.085639484 -0.02597502 -0.008819526
-0.052665174 0.056128394 0.03376737 0.036566228 -0.05479374 -0.04809539 0.038696602 0.074203625
-0.028038193 -0.032154486 0.058985613 0.043008283 0.055187535 -0.053431164 -0.04436969 -0.0077989525
-0.061044414 0.059883494 0.004795681 0.0520617 0.0021565668 0.043492533 0.010833859 0.04375996
0.06755904 0.030111039 -0.016563823 0.026252156 -0.003584972 -0.004381286 -0.034961868 -0.057868555
-0.013423702 0.08555338 -0.06754259 0.07617075 -0.06750089 0.006495252 0.007130339 0.0070490115
0.02342605 0.05056748 0.03084417 -0.08156067 -0.044943593 -0.02349343 -0.04380606 -0.009515139
00000000: 1ab4 68bd 7456 733d bf88 5abd 500b febc
00000010: d9d6 9fbd cc95 b43d 7802 5b3d eb71 1a3d
00000020: a876 3abd ff59 963d 260a f7bc 827b 033d
00000030: 2ad5 643d c163 afbd 91c9 d4bc c67f 10bc
00000040: 70b7 57bd e3e6 653d a74f 0a3d 78c6 153d
00000050: 676f 60bd acff 44bd 5480 1e3d 12f8 973d
00000060: 5ab0 e5bc 6cb4 03bd e69a 713d 7429 303d
00000070: 530c 623d a3da 5abd febc 35bd 5b8e ffbb
00000080: b509 7abd 6548 753d 1725 9d3b a63e 553d
00000090: 3055 0d3b 3a25 323d 8080 313c a53d 333d
000000a0: 655c 8a3d 6dab f63c dbb0 87bc c30e d73c
000000b0: d9f1 6abb e490 8fbb 2d34 0fbd 9407 6dbd
000000c0: 16ef 5bbc 9c36 af3d c553 8abd 69ff 9b3d
000000d0: e83d 8abd 1fd6 d43b 9ea5 e93b 65fb e63b
000000e0: fde7 bf3c d91f 4f3d eaac fc3c 4809 a7bd
000000f0: c616 38bd 4b75 c0bc fc6d 33bd 63e5 1bbc

bn2.weight f4 [64]
1.0800917 1.0194894 1.0107292 1.0008103 1.0736476 1.0046785 0.97039926 0.96069384
1.0536164 0.9865525 0.99888617 0.9678115 1.0316978 1.005128 1.0016661 1.0216284
1.0543585 0.99530077 0.9762799 0.96833277 0.94909996 1.030376 0.9951847 0.94687146
1.0499574 0.98579586 1.1031709 0.9805934 1.1323642 1.0376859 0.944093 1.0725126
1.07559 1.0792606 1.1364557 1.0585862 1.0092187 1.01074 0.92504895 0.9960655
1.1805683 1.0275127 1.0666819 1.0782577 1.0419308 1.0224103 0.98232245 1.0120687
0.96057284 1.0012119 0.9791607 1.0363642 1.0298347 1.0002223 0.9289004 1.1659513
0.98878926 0.977567 1.091308 1.0183887 1.0708764 1.1492113 0.9845945 1.0510142
00000000: 7240 8a3f a17e 823f 935f 813f 8d1a 803f
00000010: 496d 893f 4e99 803f 166c 783f 08f0 753f
00000020: e7dc 863f b48e 7c3f 01b7 7f3f 7fc2 773f
00000030: ac0e 843f 09a8 803f 9836 803f b8c4 823f
00000040: 38f5 863f 08cc 7e3f 7bed 793f a8e4 773f
00000050: 37f8 723f 5ce3 833f 6dc4 7e3f 2b66 723f
00000060: 0165 863f 1e5d 7c3f b434 8d3f 2b08 7b3f
00000070: 4ff1 903f e4d2 843f 14b0 713f 1848 893f
00000080: efac 893f 3625 8a3f 6177 913f c17f 873f
00000090: 142e 813f ee5f 813f 02d0 6c3f 26fe 7e3f
000000a0: dd1c 973f 8985 833f 0889 883f 5904 8a3f
000000b0: fd5d 853f 57de 823f 7c79 7b3f 788b 813f
000000c0: 1ae8 753f b627 803f 47aa 7a3f 95a7 843f
000000d0: a0d1 833f 4907 803f 6bcc 6d3f e43d 953f
000000e0: 4b21 7d3f d541 7a3f fbaf 8b3f 905a 823f
000000f0: 7a12 893f 5b19 933f 630e 7c3f a287 863f

bn2.bias f4 [64]
-0.0022111791 0.02148416 -0.08287932 -0.3399665 0.07556729 -0.100247085 -0.031882208 -0.031167656
0.043941658 -0.120029494 -0.058738172 -0.29359913 -0.10058728 0.010726237 -0.09554277 -0.05508477
-0.49504593 -0.03613528 -0.080149405 -0.037726007 -0.15481439 -0.013570716 -0.03270686 -0.08009983
-0.06632287 -0.052899066 0.047939178 -0.0710782 -0.020398702 -0.0034002324 -0.08720279 -0.0014087826
-0.39031085 0.039719295 -0.034904473 0.0730077 -0.07824116 0.039536167 -0.23556842 0.03454811
0.03986498 -0.2157667 -0.07570231 -0.030249033 0.026222661 -0.047240045 -0.3663482 -0.03373572
-0.07703474 -0.035004664 -0.05271157 -0.021732295 0.04919531 -0.14458522 -0.11986685 0.022700695
-0.11406702 -0.056294184 -0.053128 -0.040052556 0.06683126 0.08412323 0.015496618 0.07166333
00000000: 6ee9 10bb 8dff af3c a2bc a9bd 1710 aebe
00000010: 06c3 9a3d 584e cdbd eb96 02bd 5053 ffbc
00000020: 2bfc 333d 06d2 f5bd 7097 70bd a052 96be
00000030: b400 cebd 19bd 2f3c eeab c3bd 91a0 61bd
00000040: a976 fdbe 9602 14bd 5f25 a4bd 9686 1abd
00000050: aa87 1ebe b557 5ebc a1f7 05bd 610b a4bd
00000060: 49d4 87bd b1ac 58bd df5b 443d 7391 91bd
00000070: 2e1b a7bc 6fd6 5ebb 6097 b2bd e6a6 b8ba
00000080: d3d6 c7be b3b0 223d fef7 0ebd 1085 953d
00000090: e73c a0bd adf0 213d d938 71be 5282 0d3d
000000a0: 7649 233d f2f1 5cbe d009 9bbd d2cc f7bc
000000b0: e8d0 d63c c77e 41bd fe91 bbbe 772e 0abd
000000c0: 64c4 9dbd 0d61 0fbd 16e8 57bd ed07 b2bc
000000d0: 0581 493d 260e 14be c07c f5bd cff6 b93c
000000e0: f89b e9bd bb94 66bd bf9c 59bd 260e 24bd
000000f0: d4de 883d cd48 ac3d 87e5 7d3c 39c4 923d

bn2.running_mean f4 [64]
-0.2652048 0.027960217 -0.21026069 -0.0011981745 0.2562709 0.049503963 -0.057604063 -0.113528654
-0.18412119 0.028278394 -0.20449585 -0.14706281 -0.13189021 0.05569448 0.18611757 -0.24377483
-0.4276925 -0.23117007 0.2120071 -0.06306723 -0.30795828 0.22349314 0.3374469 0.030133665
-0.19907308 0.25624648 -0.094682485 -0.1765613 -0.12284624 0.06292508 -0.30621716 -0.16977865
-0.5705772 0.1334272 -0.1880236 0.066995755 -0.1820483 0.25223488 -0.13722768 0.0802801
0.1928483 -0.34702304 -0.306172 -0.17142442 -0.049338154 -0.24591474 -0.12196929 -0.36428198
-0.33282158 0.29226336 -0.07378087 0.056604724 0.07628158 -0.12365785 -0.4464853 0.19331908
-0.25755587 0.12780946 -0.27134484 -0.0699243 0.15724611 0.2922531 -0.18174815 0.2162346
00000000: ecc8 87be d30c e53c 944e 57be 110c 9dba
00000010: f035 833e abc4 4a3d 3df2 6bbd b681 e8bd
00000020: 448a 3cbe 17a8 e73c 5c67 51be a297 16be
00000030: 3a0e 07be e51f 643d 9b95 3e3e 1ca0 79be
00000040: 83fa dabe d9b7 6cbe 6418 593e 6429 81bd
00000050: b5ac 9dbe 63db 643e d7c5 ac3e e0da f63c
00000060: d0d9 4bbe bd32 833e e4e8 c1bd 7ccc 34be
00000070: cf96 fbbd ddde 803d 7fc8 9cbe 74da 2dbe
00000080: 5911 12bf 24a1 083e 4289 40be 1235 893d
00000090: df6a 3abe ee24 813e 6a85 0cbe e569 a43d
000000a0: 067a 453e 01ad b1be 94c2 9cbe e289 2fbe
000000b0: ce16 4abd 13d1 7bbe 09cb f9bd 2b83 babe
000000c0: 9767 aabe 8ba3 953e 6d1a 97bd 5bda 673d
000000d0: 8439 9c3d 5440 fdbd b999 e4be 70f5 453e
000000e0: 5dde 83be 7ce0 023e b6ed 8abe 7934 8fbd
000000f0: 2005 213e 33a2 953e 301c 3abe 9a6c 5d3e

bn2.running_var f4 [64]
0.38266864 0.5903801 0.4939664 0.24647257 0.99789035 0.42547953 0.38217774 0.5689976
0.47349226 0.37147173 0.40690142 0.27670872 0.42233378 0.5129083 0.50117505 0.5386828
0.27286553 0.53306973 0.61695397 0.4303828 0.5690428 0.5582056 0.48215905 0.42662355
0.29857463 0.41812316 0.5121752 0.26162112 0.57967615 0.49637562 0.5202646 0.46593112
0.41443768 0.67078704 0.31612122 0.6668811 0.5212084 0.9073116 0.28042975 0.26100948
0.46539184 0.5255235 0.5179584 0.5401483 0.72118616 0.26290306 0.27414992 0.582847
0.3598609 0.35772225 0.21423344 0.53712296 0.7029626 0.36550125 0.67038393 0.893942
0.41011792 0.4655163 0.52766466 0.44349688 0.9121024 0.9248363 0.5163728 0.6890292
00000000: 25ed c33e 2623 173f 2ae9 fc3e 4e63 7c3e
00000010: be75 7f3f 74d8 d93e cdac c33e d4a9 113f
00000020: 946d f23e 8b31 be3e 6255 d03e c4ac 8d3e
00000030: 223c d83e f54d 033f 024d 003f 1ee7 093f
00000040: 08b5 8b3e 4277 083f b2f0 1d3f 225b dc3e
00000050: caac 113f 90e6 0e3f 8ddd f63e 676e da3e
00000060: c6de 983e 3d14 d63e ea1d 033f 34f3 853e
00000070: a865 143f f224 fe3e 1030 053f 868e ee3e
00000080: 2d31 d43e b3b8 2b3f a4da a13e b8b8 2a3f
00000090: ea6d 053f 9345 683f 7d94 8f3e 09a3 853e
000000a0: d747 ee3e b588 063f ec98 043f 2947 0a3f
000000b0: a89f 383f 3b9b 863e 615d 8c3e 7635 153f
000000c0: b03f b83e 5f27 b73e 0360 5b3e e480 093f
000000d0: 5bf5 333f fb22 bb3e 489e 2b3f 62d9 643f
000000e0: fafa d13e 2758 ee3e 0815 073f 0612 e33e
000000f0: 8b7f 693f 12c2 6c3f 0231 043f 3864 303f

fc3.weight f4 [32, 64]
-0.06859011 -0.123652786 0.090077 -0.042324487 -0.16614547 0.07449229 0.0010955911 0.021954715
-0.096427865 -0.011193646 -0.004594615 0.12627657 0.011223315 -0.076951884 -0.015538958 0.040845565
0.1231836 -0.031707536 -0.083012775 0.03149002 0.069116525 -0.08331829 -0.10290716 0.02631731
0.00048920256 -0.07289041 -0.1327723 -0.10323138 -0.0017890716 0.09608768 -0.0062286328 0.052920014
0.080998465 -0.09957323 0.026519049 -0.16140622 -0.04377523 0.021324068 0.061272275 -0.044693694
-0.2734706 0.07082089 0.04837002 -0.029512467 -0.05772921 0.022443438 0.05028769 0.0041740187
-0.09348941 -0.03391781 -0.029711802 -0.14421459 -0.13615496 -0.0976367 0.056218166 -0.13315633
0.07087781 -0.007865666 -0.0772642 -0.02554203 -0.07336632 -0.09173868 -0.04768047 -0.024541665
-0.038218085 -0.044969987 0.061138254 -0.12906775 0.005884352 0.051788885 -0.06590037 -0.060704313
-0.13919793 -0.14679186 -0.1428884 0.08707234 -0.044810835 -0.0584383 0.06971505 -0.0043177996
0.0058256914 -0.10664556 -0.011635023 0.020308314 0.009311942 -0.024682853 0.08628795 0.01923977
0.0183914 -0.043395247 -0.1496935 -0.11094683 0.04361611 -0.046071377 -0.05166185 0.008460562
0.09856036 -0.02227355 -0.05362172 -0.047691178 -0.18700773 -0.0084199235 -0.08883199 -0.10919554
0.08754552 0.13720752 -0.16688877 0.06568007 0.101514496 0.018142847 0.090142414 0.0016689915
-0.04960299 -0.086702555 0.07733798 0.044893242 0.070090115 -0.11664478 0.072096944 -0.055779487
-0.054931387 -0.029034536 -0.09870151 -0.13233492 0.01881562 0.07346461 0.011790245 -0.042646028
0.021636795 0.052822355 -0.15217489 0.08138201 0.0053069713 -0.13002232 0.01368458 0.035627626
-0.078038655 0.008303599 -0.037330084 0.055020276 0.022487229 -0.023496073 -0.04063803 -0.12624365
0.09670346 -0.16987363 0.05159392 -0.0071338685 -0.043172635 0.013812612 0.0033209377 -0.11329339
-0.09819348 0.08071074 -0.055556666 -0.05378744 -0.09479673 -0.03223712 -0.14993304 0.015623147
0.090247504 0.040874235 -0.09784288 -0.011762356 -0.09748092 0.032240707 -0.045219656 0.01328987
-0.0023164514 0.019176738 -0.099400274 -0.052836813 -0.037762534 -0.017901074 0.09166568 -0.123882696
-0.025521211 -0.039212547 -0.087887324 -0.06782773 -0.113054685 -0.08607881 -0.04743649 -0.07692192
-0.13407716 0.0075496905 -0.058206774 -0.007801396 -0.043045897 -0.024014203 -0.06534959 -0.028940583
-0.08679123 -0.028712178 0.09087282 0.07770164 0.011500983 0.1320226 0.11243996 0.09980867
-0.07322594 0.11921487 -0.07126096 0.13268022 -0.056248765 0.016507309 0.0008584045 0.061609264
0.03237473 0.018366728 0.036914304 -0.1242385 -0.044466313 -0.16275468 -0.100567736 -0.032602504
-0.0648417 -0.09243648 -0.12840085 -0.007723773 -0.022136886 -0.00034789514 0.06281075 -0.016889254
-0.010885808 0.030312864 0.0060350876 0.0014599569 0.08193171 0.03126379 0.055947196 0.07303432
-0.0548605 0.030620318 -0.06336457 -0.018616648 0.06558299 -0.12052687 -0.051398363 -0.13431524
-0.027697712 0.031537514 -0.008435014 0.057873506 -0.0011788517 0.07595795 0.09775955 0.062897384
0.053963333 -0.021676986 -0.11492374 0.023565603 0.05541261 0.035160255 0.054209724 -0.046395298
00000000: f978 8cbd ac3d fdbd 4a7a b83d 715c 2dbd
00000010: 0a22 2abe 6a8f 983d f099 8f3a 60da b33c
00000020: f97b c5bd 8e65 37bc 6d8e 96bb a54e 013e
00000030: ffe1 373c f398 9dbd 1d97 7ebc ae4d 273d
00000040: af47 fc3d c3df 01bd 9a02 aabd aefb 003d
00000050: f78c 8d3d c8a2 aabd fdc0 d2bd 6697 d73c
00000060: d43d 003a 9147 95bd 76f5 07be f96a d3bd
00000070: 487f eaba 9ec9 c43d 8f19 ccbb a8c2 583d
00000080: 86e2 a53d 0ded cbbd 7a3e d93c ac47 25be
00000090: a84d 33bd d0af ae3c a3f8 7a3d bc10 37bd
000000a0: 5704 8cbe 8b0a 913d a41f 463d 21c4 f1bc
000000b0: 7775 6cbd 4ddb b73c 77fa 4d3d 35c6 883b
000000c0: 6077 bfbd 67ed 0abd 2a66 f3bc fdac 13be
000000d0: 356c 0bbe c0f5 c7bd 0545 663d 225a 08be
000000e0: 6328 913d ffde 00bc b13c 9ebd 853d d1bc
000000f0: 1541 96bd 7de1 bbbd 994c 43bd 9a0b c9bc
00000100: 918a 1cbd 7332 38bd 1b6c 7a3d 562a 04be
00000110: 86d1 c03b 9520 543d c6f6 86bd 16a5 78bd
00000120: e789 0ebe 9b50 16be 5651 12be fc52 b23d
00000130: 918b 37bd 005d 6fbd c4c6 8e3d 547c 8dbb
00000140: 71e5 be3b fd68 dabd d3a0 3ebc 9f5d a63c
00000150: 1e91 183c b233 cabc bdb7 b03d b99c 9d3c
00000160: 90a9 963c 37bf 31bd 4149 19be 1738 e3bd
00000170: cea6 323d 57b5 3cbd 609b 53bd 2b9e 0a3c
00000180: 04da c93d 0577 b6bc 73a2 5bbd d357 43bd
00000190: f47e 3fbe b8f3 09bc 8ced b5bd e9a1 dfbd
000001a0: 114b b33d 2180 0c3e e4e4 2abe 4683 863d
000001b0: d5e6 cf3d 4fa0 943c 969c b83d 10c2 da3a
000001c0: 812c 4bbd 1c91 b1bd 6063 9e3d fae1 373d
000001d0: 688b 8f3d 75e3 eebd 90a7 933d 0879 64bd
000001e0: bcff 60bd d6d9 edbc 0424 cabd ce82 07be
000001f0: 3723 9a3c 9d74 963d df2b 413c 9aad 2ebd
00000200: a63f b13c 415c 583d bcd3 1bbe 9cab a63d
00000210: 1ae6 ad3b 9224 05be 4a35 603c 46ee 113d
00000220: bbd2 9fbd d20b 083c 6ee7 18bd f15c 613d
00000230: 2337 b83c d67a c0bc 1074 26bd 0446 01be
00000240: 770c c63d 5af3 2dbe 2554 533d 3ac3 e9bb
00000250: cad5 30bd 4b4e 623c 17a4 593b 5d06 e8bd
00000260: aa19 c9bd ac4b a53d 638f 63bd 3850 5cbd
00000270: ca24 c2bd 120b 04bd 0c88 19be 3af8 7f3c
00000280: afd3 b83d be6b 273d d961 c8bd e6b6 40bc
00000290: 14a4 c7bd d50e 043d 3f38 39bd c1bd 593c
000002a0: 9bcf 17bb 8918 9d3c 5f92 cbbd 6a6b 58bd
000002b0: e3ac 1abd 46a5 92bc 37bb bb3d 36b6 fdbd
000002c0: dc11 d1bc 569d 20bd 45fe b3bd 44e9 8abd
000002d0: 3789 e7bd 164a b0bd c44c 42bd 3d89 9dbd
000002e0: 864b 09be 6563 f73b 3a6a 6ebd daa2 ffbb
000002f0: e550 30bd 6fb9 c4bc 01d6 85bd cd14 edbc
00000300: 9abf b1bd cd35 ebbc 871b ba3d 0a22 9f3d
00000310: 9e6e 3c3c ef30 073e ec46 e63d 7d68 cc3d
00000320: 7bf7 95bd ed26 f43d 44f1 91bd 53dd 073e
00000330: 1b65 66bd 563a 873c 8d06 613a ff59 7c3d
00000340: 5d9b 043d d275 963c 7433 173d c170 febd
00000350: 4f22 36bd 2aa9 26be 75f6 cdbd 348a 05bd
00000360: bacb 84bd 564f bdbd 837b 03be b417 fdbb
00000370: 6a58 b5bc b265 b6b9 eca2 803d 555b 8abc
00000380: 635a 32bc af52 f83c fcc1 c53b 065c bf3a
00000390: d0cb a73d 760e 003d e328 653d 0493 953d
000003a0: 67b5 60bd 76d7 fa3c 49c5 81bd f181 98bc
000003b0: 6050 863d cbd6 f6bd 1787 52bd ef89 09be
000003c0: 50e6 e2bc 7b2d 013d 0333 0abc c50c 6d3d
000003d0: b383 9aba d78f 9b3d 2936 c83d 58d0 803d
000003e0: a808 5d3d ef93 b1bc 235d ebbd a70c c13c
000003f0: 55f8 623d 3304 103d 040b 5e3d ff08 3ebd

fc3.bias f4 [32]
0.11858501 0.07399027 -0.0820534 0.01701467 0.058463566 0.112120375 0.08486024 0.013219457
-0.03544842 0.056905296 -0.020123482 -0.00755076 -0.01943874 0.10408138 0.08893267 -0.06221292
-0.08459445 -0.10958767 0.015244307 0.03061537 -0.023738006 -0.0008280912 -0.037620895 -0.010007218
-0.06469427 0.09000254 0.08863874 0.07802229 -0.027641837 -0.10967068 -0.08538762 0.008095735
00000000: b3dc f23d 3688 973d 9d0b a8bd 5962 8b3c
00000010: 7e77 6f3d 5e9f e53d 35cb ad3d 6c96 583c
00000020: 5d32 11bd 8715 693d 00da a4bc 5e6c f7bb
00000030: fe3d 9fbc 9e28 d53d 5522 b63d fad2 7ebd
00000040: db3f adbd 806f e0bd 42c3 793c 16cd fa3c
00000050: 3576 c2bc 4214 59ba 5e18 1abd 51f5 23bc
00000060: 6e7e 84bd 4053 b83d 3a88 b53d 26ca 9f3d
00000070: 2271 e2bc 059b e0bd b4df aebd f9a3 043c

bn3.weight f4 [32]
1.1713735 0.9341162 0.97434425 0.9430644 1.1183933 1.0797186 1.6431221 1.293508
0.96541643 0.8902411 0.9027928 1.0848645 0.89096135 1.0267135 0.86669666 0.8983937
1.2816395 0.888198 0.8972667 0.9427817 0.906723 1.3019211 0.92761725 1.460294
1.2352321 1.1038218 1.339572 0.9359089 1.0160406 0.9328113 0.9182853 1.1259782
00000000: 91ef 953f 3d22 6f3f a06e 793f ab6c 713f
00000010: 8327 8f3f 3834 8a3f d351 d23f ac91 a53f
00000020: 8825 773f d7e6 633f 6e1d 673f d7dc 8a3f
00000030: 0b16 643f 596b 833f d5df 5d3f 21fd 653f
00000040: c30c a43f f260 633f 45b3 653f 245a 713f
00000050: 001f 683f 5aa5 a63f 5378 6d3f eaea ba3f
00000060: 161c 9e3f 084a 8d3f 1877 ab3f ba97 6f3f
00000070: 9e0d 823f b9cc 6e3f bf14 6b3f 0e20 903f

bn3.bias f4 [32]
0.036923796 -0.060844127 -0.11922355 -0.28178805 -0.024826024 -0.02220406 0.3854923 0.12496089
-0.3185765 -0.22851315 -0.23510107 -0.21668272 -0.24199665 -0.378278 -0.12528169 -0.15525137
0.053793024 -0.19530071 -0.07033025 -0.26493567 -0.13575366 0.05075329 -0.19165099 0.13444908
0.103746295 0.042211678 0.023708655 -0.11900395 -0.018224766 -0.13995123 -0.19165961 0.10132906
00000000: 683d 173d b137 79bd 7a2b f4bd 8646 90be
00000010: f25f cbbc 4ae5 b5bc 3f5f c53e 7feb ff3d
00000020: 761c a3be 5aff 69be 56be 70be 13e2 5dbe
00000030: f8cd 77be a7ad c1be d849 00be 37fa 1ebe
00000040: 1356 5c3d e9fc 47be 4e09 90bd a6a5 87be
00000050: 0203 0bbe afe2 4f3d 2840 44be 05ad 093e
00000060: f078 d43d 27e6 2c3d a738 c23c 58b8 f3bd
00000070: 1b4c 95bc 604f 0fbe 6b42 44be 9c85 cf3d

bn3.running_mean f4 [32]
-0.5117084 -0.20658489 -0.6037864 -0.0769613 -0.49240884 -0.70863545 -0.45406127 -0.66992074
-0.3909165 0.07203514 -0.09704085 -0.6384136 -0.23336954 -0.24659961 -0.39963728 -0.52095264
-0.8040815 -0.35308176 -0.55756414 -0.08248986 -0.09792091 -0.494982 -0.57397604 -0.557275
-0.4714976 -0.52520204 -0.4373663 -0.38939598 -0.6591885 -0.44064057 -0.023512332 -0.44736475
00000000: 52ff 02bf fd8a 53be bf91 1abf e39d 9dbd
00000010: 031d fcbe 2269 35bf b87a e8be ed7f 2bbf
00000020: 3526 c8be 2987 933d 5abd c6bd 136f 23bf
00000030: 6df8 6ebe 9c84 7cbe 429d ccbe 275d 05bf
00000040: 49d8 4dbf 22c7 b4be 86bc 0ebf 72f0 a8bd
00000050: c28a c8bd 486e fdbe 18f0 12bf 93a9 0ebf
00000060: 2268 f1be a473 06bf 7aee dfbe e95e c7be
00000070: 94c0 28bf a49b e1be ef9c c0bc fe0c e5be

bn3.running_var f4 [32]
0.96910185 0.5862445 0.4613997 0.54915524 0.9430823 1.0412813 2.1592 1.6371367
0.24285313 0.43763518 0.5010666 0.66536766 0.6598395 0.2151857 0.8095567 0.66502863
1.3326865 0.69403166 0.82639515 0.6258993 0.67648625 1.224241 0.8211287 1.9850998
1.1560683 0.75676835 1.2846475 0.99925095 0.66120404 0.6575163 0.33507347 1.0235474
00000000: 0f17 783f 1f14 163f 953c ec3e 7095 0c3f
00000010: d76d 713f b548 853f 5530 0a40 b28d d13f
00000020: 7eae 783e b811 e03e e745 003f 8955 2a3f
00000030: 3eeb 283f a459 5c3e 1c3f 4f3f 513f 2a3f
00000040: 7995 aa3f 0fac 313f a28e 533f f03a 203f
00000050: 342e 2d3f eeb3 9c3f 7e35 523f c017 fe3f
00000060: 0cfa 933f 92bb 413f 546f a43f e9ce 7f3f
00000070: ab44 293f fd52 283f c08e ab3e 9a03 833f
