MELOSDP/SDP/chkpt/mc1/linear/5/sdp_classifier_linear-220.pth (torch, 77408 bytes, 25 tensors)

fc1.weight f4 [128, 38]
0.105395004 0.03622836 -0.011323454 -0.027000716 -0.026532117 0.03951779 0.08801792 0.084869444
0.16664222 -0.023581743 0.09776011 -0.10632135 -0.12465523 -0.091614544 0.031973597 0.014420409
0.095508866 0.10044122 -0.10031183 -0.059171278 0.009439034 0.08302904 -0.08330608 -0.04557975
0.13630435 0.006212095 -0.055468597 -0.10245576 -0.008895982 0.1286638 -0.11140233 0.14475639
0.05056107 -0.010987634 0.14503731 0.031108748 -0.048046224 -0.012593461 0.05383864 0.16773815
-0.0708363 -0.0689459 0.053910512 0.032058988 0.15854019 0.058236677 0.036594305 0.033701476
0.043228727 -0.042754456 0.016689513 0.007699332 0.100708805 -0.02608914 -0.01919209 -0.056763794
-0.060399804 -0.08152436 -0.16496941 -0.053616133 0.053940058 0.024839586 -0.13017695 0.06825699
0.034326386 0.04114589 -0.08006478 -0.09017056 -0.15680027 0.12547769 0.040089153 -0.017262364
-0.050106473 -0.04840517 -0.008023219 -0.054797407 -0.08486744 -0.15466411 -0.1502095 0.085794
-0.019352699 -0.040422443 0.10005006 -0.20162085 0.103508286 -0.06548719 -0.010882686 -0.03817521
-0.18615519 0.08077759 0.14985886 -0.039620664 0.109130226 0.14234978 0.090816155 -0.12003675
0.034672666 -0.09199296 -0.1613322 0.0892129 0.08539959 0.04784657 -0.17401567 -0.0121394945
0.1284251 0.00014771287 -0.010377229 -0.16014692 0.015329472 0.024659704 -0.015309822 0.1097928
-0.04847111 0.08781673 0.08980872 0.16541514 0.04317569 0.12266836 -0.0714349 0.06520553
-0.017321885 0.08484932 -0.1269373 0.09626264 0.049491666 -0.01477631 0.072963916 -0.0913422
0.01599844 -0.066803195 0.06685882 0.022516266 -0.0682987 -0.15335403 0.16194174 0.08893008
0.008766683 0.19654946 -0.116359025 -0.053597942 0.06276209 0.0024377913 -0.1284315 -0.14990172
-0.17118043 0.02004512 0.13838221 -0.08594 0.08574296 -0.061918158 -0.16710551 0.030054182
0.025365392 -0.16789436 -0.13874245 -0.14044999 -0.00012734237 0.08838201 0.04336556 0.13381635
-0.17603548 -0.0010224117 -0.11636348 0.053676527 -0.0804204 0.12472833 -0.069057785 0.08758771
0.13154241 -0.10884598 0.029701862 0.087812595 -0.081709325 0.09260145 0.07959244 0.0022790793
0.10056223 -0.017759778 0.07718259 -0.024666047 -0.18222916 0.044704225 -0.010899171 -0.08900592
0.034870036 0.12617189 -0.11867277 -0.14212146 -0.13506268 0.101118974 -0.013794898 0.038225234
-0.024353957 0.028333789 0.043136764 0.006488115 -0.044770174 0.25217664 0.11731067 -0.032816947
0.034308348 -0.03812984 0.065219276 0.15886697 -0.05724151 0.02632778 0.121039666 0.108705856
-0.12531087 -0.019744776 -0.03572019 0.13156627 -0.04474987 0.015903551 0.07625807 -0.039593685
0.039967984 -0.067801304 0.0060516014 -0.004226154 0.08311314 -0.09627639 0.06015909 -0.048915688
-0.0011672785 0.1105408 -0.06792032 0.043386545 0.044272475 -0.13402662 -0.11029091 -0.0062607476
0.0338219 0.02842628 0.14118564 0.18803346 -0.13196541 0.100615434 0.08575635 -6.930558e-05
0.12516117 0.14082931 -0.044778213 0.005085903 -0.012389742 -0.05304069 0.1373274 -0.083476685
0.11569223 -0.13263345 0.13389735 -0.043361478 -0.1090176 -0.048829854 0.01832287 0.046793193
00000000: 56d9 d73d 3064 143d 0286 39bc 9b30 ddbc
00000010: e259 d9bc 68dd 213d bd42 b43d 08d0 ad3d
00000020: 42a4 2a3e 802e c1bc 7436 c83d 02bf d9bd
00000030: 3e4b ffbd 68a0 bbbd bff6 023d 9443 6c3c
00000040: 279a c33d 20b4 cd3d 4a70 cdbd 955d 72bd
00000050: 2ea6 1a3c 210b aa3d 619c aabd d5b1 3abd
00000060: 5e93 0b3e d48e cb3b 0a33 63bd 53d4 d1bd
00000070: 74c0 11bc 71c0 033e e826 e4bd 053b 143e
00000080: 2019 4f3d 7a05 34bc a984 143e c6d7 fe3c
00000090: 1ecc 44bd ce54 4ebc e885 5c3d 8dc3 2b3e
000000a0: 9f12 91bd 8233 8dbd 45d1 5c3d 4950 033d
000000b0: 5c58 223e 9589 6e3d e9e3 153d 8f0a 0a3d
000000c0: 9b10 313d 4c1f 2fbd 72b8 883c ae4a fc3b
000000d0: 6b40 ce3d e4b8 d5bc bb38 9dbc 2781 68bd
000000e0: c965 77bd 3ef6 a6bd beed 28be 979c 5bbd
000000f0: 40f0 5c3d 637c cb3c 1b4d 05be 52ca 8b3d
00000100: d399 0c3d 9888 283d 01f9 a3bd 58ab b8bd
00000110: 4090 20be 397d 003e 8634 243d cd69 8dbc
00000120: 723c 4dbd 8044 46bd d273 03bc 3f73 60bd
00000130: fbce adbd 4560 1ebe 85d0 19be c4b4 af3d
00000140: 8d89 9ebc 0192 25bd 0ce7 cc3d b275 4ebe
00000150: 27fc d33d 261e 86bd 4b4d 32bc 9c5d 1cbd
00000160: 779f 3ebe b96e a53d 9a74 193e 4749 22bd
00000170: ab7f df3d 24c4 113e d2fd b93d d4d5 f5bd
00000180: ed04 0e3d ce66 bcbd 4534 25be 41b5 b63d
00000190: fbe5 ae3d c4fa 433d 2a31 32be bbe4 46bc
000001a0: df81 033e 5fe3 1a39 4105 2abc 8efd 23be
000001b0: 7728 7b3c 2603 ca3c 0cd6 7abc 0cdb e03d
000001c0: a589 46bd 42d9 b33d a2ed b73d 9662 293e
000001d0: fed8 303d 8d39 fb3d 764c 92bd 7a8a 853d
000001e0: a0e6 8dbc 7bc5 ad3d dafb 01be 5925 c53d
000001f0: c6b7 4a3d 5618 72bc 1b6e 953d 9f11 bbbd
00000200: 290f 833c 1dd0 88bd 47ed 883d 0874 b83c
00000210: 30e0 8bbd d708 1dbe 0ed4 253e f920 b63d
00000220: 22a2 0f3c 4344 493e a44d eebd 8489 5bbd
00000230: 6989 803d 5ac3 1f3b 8c83 03be d67f 19be
00000240: ec49 2fbe aa35 a43c 11b4 0d3e 5001 b0bd
00000250: 019a af3d e59d 7dbd b51d 2bbe 3034 f63c
00000260: 15cb cf3c 80ec 2bbe 8012 0ebe 1fd2 0fbe
00000270: 3587 05b9 a101 b53d 16a0 313d 2707 093e
00000280: a542 34be 7202 86ba fa4f eebd ebdb 5b3d
00000290: 73b3 a4bd 9171 ff3d 2b6e 8dbd 2f61 b33d
000002a0: 0eb3 063e a4ea debd 5251 f33c 17d7 b33d
000002b0: 3857 a7bd d4a5 bd3d 5c01 a33d 9b5c 153b
000002c0: 92f3 cd3d f47c 91bc e811 9e3d 7310 cabc
000002d0: 489a 3abe c71b 373d 7092 32bc bc48 b6bd
000002e0: e2d3 0e3d 3433 013e b60a f3bd 4a88 11be
000002f0: df4d 0abe 7717 cf3d ff03 62bc 1092 1c3d
00000300: f381 c7bc 431c e83c 2db0 303d 419a d43b
00000310: ee60 37bd 4c1d 813e 9440 f03d 106b 06bd
00000320: e986 0c3d 092e 1cbd af91 853d 06ae 223e
00000330: 1376 6abd 5bad d73c a5e3 f73d 2da1 de3d
00000340: 7e51 00be ccbf a1bc 554f 12bd 4fb9 063e
00000350: a44b 37bd 2a48 823c 312d 9c3d fd2c 22bd
00000360: 78b5 233d 69db 8abd 834c c63b 8d7b 8abb
00000370: 3937 aa3d 8e2c c5bd 6169 763d d15b 48bd
00000380: 5eff 98ba 3763 e23d cf19 8bbd 17b6 313d
00000390: 0e57 353d 463e 09be 33e0 e1bd f526 cdbb
000003a0: d588 0a3d 3bde e83c f892 103e d88b 403e
000003b0: f121 07be 770f ce3d 06a1 af3d 2658 91b8
000003c0: 402a 003e 8f35 103e 5c69 37bd a6a7 a63b
000003d0: 58fe 4abc 3241 59bd 8e9f 0c3e d3f5 aabd
000003e0: 0cf0 ec3d 10d1 07be 631c 093e ce9b 31bd
000003f0: 9f44 dfbd d001 48bd d819 963c 38aa 3f3d

fc1.bias f4 [128]
0.13564722 -0.13033472 -0.06282884 0.08676162 -0.10876894 0.0005493792 -0.057084773 0.008623777
-0.11204515 0.10674839 0.004427522 0.0456991 0.06514269 -0.04151301 0.14437924 -0.02781325
0.15762365 0.043848608 0.12795807 -0.08912753 -0.09830036 0.0043602134 0.022886056 -0.029713022
-0.059037138 -0.10472754 0.078417525 -0.06512931 0.14922392 0.09755698 0.048602194 0.04566171
-0.14183103 0.1095337 -0.0008201073 -0.04057736 -0.0023687442 0.017817207 0.047190364 0.08102082
-0.05646251 -0.05050967 -0.063253015 0.117591165 0.06637306 -0.06576905 0.05797796 0.04351335
0.0059750066 -0.14205727 -0.05335112 0.022817442 0.005661861 -0.09046948 -0.15227033 0.07754383
-0.108075246 -0.055475537 -0.15306515 0.0110659795 0.1493868 0.05294376 0.07907999 0.06812278
-0.04044404 0.06407529 -0.057505194 -0.14592913 0.083110355 -0.15232812 -0.03601988 0.006661678
0.0703707 -0.031717263 -0.091670275 0.11414129 -0.096882954 -0.15161453 0.024292532 0.14056166
0.08613918 0.10079047 -0.13729541 0.017733747 0.11973847 0.056928754 -0.1437814 -0.07836313
-0.0328616 0.057435032 -0.073150076 -0.13146177 0.14644611 0.06911382 0.15502438 -0.038541954
0.13052337 -0.059980843 0.040198103 0.09663129 -0.103093415 -0.08653883 -0.051211827 0.07721478
-0.07590479 0.13795023 0.017008921 0.073635116 -0.07201636 0.03197628 0.07874536 -0.15063922
0.041322306 -0.08433367 0.10848745 -0.15557581 -0.011190004 -0.098614305 0.061003465 -0.08545165
-0.0067820298 0.034975093 -0.055478238 -0.15760615 0.025555141 -0.05029478 0.10890227 -0.0886503
00000000: 1be7 0a3e 7776 05be 68ac 80bd 14b0 b13d
00000010: 40c2 debd 3704 103a b9d1 69bd be4a 0d3c
00000020: ed77 e5bd e69e da3d bf14 913b fb2e 3b3d
00000030: 8869 853d 8c09 2abd 27d8 133e 9dd8 e3bc
00000040: 1868 213e 999a 333d 7107 033e 7f88 b6bd
00000050: b351 c9bd 1fe0 8e3b 8a7b bb3c b968 f3bc
00000060: edd0 71bd 647b d6bd 5e99 a03d 8462 85bd
00000070: 28ce 183e f4cb c73d 1813 473d c607 3b3d
00000080: 273c 11be 3453 e03d 78fc 56ba 7234 26bd
00000090: ef3c 1bbb 64f5 913c af4a 413d 3eee a53d
000000a0: 3c45 67bd 3ae3 4ebd cc8a 81bd a3d3 f03d
000000b0: 99ee 873d ecb1 86bd 4c7a 6d3d 0e3b 323d
000000c0: fdc9 c33b 7677 11be b486 5abd a5eb ba3c
000000d0: 2287 b93b 1048 b9bd c1ec 1bbe 4dcf 9e3d
000000e0: 8e56 ddbd 513a 63bd 1cbd 1cbe 154e 353c
000000f0: daf8 183e 8edb 583d b1f4 a13d f583 8b3d
00000100: a6a8 25bd e839 833d 918a 6bbd 726e 15be
00000110: c335 aa3d e7fb 1bbe 9589 13bd 354a da3b
00000120: 831e 903d f6e9 01bd a0bd bbbd e9c2 e93d
00000130: 926a c6bd d740 1bbe 2201 c73c 65ef 0f3e
00000140: bd69 b03d 3c6b ce3d 2b97 0cbe 5d46 913c
00000150: 7139 f53d 202e 693d 6e3b 13be d97c a0bd
00000160: e399 06bd ff40 6b3d b5cf 95bd ea9d 06be
00000170: f8f5 153e 8c8b 8d3d b6be 1e3e 2bde 1dbd
00000180: eba7 053e 79ae 75bd c4a6 243d a0e6 c53d
00000190: a422 d3bd 453b b1bd 7ec3 51bd c822 9e3d
000001a0: f873 9bbd d342 0d3e 4b56 8b3c 02ce 963d
000001b0: 507d 93bd 8ff9 023d 3f45 a13d 2b41 1abe
000001c0: 9441 293d 22b7 acbd ab2e de3d 444f 1fbe
000001d0: 4756 37bc 4cf6 c9bd c5de 793d 4601 afbd
000001e0: ca3b debb 0b42 0f3d 263d 63bd 8263 21be
000001f0: 0459 d13c e601 4ebd 2708 df3d 4a8e b5bd

bn1.weight f4 [128]
0.99954945 1.0656699 0.99067205 1.0203863 0.9881018 1.1237892 1.109009 1.040982
0.9994465 0.97861856 1.0075606 1.1033075 0.98560226 0.9850223 1.0161095 0.99776554
1.0177506 1.0050164 1.145584 1.0672997 0.98295057 0.9948296 1.0053204 1.0649575
0.9731132 1.0020232 0.9931201 0.97036374 0.96713036 1.0087813 0.9851302 0.9719513
0.99449253 0.99583817 1.1085906 1.0247192 0.97867244 1.0253377 1.0064771 0.97515976
1.1019695 0.99059945 0.99095607 0.97729677 0.9816464 1.004347 1.1057491 0.9881222
0.9771038 1.075006 1.0307943 1.0059896 0.96660817 1.0123135 0.9797813 1.1408554
1.1368395 0.9997654 0.98136514 1.0647081 0.9744524 1.0534728 0.99137074 0.987918
0.98343444 0.9807666 1.0570688 0.9652936 0.98869795 0.97761375 0.9770471 1.0580142
1.0110258 1.0283601 0.98080736 1.0223742 0.98002166 0.9989573 1.0759674 1.0161579
1.0089012 0.9780212 1.0231324 1.0122867 1.076488 0.99217045 0.99535143 1.0073167
0.9972588 1.0710424 1.0109199 0.9800103 1.0040776 0.99063075 1.0902057 1.0168325
0.985852 1.0084933 0.9838805 1.0649674 0.9924116 1.0206975 0.98180526 0.98488325
0.98659766 0.9986852 1.047777 0.96791077 1.0115446 0.9916321 1.0040671 1.0259913
0.9906926 1.0414723 1.018971 1.0201491 0.9845805 0.9636886 0.9944061 0.99450433
1.1190914 1.0341777 0.98776174 1.0230297 0.9603781 0.9927746 1.011011 1.0071305
00000000: 79e2 7f3f df67 883f af9c 7d3f 059c 823f
00000010: 3df4 7c3f 53d8 8f3f 02f4 8d3f e63e 853f
00000020: badb 7f3f bf86 7a3f bff7 803f 2e39 8d3f
00000030: 6e50 7c3f 6c2a 7c3f e00f 823f 906d 7f3f
00000040: a745 823f 61a4 803f 7fa2 923f 479d 883f
00000050: a6a2 7b3f 27ad 7e3f 57ae 803f 8750 883f
00000060: f21d 793f 4c42 803f 1e3d 7e3f c269 783f
00000070: db95 773f bf1f 813f 7e31 7c3f cdd1 783f
00000080: 1097 7e3f 40ef 7e3f 4ce6 8d3f 002a 833f
00000090: 478a 7a3f 443e 833f 3ed4 803f 12a4 793f
000000a0: 560d 8d3f ed97 7d3f 4caf 7d3f 1f30 7a3f
000000b0: 2e4d 7b3f 718e 803f 3089 8d3f 94f5 7c3f
000000c0: 7a23 7a3f cc99 893f 11f1 833f 44c4 803f
000000d0: a273 773f 7d93 813f f3d2 7a3f 8d07 923f
000000e0: f583 913f a0f0 7f3f bf3a 7b3f 5b48 883f
000000f0: b675 793f 32d8 863f 79ca 7d3f 32e8 7c3f
00000100: 5cc2 7b3f 8513 7b3f 084e 873f 7b1d 773f
00000110: 4f1b 7d3f e544 7a3f c21f 7a3f 026d 873f
00000120: 4b69 813f 4ea1 833f 3116 7b3f 28dd 823f
00000130: b3e2 7a3f aabb 7f3f 4db9 893f 7611 823f
00000140: ad23 813f 995f 7a3f 01f6 823f 9c92 813f
00000150: 5cca 893f e2fe 7d3f 5acf 7e3f c1ef 803f
00000160: 5a4c 7f3f eb17 893f d365 813f f4e1 7a3f
00000170: 9d85 803f fa99 7d3f dc8b 8b3f 9127 823f
00000180: cc60 7c3f 4f16 813f 98df 7b3f da50 883f
00000190: b00e 7e3f 37a6 823f 9757 7b3f 4f21 7c3f
000001a0: aa91 7c3f d5a9 7f3f 8f1d 863f 00c9 773f
000001b0: 4b7a 813f 9adb 7d3f 4585 803f af53 833f
000001c0: 089e 7d3f f74e 853f a46d 823f 3f94 823f
000001d0: 780d 7c3f 4cb4 763f 6691 7e3f d697 7e3f
000001e0: 633e 8f3f ef5f 843f f4dd 7c3f a3f2 823f
000001f0: 57db 753f 7a26 7e3f cf68 813f a7e9 803f

bn1.bias f4 [128]
-0.011266425 0.00051932293 0.09010335 -0.015332957 -0.084019326 0.017441237 0.04982352 -0.0080264555
0.019363817 0.0010589906 -0.023186442 0.038690794 -0.06889833 -0.03629913 -0.03353799 0.0038360034
-0.0022940428 -0.03789504 0.07234359 0.054888185 -0.046942454 -0.023568245 0.013323194 0.03562032
-0.0046234764 0.00914157 0.0016043892 -0.012615566 -0.025452139 -0.0076795653 -0.0014803236 -0.0663732
-0.050756715 -0.00080960244 0.03537079 -0.018078921 -0.04494641 0.04157291 -0.070329 -0.047048334
0.07282524 -0.018154236 -0.02675124 -0.031278946 0.020456087 -0.044476327 0.050018612 -0.029751424
0.000979498 0.022010216 -0.01180622 -0.089866616 -0.0014069494 -0.05346273 -0.018713 0.10698967
-0.008077512 0.038165692 0.030461906 0.045549404 -0.04055411 -0.018149907 -0.0006674348 0.013295947
-0.08872896 -0.011949295 0.0042719455 0.03229024 -0.023561554 -0.015164 0.015063941 0.06710915
-0.01884232 -0.02426303 -0.072461106 0.024021296 -0.025628077 0.00063117355 0.054359753 -0.0053886753
0.0013345976 -0.055448364 -0.063478574 0.047808528 0.03048312 0.024154058 -0.040657535 0.013690049
-0.036396272 0.07756356 -0.0010295844 -0.045352403 -0.05246761 -0.023429327 -0.010261352 0.0010855978
0.040191423 0.037494786 -0.036661398 -0.041474685 -0.017118039 -0.058527507 -0.035430953 -0.044770263
-0.02566062 -0.03527998 -0.014014993 0.023464706 -0.024257561 -0.03497708 0.008913868 0.022937393
0.014652953 -0.016510012 -0.0069318702 -0.023730822 -0.031053163 0.009325867 -0.030368423 -0.0073645385
0.022698896 0.045475423 -0.008487388 -0.0035210548 -0.036417 -0.046408266 -0.005242809 0.00962769
00000000: d096 38bc 2c23 083a 1b88 b83d 1537 7bbc
00000010: 5312 acbd ede0 8e3c bf13 4c3d 6581 03bc
00000020: dea0 9e3c d4cd 8a3a 7ef1 bdbc 3d7a 1e3d
00000030: 911a 8dbd 66ae 14bd 225f 09bd 7565 7b3b
00000040: a757 16bb d437 1bbd e028 943d 6fd2 603d
00000050: bb46 40bd 3112 c1bc 8749 5a3c 9de6 113d
00000060: 8880 97bb 86c6 153c 5e4a d23a 85b1 4ebc
00000070: 0181 d0bc dda4 fbbb 6b07 c2ba acee 87bd
00000080: 46e6 4fbd 803b 54ba f6e0 103d 3f1a 94bc
00000090: ba19 38bd 5b48 2a3d a708 90bd c1b5 40bd
000000a0: 6625 953d 31b8 94bc 6b25 dbbc 5a1e 00bd
000000b0: 8693 a73c cf2c 36bd 51e0 4c3d 42b9 f3bc
000000c0: 8062 803a c54e b43c e06e 41bc fd0b b8bd
000000d0: 6369 b8ba bcfb 5abd 014c 99bc 661d db3d
000000e0: 8a57 04bc a153 1c3d 3f8b f93c 0392 3a3d
000000f0: 111c 26bd 1daf 94bc cbf6 2eba 3ed7 593c
00000100: 87b7 b5bd fac6 43bc adfb 8b3b c542 043d
00000110: 2904 c1bc 6d72 78bc bfce 763c 8670 893d
00000120: 365b 9abc 43c3 c6bc 7d66 94bd 4fc8 c43c
00000130: f9f1 d1bc 5775 253a 55a8 5e3d 7c93 b0bb
00000140: aaed ae3a d31d 63bd 0e01 82bd e0d2 433d
00000150: bcb7 f93c bbde c53c 8488 26bd 3a4c 603c
00000160: 4214 15bd a5d9 9e3d 1ff3 86ba 71c3 39bd
00000170: 47e8 56bd dcee bfbc 3b1f 28bc 9e4a 8e3a
00000180: c39f 243d 2294 193d 432a 16bd 5ce1 29bd
00000190: 213b 8cbc 8aba 6fbd 0c20 11bd 0661 37bd
000001a0: 3836 d2bc be81 10bd 249f 65bc 0e39 c03c
000001b0: cbb7 c6bc 2044 0fbd 790b 123c 33e7 bb3c
000001c0: f012 703c 0140 87bc be24 e3bb 2467 c2bc
000001d0: 3463 febc 85cb 183c 33c7 f8bc 3a52 f1bb
000001e0: 09f3 b93c 7044 3a3d af0e 0bbc 7fc1 66bb
000001f0: fe29 15bd 9816 3ebd dfcb abbb 75bd 1d3c

bn1.running_mean f4 [128]
0.13468601 -0.1312361 -0.061780155 0.087954655 -0.109221466 -0.0014107972 -0.052647386 0.009670798
-0.112802826 0.10568513 0.011128909 0.046471816 0.06912688 -0.039586052 0.14428928 -0.02572652
0.1586766 0.045167204 0.12683795 -0.09309581 -0.09399734 0.0075639063 0.025852349 -0.031011825
-0.062812485 -0.10289457 0.08049017 -0.063802905 0.15225504 0.098628335 0.052760895 0.043029994
-0.14238462 0.11502015 0.005541912 -0.04230458 -0.0026351542 0.018313203 0.04773333 0.08620674
-0.054803193 -0.04964073 -0.060896732 0.115590505 0.06691448 -0.07176915 0.05649682 0.04350095
0.004764982 -0.14339164 -0.052173726 0.025686111 0.0074435533 -0.08817754 -0.1508003 0.075990066
-0.1093737 -0.055455748 -0.15210034 0.011993255 0.14396405 0.05842893 0.07286956 0.070594
-0.04048889 0.06184795 -0.05585773 -0.14982766 0.086265616 -0.15823185 -0.035772763 0.012446587
0.06714737 -0.030876942 -0.09194184 0.11367259 -0.096889555 -0.15055208 0.019268453 0.13753472
0.08823124 0.1025853 -0.13291875 0.011819677 0.121555015 0.05682966 -0.14573056 -0.07786672
-0.034372076 0.05844942 -0.066963725 -0.13160871 0.14117698 0.06988436 0.15560322 -0.038771253
0.12567782 -0.05876645 0.039764453 0.09698026 -0.10139196 -0.08549585 -0.054156434 0.072733454
-0.0774255 0.14215071 0.019793704 0.0755492 -0.07125821 0.037777796 0.08189528 -0.14950177
0.038403157 -0.07941267 0.10745834 -0.1579427 -0.010916089 -0.098134995 0.06322087 -0.08770674
-0.003715019 0.03625831 -0.052121334 -0.15736921 0.024702668 -0.05182517 0.10736558 -0.08677161
00000000: 21eb 093e c262 06be 300d 7dbd 9221 b43d
00000010: 81af dfbd 80ea b8ba c9a4 57bd 4472 1e3c
00000020: 2b05 e7bd 7271 d83d 0756 363c 3b59 3e3d
00000030: 6592 8d3d fc24 22bd 92c0 133e 6cc0 d2bc
00000040: 1e7c 223e 3f01 393d cfe1 013e 04a9 bebd
00000050: ad81 c0bd a5da f73b 4ec8 d33c 830c febc
00000060: d5a3 80bd 63ba d2bd 08d8 a43d 19ab 82bd
00000070: bfe8 1b3e a7fd c93d cf1b 583d 3840 303d
00000080: 46cd 11be af8f eb3d ed98 b53b 9147 2dbd
00000090: 8db2 2cbb 9205 963c 0684 433d 298d b03d
000000a0: 5079 60bd 1454 4bbd da6e 79bd b7ba ec3d
000000b0: 750a 893d b4fb 92bd 3669 673d 0d2e 323d
000000c0: 9123 9c3b 42d5 12be 1eb4 55bd ae6b d23c
000000d0: 0de9 f33b 6d96 b4bd 656b 1abe aea0 9b3d
000000e0: 52ff dfbd 9125 63bd 31c0 1bbe 5b7f 443c
000000f0: 506b 133e 2c53 6f3d a33c 953d 9693 903d
00000100: aed7 25bd 4754 7d3d 13cb 64bd 6c6c 19be
00000110: 07ac b03d 8807 22be 7686 12bd c5ec 4b3c
00000120: 8f84 893d a4f1 fcbc 014c bcbd 2dcd e83d
00000130: 086e c6bd 532a 1abe e0d8 9d3c e7d5 0c3e
00000140: 95b2 b43d 3e18 d23d da1b 08be 52a7 413c
00000150: d6f1 f83d 38c6 683d 643a 15be 9678 9fbd
00000160: bcc9 0cbd a968 6f3d 4724 89bd 6fc4 06be
00000170: b390 103e 881f 8f3d 7356 1f3e 9bce 1ebd
00000180: b0b1 003e 17b5 70bd 0de0 223d 969d c63d
00000190: 97a6 cfbd 7318 afbd 23d3 5dbd 47f5 943d
000001a0: 4391 9ebd f58f 113e 6826 a23c 8ab9 9a3d
000001b0: d3ef 91bd e4bc 1a3d b6b8 a73d fe16 19be
000001c0: a14c 1d3d 1ca3 a2bd 1e13 dc3d bbbb 21be
000001d0: 65d9 32bc 00fb c8bd f279 813d 979f b3bd
000001e0: ad77 73bb 9883 143d 2e7d 55bd 6525 21be
000001f0: 405d ca3c a146 54bd 7ce2 db3d 50b5 b1bd

bn1.running_var f4 [128]
0.48812 0.039158758 0.15554085 0.12803747 0.24123447 0.2683428 0.25915316 0.21587473
0.7792449 0.2501676 0.40272263 0.07287798 0.28575218 0.6529271 0.2758832 0.5683477
0.4167039 0.21184266 0.17322876 0.1817098 0.19769025 0.20765582 0.29289103 0.23590869
0.68706197 0.1958017 0.13437805 0.65825677 0.10274748 0.22840129 0.35749912 0.29993165
0.19415727 0.55005497 0.21126792 0.14463334 0.37727767 0.28393298 0.24980955 0.7250245
0.21578303 0.20533249 0.2805379 0.20302476 0.17157716 0.19055381 0.14889924 0.2740922
0.2591889 0.19836526 0.62260866 0.25095612 0.5530315 1.3392318 0.16778423 0.21396162
0.05379404 0.40418884 0.19919404 0.25759685 1.8431548 0.2708897 0.6500148 0.17785239
0.15483592 1.1717597 0.23743263 0.46134612 0.25048915 0.19189921 0.16386436 0.3069992
0.21430296 0.111940034 0.3097361 0.099100806 0.4627195 0.24035923 0.2508143 0.278775
0.19462979 1.7877449 0.2500194 0.29205385 0.25114927 0.2440287 0.29777429 0.12033857
0.4955206 0.10523267 1.3754663 0.12179504 1.9969246 0.28398165 0.17323762 0.20016767
0.48499393 0.52987546 0.16957815 0.12119416 0.40294188 0.58557355 0.26022646 0.16445453
0.5134679 0.118724786 0.33088 0.31163803 0.36232406 0.3067542 0.49821618 0.23472048
0.61819184 0.38870323 0.28160214 0.21774924 0.39743057 0.2823609 0.514247 0.2418603
0.26954576 0.24726455 0.19379519 0.274408 0.8297098 1.6960989 0.14134571 0.49984777
00000000: ddea f93e ef64 203d 1a46 1f3e 411c 033e
00000010: 2b06 773e 3a64 893e b9af 843e 440e 5d3e
00000020: 987c 473f f815 803e a931 ce3e 0d41 953d
00000030: 1c4e 923e 3b26 273f 9040 8d3e 3c7f 113f
00000040: 375a d53e 48ed 583e e162 313e 2212 3a3e
00000050: 506f 4a3e baa3 543e d0f5 953e 0c92 713e
00000060: 4be3 2f3f 3e80 483e 669a 093e 8483 283f
00000070: 456d d23d 07e2 693e 200a b73e a490 993e
00000080: 2ad1 463e 67d0 0c3f 9e56 583e c31a 143e
00000090: 8a2a c13e aa5f 913e 13ce 7f3e 359b 393f
000000a0: 3af6 5c3e ae42 523e aaa2 8f3e b9e5 4f3e
000000b0: ecb1 2f3e 8a20 433e 0b79 183e d055 8c3e
000000c0: 68b4 843e 4320 4b3e 4863 1f3f 527d 803e
000000d0: 7993 0d3f f36b ab3f a1cf 2b3e c118 5b3e
000000e0: 2457 5c3d d7f1 ce3e 86f9 4b3e bce3 833e
000000f0: 7fec eb3f 0eb2 8a3e 5f67 263f f01e 363e
00000100: 4f8d 1e3e 39fc 953f 8a21 733e 8f35 ec3e
00000110: 1d40 803e 3a81 443e 0fcc 273e 002f 9d3e
00000120: 3c72 5b3e d140 e53d bb95 9e3e 5df5 ca3d
00000130: 92e9 ec3e bb20 763e bb6a 803e 99bb 8e3e
00000140: 084d 473e d3d4 e43f 8b02 803e 1588 953e
00000150: a396 803e a9e2 793e df75 983e 1174 f63d
00000160: e0b4 fd3e 3a84 d73d 480f b03f ae6f f93d
00000170: 3a9b ff3f 0b66 913e 3465 313e c1f8 4c3e
00000180: 2051 f83e eba5 073f e5a5 2d3e a534 f83d
00000190: 664e ce3e 26e8 153f 673c 853e c566 283e
000001a0: a272 033f fb25 f33d 1a69 a93e 058f 9f3e
000001b0: 8a82 b93e e30e 9d3e 3116 ff3e 915a 703e
000001c0: d241 1e3f 1c04 c73e 282e 903e a8f9 5e3e
000001d0: 057c cb3e 9c91 903e b1a5 033f 3aaa 773e
000001e0: e701 8a3e eb32 7d3e 3f72 463e 357f 8c3e
000001f0: dd67 543f c519 d93f eebc 103e 0cec ff3e

fc2.weight f4 [64, 128]
-0.048357405 -0.09285246 0.025406675 0.019569071 0.04869513 0.043664765 0.111219645 -0.04099441
0.010268544 0.052179534 0.0026079763 -0.07561528 -0.068216965 5.4861874e-05 -0.055055685 -0.03169569
0.035402082 -0.020842602 -0.0070066075 0.022151494 -0.07238969 -0.014219048 0.024775496 0.006870855
-0.05487834 -0.06672899 -0.01759468 -0.056312665 -0.06988283 -0.09269564 0.049579848 0.10253245
-0.08298686 0.057874303 -0.112777285 -0.061080366 -0.034102257 0.043366127 0.06680747 -8.95853e-05
-0.11290195 0.0072537926 0.0808794 -0.029108644 -0.019418357 -0.0012374978 0.15756176 0.05255969
0.008793788 0.044771668 0.12309775 0.062016014 0.034822788 -0.0531483 0.08789489 0.08821025
0.01944835 -0.06684513 -0.12803905 -0.028762903 0.024472237 0.006793582 -0.03402484 0.024255706
-0.022774993 -0.058704436 -0.007812074 -0.09336925 -0.04982971 -0.027454076 -0.022021335 0.030224454
0.029655937 -0.03752913 0.049844004 -0.07899036 -0.03806452 -0.014476169 0.014254627 -0.06710783
-0.00074725633 -0.095019996 0.12202797 -0.10418648 0.027209785 0.10203839 0.032490432 0.04408919
-0.025213733 -0.030034462 0.05357909 0.0043425974 0.05241686 0.037492994 0.0801576 -0.051125266
-0.05876765 -0.0470984 0.008690683 0.10883618 -0.005178941 0.00059480645 0.008950381 0.0010539207
-0.06740811 0.061325494 0.07972186 -0.03944367 -0.050776657 0.050621662 -0.13637008 0.039174248
-0.088288024 0.017439447 0.046311766 0.10012906 0.08377267 -0.04658216 0.040766317 -0.04972748
-0.0015691122 -0.07379422 -0.0002956939 -0.053402953 0.05219484 0.0495239 0.00083606964 0.05373665
-0.011872977 0.006188686 -0.012614637 0.05611266 -0.018450364 0.107486844 0.042950004 -0.009308035
-0.0216074 -0.049634136 -0.061351642 0.020203585 0.001839935 0.004004358 0.029432982 -0.0076085553
-0.036125526 0.08392962 -0.028985199 0.08145856 0.035603944 0.038723804 0.012305616 0.020535821
-0.0374488 -0.06373402 -0.08334691 -0.072910346 0.061083686 -0.038205612 0.08422265 -0.0591577
0.07508483 0.0150861135 0.0057877116 -0.031524517 -0.07151267 0.07085637 0.008683846 0.049568314
-0.006369654 -0.10465006 -0.0087855365 -0.005896754 0.04281078 0.02185468 0.017437523 -0.044095747
-0.0788082 -0.052200798 -0.0038373973 0.051882643 -0.094798006 0.030257441 0.0472006 0.13813399
-0.0271227 0.058921732 -0.041865397 -0.07423283 -0.074011505 0.0012616852 -0.027652645 0.07112478
-0.06880123 0.06590255 0.0138387345 -0.055084962 -0.055093113 -0.03286646 0.055671755 -0.11192095
-0.034692526 -0.10213123 0.015210953 -0.07844584 -0.07816542 0.03069759 0.047935035 -0.043529246
-0.047292724 -0.006799589 0.05400374 -0.01898697 -0.049368538 0.029289152 0.061823446 0.011944526
0.013939332 -0.06927705 0.12464466 -0.07557381 0.0020939347 0.03273012 0.09230908 -0.05673797
-0.05891767 0.04082071 0.059935987 0.05393652 0.027274981 -0.051991034 -0.055529956 -0.04164351
-0.07640344 -0.03879836 -0.04323627 0.033251323 0.03052469 -0.0150794685 0.0051899585 0.07226978
-0.0894045 -0.0028641177 -0.08663638 0.03727634 -0.044500753 -0.012504488 -0.023491703 0.053544674
0.081515506 -0.045852292 0.030896429 -0.081822425 0.027099445 -0.07059708 -0.07427838 0.06978042
00000000: 6a12 46bd 6e29 bebd a921 d03c 514f a03c
00000010: 8b74 473d d3d9 323d 20c7 e33d c1e9 27bd
00000020: 653d 283c 35ba 553d 95ea 2a3b 2fdc 9abd
00000030: 56b5 8bbd 7d1b 6638 1282 61bd 57d3 01bd
00000040: c601 113d 1bbe aabc af97 e5bb 0d77 b53c
00000050: 0c41 94bd 03f7 68bc fbf5 ca3c e924 e13b
00000060: 1cc8 60bd 35a9 88bd b822 90bc 1ca8 66bd
00000070: bb1e 8fbd 36d7 bdbd 3d14 4b3d 88fc d13d
00000080: 04f5 a9bd 9b0d 6d3d c7f7 e6bd 682f 7abd
00000090: cfae 0bbd aea0 313d 5bd2 883d bedf bbb8
000000a0: 2339 e7bd 39b1 ed3b 19a4 a53d 4075 eebc
000000b0: 3f13 9fbc 8933 a2ba df57 213e d448 573d
000000c0: d213 103c 7f62 373d ac1a fc3d 8104 7e3d
000000d0: 57a2 0e3d 08b2 59bd 3c02 b43d 93a7 b43d
000000e0: 2552 9f3c 19e6 88bd ab1c 03be 2ea0 ebbc
000000f0: 007a c83c b29c de3b a15d 0bbd e7b3 c63c
00000100: 9f92 babc 1074 70bd 6dfc ffbb 6138 bfbd
00000110: 3d1a 4cbd 5fe7 e0bc 1666 b4bc 4699 f73c
00000120: 02f1 f23c 25b8 19bd 3a29 4c3d b3c5 a1bd
00000130: 8be9 1bbd 742d 6dbc 3d8c 693c d46f 89bd
00000140: 86e3 43ba d899 c2bd cde9 f93d b95f d5bd
00000150: 0ee7 de3c 81f9 d03d b014 053d de96 343d
00000160: 088d cebc d50a f6bc bf75 5b3d 594c 8e3b
00000170: 10b3 563d 4192 193d ab29 a43d ba68 51bd
00000180: 59b6 70bd 40ea 40bd 5e63 0e3c 81e5 de3d
00000190: 1bb4 a9bb c9ec 1b3a 9ea4 123c b623 8a3a
000001a0: 430d 8abd 7130 7b3d 3745 a33d b08f 21bd
000001b0: 2ffb 4fbd a958 4f3d 99a4 0bbe 2d75 203d
000001c0: 5ad0 b4bd 2cdd 8e3c 68b1 3d3d 7710 cd3d
000001d0: 0191 ab3d efcc 3ebd 95fa 263d 0baf 4bbd
000001e0: abaa cdba 6d21 97bd 5d07 9bb9 0ebd 5abd
000001f0: 42ca 553d 93d9 4a3d af2b 5b3a f61a 5c3d
00000200: e086 42bc 76ca ca3b 9fad 4ebc 63d6 653d
00000210: 3825 97bc 1022 dc3d 58ec 2f3d ba80 18bc
00000220: 0102 b1bc 2a4d 4bbd dc4b 7bbd fd81 a53c
00000230: f929 f13a fd36 833b 701d f13c 3051 f9bb
00000240: 5cf8 13bd 4be3 ab3d 5e72 edbc bfd3 a63d
00000250: 71d5 113d da9c 1e3d 7f9d 493c bd3a a83c
00000260: ea63 19bd fb86 82bd c9b1 aabd 0552 95bd
00000270: e332 7a3d 7d7d 1cbd ed7c ac3d 584f 72bd
00000280: 13c6 993d bf2b 773c d8a6 bd3b da1f 01bd
00000290: 3c75 92bd 251d 913d b146 0e3c 2508 4b3d
000002a0: 88b8 d0bb c552 d6bd 36f1 0fbc 8f39 c1bb
000002b0: 5b5a 2f3d 9608 b33c 23d9 8e3c be9d 34bd
000002c0: 3266 a1bd 81d0 55bd d87c 7bbb e582 543d
000002d0: 7525 c2bd 74de f73c 6b55 413d ff72 0d3e
000002e0: 6d30 debc ea57 713d 0d7b 2bbd 6207 98bd
000002f0: 5893 97bd 215f a53a cd87 e2bc dea9 913d
00000300: a9e7 8cbd ebf7 863d dcbb 623c c5a0 61bd
00000310: 51a9 61bd fb9e 06bd 1108 643d d036 e5bd
00000320: c019 0ebd 2e2a d1bd 5c37 793c 36a8 a0bd
00000330: 3115 a0bd 8379 fb3c 8757 443d b94b 32bd
00000340: 04b6 41bd 16cf debb 0733 5d3d 908a 9bbc
00000350: aa36 4abd ceef ef3c 953a 7d3d f9b2 433c
00000360: cc61 643c 20e1 8dbd b345 ff3d 71c6 9abd
00000370: 653a 093b 0510 063d 8b0c bd3d 1366 68bd
00000380: a853 71bd 9e33 273d 707f 753d 8aec 5c3d
00000390: c86f df3c 8df4 54bd 6173 63bd 6392 2abd
000003a0: 6879 9cbd 07eb 1ebd 8418 31bd 8a32 083d
000003b0: ea0e fa3c e00f 77bc 8710 aa3b 2e02 943d
000003c0: b519 b7bd ecb3 3bbb 6a6e b1bd 13af 183d
000003d0: 6c46 36bd a0df 4cbc ac71 c0bc a951 5b3d
000003e0: 9af1 a63d 9dcf 3bbd 821a fd3c 8492 a7bd
000003f0: a8ff dd3c 3495 90bd 431f 98bd 09e9 8e3d

fc2.bias f4 [64]
-0.011980787 -0.0179807 -0.078378946 -0.011511408 0.020644931 -0.0068314723 0.027759673 -0.0359094
0.00923264 0.065965995 0.05135867 -0.083025284 -0.015303994 0.0020958905 0.010472738 0.036457583
0.06811917 0.002559815 -0.026907243 0.0068024495 -0.05343468 -0.012387216 -0.050643176 -0.0747351
-0.04344767 -0.0072034607 0.02078249 0.053235233 0.042668078 -0.0819376 0.027596934 -0.009131882
0.008728035 -0.0711074 -0.081310034 -0.04030219 0.007792589 -0.064317346 -0.024759127 0.07673009
0.041174073 -0.04179282 0.06678854 -0.006883937 0.08121287 -0.037402898 0.07572117 -0.03835027
0.0035544767 -0.033015963 -0.0036696729 0.02754907 0.041794 0.036096312 -0.07348533 -0.06812607
-0.003347324 0.06417523 0.0718243 0.08430884 0.003058518 -0.0064607984 -0.019441122 0.030992622
00000000: 104b 44bc 434c 93bc 2485 a0bd 589a 3cbc
00000010: 8f1f a93c 8bda dfbb 4168 e33c bc15 13bd
00000020: 8044 173c 2e19 873d 785d 523d 2909 aabd
00000030: 9abd 7abc 355b 093b d995 2b3c 8c54 153d
00000040: 1082 8b3d 92c2 273b 946c dcbc 15e7 de3b
00000050: 53de 5abd c0f3 4abc 386f 4fbd b70e 99bd
00000060: 2ff6 31bd 020b ecbb 0a40 aa3c 300d 5a3d
00000070: b9c4 2e3d e7ce a7bd f712 e23c e49d 15bc
00000080: 0800 0f3c c2a0 91bd e085 a6bd e913 25bd
00000090: f958 ff3b d0b8 83bd a7d3 cabc aa24 9d3d
000000a0: 25a6 283d f32e 2bbd 6ec8 883d a692 e1bb
000000b0: ef52 a63d c833 19bd b313 9b3d 2c15 1dbd
000000c0: 39f2 683b bf3b 07bd e57e 70bb 96ae e13c
000000d0: 2f30 2b3d bad9 133d 7a7f 96bd ae85 8bbd
000000e0: c75e 5bbb 4e6e 833d 9e18 933d 1daa ac3d
000000f0: 6b71 483b 1bb5 d3bb fd42 9fbc 3de4 fd3c

bn2.weight f4 [64]
1.0845044 0.9950579 0.9652628 1.0620296 0.97797686 1.0446187 0.96248865 0.99468976
0.9744 1.0677328 0.9876513 1.013447 1.0663558 1.0019119 0.96183497 1.1243678
1.0648913 0.9637077 1.0009617 1.0875627 1.1474746 1.1346204 1.0086073 0.97679955
0.97171456 0.9613162 1.0231863 0.9743876 0.9579867 0.9588856 1.0396277 1.0273708
0.9812952 0.9826868 1.0761038 1.0244751 1.0272585 1.0034736 0.9636963 1.036203
0.9868915 1.1311533 0.983247 0.99309206 1.0561348 0.96772724 0.9486622 1.0225965
0.96784186 0.9651857 1.0024651 1.0509818 1.0250492 0.9665838 0.9807289 1.0064875
1.0244286 1.0061275 1.0635949 0.99203247 0.9534297 1.0037177 1.096213 1.0689557
00000000: 0ad1 8a3f 1dbc 7e3f 761b 773f 96f0 873f
00000010: b15c 7a3f 11b6 853f a865 763f fda3 7e3f
00000020: 4772 793f 78ab 883f b7d6 7c3f a2b8 813f
00000030: 597e 883f a63e 803f d13a 763f 49eb 8f3f
00000040: 5c4e 883f 8cb5 763f 831f 803f 4135 8b3f
00000050: 73e0 923f 3e3b 913f 0b1a 813f 890f 7a3f
00000060: 49c2 783f d218 763f c5f7 823f 7771 793f
00000070: 9e3e 753f 8779 753f 8512 853f e380 833f
00000080: 2a36 7b3f 5d91 7b3f c5bd 893f 0022 833f
00000090: 357d 833f d371 803f cdb4 763f 4da2 843f
000000a0: eca4 7c3f a2c9 903f 13b6 7b3f 483b 7e3f
000000b0: 6d2f 873f f9bc 773f 87db 723f 71e4 823f
000000c0: 7cc4 773f 6916 773f c750 803f 9286 863f
000000d0: d034 833f 0972 773f 0d11 7b3f 95d4 803f
000000e0: 7a20 833f c9c8 803f e123 883f d7f5 7d3f
000000f0: f813 743f d279 803f b550 8c3f 8ad3 883f

bn2.bias f4 [64]
0.07073377 -0.01976694 -0.023568291 0.042849947 -0.05286329 -0.07490372 -0.014965069 -0.05011591
0.0073312325 0.09088761 -0.01278924 0.015602674 0.08483347 0.059216656 -0.09730558 0.07919252
0.083408445 -0.046761695 -0.0006911226 0.07699219 0.09374007 0.05692418 -0.059804887 -0.07971225
0.003039957 -0.06646239 -0.06957049 -0.01842249 -0.046267748 -0.04731306 0.0784447 0.09422668
-0.037646364 -0.04447492 0.052946538 0.019836828 0.0120456545 0.005798506 -0.07815751 0.05846908
0.02029855 0.11915585 0.00569585 0.022669705 0.032928105 -0.01690539 -0.073913075 -0.06646667
-0.10449511 -0.031846076 0.052712172 0.00736779 0.052933224 -0.08665214 -0.04307389 -0.030391874
0.051946536 -0.014888365 0.06023103 -0.0069612903 -0.05977639 0.009403086 0.06840281 0.057525538
00000000: dedc 903d 47ee a1bc 4a12 c1bc 6d83 2f3d
00000010: 2d87 58bd 1f67 99bd 0c30 75bc 5746 4dbd
00000020: d63a f03b 4923 ba3d f689 51bc 5ca2 7f3c
00000030: 2cbd ad3d 2a8d 723d 2648 c7bd b02f a23d
00000040: 0cd2 aa3d 3189 3fbd 742c 35ba 15ae 9d3d
00000050: cbfa bf3d 5429 693d f8f5 74bd 2d40 a3bd
00000060: 043a 473b 6f1d 88bd f97a 8ebd c3ea 96bc
00000070: 4083 3dbd 57cb 41bd 9da7 a03d ebf9 c03d
00000080: 1333 1abd 552b 36bd 78de 583d d880 a23c
00000090: 235b 453c 6501 be3b 0b11 a0bd 467d 6f3d
000000a0: 2549 a63c fb07 f43d 41a4 ba3b d1b5 b93c
000000b0: 9fdf 063d 2c7d 8abc bd5f 97bd ad1f 88bd
000000c0: 8801 d6bd 0871 02bd b8e8 573d 816d f13b
000000d0: 82d0 583d ad76 b1bd 3f6e 30bd 61f8 f8bc
000000e0: e4c5 543d 54ee 73bc d0b4 763d 891b e4bb
000000f0: 17d8 74bd 670f 1a3c c616 8c3d e69f 6b3d

bn2.running_mean f4 [64]
0.018786475 -0.03621604 -0.68934566 -0.1592645 -0.31011856 0.18215476 -0.37047368 -0.089947924
-0.0052696797 0.13454285 -0.35136312 -0.24625908 -0.40068087 -0.4596106 -0.17413597 -0.10485476
0.11655694 0.034053493 -0.2552752 -0.10289194 -0.2967161 -0.13251585 0.123929754 -0.60841984
-0.15940392 0.17060174 0.252409 -0.20689298 -0.091187656 0.12746435 0.2533155 0.09234525
-0.04024946 -0.045723934 -0.26366007 -0.36597902 -0.47492135 -0.39108047 -0.44187284 -0.30444667
-0.36285946 -0.060015075 -0.16760485 -0.22002311 -0.39003986 -0.07928171 0.20072122 0.111127466
-0.02865152 -0.14921373 -0.13160144 0.08450483 -0.014189611 -0.10513719 -0.4423137 -0.3082438
-0.24769428 -0.2769409 0.08834685 -0.107165895 -0.20789754 -0.20529963 -0.05966136 -0.16819742
00000000: 18e6 993c 4557 14bd f578 30bf 3c16 23be
00000010: dcc7 9ebe c786 3a3e baae bdbe 9e36 b8bd
00000020: 47ad acbb 9ac5 093e dee5 b3be 572b 7cbe
00000030: 0b26 cdbe 1552 ebbe b350 32be 18be d6bd
00000040: 68b5 ee3d ad7b 0b3d 6eb3 82be 02b9 d2bd
00000050: 2ceb 97be 3cb2 07be e2ce fd3d 67c1 1bbf
00000060: c83a 23be 39b2 2e3e c13b 813e c1db 53be
00000070: 98c0 babd 0486 023e 92b2 813e 821f bd3d
00000080: 9edc 24bd 0549 3bbd 74fe 86be 9a61 bbbe
00000090: e428 f3be b33b c8be 283d e2be 6fe0 9bbe
000000a0: b7c8 b9be 5ed2 75bd 9ba0 2bbe bd4d 61be
000000b0: 4eb3 c7be 735e a2bd dd89 4d3e cc96 e33d
000000c0: 98b6 eabc 7ccb 18be 87c2 06be de10 ad3d
000000d0: 8b7b 68bc 2b52 d7bd f176 e2be 22d2 9dbe
000000e0: 92a3 7dbe 33cb 8dbe 31ef b43d cb79 dbbd
000000f0: 18e3 54be 113a 52be 785f 74bd f23b 2cbe

bn2.running_var f4 [64]
1.3697523 0.6117105 1.264695 0.9507553 0.33491114 0.7012804 1.1844249 0.47948396
0.50749886 1.0344673 0.82658744 0.49171802 0.8922135 0.7194531 0.29453957 0.7680457
0.8598494 0.35060123 0.9554777 0.94353473 0.85237956 0.7723342 0.8943261 0.41673553
0.6282375 0.22462991 1.174981 0.86192375 0.59043276 0.37659642 0.59829974 0.7174019
0.59524447 0.7129182 0.8364147 0.7785537 0.5679298 0.55666137 0.6389465 0.490602
0.6821554 0.6146201 0.81177807 0.29325366 0.6747742 0.30443493 0.2233893 0.9161713
0.41067073 0.5274905 0.4587042 0.8985969 0.92907584 0.34380695 0.5009411 0.55255485
0.8278395 0.50344396 0.6608417 0.43111178 0.77288204 0.31890306 0.4768797 0.39958817
00000000: 0b54 af3f 0f99 1c3f 87e1 a13f b364 733f
00000010: 7979 ab3e 1d87 333f 3c9b 973f ec7e f53e
00000020: 72eb 013f 6d69 843f 3c9b 533f 77c2 fb3e
00000030: 1b68 643f 142e 383f e4cd 963e a59e 443f
00000040: 171f 5c3f 0182 b33e 309a 743f 7e8b 713f
00000050: 8c35 5a3f b2b7 453f 8ef2 643f 5c5e d53e
00000060: 2cd4 203f 6205 663e c765 963f 09a7 5c3f
00000070: 9a26 173f 3fd1 c03e 2c2a 193f a7a7 373f
00000080: f161 183f cf81 363f 461f 563f 4c4f 473f
00000090: d963 113f 5c81 0e3f ff91 233f 2f30 fb3e
000000a0: bca1 2e3f be57 1d3f b0d0 4f3f 5825 963e
000000b0: 01be 2c3f e5de 9b3e 2ac0 643e 348a 6a3f
000000c0: 6f43 d23e 9e09 073f 47db ea3e 720a 663f
000000d0: ead7 6d3f 7707 b03e ad3d 003f 3c74 0d3f
000000e0: 4aed 533f b4e1 003f ec2c 293f afba dc3e
000000f0: 99db 453f 4347 a33e 9329 f43e d296 cc3e

fc3.weight f4 [32, 64]
-0.1380042 -0.11865713 0.08160717 -0.12952742 0.10666629 0.09121791 0.101472415 -0.10165773
0.025383385 0.020123374 -0.075613715 0.05580413 0.095226176 0.0492452 0.107579164 -0.10177451
-0.12699074 0.052874234 -0.052451383 -0.0643893 -0.123845175 -0.12269781 -0.084563196 -0.107749
-0.049856704 -0.11379337 0.031643845 0.038116895 -0.02856665 -0.097536765 -0.00019045641 -0.09855046
0.12140454 -0.014312965 -0.014617372 -0.01776794 0.014537096 0.017192312 0.112085246 -0.047082547
0.09325426 -0.13016503 0.0013859263 -0.017624963 0.042721506 0.07694319 -0.12424001 0.07196833
-0.030757884 0.060278695 0.023925537 0.05489718 -0.023801822 0.098104075 -0.06593757 0.106224075
0.0625256 0.075612806 0.062477767 0.07579981 0.043606453 -0.08469973 0.042427313 0.14625575
-0.06982387 -0.12664452 0.10327596 -0.07830838 0.06856409 0.025960548 0.00052506116 0.034705587
0.010517071 0.018573537 -0.029408133 -0.0905694 0.046884503 -0.005936601 -0.033171516 0.024703829
-0.010799631 0.03216326 -0.06662005 -0.054642554 0.009578103 0.02815348 0.11129322 0.07958394
0.09150476 0.0084301 0.09927688 -0.11137544 0.020338973 0.03351939 -0.059445154 -0.041533727
0.035663307 0.063973986 0.07244008 -0.07077024 0.06517716 -0.07560898 -0.1118109 -0.14891563
0.048065446 -0.17028162 0.100476794 0.06497062 0.07952326 0.10142039 -0.07144416 -0.019438919
-0.03507224 0.09826355 -0.14507832 -0.07827223 -0.111276895 0.01158155 -0.034797337 -0.020353567
0.055373576 0.118648455 -0.10443638 0.07412514 0.067889825 -0.09734842 -0.10507317 0.14202137
-0.00608845 0.024448218 0.09438879 0.074138194 0.03788751 -0.09771063 -0.028982835 0.114557855
0.06560027 -0.032333486 0.085506 -0.18837099 0.052796356 -0.069266066 0.0925914 -0.20163992
-0.06499725 0.058301736 -0.023686338 -0.1599892 -0.048324067 -0.009946489 -0.06375378 -0.07840519
-0.030589303 -0.031178797 -0.1241103 -0.0021240811 0.114280574 0.026718467 -0.11556249 -0.1418735
-0.038495235 -0.08565845 -0.009272001 0.023874376 0.03297905 0.0041864365 0.07185102 -0.03385372
-0.04689442 -0.11561173 0.04725522 -0.06819991 -0.0029660487 0.00022654391 0.042082496 -0.052789453
0.024927318 -0.089653745 -0.07433038 0.023562402 -0.117232725 0.04558825 0.06398876 -0.06948056
0.050363958 0.03610623 -0.07662601 -0.005762009 0.017364113 0.080669574 0.044770274 -0.050460093
-0.13877493 -0.16374901 0.030380098 -0.03640645 -0.11711723 -0.04206547 -0.047164924 -0.032627676
0.094149224 -0.089707345 0.026270088 -0.17819732 0.03200086 -0.016537355 0.005818672 -0.15967812
-0.09297944 0.05595429 -0.07716499 0.0099274935 -0.1894328 0.03698277 -0.06090699 -0.116092004
-0.105558835 -0.09414949 0.042214014 -0.027499767 0.048924927 0.062366195 -0.11440612 0.028374325
-0.016830754 -0.029594524 0.074853055 0.011055516 -0.004133059 0.07436391 -0.040672187 -0.0066261734
0.0777121 -0.141024 0.01015261 -0.01157742 0.030176839 0.015826298 -0.08697533 -0.107331686
0.047090158 -0.060132243 -0.16504112 -0.03588787 -0.05848501 0.008207285 0.061146382 0.07365279
-0.027893655 0.030390387 -0.14968102 0.077463396 0.00425829 0.020566467 0.04389117 -0.058178227
00000000: f950 0dbe 8202 f3bd a921 a73d d6a2 04be
00000010: db73 da3d 75d0 ba3d c5d0 cf3d ee31 d0bd
00000020: d1f0 cf3c c6d9 a43c 5ddb 9abd df92 643d
00000030: f105 c33d 56b5 493d 7752 dc3d 286f d0bd
00000040: dc09 02be a792 583d 43d7 56bd 8ade 83bd
00000050: 8aa2 fdbd fd48 fbbd 782f adbd 82ab dcbd
00000060: 8b36 4cbd 800c e9bd fa9c 013d 7620 1c3d
00000070: 9b04 eabc 5bc1 c7bd 41b5 47b9 d3d4 c9bd
00000080: f2a2 f83d ed80 6abc b47d 6fbc 128e 91bc
00000090: 002d 6e3c e4d6 8c3c f38c e53d a1d9 40bd
000000a0: 17fc be3d fb49 05be f8a7 b53a 3a62 90bc
000000b0: bffc 2e3d 6494 9d3d 8c71 febd 2264 933d
000000c0: f5f7 fbbc cbe6 763d 7dff c33c dedb 603d
000000d0: 0afc c2bc caea c83d 470a 87bd 028c d93d
000000e0: 6c0d 803d e3da 9a3d b0e8 7f3d ee3c 9b3d
000000f0: ae9c 323d 0d77 adbd 43c8 2d3d 11c4 153e
00000100: d1ff 8ebd 1aaf 01be 5982 d33d 2560 a0bd
00000110: 546b 8c3d 37ab d43c 42a4 093a 7227 0e3d
00000120: cb4f 2c3c 8827 983c 53e9 f0bc 737c b9bd
00000130: f709 403d d287 c2bb dbde 07bd af5f ca3c
00000140: eff0 30bc 9fbd 033d 1870 88bd dfd0 5fbd
00000150: 7aed 1c3c 20a2 e63c b3ed e33d e8fc a23d
00000160: d966 bb3d 671e 0a3c ad51 cb3d cf18 e4bd
00000170: eb9d a63c a14b 093d c37c 73bd 451f 2abd
00000180: b013 123d cb04 833d 775b 943d fdef 90bd
00000190: 9a7b 853d e2d8 9abd 1dfd e4bd 577d 18be
000001a0: 46e0 443d 4e5e 2ebe c7c6 cd3d 510f 853d
000001b0: 17dd a23d 7eb5 cf3d 5151 92bd 5e3e 9fbc
000001c0: e9a7 0fbd 663e c93d 698f 14be 314d a0bd
000001d0: 24e5 e3bd 8bc0 3d3c a787 0ebd 86bc a6bc
000001e0: 67cf 623d f6fd f23d bee2 d5bd ecce 973d
000001f0: d209 8b3d 9c5e c7bd 9a30 d7bd 0d6e 113e
00000200: 9f81 c7bb a147 c83c e94e c13d c4d5 973d
00000210: ef2f 1b3d 831c c8bd 696d edbc 4f9d ea3d
00000220: 6f59 863d 1e70 04bd c51d af3d 53e4 40be
00000230: fe40 583d 5edb 8dbd 8fa0 bd3d b27a 4ebe
00000240: 471d 85bd cdcd 6e3d da09 c2bc 35d4 23be
00000250: 75ef 45bd 99f6 22bc 5891 82bd e692 a0bd
00000260: 6b96 fabc ad6a ffbc 8a2d febd 2b34 0bbb
00000270: ef0b ea3d b0e0 da3c 07ac ecbd 4947 11be
00000280: 2ead 1dbd b36d afbd 97e9 17bc 3294 c33c
00000290: 0a15 073d 602e 893b a126 933d 33aa 0abd
000002a0: 5d14 40bd d8c5 ecbd b18e 413d 65ac 8bbd
000002b0: 0a62 42bb 6b8c 6d39 b25e 2c3d c139 58bd
000002c0: 6034 cc3c 629c b7bd 873a 98bd f005 c13c
000002d0: b617 f0bd bfba 3a3d 8a0c 833d d34b 8ebd
000002e0: 704a 4e3d 20e4 133d 19ee 9cbd 3ccf bcbb
000002f0: 2f3f 8e3c 1736 a53d 0961 373d 3eaf 4ebd
00000300: 041b 0ebe d2ad 27be afdf f83c ee1e 15bd
00000310: 29db efbd d84c 2cbd 0230 41bd 99a4 05bd
00000320: 4fd1 c03d 7cb8 b7bd 5e34 d73c 5c79 36be
00000330: 5513 033d 5979 87bc 8faa be3b a982 23be
00000340: 016c bebd 5330 653d ae08 9ebd eda6 223c
00000350: acfa 41be 3f7b 173d 9c79 79bd a5c1 edbd
00000360: 3b2f d8bd 73d1 c0bd 9ae8 2c3d 3147 e1bc
00000370: 8165 483d b273 7f3d c14d eabd 4671 e83c
00000380: a6e0 89bc 3770 f2bc 8f4c 993d 3222 353c
00000390: 9d6e 87bb 1b4c 983d e197 26bd 5f20 d9bb
000003a0: 8627 9f3d 9868 10be 2257 263c 38af 3dbc
000003b0: 6b35 f73c 27a6 813c 1f20 b2bd b7d0 dbbd
000003c0: 9ce1 403d 3a4d 76bd 8a00 29be 29ff 12bd
000003d0: fa8d 6fbd d977 063c a174 7a3d 46d7 963d
000003e0: 3c81 e4bc 43f5 f83c fb45 19be 21a5 9e3d
000003f0: 2089 8b3b 027b a83c 3ac7 333d 4b4c 6ebd

fc3.bias f4 [32]
0.09839315 0.062376406 0.10709727 0.08980115 -0.12051963 0.039433084 0.046638593 0.07122367
0.038248017 0.11650366 0.05501092 0.09620238 -0.06952196 -0.10844334 0.029571433 -0.11539652
0.07333656 -0.0376679 0.116518244 0.0028559582 0.09325447 -0.021203164 0.102448516 -0.048001267
-0.05915847 -0.07776075 0.05984556 0.02213556 0.01760464 0.10887101 -0.066705845 -0.11149634
00000000: 5982 c93d 677e 7f3d d055 db3d aae9 b73d
00000010: ffd2 f6bd 9684 213d 1c08 3f3d b7dd 913d
00000020: f4a9 1c3d 7999 ee3d 2153 613d c105 c53d
00000030: 8861 8ebd 8b17 debd ca3f f23c 0355 ecbd
00000040: 7a31 963d a849 1abd 1ea1 ee3d 072b 3b3b
00000050: 33fc be3d 42b2 adbc 87d0 d13d fa9c 44bd
00000060: 2750 72bd 0741 9fbd 9e20 753d a255 b53c
00000070: 9b37 903c c4f7 de3d 139d 88bd 3158 e4bd

bn3.weight f4 [32]
0.9176186 0.9373249 1.0323144 1.0233675 1.0683438 1.128345 0.93290013 0.9342333
0.93109274 0.9824726 1.0499407 1.0359988 0.9430331 0.97341025 0.9748424 1.0073322
1.097969 1.0814044 1.0466313 1.0269432 1.1960894 1.0654652 0.9658886 1.065289
0.9123062 1.0017171 0.9597 1.0696096 0.9559631 0.9174012 1.1749507 0.9448804
00000000: 0de9 6a3f 86f4 6f3f e122 843f b5fd 823f
00000010: 7dbf 883f 9c6d 903f 8bd2 6e3f ea29 6f3f
00000020: 185c 6e3f 5383 7b3f 7564 863f 9c9b 843f
00000030: 9e6a 713f 6a31 793f 468f 793f 43f0 803f
00000040: 408a 8c3f 766b 8a3f 04f8 853f e072 833f
00000050: 7519 993f 2a61 883f 7a44 773f 645b 883f
00000060: e68c 693f 4438 803f e6ae 753f f8e8 883f
00000070: ffb9 743f ceda 6a3f c964 963f afe3 713f

bn3.bias f4 [32]
-0.10048123 0.025907803 0.029594487 0.06409787 0.19499761 0.07439892 -0.04651245 -0.04309542
-0.014864101 0.00744696 -0.11204545 -0.08615793 -0.037531357 -0.009444358 0.0077682403 0.046201617
0.06450493 0.057630464 0.10946941 -0.0067101447 0.20039617 0.103193425 0.062531054 -0.061767258
-0.10040175 -0.05987707 -0.096657276 0.085445814 -0.062282257 -0.07806865 0.16310279 -0.010785331
00000000: 1ac9 cdbd 9a3c d43c 2370 f23c be45 833d
00000010: 74ad 473e 765e 983d d783 3ebd d384 30bd
00000020: 8f88 73bc a105 f43b 1678 e5bd 9273 b0bd
00000030: 7bba 19bd 82bc 1abc b98c fe3b e83d 3d3d
00000040: 291b 843d ec0d 6c3d 7f31 e03d c6e0 dbbb
00000050: a734 4d3e 1357 d33d 4810 803d aaff 7cbd
00000060: 6f9f cdbd a941 75bd 40f4 c5bd 37fe ae3d
00000070: ae1b 7fbd 75e2 9fbd 6b04 273e f5b4 30bc

bn3.running_mean f4 [32]
-0.10404983 -0.11091778 -0.23926954 -0.40354165 -0.15862171 -0.72098935 0.114767335 -0.155502
-0.4466682 -0.21140139 0.09996639 0.4575543 -0.403432 -0.69683135 -0.36109617 -0.7190133
-0.4658127 -0.7054925 -0.10411648 -0.60458124 -0.17450055 -0.3108773 -0.44541186 -0.016773405
-0.44955194 -0.38178706 -0.0840303 -0.44284242 -0.68993235 -0.08856044 -0.56281865 -0.37385902
00000000: 1418 d5bd dc28 e3bd 1303 75be 039d cebe
00000010: bb6d 22be c292 38bf 230b eb3d eb3b 1fbe
00000020: b2b1 e4be 9b79 58be 2ebb cc3d 8f44 ea3e
00000030: a48e cebe 8a63 32bf 99e1 b8be 4111 38bf
00000040: 017f eebe 289b 34bf 053b d5bd d6c5 1abf
00000050: 46b0 32be 4f2b 9fbe 060d e4be 6168 89bc
00000060: ac2b e6be 9879 c3be 1418 acbd 3ebc e2be
00000070: 689f 30bf 2d5f b5bd e214 10bf 736a bfbe

bn3.running_var f4 [32]
0.83166236 0.97442085 0.90554404 1.046646 0.9200438 0.96871185 0.6478674 0.4234718
0.500986 0.93489265 0.5385629 0.63331807 0.7441277 0.652444 1.0576923 1.0966327
1.349655 0.73250496 0.9889804 0.3574492 1.4064323 0.79998624 1.163002 0.68179643
0.59395903 0.45630237 0.70239043 1.443255 0.44071454 0.68212575 0.8512365 0.66852725
00000000: d3e7 543f a573 793f bcd1 673f 7ff8 853f
00000010: fe87 6b3f 80fd 773f a3da 253f 4cd1 d83e
00000020: 9e40 003f 2055 6f3f 42df 093f 2221 223f
00000030: 277f 3e3f 9206 273f 7662 873f 765e 8c3f
00000040: 7fc1 ac3f 7285 3b3f d22d 7d3f 9503 b73e
00000050: f905 b43f e6cb 4c3f 40dd 943f 368a 2e3f
00000060: b30d 183f 77a0 e93e dccf 333f 94bc b83f
00000070: 56a5 e13e cb9f 2e3f a3ea 593f 9a24 2b3f
