MELOSDP/SDP/chkpt/mc1/linear/2/sdp_classifier_linear-580.pth (torch, 77408 bytes, 25 tensors)

fc1.weight f4 [128, 38]
-0.10835715 0.031091139 -0.12685125 -0.088173985 -0.113112465 0.1366727 -0.13523366 -0.13797624
0.02287789 0.09381081 -0.02388131 0.016666496 0.12859242 0.039130088 0.11164757 -0.13085103
0.039552838 0.060611784 -0.09714066 -0.028729977 -0.108426005 -0.0891123 0.034549773 -0.0014185753
-0.07747758 0.14787042 0.06504904 0.019787611 0.046495628 -0.12689407 0.16251695 0.026957562
0.0057354462 -0.012285078 0.07303932 -0.005274844 0.1841554 -0.15828417 0.14140753 -0.06237
0.1283151 -0.08972571 -0.053644333 0.111395694 -0.017168757 0.0705555 -0.0012170249 -0.09557474
-0.020155178 0.11201457 -0.0075947638 -0.06785778 0.07276849 -0.13435213 0.14142837 -0.0109188305
-0.14411648 -0.113488734 -0.08491208 0.088630125 0.16997145 0.12616412 0.009975574 -0.08995777
-0.027419075 0.012342886 0.10834198 0.12528187 0.19240202 0.102082044 -0.03317836 -0.16076589
0.09758457 0.084263444 0.091197304 -0.13709354 -0.32686833 -0.03128371 -0.1603541 0.10296016
-0.1924871 -0.12198394 -0.023133524 -0.0011313104 -0.08451731 0.13123018 -0.007971287 -0.15596676
0.0048820702 0.06262024 0.08797203 0.06350115 0.1499984 -0.0019164929 -0.14622289 -0.036377564
0.03226226 -0.0638358 -0.050036438 -0.0002958532 0.02200855 0.04971583 0.019315332 0.10090482
-0.14331588 0.045675363 -0.09581386 0.13289994 0.20730492 -0.16037613 0.090906456 -0.04454064
0.15690103 -0.030774929 -0.15635517 -0.07649569 0.06962936 0.13623224 0.10030752 0.08482611
-0.1049509 0.22537148 0.23534735 -0.040113542 0.112366565 0.0032518576 0.017411439 -0.007468815
0.06433914 -0.019605363 -0.078660734 0.16641192 -0.03799098 0.057394806 0.039775062 -0.026949167
0.0035586578 0.06932702 -0.0010878799 -0.011871062 0.07362813 0.09842188 0.05514006 -0.08581509
0.16912241 0.037317276 -0.0643033 0.043153737 0.072321445 -0.0058728037 -0.015990835 -0.058894515
-0.13100243 0.06767963 -0.07086222 0.06968218 -0.18738058 0.0040482506 -0.036358498 0.042062953
0.044937924 0.08117799 -0.10866666 0.093130365 -0.10696775 -0.17703989 -0.09449326 -0.17656533
0.16951163 0.0143730035 0.04316187 0.04521361 -0.12667711 -0.13416298 -0.12705518 -0.06709169
-0.06558872 -0.08435221 0.17030649 0.057663433 0.13012086 -0.12545443 0.039867453 0.14322312
-0.06603695 0.03088062 0.098414786 0.10075996 -0.05828785 0.14838614 -0.10892544 0.11271895
-0.06738131 0.07757607 0.09952913 0.039432026 -0.11467917 -0.18237305 0.10150045 -0.09841019
0.08107714 0.023037517 -0.10293842 0.09869837 0.13018885 -0.05177179 -0.039129302 0.022354018
-0.09822393 0.05131715 -0.038137842 -0.06494926 0.14110714 -0.059086483 0.028915841 -0.026420742
-0.0018463179 -0.0064859944 -0.020126354 0.08625416 -0.11261742 0.054102916 0.054969646 -0.10991094
-0.10951919 -0.047947973 -0.12989743 -0.10868936 0.016226588 -0.10345439 0.09278932 -0.15472825
-0.02829762 0.012481394 -0.023851443 -0.14709659 0.008901664 0.12921841 -0.08945058 0.08572117
-0.03337954 -0.1429191 0.0949838 -0.14010455 -0.1811009 -0.14694968 -0.023697566 0.04063088
0.13717039 0.03271594 0.092271805 0.18644395 0.07646741 0.12392867 0.06533218 0.07028047
00000000: 5aea ddbd d8b2 fe3c 4be5 01be 9094 b4bd
00000010: 82a7 e7bd eef3 0b3e b17a 0abe a549 0dbe
00000020: 6a6a bb3c e21f c03d bda2 c3bc 2d88 883c
00000030: bbad 033e df46 203d 7ba7 e43d d0fd 05be
00000040: 2802 223d 1044 783d aff1 c6bd 215b ebbc
00000050: 740e debd 8280 b6bd 1084 0d3d 7def b9ba
00000060: 91ac 9ebd 586b 173e 6e38 853d a119 a23c
00000070: 3372 3e3d 85f0 01be d86a 263e 1bd6 dc3c
00000080: 69f0 bb3b 5a47 49bc a495 953d 99d8 acbb
00000090: 3c93 3c3e 3f15 22be 23cd 103e af77 7fbd
000000a0: 0965 033e 1dc2 b7bd 29ba 5bbd 6d23 e43d
000000b0: 7ea5 8cbc 677f 903d 9484 9fba b0bc c3bd
000000c0: 791c a5bc e567 e53d 7fdd f8bb 05f9 8abd
000000d0: a507 953d 9b93 09be 99d2 103e e5e4 32bc
000000e0: 4593 13be c86c e8bd 62e6 adbd b683 b53d
000000f0: ff0c 2e3e 2b31 013e 9770 233c c83b b8bd
00000100: f89d e0bc d139 4a3c 66e2 dd3d e449 003e
00000110: 0905 453e 6410 d13d 08e6 07bd d09f 24be
00000120: 6bda c73d 5092 ac3d a7c5 ba3d 4062 0cbe
00000130: 495b a7be 5923 00bd dd33 24be c7dc d23d
00000140: 571b 45be b7d2 f9bd 8482 bdbc 7a48 94ba
00000150: 6917 adbd 3461 063e 009a 02bc c0b5 1fbe
00000160: c6f9 9f3b 0a3f 803d ae2a b43d e40c 823d
00000170: 2e99 193e d532 fbba 74bb 15be a400 15bd
00000180: 6e25 043d 58bc 82bd 02f3 4cbd bf1c 9bb9
00000190: 464b b43c d3a2 4b3d 303b 9e3c 30a7 ce3d
000001a0: 66c1 12be 1716 3b3d 0f3a c4bd ec16 083e
000001b0: be47 543e a439 24be 2a2d ba3d 3f70 36bd
000001c0: aaaa 203e b41b fcbc 921b 20be c6a9 9cbd
000001d0: d799 8e3d 7780 0b3e 076e cd3d 50b9 ad3d
000001e0: 7ff0 d6bd c8c7 663e e5fe 703e 194e 24bd
000001f0: 7120 e63d 1e1d 553b 6fa2 8e3c f6bc f4bb
00000200: 3dc4 833d 6d9b a0bc e118 a1bd e367 2a3e
00000210: 6e9c 1bbd d116 6b3d 2deb 223d 80c4 dcbc
00000220: 5f38 693b 53fb 8d3d 3197 8eba d87e 42bc
00000230: 58ca 963d 6991 c93d 8bda 613d d2bf afbd
00000240: 6d2e 2d3e 00da 183d 73b1 83bd f9c1 303d
00000250: 441d 943d a670 c0bb 36ff 82bc 603b 71bd
00000260: 8025 06be 9e9b 8a3d 3620 91bd 88b5 8e3d
00000270: b2e0 3fbe 30a7 843b a6ec 14bd 344a 2c3d
00000280: d410 383d a540 a63d a08c debd 22bb be3d
00000290: e811 dbbd f249 35be af85 c1bd 8bcd 34be
000002a0: 7594 2d3e bf7c 6b3c 80ca 303d e831 393d
000002b0: a5b7 01be 0562 09be c11a 02be 5e67 89bd
000002c0: 6153 86bd dac0 acbd d364 2e3e 7e30 6c3d
000002d0: 673e 053e 2077 00be 0e4c 233d 15a9 123e
000002e0: 613e 87bd 5bf9 fc3c b18d c93d 3d5b ce3d
000002f0: 3ebf 6ebd 89f2 173e 4d14 dfbd 31d9 e63d
00000300: 36ff 89bd 34e0 9e3d eed5 cb3d 7a83 213d
00000310: eadc eabd 00c0 3abe 78df cf3d 488b c9bd
00000320: c60b a63d 2db9 bc3c 61d1 d2bd 5f22 ca3d
00000330: 3a50 053e a80e 54bd 0c46 20bd c61f b73c
00000340: a129 c9bd ef31 523d 6d36 1cbd 1e04 85bd
00000350: 647e 103e ab04 72bd eae0 ec3c 5070 d8bc
00000360: 2600 f2ba 7788 d4bb 06e0 a4bc 05a6 b03d
00000370: f6a3 e6bd 059b 5d3d da27 613d fd18 e1bd
00000380: 994b e0bd 1865 44bd d503 05be 8798 debd
00000390: 9fed 843c e5df d3bd 5408 be3d 1571 1ebe
000003a0: 69d0 e7bc c37e 4c3c 1a64 c3bc 7da0 16be
000003b0: 49d8 113c d551 043e de31 b7bd 958e af3d
000003c0: fcb8 08bd 6259 12be de86 c23d 9177 0fbe
000003d0: 8472 39be fa79 16be 6621 c2bc 916c 263d
000003e0: 6576 0c3e 2601 063d 00f9 bc3d 2aeb 3e3e
000003f0: f29a 9c3d 51ce fd3d e1cc 853d 35ef 8f3d

fc1.bias f4 [128]
-0.1290336 -0.14991589 -0.107918814 0.020584747 0.1452681 0.088676 0.026700152 -0.077613056
-0.11340639 0.06340368 0.10419859 -0.024775814 0.10934227 0.034509793 0.032607645 0.15053551
-0.15879372 0.16073549 -0.14324984 0.034151666 0.06135614 -0.030646738 -0.14644825 0.050467785
0.05970882 0.08378241 0.04834149 -0.116575 -0.14206888 0.1363605 -0.051125493 0.1373773
0.16193514 -0.14179774 -0.14724763 0.05622377 0.094689935 0.062066663 -0.102752045 -0.07886968
0.15404463 0.07087638 0.08410055 0.01457186 -0.1120673 0.121306 -0.057171807 0.07220183
-0.09146496 0.020327777 0.012373173 0.12066431 0.01279891 0.15471935 0.08721312 -0.07748855
-0.11475753 0.056934115 -0.14525443 -0.05816494 0.1320245 -0.15558694 -0.053832315 0.018876731
-0.14878897 0.15950689 0.09205827 -0.15036598 0.03636377 -0.07290369 -0.123823434 0.020762457
0.059972696 0.15249823 -0.004322635 -0.107989065 0.10545621 -0.15417854 0.123218864 -0.16061173
-0.13428803 0.10915814 0.06342915 0.027753804 -0.09782544 0.13833362 -0.03820064 -0.075993866
-0.082119554 -0.130827 0.09410463 -0.1213185 -0.03933572 0.0155041395 0.09844822 0.1179842
-0.06693209 0.01635728 0.021839747 -0.10389986 -0.0978606 0.15951692 -0.015585751 -0.11704576
-0.13157971 0.04943022 0.10324509 -0.121467926 0.070241176 -0.11295066 -0.14739148 0.04481288
-0.05478103 -0.06953357 0.1264917 0.11405172 -0.0637753 0.14166048 -0.120185986 -0.051540114
0.075033225 -0.050319042 0.14930712 -0.024630342 0.0024946448 -0.010209218 -0.09276538 -0.12792721
00000000: 6221 04be 8d83 19be 8a04 ddbd 58a1 a83c
00000010: 29c1 143e c39b b53d 47ba da3c 98f3 9ebd
00000020: 9c41 e8bd cad9 813d 1266 d53d a6f6 cabc
00000030: d7ee df3d 245a 0d3d 988f 053d fb25 1a3e
00000040: d29a 22be d897 243e 16b0 12be 9ee2 0b3d
00000050: 9350 7b3d de0e fbbc 88f6 15be 4fb7 4e3d
00000060: 3c91 743d 1d96 ab3d ba01 463d e0be eebd
00000070: 817a 11be 16a2 0b3e f768 51bd a3ac 0c3e
00000080: 53d2 253e 6d33 11be 15c8 16be e54a 663d
00000090: ccec c13d 9d39 7e3d aa6f d2bd 6d86 a1bd
000000a0: e0bd 1d3e a327 913d e93c ac3d d0be 6e3c
000000b0: 8a83 e5bd 486f f83d fc2c 6abd 8ede 933d
000000c0: fb51 bbbd 7086 a63c d9b8 4a3c da1e f73d
000000d0: 85b2 513c c06e 1e3e cb9c b23d 51b2 9ebd
000000e0: ff05 ebbd bf33 693d 94bd 14be 5c3e 6ebd
000000f0: 6e31 073e 2f52 1fbe 467f 5cbd 60a3 9a3c
00000100: 235c 18be c655 233e 0c89 bc3d 8af9 19be
00000110: 2df2 143d 884e 95bd 2497 fdbd 0716 aa3c
00000120: eea5 753d 7f28 1c3e e4a4 8dbb 5f29 ddbd
00000130: 6df9 d73d fbe0 1dbe 2c5a fc3d 6777 24be
00000140: cd82 09be 4e8e df3d 24e7 813d f25b e33c
00000150: b458 c8bd 54a7 0d3e 4678 1cbd aca2 9bbd
00000160: 4c2e a8bd 83f7 05be eeb9 c03d d575 f8bd
00000170: 7e1e 21bd 1305 7e3c 389f c93d b3a1 f13d
00000180: b113 89bd b4ff 853c 45e9 b23c 73c9 d4bd
00000190: 236b c8bd 6758 233e 615b 7fbc b0b5 efbd
000001a0: d5bc 06be 5877 4a3d 2972 d33d 2dc4 f8bd
000001b0: 9bda 8f3d ad52 e7bd cbed 16be b68d 373d
000001c0: 1362 60bd 9e67 8ebd 0a87 013e f393 e93d
000001d0: a09c 82bd 720f 113e 1224 f6bd ba1b 53bd
000001e0: 05ab 993d 571b 4ebd f7e3 183e 92c5 c9bc
000001f0: 327d 233b 9044 27bc c7fb bdbd 5aff 02be

bn1.weight f4 [128]
1.1257782 0.9665632 1.1266246 1.2177889 0.94428927 0.97813064 0.9587002 0.9798513
1.0073875 0.9897311 0.9855123 1.0812336 1.1548011 1.0129645 0.96948135 0.99788487
0.9374011 1.0443871 0.9648927 1.0158643 1.004687 0.96589637 1.0137535 1.1195546
0.9729786 1.0389847 0.94264984 1.0065079 1.0817157 1.052895 1.1856432 1.0976515
0.9765887 1.2597021 0.94671446 1.1058542 0.97263366 0.97928935 0.97785187 1.067005
0.99958026 0.98379475 0.9847955 0.9606396 1.1028352 1.1129508 0.9986726 0.94687665
1.1497264 1.01364 1.0393053 0.9694886 0.95355487 1.1175733 1.087727 1.0161959
1.000795 1.0017257 1.0946611 0.9917276 1.002976 1.1058407 0.99887145 0.9392678
1.070463 1.1211138 1.0519516 1.0030457 0.9783338 1.150116 1.0330803 1.1622379
0.95010155 0.9857022 1.0213383 1.0681837 0.9778598 1.0601289 0.99028504 0.97928387
1.1271307 0.944276 0.974942 0.99053556 1.0550839 0.9709204 1.0774877 0.9938014
1.0680513 0.990484 1.0126119 0.95970565 1.0090531 1.0290093 0.970159 1.0042088
0.96705246 0.97824365 1.021672 1.0284367 0.96942866 1.0511366 0.9606223 1.1468315
0.99430746 0.96430856 0.9618248 1.074663 1.152512 0.995463 1.0320647 1.0662812
0.9991275 0.9898117 1.0355936 1.192362 1.0693506 1.0656676 1.0267373 0.9917301
0.9888722 0.974559 0.9829357 1.0277234 1.0066042 1.0200547 0.98922026 0.9940498
00000000: 8019 903f b070 773f 3c35 903f 82e0 9b3f
00000010: f1bc 713f c566 7a3f 606d 753f 89d7 7a3f
00000020: 13f2 803f 045f 7d3f 894a 7c3f dd65 8a3f
00000030: 86d0 933f d2a8 813f ee2f 783f 6275 7f3f
00000040: 85f9 6f3f 7aae 853f 3503 773f d707 823f
00000050: 9599 803f fc44 773f adc2 813f 914d 8f3f
00000060: 2015 793f 73fd 843f 8051 713f 40d5 803f
00000070: a975 8a3f 43c5 863f 28c3 973f d87f 8c3f
00000080: b801 7a3f eb3d a13f e15b 723f a18c 8d3f
00000090: 85fe 783f b5b2 7a3f 8054 7a3f 9f93 883f
000000a0: 7ee4 7f3f f9d9 7b3f 8f1b 7c3f 7aec 753f
000000b0: b429 8d3f 2c75 8e3f 02a9 7f3f 8266 723f
000000c0: 3c2a 933f f5be 813f f507 853f 6830 783f
000000d0: 2c1c 743f a40c 8f3f a33a 8b3f b512 823f
000000e0: 0d1a 803f 8c38 803f db1d 8c3f dce1 7d3f
000000f0: 8461 803f 308c 8d3f 0ab6 7f3f db73 703f
00000100: ee04 893f a880 8f3f 5aa6 863f cd63 803f
00000110: 1574 7a3f 0037 933f fa3b 843f 36c4 943f
00000120: db39 733f fb56 7c3f 37bb 823f 3eba 883f
00000130: 0555 7a3f 4eb2 873f 5283 7d3f 59b2 7a3f
00000140: d245 903f 12bc 713f cd95 793f bd93 7d3f
00000150: fd0c 873f 3d8e 783f 1eeb 893f c569 7e3f
00000160: e8b5 883f 5c90 7d3f 449d 813f 45af 753f
00000170: a728 813f 94b6 833f 575c 783f ea89 803f
00000180: c090 773f 2d6e 7a3f 26c6 823f d0a3 833f
00000190: 7a2c 783f a58b 863f 58eb 753f 60cb 923f
000001a0: ef8a 7e3f eddc 763f 263a 763f 8f8e 893f
000001b0: 8385 933f aad6 7e3f b21a 843f e77b 883f
000001c0: d2c6 7f3f 4d64 7d3f 558e 843f 519f 983f
000001d0: 7be0 883f cc67 883f 216c 833f 06e2 7d3f
000001e0: ba26 7d3f b37c 793f ada1 7b3f 718c 833f
000001f0: 68d8 803f 2791 823f 8a3d 7d3f 0c7a 7e3f

bn1.bias f4 [128]
-0.036581043 -0.13317402 -0.02847037 -0.14474086 -0.11842472 -0.07259953 -0.043384727 -0.09686132
-0.07552093 -0.08352351 -0.17940532 -0.098057866 -0.0833513 -0.09320081 -0.12865616 -0.053002886
-0.06801699 -0.16023216 -0.07370165 -0.11595228 -0.10479376 -0.0964095 -0.06948731 -0.20413484
0.020979661 -0.19062209 -0.07388659 -0.06894012 -0.095906205 0.05793903 -0.0733362 -0.040925063
-0.037616514 -0.06987007 -0.03127217 -0.18171486 0.005294361 -0.10989006 -0.08970698 -0.13703169
-0.12977551 -0.13817123 -0.07572988 -0.09650285 -0.21285656 0.031234562 -0.12432465 -0.12467155
-0.093707465 -0.02758924 -0.021475954 0.0073312526 -0.058119263 -0.07202105 -0.041537855 -0.0043072826
-0.046519708 -0.11407638 -0.08189437 0.005240646 -0.20560214 -0.11162567 -0.052364524 -0.004512582
-0.08352791 -0.07924759 -0.016642477 -0.06673759 -0.12117971 -0.18323325 -0.105279684 -0.13317238
-0.08739362 -0.03944246 -0.029851917 -0.037857573 -0.04428557 -0.027206846 -0.06794894 -0.049728427
-0.09720171 -0.08568058 -0.047721207 -0.020477029 -0.08124486 -0.052717865 -0.097118415 -0.03497561
-0.05320659 -0.13990259 -0.027787628 -0.029032955 -0.014901401 -0.059554562 -0.066695794 -0.11661697
-0.011377498 -0.086768195 -0.12896247 -0.039593678 -0.105752684 -0.100987226 -0.14435238 0.018700985
-0.09422121 -0.016993776 -0.08937993 -0.10188393 -0.053487666 -0.058305383 -0.022040939 -0.124981984
-0.18052463 -0.1362525 -0.019684946 -0.14065626 0.009652281 -0.09362092 -0.06030284 0.0009660513
-0.122156665 -0.099679336 -0.06870248 -0.009306941 -0.082440354 -0.04560928 -0.14377978 -0.05449764
00000000: 01d6 15bd c55e 08be b23a e9bc f336 14be
00000010: a988 f2bd 10af 94bd 2fb4 31bd 3a5f c6bd
00000020: b8aa 9abd 600e abbd 07b6 37be 90d2 c8bd
00000030: 16b4 aabd 11e0 bebd 71be 03be 8e19 59bd
00000040: 7e4c 8bbd e613 24be e4f0 96bd 6478 edbd
00000050: 1c9e d6bd 5872 c5bd 5d4f 8ebd b908 51be
00000060: 8add ab3c 7032 43be da51 97bd 7a30 8dbd
00000070: 796a c4bd 7a51 6d3d 4a31 96bd 0aa1 27bd
00000080: c613 1abd 0a18 8fbd 3f17 00bd 7613 3abe
00000090: 527c ad3b 0a0e e1bd 4bb8 b7bd 0952 0cbe
000000a0: dfe3 04be c27c 0dbe 4418 9bbd 49a3 c5bd
000000b0: 12f7 59be a0df ff3c ec9d febd cc53 ffbd
000000c0: b3e9 bfbd d402 e2bc 57ee afbc 013b f03b
000000d0: 770e 6ebd c67f 93bd 9923 2abd 1b24 8dbb
000000e0: 738b 3ebd e1a0 e9bd 3cb8 a7bd bab9 ab3b
000000f0: 5e89 52be 009c e4bd 2f7c 56bd 48de 93bb
00000100: ae10 abbd 8f4c a2bd ce55 88bc b8ad 88bd
00000110: 112d f8bd 7fa1 3bbe e09c d7bd 575e 08be
00000120: 6dfb b2bd 6b8e 21bd 028c f4bc 8b10 1bbd
00000130: c964 35bd e4e0 debc d028 8bbd 09b0 4bbd
00000140: b111 c7bd 4d79 afbd 5077 43bd 71bf a7bc
00000150: b563 a6bd b0ee 57bd 05e6 c6bd 9642 0fbd
00000160: 27ef 59bd a042 0fbe e1a2 e3bc 85d6 edbc
00000170: 0125 74bc 7cef 73bd ce97 88bd e1d4 eebd
00000180: af68 3abc 86b3 b1bd bd0e 04be fb2c 22bd
00000190: dd94 d8bd 64d2 cebd 1cd1 13be cf32 993c
000001a0: 0df7 c0bd 8836 8bbc d30c b7bd 86a8 d0bd
000001b0: e215 5bbd a0d1 6ebd 338f b4bc 8ef6 ffbd
000001c0: 73db 38be c685 0bbe 5342 a1bc 3208 10be
000001d0: 9a24 1e3c 53bc bfbd 1c00 77bd 9b3e 7d3a
000001e0: 462d fabd ae24 ccbd e3b3 8cbd 247c 18bc
000001f0: 7dd6 a8bd ccd0 3abd 023b 13be eb38 5fbd

bn1.running_mean f4 [128]
-0.13233426 -0.15412824 -0.10595983 0.013652106 0.14469935 0.09029561 0.025629692 -0.07877205
-0.11398942 0.06461874 0.107221074 -0.023967693 0.11323626 0.034083337 0.025464779 0.1547173
-0.16239423 0.15882207 -0.14486572 0.031027397 0.05928693 -0.032544482 -0.1494566 0.051902574
0.060049232 0.08273775 0.04208237 -0.10829175 -0.1416236 0.13705757 -0.05212403 0.13410076
0.1630351 -0.14197479 -0.1461481 0.05473295 0.09288571 0.055351317 -0.10137177 -0.07464995
0.15976912 0.075117014 0.087987565 0.015013225 -0.11159838 0.1251804 -0.05189917 0.069514185
-0.08729654 0.017076498 0.015509112 0.12525865 0.012619726 0.15611257 0.09302203 -0.07341322
-0.11213303 0.06229414 -0.14675036 -0.051998727 0.13136657 -0.15620482 -0.053106986 0.023331072
-0.1475235 0.1577486 0.0919457 -0.15280837 0.04061255 -0.07365859 -0.121192046 0.021576423
0.057125445 0.1549987 -0.00267431 -0.11019563 0.10599365 -0.14994867 0.118271776 -0.16074948
-0.13568324 0.11054399 0.061843697 0.027329186 -0.09888054 0.14339736 -0.04114566 -0.07657571
-0.07640148 -0.12910557 0.100140296 -0.11948113 -0.037199322 0.016940419 0.10025045 0.11718771
-0.06625926 0.016774446 0.02473182 -0.09973315 -0.09608732 0.15792048 -0.01619442 -0.11590685
-0.13360214 0.051537815 0.10457467 -0.12312191 0.0738594 -0.113964245 -0.14817992 0.045535155
-0.056895368 -0.07253261 0.1258745 0.113533795 -0.058609888 0.14058201 -0.11805267 -0.048102133
0.076990314 -0.04934365 0.15146342 -0.024290869 0.0014995544 -0.008704449 -0.097181976 -0.12445408
00000000: a282 07be cbd3 1dbe 7801 d9bd 15ad 5f3c
00000010: 112c 143e e8ec b83d 5cf5 d13c 3e53 a1bd
00000020: 4973 e9bd d456 843d b996 db3d e557 c4bc
00000030: 6ae8 e73d f89a 0b3d 839b d03c 366e 1e3e
00000040: ac4a 26be 41a2 223e ae57 14be 2b2d fe3c
00000050: dad6 723d 5d4d 05bd 270b 19be cb97 543d
00000060: 2ff6 753d 6972 a93d 905e 2c3d 11c8 ddbd
00000070: c705 11be d258 0c3e 0280 55bd b651 093e
00000080: acf2 263e d761 11be d9a7 15be a82f 603d
00000090: dd3a be3d 10b8 623d 019c cfbd 13e2 98bd
000000a0: 849a 233e f3d6 993d d332 b43d 08fa 753c
000000b0: b18d e4bd 4a2f 003e 3994 54bd 745d 8e3d
000000c0: 87c8 b2bd 03e4 8b3c ee19 7e3c ce43 003e
000000d0: f8c2 4e3c f9db 1f3e 5682 be3d ac59 96bd
000000e0: 01a6 e5bd 2428 7f3d ba45 16be 9efc 54bd
000000f0: f584 063e 28f4 1fbe b686 59bd ce20 bf3c
00000100: 6610 17be d988 213e 074e bc3d cc79 1cbe
00000110: 5859 263d 51da 96bd 8933 f8bd 0ac1 b03c
00000120: 5ffc 693d fbb7 1e3e 7a43 2fbb 3fae e1bd
00000130: 3313 d93d 258c 19be 7938 f23d 839b 24be
00000140: 8cf0 0abe e364 e23d d14f 7d3d 75e1 df3c
00000150: e181 cabd c2d6 123e 5a88 28bd bad3 9cbd
00000160: 6178 9cbd 4034 04be 5b16 cd3d 86b2 f4bd
00000170: 515e 18bd a2c6 8a3c 1c50 cd3d 1c00 f03d
00000180: efb2 87bd 906a 893c 639a ca3c e540 ccbd
00000190: 6ec9 c4bd e8b5 213e 29aa 84bc 9260 edbd
000001a0: 00cf 08be 5119 533d 3f2b d63d 5727 fcbd
000001b0: 9943 973d 1666 e9bd 7abc 17be 1283 3a3d
000001c0: 1e0b 69bd fa8b 94bd 3fe5 003e 6884 e83d
000001d0: ec10 70bd bbf4 0f3e 99c5 f1bd be06 45bd
000001e0: 19ad 9d3d 911c 4abd 3a19 1b3e a5fd c6bc
000001f0: b28c c43a 1b9d 0ebc 5807 c7bd c8e1 febd

bn1.running_var f4 [128]
0.11157051 0.28438312 0.34815893 0.25899595 0.13780789 0.10154416 0.20632531 0.0882469
0.28306842 0.7875249 0.09668718 0.1653114 0.32518992 0.23289458 0.562312 0.20507745
0.33059517 0.1762558 0.09012658 0.23662491 0.38810304 0.29659665 0.25339833 0.13530648
0.18646078 0.22687705 0.3593043 0.28480324 0.054764114 0.215317 0.080890045 0.16087872
0.28632647 0.06596765 0.09502464 0.18704434 0.17351723 0.9681782 0.10636337 0.13336687
0.24668062 0.1724849 0.155328 0.18458784 0.12088799 0.13885206 0.39966336 0.4808371
0.26763153 0.5319879 0.13560754 0.26398268 0.1386432 0.25831756 0.14959209 0.42917126
0.5982979 0.2459598 0.12804887 0.37743944 0.12916858 0.21291253 0.094429635 0.15573978
0.2657674 0.10490375 0.2043119 0.21120542 0.16982684 0.14463282 0.089439586 0.12961787
0.20956813 0.17716752 0.13456675 0.08315818 0.23570393 0.10767387 0.3967271 0.27263966
0.2826949 0.18852648 0.21622698 0.51910603 0.61089456 0.27971026 0.1308899 0.092277
0.10700061 0.099734865 0.14935122 0.14738564 0.15964997 0.10108983 0.1723747 0.17949033
0.058652107 0.32943383 0.10495026 0.17607747 0.08276563 0.17871805 0.1754585 0.11702805
0.37083414 0.16631494 0.1726101 0.26888993 0.22923551 0.1290978 0.15218033 0.12919848
0.29091385 0.12915517 0.24064805 0.14572106 0.1655428 0.3898096 0.17615658 0.3157154
0.24994987 0.1813387 0.19508348 0.10136035 0.31326658 0.21248879 0.2244516 0.40598965
00000000: 147f e43d aa9a 913e e341 b23e 1e9b 843e
00000010: 831d 0d3e 62f6 cf3d f146 533e caba b43d
00000020: 58ee 903e 3b9b 493f ee03 c63d 6447 293e
00000030: 4b7f a63e eb7b 6e3e aef3 0f3f d3ff 513e
00000040: c543 a93e 677c 343e 4994 b83d cd4d 723e
00000050: 71b5 c63e 84db 973e 6dbd 813e c88d 0a3e
00000060: 93ef 3e3e 7552 683e bcf6 b73e bbd1 913e
00000070: 5650 603d 0f7c 5c3e aea9 a53d 64bd 243e
00000080: 6299 923e 0c1a 873d 479c c23d 8d88 3f3e
00000090: 80ae 313e 87da 773f 0ad5 d93d 5391 083e
000000a0: d899 7c3e e29f 303e 4e0e 1f3e 9804 3d3e
000000b0: 1f94 f73d 3c2f 0e3e ada0 cc3e 4830 f63e
000000c0: 0007 893e 5c30 083f b4dc 0a3e bd28 873e
000000d0: 7cf8 0d3e 3342 843e ab2e 193e 56bc db3e
000000e0: 0d2a 193f e3dc 7b3e 3e1f 033e be3f c13e
000000f0: c544 043e be05 5a3e 5364 c13d 407a 1f3e
00000100: aa12 883e c7d7 d63d 2437 513e 3c46 583e
00000110: 16e7 2d3e a01a 143e 1a2c b73d 8cba 043e
00000120: 0799 563e 676b 353e decb 093e d64e aa3d
00000130: 5f5c 713e 1e84 dc3d d01f cb3e 6d97 8b3e
00000140: 63bd 903e 160d 413e 9b6a 5d3e 22e4 043f
00000150: 9663 1c3f 2f36 8f3e 0008 063e b9fb bc3d
00000160: 2323 db3d cb41 cc3d 87ef 183e 43ec 163e
00000170: 487b 233e 2f08 cf3d fe82 303e 50cc 373e
00000180: 313d 703d 8dab a83e 29f0 d63d a74d 343e
00000190: 0781 a93d dd01 373e 65ab 333e 67ac ef3d
000001a0: f9dd bd3e 774e 2a3e b4c0 303e f1ab 893e
000001b0: b7bc 6a3e 3732 043e 29d5 1b3e 9b4c 043e
000001c0: a9f2 943e 4141 043e 716c 763e e737 153e
000001d0: 0d84 293e 2095 c73e 6462 343e 73a5 a13e
000001e0: dcf2 7f3e dab0 393e f7c3 473e 0496 cf3d
000001f0: 7a64 a03e a996 593e a4d6 653e e0dd cf3e

fc2.weight f4 [64, 128]
0.10106939 -0.036249537 0.06527619 0.086638466 0.008403106 -0.087630555 0.056866203 -0.068265095
-0.052017495 0.13485853 0.022805443 0.10184323 0.0051111938 0.023473648 -0.021291653 0.079267465
-0.055240598 0.060341373 -0.04790483 0.006903095 0.07387394 0.0029451407 -0.039316293 -0.04130848
-0.0016565872 0.011594679 -0.048559107 -0.12517098 -0.074577905 0.03147535 -0.04961125 0.035893846
0.10774565 -0.057239965 -0.00010882244 0.018446956 -0.07119676 -0.07264792 0.032669563 -0.045896932
0.034171082 -0.10462988 0.12244029 0.00086185196 -0.017753445 -0.031759545 -0.06987598 -0.040316306
0.024868026 0.060310602 0.05498756 -0.026333777 -0.033408057 -0.0025930768 -0.03693258 0.08590488
-0.072376005 -0.057002053 -0.056331605 0.06404946 -0.019353721 0.11206449 -0.016721312 0.04735409
-0.032228496 0.06416705 0.06293059 0.060178626 0.052096833 0.066443704 -0.04465009 0.01144328
0.031145977 -0.0989723 0.010277709 0.012923086 -0.0065258383 -0.07604524 -0.009166175 0.05198205
0.041185368 -0.077110685 0.06257663 -0.0849798 0.092107415 -0.009391324 -0.07068283 -0.020830004
-0.0206096 0.0075203264 -0.030586662 0.079448886 -0.08712627 -0.043890506 -0.080856174 0.05317381
-0.09454041 0.0016010439 -0.0114357155 -0.07606338 0.026826097 -0.027961079 -0.042520717 -0.030613098
-0.057237383 -0.09094584 0.03677878 0.017476127 -0.07638611 0.052660797 -0.102394335 -0.069001414
0.043202408 -0.03740204 0.00455898 0.03533866 -0.11380084 -0.012617792 0.04938205 -0.020240713
-0.028118594 -0.06712774 0.062096164 0.0052165575 0.109458864 0.015241561 0.04247465 -0.028229615
0.051229406 -0.024105344 -0.0012345755 -0.05148656 -0.0890411 -0.05967715 -0.06819626 -0.042833943
0.011353845 0.053483058 -0.10453086 0.10172896 -0.06944885 0.0625664 -0.029817387 -0.014274626
-0.0066924184 0.04417213 -0.0006957548 0.07446377 -0.025090411 0.010565146 0.013548777 0.045113556
-0.03255579 0.040739894 0.01157602 -0.033080216 -0.010990309 -0.04430803 -0.10482185 -0.01859179
0.0059460127 0.0039408244 -0.028856168 0.027291186 0.089975856 -0.025373891 0.072191745 -0.02977715
-0.11480471 -0.0557256 0.043242868 -0.06058354 0.07183419 -0.046383336 -0.0021998454 -0.05954145
-0.047615837 -0.029928468 -0.07640575 0.03568914 0.05404904 0.019456087 0.03628242 -0.031211233
0.045842875 -0.0035926618 -0.048211403 0.021578053 -0.012732154 0.028130643 0.001800928 0.018374292
-0.01587379 -0.1308356 -0.07974359 -0.072726525 -0.08813772 -0.058707617 -0.03483931 0.072064936
0.05198696 0.02233878 -0.014968702 0.0048562414 -0.024087174 0.020227646 -0.075387724 -0.12785204
0.071910255 -0.0676761 -0.034751594 -0.0024127457 -0.048347622 0.040810328 0.049542334 -0.032416668
-0.04368202 -0.0872991 -0.032715745 0.059657536 -0.0076922867 -0.049759448 -0.012697264 -0.027509458
-0.050039146 -0.072026774 0.01948881 -0.02427913 -0.06931963 -0.045321193 -0.08802768 -0.08698552
0.041991316 0.02254628 0.036062106 0.0063909604 -0.048112474 0.0064303554 0.04658671 -0.019231454
-0.025649544 -0.09471504 0.019153299 0.0384521 -0.05669009 -0.01996282 0.018505584 0.042283036
-0.03758314 -0.07048825 0.056484018 -0.0004244822 -0.06422537 -0.053969525 -0.0118910335 0.01656208
00000000: 78fd ce3d 657a 14bd 86af 853d 826f b13d
00000010: 2ead 093c a677 b3bd 89ec 683d 92ce 8bbd
00000020: 4c10 55bd 5b18 0a3e 7bd2 ba3c 2f93 d03d
00000030: cd7b a73b cf4b c03c d56b aebc fb56 a23d
00000040: f743 62bd 8428 773d db37 44bd 5c33 e23b
00000050: 384b 973d 4303 413b 1f0a 21bd 1533 29bd
00000060: d821 d9ba 9cf7 3d3c eae5 46bd d22c 00be
00000070: 4dbc 98bd 4cec 003d 2b35 4bbd 6d05 133d
00000080: c0a9 dc3d 7474 6abd 9a37 e4b8 121e 973c
00000090: 9bcf 91bd 6fc8 94bd 85d0 053d 6cfe 3bbd
000000a0: faf6 0b3d 3148 d6bd fac1 fa3d e8ed 613a
000000b0: ac6f 91bc 4c16 02bd 231b 8fbd b622 25bd
000000c0: 08b8 cb3c 4008 773d a33a 613d efb9 d7bc
000000d0: e3d6 08bd 9cf0 29bb 9e46 17bd e6ee af3d
000000e0: df39 94bd fc7a 69bd f8bb 66bd 5d2c 833d
000000f0: b28b 9ebc 1182 e53d 22fb 88bc 5df6 413d
00000100: 0702 04bd 046a 833d c1e1 803d dd7d 763d
00000110: 7d63 553d a313 883d 03e3 36bd 987c 3b3c
00000120: d925 ff3c fdb1 cabd d663 283c 5abb 533c
00000130: b3d6 d5bb 9bbd 9bbd b92d 16bc 21eb 543d
00000140: fdb1 283d 35ec 9dbd 2d28 803d e409 aebd
00000150: d0a2 bc3d 11de 19bc 29c2 90bd afa3 aabc
00000160: 77d5 a8bc 126d f63b e190 fabc 19b6 a23d
00000170: 426f b2bd 88c6 33bd ec97 a5bd c8cc 593d
00000180: 679e c1bd 1eda d13a de5c 3bbc 1ec7 9bbd
00000190: 67c2 db3c a20e e5bc 342a 2ebd 52c8 fabc
000001a0: bf71 6abd d041 babd 59a5 163d 182a 8f3c
000001b0: 5270 9cbd d9b2 573d 1fb4 d1bd 9d50 8dbd
000001c0: 02f5 303d e232 19bd 7f63 953b 45bf 103d
000001d0: 6a10 e9bd dbba 4ebc d544 4a3d dacf a5bc
000001e0: f758 e6bc 457a 89bd 8c58 7e3d a8ef aa3b
000001f0: f82b e03d beb7 793c e6f9 2d3d cb41 e7bc
00000200: edd5 513d 9278 c5bc 7bd1 a1ba 92e3 52bd
00000210: 2e5b b6bd 0770 74bd 7baa 8bbd a572 2fbd
00000220: 7a05 3a3c 0d11 5b3d 4714 d6bd 4657 d03d
00000230: 333b 8ebd d022 803d 9843 f4bc 1fe0 69bc
00000240: 134c dbbb d6ed 343d 5063 36ba 7680 983d
00000250: 688a cdbc 6f19 2d3c b1fb 5d3c fec8 383d
00000260: 3859 05bd e0de 263d 59a9 3d3c 1f7f 07bd
00000270: b210 34bc 567c 35bd d7ac d6bd cf4d 98bc
00000280: c5d6 c23b 0822 813b c563 ecbc c491 df3c
00000290: 4345 b83d e8dc cfbc 44d9 933d 36ef f3bc
000002a0: bb1e ebbd 8740 64bd 6f1f 313d 7226 78bd
000002b0: ce1d 933d 74fc 3dbd 482b 10bb bce1 73bd
000002c0: d308 43bd 8c2c f5bc 9e7a 9cbd c72e 123d
000002d0: 8762 5d3d 5f62 9f3c e09c 143d b3ae ffbc
000002e0: bdc5 3b3d dd72 6bbb 5279 45bd 75c4 b03c
000002f0: 869a 50bc 3c72 e63c 1e0d ec3a af85 963c
00000300: c009 82bc c4f9 05be 9b50 a3bd a5f1 94bd
00000310: 8d81 b4bd 6677 70bd aab3 0ebd c896 933d
00000320: 47f0 543d d1ff b63c 493f 75bc 1b21 9f3b
00000330: 7752 c5bc 73b4 a53c e164 9abd a5eb 02be
00000340: af45 933d c499 8abd b057 0ebd 281f 1ebb
00000350: 2808 46bd bb28 273d e7ec 4a3d 57c7 04bd
00000360: ebeb 32bd dfc9 b2bd f200 06bd 765b 743d
00000370: 940f fcbb 90d0 4bbd 2f08 50bc 845b e1bc
00000380: d9f5 4cbd c682 93bd ffa6 9f3c 07e5 c6bc
00000390: 73f7 8dbd b7a2 39bd db47 b4bd 7725 b2bd
000003a0: 16ff 2b3d fab2 b83c dcb5 133d 436b d13b
000003b0: 9611 45bd bbb5 d23b b5d1 3e3d 488b 9dbc
000003c0: fe1e d2bc f5f9 c1bd 61e7 9c3c f37f 1d3d
000003d0: de33 68bd 1189 a3bc 0699 973c fa30 2d3d
000003e0: c7f0 19bd 255c 90bd c95b 673d 098d deb9
000003f0: 9788 83bd 260f 5dbd 9cd2 42bc 33ad 873c

fc2.bias f4 [64]
0.07768858 -0.038572162 -0.03981955 0.05411538 0.07411697 0.057885528 -0.0033757852 -0.022359822
0.02709077 0.060928684 -0.049601924 -0.035825644 -0.060774084 -0.08598222 -0.041145355 -0.054011226
-0.07789516 0.078567185 -0.082475655 0.08705034 0.011289658 0.009657188 0.025597986 -0.010574963
-0.07507725 -0.07139308 -0.053750154 0.036901362 0.047098957 0.05798185 0.040857412 -0.0310502
0.028392427 0.00674938 0.07497542 -0.055190306 -0.06905449 -0.009941929 -0.030634724 -0.05671306
0.052677855 -0.034754764 -0.037553813 -0.06172732 0.08677374 -0.06659758 -0.08790535 -0.074642375
-0.06049892 -0.028017312 -0.0019808838 -0.07415385 -0.050913326 -0.05871482 0.037254337 -0.033338923
-0.038633272 -0.034276202 0.05103407 0.06788195 -0.0006624536 0.0798135 -0.009601145 0.008794098
00000000: 311b 9f3d d8fd 1dbd d319 23bd 17a8 5d3d
00000010: a3ca 973d 6019 6d3d 473c 5dbb f22b b7bc
00000020: 76ed dd3c 5b90 793d 632b 4bbd e9bd 12bd
00000030: 3fee 78bd 7217 b0bd 0888 28bd e03a 5dbd
00000040: 7f87 9fbd d5e7 a03d ffe8 a8bd 7347 b23d
00000050: 42f8 383c 2f39 1e3c deb2 d13c 9c42 2dbc
00000060: 1ac2 99bd 8936 92bd 1f29 5cbd e225 173d
00000070: d6ea 403d 607e 6d3d 1a5a 273d fd5c febc
00000080: 3c97 e83c e729 dd3b b78c 993d 3b0f 62bd
00000090: 716c 8dbd 79e3 22bc acf5 fabc f44b 68bd
000000a0: bcc4 573d 035b 0ebd 07d2 19bd c9d5 7cbd
000000b0: 6eb6 b13d 5064 88bd b807 b4bd 1ade 98bd
000000c0: b7cd 77bd 9084 e5bc b7d1 01bb f9dd 97bd
000000d0: 7e8a 50bd f37e 70bd 0198 183d 658e 08bd
000000e0: ec3d 1ebd 3465 0cbd 1a09 513d b105 8b3d
000000f0: 82a8 2dba 4375 a33d 1f4e 1dbc 1f15 103c

bn2.weight f4 [64]
1.1335354 0.9837375 1.0414704 0.99474543 1.0946515 0.9891441 1.1200547 0.99478817
0.9657951 1.0076916 1.0019563 0.99238455 0.9798684 1.0818535 1.0669925 0.98985803
0.9789483 0.9696195 1.1004294 0.96731234 1.085248 1.0127752 1.0112189 1.017446
1.1485072 0.99112964 1.0439305 0.9908697 1.0546497 0.9767232 1.1003013 0.9908217
0.9380222 1.0275438 1.0604336 1.0158069 0.99485666 1.0460179 1.1334497 0.9893363
0.9633955 0.97742575 0.961041 1.0638592 1.0884038 0.97043246 0.9747496 0.9737654
1.0081685 1.1058636 1.0024867 1.0069371 1.0342528 0.95972145 1.0188323 1.0059245
0.96072316 0.9979867 1.1657835 0.99097663 0.92692804 1.0313936 0.9834959 0.9782289
00000000: b017 913f 39d6 7b3f e74e 853f a3a7 7e3f
00000010: 8a1d 8c3f 8c38 7d3f f45d 8f3f 70aa 7e3f
00000020: 593e 773f 0afc 803f 1b40 803f ea0c 7e3f
00000030: a8d8 7a3f 2d7a 8a3f 3693 883f 5667 7d3f
00000040: 5b9c 7a3f fc38 783f dfda 8c3f c8a1 773f
00000050: 68e9 8a3f 9ea2 813f 9f6f 813f ac3b 823f
00000060: 4902 933f acba 7d3f 849f 853f a3a9 7d3f
00000070: c3fe 863f 880a 7a3f acd6 8c3f 7ea6 7d3f
00000080: 3922 703f 8e86 833f 4abc 873f f605 823f
00000090: edae 7e3f eae3 853f e114 913f 2545 7d3f
000000a0: 16a1 763f 9338 7a3f c806 763f 8a2c 883f
000000b0: d150 8b3f 436e 783f 3189 793f b048 793f
000000c0: aa0b 813f f08c 8d3f 7c51 803f 51e3 803f
000000d0: 6562 843f 4eb0 753f 1969 823f 22c2 803f
000000e0: f4f1 753f 0e7c 7f3f 6538 953f a5b0 7d3f
000000f0: 284b 6d3f b504 843f 63c6 7b3f 366d 7a3f

bn2.bias f4 [64]
0.08797348 -0.10075499 -0.0224605 0.024996981 0.004996347 -0.14712794 0.07047947 -0.19838098
-0.08490803 -0.0703869 -0.051207725 -0.030133806 0.021770786 0.045085575 -0.092818566 0.065198526
-0.0071182605 -0.078730464 -0.011246339 -0.073096976 -0.011814508 -0.15720049 -0.11170809 -0.19259672
0.12512161 -0.04231741 -0.21269545 -0.25647536 0.053818226 -0.15920919 0.06310236 0.020907015
-0.118326105 0.0027307523 0.035986673 -0.18796709 -0.12179632 0.0039044865 0.08563426 0.04140193
-0.015046558 -0.1812801 -0.07477989 -0.004565728 0.10713354 0.0034906843 0.03730107 -0.009077873
-0.13233994 0.067930646 -0.11148789 -0.17349614 0.0038832088 0.026312763 -0.03040008 -0.018610602
-0.04124336 -0.04396564 0.009643695 0.06923317 -0.08503266 -0.0011755105 -0.12318898 -0.12678157
00000000: 712b b43d a258 cebd 15ff b7bc 78c6 cc3c
00000010: 65b8 a33b b5a8 16be 8a57 903d 6224 4bbe
00000020: 43e4 adbd 0227 90bd 31bf 51bd 2cdb f6bc
00000030: a658 b23c a7ab 383d a917 bebd ce86 853d
00000040: 4c40 e9bb 703d a1bd 9142 38bc deb3 95bd
00000050: a391 41bc 2af9 20be 36c7 e4bd 1338 45be
00000060: e11f 003e 0555 2dbd d6cc 59be bd50 83be
00000070: 8070 5c3d bc07 23be cf3b 813d 3045 ab3c
00000080: f554 f2bd 6cf6 323b c366 133d 727a 40be
00000090: 5970 f9bd 6ae2 7f3b 0461 af3d 1295 293d
000000a0: d785 76bc 7ea1 39be 3326 99bd 1a9c 95bb
000000b0: d468 db3d f7c3 643b 02c9 183d 5cbb 14bc
000000c0: 1f84 07be 391f 8b3d c353 e4bd f9a8 31be
000000d0: 6f7d 7e3b dd8d d73c 9709 f9bc 4375 98bc
000000e0: ccee 28bd 5115 34bd 9700 1e3c 1fca 8d3d
000000f0: 9a25 aebd 9613 9aba 814a fcbd 07d3 01be

bn2.running_mean f4 [64]
0.117309086 -0.27804163 -0.36544836 0.15324809 0.0048032245 0.15411241 -0.13142186 -0.099556506
0.00024630243 -0.24556196 -0.23193511 -0.08329367 -0.2548611 -0.16219151 -0.34177637 -0.28176385
-0.061691236 -0.077528104 -0.3665333 -0.09289564 -0.07268241 -0.1409714 -0.22378679 -0.44993618
-0.030523714 -0.2672201 -0.08650578 -0.40749052 0.1069969 0.14190726 -0.0032436424 -0.2601534
-0.32419112 -0.13981754 -0.21040212 -0.036682654 -0.17498863 -0.26600087 -0.26180327 -0.34122062
-0.04980005 0.2001285 -0.31300423 -0.17065561 0.1694365 -0.29788783 -0.08125951 -0.13860093
0.08397847 -0.14555135 -0.26794803 -0.07602063 -0.2103767 -0.11509604 -0.30927575 -0.32178864
0.0045789503 -0.18100975 -0.13721772 -0.17452927 -0.46436813 -0.11233697 -0.083017334 -0.31402147
00000000: bf3f f03d 795b 8ebe 0c1c bbbe 11ed 1c3e
00000010: 5e64 9d3b a5cf 1d3e 7493 06be 48e4 cbbd
00000020: 2722 8139 9874 7bbe 6680 6dbe df95 aabd
00000030: 277d 82be 8815 26be 50fd aebe 5a43 90be
00000040: f3af 7cbd 0ec7 9ebd 41aa bbbe 1240 bebd
00000050: 84da 94bd cf5a 10be 5d28 65be 095e e6be
00000060: de0c fabc 13d1 88be f129 b1bd 99a2 d0be
00000070: 3121 db3d 2350 113e 4a93 54bb d432 85be
00000080: 61fc a5be 542c 0fbe a773 57be 8d40 16bd
00000090: 3830 33be 4431 88be 140b 86be 78b4 aebe
000000a0: 23fb 4bbd 7cee 4c3e 1742 a0be 58c0 2ebe
000000b0: c380 2d3e c184 98be 636b a6bd 67ed 0dbe
000000c0: e7fc ab3d 6a0b 15be 7c30 89be b4b0 9bbd
000000d0: fd6c 57be 79b7 ebbd 6459 9ebe 7bc1 a4be
000000e0: 050b 963b 9f5a 39be cd82 0cbe cdb7 32be
000000f0: a9c1 edbe ed10 e6bd fe04 aabd 6cc7 a0be

bn2.running_var f4 [64]
0.7088221 0.3475288 0.6639346 0.40964335 0.8085751 0.6310853 0.42512703 0.35038307
0.32897282 0.2906951 0.27111024 0.8004242 0.4893327 0.76440305 0.47293988 0.2797606
0.36398956 0.58218926 0.4259146 0.33077312 0.57977057 0.33776435 0.5782837 0.44406942
0.982521 0.32698596 0.2576077 0.22993185 0.83202577 0.39681455 0.67725116 0.48478243
0.25073817 0.7215412 0.6407291 0.33017138 0.16387728 0.76770127 0.8304334 0.37943396
0.54681784 0.72861534 0.5948897 0.79209334 0.47613636 0.3941914 0.36331105 0.27448657
0.5116432 0.6621631 0.20036805 0.2057185 0.38513678 0.46580234 0.3898191 0.5013626
0.44222462 0.47062412 0.9717882 0.29971662 0.89743775 0.60718423 0.3005759 0.24412441
00000000: 5d75 353f 4bef b13e 9ef7 293f c6bc d13e
00000010: c7fe 4e3f ce8e 213f 40aa d93e 6965 b33e
00000020: 206f a83e fdd5 943e f6ce 8a3e 9ae8 4c3f
00000030: d189 fa3e ebaf 433f 2d25 f23e c83c 8f3e
00000040: d75c ba3e 5b0a 153f 7a11 da3e 185b a93e
00000050: d86b 143f 73ef ac3e 670a 143f 115d e33e
00000060: 7f86 7b3f b46a a73e 28e5 833e 4173 6b3e
00000070: a4ff 543f 472b cb3e 5560 2d3f 6735 f83e
00000080: c160 803e edb6 383f d306 243f 390c a93e
00000090: 72cf 273e 1288 443f 4997 543f 2b45 c23e
000000a0: 41fc 0b3f 8986 3a3f b14a 183f a1c6 4a3f
000000b0: 25c8 f33e 75d3 c93e e803 ba3e 8189 8c3e
000000c0: 0cfb 023f 8583 293f 482d 4d3e dfa7 523e
000000d0: a630 c53e a57d ee3e 5e96 c73e 4d59 003f
000000e0: 446b e23e a5f5 f03e 1dc7 783f 7574 993e
000000f0: 7bbe 653f 6d70 1b3f 16e5 993e c0fb 793e

fc3.weight f4 [32, 64]
-0.07242175 0.07295593 -0.041771922 0.06886011 -0.028795183 0.06885515 0.030642832 0.06343368
0.02914579 0.022155795 -0.061263822 -0.061054207 0.029331585 -0.08758837 0.03844313 0.08582184
0.053208373 0.094548814 0.020690633 0.10698149 -0.17849238 0.045786936 0.016442968 -0.109293476
0.0063143745 -0.020862319 -0.092963725 0.039035644 -0.07198981 -0.1470883 -0.1364129 -0.14279518
-0.0147828255 -0.107805856 0.05172262 -0.08702797 -0.012617023 0.03833074 -0.18316717 0.06717079
-0.09476386 -0.03499141 0.100937985 -0.024285275 0.05695833 0.075701654 0.019169353 0.08361575
-0.13103661 -0.19980016 -0.017887242 -0.0009986052 -0.027284943 0.068123765 0.0042761234 0.0947734
0.058155056 0.039428093 -0.032460835 0.080453366 0.07031032 -0.028242286 -0.0003317972 0.07772092
-0.10402628 -0.023355812 -0.06387294 0.007729412 -0.19179757 -0.06789217 -0.03697141 0.09127575
0.0037274777 -0.015285104 0.014596767 -0.13555197 0.088402644 -0.1210872 -0.18270807 -0.06855751
-0.07800166 -0.13447377 0.053903963 -0.11241529 -0.17169262 -0.0330737 -0.040652886 0.015027991
0.03606291 -0.0048282654 -0.069259465 0.02277888 -0.027018296 0.06757403 -0.17403048 -0.046689928
0.025036206 -0.05347423 -0.00052762526 -0.061940063 -0.052759957 -0.16959642 -0.18011056 -0.055507373
-0.033746887 0.093531586 -0.05594087 -0.17086326 -0.054429896 0.050708696 -0.05222404 -0.031041639
0.03931113 -0.11033635 0.01689015 -0.01293916 0.050633933 -0.06939187 -0.015929265 0.057003736
-0.049644332 -0.0008316304 -0.16550152 0.043195836 -0.008675256 -0.14693843 -0.07746912 -0.081902534
-0.08298858 0.007723775 0.112649955 0.005660145 -0.13389888 -0.10864398 0.06416555 0.020381153
0.054350104 -0.030711673 0.0464575 -0.1647904 -0.06837224 -0.06966177 -0.06194561 -0.070432514
0.027706057 -0.12085827 0.025074236 0.08883799 -0.11470319 -0.010213081 -0.14158136 0.039303526
0.01647419 -0.01901333 -0.0016789825 0.07563582 -0.056211792 0.029406494 -0.06089398 -0.0012345876
-0.014079254 -0.14488786 -0.013468412 0.05692979 0.07771631 -0.070735715 -0.19705857 -0.073111735
-0.15135686 -0.13373218 0.09972073 -0.13932012 0.01647316 0.053196043 0.0045169136 0.050349675
-0.077612534 -0.057954166 -0.021887556 0.11021324 0.04472018 -0.097331725 0.032036304 -0.059639435
-0.087408714 -0.0778025 -0.06164848 -0.09198498 0.005492257 -0.024707157 0.053551197 -0.09216089
0.0006163165 0.07013351 -0.0470992 -0.03243368 0.07317606 -0.01645168 -0.08297313 0.04201785
-0.049566377 -0.07418136 -0.06087527 0.01051423 -0.015344889 0.027584584 0.077190295 -0.15311374
-0.10156532 0.08396102 -0.053437687 0.053704266 0.07836278 -0.016084824 0.099191785 0.12334313
-0.145663 -0.12298099 0.050951578 0.07138981 0.029109906 -0.009935061 0.035732083 0.0153859975
-0.0053878846 -0.060108203 -0.030071884 -0.06771056 -0.017713638 0.028427027 -0.03190386 -0.18803297
0.026806083 -0.030931959 -0.08259714 -0.009637884 -0.08527187 -0.056061592 -0.060673997 -0.19533211
0.0957221 0.027668238 -0.0085330345 0.07671652 -0.15399323 -0.09453298 -0.19922835 -0.10268751
-0.058892142 0.025634207 -0.028319491 -0.091776684 0.061781198 0.10645288 -0.055622905 -0.077923715
00000000: db51 94bd eb69 953d 0919 2bbd 8806 8d3d
00000010: e0e3 ebbc ee03 8d3d ad06 fb3c 84e9 813d
00000020: 27c3 ee3c 1280 b53c c6ef 7abd fa13 7abd
00000030: cb48 f03c 8861 b3bd 8b76 1d3d 5cc3 af3d
00000040: 06f1 593d cfa2 c13d 677f a93c 1d19 db3d
00000050: b5c6 36be 158b 3b3d 67b3 863c 42d5 dfbd
00000060: d0e8 ce3b 74e7 aabc c463 bebd d7e3 1f3d
00000070: 656f 93bd 519e 16be d3af 0bbe e638 12be
00000080: aa33 72bc 51c9 dcbd 19db 533d b83b b2bd
00000090: a1b7 4ebc b200 1d3d 2d90 3bbe d790 893d
000000a0: 8e13 c2bd 2753 0fbd 93b8 ce3d eaf1 c6bc
000000b0: 234d 693d 7809 9b3d 0c09 9d3c bc3e ab3d
000000c0: 762e 06be 6a98 4cbe 4488 92bc a1e3 82ba
000000d0: ac84 dfbc 7984 8b3d b91e 8c3b 8e18 c23d
000000e0: ff33 6e3d 5a7f 213d a7f5 04bd bcc4 a43d
000000f0: dbfe 8f3d 5e5c e7bc 11f5 adb9 252c 9f3d
00000100: bb0b d5bd b054 bfbc d1cf 82bd 0247 fd3b
00000110: 9566 44be 0d0b 8bbd 556f 17bd c8ee ba3d
00000120: b348 743b 5f6e 7abc 4727 6f3c 23ce 0abe
00000130: 720c b53d 91fc f7bd d317 3bbe e167 8cbd
00000140: 56bf 9fbd 7eb3 09be 67ca 5c3d fd39 e6bd
00000150: 31d0 2fbe 4a78 07bd a483 26bd f637 763c
00000160: b4b6 133d 6d36 9ebb e8d7 8dbd c69a ba3c
00000170: 7955 ddbc 4164 8a3d 0c35 32be f03d 3fbd
00000180: bb18 cd3c cb07 5bbd 5550 0aba ddb4 7dbd
00000190: d31a 58bd afaa 2dbe e76e 38be b35b 63bd
000001a0: 2d3a 0abd 7d8d bf3d 4122 65bd c7f6 2ebe
000001b0: e2f1 5ebd ecb3 4f3d e0e8 55bd 094b febc
000001c0: b504 213d 06f8 e1bd 365d 8a3c c5fe 53bc
000001d0: 8765 4f3d 531d 8ebd 177e 82bc c07c 693d
000001e0: db57 4bbd c501 5aba 3b79 29be 1eee 303d
000001f0: a922 0ebc 0777 16be 21a8 9ebd 84bc a7bd
00000200: ebf5 a9bd b917 fd3b 05b5 e63d bd78 b93b
00000210: ca1c 09be bc80 debd 3a69 833d 60f6 a63c
00000220: 379e 5e3d 0c97 fbbc 384a 3e3d d1be 28be
00000230: bf06 8cbd d4aa 8ebd aeba 7dbd ec3e 90bd
00000240: d0f7 e23c 8a84 f7bd 7c68 cd3c b1f0 b53d
00000250: 82e9 eabd c454 27bc b4fa 10be bcfc 203d
00000260: e1f4 863c d8c1 9bbc 4e11 dcba f4e6 9a3d
00000270: 563e 66bd e3e5 f03c f76b 79bd e3d1 a1ba
00000280: acac 66bc 7c5d 14be 9daa 5cbc 362f 693d
00000290: bb29 9f3d e3dd 90bd b9c9 49be 9bbb 95bd
000002a0: 4bfd 1abe 17f1 08be 623a cc3d efa9 0ebe
000002b0: b8f2 863c 18e4 593d 9e02 943b 763b 4e3d
000002c0: 52f3 9ebd 5961 6dbd 884d b3bc 7bb7 e13d
000002d0: 822c 373d db55 c7bd 8038 033d 7b48 74bd
000002e0: 5703 b3bd eb56 9fbd 1e83 7cbd 9f62 bcbd
000002f0: 64f8 b33b aa66 cabc 8058 5b3d d9be bcbd
00000300: 4d90 213a 28a2 8f3d 17eb 40bd 2ed9 04bd
00000310: 55dd 953d acc5 86bc d1ed a9bd e91a 2c3d
00000320: 1d06 4bbd 66ec 97bd 5958 79bd e043 2c3c
00000330: 2169 7bbc 11f9 e13c f215 9e3d d9c9 1cbe
00000340: 7a01 d0bd c1f3 ab3d 7ae1 5abd 01f9 5b3d
00000350: aa7c a03d 52c4 83bc 1025 cb3d 539b fc3d
00000360: ae28 15be 75dd fbbd 9ab2 503d d234 923d
00000370: e677 ee3c abc6 22bc ce5b 123d 8d15 7c3c
00000380: da8c b0bb 0534 76bd 5059 f6bc d6ab 8abd
00000390: 311c 91bc ccdf e83c 9fad 02bd b78b 40be
000003a0: 6e98 db3c 0565 fdbc b028 a9bd 37e8 1dbc
000003b0: 05a3 aebd d7a0 65bd 4c85 78bd 2405 48be
000003c0: f309 c43d 80a8 e23c 24ce 0bbc 8d1d 9d3d
000003d0: 67b0 1dbe 829a c1bd 8402 4cbe d44d d2bd
000003e0: e338 71bd d4fe d13c 47fe e7bc 6af5 bbbd
000003f0: 480e 7d3d f803 da3d d8d4 63bd 7896 9fbd

fc3.bias f4 [32]
0.038386717 0.04247814 0.054728113 0.049651973 -0.040167358 -0.089650206 -0.041121043 0.036043927
0.10507881 0.005596015 0.0755579 -0.10954259 -0.092391305 -0.08569099 0.07433296 -0.07272932
0.096890196 0.11449371 0.00030382723 0.0588014 0.03704523 -0.118027814 -0.06422096 -0.028719457
-0.060156647 -0.0606375 -0.021484096 0.016072638 -0.022309119 0.07160517 0.0051344074 0.051423352
00000000: 643b 1d3d 8ffd 2d3d 962a 603d de5f 4b3d
00000010: 8786 24bd 879a b7bd 8a6e 28bd cca2 133d
00000020: 8f33 d73d c75e b73b 1abe 9a3d de57 e0bd
00000030: a737 bdbd c27e afbd e13b 983d 1cf3 94bd
00000040: 5e6e c63d ae7b ea3d 004b 9f39 bdd9 703d
00000050: bdbc 173d 91b8 f1bd 4786 83bd 1145 ebbc
00000060: d166 76bd 075f 78bd 6aff afbc c4aa 833c
00000070: 9dc1 b6bc bba5 923d 883e a83b 4ba1 523d

bn3.weight f4 [32]
0.9476153 1.202778 1.0551114 1.3122466 0.858593 0.851958 1.1048626 0.9506152
0.86620504 0.8976092 1.2666672 1.1650456 0.9995308 1.2577708 0.92275536 0.9616467
1.1521615 1.1997111 1.1453378 0.9777983 1.2426151 0.96734995 0.8681411 0.94563776
1.0587308 1.2005233 1.0291643 1.0335495 0.8964008 1.0189883 1.1796829 0.89011264
00000000: eb96 723f a1f4 993f e40d 873f b2f7 a73f
00000010: c0cc 5b3f eb19 5a3f 236c 8d3f 855b 733f
00000020: 9dbf 5d3f b7c9 653f 2722 a23f 3720 953f
00000030: 40e1 7f3f a2fe a03f b239 6c3f 7a2e 763f
00000040: 077a 933f 2290 993f 6e9a 923f fd50 7a3f
00000050: 030e 9f3f 3fa4 773f 7f3e 5e3f 5115 723f
00000060: 7e84 873f bfaa 993f a8bb 833f 5a4b 843f
00000070: 867a 653f 356e 823f d9ff 963f 6cde 633f

bn3.bias f4 [32]
0.13906105 0.14377996 0.17711219 0.09443621 -0.19745779 -0.19157211 0.27142859 -0.07129608
-0.01593449 -0.18568556 0.038659062 0.039705545 0.12025388 0.25752732 -0.21469639 -0.18295887
-0.008441844 -0.041167293 0.005292969 0.057486173 0.104907855 -0.25166887 -0.16262338 -0.16728054
0.08013451 0.16807528 0.05230455 -0.2271019 -0.17113264 -0.038297806 0.13465863 -0.19018029
00000000: 0566 0e3e 0e3b 133e e65c 353e c667 c13d
00000010: 6032 4abe 7b2b 44be b0f8 8a3e ae03 92bd
00000020: 0c89 82bc 5b24 3ebe f758 1e3d 48a2 223d
00000030: ab47 f63d 9fda 833e 5fd9 5bbe 9259 3bbe
00000040: a94f 0abc 099f 28bd a470 ad3b 9f76 6b3d
00000050: eed9 d63d beda 80be be86 26be 974b 2bbe
00000060: 901d a43d ed1b 2c3e 4c3d 563d 678d 68be
00000070: 653d 2fbe 29de 1cbd f4e3 093e 9fbe 42be

bn3.running_mean f4 [32]
-0.17134829 -0.7580932 -0.48460317 -0.36970568 -0.30490357 -0.57842356 -0.55208266 -0.3938958
-0.36223155 0.08657483 -0.5282798 -0.63230973 -0.57486993 -0.6753463 -0.20193167 0.07135263
-0.38315824 -0.44559437 -0.3714296 -0.20622739 -0.42335355 -0.15897521 -0.2922345 0.039788872
-0.754807 -0.72657835 -0.36245134 -0.059145838 -0.5174809 -0.54235816 -0.62696636 -0.32579553
00000000: ed75 2fbe 6512 42bf e81d f8be 104a bdbe
00000010: 521c 9cbe 9113 14bf 4a55 0dbf b6ac c9be
00000020: 6a76 b9be 254e b13d 583d 07bf 0ddf 21bf
00000030: ad2a 13bf 7fe3 2cbf 2dc7 4ebe 5421 923d
00000040: 512d c4be f224 e4be 052c bebe 462d 53be
00000050: ccc1 d8be 66ca 22be c39f 95be a8f9 223d
00000060: 083b 41bf 0a01 3abf 3993 b9be e842 72bd
00000070: a179 04bf fcd7 0abf de80 20bf acce a6be

bn3.running_var f4 [32]
1.085223 1.2272904 1.0309573 1.4161426 0.2849899 0.5856104 1.1872408 1.0288607
0.8869802 0.17817052 1.2384565 1.2138782 1.1714346 0.98010814 0.33705032 0.3818484
0.9804387 0.983814 0.5767925 0.83291835 1.5188069 0.4676556 0.3539259 0.16506533
1.1658403 0.9324503 0.8739544 0.25935906 0.5198995 1.3617439 0.9012385 0.3257958
00000000: 96e8 8a3f da17 9d3f 69f6 833f 2944 b53f
00000010: 32ea 913e 90ea 153f 82f7 973f b5b1 833f
00000020: 2211 633f 5572 363e be85 9e3f 5c60 9b3f
00000030: 92f1 953f 5ee8 7a3f dc91 ac3e a281 c33e
00000040: 08fe 7a3f 3cdb 7b3f aca8 133f 233a 553f
00000050: 4468 c23f 8e70 ef3e c735 b53e e306 293e
00000060: 413a 953f 10b5 6e3f 7abb 5f3f b6ca 843e
00000070: 2218 053f a04d ae3f 91b7 663f b5ce a63e
