MELOSDP/SDP/chkpt/kc2/linear/15/sdp_classifier_linear-340.pth (torch, 68704 bytes, 25 tensors)

fc1.weight f4 [128, 21]
00000000: 24bb 263d 9082 2fbe 9682 1bbe f487 903d
00000010: 1a42 1abe 097c f5bd b5b5 a6bc bf02 fbbd
00000020: 6e29 123e 944a 0d3e 69ca bc3d 85c7 08be
00000030: 81e8 373d 2945 8dbd 5e8c e23d 7fa5 91be
00000040: fddb 8f3d 1f66 143c f37f fe3d fa3c 4f3d
00000050: b12a e7bd fd9a d0bd 5de8 81be c6c4 263e
00000060: 803b 02bd 0d60 3b3e 571c 75be ed41 74bd
00000070: e1e8 91bd 997d 00bd 2928 6d3d a961 08be
00000080: 0fce dabd 9826 a13d 40c1 063e d307 45bc
00000090: 4160 06be 9eb4 5cbe 82f1 6dbd 9825 34bd
000000a0: 6a62 413e 0bae ddbd 01f7 3b3e c6fc 01be
000000b0: 9ac9 753e c539 5bbc 194b 473e 4951 123e
000000c0: 007b 8f3d 461a 37bd 63e3 8fbd 1c19 c0bd
000000d0: 1912 633e d5f2 9f3d 4f70 16bd 65a5 353e
000000e0: 74ef 5bbd 2c41 1fbe 6472 56be 8057 b8bd
000000f0: a470 56bd 537a f6bd d963 c13d 9d4d 04be
00000100: 95a5 71be 3e3c 3dbc 34c8 283e 260c 473e
00000110: 2682 e53c a2f4 50bd 52bd df3d f432 613e
00000120: 7c22 8fbd dfb5 e2bd 5893 083d 49da 26bb
00000130: b405 29be dfa4 f73c bf13 ae3c c5b1 b33c
00000140: b7e0 52be a3ff 12be 186b cbbc ad0a 643d
00000150: 8598 93bd bcb0 0ebe 60da d33b 338f 1ebe
00000160: e0e9 473e db02 703c f2b9 283d 7fde 093d
00000170: 6b3b 7fbe d3de a53d 835b d0bd 5cbf d43c
00000180: ca8d 51be d2ca 2c3e ea0e 833d 8e70 be3d
00000190: 4bb5 fe3d 8711 21be b2d9 21be 84b6 803b
000001a0: 7d3c 633d 8c65 0f3e 3ea2 51be fc0d 2a3d
000001b0: 4f2e f2bc 215b 1dbd 5c76 223e 6ced 0e3e
000001c0: eb11 463e c39c 383d 362b 323b 9c82 0b3e
000001d0: d1f7 5d3e b294 213e 3149 a13d 9517 adbd
000001e0: b66f 0c3e ad07 81bd 7f3c 4dbe cafd 27be
000001f0: e1da 373c 3363 7dbd 1c56 6bbd 618f 23bd
00000200: 922d 033d 0b65 12bd f574 0abe 0fee 353e
00000210: 40da 78bd 4f93 85bd f35f c1bd 6409 743d
00000220: 7adc 203e 46af 543e 04a5 f1bd 3218 24be
00000230: 4a22 5cbe f78c 173e b0b3 183e ba04 2dbe
00000240: 0c2b 14be c0ba a8bd e39b 273e 5182 5bbe
00000250: bf62 95bd fd66 003c 5b7b dbbd 96e2 393d
00000260: 7af7 173e df0b 66bd 0142 bd3c a1bd 79be
00000270: 7870 4a3e e4cd e8bd 4b1e b03d dbcf 43be
00000280: a3c7 e23d fae5 213c 2d77 903c 3307 013e
00000290: 4d6b d3bd 78aa 28be c53b de3d d8d4 263e
000002a0: 46a1 f4bd 4fbc 033e 1f3b ad3d aff6 d4bd
000002b0: 5bd7 453e 4ac0 313d 9b22 343c 6b6f c13d
000002c0: d80f c7b7 d89b 76bd 13d5 2bbe 040a e8bc
000002d0: f387 86bd c8d6 393e cc25 cdbc c3de 653e
000002e0: ee5f 6abd 84f1 043e c8c2 fb3d aca4 463e
000002f0: b79b cf3d 5cdf a53d e0d5 24be 3f3b bc3d
00000300: bf53 b53d e006 99bd b91a 073e 7f2d 3b3e
00000310: 466d 193d a1c8 12be ee37 1bbc 4f2d 163e
00000320: b04b 8d3d 2539 21bd 91dc d9bd 7134 363e
00000330: aaa6 75bd 0d04 203d 39b8 b93d 3133 2b3d
00000340: 8107 59be 0903 d73d c3f6 b43b e024 4d3e
00000350: 93dd d0bd 82ad 5abe 8b93 71bd e133 fabd
00000360: c241 3c3e 6914 e13d 4462 17bd 3464 20be
00000370: 9145 a13d f330 8ebd 5989 753d 7d39 24bc
00000380: 80e8 5ebe 39cf 263d 8c8c b23d e28e 113e
00000390: 6301 9bbd 67fb a1bd bd81 cd3d bbcb 67bd
000003a0: 7911 0f3e 9ae9 89bd f38c 38bd f327 553d
000003b0: c2b5 e8bd b32a 27be e2e5 48be 8c71 8f3d
000003c0: cdbf 1d3c a91c 10bd d39f 3bbd 508b 7d3e
000003d0: 9102 2dbe d47f 503e 5ccc a4bb 353d 18bc
000003e0: 06c2 5bbe 21d7 afbd 5299 e23d a11d 4d3e
000003f0: 6290 123e cdc4 f1bd 12eb 54be 5bec 413e
0.040705815 -0.1713965 -0.15186533 0.07057181 -0.15064278 -0.119865485 -0.020350317 -0.12256383
0.14273617 0.1379798 0.09218294 -0.1335736 0.044899467 -0.06897957 0.11061929 -0.28446576
0.07024381 0.009057551 0.12426748 0.05059526 -0.112874396 -0.10185812 -0.25372592 0.16286
-0.031795025 0.18298359 -0.23936592 -0.059633184 -0.07124496 -0.03136978 0.057899628 -0.13318504
-0.10683834 0.07868689 0.13159657 -0.012025791 -0.13122655 -0.21553275 -0.058091648 -0.043981165
0.18885198 -0.10824212 0.18355943 -0.12694082 0.24002686 -0.013380473 0.19462241 0.1428882
0.07005882 -0.04470279 -0.070257924 -0.09379789 0.22174872 0.078099884 -0.0367282 0.17738874
-0.053695157 -0.15552205 -0.20942074 -0.09001064 -0.052353516 -0.1203505 0.094428726 -0.12920232
-0.23598321 -0.011550007 0.16482621 0.19438228 0.028016161 -0.05101455 0.10924782 0.21992093
-0.06988999 -0.110698454 0.033343643 -0.0025459698 -0.16506082 0.030229984 0.02124965 0.021935353
-0.20593534 -0.1435533 -0.02483134 0.055674244 -0.07206825 -0.13934606 0.0064652413 -0.15484314
0.1952281 0.014649118 0.041192956 0.033659454 -0.2492501 0.08099141 -0.101737045 0.025970154
-0.20464244 0.16874245 0.06399329 0.09298812 0.12436923 -0.15729342 -0.158057 0.0039280076
0.055477608 0.14003581 -0.20472047 0.041517243 -0.029563097 -0.038416985 0.15865463 0.13957757
0.19342773 0.045071375 0.00271864 0.13624042 0.21676566 0.15779379 0.07875288 -0.084517635
0.1371449 -0.06300292 -0.20042609 -0.16405407 0.011221618 -0.061862182 -0.057455167 -0.03993166
0.03202588 -0.035740893 -0.13521178 0.17766593 -0.060755014 -0.065222375 -0.09442129 0.059579268
0.15709105 0.20769987 -0.11799052 -0.16024855 -0.21497455 0.14799868 0.14912295 -0.16896334
-0.14469546 -0.08238745 0.1636806 -0.2143643 -0.07294225 0.007837054 -0.107168876 0.045382105
0.14840499 -0.056163665 0.023102762 -0.24388744 0.19769466 -0.113673955 0.08599528 -0.1912226
0.11073234 0.009881491 0.017634952 0.12600403 -0.103232004 -0.16471279 0.10851244 0.16292131
-0.11944823 0.12864803 0.08458542 -0.10398614 0.19320433 0.04339627 0.010994579 0.094450794
-2.3730026e-05 -0.060207218 -0.167805 -0.028325088 -0.06568899 0.18148339 -0.025042437 0.22448258
-0.057220392 0.12982756 0.12293011 0.19398755 0.10137122 0.08099243 -0.16097212 0.09190988
0.08853864 -0.074720144 0.13193788 0.18279074 0.037457727 -0.14334346 -0.009473784 0.14665721
0.06899202 -0.039361138 -0.10637773 0.17793442 -0.059973396 0.039066363 0.09068341 0.041796867
-0.21194269 0.10498626 0.0055225804 0.20033598 -0.10198512 -0.2135525 -0.0589786 -0.12216926
0.1838446 0.10990221 -0.036958948 -0.15663224 0.07874597 -0.0694293 0.059945438 -0.010023472
-0.21768379 0.040724967 0.087182134 0.14214662 -0.07568624 -0.07909279 0.10034511 -0.056590777
0.13971509 -0.06734009 -0.045056295 0.05204005 -0.113627926 -0.16324882 -0.19618943 0.07004079
0.009628248 -0.035183582 -0.045806717 0.24760175 -0.1689551 0.20361263 -0.0050292443 -0.009291937
-0.21460733 -0.085859545 0.110644 0.20030834 0.1431289 -0.11805115 -0.20792797 0.18937819

fc1.bias f4 [128]
00000000: a24e 3f3e 2f55 31be 6eec f03d 20f0 dbbd
00000010: be92 fb3c 5801 463e 6bd1 48bc af81 26be
00000020: fcd8 1b3e e59e 993d ba82 f7bc 5de2 c13d
00000030: 2a81 85bd 629c ce3d 3553 26be 738f f9bd
00000040: 5202 193e 1727 19be 3131 353e 5876 41bd
00000050: 08aa 07be d8ed 1c3e 3a2a 45be 8da7 acbd
00000060: 2808 383c 4093 0dbe 471f 0cbe c9f8 983d
00000070: 3432 553e e185 55be 8ddb 473e e160 26be
00000080: 5899 1bbd e9d6 1a3e 91cd 2d3e 8d21 0abd
00000090: e3e2 c33c ba59 363e 9b0f 893d 00a6 0c3e
000000a0: c830 1ebe 3ca3 ff3d d63e 22be 5239 1b3e
000000b0: 8534 8d3d 7b0b 93bd 8683 9abd f8c1 223e
000000c0: 6b65 a9bd 07d9 d13d e96b 793d feeb 683d
000000d0: 61fc 413c 3431 36be 6578 8dbd 54c8 713c
000000e0: 22ae 953b 7b0f 27be 4d1c 943d b061 843c
000000f0: a830 8dbd 4ce4 513e a600 4f3e e255 0fbd
00000100: b592 4d3e 13da 303e efa4 833c 9c65 a03b
00000110: 3a41 8dbd dce6 ebbd a95c 253e 1bd5 bbbc
00000120: 1d32 8e3d 9600 debd c89c 5b3e 23eb 78bd
00000130: c404 1cbe 55bc 35bc c13a 9a3d 2bf2 203d
00000140: d57d e73c 265b 5f3e 77c8 303e ccb4 b2bd
00000150: 5639 f93c dccd a8bd 3182 113e 76b8 19be
00000160: 526a 0d3e 57f0 eb3d 94f9 31be ce83 31be
00000170: eb6d 063e e14b 13bd 626a 2abe cb32 62be
00000180: b6c3 8abd 6b4d 5b3e 3cd2 e73d e3b6 263e
00000190: 9afa a73d 895d 0b3e 635d 323d 258a 2d3e
000001a0: 2db6 183c f50a efbd e34a 9bbb 856d 233e
000001b0: 3b2e 2bbe 9405 e0bd 03aa 62bd cc1a 053d
000001c0: cfd6 a9bc 0ed8 343e a3de 023e 7ea7 f9bd
000001d0: ed2e 2ebe 90fe 95bd f939 8dbd 66e6 0ebe
000001e0: 24a9 5bbe 18a5 b0bd dd7f b53c 23a0 f5bd
000001f0: 0cd5 08be 8edf b4bd b48f fdbd 8475 5f3e
0.1868234 -0.17317651 0.117638454 -0.107391596 0.03070962 0.1933645 -0.01225696 -0.16260408
0.15219492 0.0750101 -0.030213702 0.094670035 -0.06518777 0.100884214 -0.16242678 -0.12185564
0.14942291 -0.14956318 0.17694546 -0.047232002 -0.13248456 0.15325105 -0.1925439 -0.08430395
0.011232413 -0.13825703 -0.13683806 0.07469327 0.20819932 -0.20851852 0.19517346 -0.16247894
-0.037988037 0.15121044 0.16972949 -0.033723403 0.023911899 0.17807665 0.0669243 0.13735199
-0.15448296 0.12482306 -0.15844283 0.15158585 0.06894783 -0.07179924 -0.07544617 0.15894306
-0.08271297 0.10246473 0.060893927 0.056865685 0.011839957 -0.17792207 -0.06907729 0.014757235
0.0045678774 -0.16314499 0.072319604 0.016159862 -0.06894046 0.20497245 0.20215091 -0.034994014
0.20075496 0.17270689 0.016069857 0.0048949253 -0.068972066 -0.11518642 0.16148628 -0.022928765
0.06943152 -0.108399555 0.21446526 -0.06077112 -0.15236193 -0.011092265 0.07530738 0.03929345
0.028258244 0.21812114 0.17263971 -0.087258905 0.030422848 -0.082423896 0.1420982 -0.15011773
0.13810089 0.115204506 -0.17380363 -0.17335436 0.13127868 -0.035961036 -0.16642144 -0.22089688
-0.0677561 0.21416251 0.11319396 0.16280703 0.08202095 0.136099 0.04354609 0.16947229
0.009320778 -0.11672012 -0.004739152 0.15959747 -0.16716854 -0.10938564 -0.055337917 0.03249626
-0.020732312 0.17660543 0.12780242 -0.1219015 -0.17010088 -0.073239446 -0.06895823 -0.13955078
-0.21451241 -0.08625239 0.022155697 -0.11993434 -0.13362521 -0.08831702 -0.12380925 0.21822172

bn1.weight f4 [128]
00000000: 4e5b 843f 23d7 7a3f a32b 7e3f c2cd 893f
00000010: 44a5 8e3f 09a9 7c3f 8012 713f b757 8f3f
00000020: e7ed 723f e6ad 773f cfb2 843f e7a9 783f
00000030: d104 8b3f 98c1 7a3f 66f1 763f c983 893f
00000040: 8357 7b3f eabd 803f ec77 813f bd60 7d3f
00000050: 6496 7a3f 6df0 793f 2216 893f 39ce 7d3f
00000060: c134 7e3f 4865 8d3f 9d0f 7a3f fcc8 793f
00000070: a30e 9f3f 5efc 7e3f 0515 733f 1594 953f
00000080: bb4d 713f 5b69 7d3f 5f59 833f db31 863f
00000090: 3488 783f 45b9 7d3f a1cd 743f b044 843f
000000a0: 95ec 7a3f 7bbb 873f a7e7 783f f793 813f
000000b0: cf78 813f 6866 863f 917c 8c3f 4557 923f
000000c0: 25db 7b3f 5014 903f 84ee 733f a2f2 893f
000000d0: 3b81 7f3f f390 7c3f 76c7 863f e6b8 8c3f
000000e0: 7567 713f eca2 893f c03e 803f cc04 773f
000000f0: 243a 943f 5815 7e3f 49c4 763f f6bb 893f
00000100: 30b2 833f f8bd 763f 1f70 6e3f 9efa 753f
00000110: cac0 6a3f e59d 863f af0a 743f 14af 8f3f
00000120: c0de 743f 1dea 803f df5d 823f 38c8 813f
00000130: dab3 853f 3405 6f3f f146 7f3f 9e4f 833f
00000140: 7532 793f fc53 883f 52f0 773f 34e9 7f3f
00000150: bb86 793f 02eb 793f 6dba 893f e6ad 823f
00000160: 07f0 863f 2089 853f a1bc 753f c4bf 773f
00000170: 4af8 853f 81b6 7a3f 6fb9 803f 3313 8a3f
00000180: dad9 723f f8d8 713f fcf2 883f cdc1 713f
00000190: 1ced 843f 9a7f 7a3f 37d5 8c3f 8e93 7e3f
000001a0: bb73 933f 44c8 943f 4a5b 833f 9514 8b3f
000001b0: 15ff 863f 39b0 7a3f a6ea 783f 60cd 8c3f
000001c0: dec5 803f bb95 7b3f aae1 873f 01f3 893f
000001d0: 31a2 873f 7e62 803f 2ec0 813f 14ce 7e3f
000001e0: c440 7d3f 9a14 873f 1276 873f 86a6 813f
000001f0: 332e 833f 306a 803f ad9e 793f d7a8 8b3f
1.0340364 0.9798452 0.99285334 1.0765917 1.1144185 0.9869543 0.94168854 1.1198643
0.9489426 0.9674972 1.0367068 0.9713425 1.0860845 0.9795165 0.96462095 1.0743343
0.9818041 1.0057957 1.0114722 0.98975736 0.9788573 0.97632486 1.0709879 0.99142796
0.99299246 1.1046534 0.97680074 0.975723 1.2426342 0.9960383 0.9495395 1.1685816
0.9425923 0.98988885 1.0261649 1.0483965 0.9708283 0.99110824 0.95626265 1.0333462
0.98017246 1.060409 0.97228473 1.012328 1.0114993 1.0500002 1.0975515 1.1432883
0.98381263 1.1256199 0.9528582 1.0777171 0.99806565 0.98658675 1.0529621 1.0993927
0.9429849 1.0752845 1.001915 0.96491694 1.1580243 0.9925132 0.9639326 1.0760486
1.0288754 0.9638362 0.93139833 0.96085536 0.9170042 1.0516936 0.953288 1.1225305
0.9565239 1.0071446 1.0184897 1.0139227 1.0445511 0.93367314 0.99717623 1.0258672
0.97342616 1.065063 0.96851075 0.99965215 0.9747121 0.9762422 1.0760018 1.020932
1.0542 1.0432472 0.9599095 0.96776986 1.0466397 0.9793473 1.005659 1.0787109
0.94863665 0.94471693 1.0699153 0.9443634 1.038486 0.97850955 1.1002568 0.994439
1.1519693 1.1623616 1.0262234 1.0865656 1.0546595 0.97925144 0.97233045 1.1000175
1.0060384 0.98275346 1.0615742 1.0777284 1.0596372 1.0030057 1.0136774 0.995332
0.9892695 1.0553162 1.0582907 1.0128944 1.0248474 1.0032406 0.97507745 1.0910901

bn1.bias f4 [128]
00000000: 7dd2 23bd c9f9 21bc beba 35bc c7e6 5dbd
00000010: 7166 1bbd 5702 debc cfd5 37bd be92 b7bd
00000020: a013 68bd 9b2c 7dbd 3b45 1ab9 e095 6ebd
00000030: 954c 72bd 5a51 adbc 5b19 d8bd 318f 6cbd
00000040: f6f2 babd 4742 5abd 5b6c 61bd 1bc2 93bd
00000050: b857 bcbd 7ea2 dbbc f1c9 1a3d 413e ddbc
00000060: c6c2 23bc d8f2 e5bd 9b6c fdbc 49bf aebc
00000070: c8ee 2cbe 0659 1dbd bc0f 82bd d971 403d
00000080: 26a2 273d e019 2b3d 9810 b5bb b305 153a
00000090: 03a9 24bd 79f8 74bd 4424 d6bc f1fa 1ebd
000000a0: 6976 223b e209 5dbd 73a4 efbd feb9 50bd
000000b0: b67e 7ebd a6cb e6bd dab0 c9bd a12c 1dbd
000000c0: 8801 88bd 75b2 44bd 45a7 1bbd c940 bdbd
000000d0: 6a26 1bbd 92e9 87bd b8d8 8bbd 713d 643b
000000e0: 6efc babd 518d 79bd 10b0 6fbd 48fc 68bc
000000f0: 6dbc 3abd 3a4a 9fbd 7bdf 26bd 69b7 2abe
00000100: 9e7d ddbd 2d43 0ebd f1b2 69bd ef1e 3a3c
00000110: dc84 cebc 48ec 7f3c 675d 9bbd f7c4 aabd
00000120: bc66 8cbb 3c6d 113c e693 8abd d564 9ebc
00000130: 4c51 86bd 9fa3 29bd 7ea9 54bd 323d 44bd
00000140: eba7 3bbc fafa 08be dc27 8ebc c90b 90b9
00000150: 529f 0dbd 3e4e 03bc eddb 7ebb b4c1 06bd
00000160: 0b4b 913d 663e 28bd 35cf 71bc e8b4 b13a
00000170: 76de 8abd a8f8 093d 1e3b 593c 85b8 25bd
00000180: 6fdc 50bd 53f2 60bd 0978 83bc 5762 76bd
00000190: 829b 80bd b3e8 283d b92b 573c 4e9b ce3c
000001a0: 5bc4 15be d9a2 35bc bb41 2a3d 9d17 983b
000001b0: b525 88ba 0e41 98bc b1dc a53c b77e 0dbd
000001c0: 79cf 81bd 46e6 e6bd 322f e0bc 661f 09ba
000001d0: 83f8 8fbc 29a9 26bd b0f9 de3b 927a f6bc
000001e0: a17f 10bc 7314 b43c 4ef0 e7bc e951 dd3c
000001f0: cfb9 3f3d 3e9b 7ebc 9d49 63bd 6561 0abe
-0.03999566 -0.009886214 -0.011091886 -0.054175165 -0.037939493 -0.027100725 -0.04488164 -0.08963536
-0.05665934 -0.061810117 -0.00014712375 -0.0582484 -0.059155066 -0.021156956 -0.10551711 -0.057753745
-0.09128372 -0.053285863 -0.055034976 -0.07214757 -0.091964185 -0.02681088 0.037790243 -0.027007224
-0.009995168 -0.112279594 -0.030935576 -0.021331446 -0.16887963 -0.038414977 -0.06350657 0.046983574
0.04092612 0.041772723 -0.00552566 0.0005684748 -0.040200245 -0.059807274 -0.02614034 -0.038813535
0.0024789816 -0.053964503 -0.11701288 -0.050958626 -0.06213256 -0.112693116 -0.09848185 -0.03837264
-0.06640917 -0.048021752 -0.038001318 -0.092408724 -0.03787843 -0.06636347 -0.06828445 0.003482666
-0.091301784 -0.060925785 -0.058517516 -0.014220305 -0.045589853 -0.077778295 -0.04074047 -0.16671528
-0.10814975 -0.034732033 -0.057055417 0.011359914 -0.025209837 0.015620299 -0.075861745 -0.08338349
-0.004284708 0.008876141 -0.06766491 -0.01933519 -0.06558475 -0.041415807 -0.051919453 -0.047909923
-0.011453609 -0.1337699 -0.01735299 -0.000274746 -0.034575768 -0.00801426 -0.003888841 -0.032899573
0.070943914 -0.041075133 -0.014758875 0.0013557943 -0.06780712 0.033684403 0.013258724 -0.040459175
-0.05099147 -0.0549186 -0.016048448 -0.060152378 -0.06279661 0.041237544 0.013132983 0.02522054
-0.14625685 -0.011086189 0.04156659 0.004641487 -0.0010387214 -0.018585708 0.020246835 -0.034544673
-0.063384004 -0.1127439 -0.027366254 -0.0005230814 -0.017574554 -0.040688667 0.0068046674 -0.030087743
-0.008819492 0.021982407 -0.028312828 0.027016597 0.04680806 -0.015539942 -0.055490125 -0.13513716

bn1.running_mean f4 [128]
00000000: db95 343e 62ac 48be c69a f53d 6a23 eabd
00000010: 4f31 8a3c c407 4b3e 139b b4bc e337 29be
00000020: 15f0 373e 18fb 9b3d cceb 45bd 2c5f d33d
00000030: 5daf 91bd 2335 f73d 1648 19be 60ea 0abe
00000040: fe46 193e af28 17be fb45 333e a24e 11bd
00000050: 546b dcbd cc36 0f3e 22f6 47be fde6 e0bd
00000060: 338b 033d 615e 12be 78b0 ddbd 241a a33d
00000070: 079c 513e af1d 57be ca52 5d3e a012 25be
00000080: 6c86 63bc 1b82 1b3e 1046 0f3e e313 42bd
00000090: 50cf 713d 8fc5 2b3e e25e 073d 0ed4 e93d
000000a0: b8b5 f6bd f1f7 dc3d d7d7 23be f7de 193e
000000b0: 0da4 963d 9219 8abd f114 a1bd 2286 173e
000000c0: 7d82 c6bd 59e6 c33d 3fbb 493d d6d1 263d
000000d0: 0593 c7bb 9401 22be 605e b3bd 5fba 143c
000000e0: 0e5f d43c 7ddb 35be fbc2 9c3d 35ee 283d
000000f0: 968d 94bd aa22 3f3e 5b7c 7a3e b7c2 1abd
00000100: ae17 4c3e e1e8 5b3e 3ab7 943c 2543 27bd
00000110: 4edf 77bd 5a7d 0ebe de78 263e f305 e6bc
00000120: 08c8 bd3d 4dbf cebd 1adf 593e e644 98bd
00000130: fcab 29be 3df4 f83b 4e27 793d ad9a d13c
00000140: 8239 2c3d 395e 563e 066a 3f3e 2c58 a4bd
00000150: f873 8c3d 96fa 9abd bb6e 103e 538e 1abe
00000160: bc9e 073e 00fe e53d f7db 20be 1f0d 1ebe
00000170: 9620 023e dbf7 61bd d582 49be 93a2 5fbe
00000180: 5706 ddbc dda7 6f3e a33f b63d 3d12 353e
00000190: e6a2 933d 7cfb 253e 153e 323d b0b1 3a3e
000001a0: e149 943b 5a99 eebd a61a 42bd 04cf 1a3e
000001b0: bcbb 5dbe 3825 9abd ce16 5abc 791d 063d
000001c0: 0ab2 b9bc 45b5 313e 7d30 003e ca19 08be
000001d0: d518 34be fa22 96bd 3ebf b9bd bfb8 09be
000001e0: 4265 7bbe 611c b1bd 5011 903c ea7e e4bd
000001f0: 7e73 17be 3b54 bbbd 6aab b0bd 8f73 5d3e
0.1763529 -0.19597009 0.11992411 -0.11432536 0.016869215 0.19827181 -0.022046601 -0.16525225
0.17962678 0.07616252 -0.048320577 0.10320887 -0.07113526 0.12070682 -0.14968905 -0.1356597
0.14968488 -0.14761613 0.17507164 -0.03547538 -0.10762659 0.13985747 -0.19527486 -0.109815575
0.032115173 -0.14293815 -0.10824674 0.0796397 0.20469676 -0.21007417 0.21613613 -0.16120386
-0.013887029 0.1518635 0.1399157 -0.047382247 0.0590356 0.16774581 0.03304947 0.11417399
-0.12046379 0.107894786 -0.16000305 0.1502646 0.07355509 -0.067431584 -0.078653224 0.14797261
-0.096928574 0.0956542 0.049250837 0.04072746 -0.006090524 -0.15820915 -0.08758235 0.009077637
0.025924232 -0.1775951 0.07654377 0.041242797 -0.07253568 0.18665567 0.244615 -0.03778335
0.19930908 0.21475555 0.018153775 -0.04083552 -0.060515694 -0.13915005 0.16257045 -0.028079009
0.092666686 -0.100950815 0.21276513 -0.07435016 -0.16569513 0.007597475 0.0608285 0.02558645
0.04204703 0.2093438 0.18692788 -0.0802463 0.06858057 -0.07567327 0.1410474 -0.15093355
0.13244146 0.11230087 -0.1570891 -0.15434693 0.12707743 -0.055168014 -0.19678815 -0.21839361
-0.026980562 0.23403879 0.088988565 0.17682739 0.07208805 0.16209215 0.043516237 0.18231845
0.0045254086 -0.11650343 -0.047388695 0.15118033 -0.21653646 -0.0752663 -0.013311101 0.03274295
-0.022667903 0.17354305 0.12518497 -0.13291088 -0.17587598 -0.0733089 -0.0906968 -0.13449381
-0.24550346 -0.08647991 0.01758638 -0.111570194 -0.1479015 -0.09146925 -0.08626445 0.21626113

bn1.running_var f4 [128]
00000000: 9778 973e 9fbb 093f d53c 9b3e 40ef d63d
00000010: 42f8 af3e 15ce 503e f3a2 213e be9a bd3d
00000020: 855d 463f 0297 0a3e ee8b 873e 4d74 a13d
00000030: c47e 363e 55be 053f 2da1 e93d b7c9 663e
00000040: 7a33 d53c 0bd8 073d 3311 b13d fe5a cd3d
00000050: 8429 133f cfb8 583e 00f1 593d 815b 323f
00000060: 6856 cf3e 6938 7b3d 8562 8e3f 97bd 233e
00000070: de9b 163c bbee 4f3c 4ed4 243f 9a84 483d
00000080: e465 273f c4d4 5e3d 0548 513f a17d 503e
00000090: 3c57 9a3f 1947 943e 9d22 9c3f 2987 9e3e
000000a0: cbe9 b43f 8816 c83e f51b 213d a837 bb3c
000000b0: 6cdd 2e3d 66fa ca3c 852b 9b3c 612d e23d
000000c0: 7993 8f3e c0d6 c53d 9172 113f 3fe2 9b3e
000000d0: 7e23 733f 63ad 603e a5eb 793e 06b5 c83d
000000e0: e009 cb3e 5c09 913e 44b4 a13d 7c68 3b3f
000000f0: 7e05 763d bfbf 8c3e 5d75 a63f f8d4 0a3d
00000100: 3cf3 a63d d09e ce3f 1cd3 9e3d 5eaa b33f
00000110: 4c2d bc3e 8239 2c3f 37e1 093e f1d7 503d
00000120: da7b 623f e655 f53d 8b4c 943d 3afa 0c3f
00000130: ceb4 c03d 2bb8 c93e 0f7f 553e a49b 983e
00000140: 0b98 a53e 6731 4a3d 90f2 4e3e 22ea 563d
00000150: 72a5 913f e3c7 363e 86fe 8d3d 9829 6b3d
00000160: 9f58 9c3d 6e84 df3d 6241 0c3f 324f 193f
00000170: d51e a13d af3c cd3e 7170 183f 3346 d13c
00000180: 68c7 af3f 2558 fa3e 9d4b 0b3f 4bde 503e
00000190: 8a2a d63d 6881 6a3f 95c7 fb3d ae5f dc3e
000001a0: 98e3 4f3d e8b4 003d 4810 ee3f 846f a43e
000001b0: 1485 1740 133c 903f d68c f03f b69f 7d3d
000001c0: 404e 2d3e bc65 8b3e bba7 4a3d 55b7 353e
000001d0: 6094 b73d c6b7 123d f5fd f23e 0525 563d
000001e0: 1112 353f f5d7 e63d aa23 e93d e476 f83d
000001f0: 056c 5c3e 4c5a 983d 8d8c ae3f 65f9 f23c
0.2958419 0.5380191 0.3031985 0.10494852 0.34369093 0.20391114 0.15784816 0.0925803
0.7748645 0.13534167 0.26473945 0.07883511 0.17821795 0.5224355 0.11407695 0.22537886
0.026025523 0.03316502 0.086458586 0.10027121 0.5748522 0.21164249 0.05320835 0.69670874
0.4049561 0.061333094 1.1123816 0.15990292 0.009192435 0.012691195 0.6438645 0.048954584
0.6538985 0.054402128 0.8175052 0.20360424 1.2057872 0.28960493 1.2198063 0.30962494
1.4133848 0.3907969 0.039333303 0.022853687 0.042691633 0.024777602 0.01894165 0.110438116
0.280422 0.09660101 0.5681544 0.3044605 0.9497603 0.21941142 0.24406298 0.098001525
0.39655972 0.28327453 0.07895711 0.73206306 0.06006383 0.2749004 1.3004566 0.03389451
0.08151862 1.6142216 0.0775511 1.4036367 0.3675331 0.6727525 0.13464819 0.050987188
0.8847023 0.119792745 0.07241162 0.55069315 0.09409486 0.39398322 0.2084925 0.29806244
0.32342562 0.04936352 0.20209718 0.05246938 1.1378615 0.17849688 0.06933312 0.057412714
0.07634091 0.10913931 0.54787266 0.5988647 0.07867209 0.4008536 0.5954657 0.025546169
1.3732729 0.48895374 0.5441225 0.20397298 0.104573324 0.9160371 0.122939266 0.43041748
0.05075416 0.031422526 1.8598719 0.3211633 2.3674974 1.1268333 1.879298 0.06191989
0.16924381 0.27226055 0.049476366 0.17745717 0.08963847 0.03581979 0.4745938 0.0522814
0.7073069 0.11271659 0.113837555 0.121320516 0.21525581 0.07439098 1.3636643 0.029659936

fc2.weight f4 [64, 128]
00000000: 9f96 783d 12f6 4c3c 5687 0e3d aeb0 9d3c
00000010: e28f 3b3d c11f c83c 5cec 57bc 9637 00bd
00000020: a6dc 78bd 6aa0 21bc 1e9f 9fbd 826f c53c
00000030: 7c10 a13d 5395 63bd 3959 f6bd b332 053d
00000040: b532 7b3d 3e4f 083c 9b19 10bd 1f79 ddbd
00000050: e115 65bb 9da5 07bc b3d5 4dbd 2dd5 abbd
00000060: e3de 7dbd d727 2a3c 3f26 933c 8f84 80bc
00000070: 7aac e8bd 7b3b d2bb fd16 0a3d d2d4 6b3c
00000080: 4786 0bbd 98c3 6abc fb67 023d a482 28bd
00000090: 77f5 d83d 026f 8c3c a92e c6bc 37ad 3b3d
000000a0: 527c 73bd 53a2 3e3d 7d85 a5bd 2e2b 323d
000000b0: 6ef8 b4bd 0461 8b3d 1d9c f73c 9509 173d
000000c0: db1a dd3c c743 cf3c c579 ddbb e2e2 71bd
000000d0: d3f4 a03d 2460 cf3b bcc3 3c3d 6f7f dbbc
000000e0: d96f a2bd 3d10 aa3c a7ee b93d ecc0 41bd
000000f0: 4050 1d3d dc8e 5fbd e437 1cbc 60a7 0aba
00000100: 672e 38bd fb3d be3d 50b6 823d 2a3c 103d
00000110: 4df5 943d 546d 29bd 3ba5 b7bd cc23 233d
00000120: d127 233d 6c85 ac3d 5c92 80bd 3f8f acbc
00000130: 2522 aebc 2f24 7abd 5185 ae3d bea7 58bd
00000140: 5760 a5bd 4716 9a3c 411d 51bd c8ef 95bd
00000150: 8ce3 b1bd d551 b4b8 861a 843c 92a8 553d
00000160: e5ac 62bc aac6 c4bc aa2d 0b3b 253f 6cbd
00000170: e7bc 97bd af75 203c eb8b 3abd b3b2 8b3d
00000180: 7c73 263d e3e0 81bd 3106 edbb edb5 80bd
00000190: 9276 753d 26d5 a13d 44d7 b53d 2e27 753d
000001a0: c9f7 e4bc c9e9 a53d 770b 4ebd 3ee4 1e3d
000001b0: 7387 713d bb5f a2bc 4262 7e3d 846c f0bc
000001c0: 7aaf ba3c ef42 d6bd 48b7 e53d 7da0 95bc
000001d0: 881a b4bd 77a3 c13d 83d9 e23d 2ead 2dbd
000001e0: b9f2 23bd e084 093e a432 073d a457 863d
000001f0: 2caf 3f3d 7185 acbd d0e5 bcbc d274 9dbc
00000200: f27a 84bc 3a01 f4ba 8b88 4abb 2555 49bd
00000210: e8bd 5bbd 0d97 6fbd 278a 063d d391 013d
00000220: e370 413d a80d 863c ebf1 4d3d c8c6 fd3a
00000230: 4a23 8ebc 9462 8f3d 00df 69bd 66fa d4bd
00000240: 52d5 c8bc 729e 793d 5e91 c13b 1932 0f3d
00000250: 0d49 1cbd 08df cabb 4a46 a03d ce2c 8c3d
00000260: e140 7cbc c6d2 393d 282b 98bd f90d 4fbd
00000270: e335 883d b633 943d 5138 923c 1110 fe3d
00000280: 58cc 8f3d 6fd0 923d 0f0a ba3d e227 1bbd
00000290: d792 a73c c6c9 3ebd d5ba ebbb 2bce a8bc
000002a0: f23e b43b 93ac 22bd e069 043d 366e c53c
000002b0: 1f68 c83d 325e f6bd c5da aabd 769c 9bbd
000002c0: 9dc9 35bc 31fc 763d 962a b5bc 7a9c 393b
000002d0: 0625 0cbc b36b 773d aa78 4abd bce0 a93d
000002e0: 78b2 b13d 8592 0fbd 078a 0c3d 7a99 083d
000002f0: bfbe 623d 362b a33b 272a 563c 1847 603c
00000300: 113e 00bc 7eb0 6d3d 7228 203d 12c0 0b3c
00000310: 62ce a83d b29f 223d 429b 513d 0788 7dbc
00000320: f401 873d e9da 0ebd 170c c3bc 2a83 a7bd
00000330: 70a1 63ba 0e1a cfbc 2c36 563c 9fa0 5a3c
00000340: 5c7b 9d3d d76c 00bd c1a3 29bd b52b 983d
00000350: adfb 553d b6fc ea3c 3193 86bd e01d 283d
00000360: c93a 1f3d 4c4c a83c d2ac 273d a1d9 5bbd
00000370: 7449 b6bc d39a d8bb 33ea 10bd 7c24 cb3c
00000380: 5219 0e3d 1df4 a23d 1400 bf3d 9361 3ebb
00000390: c35c ad3c 1331 e63c f0d7 9a3d 2ecc 363a
000003a0: 071d 06bd 9f6e 5ebd 947b 903c bfaf 6ebc
000003b0: 2e9d 703d 65f6 073c cd55 f63b b15d ccbc
000003c0: 730c 8e3d 3e6c a9bd 2712 163d 526f fc3c
000003d0: 4c0d 903c a5f2 e13c d5fa 0cbc 7ac8 c5bd
000003e0: 9fde 31bd 5498 e5bc 17fd 343d 61d2 ad3c
000003f0: b4a9 0c3d ba11 a63d ccef 43bd de11 8b3d
0.06069052 0.01250984 0.034797035 0.019249287 0.045791514 0.024429204 -0.013178911 -0.03130301
-0.0607573 -0.009864906 -0.07794021 0.024101023 0.07864472 -0.05556233 -0.120287366 0.032519054
0.061327655 0.008319674 -0.03518067 -0.10814118 -0.0034955668 -0.008279231 -0.050252628 -0.083902694
-0.06198014 0.010385475 0.017962573 -0.015688209 -0.11361022 -0.006415782 0.03371333 0.014394002
-0.034063604 -0.01432886 0.031837445 -0.041140214 0.10593694 0.017142776 -0.024192171 0.045819487
-0.059444733 0.046541523 -0.080821015 0.04349821 -0.08836447 0.06805614 0.030225808 0.036874373
0.026990345 0.025300873 -0.006758901 -0.059054263 0.078591965 0.0063285995 0.046085104 -0.026794164
-0.079314895 0.020759696 0.090787224 -0.047303125 0.03840661 -0.0545796 -0.00953481 -0.0005289223
-0.044966128 0.092891656 0.063824296 0.035213627 0.0727335 -0.04136403 -0.08967062 0.03982906
0.039832894 0.08423886 -0.06277916 -0.021064399 -0.021256516 -0.061069664 0.08521522 -0.052894346
-0.08075016 0.01880945 -0.05105329 -0.07321125 -0.08685979 -8.598311e-05 0.016125929 0.052162714
-0.013835167 -0.024020512 0.0021236935 -0.057677407 -0.07409077 0.009793683 -0.045543592 0.068211935
0.04063748 -0.06341722 -0.007233404 -0.062846996 0.05992753 0.07901983 0.08878949 0.059851818
-0.027950184 0.081012316 -0.050303902 0.038791887 0.058967065 -0.019821038 0.062105425 -0.02934862
0.022788752 -0.10461985 0.11216599 -0.018265003 -0.08794123 0.094550066 0.11076643 -0.042401485
-0.0400264 0.13429594 0.03300728 0.06559685 0.046797916 -0.084238894 -0.023058802 -0.019220743
-0.016171906 -0.0018616088 -0.003090414 -0.049153466 -0.053647906 -0.058493663 0.032846596 0.03163321
0.047226798 0.016363934 0.05027954 0.001936161 -0.017350812 0.07001224 -0.057097435 -0.10399322
-0.024515782 0.06094212 0.0059072217 0.034959886 -0.038155604 -0.006191138 0.078259066 0.06844483
-0.015396328 0.045367025 -0.074301064 -0.050550435 0.06650903 0.072364256 0.01784912 0.12405408
0.07021397 0.07168662 0.0908395 -0.037879832 0.02045576 -0.046579145 -0.007193903 -0.020606121
0.0055006677 -0.03971536 0.032327533 0.024100404 0.097854845 -0.12029685 -0.08342508 -0.07598202
-0.011095432 0.060299102 -0.022115033 0.0028322027 -0.008553749 0.060405444 -0.04943148 0.08294818
0.08676618 -0.03505184 0.03431132 0.03334949 0.05535769 0.0049795164 0.013071573 0.013688825
-0.007827298 0.058029644 0.03910107 0.00852968 0.082424894 0.03970308 0.051173456 -0.015474326
0.065921694 -0.034876738 -0.023809476 -0.081793144 -0.0008683419 -0.025280979 0.013074439 0.013343959
0.076895446 -0.031353798 -0.041415934 0.074302115 0.05224197 0.028684955 -0.06571043 0.041044116
0.03887442 0.020544194 0.0409363 -0.053674344 -0.022251822 -0.0066102534 -0.0353796 0.02479767
0.034692116 0.07956717 0.09326187 -0.0029049858 0.021162396 0.028099572 0.07560718 0.0006973174
-0.032742526 -0.054304715 0.017637052 -0.014568268 0.05874365 0.008298491 0.0075175525 -0.02494702
0.06935968 -0.08272599 0.036638405 0.0308148 0.017584465 0.027581522 -0.008604725 -0.096573785
-0.0434252 -0.028026737 0.044186678 0.02121848 0.03434153 0.0810885 -0.04783611 0.06790517

fc2.bias f4 [64]
00000000: 0c34 2f3d ec26 5e3d 4941 423b 2d1f 183d
00000010: abbc 6fbd 2c65 22bd dfdc 0f3d 027a cf3c
00000020: 44d5 013d 1dd9 ec3c 2d9c 493d ad54 5ebc
00000030: 65c8 8cbd d5b5 3f3d 2783 edbc 61fc 95bd
00000040: 0b07 e1bc ab19 6a3d 4242 9f3d 0b53 50bd
00000050: eb1f b1bd e881 01bd e45f 903d c420 0cbd
00000060: 663a 79bb a997 16bd e95d 953d 2693 91bd
00000070: 0bdd 65bd f47e 96bd bc08 b23d 90e0 a4bd
00000080: 9700 5f3d da3a 70bd e470 843c 4f59 88bd
00000090: 1feb a73d 0e6b 86bd a465 2ebd 1ba2 443d
000000a0: fd8b 7ebd 1c3c 7b3d eaba 90bd 192c fe3c
000000b0: 828f 953c d1fd 213b d130 1cbd 5060 813c
000000c0: 952b 253c a6ab 383d bc3b e2bc 5ed3 53bd
000000d0: cfdb a63d 3ad7 853d a741 bc3c d39a 883c
000000e0: c4ba c6bb c881 793c 859e 1dbd 8ccb 69bd
000000f0: 7c60 693d 0b09 7e3d e1f7 773d 1c69 8c3b
0.042774245 0.054236338 0.0029640964 0.037139107 -0.058529537 -0.039647266 0.03512275 0.025326733
0.031697527 0.028912121 0.049221206 -0.013569993 -0.0687416 0.046804268 -0.028993202 -0.07323528
-0.027469179 0.057153385 0.077763095 -0.050860446 -0.08648666 -0.03161803 0.0704954 -0.034210935
-0.0038029193 -0.03676573 0.072933026 -0.071081445 -0.056119006 -0.07348433 0.08693072 -0.080506444
0.054443922 -0.058649875 0.016167112 -0.06657659 0.08199143 -0.06563388 -0.0425774 0.04800616
-0.062145222 0.06133662 -0.07066901 0.031026887 0.018256906 0.0024717937 -0.038132492 0.015792996
0.010081192 0.04508557 -0.027616374 -0.051715247 0.08147394 0.06535192 0.022980524 0.016675388
-0.0060647447 0.015228696 -0.038481254 -0.057078883 0.05697678 0.062020343 0.06053913 0.004284991

bn2.weight f4 [64]
00000000: 04a9 873f e3a4 7e3f 39a7 8c3f 77b8 943f
00000010: 0c93 753f 90a3 803f 8143 7b3f 7d0e 803f
00000020: c8ca 6c3f b8d2 843f f488 7c3f ce28 813f
00000030: d493 7e3f 617e 793f 47c0 7b3f 0e63 843f
00000040: 4419 7e3f a195 813f 6904 883f 304c 7b3f
00000050: 426c 7f3f ad16 7a3f 0e37 843f 97a8 843f
00000060: 3f34 833f 1b87 813f 2c6f 7a3f bf75 7a3f
00000070: e6c7 843f 2a2e 813f 56d4 793f 185c 7f3f
00000080: bc96 813f 5383 843f 7661 7f3f a638 853f
00000090: 6848 7a3f 3a1d 7f3f a5b9 823f 4cfd 913f
000000a0: 7389 7b3f 9ad7 7d3f ca60 753f 1306 723f
000000b0: 9466 8b3f 0a25 803f 574c 813f 2d9e 763f
000000c0: 20a1 823f 2660 823f e202 833f 55e8 843f
000000d0: 675f 7f3f a296 7b3f f27b 7f3f 35dc 7c3f
000000e0: f16d 843f eaba 823f 72ea 873f 7594 823f
000000f0: 928b 7c3f f079 7b3f 321d 883f 147b 913f
1.0598454 0.9947035 1.0988532 1.1618794 0.959275 1.0049915 0.9814988 1.0004421
0.9249692 1.0376806 0.98646474 1.0090578 0.9944432 0.97458464 0.98340267 1.0342729
0.992573 1.0123788 1.0626346 0.9816313 0.99774563 0.9769085 1.0329301 1.036395
1.0250319 1.0119356 0.97825885 0.97835916 1.0373504 1.0092213 0.97589624 0.997499
1.0124125 1.0352577 0.9975809 1.0407913 0.97766733 0.9965397 1.0212904 1.1405425
0.98256606 0.99157107 0.95850813 0.9454052 1.0890679 1.0011303 1.0101422 0.9633511
1.0205421 1.0185592 1.0235255 1.0383402 0.9975495 0.9827672 0.997985 0.9877351
1.0346051 1.0213292 1.0618422 1.0201555 0.9865047 0.98232937 1.063391 1.1365685

bn2.bias f4 [64]
00000000: 4d9c a53d 9242 66bc acd5 49bd 69a0 bebb
00000010: 8651 d4bc 0bd6 35bc ec84 02bd 447f 22bd
00000020: 4020 eebc 3775 9ebd 778d c03b 8765 3ebd
00000030: 760c 8d3c aa69 84bc f82c 01bc 7273 73bd
00000040: 58b4 8f3c 930c edbc 9238 2cbd 3e18 c2bc
00000050: 8ab2 d3bd 372a e1bb 70ff 12bc aa58 42bd
00000060: a801 85bd 7b73 e2bc 4a60 bfbc 0b23 06bd
00000070: 9b28 803b 71a2 d8bc 595c e33c 33ed 3fbd
00000080: 670d ebbd 6d86 a0bd 9b3c 00bd 9db2 91bd
00000090: c279 1fbd 266f 2c3d 0524 443c 46da 33bc
000000a0: fe99 ef3b e5b9 4bbc f377 15bd 0b23 8abd
000000b0: 9d1f 273d 1cf6 613c 3437 32bd e24f afbd
000000c0: 332b 20bd 447a 52bd 9274 98bd b6b0 c2bd
000000d0: 0aee 89bd 0a4c 3a3b e5cd 2c3b 9b69 87bd
000000e0: f622 bcbd 80cd 39bd 9df1 35bc c6aa c8bd
000000f0: 0e63 60bd cc8f adbc a0fe b8bd 7bfd b3bb
0.08086453 -0.014053958 -0.04927604 -0.005817462 -0.02591778 -0.011098395 -0.031865045 -0.03967215
-0.029068112 -0.07737201 0.005876239 -0.046483543 0.017217856 -0.016163666 -0.007884257 -0.05943627
0.01754205 -0.02893666 -0.042046137 -0.0236932 -0.10336788 -0.0068714875 -0.008972034 -0.047447838
-0.064944565 -0.027642956 -0.023361344 -0.032748263 0.0039110905 -0.026444646 0.027753996 -0.04685707
-0.11477166 -0.0783814 -0.031307798 -0.07114146 -0.038934477 0.042098187 0.011971478 -0.010977333
0.0073120585 -0.012434457 -0.036491346 -0.06744965 0.040801633 0.013791587 -0.043509677 -0.08560158
-0.039103698 -0.051386133 -0.07444109 -0.09506361 -0.067348555 0.002842667 0.002636784 -0.066119395
-0.09186356 -0.045361996 -0.011104968 -0.097981974 -0.054781966 -0.021186732 -0.09032941 -0.0054928637

bn2.running_mean f4 [64]
00000000: b119 893d b014 8b3e 8332 563e 5c94 75be
00000010: 3d23 9cbd 754e 31be fb10 b53c 296b bfbe
00000020: 7165 a1bc c830 29be 6cde a7bd 80eb 8ebe
00000030: 73a8 48be b75e 8cbe 3179 18be 5cf9 95be
00000040: 686d 893d a937 66be ae5e b7be dde1 e73c
00000050: 0999 8dbe ee61 1a3e d21f 183d f1ac c1be
00000060: 272b 15be 3aca cbbe 67af 403e 21b0 8cbe
00000070: debf 24bb a1de 6a3d eac4 64bc 6d46 fabe
00000080: 2cbc 743e 777e 9dbd 175f 8cbe 1d6d 25be
00000090: c597 f73c a4d1 61bd e99a 86be 0926 1bbc
000000a0: 0655 91be 0010 68be 55a4 763c 66b2 b3bd
000000b0: 5d01 123e 36d4 00be b848 3abe a2b3 eabd
000000c0: 2db0 adbe 2f53 ecbc 8b13 5bbe b8a2 d9be
000000d0: f8c3 39bd 3a5a d2bd 385f d73e 25bc a93b
000000e0: 4f94 cebe 3f1f 0c3e 1716 37be d453 78be
000000f0: 86b0 5fbd 351f 8d3b 592c 3bbe 1cb3 50be
0.06694353 0.2716422 0.20917706 -0.23982376 -0.07623909 -0.17315085 0.022102823 -0.37386444
-0.019701691 -0.16522515 -0.081967205 -0.27914047 -0.19595508 -0.27416012 -0.14889981 -0.2929181
0.06710321 -0.2248217 -0.35814422 0.028305942 -0.2765582 0.1507642 0.03713972 -0.37827256
-0.14567243 -0.39802724 0.1881691 -0.27478126 -0.0025138776 0.05734122 -0.013962964 -0.48881856
0.23899907 -0.07690137 -0.27416298 -0.16154905 0.030223737 -0.05513157 -0.26290062 -0.0094695175
-0.2838518 -0.22662354 0.015053828 -0.08774261 0.14258333 -0.12580952 -0.18191803 -0.114600435
-0.33923474 -0.028848259 -0.21394174 -0.42506957 -0.045352906 -0.102711156 0.42064834 0.0051798993
-0.40347525 0.13683794 -0.1787952 -0.24250728 -0.054611705 0.0043066987 -0.18278636 -0.20380825

bn2.running_var f4 [64]
00000000: 8297 823e 5ba1 043f 32fe 783e 93f3 293e
00000010: e036 863e 1a46 a93e 51fd 733e dad4 c93e
00000020: f42e a83e db76 113e b8f5 573f d474 143e
00000030: e809 0e3f e202 ab3e 467f 223e 84d6 8d3e
00000040: ef0e 743e fab6 b63e 4063 4b3e 75d5 3f3e
00000050: ba30 1e3e 3cec ea3e b496 383e 1d2d 853e
00000060: 8d22 093e f427 e83e 014a eb3e 1f38 283f
00000070: 5253 833e 630f 9c3e 854f 223e b5c0 ab3e
00000080: 7244 073e 56f3 8e3e cdab df3e 157f 353e
00000090: 2594 f23e b842 333f 40f1 9d3e fe7a 4d3e
000000a0: 141d 1e3f 885d 583f 7053 783e 73c8 c83e
000000b0: 793f ba3e c182 cd3e 7f8e 173e 02ec b43e
000000c0: dc1f 613e 362a a33e 7295 a03e 2255 d03e
000000d0: d7fe 363e 4f79 0a3f 85ad 973e 740d fc3e
000000e0: 58ea 943e 25fb 3c3e acca 593e 7f87 003f
000000f0: dbfe 7b3e 8837 1f3e 24f4 5a3e fcd5 8d3e
0.25506216 0.5180871 0.24315718 0.16596822 0.2621374 0.33061296 0.23827101 0.39420205
0.32848322 0.14205496 0.8435931 0.14497691 0.55483866 0.33400637 0.15868863 0.27702725
0.23833822 0.35686475 0.1986208 0.18733771 0.15448275 0.45883358 0.18026239 0.2601098
0.13392086 0.45342982 0.45954898 0.65710634 0.25649506 0.3048049 0.15850647 0.3354546
0.13209704 0.27920026 0.4368576 0.17724259 0.4737865 0.7002368 0.30848122 0.20066449
0.6176312 0.8451772 0.24250579 0.3921543 0.3637655 0.4013882 0.14800452 0.3533631
0.2198481 0.31868142 0.31364018 0.4068995 0.17870651 0.5409135 0.29624572 0.49229014
0.2908504 0.18455179 0.2126872 0.5020675 0.24608938 0.15548527 0.21382195 0.2770232

fc3.weight f4 [32, 64]
00000000: 275a a53d 7e22 f43d edfa f6bd 2315 4dbd
00000010: a506 f0bc 01f5 a33d 9f39 82bd 8b22 803d
00000020: 3c8f 483d 819f 053e 0ab3 cdbc e7e1 1a3e
00000030: d16e 39bd 041d ec3c 0eb4 b33d 9eed 9fbd
00000040: 20a5 6fbd bb2b c2bd be24 c73c 96f4 a33d
00000050: ce92 c53b 2e2b 49bd a950 783c dbc7 673d
00000060: c88c ff3d 5b07 c4bd fea0 4f3d 24b1 453d
00000070: b399 c5bd fbff 723b ec1b 433d 718d babb
00000080: 8e69 253d cdee af3c 5b0a 713d 9f8f e43c
00000090: 14d8 ac3d 5ce8 8ebd bd6a 7bbb 08c3 71bb
000000a0: e544 c03c f28f 8f3c e83c 3b3d 52dd 7c3d
000000b0: d85a 22bd 87de d03d 8262 753d 7fee d4bc
000000c0: 957d a2bd 9893 8abd 02bf b53d 12e8 42bd
000000d0: 7e28 b0bd eaa4 1dbd 6c3a 04bd 2019 d9bc
000000e0: 3c0d a63d 04d6 233b 0919 113e 3023 82bd
000000f0: 14e6 2bbd e2f4 103d db9e 873d 7b89 f13c
00000100: d335 ebbd 65bf c1bd 5e48 5bbe 2173 3cbe
00000110: a5b0 23bd 4e63 11be 452b 983c 2a51 0e3d
00000120: 04cf 453d a754 e73c c658 6c3d 1ff8 233d
00000130: 4541 a3bd 03c5 c13d e41b 273d 892e 0c3d
00000140: 59ba 21be 78f3 043d 23ad 5f3d 7622 5cbc
00000150: 1c0b e03a d2f9 793d d618 14be efd4 443d
00000160: 0300 0a3e 7a82 733d e156 a33c 23d9 823d
00000170: 1219 13bd b7bd 4f3d b1c4 9bbd a5d4 06bd
00000180: 4eec 7abd 5a8f 6b3d 0403 bbba 48e9 fb3d
00000190: 2ace 8d3d e8f3 9ebd 3c61 e7bd 9234 44be
000001a0: 464b 31bd 2304 b23c 8093 063d 4ff1 643c
000001b0: eb36 ecbd aca5 b3bd b7c8 483d b166 ad3d
000001c0: 9635 0c3e 3292 763d c660 cf3d 5ccc 07bd
000001d0: ace2 f0bb 4980 ecbd 6b0b 64bd d891 f8bd
000001e0: 7e5d 8b3d f005 22bd 1eb3 1c3d 8678 493d
000001f0: 4c02 3b3a 1ec0 57bd 6f77 fc3d a7ed 6abe
00000200: 8547 f9bd d423 7cbc d891 aabc dad4 e13d
00000210: eda8 00bd 17e6 96bb 6d88 adbd 01eb d03c
00000220: a52f a5bd bbd5 a8bd ad0f c83c 2f99 a7bd
00000230: 8ff3 3dbe cccc 70bc 58ad d93b af1f 343d
00000240: 6b7c 7c3c 213a df3c 99a6 2d3d f5f5 65bd
00000250: 57b6 40bd ea5f ecbd d08f 3abe a2b9 abbd
00000260: fca9 d2bc 0d41 073e a6df 163b 46b5 a13b
00000270: 92ad f4bd 7c89 19bd c084 abbd 2b4f 413d
00000280: be62 0dbe 3e9a 513d e916 01bd 6643 713d
00000290: d9d3 0f3c 6eaf 8a3d d13a 793d fb67 323d
000002a0: af6a ce3d 15db fd3d 0238 9dbd 638f 90bc
000002b0: 9611 13be ab12 5ebe fb73 ca3d 83a8 0bbd
000002c0: 9149 2dbc fec1 1b3d bfab 943d 0470 523d
000002d0: 1872 f33d 1bab c6bd 812f 583c 7cee b83d
000002e0: 6ab3 d43d 484d 813d a12a 87bd ac23 e13c
000002f0: df96 d6bc 0482 a6bd 81e3 2ebd cf73 8a3d
00000300: 2c05 a73d ecd1 0abe ff52 843c 7c3d 163d
00000310: 405b 523d 6488 4b3c 438e e53d 797a d83b
00000320: 7520 383d 0ee2 f03d 8f95 64bd 77b3 ea3c
00000330: bd2a b03d d8fc 07bd e58d 603b bf4d d63d
00000340: 93dc 033d 9521 4fbd 7129 513d 6199 a3bd
00000350: 6982 7b3d d9b6 44bd 70bd f83d 425b a8bb
00000360: c71a c53d 9d3f c3bd d26d bcbd 093b eabd
00000370: a7a3 da3d 8ecf a2bd 0f13 bebd c2ce 193d
00000380: aeb5 ae3c 7001 acbd 3bc4 df3d 50ce 35bd
00000390: 7778 f83c b560 1e3d cb19 04bc 8a9a 823c
000003a0: e91e 6fbd 36f6 d23d ef52 3f3d da11 72bd
000003b0: e6ad 173d e78d be3d c589 82bc a9ff a0bd
000003c0: 282f 9b3d 3b20 863d e7fa dfbd a342 c13d
000003d0: 9c51 10bd ed9b 67bd e03e a43c 2bfe 9b3c
000003e0: ee26 9c3d d973 4ebd 637d eb3c 409e 5bbd
000003f0: 8b54 e73d 8b84 0bbd f5ea cb3d 9703 79bd
0.08073836 0.11920641 -0.12059579 -0.050068986 -0.029300043 0.08005715 -0.063586466 0.062565885
0.048964724 0.13049127 -0.025109787 0.15125237 -0.0452717 0.02882243 0.08774577 -0.07808994
-0.058507085 -0.09480997 0.024309512 0.080056354 0.0060294634 -0.049113445 0.01515595 0.05658708
0.12478024 -0.095717154 0.050690643 0.048264638 -0.096484564 0.0037078846 0.04763405 -0.0056931307
0.040383868 0.021476174 0.058847766 0.027900515 0.08439651 -0.06977913 -0.0038363182 -0.003688993
0.023470351 0.017524693 0.04571238 0.061734505 -0.039637417 0.10198694 0.059908397 -0.02599263
-0.07934109 -0.067664325 0.088743225 -0.0475846 -0.08601473 -0.038487352 -0.032282278 -0.026501238
0.08107993 0.002499939 0.14169706 -0.06354368 -0.041967466 0.03538979 0.06622096 0.029484501
-0.114848755 -0.09460334 -0.21414325 -0.18403293 -0.039963383 -0.14198038 0.01857532 0.034745373
0.04829313 0.028238608 0.05770185 0.04003155 -0.079714336 0.09461405 0.040798083 0.034224067
-0.15793742 0.032458752 0.054608475 -0.0134359505 0.0017093155 0.061029263 -0.14462599 0.04805463
0.13476567 0.059450604 0.019938888 0.06389072 -0.03591258 0.050718036 -0.07605875 -0.032917637
-0.061260514 0.057509758 -0.0014267866 0.12300354 0.06924088 -0.07761365 -0.11297843 -0.19160679
-0.043284677 0.021730488 0.03285551 0.013973548 -0.11533912 -0.08771834 0.04901954 0.084668525
0.13692316 0.060198016 0.1012588 -0.033153877 -0.00735124 -0.11547906 -0.05567495 -0.121371925
0.068049416 -0.039556444 0.038256757 0.049187206 0.0007133826 -0.05267345 0.12327468 -0.2294222
-0.121718444 -0.015389401 -0.020821497 0.11026926 -0.0314111 -0.0046050656 -0.08473287 0.025502684
-0.08065728 -0.08243891 0.024421537 -0.08183514 -0.18549941 -0.014697265 0.0066429786 0.04397553
0.015410523 0.027249398 0.042395208 -0.056142766 -0.047048893 -0.11541732 -0.18218923 -0.08385016
-0.02571582 0.13208409 0.0023021488 0.0049349396 -0.119471684 -0.03748463 -0.083749294 0.04719464
-0.13807198 0.051172487 -0.03151599 0.058902167 0.008778536 0.06771742 0.060847107 0.043556195
0.10078942 0.12395302 -0.07676698 -0.017646497 -0.14362177 -0.21686809 0.09885403 -0.034096252
-0.010576622 0.038026802 0.072593205 0.051376358 0.11886996 -0.097006045 0.01319492 0.09029862
0.10385783 0.06313568 -0.06599928 0.02748283 -0.026194988 -0.08130267 -0.042697433 0.0676037
0.08155283 -0.13556641 0.016152857 0.03667973 0.051356554 0.012422655 0.11208775 0.0066063968
0.04495283 0.117618665 -0.055806693 0.028650029 0.08601902 -0.033200115 0.0034264263 0.10464048
0.032192778 -0.050569136 0.051064912 -0.07988239 0.061403666 -0.04802594 0.12145507 -0.005137832
0.09624248 -0.09533618 -0.09200634 -0.11437041 0.106757455 -0.07949744 -0.09280979 0.037550695
0.021326866 -0.08398712 0.109261 -0.044386208 0.03033088 0.038666446 -0.00806279 0.01594283
-0.058379088 0.10300867 0.04670995 -0.059099056 0.037031077 0.093044095 -0.015934834 -0.07861263
0.07577354 0.06549116 -0.10936528 0.09436538 -0.03523408 -0.056545187 0.020049512 0.019042095
0.07624613 -0.05040345 0.028746312 -0.053617716 0.11295422 -0.03406195 0.09956924 -0.06079444

fc3.bias f4 [32]
00000000: 453d b1bc c6cb 013d 2c83 a03d 973c 683c
00000010: e33a f3bd 4f26 abbd 9d04 ce3d 2cc3 93bc
00000020: 1674 a03d 433e d23d 6c7c 39bd aa49 e1bd
00000030: 87c7 64bd 4626 f0bd 8fb7 fe3c 9c5d a7bd
00000040: 42d4 8abc d62d 7bbd 1e9f c43c abb6 56bd
00000050: 4fc5 a43d fc1e d93d acd6 f6bd 4525 eabd
00000060: 8828 eabd 5b8a 2ebd f42a aabd 3f91 14bc
00000070: 50ec e5bd 5a70 f8bc e312 4bbd ebf0 f93c
-0.02163566 0.031688474 0.07837519 0.014174602 -0.11876466 -0.08356916 0.10059474 -0.018037401
0.07834642 0.10265782 -0.045284674 -0.110003784 -0.055854347 -0.1172605 0.031093387 -0.081721514
-0.016946916 -0.06132301 0.024001654 -0.0524203 0.08045446 0.10601613 -0.12052664 -0.1143289
-0.11433512 -0.042612415 -0.08308974 -0.0090678325 -0.11226714 -0.03032701 -0.04957856 0.030510386

bn3.weight f4 [32]
00000000: 9d82 863f d7b7 8d3f 75d4 813f ecc6 703f
00000010: 7a71 6e3f 2e22 673f 410e 823f 5e9c 8a3f
00000020: a227 7c3f 3428 7e3f 254f 693f 88c8 783f
00000030: 9564 883f c4f6 833f 003c 813f 53ca 723f
00000040: b340 763f 5fad 853f 2da8 7a3f c1b4 7d3f
00000050: 960e 763f e108 8f3f 5c8f 883f 7adb 7c3f
00000060: e375 7a3f bd85 893f bc7f 763f e783 7e3f
00000070: 7a48 823f 8068 7c3f ae6f 843f a5e8 783f
1.050861 1.1071728 1.0142962 0.9405353 0.931419 0.9028653 1.01606 1.082897
0.98497975 0.99280095 0.9113639 0.97180986 1.0655695 1.0309682 1.0096436 0.9483997
0.96192473 1.0443534 0.97912866 0.99103934 0.96116006 1.1174585 1.066875 0.98772395
0.9783613 1.0743939 0.9628866 0.99420017 1.0178368 0.98596954 1.0346582 0.9722999

bn3.bias f4 [32]
00000000: e610 82bc f9f1 683d 9ea6 98bc fc6a 2ebd
00000010: 334c b7bc 6801 b2bc 8094 093c 3278 00bd
00000020: be69 30bd 509d 333c e301 d1bc 548b ee3b
00000030: 05ea 3cbd 6159 073d 3d97 d83c 88cb 023b
00000040: e2a9 d4bc d257 103d a9c2 223d 2140 8cbd
00000050: 11ae 5c3c 7248 55bb 3fcf 86bc 0e33 a4bd
00000060: 379d 8bbd 43a3 043d 79e2 32bd fd0d 1fbd
00000070: 3b6e 91bd 9b2b d13c 86c3 35bd 10f8 aebc
-0.015877198 0.056871388 -0.018634137 -0.042582497 -0.022375202 -0.021729186 0.008397222 -0.031364627
-0.043069594 0.010962799 -0.025513595 0.007279793 -0.046121616 0.033044223 0.026439304 0.001995774
-0.025959913 0.035240002 0.039736424 -0.06848169 0.013469235 -0.0032544401 -0.016456245 -0.080175504
-0.06817096 0.03238226 -0.043673012 -0.0388317 -0.07101103 0.025533488 -0.04437592 -0.02135852

bn3.running_mean f4 [32]
00000000: a819 bd3d bc5e 26be d76b e4bc 1fac 263e
00000010: 27fa 97be 65ff d4bd 6782 08be 1110 96bd
00000020: 5a1c ecbd f139 ee3d 3d62 373d c0d4 8dbe
00000030: 26aa 8f3c f5df 45be 44ba d0bd f7e5 f23c
00000040: f7e1 97bb 3fab a0be ce7b 56be ec2f ab3c
00000050: 958b 10be f145 84bd c950 9fbe e9df 7abe
00000060: 24a4 12bd b4b6 a5ba 1d21 45be 426f 433b
00000070: 21c2 86be 8669 87be 7bcf 9ebd 5ad1 b5bb
0.09233409 -0.16247076 -0.027883453 0.16276596 -0.2968304 -0.10400275 -0.13330995 -0.07327283
-0.11528845 0.11632145 0.04477142 -0.27701378 0.017537188 -0.19323714 -0.10191777 0.029650671
-0.0046350914 -0.3138065 -0.20945665 0.020896874 -0.14115746 -0.06458653 -0.31116322 -0.24499477
-0.035801068 -0.0012642951 -0.19250913 0.0029820953 -0.26319984 -0.26447695 -0.077544175 -0.0055486383

bn3.running_var f4 [32]
00000000: 374f cb3e f4e9 163f 7924 9b3e e64e 5f3e
00000010: 79b7 f53e 5b1d b53e 55fd e33e 4e13 c53e
00000020: 8d98 a63e 42e5 883e 4f64 243e d3b1 9a3e
00000030: 1836 b53e bbe1 303e 7adc 8c3e 08b7 4e3f
00000040: 9b0d c73e a2ff 9f3e 1eaa dd3e df56 e83e
00000050: 918e 043f da32 b53e 2d79 cf3e 6be2 cf3e
00000060: 6432 013f a2c8 0d3f 1fcf 433e 925f e23e
00000070: 3d8b c33e 987f 323f 8f6e f33e 37d2 ba3e
0.39708874 0.58950734 0.30301264 0.21807441 0.4799154 0.3537396 0.44529215 0.3849129
0.32538262 0.2673741 0.1605389 0.30213794 0.35392833 0.1727361 0.2751196 0.80748034
0.38877568 0.3124972 0.43293852 0.45378777 0.5178004 0.3539036 0.40522137 0.4060243
0.50467515 0.55384266 0.19121979 0.4421354 0.38192168 0.6972594 0.47545287 0.36488506
