MELOSDP/SDP/chkpt/kc2/linear/5/sdp_classifier_linear-460.pth (torch, 68704 bytes, 25 tensors)

fc1.weight f4 [128, 21]
000000 f9 e2 cb 3d d9 65 c3 3d 94 70 21 3e 3e 88 1f 3e
       0.09955401 0.0954091 0.15765601 0.15579316
000010 72 75 34 be 75 d2 44 be c6 85 3a be dc 33 9f bd
       -0.17622927 -0.19220908 -0.18215093 -0.07773563
000020 1c 13 07 be ea d3 21 3e da 79 af 3d 64 69 ac bd
       -0.13190883 0.15803495 0.08568163 -0.08418539
000030 5e 8b 94 3d 6c 42 d6 bc 7b 8c f6 3d a9 fd 9c bd
       0.07253145 -0.02615472 0.12038513 -0.07665569
000040 38 de 82 3e 96 c7 5e 3e a0 3a 5d be 76 20 49 bd
       0.25560164 0.21755823 -0.21604395 -0.049103223
000050 20 b8 46 3e d3 24 f4 bd 03 da 9f bd 4b 18 00 be
       0.19406176 -0.11921086 -0.07805254 -0.12509267
000060 b4 0a ad 3b 66 d9 30 3e 4a 70 f8 bb a8 9a ab 3d
       0.005280817 0.17270431 -0.0075817453 0.08379108
000070 e5 a4 97 3d 31 b9 a2 bc cd b1 4f be 27 25 4c 3d
       0.07404498 -0.019863697 -0.2028267 0.04984012
000080 1d b8 33 3e 34 66 07 be 8c 29 38 be f6 9f 38 bd
       0.17550702 -0.13222581 -0.17984599 -0.045074426
000090 9d 91 ff 3d 5b c2 a6 3c ce 3c 83 3e 35 9a 18 be
       0.124789454 0.020356348 0.25632328 -0.14902575
0000a0 68 37 50 3c d9 03 3f 3e 16 b5 23 3e c1 19 2f be
       0.012708522 0.18653812 0.15987048 -0.17099668
0000b0 be 29 fa 3b 32 c3 33 3e f8 4b 81 3d f9 8d 70 3d
       0.0076343706 0.1755493 0.06313318 0.058729146
0000c0 8f 9f cb bd 0f 69 26 be 38 e5 62 3d ac 18 81 bd
       -0.09942543 -0.16251014 0.05539438 -0.06303534
0000d0 0b ea 63 be 49 b6 7a bd 8c 6e 52 bd 62 81 d9 3d
       -0.22257249 -0.061208997 -0.051374957 0.10620381
0000e0 c7 56 5b 3d db eb 21 be bb 85 43 3e b4 01 f9 bc
       0.053549554 -0.15812628 0.19093983 -0.03039632
0000f0 bb c3 c7 3d 1a 21 1f be fd 1b 49 3d 74 4c 55 3d
       0.097541295 -0.15539971 0.049098957 0.052074865
000100 40 88 11 be 0d 12 47 3e bb e5 a7 bd be 98 e2 3d
       -0.14212132 0.1944048 -0.081981145 0.110642895
000110 78 83 5c bd df f8 70 be be cf 27 be 2d 7f 31 3e
       -0.053836316 -0.23532437 -0.16387841 0.1733367
000120 8e 0d 4a 3d c8 cb e5 bd 75 83 47 be e4 17 59 3d
       0.049329333 -0.11220509 -0.1948374 0.0530013
000130 ac 31 9f bc bd 05 bb 3d 1c f8 54 3e 4f 03 57 3d
       -0.019432865 0.09131954 0.20797771 0.05249339
000140 1a 68 c4 bc 34 5e 0c 3d 8c cb 8c bd 27 b1 20 be
       -0.02397542 0.034269527 -0.06874761 -0.15692578
000150 e5 3e c5 ba 4f b7 d9 bd 21 a8 08 be ae 1d 5c 3d
       -0.0015048651 -0.106306665 -0.13345386 0.053739242
000160 28 b5 e3 3d a1 ae 22 3e c7 c1 a0 3d 3b 2a 12 3e
       0.11118537 0.15886928 0.0784946 0.14273922
000170 75 a6 de bd 39 29 38 3e 8f 2a ec bd d1 15 32 3e
       -0.10871593 0.17984475 -0.11531555 0.17391135
000180 e1 e0 3f bd 72 67 4e be d4 de 41 bd 9a 90 22 be
       -0.04684532 -0.20156649 -0.047331646 -0.15875474
000190 51 87 3d 3e 0c 18 96 bd bf a9 59 be 78 20 da 3c
       0.1850865 -0.07328805 -0.21256159 0.02662681
0001a0 bc ed b6 bd bf 27 c9 bd 41 84 15 be e4 bd c0 bc
       -0.08932063 -0.09822034 -0.14601232 -0.023528047
0001b0 80 71 0d be 38 7f 3d 3e e0 37 94 bd 9c bd ad bd
       -0.13812828 0.18505561 -0.0723722 -0.08483431
0001c0 d7 01 e8 bd 35 66 e8 3d cd f9 00 3e ba d6 95 bc
       -0.11328476 0.113476194 0.12595291 -0.018290866
0001d0 97 c1 42 3e 6f 6a b5 bd 74 99 0f 3e 5a 43 eb 3d
       0.19019161 -0.08858191 0.14023381 0.11487456
0001e0 f6 7d 43 3e d7 e7 dd 3d 4e ff d2 bb 38 98 1a bd
       0.19091019 0.108352356 -0.006439126 -0.037742823
0001f0 43 30 3e 3e 3e 58 bd 3c a0 a3 c9 3d c5 71 b2 3d
       0.18573098 0.023113366 0.09845662 0.08713106
000200 1b 7d 01 be 98 c1 9f be 4f 49 f5 bd 3a d7 ac bd
       -0.1264538 -0.31202388 -0.11976873 -0.08439489
000210 49 3b 3d bd 3c 77 5b ba 03 60 4b bd 61 70 e5 bc
       -0.046199117 -0.00083719543 -0.04965211 -0.028007688
000220 49 97 42 3e ae 03 34 be 14 ac 3d be 87 1e 40 be
       0.19003023 -0.17579529 -0.18522674 -0.18761645
000230 71 ef 01 be 61 c9 0b bd 0c 35 3a 3e ee 6c 48 3e
       -0.12688996 -0.034127597 0.18184298 0.19572803
000240 37 57 24 be d4 b2 d9 3d 14 a4 e7 bd 6c 07 0e be
       -0.16048895 0.10629812 -0.11310592 -0.13870019
000250 1f 7a 10 be d5 57 54 3e 46 92 93 3d 2a be 3f 3e
       -0.14109086 0.2073663 0.07205634 0.18724886
000260 d7 04 af bd 12 02 67 3c f4 7f 15 3c 3f 66 35 be
       -0.08545845 0.014099615 0.009124745 -0.17714785
000270 b1 73 10 be 67 97 0f 3e 47 ea 32 3e 44 56 b6 3d
       -0.14106633 0.14022599 0.17472182 0.089031726
000280 11 83 01 3e 36 b2 5f be 4d 1f c2 3d 85 90 57 be
       0.12647654 -0.21845326 0.094786264 -0.21051224
000290 c4 54 cd bd e5 00 1e 3e 53 d8 5d be dc 7e 2b 3e
       -0.100259334 0.15430029 -0.21664552 0.16747612
0002a0 02 7f 2a be 27 82 dc bc b0 06 53 3e b3 06 2a be
       -0.16650012 -0.02691753 0.2060802 -0.16604118
0002b0 6d 2a 79 3d 65 e1 b6 3b d9 78 20 3d 45 c3 13 be
       0.060831476 0.0055810683 0.03917775 -0.14429958
0002c0 0c b9 ed 3d 58 72 ef 3d 1f c0 ed 3d c9 4e 5e 3e
       0.116075605 0.11691731 0.1160891 0.21709742
0002d0 74 e1 38 3c 95 b8 5f 3d 43 27 76 be 79 a7 fb bd
       0.011284221 0.05461939 -0.24038415 -0.12287802
0002e0 bf 6b 51 3e 4b 57 fc 3c a9 21 d5 bd d3 77 57 bd
       0.20451258 0.030803343 -0.10406811 -0.052604508
0002f0 39 e6 06 be 5d 35 ee 3d 57 78 04 3d e0 4c 89 be
       -0.1317376 0.11631272 0.032341328 -0.26816463
000300 a2 f2 29 be fd 6f 3b 3e ff 07 0a 3e 64 8f ec 3d
       -0.16596463 0.18304439 0.13479613 0.11550787
000310 47 23 14 be c9 3e 57 bd a1 23 0a 3d 4e 63 fe bd
       -0.14466582 -0.05255011 0.033725385 -0.124212846
000320 cc 0e 4a 3d 27 39 65 3e 42 47 1d 3d d9 fb 71 bc
       0.049330518 0.22385083 0.038398035 -0.014769518
000330 43 71 83 3d 9a d7 66 3e 50 e2 11 be 15 19 a5 bd
       0.06418087 0.22543183 -0.14246488 -0.08061425
000340 5d f0 0b be e3 ce 9c 3d 46 df 9a bd 08 a4 cc bd
       -0.1366591 0.07656648 -0.07562117 -0.09992224
000350 d4 31 30 3d 19 06 ca 3d d9 9f 5b 3e d0 54 1e be
       0.04301627 0.09864444 0.21447696 -0.15462041
000360 08 f0 8f bd 33 70 43 be ad c9 96 3d 10 04 a5 3c
       -0.07028204 -0.1908577 0.07362685 0.020143539
000370 a0 b6 8c 3c 8e c4 4c 3e 76 ae 0d bd 0a 83 0d be
       0.017176926 0.19996855 -0.034590207 -0.13819519
000380 29 b2 01 be 31 8a 43 3d 08 d2 24 3d a9 8d 12 3e
       -0.12665619 0.04773921 0.040239364 0.14311852
000390 76 f5 1b be 55 af 5e 3e 5e 8b cf 3d 27 7f 5e 3d
       -0.15230355 0.21746571 0.10134004 0.05432048
0003a0 57 dd 5a be 20 d3 c6 3d f4 41 88 be f2 df 0f be
       -0.21373497 0.09708238 -0.26612818 -0.14050272
0003b0 81 18 2a 3d 83 71 82 bd 6c e6 e8 3d 29 44 7e bd
       0.041527275 -0.06369307 0.113720745 -0.06207672
0003c0 6a 40 c6 bd c7 97 be bd 08 92 5b 3e 6b 2c 0d bc
       -0.09680255 -0.09306293 0.21442425 -0.008616547
0003d0 e7 a1 39 3d c7 e0 38 3e 36 e8 65 be 76 d7 c4 3d
       0.045320418 0.18054496 -0.22451863 0.096114084
0003e0 82 aa 28 bd 16 8b 2d be cf f0 33 3d 3d 3c 3b be
       -0.041178234 -0.16947588 0.043930825 -0.18284698
0003f0 f7 a6 f0 bc c8 bf 62 bd 79 da 07 3e 5d da 06 3e
       -0.02937649 -0.055358678 0.13266934 0.13169236

fc1.bias f4 [128]
000000 d7 41 1d be 6d e8 e6 bd 1f bf 52 3d db 67 e7 bd
       -0.15357147 -0.112748004 0.0514518 -0.11299106
000010 61 49 f1 3d a8 ae bf 3d 44 f7 0e 3e 0f 80 30 bd
       0.11781574 0.09359485 0.13961512 -0.043090876
000020 c4 9d 10 3d f2 eb 88 3e c7 b3 44 3e d4 b4 2d 3e
       0.035306707 0.26742512 0.19209205 0.16963512
000030 0d 6e b3 bd 12 c9 89 3c 25 a6 2f 3e ea 9b 55 bd
       -0.08761225 0.01681951 0.17153223 -0.052150644
000040 92 24 c4 3d 37 b0 9e bd 46 f2 25 be cf c6 2e 3e
       0.09577288 -0.07748454 -0.16205701 0.17068027
000050 38 5d 9a 3d 0f 44 31 bc e1 ed 3b bd b7 93 b3 bd
       0.07537311 -0.010819449 -0.045881156 -0.08768409
000060 30 c3 5a 3e 6e 5b 85 bd 5b db 1d 3d d9 57 07 3e
       0.2136352 -0.065115795 0.03853927 0.13217105
000070 8e f7 c2 bc c4 34 11 3e 1f 27 64 bd c2 42 39 be
       -0.023799684 0.14180285 -0.05570137 -0.18091872
000080 bc aa 3e bd 7d 9c 36 3e 47 ab 59 3e 42 71 37 3e
       -0.046549544 0.17833133 0.21256743 0.17914298
000090 50 79 5b bd 14 52 1f be 55 fe 4f be 77 00 20 3d
       -0.05358249 -0.15558654 -0.20311864 0.039062943
0000a0 bc 39 05 be 6a 96 4e bd a2 89 d0 3d c9 27 2b 3e
       -0.13010305 -0.050436415 0.101825014 0.16714396
0000b0 51 8e 04 be 7b 3f 09 be bb f4 33 3e 14 e3 71 bd
       -0.12944914 -0.13403122 0.17573826 -0.05905445
0000c0 5f c3 25 bd 3c f8 24 3e 23 fe 60 3d 35 1c 15 bd
       -0.040469524 0.16110319 0.054929864 -0.036403853
0000d0 db 94 4e bd 8b 3c 0a 3e de de ba 3d 3d 92 38 be
       -0.05043493 0.13499658 0.0912454 -0.18024535
0000e0 30 49 ee 3d a0 d0 7d 3c d5 13 3b be c7 68 b1 3d
       0.11635053 0.015491635 -0.18269284 0.08662563
0000f0 20 c5 2f be d6 5b da bd bf 78 27 be e5 63 3a bd
       -0.17165041 -0.106620476 -0.16354655 -0.045505423
000100 9e cf 34 3c c7 66 2c be a8 10 16 3e 17 0c b4 bd
       0.011035828 -0.16836081 0.14654791 -0.087913685
000110 b1 dc 22 be 84 e7 ee bd 9e c1 16 3d d5 28 49 be
       -0.159045 -0.11665252 0.03680574 -0.19644482
000120 ed 0b 7e 3c 0a e8 08 3e c1 f4 a3 3d fd cb 7a 3d
       0.015505773 0.13369766 0.080056675 0.061229695
000130 7d f6 b0 3d 40 50 04 3e f5 2a df 3d 94 59 c7 3d
       0.08640764 0.12921238 0.10896865 0.097338825
000140 35 ec 24 3e 05 5d 18 3e 2e b5 28 bd 79 d6 36 3e
       0.16105731 0.14879234 -0.04118841 0.17855252
000150 03 12 a4 bd 52 8c 31 3e 2c 60 d2 3d cf 0d 43 be
       -0.08011248 0.17338684 0.102722496 -0.19048236
000160 c0 62 c9 3d 63 12 40 be f3 70 d1 bd f1 2f 69 3e
       0.09833288 -0.18757014 -0.102266215 0.22772194
000170 6c a5 25 be 3d 97 18 3e 4c 42 11 3e a2 1f 5c 3e
       -0.16176385 0.14901443 0.14185447 0.21496442
000180 7a 67 94 bd f3 01 4a bd c2 cd 0a be da bf d1 bc
       -0.07246299 -0.049318265 -0.13555053 -0.025604177
000190 42 21 be bd 12 84 39 be 24 d7 f3 bd 94 c8 b9 bd
       -0.09283687 -0.18116787 -0.11906269 -0.0907146
0001a0 9a 51 ed 3d b2 d5 2d 3d c0 db 9b 3d 4e 09 5b be
       0.1158783 0.042440124 0.07610273 -0.21390268
0001b0 98 8d c0 3d 0a 5e 72 bd db e4 8c bb 1b 04 df 3c
       0.09402007 -0.059171714 -0.0042997426 0.027223637
0001c0 c6 70 55 be 72 ec 4f 3e 31 7d 0d 3e 61 bc 19 be
       -0.20843801 0.2030504 0.13817288 -0.15013267
0001d0 3d e0 0d 3d ea 3f 9f 3d ac d6 21 be ab ef 9b 3d
       0.03463768 0.077758625 -0.15804547 0.076140724
0001e0 57 05 57 3e cf 39 06 bc 77 35 24 3c 38 c9 73 3d
       0.2099813 -0.008192494 0.010022513 0.05951807
0001f0 17 d4 88 3d 92 60 a0 bd 8c 7a fc 3b f9 fd a8 bd
       0.06681078 -0.07830919 0.0077050384 -0.082515664

bn1.weight f4 [128]
000000 68 6b 6b 3f 50 38 82 3f 3c cc 7a 3f c2 dd 69 3f
       0.91960764 1.0173435 0.97967887 0.91354
000010 6d 6d 84 3f a5 82 6e 3f 7f 28 78 3f bc 8c 76 3f
       1.0345894 0.931681 0.9693679 0.96308494
000020 7d c8 95 3f 0c 53 9b 3f ca e7 8b 3f 91 f0 82 3f
       1.1701809 1.2134719 1.0930111 1.0229665
000030 af 9f 72 3f f4 7a 8a 3f 70 6c 71 3f 6a b0 75 3f
       0.9477491 1.0818772 0.9430609 0.9597231
000040 ab 2e 81 3f 12 03 79 3f f6 fe 83 3f d2 d7 84 3f
       1.0092367 0.9727031 1.0312183 1.0378363
000050 ab 51 88 3f c1 34 85 3f 34 30 86 3f ec 0d 74 3f
       1.0649923 1.0406724 1.048346 0.95333743
000060 94 50 6c 3f 06 2e 7f 3f 4d 3f 73 3f e6 c9 8e 3f
       0.9231045 0.996796 0.95018464 1.1155365
000070 12 da 79 3f be bc 88 3f 51 d9 8e 3f 1e 13 72 3f
       0.97598374 1.06826 1.116007 0.9456042
000080 86 f6 99 3f 70 65 70 3f aa dc 94 3f f2 ee 84 3f
       1.2028358 0.9390478 1.1629841 1.038542
000090 7d bc 90 3f a3 73 76 3f 6d 9b 84 3f 4a ff 81 3f
       1.1307522 0.962702 1.0359932 1.0156033
0000a0 1d 1c 70 3f 14 85 7d 3f 1d 7f 67 3f 71 e5 71 3f
       0.937929 0.99031186 0.90428334 0.94490725
0000b0 9d de 71 3f 85 26 91 3f 15 1b 8b 3f 1e f0 7a 3f
       0.94480306 1.133988 1.086764 0.9802264
0000c0 64 4f 88 3f d1 00 68 3f 99 fa 81 3f ed 75 72 3f
       1.0649228 0.90626246 1.0154601 0.9471119
0000d0 6d 94 8d 3f 8a 2f 84 3f da da 89 3f 78 08 69 3f
       1.1060921 1.0327008 1.0769913 0.9102855
0000e0 94 c1 63 3f d0 d2 83 3f c0 d4 7b 3f 81 f1 87 3f
       0.8896725 1.029871 0.98371506 1.0620576
0000f0 6a f4 7f 3f 56 9c 81 3f 16 95 84 3f c8 2a 6c 3f
       0.9998232 1.0125835 1.0357997 0.9225278
000100 f6 a2 80 3f 7b b4 8c 3f df 88 85 3f 1b ef 85 3f
       1.0049732 1.0992578 1.0432395 1.0463594
000110 d8 6a 87 3f de 19 81 3f d4 23 7b 3f b6 fb 75 3f
       1.0579481 1.0086019 0.98101544 0.96087205
000120 32 c5 72 3f 01 8e 80 3f bd f1 7e 3f 69 dc 65 3f
       0.94832146 1.0043336 0.99587613 0.89789444
000130 3f c2 91 3f ce 1c 64 3f 22 88 7d 3f f0 56 90 3f
       1.1387404 0.8910645 0.9903585 1.1276531
000140 6d 3c 98 3f 37 d7 81 3f bd 7f 7f 3f bc 94 88 3f
       1.189344 1.0143803 0.9980429 1.067039
000150 20 b4 79 3f 1f 50 8e 3f ca ec a0 3f dc 5f 89 3f
       0.97540474 1.1118201 1.2572262 1.0732379
000160 d3 6b 89 3f de bd 77 3f 2c 7a 90 3f e0 6f 9b 3f
       1.073603 0.9677409 1.1287284 1.2143517
000170 66 05 8c 3f f1 f5 81 3f 58 be 8a 3f 4c ed 82 3f
       1.0939147 1.015318 1.0839338 1.0228667
000180 07 93 92 3f ba 60 85 3f b9 5a 88 3f a6 64 7c 3f
       1.1451119 1.0420144 1.0652686 0.9859108
000190 d4 68 76 3f 38 79 8e 3f 8e 08 7d 3f dc a1 7a 3f
       0.96253705 1.1130743 0.9884118 0.9790323
0001a0 e7 87 80 3f 45 c0 83 3f e6 2f 75 3f e7 0e 7f 3f
       1.0041474 1.0293051 0.9577621 0.99632114
0001b0 0f 5f 7c 3f ba 6b 79 3f 34 c9 80 3f be fd 80 3f
       0.9858255 0.9743 1.0061402 1.0077436
0001c0 55 99 7a 3f 6b 88 99 3f a0 35 69 3f 0c 20 8d 3f
       0.97890216 1.1994756 0.9109745 1.1025405
0001d0 da 4a 7c 3f c9 f1 7d 3f 82 67 78 3f ff 8b 6d 3f
       0.98551714 0.9919706 0.9703294 0.9279174
0001e0 9e 2a 83 3f d0 e4 7e 3f 47 d1 7a 3f 8f ac 68 3f
       1.0247381 0.9956789 0.9797558 0.90888304
0001f0 51 c1 89 3f e7 70 71 3f 1a 42 68 3f 6e 66 72 3f
       1.076212 0.943129 0.9072586 0.94687545

bn1.bias f4 [128]
000000 ef 3c 11 be a1 d1 01 bd 3d 78 4e bd a2 40 bd bd
       -0.141834 -0.03169406 -0.050407637 -0.09240843
000010 8f c6 83 bd 19 f1 bd bd c5 90 a5 bd 79 9c c4 bb
       -0.064343564 -0.09274501 -0.08084253 -0.0060000983
000020 b0 56 09 be 4e 3f 36 be 9d 04 20 be 52 16 6d bd
       -0.13411975 -0.17797586 -0.1562676 -0.057882614
000030 17 03 99 bd 67 a8 68 bd 41 62 e6 bd ad 0c a5 bd
       -0.074712925 -0.056801226 -0.11249209 -0.08059058
000040 87 fc 17 be b7 1b 95 bd 4c cc be bd 92 be cb bd
       -0.14842425 -0.07280677 -0.0931631 -0.09948458
000050 4b 4f 5c bc 5c 96 05 be 37 19 c0 bd f5 b4 9d bd
       -0.013446639 -0.13045639 -0.09379809 -0.077005304
000060 dc ce 9f bd e4 a6 65 bc 74 9c f7 bd db 60 0a be
       -0.07803127 -0.014016841 -0.12090388 -0.1351351
000070 38 57 4d bd b4 1f 9d bd da e9 db bd fd 97 d4 bd
       -0.050132006 -0.076720625 -0.10737963 -0.10380552
000080 e9 80 eb 39 d2 5f 85 bd 4f 2c c6 bd 23 10 ee bd
       0.00044918738 -0.06512417 -0.0967642 -0.116241716
000090 74 47 65 bd 01 7a 8a bd 6c 18 52 bc 6e 44 2e bb
       -0.055976346 -0.06761552 -0.012823205 -0.002659108
0000a0 c7 d2 9f bd 24 bd 04 3c df 70 cc bd 26 7b cf bd
       -0.078038745 0.008101735 -0.09982466 -0.101309106
0000b0 df 4f 0e be 18 b5 16 be df 5f 0d bd dc 7f 98 bd
       -0.13897656 -0.1471752 -0.034515258 -0.07446262
0000c0 4d 37 bc bd 15 8e c0 bd 82 40 fa bd e7 74 13 be
       -0.09190235 -0.094021 -0.12219335 -0.14400063
0000d0 b5 b0 a3 bd 31 fc 80 bd 15 3f 37 be f2 a0 88 bd
       -0.079926886 -0.06298102 -0.17895158 -0.06671323
0000e0 34 89 04 be f2 9d 31 bd 15 1f 99 bd 86 64 a7 bb
       -0.12942964 -0.04336352 -0.074766316 -0.005108419
0000f0 7f 5b 46 bc 33 27 af bc ef de 6f bd 3c 74 fc bd
       -0.012106775 -0.021380996 -0.058562215 -0.123268574
000100 11 2b c6 bd 0f b0 bd bd cf 38 81 bd bf d4 eb bd
       -0.09676183 -0.09262096 -0.063096635 -0.115151875
000110 9f 0d 8d bd b8 a7 dc bd 3a 42 7d bd d8 2d f5 bc
       -0.06887364 -0.10774177 -0.061830737 -0.029929087
000120 7f 9b ab bd 09 5f 16 be 55 ac a3 bd ad a6 e5 bd
       -0.08379268 -0.1468469 -0.07991854 -0.112134315
000130 81 24 13 bd a3 3d 22 be da 7b ba bd ba c9 9a bc
       -0.035923485 -0.15843825 -0.09105654 -0.018895019
000140 7b 30 c5 bd af 55 91 bd 6c 9e 13 bd f0 b7 5b bd
       -0.096283875 -0.07096421 -0.036039755 -0.053642213
000150 d3 6f 0e be eb 0a 43 bd 19 d9 68 be fc d6 93 bd
       -0.13909845 -0.047617834 -0.22739066 -0.072187394
000160 be 8a 4f bd 0d 38 38 bd 06 6e 6f bc e8 e3 9e be
       -0.050669424 -0.04497533 -0.014613634 -0.31033254
000170 bc 92 ad bd 9f 33 73 bd 87 ae 42 bd da 15 65 bd
       -0.08475253 -0.0593754 -0.047529723 -0.055929042
000180 a8 f6 6f be 20 8e a3 bd f5 e8 b9 bd 1d 70 59 bd
       -0.23433936 -0.079860926 -0.09077636 -0.053085435
000190 0a bd 77 bd f5 d4 da bd 4b 9b c6 bd ed 8d bb bd
       -0.060483016 -0.106851496 -0.096975885 -0.091579296
0001a0 f3 d4 90 bd 18 b7 3a be 6e de 01 bd 25 6d f5 bc
       -0.07071867 -0.18233907 -0.031706266 -0.02995927
0001b0 6d 82 25 3c 2a 06 95 bd 11 ce 9d bd 28 51 0f be
       0.010101897 -0.07276566 -0.0770532 -0.13995802
0001c0 54 58 2b bd d2 1e ae bd ec 0f 28 be 67 17 c2 bd
       -0.041832283 -0.08501972 -0.16412324 -0.0947712
0001d0 f3 28 2f bd 80 b9 23 be 85 9b 6c bd ee 05 22 be
       -0.04276366 -0.15988731 -0.057765502 -0.15822574
0001e0 4b 88 e3 bd e8 4b 14 bd 8a d1 8a bd 65 36 d2 bd
       -0.1110998 -0.036205202 -0.06778248 -0.10264281
0001f0 63 2d 0d 3a 30 3f de bd 6b 80 4c bd d6 a4 16 be
       0.00053854863 -0.10851896 -0.049927156 -0.14711317

bn1.running_mean f4 [128]
000000 2b fc 39 be 76 d4 da bd b5 bf 70 3d 05 aa d4 bd
       -0.181626 -0.10685055 0.058776576 -0.10383991
000010 97 79 19 3e ea 14 7d 3d cb 9d 56 3e 11 af 6c bd
       0.14987789 0.061787523 0.2095863 -0.057784144
000020 2f 0d 2a 3d 38 14 8a 3e 9f e3 31 3e 2a ae 69 3e
       0.04151648 0.2696855 0.17371987 0.22820345
000030 1e 74 be bd c8 c1 f2 3c d6 0d 51 3e 5b c3 71 bd
       -0.09299491 0.029633418 0.20415434 -0.059024196
000040 7e a1 b6 3d e9 86 ce bd ae 4e 0f be e2 4d 28 3e
       0.08917521 -0.10084326 -0.13994858 0.1643596
000050 29 a2 db 3d f8 40 fa bc 9b 51 8b bc a9 75 11 be
       0.10724289 -0.030548558 -0.017006686 -0.1420504
000060 1f fe 3d 3e a6 5e 37 bd 89 bb 86 3d 0c c1 05 3e
       0.18553971 -0.044768 0.06578738 0.13061923
000070 f8 0e 77 ba e0 a8 25 3e 41 b8 45 bd 78 95 20 be
       -0.0009424533 0.16177702 -0.04827142 -0.15682018
000080 fc b2 1d bd 33 49 69 3e bc 2f 41 3e 18 5b 27 3e
       -0.03850077 0.2278183 0.18865865 0.16343343
000090 e0 2a 61 bd 3c 3c 50 be 55 c7 40 be 52 5e 00 3e
       -0.05497253 -0.20335478 -0.18826039 0.1253598
0000a0 82 2a 1f be 7f 76 12 bd 7a 68 4c 3c 63 40 b5 3d
       -0.15543559 -0.035757538 0.012476081 0.088501714
0000b0 d1 84 08 be 69 a6 ea bd 94 a4 5f 3e d6 ef ad bd
       -0.13331915 -0.114575215 0.21840125 -0.08493011
0000c0 dd d9 94 bd 17 9d 19 3e ce 18 63 3d 89 8c 67 bd
       -0.072681166 0.15001331 0.055443577 -0.05653051
0000d0 2c 18 08 bd 97 4f 28 3e 1a 1a f5 3d cd 1d 58 be
       -0.033226177 0.16436611 0.11967869 -0.21105118
0000e0 98 66 ec 3d 1b 21 f8 3c 72 d3 3d be f3 3a f2 3d
       0.11543006 0.030289223 -0.18537691 0.1182765
0000f0 67 f4 2a be 42 8f 65 bd e9 06 40 be 9e fe c1 bd
       -0.16694795 -0.056044824 -0.18752636 -0.094723925
000100 77 23 7e 3c 2b 20 33 be 3e 2e 50 3e 2f 96 8f bd
       0.015511385 -0.1749274 0.2033014 -0.07011067
000110 42 90 08 be 23 0f 0c be 9c 56 4b 3c a1 53 4c be
       -0.1333628 -0.13677649 0.012410786 -0.19953777
000120 cf 0c c4 3b 46 9c cc 3d 8b 61 0c 3e a7 23 a3 3c
       0.005982972 0.09990744 0.13709085 0.019914461
000130 0a 85 cb 3d 74 ed 35 3d 5f 85 b5 3d af 75 df 3d
       0.099374846 0.044415906 0.08863329 0.10911118
000140 35 b9 29 3e 5c 6c 4b 3e 3f 6f 64 3c a6 6d 19 3e
       0.16574557 0.19865555 0.013942539 0.14983234
000150 38 c9 95 bd 10 c7 3a 3e f5 ba 03 3e 41 a8 42 be
       -0.0731377 0.18239999 0.12864287 -0.19009496
000160 cc 2b e1 3d 06 2d 1c be dc 2c bd bd 78 84 69 3e
       0.10994682 -0.1525155 -0.09237072 0.22804439
000170 f0 37 d7 bd 68 68 2b 3e 09 16 33 3e 9e b9 61 3e
       -0.10508716 0.16739047 0.17488874 0.22043464
000180 b5 ad 54 bd 67 b2 51 bd 2f ae 17 be 88 e5 33 bd
       -0.051923472 -0.05119553 -0.1481254 -0.04392007
000190 7b 04 f3 bd d4 b2 39 be c3 44 84 bd 19 f1 b7 bd
       -0.11866089 -0.18134624 -0.06458428 -0.089815326
0001a0 3c 03 e1 3d 01 31 1e 3d 9e 14 3a 3c c4 c3 53 be
       0.10986945 0.038620953 0.011357455 -0.20680147
0001b0 6e f6 09 3e 59 d6 62 bd a5 e2 94 3b 0a 57 6d 3c
       0.13472912 -0.0553802 0.0045436197 0.014486084
0001c0 c0 4f 42 be f1 11 53 3e d0 cb df 3d 71 21 0e be
       -0.18975735 0.20612313 0.10927546 -0.13879944
0001d0 85 13 25 3d c2 5b a8 3d 61 ac 85 bd 1a 6c 44 3d
       0.04030182 0.082206264 -0.06527019 0.047954656
0001e0 9f 0d 42 3e fb d3 d4 3c b7 82 82 3c d9 18 14 3d
       0.18950509 0.025979986 0.01593147 0.03615651
0001f0 6b 2b d0 3d fb 83 4f bd 2f 15 f2 3d 05 bb c5 bd
       0.10164531 -0.050662976 0.11820447 -0.09654812

bn1.running_var f4 [128]
000000 f9 2e 7e 3e 05 6f fe 3c 66 6b 8a 3d dd 5e 9b 3d
       0.24822606 0.031058798 0.06758766 0.07586453
000010 03 c7 4e 3d dd 2f ff 3d 38 68 e4 3d 98 ed f4 3d
       0.05048276 0.12460301 0.11152691 0.1195938
000020 ae ef ed 3c de 08 51 3c 75 bc d9 3c d1 bb cd 3d
       0.029044952 0.012758462 0.026579121 0.10045589
000030 00 fe a6 3d 46 05 fc 3c 2d ac 3c 3e c0 48 45 3d
       0.081539154 0.030764233 0.18425055 0.048165083
000040 5c 5d a6 3c 06 31 c7 3d 78 4b 68 3d ac 95 c2 3c
       0.02030819 0.09726147 0.056712598 0.02375301
000050 50 80 ab 3d c8 b8 70 3d eb 77 83 3d db 6b 06 3e
       0.08374083 0.05876997 0.06419357 0.13127081
000060 82 04 34 3d 19 b2 56 3d d1 6f 8b 3d bf ca d7 3c
       0.04394961 0.05241594 0.06808437 0.026341794
000070 1d a5 da 3d f4 e9 5a 3d 1f 0d ac 3c 40 cd 9e 3d
       0.10676024 0.05344577 0.02100235 0.07753992
000080 80 25 12 3c 86 78 d0 3d e3 45 1a 3d 9f eb 64 3d
       0.0089200735 0.10179238 0.037664305 0.05588877
000090 5c cb a6 3c c4 80 68 3d 39 00 1f 3d 2f 79 95 3e
       0.020360641 0.056763425 0.03881857 0.29194018
0000a0 98 df e9 3d a2 08 a1 3d a1 af 18 3f 73 fb 96 3e
       0.114196 0.07862975 0.5964299 0.29488716
0000b0 73 7f 9b 3d 96 a3 c0 3c 7c 1f 0c 3e 36 59 ce 3c
       0.075926684 0.023515504 0.13683885 0.025189023
0000c0 46 6d 96 3d bc b3 a8 3e 6d 53 30 3d 94 a3 39 3d
       0.07345061 0.32949626 0.04304831 0.045322016
0000d0 79 05 c6 3c 1d db 0a 3d 9d c3 14 3d ba c4 18 3e
       0.024172531 0.03390037 0.036319364 0.14918795
0000e0 83 db 5b 3e 7f 15 e5 3c c0 48 2c 3c 77 c9 86 3d
       0.21470456 0.027964352 0.010515392 0.06581395
0000f0 3e 40 b6 3c f3 e7 fd 3d c9 73 ed 3c 2a fc c7 3e
       0.02224743 0.123977564 0.028985875 0.39059573
000100 80 39 da 3c 9a 28 dd 3d e3 62 00 3e b7 fd 01 3d
       0.026638746 0.1079876 0.12537722 0.031736102
000110 4e a0 af 3c af 83 46 3d 59 69 db 3d 8f 20 41 3c
       0.021438744 0.048465427 0.10713453 0.011787548
000120 4e b5 ee 3d c4 e9 e7 3c b4 55 55 3e 51 59 d3 3e
       0.11655675 0.02830971 0.20833474 0.4127908
000130 28 12 ad 3c 9b ac 14 3f d0 18 16 3d 26 4f 9d 3c
       0.021126822 0.58075875 0.036644757 0.01920278
000140 53 60 1e 3d 44 74 92 3d 82 f1 23 3e 4b 98 77 3d
       0.03866608 0.07151082 0.16010097 0.060447972
000150 27 ab f9 3c fa 90 ee 3d 60 21 85 3d d1 ed 20 3d
       0.03047712 0.11648746 0.065005064 0.0392893
000160 80 40 24 3d e5 cf ba 3d 95 77 0b 3d 18 d9 3f 3c
       0.040100574 0.09121684 0.03404959 0.011709474
000170 68 1d cf 3d 49 85 d9 3d 2a 13 6d 3d a1 00 b9 3c
       0.10113031 0.10621125 0.057879604 0.022583308
000180 f5 68 ae 3c 16 6e 3d 3d 11 86 37 3d 95 9d af 3c
       0.021290282 0.046247564 0.04480559 0.021437446
000190 ec b2 51 3d d8 43 6c 3c 55 56 76 3d fd e9 f5 3c
       0.051196024 0.014420472 0.060140926 0.0300188
0001a0 f1 45 33 3d 1c 4f e4 3c af b3 6c 3e 77 2b 27 3d
       0.043767873 0.027869754 0.23115419 0.040812936
0001b0 1a ee dc 3d 8d 47 21 3e 81 11 17 3d 29 06 c1 3d
       0.10787602 0.1574995 0.036881927 0.09425003
0001c0 cc e2 88 3d b2 99 36 3c 97 b4 8a 3d 9d 0b 48 3c
       0.06683883 0.011145042 0.06772726 0.0122098
0001d0 8e 30 3e 3d 90 53 84 3c 2d 16 e8 3e cb b0 25 3e
       0.046433024 0.016153127 0.4532942 0.16180722
0001e0 b9 8c ef 3c 7b 13 83 3d 71 84 0c 3d 8a e8 70 3e
       0.029241906 0.064002 0.034305993 0.23526207
0001f0 39 18 94 3d 93 ea 00 3e c8 15 51 3f af b3 22 3d
       0.072311826 0.12589483 0.8167386 0.03972214

fc2.weight f4 [64, 128]
000000 90 47 33 bc 88 32 07 be 1f 91 11 be 29 b9 8e 3c
       -0.010942355 -0.1320287 -0.14215516 0.017422276
000010 7e 7b ae bd 1b 43 71 bd 32 74 48 bb 7c 5b cc bd
       -0.08519648 -0.058901887 -0.0030586836 -0.09978387
000020 54 a8 f4 bc 44 05 84 3d 07 a5 8d 3d ae ad 6b b9
       -0.029865421 0.06446317 0.06916242 -0.00022476047
000030 3e 4c 06 3d ba 10 7b 3c fd 25 fd bc 12 78 2a bd
       0.032787554 0.015323812 -0.030901903 -0.041618414
000040 70 9b 13 bc d2 39 9b bd 55 01 34 3c 23 14 25 bd
       -0.009009227 -0.07579388 0.010986646 -0.040302407
000050 2e f1 94 bd f5 9e 98 3c 97 5b 58 3d b1 84 84 3d
       -0.07272564 0.018630484 0.052821722 0.064706214
000060 b4 a3 30 3d 1f 73 f8 bc 27 c3 64 bd d1 24 24 bd
       0.04312487 -0.030328332 -0.055850174 -0.040074173
000070 ea 91 41 bb 95 60 55 bd 8f 5e 12 3d bb b1 e5 bd
       -0.0029536434 -0.05209406 0.03573471 -0.1121554
000080 14 36 65 3d 23 ab 70 bd 22 9c 04 3e 98 71 bb 3c
       0.055959776 -0.05875696 0.12950185 0.022881314
000090 0d 72 1c be e1 8d 0d bc bf 7a ee 3c 41 ba ab bc
       -0.15277882 -0.008639784 0.029111264 -0.020962836
0000a0 a8 83 ac 3a 4d 9d 33 3b 17 b8 00 3d 5a 22 84 bd
       0.0013161795 0.002740699 0.03142556 -0.064518645
0000b0 6b a1 16 bc 63 fa 94 bd 5a 28 8c 3d a6 08 cc 3c
       -0.0091937585 -0.0727432 0.06843634 0.024906468
0000c0 d8 cb c3 bd 55 4f 31 bc 31 e0 bd bd d5 5f a9 bc
       -0.095603645 -0.010822137 -0.09271277 -0.02067558
0000d0 99 f1 46 bc 7e bb 84 bd 88 d3 f0 bc 20 ba 5b bd
       -0.012142562 -0.06481074 -0.029397741 -0.0536443
0000e0 c6 77 3f 3d 19 89 67 bd 05 7d be 3c 3e 46 3b bc
       0.046745084 -0.05652723 0.023252973 -0.011430321
0000f0 d5 1c c6 3d df 62 9d 3c 71 77 fc 3c ea 7a 95 3c
       0.09673468 0.019212184 0.030818673 0.018247087
000100 bd 20 03 bd 37 2d 10 3d 76 95 40 3d 22 26 a4 3d
       -0.032013644 0.03519937 0.047017537 0.08015086
000110 dc 66 3f bd 94 09 d1 b8 b3 b4 8f bc 85 f7 e9 bc
       -0.046728954 -9.967681e-05 -0.017542219 -0.02856041
000120 66 96 62 3d b2 a8 07 3c 45 2f a2 bb d3 ce e9 bc
       0.055319212 0.008279966 -0.0049494826 -0.028541004
000130 0c 06 cb bd 11 b0 12 bd 42 b9 b3 bd 22 38 24 3d
       -0.09913263 -0.03581244 -0.087755695 0.040092595
000140 70 56 f5 bd 5f fb e6 3c c7 17 aa bc e4 08 a0 3c
       -0.11979377 0.028196035 -0.020763291 0.01953549
000150 50 76 24 3c 25 3d 91 bd 86 72 48 bd 89 76 9f bc
       0.0100379735 -0.070917405 -0.048937343 -0.019465702
000160 64 09 4f bd 7d fc c7 3d 62 a2 25 3d 91 72 f8 3d
       -0.050546065 0.09764955 0.040438063 0.12131227
000170 76 98 0e 3d 60 91 a3 3c 79 3a 0c 3d d9 e9 8d bd
       0.034813367 0.019966781 0.03423545 -0.069293685
000180 3a eb 61 3d 76 3c 5c 3c a7 f6 36 bc 06 7c e8 3c
       0.05515597 0.013442149 -0.011167205 0.028379451
000190 a9 a4 14 3c 2e 53 1f 3d 97 8a 04 bd 4c f8 a9 bd
       0.009072461 0.038897686 -0.032358732 -0.08299312
0001a0 f8 fd df 3c 78 69 c0 ba 10 8d 5d 3c 1c ca a7 3d
       0.027342781 -0.001467987 0.013522401 0.08192846
0001b0 30 b9 5b bc 11 80 8b bd 2e a2 2a bd 89 7c 74 bc
       -0.013410851 -0.06811536 -0.041658573 -0.01492227
0001c0 6e 45 1d bb ae dc bd 3d 85 81 62 bc 70 a3 a6 bd
       -0.0023997682 0.09270607 -0.013824825 -0.08136642
0001d0 64 52 67 3d b5 c6 f2 bd b1 91 6e bc 7e 04 7a 3d
       0.05647506 -0.118543066 -0.014561103 0.06103944
0001e0 34 53 46 3d 21 99 2d bd 7c 45 bb bd 3c db 5a 3d
       0.048419192 -0.042382363 -0.091441125 0.053431734
0001f0 e2 86 8c bd f7 c6 14 bd 9b 2e ea 3c 11 40 33 bd
       -0.06861664 -0.03632256 0.028586676 -0.04376227
000200 68 e1 73 3d c6 d2 b3 3d e1 49 de bd 74 57 ab bb
       0.059541136 0.08780436 -0.10853935 -0.005228931
000210 d4 ea 72 3c 3d 3a d9 bb 9f 19 9a 3d 7c c7 f2 bb
       0.014826495 -0.006629257 0.07524418 -0.0074090343
000220 60 44 13 be d9 b7 50 be 93 3f 57 3d 35 e0 ab 3d
       -0.14381552 -0.20382632 0.052550863 0.083923735
000230 18 fa 47 bd b1 2f 9c bd 3c 5b e9 bc 76 e0 82 bd
       -0.048822492 -0.07626284 -0.028485887 -0.06390469
000240 86 a1 f1 3c c4 84 51 bd 90 b6 26 3d 00 8f f3 3c
       0.029495966 -0.051152006 0.04070145 0.029731274
000250 53 97 4c 3d 95 e2 58 bd 1f 84 85 bc 80 fa c7 3c
       0.049949 -0.05295046 -0.016298352 0.02441144
000260 8c 98 b8 3b 49 4a 8d 3c 99 7f 62 bc 9d ff a3 3d
       0.0056334194 0.017247336 -0.013824367 0.08007739
000270 ff 3b e5 bb 2e 2e 95 bd b4 04 d5 3d 3c a3 f3 3b
       -0.0069956775 -0.07284199 0.10401288 0.0074352305
000280 30 c4 39 bd 19 36 1e 3d bc 62 08 bc 78 9e 78 3c
       -0.045353115 0.03862581 -0.008324321 0.015174501
000290 ae cc 30 3d d9 cf 34 bd 46 7f 5f bc 02 e4 37 bd
       0.043163948 -0.04414353 -0.013641184 -0.04489518
0002a0 4e 43 04 3b 72 cd 25 3d 3f 8a 4a bd f9 19 02 bc
       0.0020181718 0.04047913 -0.049448248 -0.007940763
0002b0 c1 3d 71 bd 9a 98 02 be 3c 69 c0 bd f1 b8 6d bd
       -0.058896784 -0.12753525 -0.09395072 -0.058037702
0002c0 ec 26 21 bd e6 12 27 bd 2a a5 a1 3d 16 e9 96 bd
       -0.03934376 -0.040789507 0.07892831 -0.07368676
0002d0 8f 05 da bc b0 fd 8a bc f8 68 01 be f5 22 02 bd
       -0.026613979 -0.01696667 -0.12637699 -0.03177162
0002e0 3e cb 42 3b 79 30 64 3d 77 f5 27 3d d4 24 58 3c
       0.0029723193 0.05571029 0.041005578 0.013192374
0002f0 25 d0 f7 3c b6 d9 f8 3c b1 b5 91 3d 55 4a b3 3b
       0.030250618 0.03037725 0.07114733 0.0054715076
000300 02 68 8f bd 9a b9 db bc 2c 12 50 3d a8 30 77 3d
       -0.0700226 -0.0268219 0.05079858 0.060349137
000310 12 e5 78 3b 70 3f 8b 3c 0e 93 9a 3c 23 b4 ac 3d
       0.0037978333 0.016998023 0.01886895 0.08432796
000320 78 81 4e 3c 06 7b 8a 3c 56 ca 93 3d 10 67 12 bd
       0.01260411 0.016904365 0.07216327 -0.03574282
000330 ca a8 ed 3b 9c 6d 5b 3d 29 ae cb bd dd 45 65 bc
       0.0072527872 0.05357133 -0.09945328 -0.0139937075
000340 47 18 a3 bd 29 a4 f4 bc 5d 2f 57 bc d2 8f b0 3d
       -0.07963615 -0.029863434 -0.013133851 0.086211815
000350 d4 27 9f bd e7 e4 00 3d ca 0d b3 3d f6 da b5 bd
       -0.077712685 0.0314683 0.087428644 -0.08879654
000360 c2 a0 03 3d e8 8b 2e bb 96 3a 1d bd ff 22 d2 bd
       0.032135732 -0.0026633684 -0.03838595 -0.10260581
000370 d7 c9 b5 3d 02 b6 ee 3d a9 db 0a bb d5 e5 a4 bd
       0.088763885 0.11655809 -0.0021188057 -0.080516495
000380 b5 38 be bc 2a 3d 86 bc bf 57 9d 3d cc e2 a4 bc
       -0.0232204 -0.016386587 0.07682752 -0.020127676
000390 2b 80 41 bd 5d d4 de bd 76 09 44 3d 13 9e 70 3d
       -0.04724137 -0.10880349 0.047860585 0.0587445
0003a0 7b db 35 3c 7a 14 90 bc c8 7a 56 3d 4d 36 b0 bd
       0.0110996915 -0.017587889 0.052363187 -0.08604107
0003b0 2d 96 07 3d 76 36 87 bd 3f 45 37 3c 9c 49 bf 3d
       0.033102203 -0.066021845 0.011185943 0.09340212
0003c0 bc 42 46 bd 0b 39 38 bd 83 6e ab 3d 3c e4 90 bd
       -0.048403487 -0.044976275 0.08370688 -0.07074782
0003d0 87 a1 f0 bb 26 17 07 3d 09 05 73 3d 68 16 1b bd
       -0.0073434743 0.03298106 0.059330974 -0.037863165
0003e0 2a 2b 86 bc 50 fd ee 3a 26 7f 7f 3c 96 0e 2e 3c
       -0.016378004 0.0018233452 0.015594279 0.010623595
0003f0 9f 65 da bc 18 9c f3 bc c7 a6 a2 3b 89 97 99 3d
       -0.026659785 -0.029737517 0.004963729 0.07499606

fc2.bias f4 [64]
000000 e3 86 4e 3d 97 c8 27 3d 4f ec 82 3d fb 1f e4 bc
       0.050421607 0.04096278 0.063927285 -0.02784728
000010 d3 24 2e bd 82 33 b2 3d 44 6a 9e 3d d1 a9 a6 bd
       -0.042515587 0.087012306 0.07735112 -0.08137859
000020 13 70 57 bc ba 34 9f bc c8 5c 1e 3c 74 98 66 3d
       -0.013149279 -0.019434322 0.009665675 0.056297734
000030 2c e2 27 3c d6 92 60 bd 47 2e 1f 3d 48 1f 92 bc
       0.010246795 -0.054827534 0.038862493 -0.017837182
000040 e1 70 89 3d 24 01 a7 bd f6 23 a7 3d ff a7 0a 3c
       0.06710983 -0.081545144 0.08161156 0.008462905
000050 9f ef 10 bd 5b 5f 18 3d 89 7b 02 3d 89 3e bf bc
       -0.03538477 0.037200313 0.031856094 -0.023345249
000060 13 9e 39 3d 1a b3 f7 3c 6c 2d bb bc 47 10 87 bb
       0.045316767 0.03023677 -0.022848807 -0.0041218135
000070 4d b2 af 3d c4 93 92 3c 3d 2b 51 3d f4 b3 09 3d
       0.0857893 0.017892726 0.051066626 0.033618882
000080 e6 da de 3c 6d 88 c0 3c 01 07 1e bd d9 25 a9 3d
       0.027203988 0.023502553 -0.0385809 0.08259172
000090 e3 33 e3 bc fe 7b 1f bd 38 f3 23 3d fd 0f 97 bd
       -0.027734702 -0.038936608 0.040026873 -0.073760964
0000a0 b8 f0 17 3c e2 2c ab 3d 8b 9f fa 3c fc e4 8d bd
       0.0092737 0.0835817 0.030593654 -0.06928441
0000b0 8c 24 19 bd a9 16 1e bd 3c 46 73 bd 06 e1 b0 3d
       -0.03738837 -0.03859583 -0.059393153 0.0863667
0000c0 2c fb 5a 3d 03 00 89 bd 9d 37 6a 3d dc e0 8c 3d
       0.053462192 -0.06689455 0.057181943 0.06878826
0000d0 fc 8f fa 3c 70 31 29 bc ff e5 86 bd b5 a1 27 3d
       0.030586235 -0.010326728 -0.06586837 0.0409257
0000e0 15 84 ae 3c dc cb 71 3c 62 0a a8 3d e0 98 ae bd
       0.021303216 0.0147580765 0.08205105 -0.08525252
0000f0 10 e4 38 3d 6f 4c 70 bd ea 09 13 3b a6 b5 a6 3d
       0.045139372 -0.058666643 0.002243633 0.081401154

bn2.weight f4 [64]
000000 4f 64 7f 3f 3c b4 79 3f 6d 1f 81 3f 61 30 84 3f
       0.99762434 0.9754064 1.0087715 1.0327264
000010 d6 7c 82 3f d2 3f 74 3f 3e 13 89 3f 2f e8 80 3f
       1.0194347 0.9540988 1.0708997 1.0070857
000020 98 6c 88 3f d8 1d 7f 3f 3e 2c 81 3f 06 82 6b 3f
       1.065814 0.9965491 1.0091627 0.91995275
000030 a9 3b 7d 3f 4e 5f 7a 3f 12 31 7b 3f bf 22 92 3f
       0.9891916 0.97801673 0.9812175 1.1416854
000040 44 d5 8e 3f 83 34 81 3f 4f a4 83 3f 0b 35 8a 3f
       1.1158834 1.009415 1.0284518 1.0797437
000050 2d 9f 8b 3f ba cf 7c 3f b0 ee 7e 3f e8 b9 82 3f
       1.0907952 0.98754466 0.9958296 1.0212984
000060 fa 74 86 3f 1b 31 7d 3f 79 fb 86 3f dd 7e 72 3f
       1.0504448 0.98903054 1.0545493 0.9472483
000070 2c c8 84 3f 7e 0d 85 3f 0d eb 72 3f 64 11 73 3f
       1.0373588 1.0394742 0.9488991 0.9494841
000080 ab 60 86 3f 50 fa 78 3f 40 10 7b 3f 27 d7 7a 3f
       1.0498251 0.97256947 0.9807167 0.97984546
000090 27 00 83 3f d5 9d 80 3f bb 85 8d 3f 3b 35 82 3f
       1.0234421 1.0048167 1.1056436 1.0172495
0000a0 9e 6c 7f 3f ae a2 78 3f 60 18 84 3f ff 02 8a 3f
       0.9977511 0.9712323 1.0319939 1.0782164
0000b0 e5 56 87 3f 83 c7 7f 3f 4e 37 80 3f 4b dd 7d 3f
       1.0573393 0.99913806 1.0016878 0.9916579
0000c0 b7 11 73 3f 1e cc 7b 3f 80 2b 85 3f 1c f6 89 3f
       0.94948906 0.98358333 1.04039 1.0778232
0000d0 d4 b8 80 3f ec b9 82 3f 48 de 7d 3f d3 96 83 3f
       1.0056405 1.0212989 0.991673 1.0280403
0000e0 31 52 83 3f 26 00 7a 3f a0 b5 84 3f 0c 34 88 3f
       1.0259458 0.97656476 1.0367928 1.0640883
0000f0 bc 7a 75 3f ef a1 82 3f 85 73 79 3f 39 cc 82 3f
       0.958904 1.0205668 0.97441894 1.0218574

bn2.bias f4 [64]
000000 e8 c8 f2 bd e3 1d 2a be 64 4b 2f be 9f 9d d3 bd
       -0.11854726 -0.16612963 -0.17118603 -0.10332798
000010 fb 60 2f 3b 25 4a a7 bd 2a a1 09 be 08 10 13 3c
       0.0026760686 -0.08168439 -0.13440385 0.00897599
000020 e6 79 21 be 38 51 e0 3c f6 5b c9 bd 34 16 a0 bd
       -0.15769157 0.027382478 -0.09831993 -0.07816735
000030 0c d3 8e bd b3 e5 e1 bd 3a c2 cb bd 2b 8d 80 3d
       -0.06973848 -0.1103014 -0.09949155 0.06276926
000040 15 ae f2 bc 35 5f c4 bd e3 61 64 bd a5 5e b1 bd
       -0.029624024 -0.09588472 -0.055757415 -0.0866063
000050 f2 bd c6 bd 3a 5f 89 bd cf 07 c9 bd d0 b3 93 bd
       -0.09704198 -0.06707616 -0.098159425 -0.07212031
000060 58 7d 52 be b1 fb 9e bc aa 25 ba 3c c1 97 a3 bc
       -0.20555627 -0.019407125 0.022723038 -0.019969823
000070 4a 2d 68 39 7a d0 91 bd b1 8d da bc 2f 8e 2d bd
       0.00022142116 -0.07119842 -0.026678892 -0.042371925
000080 39 79 cd bc 3e ec ce bd 80 74 ef 3b ed 3b 8c bd
       -0.025082218 -0.10103653 0.007307589 -0.068473674
000090 8a f5 f2 bd 81 2f 1d be f5 c2 20 be 56 eb c3 bd
       -0.11863239 -0.15350153 -0.1569937 -0.09566371
0000a0 0a a1 91 bd d6 e1 e0 bd 7b 3e 41 bd 48 45 a7 bd
       -0.07110794 -0.10980575 -0.047178727 -0.08167511
0000b0 7e 8f d6 bd f1 f7 a7 bd eb e7 15 be 16 8e f2 bd
       -0.10476588 -0.08201588 -0.14639251 -0.11843507
0000c0 20 e0 a2 bd 7c b4 b7 bd dd fc 84 bd a9 66 48 3c
       -0.07952905 -0.089699715 -0.06493542 0.012231507
0000d0 d1 aa b9 bc 91 ff 16 bd c3 7b 06 be 04 69 17 be
       -0.02266446 -0.03686482 -0.13133149 -0.14786154
0000e0 e5 da 46 3d 7f 8a 00 be 54 e1 fb bd 6c 79 9d bd
       0.048548598 -0.12552832 -0.12298837 -0.07689175
0000f0 43 f4 bd bd 17 05 15 bd 4f 89 eb bd 01 df 2c be
       -0.09275105 -0.036381807 -0.11500799 -0.16881944

bn2.running_mean f4 [64]
000000 f3 6c 45 be 36 98 fd bd 66 91 b4 be d7 c2 f5 bd
       -0.19279842 -0.123825476 -0.3526718 -0.120000534
000010 57 89 75 bc 7b bd 99 3d 1c 36 dd 3e a9 e6 84 be
       -0.014986358 0.07506844 0.43205345 -0.2595723
000020 1c 70 8d be dc 65 62 bd 68 b2 4b 3e b9 8a 98 3c
       -0.27624595 -0.055272922 0.19892275 0.018620836
000030 fb 59 10 bd d5 89 6a bc 8c e7 50 be a1 b3 f7 be
       -0.035242062 -0.014315088 -0.20400828 -0.48379233
000040 4e c3 ce 3c 2d e9 c0 be 90 6d 26 be b6 08 c1 be
       0.025239613 -0.376779 -0.16252732 -0.37701958
000050 a9 69 ca bd be fb 23 be 3d 94 ff be bc 8f bc bd
       -0.09883434 -0.16014001 -0.49917784 -0.09207103
000060 cc bf ea bd 49 da c4 3c 73 75 06 bf 2f e3 91 be
       -0.114623636 0.024029868 -0.52522963 -0.2849364
000070 0f b4 53 3e 0b ea 9b bd 32 44 72 be 58 17 fc 3d
       0.20674156 -0.076129995 -0.23658827 0.1230914
000080 1c a6 94 be 37 6d 23 be 71 fc 91 3d 1f 75 30 be
       -0.2903298 -0.15959631 0.071282275 -0.17232178
000090 13 46 f2 bd d6 4a 8c be b3 61 fd 3c 8b e6 14 be
       -0.11829772 -0.27400845 0.030930376 -0.1454107
0000a0 db 95 06 be ed be 2f 3e 31 ea 4e be 9b 8a a8 be
       -0.13143103 0.17162676 -0.20206524 -0.32918248
0000b0 b9 b3 f2 be e1 1b d8 3d 21 4b 61 be 2e b4 3b be
       -0.47402743 0.105521925 -0.22001316 -0.18330452
0000c0 1e cc 04 3e 89 bf a3 be ec 68 a9 bd 87 f8 ad bd
       0.1296849 -0.31982067 -0.082719654 -0.084946685
0000d0 04 e3 87 3e fb 9d 3a bd b7 73 4c be bd 5e 76 3d
       0.26540387 -0.04556082 -0.19966017 0.060148943
0000e0 27 68 48 be 8e 54 2a 3d be eb 72 be 13 d9 83 bd
       -0.19570981 0.041584544 -0.23722741 -0.06437888
0000f0 e7 a6 0d be d8 4f d3 be b6 12 15 bd 40 57 67 be
       -0.138332 -0.41271853 -0.036394797 -0.22591877

bn2.running_var f4 [64]
000000 60 ae 7c 3e 7e 04 70 3e 0a dd 6a 3e 36 48 a5 3e
       0.24675894 0.23439214 0.22935882 0.32281655
000010 41 9b 45 3f 8b 86 50 3e a8 8e 83 3e ae 88 b8 3e
       0.77190024 0.20363824 0.25694776 0.36041778
000020 e5 c1 92 3e 05 7d a4 3e df 3d 9a 3e e9 1c c9 3e
       0.28663555 0.32126632 0.3012533 0.3927987
000030 c8 d0 ff 3e 54 79 94 3e 14 cf 89 3e e8 79 ce 3e
       0.49963975 0.28998816 0.269158 0.40327382
000040 95 68 b4 3e 68 8b 8c 3e c2 b8 c2 3e e9 91 e6 3e
       0.3523604 0.2745011 0.38031584 0.45033196
000050 a3 a3 15 3e b5 dd 7d 3f 5a c5 f5 3e ab 03 7d 3e
       0.14613204 0.99166423 0.4800213 0.2470843
000060 19 70 97 3e ea 83 81 3e 97 5a 16 3f 12 f7 b5 3e
       0.2957771 0.25295955 0.5873198 0.35540062
000070 26 d5 04 3f f0 92 73 3e d7 2e 1b 3f bf 9b ad 3e
       0.5188774 0.23786521 0.60618347 0.33907887
000080 79 52 e3 3e 84 65 38 3e 72 fd e1 3e f2 0e d0 3e
       0.4439886 0.18007475 0.44138676 0.40636402
000090 db 28 85 3e 2f 8d 78 3e 90 3d b2 3e 11 7d 62 3e
       0.26007733 0.24272607 0.34812593 0.22118022
0000a0 10 43 84 3e ec e6 bc 3e 55 09 88 3e bd 49 bc 3e
       0.25832415 0.3689493 0.2656962 0.36775008
0000b0 da 60 be 3e 12 9b b4 3e f3 6e 5b 3e 82 78 85 3e
       0.37183267 0.3527456 0.21429043 0.26068503
0000c0 c8 8f 75 3e a0 ef 68 3e 9e 04 5e 3e 4b b1 f6 3e
       0.2398063 0.2274766 0.21681449 0.4818214
0000d0 8f e6 b1 3e 4f 4e 78 3e 9e f1 79 3e d7 68 ae 3e
       0.34746215 0.24248622 0.24408576 0.3406436
0000e0 c7 39 06 3f 6d c6 44 3e d6 99 31 3f b8 b8 84 3e
       0.5243191 0.19216318 0.6937536 0.2592218
0000f0 f5 9d d6 3e 6a 3c 12 3f ea ef 88 3e 23 90 a5 3e
       0.41917387 0.57123435 0.2674554 0.3233653

fc3.weight f4 [32, 64]
000000 8f f7 d7 3d b7 0e 86 bc cf 7a ea 3a 6f 78 dc bc
       0.10545265 -0.016364438 0.0017889383 -0.026912896
000010 63 66 c1 bd 29 d5 20 3c 69 bf 30 ba fa df f8 3d
       -0.09443357 0.009816446 -0.00067423895 0.12152095
000020 fe b0 c4 bd d8 30 00 bb 08 94 1a bd 15 c3 8a 3c
       -0.09604071 -0.0019560363 -0.03773883 0.016938725
000030 bb 39 94 bd c1 4c 06 bd 7a d3 76 3d c6 6c 74 3c
       -0.07237574 -0.032788042 0.060260274 0.014918512
000040 75 81 c0 bd d5 8b f9 bc 19 c0 b4 3d f0 e0 d4 bd
       -0.09399692 -0.030462185 0.08825702 -0.10394466
000050 d3 a2 6d bd 7e 1e d6 3c 5d 2d 29 3d 30 ca 1a bd
       -0.05801661 0.026137587 0.041303027 -0.037790477
000060 a9 2d 2d bd 8c 4a 6f be e8 8b 74 3d 9e 6d 3e 3c
       -0.042279873 -0.23368281 0.059703737 0.011622814
000070 dd e5 15 be a4 43 ca bd 47 34 10 3d be ce 95 3d
       -0.14638467 -0.09876183 0.035206106 0.073148236
000080 58 0e f6 3d e7 42 d6 bd ca df 38 be f6 b3 9b 3d
       0.120144546 -0.10461979 -0.18054119 0.07602684
000090 93 da af bd 4d 72 13 bd 04 ad 8d 3d bf ab 29 bd
       -0.085866116 -0.035997678 0.06917766 -0.041423555
0000a0 bb 99 ab bd 13 de 40 bd 3d 11 cc bb 8a 64 9b 3d
       -0.08378931 -0.047086786 -0.006227641 0.07587536
0000b0 1b 21 8e 3b 43 18 16 be b0 74 11 be 3d e1 17 3d
       0.0043374426 -0.14657693 -0.14204669 0.03708004
0000c0 a4 26 44 3d 1b 6e 89 bd 17 e7 eb 3c 42 af a7 3d
       0.047888413 -0.06710454 0.028796716 0.08187725
0000d0 63 43 10 be 5a ca 2d be f7 d5 03 be b0 c6 7e bd
       -0.14088206 -0.16971722 -0.1287459 -0.062201202
0000e0 17 c2 00 be 42 53 1e bd 27 b3 95 3c fc dd 7f bb
       -0.1257404 -0.03865362 0.018273903 -0.0039042225
0000f0 4b ec 96 3c 93 79 35 3b 5a a0 e6 bd bc b6 95 3c
       0.01842322 0.0027690872 -0.112610534 0.018275611
000100 bd 94 b1 3c 8c 61 62 3c 3d fd fe bc c8 af 8e 3d
       0.02167737 0.013817202 -0.031126613 0.06967121
000110 41 34 99 bd f6 7e c3 3d eb c8 f4 3d b1 d6 fb bd
       -0.0748067 0.095457 0.119523846 -0.122968085
000120 90 83 9b 3d eb 2b 9d 3d 14 5b dc bc 22 b9 42 bd
       0.07593453 0.07674392 -0.026898898 -0.047539838
000130 66 9e 3f 3c 42 5f a5 bc 77 7e c8 bd 6a 6d 31 be
       0.01169548 -0.020187024 -0.09789746 -0.17326894
000140 ea 25 8f bc 31 4d 8d 3d 33 e0 9a bc e2 f8 0d be
       -0.017474134 0.06899489 -0.018905735 -0.13864473
000150 12 28 a3 3c 4e bf 22 3d 59 e0 5f 3d ae c0 f6 3c
       0.019916568 0.039733224 0.054657314 0.030121174
000160 29 ee b8 3c 6f 80 f9 bd fb 1e 63 be 64 21 cb bd
       0.022574501 -0.121827 -0.22179787 -0.09918478
000170 3d 3f 66 3c 43 fc 6c 3c 55 28 13 be b4 1e 8a bc
       0.014053163 0.014464441 -0.14370854 -0.016860344
000180 af e3 3e be 70 d5 b6 3d 9e 14 19 be 4d 74 3a 3d
       -0.18641542 0.08927429 -0.14949271 0.04552107
000190 7c e8 05 3d 37 a4 5d 3d b2 c8 b2 bd 13 6d 36 bd
       0.032692418 0.054111686 -0.08729686 -0.044537615
0001a0 c1 aa a8 bc 34 d9 24 bd fc 8b d2 bd f0 47 eb 3d
       -0.020589234 -0.040246204 -0.10280606 0.1148833
0001b0 0c e5 e9 bb f8 58 ad bd fa ba 3b 3d f0 30 98 bd
       -0.0071379 -0.08464235 0.04583261 -0.07431209
0001c0 83 82 49 3d 9f 40 ee bc 5a 83 e6 3c 02 29 85 be
       0.04919673 -0.029083548 0.028138805 -0.2600785
0001d0 1b 07 99 bd 6a f9 0e bd d6 f5 ae bd ed 19 6d 3d
       -0.074720584 -0.03490583 -0.08542983 0.057886053
0001e0 9c 7c 0e be af 6f c4 3c 75 e2 fd 3d 5e 9f dc 3d
       -0.13914722 0.023979036 0.12396709 0.107725844
0001f0 5d 7a 65 bc 67 78 13 3e e6 61 a3 3d ed 78 75 bd
       -0.014006224 0.14401399 0.07977657 -0.059929777
000200 aa 42 b6 3d ef 3f 02 be d4 79 53 bd 05 80 ec bd
       0.08899434 -0.12719701 -0.051629856 -0.11547855
000210 09 48 26 bb 52 8f a7 bd a0 3a de bd a0 ee 2b bc
       -0.0025372526 -0.08181633 -0.108510256 -0.010493904
000220 bb 3f 96 bc 33 a0 25 be 24 2a a3 3d 18 a6 a3 bd
       -0.018340936 -0.16174392 0.07967022 -0.07990664
000230 cb 3a 82 3d d9 b5 be 3c 0d f0 66 bc f7 a6 63 3d
       0.0635887 0.023280071 -0.0140953185 0.055579152
000240 93 cb 21 bb 53 de 19 3d 53 1e 6d bb 31 90 06 bd
       -0.002468799 0.03756554 -0.0036181405 -0.032852355
000250 2a f8 d5 3d 56 a3 64 ba 3a b3 2c bd 31 f3 16 be
       0.10447724 -0.0008721849 -0.04216311 -0.14741208
000260 26 ef 23 3d 29 7e a0 bd 90 33 81 3d 7d 50 14 bd
       0.04002299 -0.07836563 0.06308663 -0.036209572
000270 be 93 83 3d 6a bb a8 3d d0 f8 98 3d 3a 55 ef bd
       0.06424664 0.082388714 0.07469332 -0.116861776
000280 36 1e aa bc 07 a4 c6 3d 44 b1 8c bd f2 c9 00 be
       -0.020766359 0.096992545 -0.06869748 -0.12577036
000290 c2 3d 8e bd cb 03 07 3e 75 0d 26 3d a5 8a c2 3d
       -0.06945373 0.1318504 0.040540177 0.094991006
0002a0 fa ad 83 bb 7f d2 bb bc 95 9b 5d bd 10 15 54 3d
       -0.0040185424 -0.02292752 -0.054103453 0.0517779
0002b0 67 56 37 be 1d b9 a3 3d 12 31 d6 3c 93 9b 53 bd
       -0.17904054 0.07994292 0.026146445 -0.05166204
0002c0 7b 24 c2 bd 77 d1 3c be 94 ce 07 3d 8c 9f 01 3d
       -0.09479614 -0.1843928 0.033155993 0.031646296
0002d0 62 bf 37 3d 2c 98 aa 3d 40 88 44 3d bc da 76 3c
       0.04486025 0.08329806 0.0479815 0.015066799
0002e0 8f 92 ac bd c9 78 04 bd e6 7e 12 3c 70 99 dc bd
       -0.08426391 -0.032341752 0.008941388 -0.107714534
0002f0 43 44 f6 3b 70 e0 c5 bd e8 f2 0e 3d c7 79 d9 bd
       0.0075154616 -0.09661949 0.034899622 -0.1061893
000300 ef 01 e5 bd e7 d7 04 be 26 53 35 3d 4e 2f a5 bd
       -0.111820094 -0.12972985 0.04426875 -0.08065663
000310 21 9a bc 3c 0e ae a5 3b 17 e6 88 3c 46 14 9c bc
       0.023022713 0.0050561493 0.016711278 -0.019052636
000320 7f ba af bd 0a 38 f3 bd 09 89 f1 3d 52 27 70 3b
       -0.08580493 -0.11875923 0.117937155 0.003664453
000330 3f 0f a0 bd b3 1e af 3d 7f c8 09 3d 2b 63 02 3d
       -0.07815408 0.08550777 0.033638474 0.031832855
000340 ed d2 5b bd 83 12 05 be 09 ed a4 3d 8a 32 fb bd
       -0.05366795 -0.12995343 0.08053023 -0.12265499
000350 07 2a 17 3c 14 cc 10 3d 24 0b b8 bd df 67 60 3d
       0.009226329 0.035350874 -0.089865 0.05478656
000360 35 04 c1 3d ed 93 d8 bc 98 99 7b 3d 65 27 d6 bc
       0.094246306 -0.026437724 0.061425775 -0.026141832
000370 71 aa 76 bd 36 89 1d 3d 0c 27 90 3d db 60 af bd
       -0.06022114 0.038460933 0.070386976 -0.085633956
000380 3d f2 f8 3c 5f 93 5d 3d 5d ee 9d 3c 47 04 a4 3c
       0.030388946 0.054095622 0.0192787 0.02002157
000390 12 bd dc bd 6a 05 2c 39 e4 5b 4e bd ae c8 ba bc
       -0.1077825 0.00016405215 -0.050380602 -0.02280077
0003a0 15 aa b6 bd 63 f1 bf bd ca bd 27 bd 1f 30 98 bc
       -0.08919159 -0.09372213 -0.04095248 -0.018577633
0003b0 05 de af 3d f6 be 06 bd 2b 88 af bd b3 26 c8 bd
       0.08587269 -0.03289696 -0.08570894 -0.09773006
0003c0 7b 96 b0 3d cc 9d 02 be a7 f0 fc 3c 51 5b 17 bd
       0.08622452 -0.12755507 0.03087647 -0.03695232
0003d0 73 a8 e5 3d b1 3b 2c bc 6e 3e c5 bd c9 03 d5 bd
       0.1121377 -0.010512278 -0.09631048 -0.104011126
0003e0 17 d4 29 3d e0 da b3 bd 1b 18 df bd 3d b7 50 bd
       0.04146203 -0.087819815 -0.1089327 -0.050956
0003f0 26 7d d7 bd e7 61 0e be f4 e3 b5 bd 2f 97 92 bd
       -0.10521917 -0.13904534 -0.08881369 -0.07157742

fc3.bias f4 [32]
000000 62 5e cd bd 48 4f 14 bd a0 95 98 3d 1a 37 ae bd
       -0.10027768 -0.03620842 0.07450414 -0.085066035
000010 09 6e 76 bd 9e 50 0c 3d 2e 0e b8 bd 28 b5 f9 bd
       -0.06016353 0.03425657 -0.089870796 -0.12192756
000020 b5 a5 ab bd 35 75 7f 3d 5d 8c a1 3d dc 44 5d 3c
       -0.083812155 0.062367637 0.078881 0.013505187
000030 b7 7f 30 3d 11 c4 77 bd 66 5a c2 bc f0 ad 95 3c
       0.04309055 -0.060489718 -0.023724746 0.018271416
000040 55 df c2 bc 18 f3 fd bd 87 e0 09 3c e5 ed 2a bc
       -0.023788134 -0.12399882 0.008415348 -0.010432695
000050 a1 3e 33 3c cc 77 ab 3d 76 bf f1 3d 98 3c 98 bd
       0.010940225 0.08372459 0.118040964 -0.07433432
000060 ee c5 01 3d 2f ee f9 bd c7 2d f0 bc 51 e9 e0 3d
       0.0316829 -0.12203633 -0.029318703 0.109820016
000070 23 c7 c3 3d 17 61 84 bd e8 b2 dc 3d f2 a5 eb bd
       0.09559467 -0.06463831 0.10776311 -0.11506261

bn3.weight f4 [32]
000000 d1 a6 99 3f 19 d8 87 3f 66 42 76 3f fc 9e 6f 3f
       1.2004033 1.0612823 0.96195066 0.93601966
000010 c6 b6 81 3f 2d e7 74 3f 05 43 72 3f 36 b3 83 3f
       1.0133903 0.95665246 0.94633514 1.0289066
000020 c1 b6 6c 3f 2b d3 76 3f 88 c6 67 3f da e5 80 3f
       0.9246636 0.96415967 0.9053731 1.0070145
000030 8d 03 65 3f dd 5d 73 3f 13 e3 85 3f 20 02 80 3f
       0.89458543 0.950651 1.0459923 1.0000648
000040 14 76 72 3f 7c ba 6c 3f 09 1c 79 3f e4 38 6b 3f
       0.9471142 0.9247205 0.97308403 0.91883683
000050 4f f5 7c 3f 93 03 85 3f 00 04 84 3f dc 5c 65 3f
       0.9881181 1.0391716 1.0313721 0.8959482
000060 91 dd 82 3f 42 48 82 3f cc ee 88 3f 36 8b 70 3f
       1.0223867 1.0178301 1.0697875 0.9396242
000070 3f 85 84 3f c9 d0 87 3f 3f 24 75 3f dd 9b 82 3f
       1.0353163 1.0610591 0.9575843 1.0203816

bn3.bias f4 [32]
000000 59 ad db 3d c0 98 25 bc bd 50 cb 3c 10 a4 46 bd
       0.10726423 -0.010107219 0.024818772 -0.048496306
000010 4c ca b9 3c 65 d7 fd 3c 28 39 29 3c 2c 86 66 bc
       0.02267947 0.030986497 0.0103285685 -0.014070075
000020 7a db 82 bd ab 02 e8 bd ce fc 0c be 4f 0f 7d bd
       -0.06389518 -0.11328634 -0.13768312 -0.061782178
000030 16 b7 87 3c ec 18 14 be b3 95 a7 3b 2e ab c9 3a
       0.016566794 -0.14462632 0.005114281 0.0015386099
000040 6c 2a 66 bc bc d3 40 3b 14 34 cf bc bd 1c f2 bd
       -0.0140482 0.0029423079 -0.025293387 -0.11821888
000050 4b ab ee bd fb 12 fb bd 2b 46 02 be 7d 52 0f bd
       -0.11653765 -0.122594796 -0.1272208 -0.034990776
000060 84 c4 31 3d 7e eb 96 bd 24 36 46 3e 18 4d 64 bd
       0.043400303 -0.07369135 0.1935659 -0.055737585
000070 87 c3 24 be 73 46 f5 bd bc d0 0b 3d 16 07 ef bd
       -0.16090213 -0.11976328 0.03413461 -0.116712734
