MELOSDP/SDP/chkpt/kc2/linear/5/sdp_classifier_linear-20.pth (torch, 68670 bytes, 25 tensors)

fc1.weight f4 [128, 21]
0	0x3e1c34b5	0.15254481
1	0x3de25981	0.11052228
2	0x3e2044d6	0.15651259
3	0x3e149f3d	0.1451387
4	0xbe25176e	-0.16122219
5	0xbe4a928e	-0.19782469
6	0xbe411f4f	-0.188596
7	0xbd9046db	-0.070447646
8	0xbd24c541	-0.04022718
9	0x3df9a992	0.12190546
10	0x3da2c977	0.079485826
11	0xbdf667c5	-0.12031511
12	0x3dcd9f53	0.10040154
13	0x3ce9fd99	0.028563308
14	0x3e439c31	0.19102551
15	0xbdb1de0e	-0.08684932
16	0x3e2b3e0f	0.16722892
17	0x3e5e2ba6	0.21696338
18	0xbe4ca766	-0.19985732
19	0xbd0c07c2	-0.034187086
20	0x3e5d0531	0.21584012
21	0xbdeaf391	-0.11472238
22	0xbddf522c	-0.10904345
23	0xbe0d5b65	-0.13804395
24	0xbc2ffd21	-0.010741503
25	0x3e377b71	0.17918183
26	0xbc2e3f33	-0.010635185
27	0x3e1c6c02	0.15275577
28	0x3d80b76a	0.062849835
29	0xbbe85dfd	-0.0070912824
30	0xbe410763	-0.18850474
31	0x3d78052f	0.06055182
32	0x3e426313	0.18983106
33	0xbdd045f0	-0.101695895
34	0xbe1cb87e	-0.15304753
35	0xbd689da5	-0.056790967
36	0x3de1968f	0.11015045
37	0xbdb9d16a	-0.09073146
38	0x3e4444bc	0.19166845
39	0xbe1bff7f	-0.15234183
40	0xbca1abe7	-0.01973529
41	0x3e36e8b3	0.17862205
42	0x3e41ac52	0.18913391
43	0xbe4f0693	-0.20217352
44	0x3d935012	0.071930066
45	0x3e0d4a43	0.1379786
46	0x3d8a31e0	0.06747794
47	0x3d958983	0.07301619
48	0xbe03e888	-0.12881672
49	0xbe140921	-0.14456607
50	0x3cacf37e	0.0211122
51	0xbcbfa5f8	-0.02339457
52	0xbe54f1e5	-0.207954
53	0xbcb0af4e	-0.021567967
54	0xbd2a595a	-0.04158912
55	0x3e0b0ba3	0.13578658
56	0x3d987885	0.07444862
57	0xbe0528ab	-0.13003795
58	0x3e3453c4	0.17610079
59	0xbb472838	-0.0030388962
60	0x3da57de7	0.080806546
61	0xbde5aa53	-0.112141274
62	0x3c9c5946	0.019085538
63	0x3dc25a45	0.09489874
64	0xbcf21b6b	-0.02955409
65	0x3e583b9f	0.21116494
66	0x3c8df664	0.017329402
67	0x3e196913	0.14981489
68	0xbc82757a	-0.015925158
69	0xbe3bfbab	-0.18357722
70	0xbe081e1b	-0.13292734
71	0x3e582fda	0.21112004
72	0x3d8e1a66	0.06938629
73	0xbd9d2c9b	-0.076745234
74	0xbe32f9bc	-0.17478079
75	0x3ddc81aa	0.10766919
76	0xbcac7682	-0.021052603
77	0x3e028d91	0.12749316
78	0x3e53dc3d	0.20689483
79	0x3def685e	0.11689828
80	0x3d9d1a94	0.07671085
81	0x3da16f88	0.07882601
82	0xbc910f42	-0.01770747
83	0xbd6a4e86	-0.057203792
84	0x3c70fdff	0.014708995
85	0xbdf4c2d9	-0.11951227
86	0xbdf86306	-0.12128262
87	0x3e02e521	0.12782718
88	0x3e0490c0	0.12945843
89	0x3e2456b8	0.16048706
90	0x3d9ef9fb	0.07762524
91	0x3e3d0032	0.18457106
92	0xbdcffe67	-0.10155945
93	0x3e370b3b	0.17875378
94	0xbdeaa75d	-0.11457703
95	0x3e30f818	0.1728214
96	0xbcd5cd13	-0.026098764
97	0xbe093e80	-0.13402748
98	0xbcf886b2	-0.030337665
99	0xbda47d88	-0.08031756
100	0x3e4d5eb2	0.20055655
101	0xbdcae9d2	-0.09907879
102	0xbe4a5997	-0.19760738
103	0x3c064969	0.008196213
104	0xbdbe1dda	-0.092830375
105	0xbdf440b1	-0.119264014
106	0xbde2a1be	-0.11066006
107	0xbd8c8f3a	-0.06863256
108	0xbe153f82	-0.14575008
109	0x3e37a875	0.17935355
110	0xbd959d13	-0.0730535
111	0xbd25459d	-0.04034959
112	0xbdc04d66	-0.093897626
113	0x3dc42bc6	0.095786616
114	0x3e07fa84	0.13279158
115	0x3bc879ec	0.00611805
116	0x3e49c294	0.19703132
117	0xbdc55148	-0.09634644
118	0x3e25beec	0.16186112
119	0x3dfde64d	0.12397442
120	0x3e2f65ee	0.17128727
121	0x3df9c053	0.12194886
122	0xbd0c8cdb	-0.034314018
123	0xbd50c336	-0.050967418
124	0x3e15fe05	0.14647682
125	0x3d87defc	0.06634328
126	0x3deea2e0	0.1165216
127	0x3dda138d	0.1064826
128	0xbd6d53e5	-0.057941336
129	0xbe5b4b06	-0.21415338
130	0xbe07f1d6	-0.13275847
131	0xbddf02c5	-0.108892
132	0xbe27967e	-0.16366002
133	0xbc600526	-0.0136731025
134	0xbd36def6	-0.044646226
135	0xbd1efcb5	-0.03881522
136	0x3e2eb349	0.1706058
137	0xbe3f1463	-0.1866012
138	0xbe3e391d	-0.18576474
139	0xbe018b23	-0.12650733
140	0xbe420a21	-0.18949176
141	0xbd434d48	-0.047681123
142	0x3e543d86	0.20726594
143	0x3e347cdc	0.17625755
144	0xbe094d1c	-0.13408321
145	0x3d9cf333	0.07663574
146	0xbdd22998	-0.1026184
147	0xbdf627b1	-0.12019289
148	0xbe0acfda	-0.13555852
149	0x3e42f172	0.19037417
150	0x3d8c4080	0.0684824
151	0x3e523494	0.2052787
152	0xbd8f794c	-0.070055574
153	0x3dcea865	0.100907125
154	0xbc732d7e	-0.014842389
155	0xbe2cc654	-0.16872531
156	0xbe241730	-0.1602447
157	0x3e2be48f	0.16786407
158	0x3e1f4748	0.15554535
159	0x3dd5b3d8	0.10434693
160	0x3df20593	0.118174694
161	0xbe0fdd3b	-0.14049236
162	0x3d8c26e9	0.06843359
163	0xbe5f35c7	-0.21797858
164	0xbdd3b4b1	-0.103371985
165	0x3e308398	0.17237699
166	0xbe56ff60	-0.20995855
167	0x3e33afac	0.17547482
168	0xbe47ad0d	-0.19499607
169	0xbd1f8f71	-0.038955156
170	0x3e09a831	0.13443066
171	0xbe4321b2	-0.19055822
172	0xbd098765	-0.033576388
173	0xbdde0597	-0.1084091
174	0xbcb6da55	-0.022320906
175	0xbe506122	-0.20349553
176	0x3de70a9b	0.1128132
177	0xbc8ceafb	-0.017201891
178	0x3d8664ab	0.0656217
179	0x3da9f24b	0.08298167
180	0xbdb941d0	-0.09045756
181	0x3df403c0	0.11914778
182	0xbe346835	-0.17617877
183	0xbdebb737	-0.11509555
184	0x3e277184	0.16351897
185	0x3bae02e9	0.0053104055
186	0xbe35d34f	-0.17756389
187	0xbdcabb83	-0.09899046
188	0xbe1ce61a	-0.15322152
189	0x3e0b3128	0.1359297
190	0x3d581bc3	0.05276085
191	0xbe530f0f	-0.20611213
192	0xbd5a8e32	-0.053358264
193	0x3e283521	0.16426517
194	0x3dc15b62	0.09441258
195	0x3d46da55	0.04854806
196	0xbe1d63f0	-0.15370154
197	0xbcf25cf1	-0.029585334
198	0xbcdfb74a	-0.027309079
199	0xbe2b8794	-0.16750938
200	0xbc3fc360	-0.011704296
201	0x3e5bd4b7	0.21467863
202	0x3e37b76c	0.17941064
203	0xbd7fcd3b	-0.062451582
204	0x3cecc600	0.028903008
205	0x3e44734d	0.19184609
206	0xbe50eefb	-0.20403664
207	0xbd465d71	-0.048428956
208	0xbe228655	-0.15871556
209	0x3db8cf47	0.0902391
210	0xbd9f720c	-0.077854246
211	0xbe41751f	-0.18892334
212	0x3d6bff54	0.057616547
213	0x3db0922a	0.086216286
214	0x3e3db176	0.18524727
215	0xbe4a9fb3	-0.19787483
216	0xbe327da3	-0.17430739
217	0xbe16372d	-0.14669485
218	0x3d6603db	0.05615602
219	0x3cb2a7e8	0.02180858
220	0xbcca51bf	-0.024697183
221	0x3e4e78d8	0.20163286
222	0xbd04597b	-0.032311898
223	0xbe246df5	-0.1605757
224	0xbe00dbf2	-0.12583902
225	0x3cfb15b3	0.030649995
226	0x3da3e15f	0.080019705
227	0x3dad16b0	0.08451593
228	0xbe241e9e	-0.16027305
229	0x3e1a69e7	0.15079461
230	0x3bfb7b98	0.0076746456
231	0xbc861922	-0.016369406
232	0xbe406fc5	-0.18792637
233	0x3e46fd3e	0.19432542
234	0xbe08fd06	-0.13377771
235	0xbe4053bd	-0.18781944
236	0xbbcb2b3e	-0.006200223
237	0xbe0706e2	-0.1318622
238	0x3d8f5847	0.069992594
239	0xbdc5692a	-0.09639199
240	0xbe143ae1	-0.14475586
241	0xbe019439	-0.12654199
242	0x3e2a77c4	0.1664725
243	0xbd8556b9	-0.06510682
244	0x3ca321b5	0.019913534
245	0x3dc39798	0.095503986
246	0xbe3ac48e	-0.18239042
247	0x3e00e3d9	0.12586917
248	0xbda8679b	-0.08222886
249	0xbe47d176	-0.19513497
250	0xbd924474	-0.07141963
251	0xbe159c53	-0.14610414
252	0xbd33a03b	-0.04385398
253	0xbd621cfc	-0.055203423
254	0x3d99c975	0.07509128
255	0x3e0e0125	0.13867624

fc1.bias f4 [128]
0	0xbe1e99c5	-0.15488346
1	0xbdf13b92	-0.1177894
2	0x3d55edd3	0.05222876
3	0xbde8d61a	-0.11368962
4	0x3df1cd56	0.11806743
5	0x3dc0f14e	0.09421025
6	0x3e0edaf3	0.1395071
7	0xbd3329ff	-0.043741222
8	0x3cc13526	0.023584913
9	0x3e5fcb00	0.21854782
10	0x3e3f62b4	0.18689996
11	0x3e2bb995	0.16770013
12	0xbdb73c0d	-0.08947001
13	0x3c2704b1	0.01019399
14	0x3e2f2ce3	0.17106967
15	0xbd590d9f	-0.052991506
16	0x3db71731	0.0893997
17	0xbda1a9df	-0.078937285
18	0xbe28cf85	-0.16485412
19	0x3e2b4dee	0.16728947
20	0x3d9a7ab3	0.07542934
21	0xbc021489	-0.007939466
22	0xbd46819c	-0.04846345
23	0xbdb5681a	-0.088577464
24	0x3e5b4d8d	0.21416302
25	0xbd85919e	-0.06521915
26	0x3d1e1527	0.03859439
27	0x3e063d82	0.13109401
28	0xbcc39418	-0.023874328
29	0x3e129b82	0.14317134
30	0xbd833b7f	-0.06407832
31	0xbe3b0c94	-0.18266517
32	0xbd25c762	-0.04047335
33	0x3e37bdc2	0.1794348
34	0x3e52f2b6	0.206004
35	0x3e323173	0.17401676
36	0xbd535dd4	-0.051603153
37	0xbe213e2e	-0.15746376
38	0xbe4c8f8e	-0.19976637
39	0x3d1e314e	0.03862124
40	0xbe068789	-0.1313764
41	0xbd5147c3	-0.051093828
42	0x3dd03a30	0.101673484
43	0x3e2b46ad	0.1672618
44	0xbe04b29a	-0.12958756
45	0xbe08812f	-0.1333053
46	0x3e342f3a	0.1759614
47	0xbd720556	-0.05908712
48	0xbd2b98ea	-0.041893877
49	0x3e25a757	0.16177116
50	0x3d555e1a	0.052091695
51	0xbd231476	-0.039814435
52	0xbd66e9e8	-0.056375414
53	0x3e05b94a	0.13058963
54	0x3daf038c	0.085455984
55	0xbe3b2ef1	-0.18279625
56	0x3decb0dc	0.11557171
57	0x3cacf4d2	0.021112833
58	0xbe35c895	-0.17752297
59	0x3dae23d9	0.08502931
60	0xbe2a2814	-0.16616851
61	0xbddfbafd	-0.10924337
62	0xbe22b907	-0.15890895
63	0xbd3a7a57	-0.04552683
64	0x3c8cacc9	0.017172234
65	0xbe2d9697	-0.16951977
66	0x3e15b419	0.14619483
67	0xbdbe10af	-0.09280526
68	0xbe1d5149	-0.15363039
69	0xbdec0f9d	-0.115264155
70	0x3d160a55	0.036630947
71	0xbe55e861	-0.20889427
72	0x3c81620f	0.015793828
73	0x3e094108	0.13403714
74	0x3da1a1cb	0.07892188
75	0x3d7aea73	0.061258744
76	0x3da1516d	0.07876859
77	0x3e041aa5	0.12900789
78	0x3ddfc23c	0.10925719
79	0x3dc2db80	0.095145226
80	0x3e17750d	0.14790745
81	0x3e1b0fd1	0.15142752
82	0xbd22ad0e	-0.03971582
83	0x3e36cda8	0.17851889
84	0xbdac632a	-0.084173515
85	0x3e31b040	0.1735239
86	0x3dc0fada	0.09422846
87	0xbe4230d1	-0.18963934
88	0x3dc1e997	0.09468382
89	0xbe406c94	-0.1879142
90	0xbdcf8efb	-0.10134693
91	0x3e50a929	0.2037703
92	0xbe2723b8	-0.1632222
93	0x3e192618	0.14955938
94	0x3e150335	0.14552005
95	0x3e5b59d4	0.21420985
96	0xbda0eaf3	-0.07857313
97	0xbd3f933c	-0.046771273
98	0xbe051ba8	-0.12998831
99	0xbcb0ebcf	-0.021596817
100	0xbdbf6573	-0.09345522
101	0xbe2d4e44	-0.16924387
102	0xbdf3e6eb	-0.119092785
103	0xbdb9a4bf	-0.09064626
104	0x3df1a52e	0.11799084
105	0x3d2f1e31	0.042753402
106	0x3d9efd7a	0.077631906
107	0xbe5df599	-0.2167572
108	0x3dc23a5a	0.09483786
109	0xbd700a30	-0.058603466
110	0xbbb42672	-0.005497747
111	0x3cd542af	0.026032774
112	0xbe545f75	-0.20739539
113	0x3e379c5c	0.1793074
114	0x3e0d4fcb	0.1379997
115	0xbe0da744	-0.13833338
116	0x3d05353c	0.03252147
117	0x3d9c58c2	0.07634117
118	0xbe22104b	-0.15826528
119	0x3d9bd00e	0.07608043
120	0x3e552d57	0.20818077
121	0xbbecc626	-0.0072257696
122	0x3c23c89f	0.009996562
123	0x3d76cbc4	0.06025292
124	0x3d8ef5ad	0.06980453
125	0xbda15643	-0.07877781
126	0x3bf9af74	0.0076197926
127	0xbda858a7	-0.08220034

bn1.weight f4 [128]
0	0x3f7fdf5a	0.9995018
1	0x3f814e8d	1.0102097
2	0x3f7ed943	0.99550265
3	0x3f7dc684	0.99131036
4	0x3f7e8a7d	0.99430066
5	0x3f810a00	1.0081177
6	0x3f7efa3d	0.99600583
7	0x3f808ea7	1.0043534
8	0x3f80497e	1.0022428
9	0x3f804bba	1.002311
10	0x3f7fce8c	0.9992454
11	0x3f80bac7	1.0057
12	0x3f80fbca	1.007684
13	0x3f7df8ec	0.9920795
14	0x3f819ba9	1.0125629
15	0x3f80c0b3	1.0058807
16	0x3f81452f	1.0099238
17	0x3f7f008b	0.99610204
18	0x3f80c2b5	1.005942
19	0x3f7e2a4f	0.9928331
20	0x3f801244	1.0005574
21	0x3f7eaf6d	0.9948643
22	0x3f7f246b	0.99664944
23	0x3f806577	1.0030965
24	0x3f7d1878	0.9886546
25	0x3f7d1769	0.98863846
26	0x3f7f03ac	0.9961498
27	0x3f7e80fd	0.9941557
28	0x3f80d601	1.0065309
29	0x3f81c572	1.013838
30	0x3f7e41ff	0.9931945
31	0x3f7e0301	0.99223334
32	0x3f7f25e7	0.9966721
33	0x3f80996c	1.0046821
34	0x3f7ea4b5	0.99470073
35	0x3f81636c	1.0108466
36	0x3f805bed	1.0028054
37	0x3f80ca58	1.006175
38	0x3f800ebc	1.0004497
39	0x3f81415d	1.0098072
40	0x3f7e987b	0.99451417
41	0x3f8086ba	1.0041115
42	0x3f7e9f7a	0.9946209
43	0x3f807638	1.0036077
44	0x3f810c4e	1.008188
45	0x3f7c9bed	0.98675424
46	0x3f7f0230	0.9961271
47	0x3f7fedbd	0.99972135
48	0x3f7f9c2b	0.9984767
49	0x3f7e39f7	0.993072
50	0x3f81884e	1.0119722
51	0x3f806c27	1.0033005
52	0x3f7e2533	0.9927551
53	0x3f7ef5c8	0.9959378
54	0x3f7e79df	0.9940471
55	0x3f80aee9	1.0053378
56	0x3f7d12c4	0.9885676
57	0x3f81149c	1.0084414
58	0x3f7ed873	0.99549025
59	0x3f7d4495	0.9893277
60	0x3f800945	1.0002829
61	0x3f7ea3fe	0.9946898
62	0x3f7fed5d	0.9997156
63	0x3f80affd	1.0053707
64	0x3f8041b6	1.0020053
65	0x3f811579	1.0084678
66	0x3f80d5e5	1.0065275
67	0x3f7ce394	0.98784757
68	0x3f7d4515	0.98933536
69	0x3f80ea28	1.0071459
70	0x3f806063	1.0029415
71	0x3f807b72	1.0037673
72	0x3f7fe053	0.99951667
73	0x3f800434	1.0001283
74	0x3f7d8e08	0.9904485
75	0x3f7fd8b1	0.9994002
76	0x3f7ee61e	0.9956988
77	0x3f80b9f8	1.0056753
78	0x3f80a196	1.0049312
79	0x3f7e5e4f	0.99362653
80	0x3f7db1c3	0.9909937
81	0x3f7f81b7	0.99807304
82	0x3f81f857	1.0153912
83	0x3f7f425b	0.99710625
84	0x3f7f99ce	0.9984406
85	0x3f80c331	1.0059568
86	0x3f7e5784	0.9935229
87	0x3f808602	1.0040896
88	0x3f7e087d	0.992317
89	0x3f7cfb28	0.98820734
90	0x3f8147d4	1.0100045
91	0x3f801a5e	1.0008047
92	0x3f800da0	1.0004158
93	0x3f7c2e34	0.98508
94	0x3f80a96f	1.0051707
95	0x3f80be64	1.0058103
96	0x3f804985	1.0022436
97	0x3f7cf3c5	0.9880946
98	0x3f7e9908	0.9945226
99	0x3f8084ca	1.0040524
100	0x3f808e4e	1.0043428
101	0x3f80bdab	1.0057882
102	0x3f7f3ffb	0.99707
103	0x3f80df3f	1.0068129
104	0x3f80fa9a	1.0076478
105	0x3f7fb60c	0.99887156
106	0x3f81bff2	1.0136702
107	0x3f7f75c3	0.99789065
108	0x3f816f39	1.0112067
109	0x3f815bcd	1.010614
110	0x3f7e8996	0.9942869
111	0x3f80ff0d	1.0077835
112	0x3f81cd6b	1.0140814
113	0x3f802315	1.0010706
114	0x3f7d3b42	0.98918545
115	0x3f80d0e1	1.0063745
116	0x3f7d84aa	0.99030554
117	0x3f7dcc2c	0.99139667
118	0x3f802873	1.0012344
119	0x3f80a687	1.005082
120	0x3f803c16	1.0018337
121	0x3f7f9a7f	0.9984512
122	0x3f7e3902	0.99305737
123	0x3f7f2799	0.99669796
124	0x3f802a42	1.0012896
125	0x3f7e8921	0.9942799
126	0x3f7f6973	0.9977028
127	0x3f8080f3	1.0039352

bn1.bias f4 [128]
0	0xbc784bd5	-0.0151547985
1	0x3bd0cbf5	0.00637197
2	0xbc285df0	-0.010276303
3	0xbc0a9367	-0.008457995
4	0xbb5d8bb9	-0.0033805205
5	0xb90f9b42	-0.00013695381
6	0x3b595d1a	0.0033167065
7	0x3c37aeab	0.011211078
8	0xbab045b0	-0.0013448503
9	0x3c48f10f	0.012264504
10	0x3b082845	0.0020775956
11	0xba5f30b6	-0.00085140334
12	0x3b91d5e8	0.0044505484
13	0xbb7ca958	-0.0038553085
14	0x3c39d415	0.011342068
15	0x3c1348d1	0.008989529
16	0x3b80113b	0.003908304
17	0xbc19d06d	-0.0093880715
18	0xbbbf4ca2	-0.0058379928
19	0xbbd910bb	-0.006624309
20	0x3bbb4f35	0.0057162293
21	0xbbdcfd83	-0.006744088
22	0xbb8a0e52	-0.004213133
23	0xb9ba67e4	-0.0003555409
24	0xb9a90917	-0.00032240964
25	0xbc407a7e	-0.011747954
26	0xbc310754	-0.01080497
27	0xbb13a608	-0.0022529382
28	0x3b38f840	0.002822414
29	0x3c32c5db	0.01091143
30	0xbbb6bd9b	-0.005576802
31	0x3ae4dea3	0.001746137
32	0x3b1ae0bf	0.0023632494
33	0x3c045002	0.008075716
34	0xba2c8be8	-0.0006582127
35	0x3b8a4399	0.004219484
36	0x394a8df6	0.00019317106
37	0x3c03cd68	0.008044578
38	0x3a9c9feb	0.0011949515
39	0x3c340af3	0.010988939
40	0xbc275460	-0.010212988
41	0x3c1380c5	0.009002869
42	0xbbf76d72	-0.0075508887
43	0x3aed1218	0.0018087057
44	0xb91be64d	-0.00014867746
45	0xbc6797cb	-0.014135311
46	0xb9b5e098	-0.00034690346
47	0x3b9a2e2a	0.00470521
48	0x3b92e8c4	0.004483314
49	0x3ae27ef1	0.0017280263
50	0x3c4ed98a	0.012625108
51	0x3b540585	0.0032351923
52	0xbc032180	-0.0080035925
53	0xba6d293b	-0.00090469763
54	0xbb8f2b1a	-0.004369152
55	0x3c13d0a6	0.009021914
56	0xbc414e82	-0.011798503
57	0x3c6cb5bd	0.014447627
58	0xba965f4c	-0.0011472492
59	0xbc1f9547	-0.00974018
60	0x3c3ecb10	0.011645094
61	0xbbb48a27	-0.005509633
62	0xbc34aebd	-0.011027989
63	0x3aadf004	0.0013270383
64	0xbb4f3bc8	-0.0031621326
65	0x3ba970b4	0.005170906
66	0xb9b9e878	-0.00035459152
67	0xbc2fbb7d	-0.010725853
68	0xbc488fe5	-0.012241338
69	0x3c1b62f2	0.00948404
70	0xbbbdc977	-0.0057918387
71	0x3bd4bbc8	0.006492112
72	0xbac584f7	-0.0015069534
73	0x3a680fa9	0.0008852431
74	0xbc7c7b9f	-0.015410333
75	0x3b8d1396	0.0043053133
76	0xbaafcda3	-0.0013412725
77	0xbb88ac85	-0.0041709566
78	0x3bbeda86	0.00582439
79	0xbb9ff021	-0.0048809205
80	0xbbed5314	-0.0072425697
81	0xba282d7f	-0.0006415471
82	0x3c69654b	0.0142453415
83	0x3b6a51d7	0.0035754347
84	0xbc2171a2	-0.009853752
85	0x3be689c6	0.007035467
86	0xbba0551c	-0.0048929583
87	0x3b58e35d	0.0033094503
88	0xbc3acfd7	-0.011402092
89	0xba1739bb	-0.00057687954
90	0x3c543da3	0.012954148
91	0xbbcaef33	-0.0061930656
92	0x3b4752f5	0.0030414436
93	0xbba48aa7	-0.0050214115
94	0x3ada267b	0.0016643548
95	0x3805f805	3.1940657e-05
96	0x3bd7cbc5	0.0065855705
97	0xbb817c9a	-0.0039516212
98	0xbc156c25	-0.009120022
99	0x39ce237f	0.00039317828
100	0xbbd523b6	-0.006504501
101	0x3b045fe3	0.0020198755
102	0xbb8a9371	-0.004229002
103	0xba2da2d3	-0.0006623689
104	0x3bb8525e	0.0056250533
105	0x3aa2a8ee	0.0012409964
106	0x3c13127c	0.008976575
107	0x3a11bbf6	0.00055593194
108	0x3c76465c	0.015031423
109	0x3c60ee5f	0.013728707
110	0xbbf55184	-0.007486524
111	0xbc49cb8d	-0.012316597
112	0x3c628974	0.013826717
113	0x3bf17040	0.0073681176
114	0xbc48347e	-0.012219546
115	0x3bf37be2	0.0074305395
116	0xbc0c8239	-0.008575969
117	0xbb09c395	-0.0021021117
118	0x3b324121	0.0027199464
119	0x3bbf4baa	0.0058378773
120	0xbba99f1a	-0.005176437
121	0x3bb29f53	0.005451122
122	0xbb205a47	-0.0024467872
123	0xbb9e9d56	-0.0048405332
124	0x39c751ad	0.0003801709
125	0xbb2ae339	-0.0026075377
126	0xbabf6d23	-0.0014604669
127	0xbb319864	-0.0027098889

bn1.running_mean f4 [128]
0	0xbe3169bb	-0.17325489
1	0xbdbccc4c	-0.09218654
2	0x3d20b901	0.039238933
3	0xbe174962	-0.14774087
4	0x3dee715e	0.11642717
5	0x3d74fad7	0.059809532
6	0x3e346775	0.1761759
7	0xbd8274cd	-0.06369934
8	0x3da2df93	0.079528
9	0x3e44e31a	0.19227257
10	0x3e347d3c	0.17625898
11	0x3e5f6939	0.21817483
12	0xbd9882f1	-0.0744685
13	0x3c0c321e	0.008556871
14	0x3e229782	0.15878108
15	0xbd4b3a1e	-0.04961597
16	0x3de908b5	0.11378614
17	0xbdcd6c94	-0.10030475
18	0xbdef465c	-0.11683342
19	0x3dd2bcfe	0.10289954
20	0x3d936815	0.071975864
21	0xbd00f773	-0.031485986
22	0xbc6ed6ab	-0.014577548
23	0xbe0380d5	-0.12842114
24	0x3e144108	0.14477932
25	0xbd81f4e0	-0.06345534
26	0x3d23a367	0.039950754
27	0x3e0e3f32	0.13891295
28	0xbcaecaa8	-0.021336868
29	0x3e27f72d	0.16402884
30	0xbcf7e4ac	-0.030260406
31	0xbe2335b2	-0.15938452
32	0xbcdcd7f2	-0.02695844
33	0x3e334bbb	0.17509358
34	0x3e1d3a44	0.15354258
35	0x3e113163	0.14178996
36	0xbd2cef29	-0.04222027
37	0xbe3e9907	-0.18613063
38	0xbe3510e7	-0.17682229
39	0x3dbad119	0.091219135
40	0xbdedb688	-0.11607081
41	0xbd456636	-0.04819318
42	0x3cf63af1	0.030057402
43	0x3dab988d	0.08378706
44	0xbe1f40ed	-0.15552111
45	0xbdcbd2b0	-0.09952295
46	0x3e48dc41	0.1961527
47	0xbd886aba	-0.066609815
48	0xbd36fb2a	-0.044673122
49	0x3e0ac4e9	0.13551678
50	0x3c72d8b9	0.0148221785
51	0xbd6ae9ef	-0.057352003
52	0xbcadfbac	-0.02123817
53	0x3e0b8b9b	0.13627474
54	0x3dda910b	0.10672196
55	0xbe5b857e	-0.21437642
56	0x3dcb26b8	0.099194944
57	0x3cbd724b	0.023125788
58	0xbe3f506f	-0.18683027
59	0x3db98f1a	0.090604976
60	0xbe1f3ab9	-0.15549745
61	0xbd8a8fbd	-0.06765697
62	0xbe3dde07	-0.18541728
63	0xbda0a24f	-0.07843458
64	0x3b26ffe5	0.0025482115
65	0xbe0de113	-0.1385539
66	0x3e4802be	0.19532296
67	0xbd32c7b0	-0.043647468
68	0xbe0f9cb4	-0.14024621
69	0xbe069020	-0.13140917
70	0x3ca882e8	0.020570233
71	0xbe4a7123	-0.1976972
72	0xbbafcc65	-0.005364942
73	0x3da75e48	0.081722796
74	0x3de5ff63	0.11230352
75	0x3bafca07	0.0053646597
76	0x3de433b2	0.111426726
77	0x3d885d61	0.066584356
78	0x3d960f1f	0.07327103
79	0x3e06937c	0.13142198
80	0x3e282aaa	0.16422525
81	0x3e2bd6c1	0.16781141
82	0xbc1cc7b1	-0.0095690945
83	0x3dc61252	0.09671463
84	0xbd89fa0f	-0.06737148
85	0x3e2b7cf0	0.16746879
86	0x3e0c7564	0.13716656
87	0xbe0f0f74	-0.13970739
88	0x3e00fbe2	0.12596086
89	0xbe1e307d	-0.15448184
90	0xbd787064	-0.06065406
91	0x3e41526c	0.18879098
92	0xbde33622	-0.110943094
93	0x3e18eb21	0.14933445
94	0x3e10a312	0.14124706
95	0x3e3b26bd	0.18276496
96	0xbc8769c7	-0.01652993
97	0xbd588403	-0.05286027
98	0xbe249d6f	-0.16075681
99	0xbcea167d	-0.028575176
100	0xbd89d826	-0.0673068
101	0xbe2030c0	-0.15643597
102	0xbd37fc60	-0.044918418
103	0xbe021277	-0.12702356
104	0x3e0de0c2	0.1385527
105	0x3d8c98b2	0.06865062
106	0x3cb5801b	0.022155812
107	0xbe526395	-0.205458
108	0x3dc0b8d6	0.09410255
109	0xbd339937	-0.04384729
110	0xbb6257ab	-0.0034537117
111	0x3aaf7249	0.00133855
112	0xbe2c462f	-0.16823648
113	0x3e1da2c7	0.15394126
114	0x3d82c2ca	0.06384809
115	0xbe00979e	-0.12557837
116	0x3c1f8cba	0.009738142
117	0x3d613030	0.054977596
118	0xbda24a42	-0.0792432
119	0x3d25779a	0.040397264
120	0x3e4958e1	0.19662811
121	0x3cf2754a	0.029596943
122	0x3c0aea63	0.008478734
123	0x3c42f371	0.011898861
124	0x3d7719b2	0.06032724
125	0xbdb2cd08	-0.08730513
126	0x3d52ba9f	0.051447507
127	0xbdf9e516	-0.12201898

bn1.running_var f4 [128]
0	0x3ec929ef	0.39289805
1	0x3e3a5d5c	0.18199676
2	0x3e514edf	0.20440243
3	0x3ef2691d	0.4734582
4	0x3e1e7997	0.1547607
5	0x3e5040e5	0.20337255
6	0x3e539918	0.2066387
7	0x3e64fb8b	0.22361581
8	0x3ea44777	0.32085773
9	0x3e0ef018	0.13958776
10	0x3e24c36b	0.16090171
11	0x3e8d3e69	0.27586678
12	0x3e41b500	0.18916702
13	0x3e20555b	0.1565756
14	0x3e5d1075	0.21588309
15	0x3e3ccabb	0.1843671
16	0x3eaaeddf	0.33384606
17	0x3e7c9041	0.24664403
18	0x3e349dc1	0.17638303
19	0x3e889490	0.26675844
20	0x3e34462a	0.1760489
21	0x3e5e9e78	0.21740139
22	0x3e42c382	0.19019893
23	0x3e7cd618	0.24691045
24	0x3e513541	0.20430471
25	0x3e22ed5a	0.15910855
26	0x3e68e65f	0.2274413
27	0x3e64cfcd	0.22344895
28	0x3e54097a	0.2070674
29	0x3e8419dd	0.25800982
30	0x3e374307	0.17896663
31	0x3e5be466	0.21473846
32	0x3e0b5d92	0.13609913
33	0x3e4b3e6a	0.19848028
34	0x3e24161a	0.16024056
35	0x3e403152	0.18768814
36	0x3e1c46b3	0.15261345
37	0x3e504a8c	0.20340937
38	0x3e1444a6	0.14479312
39	0x3e9d2c37	0.30697796
40	0x3e2893ee	0.1646268
41	0x3e2b06a4	0.16701752
42	0x3ebdf635	0.37101904
43	0x3eace7fb	0.33770737
44	0x3efeec16	0.49789494
45	0x3e2840cd	0.1643097
46	0x3e7c4b9b	0.24638216
47	0x3e146a61	0.14493705
48	0x3e959fab	0.2922338
49	0x3eab8667	0.33500978
50	0x3e8fe83d	0.2810687
51	0x3e451fbd	0.19250388
52	0x3e21b3b6	0.1579121
53	0x3e1a64c7	0.15077506
54	0x3e48c9a8	0.19608176
55	0x3ec49f19	0.38402632
56	0x3e99cfbb	0.30041298
57	0x3e1739e5	0.14768179
58	0x3e4459e3	0.19174914
59	0x3e53727d	0.20649143
60	0x3e18961c	0.14901012
61	0x3e49e1ac	0.19714993
62	0x3e46eb31	0.19425656
63	0x3ecc001d	0.39843836
64	0x3e12150b	0.1426584
65	0x3e91e879	0.28497675
66	0x3ebbd382	0.36684805
67	0x3e4103f6	0.18849167
68	0x3e2db248	0.1696254
69	0x3e4f712c	0.20258015
70	0x3e5022bb	0.20325749
71	0x3e139ce9	0.14415325
72	0x3e9af06b	0.3026155
73	0x3e62d92b	0.22153156
74	0x3e85ae6c	0.26109636
75	0x3f1ea291	0.61966807
76	0x3edd68b3	0.43243942
77	0x3ed06ba8	0.40707135
78	0x3e2c9e30	0.16857219
79	0x3e86ec14	0.26351988
80	0x3e88ce5f	0.2671995
81	0x3e3fe0e9	0.1873814
82	0x3e5df0ac	0.2167384
83	0x3e5e0b2b	0.21683948
84	0x3e227f64	0.15868908
85	0x3e860ec8	0.26183152
86	0x3ea9b99f	0.3314943
87	0x3e5224cb	0.20521848
88	0x3ea32d1b	0.3187035
89	0x3e1b6ad8	0.15177476
90	0x3e6c22a5	0.23060091
91	0x3e1e4fac	0.1546008
92	0x3e772ff1	0.24139382
93	0x3e69abeb	0.22819488
94	0x3e16b5b6	0.14717755
95	0x3e2424b5	0.16029628
96	0x3e5e8b73	0.21732883
97	0x3e673e20	0.22582293
98	0x3e782a0b	0.24234788
99	0x3e1f4c92	0.15556553
100	0x3e72879f	0.23684548
101	0x3e1acc59	0.15117015
102	0x3e538a95	0.20658334
103	0x3edbafe4	0.4290763
104	0x3ebe466e	0.3716311
105	0x3e8742d5	0.26418176
106	0x3e627982	0.22116664
107	0x3e1785db	0.14797156
108	0x3e282975	0.16422065
109	0x3e9a7bef	0.3017268
110	0x3e10e78e	0.14150831
111	0x3e620866	0.22073516
112	0x3e4f0c9e	0.20219657
113	0x3e0ffc8a	0.1406118
114	0x3f125ab8	0.57169676
115	0x3e0c2d12	0.13689068
116	0x3e165255	0.14679845
117	0x3e870e8c	0.26378286
118	0x3ec17c9f	0.3779039
119	0x3e95beb5	0.2924706
120	0x3e4b2da3	0.19841628
121	0x3e693a5a	0.22776166
122	0x3e2363c5	0.15956028
123	0x3f0370da	0.5134407
124	0x3e2b5311	0.16730906
125	0x3e8b0350	0.27150965
126	0x3ec68d6a	0.38779765
127	0x3ea0dedd	0.3142003

fc2.weight f4 [64, 128]
0	0x3c209e55	0.009803374
1	0xbd5272ed	-0.051379133
2	0xbdbf370e	-0.09336673
3	0x3d36ea9e	0.044657342
4	0xbd8dd286	-0.0692492
5	0xbd1d6202	-0.038423546
6	0x3d15028e	0.03637939
7	0xbd58a0dd	-0.052887786
8	0xbda0dcc5	-0.078546084
9	0x3d79f6f8	0.061026543
10	0x3db432b3	0.087987326
11	0xbd8453a1	-0.064612634
12	0x3d81c858	0.06337041
13	0x3cf08d20	0.029364169
14	0xbb002ae3	-0.0019556812
15	0xbd8449c4	-0.06459382
16	0xbd3246b0	-0.043524444
17	0xbd9d9483	-0.07694342
18	0x3d3c181e	0.045921437
19	0xbc125efe	-0.008933781
20	0xbda5f8f3	-0.08104124
21	0x3d0d531a	0.03450308
22	0x3cb0f08d	0.021599079
23	0x3daac7aa	0.08338864
24	0x3d772d3f	0.060345884
25	0xbdae6196	-0.08514707
26	0xbd662c27	-0.05619445
27	0xbc358315	-0.011078616
28	0xbca3bb49	-0.019986765
29	0xbbec71c0	-0.0072157085
30	0x3ce35c65	0.027754018
31	0xbdc354e4	-0.09537676
32	0x3d59ba3d	0.053156126
33	0xbd69572e	-0.056967907
34	0x3d9f2614	0.07770935
35	0x3cdebcdf	0.02718967
36	0xbd0cf466	-0.034412764
37	0x3c87d607	0.016581548
38	0x3d86534a	0.06558855
39	0xbd056465	-0.032566447
40	0x3be04c17	0.006845008
41	0x3cf564ef	0.029955355
42	0x3c18bdb1	0.00932257
43	0xbda71f5f	-0.081602804
44	0x3b956b3b	0.004559902
45	0xbcdce2ca	-0.02696361
46	0x3db8d1be	0.0902438
47	0x3d441e7d	0.04788064
48	0xbcf88d40	-0.03034079
49	0x3ca5ac01	0.02022362
50	0xbd200779	-0.039069626
51	0xbbfe758b	-0.007765477
52	0x3d23e681	0.040014748
53	0xbd800afd	-0.06252096
54	0x3bd08905	0.0063639903
55	0xbd805e22	-0.062679544
56	0x3da3fc2f	0.080070846
57	0xbd086e34	-0.033308223
58	0x3cdff68b	0.02733924
59	0xbd634aa6	-0.055491112
60	0x3d931e35	0.07183496
61	0x3d88b685	0.06675438
62	0x3d2ebca5	0.042660374
63	0x3d00ed42	0.031476267
64	0x3c049fdd	0.008094755
65	0x3d10e644	0.03537585
66	0x3d684afe	0.056712143
67	0x3dbbb201	0.09164811
68	0x3cc868a1	0.024463953
69	0xbbaae964	-0.0052158106
70	0x3a28f711	0.0006445507
71	0xbd9aa741	-0.075514324
72	0x3d58f27c	0.052965626
73	0x3d2d633c	0.042330965
74	0x3ca8a878	0.020588145
75	0xbb9ecdec	-0.004846325
76	0xbd966743	-0.07343914
77	0xbcd19ca9	-0.025587397
78	0xbd3892fb	-0.045062046
79	0x3d0e3dff	0.034727093
80	0xbd85580f	-0.065109365
81	0x3ccbfe84	0.024901636
82	0xbc7a5051	-0.015277938
83	0x3cb78ec7	0.022406949
84	0x3c7e0b0c	0.0155055635
85	0xbd9b511d	-0.075838305
86	0x3d66b400	0.056324005
87	0xbd46c22f	-0.04852503
88	0xbd31af4b	-0.043380063
89	0x3d774ae8	0.06037417
90	0x3d3437b1	0.043998424
91	0x3c924e4f	0.017859606
92	0x3d4e8180	0.05041647
93	0x3d3222f4	0.043490365
94	0x3cd08190	0.025452405
95	0xbd83512c	-0.06411967
96	0xbd19a9a4	-0.037515298
97	0x3d797acd	0.060908128
98	0xbd47d3f1	-0.048786107
99	0x3da4958a	0.08036335
100	0x3d0f1706	0.034934066
101	0x3b0cc503	0.0021479733
102	0xbd6747c7	-0.056464937
103	0xbd268972	-0.04065842
104	0x3d81b8aa	0.0633405
105	0xbd5a40ac	-0.053284332
106	0xbd23bce6	-0.03997507
107	0x3d94f118	0.072725475
108	0xbc02357b	-0.007947321
109	0xbd5a47be	-0.053291075
110	0xbc6f11b3	-0.014591622
111	0xbc31d68f	-0.010854377
112	0x3cb30deb	0.021857223
113	0x3d96e7d6	0.07368438
114	0xbb590779	-0.0033116026
115	0xbdb9a0bd	-0.090638615
116	0x3d5744dd	0.052555908
117	0xbd9d9f11	-0.07696355
118	0xbd22c82c	-0.03974168
119	0x3dab6f4c	0.083708376
120	0x3cf0eb1c	0.029408984
121	0xbc91266c	-0.017718516
122	0xbd82cfe0	-0.06387305
123	0x3d470cec	0.048596308
124	0xbd8a7b92	-0.067618504
125	0xbd5936d4	-0.053030804
126	0x3d3b8f7e	0.04579114
127	0xbd184ace	-0.037180714
128	0x3d168c3a	0.036754824
129	0x3d914cc9	0.07094724
130	0xbd9fb5bd	-0.07798336
131	0xbccc1bb9	-0.024915563
132	0x3d8a130e	0.06741916
133	0x3c309710	0.010778204
134	0x3d82550d	0.063638784
135	0xbd128fef	-0.035781797
136	0xbd038361	-0.032107715
137	0xbd94ce9c	-0.0726597
138	0xbd0931b6	-0.033494674
139	0x3d54f4aa	0.051991142
140	0xbd741fe4	-0.059600726
141	0xbd11fd78	-0.035642117
142	0xbd562e12	-0.05229003
143	0xbdadf462	-0.08493878
144	0x3d258501	0.040410046
145	0xbd96654f	-0.07343542
146	0x3dbd1bed	0.09233842
147	0x3d47b37c	0.048755154
148	0x3d9b0682	0.07569601
149	0xbd8b6a46	-0.068073794
150	0x3d7685b7	0.060186114
151	0x3bd4e8ed	0.0064974935
152	0xbd6713f8	-0.056415528
153	0x3d1db52b	0.038502853
154	0xbd1e99d4	-0.03872092
155	0x3cc06b20	0.023488581
156	0xbc1ee8a6	-0.009699022
157	0xbd85167e	-0.06498431
158	0xbd8427f7	-0.06452935
159	0x3b9ed6a8	0.0048473664
160	0xbcf1f70f	-0.029536752
161	0x3d092230	0.03347987
162	0xbce2b2e1	-0.027673187
163	0x3cb62b7f	0.022237537
164	0x3c7032c1	0.014660538
165	0xbbc0c69c	-0.005883051
166	0xbd4fae38	-0.050703257
167	0xbda389f3	-0.07985296
168	0xbc10aae9	-0.008829811
169	0x3d71314e	0.05888491
170	0xbd11f19d	-0.03563081
171	0xbca14946	-0.01968826
172	0xbd55c56a	-0.05219022
173	0x3cbca5f1	0.023028346
174	0xbd807650	-0.06272566
175	0x3d733711	0.059378687
176	0xbcf27c79	-0.029600369
177	0xbd93fe7f	-0.07226276
178	0x3db684d0	0.08912051
179	0xbd92f167	-0.0717495
180	0x3d005941	0.03133512
181	0x3d335e61	0.04379118
182	0xbd9b5fc1	-0.07586623
183	0xbd578729	-0.052619133
184	0xbc723c5e	-0.0147849005
185	0x3d227351	0.039660756
186	0x3dc11387	0.09427553
187	0x3dac6856	0.08418338
188	0x3d29544d	0.04134016
189	0x3cadeaa5	0.021230051
190	0x3cb23e88	0.021758333
191	0x3cd7918b	0.026314517
192	0xbd341c86	-0.043972515
193	0x3d2107b7	0.039313998
194	0x3d26fcf9	0.040768597
195	0xbd3f3d21	-0.046689156
196	0xbb9c6eda	-0.0047739567
197	0xb9514155	-0.00019956131
198	0x3cbb2d79	0.022848831
199	0x3dc359bc	0.095386
200	0x3da8d270	0.08243263
201	0x3cc1e577	0.023668988
202	0x3d567ed6	0.052367054
203	0xbd4d1bd6	-0.050075375
204	0xbd9be8a5	-0.07612733
205	0x3da2d2ce	0.07950364
206	0xbd9fab63	-0.07796361
207	0x3d977f9b	0.07397386
208	0x398ee05b	0.00027251508
209	0x3ce96124	0.028488703
210	0xbd4677b2	-0.048453994
211	0x3d7556ac	0.05989711
212	0xbd4549d1	-0.0481661
213	0xbb95c3d7	-0.004570465
214	0xbc72e4c3	-0.014825049
215	0xbd43e559	-0.047826145
216	0x3d29a475	0.041416604
217	0xbd26f307	-0.040759113
218	0xbda4580f	-0.08024608
219	0xbd21d310	-0.039507926
220	0x3d46fa3a	0.04857848
221	0x3dabaa75	0.083821215
222	0xbd83b625	-0.06431226
223	0xbd141b1f	-0.036158677
224	0x3d5a94ac	0.05336444
225	0xbcce62dc	-0.025193624
226	0x3d681446	0.05665996
227	0xbd4b041a	-0.04956446
228	0xbd251a62	-0.040308364
229	0x3cb77649	0.02239527
230	0x3d5f99b7	0.054589953
231	0x3d4d3c9a	0.050106622
232	0x3c93ae7f	0.018027542
233	0x3d3e1b76	0.046412908
234	0x3dae7277	0.08517926
235	0xbc8732aa	-0.01650365
236	0x3d4ba5e0	0.049718738
237	0xbdcd2d98	-0.10018462
238	0x3d1b3381	0.037890915
239	0x3da0d92d	0.07853923
240	0xbd2621e8	-0.04055968
241	0xbd82842c	-0.06372866
242	0x3d8d68af	0.069047324
243	0xbc138ec8	-0.00900621
244	0x3d11b70d	0.03557496
245	0x3d775def	0.060392316
246	0x3d24fec0	0.04028201
247	0xbd4c8098	-0.049927324
248	0xbc2d2e29	-0.0105700875
249	0xbbafd015	-0.0053653815
250	0x3cd70fb4	0.026252605
251	0x3c7c8aa5	0.015413915
252	0xbc5e75e1	-0.013577909
253	0xbc111b29	-0.008856573
254	0xbc9fec32	-0.019521806
255	0x3d6de891	0.05808312

fc2.bias f4 [64]
0	0x3d47b3ba	0.048755385
1	0x3d1e6e5a	0.03867946
2	0x3d649430	0.055805385
3	0xbcea6b86	-0.028615724
4	0xbd2ca5c7	-0.042150285
5	0x3db16a56	0.0866286
6	0x3d99ff02	0.07519342
7	0xbda33a53	-0.07970109
8	0xbc289ae4	-0.010290835
9	0xbcaa5742	-0.02079356
10	0x3c36458e	0.011124982
11	0x3d642814	0.055702284
12	0x3c25633e	0.010094462
13	0xbd660666	-0.056158446
14	0x3d1e90d6	0.038712345
15	0xbc7eea7c	-0.015558835
16	0x3d8c122d	0.06839404
17	0xbda4c9ec	-0.08046326
18	0x3da8ad6d	0.08236203
19	0x3bfe5381	0.0077614193
20	0xbd1c8aeb	-0.03821842
21	0x3d0f96a6	0.03505578
22	0x3d02fb03	0.031977665
23	0xbcc7d743	-0.024394637
24	0x3d386db7	0.045026507
25	0x3cff038c	0.031129621
26	0xbcb11ede	-0.021621164
27	0xbb8eaa62	-0.0043538073
28	0x3db08af1	0.08620251
29	0x3c97139c	0.018441968
30	0x3d503ed3	0.050841164
31	0x3d0f5953	0.034997296
32	0x3ce8a965	0.028401086
33	0x3cbd6ce3	0.02312321
34	0xbd1c2052	-0.03811676
35	0x3da9b760	0.08286929
36	0xbcec92b2	-0.028878544
37	0xbd1c1546	-0.038106225
38	0x3d0dcb80	0.0346179
39	0xbd978cd4	-0.07399908
40	0x3c24a29e	0.010048537
41	0x3dab0191	0.08349908
42	0x3d009f65	0.03140201
43	0xbd8c6b9b	-0.068564616
44	0xbd1b7de5	-0.03796186
45	0xbd215d70	-0.03939575
46	0xbd6f48a4	-0.058418885
47	0x3db0d586	0.08634476
48	0x3d58fd3f	0.05297589
49	0xbd8b6d9e	-0.06808017
50	0x3d690949	0.05689362
51	0x3d8e67c0	0.069533825
52	0x3cff8737	0.031192405
53	0xbc361a8a	-0.011114726
54	0xbd8c5247	-0.06851631
55	0x3d23234b	0.03982858
56	0x3cb23d5b	0.021757772
57	0x3c64054d	0.013917279
58	0x3da2aa40	0.07942629
59	0xbdafc8fb	-0.08583256
60	0x3d3c6004	0.045990005
61	0xbd6e3862	-0.05815924
62	0x3b1a2d3a	0.0023525492
63	0x3da2349c	0.07920191

bn2.weight f4 [64]
0	0x3f7e1e6c	0.9926517
1	0x3f80f935	1.0076052
2	0x3f80c68a	1.0060589
3	0x3f821fa9	1.0165912
4	0x3f811232	1.0083678
5	0x3f7f5086	0.99732244
6	0x3f80a6e6	1.0050933
7	0x3f7e0e28	0.9924035
8	0x3f80534e	1.0025423
9	0x3f7f8353	0.9980976
10	0x3f7e1d54	0.992635
11	0x3f7f92c0	0.998333
12	0x3f7ddf5f	0.9916896
13	0x3f801b75	1.0008379
14	0x3f7e4c0f	0.99334806
15	0x3f8162d4	1.0108285
16	0x3f81f932	1.0154173
17	0x3f7f434a	0.9971205
18	0x3f7cfdee	0.98824966
19	0x3f7fb6a8	0.99888086
20	0x3f80fc61	1.007702
21	0x3f813ba4	1.0096326
22	0x3f7e6cec	0.9938495
23	0x3f81d8ef	1.0144328
24	0x3f81a9b1	1.0129911
25	0x3f805634	1.0026307
26	0x3f81ab17	1.0130337
27	0x3f809dc8	1.0048151
28	0x3f821258	1.0161848
29	0x3f7c71fb	0.9861142
30	0x3f7ef9c9	0.9959989
31	0x3f7fe0ff	0.9995269
32	0x3f7f5a74	0.99747396
33	0x3f7e0533	0.99226683
34	0x3f81bcd2	1.0135748
35	0x3f7e78f0	0.99403286
36	0x3f7d8481	0.9903031
37	0x3f8061cc	1.0029845
38	0x3f7ddd01	0.9916535
39	0x3f8026b7	1.0011815
40	0x3f7ebe3b	0.9950902
41	0x3f80bd02	1.0057681
42	0x3f7f8645	0.99814254
43	0x3f7d6451	0.98981196
44	0x3f814556	1.0099285
45	0x3f7c1583	0.98470324
46	0x3f7d2586	0.9888538
47	0x3f7d87cf	0.9903535
48	0x3f7f5157	0.9973349
49	0x3f7cc385	0.9873584
50	0x3f805ab8	1.0027685
51	0x3f808306	1.0039985
52	0x3f802d67	1.0013856
53	0x3f805baa	1.0027974
54	0x3f7e98aa	0.99451697
55	0x3f81c359	1.013774
56	0x3f80d78a	1.0065777
57	0x3f81256d	1.0089546
58	0x3f7d49f6	0.9894098
59	0x3f805d40	1.0028458
60	0x3f7e591a	0.9935471
61	0x3f7e0b64	0.9923613
62	0x3f81343a	1.0094063
63	0x3f807788	1.0036478

bn2.bias f4 [64]
0	0xbc22fd87	-0.009948141
1	0xbb622d3b	-0.0034511823
2	0xbb65b421	-0.0035049992
3	0x3c72a1e5	0.0148091065
4	0x3c6aa3a0	0.014321238
5	0xbbf216d4	-0.007387975
6	0x3b894400	0.0041890144
7	0x3c62a456	0.013833126
8	0xbbaf002b	-0.005340596
9	0x3be4213c	0.0069619697
10	0xbbdf57c8	-0.0068158843
11	0xbc16fd24	-0.009215627
12	0xbbef26ac	-0.007298311
13	0xba951ab4	-0.0011375756
14	0xbc0b92e5	-0.008518909
15	0x3c59e6ec	0.013299685
16	0x3c0b425a	0.008499706
17	0x3c31ae83	0.0108448295
18	0xbbf7ea7b	-0.007565794
19	0xbbe92817	-0.007115375
20	0x3c340afd	0.010988948
21	0x3c650d1e	0.013980178
22	0x3b4f8480	0.003166467
23	0x3b80ba77	0.0039284783
24	0xbab8ca6e	-0.0014098415
25	0x3ac3581b	0.0014903577
26	0x3c725e31	0.014792965
27	0x3bd2f9ea	0.0064384835
28	0x3c720e7b	0.01477396
29	0xbc36783c	-0.011137065
30	0x3b643a21	0.0034824687
31	0xbab990be	-0.0014157516
32	0x3c6647f2	0.014055239
33	0xbc1d9819	-0.009618782
34	0x3c8272ad	0.015923822
35	0xbc012c69	-0.007884123
36	0xbc6ef25e	-0.014584152
37	0xbb171edb	-0.0023059163
38	0xbb510e22	-0.0031899293
39	0x3a71a45a	0.00092179107
40	0xbb834ac3	-0.004006715
41	0xbbc83700	-0.006110072
42	0xbb99104b	-0.0046711317
43	0x3c4a3e17	0.012343905
44	0x39b98a82	0.00035389146
45	0xbc879c68	-0.016554072
46	0xbbe4be90	-0.0069807246
47	0xbc06f692	-0.008237498
48	0x3afdbe50	0.0019359086
49	0xbc44e11d	-0.012016562
50	0x3ba84ef8	0.005136367
51	0x3ba69a16	0.0050842864
52	0x3c1425fe	0.009042261
53	0x3c1f149e	0.009709505
54	0x3c06e9be	0.008234439
55	0x3ba71223	0.0050985976
56	0x3c705f57	0.014671168
57	0x3c26b284	0.010174397
58	0xbc245017	-0.0100288605
59	0x3c1f7741	0.009733022
60	0xbc2f6a1f	-0.010706454
61	0xbc1acc9c	-0.009448197
62	0xbb017e88	-0.0019759256
63	0x3aabde8d	0.001311259

bn2.running_mean f4 [64]
0	0x3d0f659d	0.035009015
1	0x3d4ffb8e	0.05077701
2	0xbceb9a27	-0.028760029
3	0x3e25bcc7	0.16185294
4	0x3e046e91	0.12932803
5	0x3df174ee	0.11789881
6	0x3dc63b49	0.096792765
7	0xbe820778	-0.25396323
8	0xbe34c693	-0.17653875
9	0xbe7181dd	-0.23584695
10	0x3e21b2ef	0.15790914
11	0xbd7bcfd5	-0.0614775
12	0x3ca39065	0.019966314
13	0xbd6bd10a	-0.057572402
14	0xbd5476b5	-0.05187102
15	0xbe3b7815	-0.18307526
16	0x3d6f48eb	0.05841915
17	0xbde42c60	-0.11141276
18	0xba0ce5ac	-0.00053748
19	0xbe4fde91	-0.20299746
20	0x3dc53ae2	0.09630372
21	0x3dfd860d	0.12379084
22	0xbdc329bb	-0.09529444
23	0x3e155cc0	0.14586163
24	0x3e1b14b3	0.15144615
25	0x3d244ed1	0.040114228
26	0xbe2a540a	-0.16633621
27	0x3dc53f36	0.09631197
28	0x3d7d6fca	0.06187419
29	0x3cf8e07f	0.030380486
30	0x3d9a3eb8	0.07531494
31	0x3e2b142e	0.16706917
32	0x3e292a1a	0.16519967
33	0xbc79d05f	-0.015247433
34	0x3db452a1	0.08804823
35	0xbdd6f882	-0.10496618
36	0x3e0c25dc	0.13686317
37	0xbe8840dd	-0.26611987
38	0xbe141647	-0.14461623
39	0xbdafb4b6	-0.0857939
40	0x3db5c043	0.08874562
41	0x3d9894db	0.07450267
42	0x3e2c6474	0.16835195
43	0xbe730c51	-0.23735167
44	0xbe6aafe0	-0.22918653
45	0xbce2fcd2	-0.027708445
46	0xbdb2f828	-0.08738738
47	0xbe140a39	-0.14457025
48	0x3e16aa5f	0.14713429
49	0xbe3dd6ca	-0.18538967
50	0xbd885fc1	-0.066588886
51	0x3da6ea74	0.08150187
52	0x3e229226	0.15876064
53	0x3da25025	0.079254426
54	0xbce39622	-0.02778155
55	0x3e52e8e4	0.20596653
56	0x3e068630	0.13137126
57	0x3d924d21	0.071436174
58	0xbd76e9bf	-0.06028151
59	0xbc58f4d2	-0.013241963
60	0xbdf2da8a	-0.11858089
61	0xbe40f5d0	-0.1884377
62	0x3e030856	0.12796149
63	0x3e18b502	0.14912799

bn2.running_var f4 [64]
0	0x3e699adb	0.22812979
1	0x3ea3b6b9	0.31975344
2	0x3e9057bd	0.2819194
3	0x3ef712e1	0.4825659
4	0x3eb95b5c	0.36202514
5	0x3e475fe1	0.19470169
6	0x3e90cc2c	0.2828077
7	0x3f072ac9	0.5279966
8	0x3e8207c9	0.25396565
9	0x3e8fa214	0.28053343
10	0x3ea399ee	0.31953377
11	0x3e867895	0.26263872
12	0x3e85d0f5	0.26135984
13	0x3e99b905	0.3002397
14	0x3e9e29c7	0.3089125
15	0x3eefd1b3	0.46839675
16	0x3eb04c3f	0.3443317
17	0x3ee95841	0.45575145
18	0x3ebf4cd0	0.3736329
19	0x3f136294	0.57572293
20	0x3e87be0e	0.26512188
21	0x3ec703d0	0.38870096
22	0x3f0e8da0	0.5568485
23	0x3e9272ab	0.2860311
24	0x3eeb716f	0.4598498
25	0x3e8c58a4	0.27411377
26	0x3ed0633a	0.40700704
27	0x3ea04283	0.31300744
28	0x3f070149	0.52736336
29	0x3e874f2a	0.26427585
30	0x3e9a3028	0.30114865
31	0x3ee92416	0.45535344
32	0x3e8dc931	0.2769256
33	0x3e567834	0.20944291
34	0x3e99650b	0.29959902
35	0x3ec792cf	0.38979194
36	0x3e5a3fc3	0.21313386
37	0x3e855401	0.26040652
38	0x3ecaef6b	0.39635786
39	0x3eb20c8f	0.34775206
40	0x3e917cf3	0.2841564
41	0x3ebaee38	0.3650987
42	0x3e682831	0.22671582
43	0x3e9d7671	0.30754426
44	0x3e8b01ff	0.2714996
45	0x3eb81371	0.35952333
46	0x3eabf10e	0.33582348
47	0x3e9bd7f3	0.30438194
48	0x3e86f43b	0.26358208
49	0x3e983d39	0.2973421
50	0x3e8812f3	0.26576957
51	0x3ef53a89	0.4789622
52	0x3e9b47b6	0.3032815
53	0x3e8e488e	0.2778973
54	0x3e7d8c0e	0.24760458
55	0x3f09ea9c	0.5387361
56	0x3ea589c3	0.32331666
57	0x3ebbfb30	0.36715078
58	0x3ec16d35	0.3777863
59	0x3e8d76c5	0.27629676
60	0x3ed71dd5	0.42014948
61	0x3eeeee96	0.46666402
62	0x3ed29ab2	0.41133648
63	0x3e940719	0.28911665

fc3.weight f4 [32, 64]
0	0x3dbbb0e7	0.09164601
1	0x3cececf0	0.028921574
2	0xbd1dd292	-0.038530894
3	0x3d49b2f3	0.049242925
4	0xbd90db09	-0.07073028
5	0xbd2f632e	-0.042819194
6	0xbdb8e8aa	-0.09028752
7	0x3dbddb8a	0.092703894
8	0xbdf26e47	-0.1183744
9	0xbd957090	-0.0729686
10	0x3d227a6c	0.03966753
11	0x3db754f8	0.089517534
12	0xbd2044e4	-0.0391282
13	0x3cf42277	0.02980159
14	0x3d87732c	0.06613764
15	0x3d3dc4a9	0.046330128
16	0xbdaaa084	-0.08331397
17	0xbcc49f9c	-0.024001889
18	0x3da221ce	0.07916604
19	0xbda0d342	-0.07852794
20	0xbd2e00b4	-0.04248114
21	0x3dafe16b	0.08587917
22	0x3dc3a874	0.09553614
23	0xbd6782ae	-0.05652111
24	0x3cff9b07	0.031201852
25	0xbe03e739	-0.12881173
26	0x3dedc098	0.11609
27	0x3d005971	0.031335298
28	0xbcb194f5	-0.021677474
29	0x3d20af1a	0.03922949
30	0x3da5d2a5	0.08096818
31	0x3dd9fb70	0.10643661
32	0x3e0873d4	0.13325435
33	0xbd8fad25	-0.070154466
34	0xbdf4c668	-0.119519055
35	0x3d7691f1	0.060197774
36	0xbdc78fc5	-0.09744219
37	0x3cbae1bc	0.022812717
38	0xbd149905	-0.036278743
39	0x3c58d29e	0.013233809
40	0xbba06caa	-0.0048957663
41	0xbd2e4c0f	-0.042553004
42	0x3d0f7b0e	0.035029463
43	0x3d564777	0.052314248
44	0xbd69af6b	-0.057052057
45	0xbdc3cbbd	-0.09560344
46	0xbdf265af	-0.11835801
47	0x3d85df8f	0.06536781
48	0xbd544338	-0.051821917
49	0xbda1b484	-0.07895759
50	0x3c6c7d0b	0.014434109
51	0x3d732421	0.059360627
52	0xbd92e1eb	-0.07171997
53	0xbd998fb2	-0.07498111
54	0xbe095073	-0.13409595
55	0xbccbb078	-0.02486442
56	0xbdf4472f	-0.1192764
57	0xbd760a3d	-0.060068358
58	0x3c977f1f	0.018493233
59	0xbc5472cc	-0.012966823
60	0x3d36d872	0.044640012
61	0xbd47fb72	-0.04882378
62	0xbd952e8b	-0.07284268
63	0x3d40a503	0.047032367
64	0x3ccc8975	0.024967888
65	0xbc7930dd	-0.015209404
66	0xbd97fa61	-0.07420803
67	0x3dccd0cc	0.10000762
68	0xbd9bceaf	-0.07607781
69	0x3d3c6a95	0.046000082
70	0x3deacbc2	0.11464645
71	0x3d2fd44c	0.04292707
72	0x3d2bcf0f	0.041945513
73	0x3d033072	0.032028623
74	0x3da503f2	0.08057393
75	0xbdd5db34	-0.104422
76	0x3d1dfecf	0.038573083
77	0xbd53e48b	-0.051731627
78	0xbd6269a9	-0.055276547
79	0x3b13fc02	0.0022580628
80	0xbd68bc19	-0.05682001
81	0x3d982178	0.07428259
82	0xbd9efdcb	-0.07763251
83	0xbcb7a76d	-0.022418702
84	0xbdd207f5	-0.10255424
85	0x3da234eb	0.079202496
86	0xbc946062	-0.018112365
87	0xbd01af77	-0.031661477
88	0x3c241dbf	0.010016858
89	0xbdb1736b	-0.08664592
90	0xbd8652c2	-0.065587536
91	0xbdf7ef9d	-0.121062495
92	0x3daf982b	0.085739456
93	0x3d0534a8	0.03252092
94	0xbdbff190	-0.09372246
95	0xbd5b6c22	-0.05356992
96	0xbdd8efa7	-0.10592585
97	0x3daabb19	0.08336467
98	0xbdf78aa6	-0.12086992
99	0xbd37248e	-0.044712596
100	0x3cf237a8	0.029567555
101	0x3ca31107	0.01990558
102	0xbd620a39	-0.05518553
103	0xbc5d8c37	-0.013522199
104	0xbd65e4d1	-0.05612642
105	0xbdce5482	-0.10074712
106	0xbdae7a54	-0.08519426
107	0x3e030dc3	0.12798218
108	0xbdea088a	-0.1142741
109	0xbdf94cfb	-0.12172886
110	0x3d8dd75f	0.069258444
111	0xbdf6f543	-0.12058499
112	0x3cea868c	0.02862861
113	0x3c5b5e56	0.013389191
114	0xbb411e26	-0.0029467433
115	0xbdcfa972	-0.10139741
116	0xbc07a3fb	-0.008278842
117	0xbc00905a	-0.007846916
118	0xbe0264d9	-0.12733783
119	0x3da11154	0.07864633
120	0xbdfefc68	-0.124504864
121	0xba4132fe	-0.0007369964
122	0x3dd52ef6	0.10409348
123	0x3de0cbc0	0.10976362
124	0xbd0f01cb	-0.03491382
125	0x3df50ec1	0.11965705
126	0x3dc3e4bc	0.09565112
127	0xbd9d4d84	-0.076808006
128	0x3ddec882	0.108780876
129	0xbda38830	-0.0798496
130	0xbd898c76	-0.06716244
131	0xbdc2c0f6	-0.09509461
132	0xb7d008f0	-2.4799694e-05
133	0xbdb7e532	-0.089792624
134	0xbe03eea0	-0.12883997
135	0xbc58621e	-0.013206987
136	0xbca952a2	-0.020669285
137	0xbe04cec7	-0.12969504
138	0x3d4fa4f7	0.050694432
139	0xbd37fcc2	-0.044918783
140	0x3d60b5c4	0.054860845
141	0x3d86c1e8	0.065799534
142	0x3b898cd5	0.0041976967
143	0x3dda18bf	0.10649251
144	0xba2f2c88	-0.0006682356
145	0x3d6dc51d	0.05804931
146	0x3d31e56e	0.04343169
147	0xbd8ba6a7	-0.06818896
148	0x3dcfc920	0.101457834
149	0x3ba8cc57	0.0051513123
150	0x3ddb13f5	0.10697166
151	0xbdc1d207	-0.09463888
152	0x3d0d6117	0.03451642
153	0xbdb04c76	-0.08608334
154	0x3de203e1	0.11035896
155	0xbc258240	-0.010101855
156	0x3da64af4	0.08119765
157	0x3d8aba26	0.06773786
158	0x3ddb9aaf	0.10722863
159	0xbdc560b6	-0.09637587
160	0x3cbd693d	0.02312147
161	0x3da289a2	0.079364076
162	0xbd47c5a7	-0.04877248
163	0xbde15868	-0.1100319
164	0xbd4a576d	-0.049399782
165	0x3ddf6f89	0.109099455
166	0x3d33f8f0	0.043938577
167	0x3d7e4f8b	0.062087577
168	0x3d698d5e	0.057019584
169	0x39a1caa5	0.00030859295
170	0xbd74f175	-0.059800584
171	0x3d96dbcf	0.07366144
172	0xbdb6abed	-0.08919511
173	0x3da98e42	0.08279087
174	0xbd307b96	-0.04308661
175	0x3cf0fb9c	0.029416852
176	0xbdaaa66a	-0.08332522
177	0xbdf91554	-0.12162271
178	0x3d3ed09f	0.046585675
179	0x3d5f32f2	0.054491945
180	0x3d442a10	0.047891676
181	0x3de8dbf6	0.11370079
182	0x3d350b6c	0.044200346
183	0x3cd9632f	0.026536552
184	0xbdc52f07	-0.096281104
185	0xbd021ca1	-0.031765584
186	0x3d3cd6f6	0.04610344
187	0xbdd53b56	-0.10411708
188	0xbd3a934e	-0.045550637
189	0xbd43e926	-0.04782977
190	0x3d39e8d1	0.045388047
191	0xbda7e87c	-0.0819864
192	0xbdde01b1	-0.10840166
193	0xbdabaa7e	-0.08382128
194	0x3d820046	0.063477084
195	0xbd2d6e2f	-0.042341407
196	0x3c450e41	0.012027324
197	0x3c9cc909	0.01913883
198	0x3ccb991c	0.024853282
199	0xbd25aeb5	-0.040449817
200	0xbd680eeb	-0.056654852
201	0xbd9949bc	-0.07484767
202	0x3db21d0f	0.08696949
203	0x3c595039	0.0132637555
204	0xbdd00e23	-0.10158946
205	0x3dedb257	0.11606281
206	0x3d0e39ff	0.034723278
207	0x3d8d0f50	0.06887686
208	0xbdb4cb63	-0.088278554
209	0xbdd6d861	-0.1049049
210	0x3ddb85e2	0.107188955
211	0xbde07d4e	-0.109614
212	0x3bd4af41	0.0064906185
213	0x3d30d9fd	0.04317664
214	0xbced62cf	-0.02897778
215	0x3d97af91	0.074065335
216	0x3dd436c8	0.10362011
217	0xbd37c5be	-0.044866316
218	0x3db106fc	0.0864391
219	0xba73b897	-0.00092972204
220	0xbdc77b17	-0.097402744
221	0x3d433c05	0.04766466
222	0x3dd6ebfe	0.10494231
223	0xbd6b1625	-0.057394166
224	0x3dc02be1	0.09383369
225	0x3d62ac25	0.05533995
226	0x3a8af57f	0.0010601728
227	0x3daa3882	0.08311559
228	0xbdc19434	-0.09452096
229	0x3c20ecbd	0.009822068
230	0xbc42e938	-0.011896424
231	0xbddcfd43	-0.10790493
232	0xbdabb8c2	-0.08384849
233	0xbd796a8f	-0.060892638
234	0xbd4c41b3	-0.049867343
235	0x3c0356ef	0.008016332
236	0x3e0586db	0.13039725
237	0xbd0f6445	-0.035007734
238	0xbdaf9275	-0.08572856
239	0xbd77dff3	-0.06051631
240	0x3de0501d	0.109527804
241	0xbd8d505d	-0.06900094
242	0x3d03ec22	0.032207616
243	0xbc5da037	-0.013526968
244	0x3dc6590d	0.09684954
245	0x3a8944b2	0.0010472743
246	0xbdee42b5	-0.11633817
247	0xbdac0fa2	-0.08401419
248	0x3d0ee90f	0.03489023
249	0xbd97f03e	-0.074188694
250	0xbd8bdea3	-0.06829574
251	0xbd3daf35	-0.04630967
252	0xbde6e678	-0.11274427
253	0xbdd5be6c	-0.10436711
254	0xbd810032	-0.062988654
255	0xbd1d0bb4	-0.03834124

fc3.bias f4 [32]
0	0xbdba1d48	-0.09087616
1	0xbd0e82d2	-0.03479273
2	0x3d97d65c	0.07413933
3	0xbdae4a22	-0.085102335
4	0xbd720c08	-0.059093505
5	0x3d08ce82	0.033400066
6	0xbdb6da8e	-0.08928405
7	0xbdffed87	-0.124964766
8	0xbdadfda6	-0.08495645
9	0x3d7e1469	0.062031183
10	0x3da46164	0.08026388
11	0x3c6e708d	0.014553201
12	0x3d2fa20b	0.042879146
13	0xbd71d609	-0.05904201
14	0xbcbe67cb	-0.023242852
15	0x3ca12590	0.019671232
16	0xbcda3beb	-0.0266399
17	0xbdfcca8e	-0.12343322
18	0x3c061365	0.008183335
19	0xbc416994	-0.011804957
20	0x3c3f3800	0.011671066
21	0x3dae9b44	0.08525708
22	0x3defdfe8	0.117126286
23	0xbd9a3897	-0.07530325
24	0x3d082e46	0.033247255
25	0xbdf8cc77	-0.121483736
26	0xbce8fee9	-0.028441863
27	0x3de1dc2b	0.11028322
28	0x3dc06dc9	0.0939594
29	0xbd804418	-0.06262988
30	0x3dd67306	0.10471158
31	0xbded92b4	-0.11600247

bn3.weight f4 [32]
0	0x3f81ce1a	1.0141022
1	0x3f805076	1.0024555
2	0x3f7d193a	0.9886662
3	0x3f7f26e5	0.99668723
4	0x3f81b305	1.0132757
5	0x3f7e57d6	0.99352777
6	0x3f8016c9	1.0006953
7	0x3f7fccfd	0.9992216
8	0x3f7c46e6	0.9854568
9	0x3f7c27f0	0.9849844
10	0x3f7d412c	0.9892757
11	0x3f7be7cc	0.9840057
12	0x3f7d86ea	0.9903399
13	0x3f8019f9	1.0007926
14	0x3f7fc77f	0.9991378
15	0x3f7fb45a	0.9988457
16	0x3f7f2319	0.9966293
17	0x3f7f2610	0.99667454
18	0x3f806b2a	1.0032704
19	0x3f80015f	1.0000418
20	0x3f800ac5	1.0003287
21	0x3f80e7ee	1.0070779
22	0x3f81904a	1.0122159
23	0x3f7f936e	0.99834335
24	0x3f7f822d	0.9980801
25	0x3f7bf988	0.9842763
26	0x3f81b1a8	1.0132341
27	0x3f7d7fff	0.9902343
28	0x3f81dfee	1.0146463
29	0x3f7edec3	0.9955866
30	0x3f7eee9a	0.9958283
31	0x3f818279	1.0117942

bn3.bias f4 [32]
0	0x3c96b8f3	0.018398738
1	0x3bd7423d	0.0065691755
2	0x3c14735d	0.009060708
3	0x3b8cabac	0.004292926
4	0x3c80cded	0.015723193
5	0x3c6f0385	0.014588241
6	0x3bcb707e	0.0062084785
7	0x3c36becf	0.011153891
8	0xbc4a49de	-0.012346713
9	0xbc957836	-0.018245798
10	0xbbf56521	-0.007488862
11	0xbc667a54	-0.014067251
12	0xba85de53	-0.0010213353
13	0xbc0bdf31	-0.0085371
14	0x3bdcf5d8	0.006743174
15	0x3c7b482f	0.015337034
16	0x3c035858	0.008016668
17	0x3b963c7c	0.004584847
18	0x3c858a0f	0.016301183
19	0xbc4b710f	-0.012417092
20	0xbbea5a12	-0.0071518505
21	0x3b105484	0.0022023031
22	0xbbb276b3	-0.005446279
23	0x3b848706	0.0040444164
24	0x3bc724dc	0.006077392
25	0xbc17b975	-0.009260525
26	0x3c8d3416	0.01723675
27	0x3bccc7e7	0.006249416
28	0xbbc25c80	-0.005931437
29	0xbc3dec21	-0.011591942
30	0x3c3b37e5	0.0114269005
31	0x3bbe7650	0.005812444

bn3.running_mean f4 [32]
0	0xbe3b7851	-0.18307616
1	0xbe497eb1	-0.19677235
2	0x3ddc2d08	0.107507765
3	0xbe38315a	-0.17987576
4	0xbe0ca37d	-0.13734241
5	0x39128cca	0.00013976093
6	0xbe104d40	-0.14091969
7	0xbe129bf3	-0.14317302
8	0xbde4aa00	-0.111652374
9	0x3d7830fa	0.060593583
10	0x3e2e81a3	0.1704164
11	0xbd3d6f0d	-0.046248484
12	0x3dc39fde	0.095519766
13	0x3da57587	0.08079057
14	0x3b21e854	0.0024705129
15	0x3e1f0595	0.15529473
16	0xbe295161	-0.1653495
17	0xbea5ccc8	-0.32382798
18	0xbdb0e6c4	-0.08637765
19	0xbcc362ba	-0.023850787
20	0xbe00632e	-0.12537834
21	0x3d1f5f27	0.038909104
22	0x3d7d0f96	0.061782442
23	0xbe7294ab	-0.23689525
24	0xbe280ef4	-0.16411954
25	0x3debad6f	0.11507689
26	0x3e11764a	0.1420528
27	0xbd53e130	-0.051728427
28	0x3e0afa73	0.13572101
29	0xbd6b8a4d	-0.05750494
30	0x3e117920	0.14206362
31	0x3dadefea	0.084930256

bn3.running_var f4 [32]
0	0x3e9a304f	0.30114982
1	0x3e92f64f	0.28703544
2	0x3ea8ec3b	0.3299273
3	0x3e860801	0.26177981
4	0x3edaac1f	0.42709443
5	0x3ebd3752	0.3695627
6	0x3ea936ce	0.33049625
7	0x3e978a87	0.29597875
8	0x3ead1943	0.33808336
9	0x3e6d957d	0.23201557
10	0x3e8200d7	0.25391266
11	0x3e966a50	0.29377985
12	0x3ee56694	0.44804823
13	0x3eb823a2	0.35964686
14	0x3ec0c5b9	0.3765085
15	0x3eb386b6	0.35063714
16	0x3f087b20	0.53312874
17	0x3efd4dc3	0.4947339
18	0x3eb2d460	0.34927654
19	0x3e6dcebf	0.23223399
20	0x3e9080e7	0.28223345
21	0x3e90bc1a	0.2826851
22	0x3eaa18a9	0.3322194
23	0x3e9a100f	0.30090377
24	0x3e97010e	0.29492992
25	0x3ea3d485	0.31998077
26	0x3ee54e78	0.4478643
27	0x3ea8f61e	0.33000273
28	0x3e9fec3c	0.3123492
29	0x3ea0cdec	0.31407106
30	0x3eb84727	0.35991785
31	0x3e8e4c38	0.27792525
