MELOSDP/SDP/chkpt/mc1/linear/9/sdp_classifier_linear-940.pth (torch, 77408 bytes, 25 tensors)

fc1.weight f4 [128, 38]
0.018109916 0.03807941 0.062857375 -0.14712678 0.0087330025 -0.08911219 -0.03239269 0.19710548
-0.109888375 -0.046801977 0.06333922 -0.15359841 0.01426879 0.030473903 -0.05294755 -0.07884895
0.08352313 0.19461855 0.08071362 0.10972734 0.08756046 -0.048781756 0.1625087 0.043064773
0.060098473 0.16674316 0.115856595 -0.12889583 -0.15089607 -0.025157487 -0.029513355 0.16604798
0.15590255 0.035253022 0.14331694 0.062996805 -0.08718579 -0.114125706 -0.03076091 -0.15263066
-0.07063399 0.109291926 0.09493601 0.037119377 -0.02270431 0.11180573 -0.118677564 0.15603735
0.24368928 -0.0766464 0.008768613 -0.135109 -0.12114999 0.030315945 0.012193119 0.00042786778
-0.13870423 0.12639926 -0.12181144 0.07972013 0.16897342 0.07766795 -0.13329801 -0.039021917
-0.024464468 0.07723489 0.02318982 -0.12659475 0.110943995 0.10225673 0.13708815 0.13530178
0.06769025 0.023149049 -0.11194047 0.11550545 -0.04773741 -0.16551544 0.059441436 -0.051438313
0.08168415 0.03766041 0.009332572 -0.10660057 0.063943595 -0.03879032 0.1429303 -0.00026433682
-0.043450773 -0.03915932 -0.16125698 0.004641094 0.031035703 0.089850046 -0.0024016239 0.078219146
-0.0649471 -0.0031229036 -0.1199764 0.07897672 -0.017791312 0.04818521 0.2117198 0.05212952
0.09455925 0.0740729 0.016750256 0.022534786 0.14257385 0.02427654 -0.057304706 -0.12757659
-0.22356738 0.017431455 -0.29569006 0.033295516 0.2103479 0.076192595 -0.015547564 -0.19189346
-0.0660924 0.05842471 0.079235815 0.07244054 -0.035241216 -0.064389996 -0.03812366 -0.053086255
0.09224752 0.04191038 -0.06973993 0.041262865 0.100195564 -0.15022951 0.096968375 0.10485688
-0.1641487 -0.06769178 0.06893177 0.036538932 -0.00904941 0.0017546228 -0.06488461 0.088393785
0.020493379 -0.06609462 0.04753399 0.08100691 0.14117917 -0.20878097 0.08463237 0.022514675
-0.18015303 0.092828326 -0.02878059 -0.0004573139 0.0050522718 -0.062467646 0.0040331986 0.14537124
-0.10788826 0.057323765 -0.0876581 0.115474746 -0.13075672 0.0069240965 0.11242916 0.037850358
0.0046661743 0.027427584 0.079991214 -0.109015904 -0.11204568 0.14029711 -0.025525212 0.048836283
0.00041329642 -0.10175368 -0.029508078 -0.10640342 0.04849306 -0.022739228 -0.02810795 -0.039246995
-0.009463646 -0.14059135 -0.020187763 0.0709252 0.003951992 0.17464848 0.11854212 -0.043883216
-0.17456272 -0.25188485 0.1225846 0.028775107 0.16946803 -0.10011066 0.10570093 -0.062490005
0.05229635 -0.1563958 0.039816435 -0.034985192 0.18421362 -0.0006930656 0.06306781 -0.06807154
-0.11410816 -0.083974406 0.1500624 -0.055868194 0.108177856 -0.09903285 0.09523655 -0.08800182
0.097862974 -0.11963367 -0.14282534 0.022992345 0.05302838 -0.07068825 -0.11155275 0.10539929
-0.045855835 -0.07758376 -0.06289779 0.06330087 0.03845203 0.17863333 0.028272951 -0.09263548
-0.08715985 -0.08128375 -0.15723081 0.030852148 -0.0298981 0.10169671 -0.02681071 -0.0765493
0.039252065 -0.052543186 -0.13993391 -0.06503692 0.0034931954 0.033607025 -0.028082175 0.10272294
0.062010765 0.17856976 0.07230428 -0.044882607 -0.010275407 -0.05888536 0.04575366 -0.057825368
00000000: 3f5b 943c 28f9 1b3d 5ebb 803d 67a8 16be
00000010: de14 0f3c 7480 b6bd 33ae 04bd 05d6 493e
00000020: 280d e1bd 6eb3 3fbd feb7 813d e748 1dbe
00000030: a5c7 693c 68a4 f93c 88df 58bd 8f7b a1bd
00000040: 2d0e ab3d 164a 473e 2f4d a53d bab8 e03d
00000050: e652 b33d 61cf 47bd ae68 263e b064 303d
00000060: d129 763d b8be 2a3e 3946 ed3d 45fd 03be
00000070: 8084 1abe 1317 cebc fec5 f1bc 7b08 2a3e
00000080: eba4 1f3e 7965 103d adc1 123e 7804 813d
00000090: 778e b2bd bdba e9bd 4efe fbbc 364b 1cbe
000000a0: 8ea8 90bd 72d4 df3d d06d c23d 7d0a 183d
000000b0: 64fe b9bc 67fa e43d 390d f3bd 41c8 1f3e
000000c0: af89 793e caf8 9cbd 3baa 0f3c 045a 0abe
000000d0: 7c1d f8bd 2559 f83c a6c5 473c 7153 e039
000000e0: 7b08 0ebe cf6e 013e 4778 f9bd 4f44 a33d
000000f0: 5e07 2d3e 6010 9f3d 467f 08be 72d5 1fbd
00000100: b569 c8bc 532d 9e3d 94f8 bd3c 0ea2 01be
00000110: 9b36 e33d fa6b d13d d660 0c3e 8d8c 0a3e
00000120: 30a1 8a3d 13a3 bd3c 0c41 e5bd 1f8e ec3d
00000130: 4d88 43bd e17c 29be dd78 733d fbb0 52bd
00000140: 054a a73d cd41 1a3d a5e7 183c 6651 dabd
00000150: dcf4 823d 99e2 1ebd 525c 123e b096 8ab9
00000160: 70f9 31bd 8665 20bd 8d20 25be 5114 983b
00000170: 963e fe3c 4d03 b83d 9064 1dbb 5c31 a03d
00000180: fc02 85bd a1a9 4cbb 30b6 f5bd 8cbe a13d
00000190: 16bf 91bc db5d 453d 13cd 583e c385 553d
000001a0: 48a8 c13d 88b3 973d d537 893c df9a b83c
000001b0: e1fe 113e 98df c63c 57b8 6abd 70a3 02be
000001c0: d9ee 64be 69cc 8e3c b064 97be e160 083d
000001d0: 7165 573e dd0a 9c3d 36bb 7ebc b87f 44be
000001e0: 745b 87bd c04e 6f3d 6346 a23d b55b 943d
000001f0: 1859 10bd e7de 83bd 8e27 1cbd f970 59bd
00000200: 45ec bc3d 38aa 2b3d cfd3 8ebd 4003 293d
00000210: 5533 cd3d c4d5 19be 5b97 c63d 34bf d63d
00000220: 9916 28be fda1 8abd 1a2c 8d3d d9a9 153d
00000230: fa43 14bc 5ffb e53a 39e2 84bd cd07 b53d
00000240: bbe1 a73c 9e5c 87bd 00b3 423d f3e6 a53d
00000250: 4691 103e aeca 55be bc53 ad3d b270 b83c
00000260: 097a 38be c71c be3d 46c5 ebbc a2c3 efb9
00000270: 878d a53b 13de 7fbd ec28 843b 33dc 143e
00000280: 85f4 dcbd 53cc 6a3d 1786 b3bd 067e ec3d
00000290: 17e5 05be 88e3 e23b 4241 e63d fa08 1b3d
000002a0: b5e6 983b d0af e03c 6fd2 a33d bb43 dfbd
000002b0: 3578 e5bd 0caa 0f3e 401a d1bc 8e08 483d
000002c0: b5af d839 3c64 d0bd edba f1bc 09ea d9bd
000002d0: a9a0 463d 9e47 babc a542 e6bc 75c1 20bd
000002e0: 690d 1bbc 2ef7 0fbe cf60 a5bc 3b41 913d
000002f0: b67f 813b 0dd7 323e 36c6 f23d e3be 33bd
00000300: 92c0 32be 0df7 80be a20d fb3d c6b9 eb3c
00000310: 0789 2d3e d106 cdbd bb79 d83d 85f5 7fbd
00000320: b334 563d 3826 20be 8f16 233d a24c 0fbd
00000330: 7fa2 3c3e d8ae 35ba b229 813d 1769 8bbd
00000340: 8ab1 e9bd c6fa abbd f5a9 193e 0cd6 64bd
00000350: 5a8c dd3d bcd1 cabd 610b c33d 4c3a b4bd
00000360: 626c c83d 7f02 f5bd ce40 12be 715a bc3c
00000370: 4934 593d 00c5 90bd c575 e4bd 95db d73d
00000380: 54d3 3bbd 3ce4 9ebd 8ed0 80bd e3a3 813d
00000390: e07f 1d3d a8eb 363e ad9c e73c acb7 bdbd
000003a0: dd80 b2bd 1878 a6bd 1d01 21be a5bd fc3c
000003b0: dcec f4bc 5d46 d03d 22a2 dbbc e1c5 9cbd
000003c0: c6c6 203d 8637 57bd d64a 0fbe 1432 85bd
000003d0: 18ee 643b 85a7 093d 970c e6bc 6860 d23d
000003e0: 00ff 7d3d feda 363e 4414 943d d3d6 37bd
000003f0: 2e5a 28bc c631 71bd 3168 3b3d 4bda 6cbd

fc1.bias f4 [128]
-0.15509234 -0.007891228 -0.11430569 -0.12611659 -0.124515876 -0.03144429 -0.16033916 -0.109721474
0.11289537 -0.077404626 0.017849475 -0.103654824 -0.11897185 -0.06586038 0.047202658 -0.08149804
0.15245032 0.017069208 0.13393842 -0.12312724 0.14291823 0.03513979 -0.0034675132 0.049127907
0.07785656 0.03857363 -0.11261359 0.00038650027 0.031173144 0.047432646 0.122902006 -0.13329577
-0.073060125 0.0052753487 -0.1470848 -0.0063591516 0.08529255 -0.040898472 0.15739687 -0.08813074
0.11765512 -0.106270045 0.03475018 0.13602456 -0.1547177 0.06611628 0.1350165 0.120500475
0.14103812 -0.14810194 -0.009740168 0.13376741 -0.0493783 -0.15955245 -0.081592135 0.15315276
-0.093269885 -0.05643851 -0.11845818 -0.10908405 -0.03546888 -0.007673037 -0.085231066 -0.046051852
0.050498407 0.13501266 -0.12939936 -0.14332606 -0.1454607 0.0064220116 -0.034125086 -0.13713084
0.111731194 -0.06320886 0.036405098 -0.1459886 0.0012636896 0.007628992 -0.15097389 0.0040214234
-0.014444077 -0.084758475 0.07913679 0.021390904 0.13781326 0.14023837 0.14410691 0.115267746
0.03466107 0.1521628 0.05965253 0.025672497 -0.015621362 0.054090418 -0.026191443 -0.086874306
-0.07608554 -0.062278695 -0.017206071 0.06729709 -0.0975763 0.08297449 0.101923965 0.026164453
0.11659071 0.03199793 0.006234311 0.119900905 0.12716497 -0.12279655 -0.026295863 0.0036990063
0.13824283 -0.05688944 -0.0020785462 0.09199119 0.03989969 -0.036611825 -0.055136897 0.017996093
0.0016601996 -0.050233208 0.08590275 -0.13437234 0.13402262 0.069126375 -0.06453031 -0.051522378
00000000: 87d0 1ebe 364a 01bc 1a19 eabd b524 01be
00000010: 2e02 ffbd bacb 00bd f32f 24be a7b5 e0bd
00000020: b035 e73d 5186 9ebd 1039 923c fb48 d4bd
00000030: 83a7 f3bd cfe1 86bd 9357 413d 72e8 a6bd
00000040: f01b 1c3e b9d4 8b3c 2727 093e 222a fcbd
00000050: 2859 123e beee 0f3d 383f 63bb 583a 493d
00000060: 4373 9f3d 62ff 1d3d f4a1 e6bd 30a3 ca39
00000070: d25e ff3c bc48 423d 0cb4 fb3d b07e 08be
00000080: 8ca0 95bd d5dc ac3b 669d 16be 6e60 d0bb
00000090: dcad ae3d 2885 27bd a52c 213e e47d b4bd
000000a0: 2bf5 f03d 1ca4 d9bd 3456 0e3d 064a 0b3e
000000b0: 516e 1ebe f967 873d c441 0a3e f4c8 f63d
000000c0: 4c6c 103e 09a8 17be 3a95 1fbc 53fa 083e
000000d0: e640 4abd b861 23be c719 a7bd 14d4 1c3e
000000e0: 4804 bfbd 112c 67bd 349a f2bd 7567 dfbd
000000f0: d147 11bd 196e fbbb a08d aebd dea0 3cbd
00000100: 6bd7 4e3d c240 0a3e 4481 04be 11c4 12be
00000110: a6f3 14be bd6f d23b bfc6 0bbd 076c 0cbe
00000120: 53d3 e43d a673 81bd 831d 153d 097e 15be
00000130: 63a2 a53a a0fc f93b e698 1abe 25c6 833b
00000140: daa6 6cbc da95 adbd 7812 a23d fa3b af3c
00000150: eb1e 0d3e a69a 0f3e c390 133e 7f11 ec3d
00000160: c4f8 0d3d 91d0 1b3e 3656 743d 214f d23c
00000170: bef0 7fbc ea8d 5d3d 708f d6bc 28eb b1bd
00000180: bcd2 9bbd f217 7fbd bff3 8cbc 0fd3 893d
00000190: 15d6 c7bd 88ee a93d 83bd d03d d656 d63c
000001a0: 1cc7 ee3d 4310 033d 3149 cc3b 9b8e f53d
000001b0: 8937 023e c27c fbbd 6c6a d7bc 076b 723b
000001c0: 878f 0d3e e704 69bd 3838 08bb e165 bc3d
000001d0: db6d 233d 48f6 15bd 3ad7 61bd 8b6c 933c
000001e0: 0e9b d93a 56c1 4dbd c8ed af3d e798 09be
000001f0: 3a3d 093e 2192 8d3d 7828 84bd 2109 53bd

bn1.weight f4 [128]
0.9655505 0.95907855 1.0302229 0.94486076 1.0337636 1.1891657 1.0212333 0.9203223
0.9910864 1.0051239 1.5610833 1.2097131 0.97368085 0.98005784 1.0098823 0.99096024
1.0490855 1.0003887 0.987043 1.0767802 1.1292131 0.9852064 1.1963217 1.3668875
0.9751548 0.96204495 0.96893996 1.0052593 1.0298387 1.1055394 1.138283 1.1985645
1.1716641 1.0115207 1.0124999 1.3422477 1.0944 1.0154978 0.96508837 0.97256154
0.9364775 0.9351956 1.1611915 1.2520636 0.99155515 0.98805463 0.9183826 1.0511311
1.0594387 1.1715581 1.0675454 1.2037277 1.018509 0.9842439 1.1331567 0.9445935
0.9721177 1.0307844 1.0143813 0.905096 1.0699483 1.0423572 0.96595776 1.1109449
1.0327626 1.0319552 0.9726663 1.0440518 1.1887119 0.9971814 0.9849107 1.3089772
1.0093784 1.0455492 1.2536932 0.99429 1.0283073 0.9890793 0.98869586 0.96649736
1.3729672 0.950109 1.0393912 0.9361588 0.99475044 0.990128 1.0575267 1.2118673
0.9663439 1.1685658 1.0403643 0.9361052 1.0105602 1.0351074 0.98730004 1.0032101
0.930147 0.9849121 0.98953646 0.97657305 1.1030889 0.9405695 1.1357588 0.9834059
0.99352694 1.0793362 0.9711277 1.2281711 0.9791665 0.99029326 1.0015237 1.0197438
0.9930711 1.1584598 1.173902 1.0074524 0.9779458 1.0707262 0.96415454 1.262921
0.99455094 0.91073287 1.0613127 1.0780555 1.1439186 0.9682169 0.99113816 1.0168111
00000000: 512e 773f 2c86 753f 58de 833f 65e2 713f
00000010: 5e52 843f 9536 983f c6b7 823f 3e9a 6b3f
00000020: d7b7 7d3f e6a7 803f 94d1 c73f e1d7 9a3f
00000030: 2643 793f 12e5 7a3f d343 813f 92af 7d3f
00000040: 6f48 863f bd0c 803f daae 7c3f efd3 893f
00000050: 0e8a 903f 7d36 7c3f 1221 993f 2bf6 ae3f
00000060: bfa3 793f 9448 763f 730c 783f 56ac 803f
00000070: c1d1 833f 5182 8d3f 42b3 913f 906a 993f
00000080: 17f9 953f 8379 813f 9999 813f c6ce ab3f
00000090: 4d15 8c3f d5fb 813f 0810 773f cbf9 783f
000000a0: fdbc 6f3f fb68 6f3f eca1 943f 9f43 a03f
000000b0: 8fd6 7d3f 26f1 7c3f 1f1b 6b3f 778b 863f
000000c0: b09b 873f 9ef5 953f 54a5 883f c013 9a3f
000000d0: 815e 823f 69f7 7b3f 470b 913f e1d0 713f
000000e0: b5dc 783f bef0 833f 3fd7 813f 5fb4 673f
000000f0: 11f4 883f f66b 853f 0249 773f 7133 8e3f
00000100: 9131 843f 1c17 843f a900 793f 7da3 853f
00000110: b627 983f 4847 7f3f 1c23 7c3f 918c a73f
00000120: 5033 813f 8ed4 853f 0579 a03f ca89 7e3f
00000130: 939f 833f 4d34 7d3f 2c1b 7d3f 5f6c 773f
00000140: 64bd af3f 583a 733f c50a 853f 1aa8 6f3f
00000150: f7a7 7e3f 0779 7d3f 095d 873f 781e 9b3f
00000160: 5062 773f 9093 953f a82a 853f 97a4 6f3f
00000170: 095a 813f 667e 843f b2bf 7c3f 3069 803f
00000180: 1d1e 6e3f 3323 7c3f 4352 7d3f b100 7a3f
00000190: 0432 8d3f 2ac9 703f 8b60 913f 7dc0 7b3f
000001a0: c857 7e3f b027 8a3f d39b 783f b634 9d3f
000001b0: a8aa 7a3f dc83 7d3f ee31 803f f786 823f
000001c0: e839 7e3f 6948 943f 6c42 963f 33f4 803f
000001d0: a85a 7a3f 8e0d 893f d5d2 763f 65a7 a13f
000001e0: e49a 7e3f ca25 693f 18d9 873f b9fd 893f
000001f0: ed6b 923f 10dd 773f 3bbb 7d3f de26 823f

bn1.bias f4 [128]
-0.12027941 -0.096892774 -0.04910301 -0.19040011 0.00010673558 -0.0880006 -0.18560797 -0.16677487
-0.041293897 -0.19846818 -0.33378705 -0.16644973 -0.013772861 -0.07051076 -0.07054071 -0.023462763
-0.09495527 -0.12441886 -0.024501402 -0.090852074 -0.18076906 -0.15606081 -0.06514439 -0.28121087
-0.062272906 -0.20203756 -0.10655329 -0.053982574 -0.01817845 -0.17546456 -0.17259039 -0.22248109
-0.2013922 -0.027128628 -0.084571 -0.20808169 -0.20506333 0.00356585 -0.15362059 -0.046742164
-0.041648284 -0.13367233 -0.17647918 -0.17882232 -0.11677698 -0.1335129 -0.09103995 -0.11014705
-0.066255115 -0.0502489 -0.13169004 -0.099342614 -0.10843127 -0.23164546 -0.13880686 -0.098657124
-0.09381223 -0.1479731 -0.12790696 -0.06898463 -0.018850127 -0.08982735 -0.07287887 -0.13164186
-0.3034277 -0.019265354 -0.072217956 -0.1979423 -0.17290004 -0.09487927 -0.08638695 -0.15492857
-0.0058983034 -0.11832094 -0.2762777 -0.0969396 -0.21991351 -0.11103852 -0.11418728 -0.11744247
-0.4180399 -0.19337246 -0.08848342 -0.042813033 -0.0638779 0.011944378 -0.063717894 -0.15400235
-0.057841256 -0.14962155 -0.049758047 -0.15099631 -0.020367637 -0.070098214 -0.019361205 -0.061277
-0.14998351 -0.08040258 -0.04491333 -0.0402557 -0.1094958 0.029332388 -0.036943045 -0.075740255
-0.09795158 -0.17586598 -0.00504561 -0.048668545 -0.0013730949 -0.026261609 -0.123309284 -0.07697718
-0.18129365 -0.14708678 -0.08596904 -0.031608213 -0.1358725 -0.2306451 -0.19645804 -0.119935445
-0.15487419 -0.04929586 -0.26319295 -0.12994896 -0.24067786 -0.04258028 -0.09228158 -0.015847955
00000000: 0d55 f6bd b86f c6bd 3d20 49bd 3ff8 42be
00000010: 3ad7 df38 a939 b4bd 0410 3ebe 08c7 2abe
00000020: ca23 29bd 3e3b 4bbe 23e6 aabe cc71 2abe
00000030: 91a7 61bc f267 90bd a677 90bd fb34 c0bc
00000040: e977 c2bd 51cf febd 2ab7 c8bc a710 babd
00000050: 861b 39be 68ce 1fbe 6c6a 85bd dffa 8fbe
00000060: e011 7fbd efe2 4ebe 9c38 dabd d51c 5dbd
00000070: f9ea 94bc fbac 33be 89bb 30be 15d2 63be
00000080: c239 4ebe db3c debc 8f33 adbd 5e13 55be
00000090: 1ffc 51be 09b1 693b b74e 1dbe b674 3fbd
000000a0: 6497 2abd 66e1 08be f5b6 34be 331d 37be
000000b0: c528 efbd 9bb7 08be 2773 babd c794 e1bd
000000c0: c3b0 87bd cad1 4dbd c1d9 06be 2474 cbbd
000000d0: 3711 debd 7834 6dbe 6323 0ebe bf0c cabd
000000e0: a020 c0bd 4386 17be 0bfa 02be d047 8dbd
000000f0: 956b 9abc 67f7 b7bd 8441 95bd 20cd 06be
00000100: e05a 9bbe 60d2 9dbc 02e7 93bd 63b1 4abe
00000110: b50c 31be 1050 c2bd a4eb b0bd 98a5 1ebe
00000120: 8e46 c1bb 4052 f2bd 4574 8dbe 4588 c6bd
00000130: 0231 61be 2a68 e3bd 05db e9bd ad85 f0bd
00000140: 5309 d6be 6e03 46be cc36 b5bd b85c 2fbd
00000150: 6bd2 82bd 5ab2 433c 877e 82bd cbb2 1dbe
00000160: f4ea 6cbd 6436 19be 18cf 4bbd c79e 1abe
00000170: 08da a6bc a78f 8fbd 649b 9ebc 97fd 7abd
00000180: 4795 19be 1caa a4bd 0af7 37bd 29e3 24bd
00000190: 563f e0bd 7a4a f03c 9751 17bd b51d 9bbd
000001a0: d79a c8bd 3616 34be a555 a5bb ab58 47bd
000001b0: 6bf9 b3ba 9622 d7bc 9489 fcbd 36a6 9dbd
000001c0: 0ba5 39be eb9d 16be 8910 b0bd 9d77 01bd
000001d0: 2922 0bbe 3b2e 6cbe 4c2c 49be b7a0 f5bd
000001e0: 5797 1ebe 75ea 49bd 3ac1 86be 5711 05be
000001f0: 4274 76be a968 2ebd 20fe bcbd 92d3 81bc

bn1.running_mean f4 [128]
-0.15913844 -0.0080933785 -0.11782746 -0.12586011 -0.123894386 -0.031609915 -0.1623912 -0.10908206
0.11138103 -0.07775181 0.011910948 -0.107131205 -0.11742902 -0.06472576 0.041743286 -0.08312227
0.150904 0.013235644 0.13208608 -0.12344372 0.13843122 0.03022471 -0.0061113266 0.041600168
0.07639376 0.03670901 -0.11178261 -0.0017205176 0.028607279 0.04262458 0.119181976 -0.13328826
-0.0759622 0.0052723135 -0.14839312 -0.009788679 0.080142304 -0.040914427 0.15666106 -0.08776499
0.11764759 -0.10619448 0.033990253 0.1318399 -0.15741771 0.063542336 0.13805138 0.11941836
0.13950996 -0.15011288 -0.010863501 0.13078202 -0.05053764 -0.15900852 -0.086755395 0.15494433
-0.09026202 -0.057806477 -0.11929198 -0.09935313 -0.038078103 -0.011823346 -0.08798441 -0.049359024
0.048062447 0.13343088 -0.13471957 -0.14567542 -0.14790341 0.0024240143 -0.036627393 -0.1404465
0.1105726 -0.062234722 0.03348801 -0.14933848 -0.00041683184 0.0060188603 -0.15254574 0.005034989
-0.017270103 -0.08707389 0.075846836 0.0225257 0.14268267 0.14253923 0.14506927 0.10833538
0.037215963 0.149079 0.059996173 0.02566733 -0.020736936 0.052295823 -0.024090754 -0.089724086
-0.07755479 -0.06532537 -0.017166443 0.06735582 -0.09982855 0.08899079 0.09931686 0.024759866
0.111063324 0.035155777 0.0033004112 0.11611197 0.12606402 -0.12665111 -0.028347943 0.0033428445
0.13558534 -0.06033389 -0.0014501859 0.0867383 0.03946434 -0.03824051 -0.055162158 0.01483062
-0.0030710185 -0.050873384 0.083888575 -0.12892368 0.13020977 0.06641639 -0.06662654 -0.04997358
00000000: 30f5 22be 179a 04bc 864f f1bd 79e1 00be
00000010: 57bc fdbd 6679 01bd e149 26be 6a66 dfbd
00000020: bd1b e43d 573c 9fbd 2326 433c 9b67 dbbd
00000030: a07e f0bd f08e 84bd 02fb 2a3d 023c aabd
00000040: 9486 1a3e 51da 583c 9341 073e 10d0 fcbd
00000050: eac0 0d3e d099 f73c 8641 c8bb f064 2a3d
00000060: 5574 9c3d 305c 163d 48ee e4bd fe82 e1ba
00000070: d059 ea3c 1d97 2e3d ae15 f43d b87c 08be
00000080: 1292 9bbd 5fc3 ac3b 5ef4 17be b260 20bc
00000090: a621 a43d e395 27bd c26b 203e 22be b3bd
000000a0: 38f1 f03d 7e7c d9bd 5d39 0b3d 0a01 073e
000000b0: 1c32 21be 7c22 823d 575d 0d3e 9d91 f43d
000000c0: b3db 0e3e 31b7 19be d3fc 31bc b9eb 053e
000000d0: 8e00 4fbd 21d3 22be d0ac b1bd baa9 1e3e
000000e0: 4bdb b8bd 7cc6 6cbd 5b4f f4bd a779 cbbd
000000f0: c9f7 1bbd b5b6 41bc 2c31 b4bd b02c 4abd
00000100: 21dd 443d 1ba2 083e edf3 09be f02b 15be
00000110: fe73 17be 36dc 1e3b 9b06 16bd 35d1 0fbe
00000120: e373 e23d d6e9 7ebd b92a 093d 30ec 18be
00000130: 398a dab9 dc39 c53b f334 1cbe 8dfc a43b
00000140: 087a 8dbc cc53 b2bd 9655 9b3d d187 b83c
00000150: 681b 123e cef5 113e 0a8d 143e f1de dd3d
00000160: c46f 183d 2aa8 183e 8cbe 753d 4b44 d23c
00000170: 82e0 a9bc 2534 563d f959 c5bc 43c1 b7bd
00000180: 0cd5 9ebd 4fc9 85bd a4a0 8cbc d9f1 893d
00000190: e972 ccbd ce40 b63d a366 cb3d 34d5 ca3c
000001a0: 2b75 e33d 81ff 0f3d b64b 583b 1dcc ed3d
000001b0: ed16 013e d4b0 01be f239 e8bc a013 5b3b
000001c0: e2d6 0a3e ab20 77bd 2a14 beba daa3 b13d
000001d0: 5ca5 213d 15a2 1cbd b7f1 61bd 21fc 723c
000001e0: 2443 49bb 9c60 50bd c6cd ab3d 9204 04be
000001f0: b655 053e 5105 883d 7f73 88bd 19b1 4cbd

bn1.running_var f4 [128]
0.28464082 0.25076595 0.27409256 0.15529677 0.07127366 0.16205093 0.058519393 0.22576667
0.23301357 0.23982003 0.25404257 0.11667127 0.36905503 0.3677405 0.32637224 0.14693333
0.21327598 0.13331027 0.26382554 0.08022345 0.28710425 0.6120985 0.07604571 0.19624874
0.36239412 0.50962216 0.21282373 0.25313088 0.2567122 0.122079656 0.29015705 0.14291449
0.24081966 0.15399022 0.088810906 0.123606175 0.28992602 0.16970766 0.28696835 1.0165997
0.18084095 0.23571792 0.12521543 0.11275979 0.28913128 0.25511426 0.22984725 0.19747512
0.33045784 0.12218219 0.17349364 0.16962738 0.22241323 0.06691293 0.31767538 0.5135464
0.098838925 0.11007823 0.1511011 0.80304223 0.16369951 0.2026996 0.26692382 0.11909769
0.10815637 1.1476536 0.39319193 0.14225847 0.48394313 0.37180504 0.3675548 0.1373049
0.16513261 0.19728707 0.10123134 0.35250857 0.18328254 0.17535737 0.10488668 0.21994428
0.115502425 0.37332055 0.36997274 0.16722213 0.3233462 0.16282782 0.14034957 0.45123252
0.10914693 0.12426523 0.2953441 0.1066438 0.2703898 0.13119783 0.15247092 0.2119923
0.30344507 0.53030246 0.15426302 0.18340117 0.26223963 0.2917258 0.32212642 0.17153133
0.4475022 0.1683733 0.27367994 0.10404929 0.351715 0.49055958 0.27879435 0.70742214
0.2917377 0.13161549 0.22030865 0.43580285 0.21436371 0.22508432 0.2168933 0.30524793
0.22843653 0.23805837 0.23101452 0.18853863 0.16907895 0.24493355 0.13307914 0.15592924
00000000: 71bc 913e 6564 803e dc55 8c3e 1e06 1f3e
00000010: edf7 913d aef0 253e 08b2 6f3d 612f 673e
00000020: 1c9b 6e3e 6293 753e de11 823e 59f1 ee3d
00000030: c8f4 bc3e 7c48 bc3e 431a a73e b175 163e
00000040: 0565 5a3e 7d82 083e 2414 873e 314c a43d
00000050: 54ff 923e 7db2 1c3f dabd 9b3d 6ef5 483e
00000060: b98b b93e 9976 023f 77ee 593e 5f9a 813e
00000070: c86f 833e e604 fa3d 778f 943e 2d58 123e
00000080: 6e99 763e 9daf 1d3e 7ee2 b53d 3c25 fd3d
00000090: 2f71 943e d8c7 2d3e 84ed 923e f01f 823f
000000a0: 5f2e 393e 0a60 713e 7938 003e 9bee e63d
000000b0: 0409 943e 569e 823e 145d 6b3e eb36 4a3e
000000c0: c531 a93e a83a fa3d 51a8 313e cdb2 2d3e
000000d0: 4bc0 633e a509 893d 59a6 a23e c777 033f
000000e0: 106c ca3d b270 e13d 3fba 1a3e 2d94 4d3f
000000f0: d8a0 273e 7c90 4f3e 3daa 883e 7de9 f33d
00000100: 1681 dd3d 50e6 923f 7450 c93e 34ac 113e
00000110: 65c7 f73e 3b5d be3e 2530 bc3e a899 0c3e
00000120: 8618 293e 9f05 4a3e 6052 cf3d 017c b43e
00000130: 6bae 3b3e e290 333e d4ce d63d 1339 613e
00000140: 898c ec3d df23 bf3e 116d bd3e 473c 2b3e
00000150: a28d a53e 56bc 263e ccb7 0f3e f307 e73e
00000160: 6d88 df3d c57e fe3d 5837 973e 1168 da3d
00000170: 8870 8a3e b958 063e 5621 1c3e 8214 593e
00000180: 275d 9b3e e7c1 073f 20f7 1d3e 84cd 3b3e
00000190: 4644 863e 165d 953e c1ed a43e e9a5 2f3e
000001a0: 021f e53e 0d6a 2c3e c71f 8c3e cb17 d53d
000001b0: fd13 b43e a02a fb3e 22be 8e3e 9e19 353f
000001c0: a55e 953e 36c6 063e 9798 613e 8d21 df3e
000001d0: 2982 5b3e 817c 663e 4719 5e3e 7549 9c3e
000001e0: 44eb 693e 93c5 733e 128f 6c3e 4510 413e
000001f0: 0823 2d3e dccf 7a3e e645 083e eaab 1f3e

fc2.weight f4 [64, 128]
-0.062482703 0.059491694 0.06940471 -0.07547239 0.024589958 -0.029609846 0.0042715482 -0.028461548
-0.029545033 -0.035238158 -0.11966572 -0.123226024 0.12543477 0.03132912 0.09184235 -0.048012298
-0.072067015 0.06034282 0.020409983 0.013918331 -0.048883393 -0.001129198 0.0110558355 -0.17355424
0.014307178 0.06911781 0.06827722 -0.03560576 0.060762692 0.1057104 0.07114398 -0.090400144
-0.06033228 0.054844 -0.0109031815 -0.028671304 -0.12439632 -0.04667322 0.034387056 0.020939955
0.04133612 -0.034596175 -0.049199514 0.02356991 0.045298446 -0.018337613 0.027046341 0.05319097
0.186952 0.017763827 0.022470605 0.12019073 -0.038144667 0.023798842 0.012045408 0.023007894
-0.06015201 -0.077320404 -0.052025482 -0.10558909 0.049672995 -0.0049628597 -0.056198467 -0.026277356
0.0092438115 0.03274503 -0.018134044 -0.10535691 0.027328849 -0.0071132444 -0.07661536 -0.03495309
-0.01342653 -0.03892937 -0.025382135 0.017431928 0.032132976 0.08399969 -0.01585291 -0.00093047036
0.003488207 0.04375965 -0.0724584 -0.10147767 -0.05773634 0.013413684 0.042161744 -0.06477891
-0.080466636 0.05169839 0.023178387 0.014266646 0.06619494 -0.00036561905 0.015263469 0.10727276
0.022421088 -0.056350898 -0.06064922 -0.016536219 0.01983561 -0.05684456 0.0574381 0.0068277367
-0.084670514 -0.0020944113 0.08206954 -0.114546895 -0.011071969 -0.043430667 0.03992205 0.05066747
-0.028716285 -0.008241902 0.06616521 0.008626976 0.017031929 0.04827139 -0.050438154 0.03015106
-0.038342085 -0.07152722 -0.085895255 -0.13897313 -0.020791499 -0.056537133 0.03174852 -0.0058992086
-0.033419803 0.07844998 0.05477271 -0.102595076 0.017586086 0.024343321 -0.08310928 -0.030850582
-0.064377 -0.019091837 -0.1555587 -0.07998221 -0.030401733 -0.07996246 -0.09621553 0.07948361
-0.07337964 0.0019807096 0.065576285 -0.11785296 0.023472203 -0.058992278 0.072439834 -0.09657947
0.055891067 -0.010378659 0.0036890788 0.052286033 0.07764879 -0.021446427 0.015085805 -0.01080066
-0.14253542 -0.06764146 0.0755305 0.0038342862 0.037979126 0.014174192 0.027493658 0.010236081
-0.024838004 -0.06360944 -0.06321949 -0.021692844 -0.010230837 -0.0037464807 0.023850255 0.033644736
0.06799079 0.090904854 0.039778214 0.10911957 -0.0717522 -0.07670994 -0.1419453 0.012665177
-0.046223428 0.023196103 0.007166251 -0.0013641933 0.030581458 -0.022135317 -0.004985966 0.012919216
0.01823959 -0.035794213 -0.00701788 -0.054403543 -0.010751029 0.042303525 0.0036755074 0.0075708143
0.08483459 0.01929149 -0.05194012 0.037216343 -0.06496529 0.03808997 -0.017281732 -0.08794704
-0.16734298 -0.028160315 -0.075754106 -0.014499591 -0.02414782 -0.00060413114 0.0036148818 -0.026514402
-0.033890307 -0.118742965 0.103116155 -0.06451808 -0.07353998 -0.007640583 -0.0075267856 0.06321187
-0.05230196 0.02857167 -0.086280786 -0.044122297 0.16475 0.031144692 -0.017435739 0.024461726
-0.09806778 0.02758792 -0.00039594393 -0.103291795 -0.048348293 -0.029316887 0.014101684 -0.059897475
0.06609895 -0.11786792 0.22764081 0.06127129 0.05293692 -0.002884104 0.024240104 -0.017296309
-0.032029822 0.024434777 -0.08534959 0.03323359 -0.07438427 -0.01042532 -0.061500162 -0.055146474
00000000: dded 7fbd 90ad 733d 0e24 8e3d 4591 9abd
00000010: e170 c93c 5990 f2bc 58f8 8b3b 3128 e9bc
00000020: 6d08 f2bc e355 10bd 4d13 f5bd ed5d fcbd
00000030: f971 003e f752 003d d817 bc3d 8ba8 44bd
00000040: df97 93bd 082a 773d d632 a73c b609 643c
00000050: f439 48bd 9901 94ba 8923 353c 34b8 31be
00000060: a768 6a3c a38d 8d3d edd4 8b3d 58d7 11bd
00000070: 4de2 783d b27e d83d efb3 913d b623 b9bd
00000080: fb1e 77bd 1aa4 603d 42a3 32bc 15e0 eabc
00000090: 7fc3 febd 6b2c 3fbd 71d9 0c3d 458a ab3c
000000a0: 1050 293d b8b4 0dbd 6e85 49bd af15 c13c
000000b0: dd8a 393d c338 96bc 4a90 dd3c c6de 593d
000000c0: 5870 3f3e 7285 913c 4614 b83c 8f26 f63d
000000d0: 953d 1cbd caf5 c23c 1a5a 453c 0d7b bc3c
000000e0: f461 76bd 295a 9ebd ac18 55bd 183f d8bd
000000f0: e975 4b3d 7c9f a2bb 5d30 66bd 9c43 d7bc
00000100: 5b73 173c a71f 063d d98d 94bc 5dc5 d7bd
00000110: c0e0 df3c 3816 e9bb 84e8 9cbd f92a 0fbd
00000120: f3fa 5bbc 6774 1fbd 32ee cfbc 67cd 8e3c
00000130: de9d 033d 0808 ac3d f6dd 81bc cfea 73ba
00000140: 679a 643b 523d 333d 1265 94bd 86d3 cfbd
00000150: f17c 6cbd 12c5 5b3c cbb1 2c3d ceaa 84bd
00000160: b1cb a4bd b1c1 533d 9ae0 bd3c a6be 693c
00000170: 3691 873d 8fb0 bfb9 a113 7a3c d2b1 db3d
00000180: 6eac b73c 33d0 66bd 516b 78bd f776 87bc
00000190: 4a7e a23c d7d5 68bd 3744 6b3d 35bb df3b
000001a0: bc67 adbd 6442 09bb 1314 a83d 9097 eabd
000001b0: 3467 35bc 5be4 31bd 4e85 233d b188 4f3d
000001c0: 6a3e ebbc 0b09 07bc a081 873d 2958 0d3c
000001d0: 8b86 8b3c 39b8 453d 3d98 4ebd 5bff f63c
000001e0: 970c 1dbd dd7c 92bd dae9 afbd f94e 0ebe
000001f0: ef52 aabc 7b93 67bd bc0a 023d 264e c1bb
00000200: 34e3 08bd 62aa a03d 5959 603d 5e1d d2bd
00000210: b210 903c a56b c73c 3335 aabd 5cba fcbc
00000220: 17d8 83bd 7c66 9cbc c84a 1fbe b7cd a3bd
00000230: 0e0d f9bc 5cc3 a3bd a60c c5bd 4ec8 a23d
00000240: 1148 96bd cbce 013b dc4c 863d e55c f1bd
00000250: c748 c03c e3a1 71bd 565b 943d 75cb c5bd
00000260: 08ee 643d 400b 2abc 79c4 713b e129 563d
00000270: 5406 9f3d 6bb0 afbc 742a 773c 40f5 30bc
00000280: cef4 11be 9b87 8abd bcaf 9a3d a648 7b3b
00000290: 0090 1b3d df3a 683c 613a e13c 3cb5 273c
000002a0: 1279 cbbc ab45 82bd 3879 81bd 31b5 b1bc
000002b0: 3e9f 27bc 8487 75bb 9c61 c33c 10cf 093d
000002c0: c13e 8b3d 532c ba3d 7bee 223d 157a df3d
000002d0: d1f2 92bd 1a1a 9dbd 1c5a 11be 9a81 4f3c
000002e0: c754 3dbd c105 be3c dfd2 ea3b bbce b2ba
000002f0: f785 fa3c 2055 b5bc 5061 a3bb 1fab 533c
00000300: 316b 953c f49c 12bd 3ff6 e5bb 40d6 5ebd
00000310: 1525 30bc 7646 2d3d c8e0 703b 9814 f83b
00000320: c2bd ad3d 3009 9e3c 2abf 54bd 2a70 183d
00000330: 860c 85bd 3a04 1c3d 6b92 8dbc 941d b4bd
00000340: f55b 2bbe 76b0 e6bc f824 9bbd b18f 6dbc
00000350: a6d1 c5bc 8e5e 1eba a7e7 6c3b bb34 d9bc
00000360: 90d0 0abd 832f f3bd 902e d33d 0e22 84bd
00000370: 219c 96bd db5d fabb 41a3 f6bb 3a75 813d
00000380: 943a 56bd 230f ea3c fbb3 b0bd 95b9 34bd
00000390: 39b4 283e 2723 ff3c 65d5 8ebc f563 c83c
000003a0: c3d7 c8bd 1000 e23c b296 cfb9 a68a d3bd
000003b0: dc08 46bd f829 f0bc c00a 673c 0e57 75bd
000003c0: e35e 873d bc64 f1bd ac1a 693e 9bf7 7a3d
000003d0: 62d4 583d 3c03 3dbb 2f93 c63c fdb0 8dbc
000003e0: b431 03bd 712b c83c c4cb aebd f21f 083d
000003f0: c856 98bd f6ce 2abc 98e7 7bbd 45e1 61bd

fc2.bias f4 [64]
-0.010584433 0.028216258 0.080739744 0.056587283 0.026575698 -0.07508275 -0.0073454566 -0.010487451
-0.03488942 -0.07927762 0.06192442 -0.03168772 -0.07803999 -0.06476242 0.030766264 -0.06603088
0.02919209 0.057824854 -0.0784651 -0.05085522 0.04554541 0.02163709 0.039323673 -0.021914992
-0.01413629 0.07767825 0.0683204 -0.03126206 0.04403938 0.029183855 0.080460094 -0.07569021
-0.08793792 0.04304985 0.019351618 0.059046976 0.04037552 0.063703544 -0.008044582 0.08734683
-0.027204892 -0.05471473 -0.08216084 -0.08514394 0.008773547 0.042743135 -0.07292226 -0.044970542
0.068496525 0.027834885 0.07449167 0.013947316 0.045412764 -0.0524463 0.041819464 0.0004755513
0.032880902 0.0031091005 0.025297334 0.0019615358 -0.07720229 0.07089384 -0.0022915653 -0.03686989
00000000: 546a 2dbc c825 e73c e15a a53d 11c8 673d
00000010: 47b5 d93c fcc4 99bd 28b2 f0bb 8fd3 2bbc
00000020: 35e8 0ebd 4e5c a2bd 76a4 7d3d fcca 01bd
00000030: 6ed3 9fbd 29a2 84bd 8809 fc3c 333b 87bd
00000040: 4024 ef3c c1d9 6c3d 4fb2 a0bd 904d 50bd
00000050: d38d 3a3d 4440 b13c dc11 213d 1287 b3bc
00000060: e69b 67bc c615 9f3d 91eb 8b3d a50c 00bd
00000070: a362 343d fb12 ef3c 43c8 a43d 7803 9bbd
00000080: cc18 b4bd 0a55 303d 4987 9e3c 3edb 713d
00000090: cd60 253d 0177 823d 6ccd 03bc e5e2 b23d
000000a0: cbdc debc 8d1c 60bd f143 a8bd f25f aebd
000000b0: ecbe 0f3c 6d13 2f3d 4458 95bd 0833 38bd
000000c0: e847 8c3d fc05 e43c 178f 983d 4983 643c
000000d0: bc02 3a3d eed1 56bd e34a 2b3d 6a53 f939
000000e0: 20ae 063d 0dc2 4b3b 5b3c cf3c 1c8d 003b
000000f0: 3c1c 9ebd ca30 913d 162e 16bb e204 17bd

bn2.weight f4 [64]
1.091294 1.0581068 1.044861 0.97177595 1.0380783 1.1201582 0.97328025 0.980862
1.0402628 0.98249394 1.0580411 1.0209028 1.0578246 0.9830722 1.10304 0.975631
0.9914513 1.0428923 1.0768312 1.0956799 1.0619161 1.0207065 0.95194614 1.0633957
0.9692767 1.0474228 0.97412366 0.989689 0.9564597 0.94091433 0.87796694 1.1329479
0.96475494 1.0022553 0.94880015 0.97811985 0.99315387 1.0179942 1.036487 1.037226
1.0075606 1.044877 1.1208794 1.0580208 1.0099564 1.0404872 1.1140308 1.0448639
1.0169812 1.0339941 0.9793627 1.0111592 0.9648482 0.9920555 1.022913 1.1699785
0.9896601 0.94684595 1.1145047 1.0211684 1.0874875 0.9789296 0.987391 1.0300537
00000000: 86af 8b3f 0b70 873f 01be 853f 4fc6 783f
00000010: c0df 843f 5861 8f3f e528 793f c619 7b3f
00000020: 5527 853f b984 7b3f e46d 873f f1ac 823f
00000030: cc66 873f 9faa 7b3f 6a30 8d3f f4c2 793f
00000040: c1cf 7d3f 7f7d 853f 9bd5 893f 3d3f 8c3f
00000050: deec 873f 83a6 823f beb2 733f 5a1d 883f
00000060: 8522 783f f311 863f 2b60 793f 425c 7d3f
00000070: 8bda 743f c3df 703f 71c2 603f 7004 913f
00000080: 2efa 763f e749 803f 91e4 723f 1066 7a3f
00000090: 553f 7e3f a24d 823f 9bab 843f d2c3 843f
000000a0: bff7 803f 88be 853f fa78 8f3f 3a6d 873f
000000b0: 4046 813f af2e 853f 9098 8e3f 1abe 853f
000000c0: 712c 823f eb59 843f 84b7 7a3f aa6d 813f
000000d0: 4b00 773f 59f7 7d3f d0ee 823f dbc1 953f
000000e0: 5d5a 7d3f 7f64 723f 17a8 8e3f a5b5 823f
000000f0: ca32 8b3f 219b 7a3f a8c5 7c3f cdd8 833f

bn2.bias f4 [64]
-0.09432138 -0.054302476 -0.13801476 -0.015059387 0.07772314 0.06534948 -0.034062 -0.06376449
-0.016445758 -0.11504717 0.06512534 0.04954134 0.14128669 -0.20757839 0.10827776 -0.09592669
-0.12464277 0.14900279 -0.036650233 -0.07218419 -0.24101612 0.026368046 -0.08649288 -0.17047925
-0.14984854 0.088399425 0.00012290772 -0.04645901 -0.32080638 0.011232929 -0.20483097 0.033027176
-0.10779117 -0.09584425 -0.0631213 -0.09881079 -0.16065444 0.1294186 0.1800608 0.029667838
-0.1809855 -0.025807234 0.017002491 0.10042118 -0.10807617 0.12898804 0.08385669 -0.09691678
-0.075239174 -0.2004315 -0.08775696 -0.051075734 -0.07628179 -0.11740136 0.13459046 -0.1515877
-0.16015206 -0.0979205 -0.03416326 -0.097244985 -0.009056511 -0.025500158 -0.3309884 -0.06826387
00000000: 912b c1bd 466c 5ebd be53 0dbe a6bb 76bc
00000010: 4f2d 9f3d f3d5 853d 9984 0bbd f596 82bd
00000020: 41b9 86bc da9d ebbd 6f60 853d dceb 4a3d
00000030: 75ad 103e 6e8f 54be bbc0 dd3d 3675 c4bd
00000040: b544 ffbd 3094 183e 8e1e 16bd 4ed5 93bd
00000050: eecc 76be cd01 d83c 2e23 b1bd 1d92 2ebe
00000060: e571 19be c20a b53d cae0 0039 ce4b 3ebd
00000070: bc40 a4be 520a 383c 36bf 51be 8147 073d
00000080: 9ec1 dcbd fd49 c4bd bd45 81bd 505d cabd
00000090: 9982 24be 4f86 043e dc61 383e f709 f33c
000000a0: 4354 39be b169 d3bc cf48 8b3c 9fa9 cd3d
000000b0: 0a57 ddbd 7115 043e 0ebd ab3d 4e7c c6bd
000000c0: ff16 9abd ea3d 4dbe ecb9 b3bd ca34 51bd
000000d0: a139 9cbd 2070 f0bd 15d2 093e ce39 1bbe
000000e0: e7fe 23be 8b8a c8bd c6ee 0bbd 6128 c7bd
000000f0: c361 14bc b5e5 d0bc 5077 a9be eecd 8bbd

bn2.running_mean f4 [64]
-0.24037455 -0.2018783 -0.12255899 -0.035189115 0.2514192 0.0033489328 -0.22941469 -0.22200944
-0.19545446 -0.2361877 0.18898377 0.18302576 -0.09955951 -0.36938214 0.40727305 -0.017299145
0.012585225 -0.07339903 -0.26126263 -0.24984072 -0.22064452 -0.23642817 -0.25953782 0.06567966
-0.15426344 0.11154716 -0.11302561 -0.23334228 -0.12841019 -0.08500249 0.10509073 -0.17894314
-0.32586536 -0.10329888 -0.032852292 -0.21551849 -0.11144303 0.16030969 0.09108482 -0.12418889
-0.23249413 -0.07698314 -0.11150216 -0.06617135 -0.21828952 0.18586226 0.08236496 -0.26397684
-0.2887556 -0.32767746 -0.007020483 0.12923282 0.3777598 -0.40546018 0.06600318 -0.250897
-0.23206322 0.04459136 -0.06316959 -0.23087515 -0.22166872 -0.3075829 -0.10833134 -0.11782152
00000000: bf24 76be 2fb9 4ebe 3500 fbbd 7622 10bd
00000010: 04ba 803e c579 5b3b afeb 6abe 7156 63be
00000020: 3725 48be 30db 71be f684 413e 1b6b 3b3e
00000030: dbe5 cbbd a81f bdbe 1886 d03e f0b6 8dbc
00000040: 4232 4e3c 3b52 96bd 37c4 85be 3fd6 7fbe
00000050: a3f0 61be 3a1a 72be 24e2 84be 0f83 863d
00000060: 3cf7 1dbe d672 e43d f979 e7bd 47f1 6ebe
00000070: f67d 03be c915 aebd cf39 d73d df3c 37be
00000080: d3d7 a6be 5d8e d3bd 2090 06bd e1b0 5cbe
00000090: 3e3c e4bd 3928 243e ae8a ba3d bf56 febd
000000a0: f112 6ebe 56a9 9dbd 3f5b e4bd d884 87bd
000000b0: 4a87 5fbe ad52 3e3e f6ae a83d f927 87be
000000c0: c6d7 93be 57c5 a7be 140c e6bb 9c55 043e
000000d0: bc69 c13e 7a98 cfbe ad2c 873d 9275 80be
000000e0: fba1 6dbe 6ea5 363d 0f5f 81bd 896a 6cbe
000000f0: 20fd 62be 827b 9dbe d2dc ddbd 694c f1bd

bn2.running_var f4 [64]
0.29137507 0.38392827 0.46720538 0.3475238 0.9760195 0.8165547 0.33403492 0.45884284
0.31442004 0.30591795 1.1637688 0.320045 0.965516 0.30903348 0.8935526 0.2982052
0.16621827 0.52610594 0.323366 0.51142156 0.37872177 0.35220852 0.39031714 0.2248026
0.35732564 0.7243573 0.63790834 0.4496298 0.15183662 0.39875966 0.38238394 0.43412566
0.58713764 0.2147349 0.19438829 0.29033428 0.18355177 0.7134336 0.46597528 0.31366095
0.36926302 0.50926125 0.33266705 0.6570081 0.3835834 1.094404 0.9993606 0.39248
0.5433625 0.4798326 0.31306463 0.51809347 0.5104528 0.30968833 0.64585537 0.43667755
0.44940165 0.33784127 0.45245123 0.35408258 0.25159073 0.37364158 0.16612287 0.41507956
00000000: 1d2f 953e 3f92 c43e 8b35 ef3e a4ee b13e
00000010: 6adc 793f bb09 513f a006 ab3e 73ed ea3e
00000020: aafb a03e 47a1 9c3e 60f6 943f f0dc a33e
00000030: 0e2c 773f a339 9e3e ddbf 643f 5aae 983e
00000040: 1f35 2a3e e1ae 063f 3a90 a53e 86ec 023f
00000050: d2e7 c13e ad54 b43e a6d7 c73e a732 663e
00000060: 63f3 b63e 7b6f 393f f64d 233f e135 e63e
00000070: 0f7b 1b3e 3a2a cc3e d4c7 c33e b845 de3e
00000080: a74e 163f 77e3 5b3e b90d 473e b2a6 943e
00000090: fff4 3b3e 96a3 363f 5094 ee3e 2b98 a03e
000000a0: 0b10 bd3e f25e 023f 5653 aa3e af31 283f
000000b0: 0b65 c43e 6e15 8c3f 19d6 7f3f 23f3 c83e
000000c0: ce19 0b3f 9eac f53e 024a a03e c6a1 043f
000000d0: 09ad 023f 788f 9e3e c756 253f 3394 df3e
000000e0: f917 e63e 88f9 ac3e b0a7 e73e 504a b53e
000000f0: 80d0 803e f34d bf3e 1d1c 2a3e 4f85 d43e

fc3.weight f4 [32, 64]
-0.08444608 -0.063825905 -0.05966026 -0.019387385 -0.03646275 -0.14967649 -0.051692046 -0.03835177
-0.0513162 -0.024427382 0.034355517 -0.017532736 -0.067104235 0.0072855926 -0.10538244 -0.0026823047
0.055761807 0.008986408 0.0058486154 0.041011985 0.076144956 -0.24112837 0.08587617 0.050946936
-0.019565163 -0.14765929 -0.0687952 0.015846783 -0.040114384 0.07818487 -0.0036346132 -0.07755427
-0.023544397 -0.002031676 -0.09216383 -0.1399761 -0.077240095 0.038648423 -0.10873961 -0.1385353
0.102814496 -0.036262084 -0.121512696 -0.1455946 0.078154035 -0.19597808 -0.09625867 0.0058410927
0.0045075393 0.11158751 -0.087328926 0.0501961 0.038799897 -0.13395964 -0.10053806 -0.17456925
0.03750594 0.01457285 -0.0013586796 0.03122264 -0.07502312 0.05678752 0.06686406 -0.0035709483
0.047781754 -0.049459826 0.044280577 -0.055881955 -0.031502612 -0.20576358 -0.017342253 0.06316592
-0.0074406364 0.058336116 -0.13803458 -0.08788347 -0.1363411 -0.052329097 -0.022488965 0.05496137
0.060253166 -0.020205926 0.029781895 -0.01707479 -0.03062058 -0.014639868 0.08006454 0.04456807
0.06396433 -0.06533751 0.039108805 0.013947765 -0.07409793 0.0405847 -0.056958314 0.02218781
0.08104939 0.033525404 0.034714937 0.09056186 0.08357204 -0.14387098 0.03260828 0.040690307
-0.070975296 0.1060573 -0.17022285 -0.07300664 0.06336254 -0.1088727 -0.09290467 0.014589961
0.004417402 -0.05359523 -0.032087825 0.049178537 -0.06979961 0.027701627 -0.04628758 -0.082193114
-0.03798704 0.045504123 0.00684955 0.068254925 -0.035073504 0.011776879 0.056869727 -0.029860383
-0.041680016 -0.07198749 -0.0025901045 -0.008563402 -0.12959538 -0.10325086 -0.08724507 -0.026467456
0.10485952 -0.014127851 -0.08163633 -0.066046424 -0.05327531 -0.08221078 -0.026105806 -0.027913844
-0.028375063 -0.16814025 0.12090966 -0.08295406 -0.017159302 0.008112631 -0.039125085 0.008030813
-0.05179256 -0.17709723 -0.07473837 0.12381748 0.031508073 -0.0076948535 -0.03795719 0.119623154
-0.123859115 -0.037017208 0.030984601 -0.074836664 0.008012079 -0.037442535 -0.07708324 -0.007091539
-0.03032665 0.053213734 -0.15717709 -0.09414748 0.08569409 -0.018663494 -0.045360684 0.030536124
0.07228448 0.06660308 -0.0252462 -0.057467055 0.021324852 -0.06527306 0.0071042716 -0.011868321
-0.044036545 -0.11521172 -0.088508315 0.10264072 0.10360212 0.020491794 0.015935177 0.013612672
0.0055958405 -0.105511464 0.07706514 -0.18046328 -0.020577233 -0.14459047 0.040419046 0.039544612
0.036839325 0.08817605 -0.15846705 -0.17440993 -0.13688196 0.048155475 -0.022795597 -0.050973136
-0.026807008 -0.10746539 0.036247466 0.042117704 0.029995445 -0.12154872 0.02073698 0.050399866
0.076783866 -0.022562917 -0.15982081 -0.0047315853 -0.035966292 -0.052740782 0.0011176444 -0.0015119221
0.069941394 -0.0011105789 0.012432569 -0.015775343 0.06854207 -0.1261715 -0.029672988 -0.14718333
-0.031317573 0.050879456 -0.25703263 -0.00064730895 0.017102202 -0.15531063 -0.02838026 0.044411812
0.043931987 0.099771015 -0.092631154 -0.021270186 -0.06612605 -0.042354476 -0.1359992 -0.17819087
-0.011019373 0.016537555 -0.14292969 0.060192786 0.024106273 0.023666048 0.012332275 0.060651116
00000000: 11f2 acbd 28b7 82bd 515e 74bd 4bd2 9ebc
00000010: f759 15bd cb44 19be 0abb 53bd bf16 1dbd
00000020: f030 52bd ef1b c8bc 5fb8 0c3d d0a0 8fbc
00000030: f26d 89bd fbbb ee3b c0d2 d7bd 9bc9 2fbb
00000040: 7e66 643d ba3b 133c bea5 bf3b 2ffc 273d
00000050: e3f1 9b3d 5bea 76be d8df af3d bcad 503d
00000060: 1f47 a0bc ff33 17be 7fe4 8cbd 1dd1 813c
00000070: fb4e 24bd 641f a03d b132 6ebb c6d4 9ebd
00000080: 2ee0 c0bc de25 05bb 64c0 bcbd e555 0fbe
00000090: 0e30 9ebd cf4d 1e3d dfb2 debd 33dc 0dbe
000000a0: 6890 d23d 8d87 14bd a6db f8bd c016 15be
000000b0: 390f a03d 7aae 48be 4423 c5bd a366 bf3b
000000c0: fbb3 933b fe87 e43d 82d9 b2bd 6d9a 4d3d
000000d0: a4ec 1e3d b72c 09be e6e6 cdbd 48c2 32be
000000e0: d49f 193d f7c2 6e3c b915 b2ba 9fc6 ff3c
000000f0: b9a5 99bd 089a 683d 06f0 883d 9206 6abb
00000100: cdb6 433d 6396 4abd 8d5f 353d 7ae4 64bd
00000110: e208 01bd b0b3 52be 5711 8ebc 225d 813d
00000120: 95d0 f3bb daf1 6e3d f058 0dbe 40fc b3bd
00000130: 009d 0bbe 0957 56bd c73a b8bc 2c1f 613d
00000140: 06cc 763d e686 a5bc 29f9 f33c 6ee0 8bbc
00000150: 03d8 fabc 0fdc 6fbc e1f8 a33d 028d 363d
00000160: bbff 823d accf 85bd 8e30 203d 2b85 643c
00000170: a8c0 97bd 243c 263d 1f4d 69bd 36c3 b53c
00000180: 39fd a53d ef51 093d 4031 0e3d 7f78 b93d
00000190: d127 ab3d ea52 13be 4390 053d e1aa 263d
000001a0: 7f5b 91bd 9234 d93d e64e 2ebe 8184 95bd
000001b0: 38c4 813d a6f8 debd ce44 bebd bb0a 6f3c
000001c0: dbbf 903b ac86 5bbd 866e 03bd 6f6f 493d
000001d0: 19f3 8ebd 86ee e23c 0c98 3dbd dd54 a8bd
000001e0: 4c98 1bbd 8862 3a3d 3172 e03b 3dc9 8b3d
000001f0: 3ca9 0fbd d0f3 403c 3bf0 683d c39d f4bc
00000200: aab8 2abd 2d6e 93bd bebe 29bb 834d 0cbc
00000210: a7b4 04be 3075 d3bd 8bad b2bd 47d2 d8bc
00000220: 97c0 d63d 8178 67bc f330 a7bd 5943 87bd
00000230: 3637 5abd 205e a8bd d8db d5bc 93ab e4bc
00000240: d272 e8bc f52c 2cbe 7c9f f73d d1e3 a9bd
00000250: aa91 8cbc d7ea 043c a041 20bd ac93 033c
00000260: 6f24 54bd fa58 35be 6e10 99bd 0594 fd3d
00000270: 9c0e 013d 1c25 fcbb 0079 1bbd fcfc f43d
00000280: d9a9 fdbd 5b9f 17bd 6bd3 fd3c f743 99bd
00000290: 1845 033c 585d 19bd d1dd 9dbd 2460 e8bb
000002a0: 986f f8bc a5f6 593d 08f3 20be 65d0 c0bd
000002b0: 6280 af3d 2fe4 98bc 20cc 39bd e526 fa3c
000002c0: e309 943d 3267 883d 1ed1 cebc 9362 6bbd
000002d0: 75b1 ae3c e2ad 85bd f3ca e83b 5973 42bc
000002e0: aa5f 34bd 1ff4 ebbd d943 b5bd 4c35 d23d
000002f0: 592d d43d 68de a73c 7d8a 823c af07 5f3c
00000300: 505d b73b 6516 d8bd 54d4 9d3d 5ecb 38be
00000310: 9691 a8bc 860f 14be 718e 253d 88f9 213d
00000320: d5e4 163d a595 b43d 3045 22be 8498 32be
00000330: c92a 0cbe ad3e 453d d5bd babc 35c9 50bd
00000340: 5f9a dbbc d016 dcbd 3978 143d 9d83 2c3d
00000350: 02b9 f53c 89ee f8bd 99e0 a93c 1770 4e3d
00000360: dc40 9d3d ded5 b8bc 11a8 23be 6a0b 9bbb
00000370: 6451 13bd b806 58bd ec7d 923a b02b c6ba
00000380: 6f3d 8f3d d890 91ba f9b1 4b3c 4b3b 81bc
00000390: c95f 8c3d 1a33 01be c414 f3bc 3ab7 16be
000003a0: db46 00bd fa66 503d c899 83be 2bb0 29ba
000003b0: eb19 8c3c c009 1fbe b87d e8bc 29e9 353d
000003c0: 07f2 333d bf54 cc3d 67b5 bdbd d03e aebc
000003d0: 186d 87bd e37b 2dbd 6043 0bbe ab77 36be
000003e0: 9a8a 34bc c479 873c 295c 12be b68c 763d
000003f0: 857a c53c 4ddf c13c 4f0d 4a3c 4e6d 783d

fc3.bias f4 [32]
0.073573574 0.0023878731 0.07016836 0.07781236 0.03459952 0.11582309 0.0035518715 0.06529692
-0.022893883 0.04675711 -0.1040782 0.119034186 -0.06681649 -0.05825436 -0.024552394 -0.011518943
0.08788673 -0.12093807 0.08816938 -0.11944926 -0.07640598 -0.08471107 0.022226542 0.033585243
-0.09347343 -0.11365609 -0.103578016 -0.112477355 0.03040636 -0.013350021 0.020105274 0.007643622
00000000: bead 963d dd7d 1c3b 6eb4 8f3d 165c 9f3d
00000010: 3ab8 0d3d a834 ed3d 84c6 683b 64ba 853d
00000020: f48b bbbc 6284 3f3d f426 d5bd 32c8 f33d
00000030: 15d7 88bd 209c 6ebd 1a22 c9bc f3b9 3cbc
00000040: f5fd b33d 61ae f7bd 2692 b43d d0a1 f4bd
00000050: bd7a 9cbd ff7c adbd 7014 b63c ae90 093d
00000060: ff6e bfbd 86c4 e8bd b620 d4bd 875a e6bd
00000070: c216 f93c 0cba 5abc d1b3 a43c 5977 fa3b

bn3.weight f4 [32]
0.9940584 0.8649238 1.3194079 1.4887301 0.9106654 0.9497641 1.0415503 1.2566042
0.99172384 1.2493095 0.89254355 0.93963504 1.1953895 0.88298583 1.2071701 1.3158813
1.0350318 1.4036965 1.0928291 1.2036108 1.1035378 1.2275743 1.0777041 0.95779645
1.0192015 0.8772817 1.1465788 0.8731059 0.9326752 1.0717854 1.0006317 1.0758524
00000000: 9c7a 7e3f a56b 5d3f 5ce2 a83f b58e be3f
00000010: 5e21 693f bd23 733f 8551 853f 68d8 a03f
00000020: 9de1 7d3f 60e9 9f3f bc7d 643f ec8b 703f
00000030: 8602 993f 5c0b 623f 8d84 9a3f cc6e a83f
00000040: ec7b 843f 54ac b33f d3e1 8b3f eb0f 9a3f
00000050: ba40 8d3f 2821 9d3f 35f2 893f 2632 753f
00000060: 3275 823f 8995 603f 18c3 923f de83 5f3f
00000070: cdc3 6e3f 4430 893f b314 803f 88b5 893f

bn3.bias f4 [32]
-0.06811745 -0.2619011 0.15870708 0.25426486 -0.20874691 -0.24131578 -0.05116888 -0.23836304
-0.24832594 0.012893262 -0.19635725 -0.18637465 -0.07690614 -0.1452227 -0.06502058 0.024822734
-0.2819051 0.13009176 0.13338938 -0.12223411 -0.23647514 -0.01773976 -0.08930328 0.030490136
-0.018258179 -0.18093526 -0.061075877 -0.21385698 -0.19915733 -0.12539335 -0.067863524 -0.34214243
00000000: 2981 8bbd e717 86be 1c84 223e 012f 823e
00000010: c0c1 55be 7c1b 77be 7696 51bd 7115 74be
00000020: 2849 7ebe 433e 533c e011 49be ffd8 3ebe
00000030: f780 9dbd 42b5 14be 8329 85bd 0c59 cb3c
00000040: de55 90be c636 053e 3a97 083e e155 fabd
00000050: 8a26 72be f952 91bc a3e4 b6bd 73c6 f93c
00000060: 2d92 95bc 1847 39be b32a 7abd 53fd 5abe
00000070: e6ef 4bbe 1d67 00be 08fc 8abd 4b2d afbe

bn3.running_mean f4 [32]
-0.58570457 -0.36189923 -0.37814194 -0.58086246 0.10269995 -0.7146765 -0.8157729 -0.61010665
-0.55415726 -0.37388873 -0.32893035 0.19690557 -0.5497728 -0.52435434 -0.68757385 -0.46113938
0.17169811 -0.5691717 -0.27581403 -0.5750506 -0.6766004 -0.79859716 -0.5676261 -0.38474476
-0.7629677 -0.27702072 -0.84374803 -0.16591145 -0.11091335 -0.6113105 -0.6615776 -0.6201713
00000000: bcf0 15bf db4a b9be d29b c1be 67b3 14bf
00000010: 5a54 d23d 0af5 36bf 7ed6 50bf f32f 1cbf
00000020: 40dd 0dbf 586e bfbe 8f69 a8be 9da1 493e
00000030: e9bd 0cbf 163c 06bf d704 30bf 761a ecbe
00000040: a1d1 2f3e 3db5 11bf 7f37 8dbe 8436 13bf
00000050: af35 2dbf dd70 4cbf f24f 11bf 44fd c4be
00000060: da51 43bf a9d5 8dbe dfff 57bf b1e4 29be
00000070: 8a26 e3bd d87e 1cbf 265d 29bf 8cc3 1ebf

bn3.running_var f4 [32]
0.5983692 0.67874897 0.63781196 1.4658637 0.45377076 0.55201316 0.86945015 0.9797677
0.57437783 0.87716955 0.2462525 0.2415346 0.70455176 0.3397654 0.8342736 1.262519
0.14488162 1.4732769 1.0070529 0.75071615 0.51508075 0.74989414 0.62513244 0.6232216
0.64252704 0.50991017 0.8683532 0.23179808 0.24020925 0.74614424 0.68056685 0.81395674
00000000: b92e 193f 7ec2 2d3f a547 233f 6ca1 bb3f
00000010: a454 e83e bc50 0d3f 4994 5e3f 0ed2 7a3f
00000020: 6d0a 133f 2f8e 603f 9e29 7c3e d954 773e
00000030: 815d 343f bbf5 ad3e f492 553f 399a a13f
00000040: d95b 143e 5694 bc3f 1ce7 803f ef2e 403f
00000050: 55dc 033f 10f9 3f3f ae08 203f 738b 1f3f
00000060: a77c 243f 7989 023f 654c 5e3f 7a5c 6d3e
00000070: 6af9 753e 4f03 3f3f a139 2e3f 785f 503f
