MELOSDP/SDP/chkpt/mc1/linear/16/sdp_classifier_linear-400.pth (torch, 77408 bytes, 25 tensors)

fc1.weight f4 [128, 38]
000000 3f b9 64 3d 89 8d 0e be 85 28 32 3d 3f 81 06 3e
       0.055840727 -0.13921179 0.043495674 0.13135241
000010 4e 11 f0 bd 28 ee 2f be 7f 78 da bd c4 a1 84 bd
       -0.117220506 -0.17180693 -0.10667514 -0.06476167
000020 dc 42 34 3c 04 76 ab 3d 69 1f 76 3d 06 8d 0e be
       0.011002269 0.08372119 0.06008855 -0.13920984
000030 ba 0f 20 3e ed 3b c7 bc 11 5f e0 3d 65 af 29 3b
       0.15630999 -0.024320567 0.109556325 0.0025891897
000040 05 b4 3b bd 25 19 1f 3e f8 35 89 3c 45 a9 f7 bd
       -0.045825977 0.15536936 0.016749367 -0.120928325
000050 67 e0 1e 3e 3d 45 3d be 62 28 2f bd 51 92 24 be
       0.1551529 -0.18483444 -0.04276312 -0.1607144
000060 20 28 41 bd 27 3b f9 bd 6c ea f6 3d e4 85 d7 3c
       -0.047157407 -0.121694855 0.12056431 0.026308961
000070 07 6f 65 3d d7 b3 38 be a3 54 f2 3d e9 c0 1d bc
       0.056014087 -0.18037353 0.118325494 -0.009628513
000080 f1 ec 89 3c cf af a1 3d 81 66 fc bd f8 e9 a6 bc
       0.016836615 0.07894861 -0.123242386 -0.020375237
000090 15 0a 95 3c ae 8a d9 3d 16 fa 8f bd 39 e6 a9 3b
       0.018193284 0.10622154 -0.07030122 0.0051849154
0000a0 05 04 84 bd c1 91 b1 bb 16 51 29 be d2 21 de 3d
       -0.06446079 -0.0054189865 -0.16534838 0.108462945
0000b0 f6 4e ba 3d 1e 9b f4 3d fd c3 e4 3d 6c 76 5e 3d
       0.09097092 0.11943649 0.11170194 0.054312155
0000c0 6c 7c ea bd 2c 28 61 3d 01 36 87 bd 18 34 75 3d
       -0.11449513 0.05496995 -0.06602097 0.059864134
0000d0 82 49 bb bc 20 32 b8 3d 9b 7f b8 3c 53 13 0e 3c
       -0.0228622 0.089939356 0.022521785 0.008671599
0000e0 df f2 48 3d 6a e5 3e 3d af 94 32 3d 97 9f d0 3d
       0.049059745 0.046605505 0.043598827 0.10186689
0000f0 3b 36 35 3c c9 26 1d bd ed ad 15 3e 69 36 c6 3d
       0.011060293 -0.038367067 0.14617129 0.09678347
000100 68 2f 76 bd 89 60 da bd 0e 09 e7 3d 1f 9d 22 be
       -0.060103804 -0.10662944 0.11281024 -0.1588025
000110 2b 72 b3 bc a7 72 19 be 12 36 7d bd 9e 64 b7 bd
       -0.021905025 -0.14985143 -0.061819144 -0.08954738
000120 e1 fe 0b be c7 9b a3 bd bc 01 77 3c f1 da 59 bd
       -0.13671447 -0.079886965 0.015076097 -0.053187314
000130 7f 09 c0 3d 91 e2 a5 bd 30 db 23 be 28 48 a2 3d
       0.09376811 -0.08099855 -0.16001582 0.07923919
000140 bd c9 de 3d 46 66 19 bc a3 58 f5 3d cc 8d 3a 3e
       0.10878322 -0.009362763 0.11979797 0.18218154
000150 19 d2 1a be 02 cd ef bd f8 f9 bf 3d 8a ce 07 3e
       -0.15119208 -0.11709024 0.0937385 0.13262382
000160 56 db f7 3d 6d 66 f8 3d 48 7d 2b 3d 16 c5 85 bd
       0.12102382 0.12128911 0.041867524 -0.06531732
000170 c2 8b 46 ba 9f c8 86 3d c7 41 86 3d a9 66 f3 3d
       -0.0007573926 0.06581234 0.06555515 0.11884815
000180 ad db df bd 59 3c 36 be fd 9e 33 be 17 f6 99 3d
       -0.10930572 -0.17796458 -0.17541118 0.07517641
000190 2c 32 82 bd 92 0a 01 3c fe 95 0d bd 09 a6 54 3d
       -0.06357226 0.007876055 -0.03456687 0.051916156
0001a0 10 20 a5 3d 5b fb 85 bd be 63 e2 bc 3b 71 4b 3d
       0.08062756 -0.06542083 -0.027635451 0.049668532
0001b0 6c 63 39 be 5b 86 81 3c 4a 89 02 bd 68 72 9d bc
       -0.18104333 0.015811136 -0.03186921 -0.019219592
0001c0 6c d3 90 3d 91 51 85 bd ea 78 86 bc e1 95 f2 3d
       0.070715755 -0.06509698 -0.016415078 0.118449934
0001d0 28 51 6b 3e 95 84 fd bc a9 10 f2 3d 63 2c 66 bd
       0.22980177 -0.03094701 0.11819584 -0.056194674
0001e0 e1 7e 8c 3c 9a 45 8d 3d 01 9a 10 be 7b c8 6e 3d
       0.017150344 0.06898041 -0.14121248 0.05829666
0001f0 68 bb 54 bd f9 b0 06 be 6c 3e 36 bd 1a 39 ba 3d
       -0.051936537 -0.13153447 -0.044493124 0.090929225
000200 d4 cb d5 3d 9d 88 58 bd 6b 99 69 bd 61 d6 4d bd
       0.10439268 -0.05286466 -0.057031076 -0.050253276
000210 a3 71 b1 bd 0d 90 02 be 47 ed 10 3e b7 80 bb 3b
       -0.086642526 -0.12750264 0.14153014 0.005722131
000220 d9 81 0a 3e 03 4b 9a bd 55 25 eb 3d b9 76 95 bc
       0.13526095 -0.075338386 0.1148173 -0.018245088
000230 38 aa ed 3d ed 6d b6 3d 94 64 65 3c 21 21 08 be
       0.11604732 0.089076854 0.0140010305 -0.13293888
000240 ce c4 2f 3e 30 22 fd bd 84 ca fe bd 3f 02 2f bc
       0.17164919 -0.123600364 -0.124409705 -0.010681688
000250 c5 21 a5 bd da 27 9b 3b a4 7d 6b bc 6e 2b 51 3d
       -0.08063082 0.0047349753 -0.014373217 0.05106681
000260 06 32 f0 bd 0e e1 e1 3c 81 42 c4 3d 8a 57 67 3d
       -0.11728291 0.027573135 0.09582997 0.056479968
000270 ea b7 bc bd 11 59 eb bd f4 eb e9 3d 81 85 ba 3d
       -0.09214766 -0.114915974 0.114219576 0.09107495
000280 70 15 1d 3e 3f 4f 7a bd 69 be 05 be 19 2f a7 bd
       0.15340209 -0.06111073 -0.13060917 -0.0816328
000290 a7 95 f0 bb cd b7 72 bd 58 b0 fd bd 15 7e 46 3d
       -0.0073420587 -0.059257317 -0.123871505 0.048460085
0002a0 28 21 4e 3d da db bd 3d bb 21 02 bd 16 be 2a 3e
       0.05032459 0.09270449 -0.03177045 0.16674075
0002b0 b4 9f ec 3d 2c 6d 0c 3d 3b a3 ad bd 54 3a 27 be
       0.115538985 0.034283802 -0.08478399 -0.16330844
0002c0 1c 4d 16 3e 04 4c 2b 3e 19 f1 e3 bb cd 8e 6c 3d
       0.14677852 0.16728216 -0.0069562313 0.057753373
0002d0 a5 07 a9 3d fe 54 25 3e 7a 09 df bd 68 d8 96 3c
       0.08253411 0.16145703 -0.108904794 0.018413737
0002e0 ec 93 e1 3d 4d 3e 24 3e 3f 0c 19 3d 9e a3 27 bd
       0.11014542 0.16039391 0.037365194 -0.040927522
0002f0 96 2f 0b be 3c 76 ef bc f8 cd 11 bb 19 75 ca bc
       -0.13592371 -0.029231183 -0.002224801 -0.02471404
000300 e3 e5 80 3c c3 94 b2 bd c8 61 1b be 37 7e 04 bc
       0.015734619 -0.0871978 -0.1517402 -0.008086733
000310 d1 32 0e be 1a e5 28 be dd 36 14 3e b2 7d 19 3e
       -0.13886572 -0.16493645 0.14474054 0.14989355
000320 c1 60 c9 bc bf aa ae 3d ec 3f 09 3d 60 72 f1 bd
       -0.024582269 0.08528661 0.033508226 -0.117893934
000330 bd 67 ff 3d 71 32 2d be 71 a2 22 3e 53 f4 98 bd
       0.124709584 -0.16913773 0.15882279 -0.07468476
000340 a3 25 0d bd 86 bb 08 be 13 a9 99 3d 26 10 27 be
       -0.03445972 -0.13352785 0.075029515 -0.16314754
000350 ff c1 15 be a9 a5 ba 3c 08 79 d4 3b 67 7d de 3d
       -0.14624785 0.022784071 0.0064841546 0.10863762
000360 89 4b 0b 3c e9 de 68 3d 91 e2 af 3d fd e1 68 3d
       0.008501896 0.05685321 0.08588136 0.056856144
000370 72 4f fe bc 93 e2 13 be 85 e3 02 be 4a 9a dd bc
       -0.031043742 -0.144419 -0.12782104 -0.02705111
000380 e9 32 ec bc ca 7a f7 bd 8f 18 a7 3d 8f 0b 6a 3d
       -0.02883287 -0.12083967 0.08158981 0.05713993
000390 76 0f 68 3d ff 37 d4 3d 04 cf 3f 3d 71 c9 bb bd
       0.05665537 0.10362243 0.046828285 -0.09169281
0003a0 67 49 a2 3b 80 0b e9 bc b0 dd 42 bb 27 fb ee 3d
       0.004952598 -0.028447866 -0.0029734187 0.11668997
0003b0 42 bf 30 3e 08 5c b7 bd d1 da 2c bd 89 8c 33 bd
       0.17260459 -0.089531004 -0.042200867 -0.043835197
0003c0 66 2c d4 bc 4c 8e e8 3d 3e 1e 18 be 86 b7 98 bd
       -0.025900077 0.11355266 -0.14855286 -0.07456879
0003d0 66 14 22 3d 8c 77 33 3d 2e 57 8f bd 43 68 bf 3c
       0.039570235 0.04381518 -0.0699905 0.023365146
0003e0 91 3a 14 3e c3 6a 68 bc 46 cd cd 3d 46 0c 97 3d
       0.14475466 -0.01418561 0.100489184 0.07375388
0003f0 bc 4f 14 bd a8 61 da bb 0b ce 1d 3d 94 f1 f8 3c
       -0.036208853 -0.0066644736 0.038526576 0.03038863

fc1.bias f4 [128]
000000 51 60 84 3d 48 de 89 3d 13 cc 8a bd 1c 60 c7 bd
       0.064636834 0.0673185 -0.06777205 -0.09735128
000010 6a 45 5a bd 6c 9a 32 bd f7 a7 0e 3e d6 33 0e bd
       -0.053288855 -0.0436043 0.13931261 -0.034717403
000020 4b 9c a0 3d 8c 21 b4 3d b5 6f f1 3d 4e 43 3d 3d
       0.078423105 0.08795461 0.117888846 0.046206765
000030 d8 ef e8 bd 19 00 58 bd ca 48 cf bd aa b3 ba bc
       -0.113738716 -0.052734468 -0.10121305 -0.022790749
000040 5d fa f7 bc 2f aa 44 3d 9e 3e 74 3d 88 60 e6 bd
       -0.03027075 0.048013862 0.05963003 -0.112488806
000050 30 31 1a be b7 52 12 be d9 21 d9 3b 8a 95 26 3d
       -0.15057826 -0.14289366 0.0066263494 0.040669955
000060 1c 6c f0 bd 72 82 ae bb ab ae 95 bc e7 55 c5 3c
       -0.1173937 -0.005325609 -0.018271765 0.024088813
000070 36 98 a0 bd 51 af 0c bd d8 12 bd bd 55 af 0e 3e
       -0.07841532 -0.034346882 -0.0923211 0.13934071
000080 93 6b f9 3d 26 4e 4c bd 91 e5 13 3c 58 98 f7 3b
       0.12178721 -0.049879216 0.009026901 0.0075560026
000090 93 2a fb 3d 52 ec e7 bd 1f 71 1e be 1b 37 97 bc
       0.1226398 -0.113243714 -0.1547284 -0.018458894
0000a0 f1 2b e5 bc 7c 81 9f 3d d5 8e b8 3d 6f 74 02 bd
       -0.027975054 0.07788369 0.09011618 -0.03184932
0000b0 cd 7e 1f 3b 2c aa 90 bc 82 7e 0c be 2f 65 c0 3c
       0.0024337054 -0.01765927 -0.13720134 0.023485748
0000c0 a9 34 c9 3d ed ec 8f 3d 3b 13 b3 3d ad 97 19 be
       0.09824497 0.07027612 0.08743902 -0.14999266
0000d0 2d 82 09 be 1d 49 ca 3b be bc b4 bc 3f 63 f2 3d
       -0.13428564 0.0061732666 -0.022062656 0.11835336
0000e0 1c e9 93 bd 1c ec 84 bc 91 5b 3e bd db fa e3 bd
       -0.072221965 -0.016225867 -0.046474043 -0.11131831
0000f0 28 bc cc bd 21 4b 39 bd ce 48 87 3d 70 8f 5e bd
       -0.099968255 -0.045237664 0.06605683 -0.05433601
000100 73 28 64 bc 1a 54 1f 3c 24 ae 38 bd 2e 08 8e 3c
       -0.0139256595 0.009724641 -0.04508795 0.017337885
000110 78 11 23 3d aa b9 a1 3b 98 35 f2 3d 41 00 dc bd
       0.03981158 0.004935463 0.118266284 -0.10742236
000120 cc 53 18 be 47 39 58 3d a0 ef 92 bd 7d 06 f1 3c
       -0.14875716 0.052789 -0.07174611 0.02942204
000130 e4 68 a9 bd c0 20 0e 3e 05 cf 9f 3d 2f 6c 86 bd
       -0.082719594 0.1387968 0.07803158 -0.06563603
000140 ec 03 15 3e 42 f9 02 bd 7b 50 1d be ac 7e 38 bc
       0.14552277 -0.031975992 -0.15362732 -0.01126067
000150 92 a6 5b 3c 52 c3 c0 bc 2d 00 e5 3d d7 cc e3 bc
       0.013406413 -0.023530636 0.11181674 -0.027807636
000160 c5 d4 5e bc f9 b5 20 bd a9 e8 aa 3d 56 f1 56 3c
       -0.013600533 -0.039236043 0.08345158 0.013119062
000170 0f b6 10 3d a7 64 9e 3c 52 05 00 3c 0d fe dd 3d
       0.035329875 0.019335104 0.007813768 0.10839472
000180 bf a8 1a be a4 ea 48 3d 78 78 92 bd c8 8a 13 3e
       -0.15103434 0.049051896 -0.07151884 0.1440841
000190 ad 34 b7 39 94 00 fc 3d d6 41 09 be aa ca 20 3e
       0.00034943726 0.12304798 -0.1340402 0.1570231
0001a0 c6 57 c8 3c 7f dd ee 3d 64 47 18 3e ac 6e 9b 3d
       0.024455916 0.11663341 0.14870983 0.07589468
0001b0 1c 1c a5 3c f9 c9 f8 bd c1 60 28 3c 75 ac e4 bd
       0.020155005 -0.12147898 0.010276974 -0.11165706
0001c0 e1 95 11 3d 3f 2d 9b 3d 21 65 15 bd b5 71 ff 3d
       0.035543326 0.075769894 -0.036473397 0.1247286
0001d0 0e 6c c9 3d 36 c1 f6 3c 66 a8 64 bc 43 d3 f5 bd
       0.09835063 0.030121427 -0.013956165 -0.120031856
0001e0 e9 21 ef bd 8e 2d 20 bd e3 ec db 3d 82 dd e5 3d
       -0.1167639 -0.039105944 0.10738542 0.1122389
0001f0 08 41 36 bd b3 da 8b 3d 00 3e de 3d 02 54 e2 bd
       -0.044495612 0.06828823 0.10851669 -0.110511795

bn1.weight f4 [128]
000000 70 28 88 3f 53 7b 7d 3f 36 6a 78 3f 40 14 8b 3f
       1.063734 0.990163 0.97037065 1.0865555
000010 2d 15 79 3f 5b 9e 83 3f ca b3 8b 3f 7f 16 78 3f
       0.97297937 1.0282701 1.0914242 0.96909326
000020 0e 5d 7a 3f 64 af 80 3f 25 3d 83 3f ac 68 8a 3f
       0.9779824 1.0053525 1.0253035 1.0813193
000030 d5 8b 8f 3f 64 9f 7c 3f b1 83 84 3f 6f 23 87 3f
       1.1214548 0.9868071 1.0352689 1.0557688
000040 15 1e 80 3f 8d f4 80 3f 2e dd 86 3f 2b d1 7f 3f
       1.000918 1.0074631 1.0536249 0.9992854
000050 11 a4 7b 3f 9c 01 88 3f 06 c0 79 3f 83 31 7f 3f
       0.9829722 1.0625491 0.9755863 0.99684924
000060 60 63 7b 3f 27 a6 7e 3f 32 2d 81 3f 4f bf 80 3f
       0.9819851 0.9947228 1.0091918 1.0058383
000070 9a 35 81 3f 7b 7a 78 3f b2 4a 77 3f 18 d0 82 3f
       1.0094483 0.9706189 0.9659835 1.0219755
000080 ef 3b 8a 3f 6b b2 86 3f 2a e2 81 3f e4 f7 7f 3f
       1.079954 1.0523199 1.0147145 0.99987626
000090 e2 dd 81 3f cb b1 86 3f b7 26 81 3f 35 52 7d 3f
       1.0145838 1.0523008 1.008994 0.9895356
0000a0 72 8f 75 3f 78 87 78 3f b8 00 81 3f b1 97 74 3f
       0.95922005 0.9708171 1.0078344 0.9554396
0000b0 a4 3f 74 3f 4c c2 80 3f e2 eb 84 3f 7b e1 90 3f
       0.9540961 1.0059295 1.0384486 1.1318811
0000c0 ca 28 83 3f 2b 23 80 3f de 73 a3 3f f7 4d 89 3f
       1.0246823 1.0010732 1.2769735 1.0726918
0000d0 f0 42 8e 3f ca 2e 8a 3f 1e a6 80 3f fc 5f 7d 3f
       1.1114178 1.0795529 1.0050695 0.98974586
0000e0 5b b3 78 3f 96 93 8b 3f fc dd 77 3f f9 52 75 3f
       0.97148675 1.0904415 0.96823096 0.9582973
0000f0 71 7a 7e 3f 29 57 68 3f 33 85 82 3f b2 ad 7e 3f
       0.9940558 0.90757996 1.0196899 0.9948379
000100 ac 60 77 3f ae d1 7e 3f 77 de 83 3f 67 8a 80 3f
       0.96631885 0.99538696 1.0302266 1.0042237
000110 16 4b 81 3f 35 c0 9b 3f ac 2b 77 3f 53 01 7d 3f
       1.010104 1.2168032 0.96551013 0.98830146
000120 7c ff 81 3f 98 88 81 3f 4a 2c 6e 3f b2 b0 80 3f
       1.0156093 1.011981 0.9303633 1.0053923
000130 f6 da 77 3f 84 03 95 3f 25 e0 75 3f 18 62 89 3f
       0.9681848 1.1641698 0.9604514 1.0733061
000140 98 71 7c 3f 5f 4b 84 3f 70 d7 8e 3f 4b 16 80 3f
       0.9861083 1.0335501 1.1159496 1.0006803
000150 65 27 82 3f 74 51 84 3f cc 97 8a 3f 51 46 7e 3f
       1.0168272 1.0337358 1.0827575 0.99326044
000160 59 ef 7d 3f 71 9a 74 3f 37 a1 7f 3f ce 67 74 3f
       0.9919334 0.9554816 0.9985537 0.95470893
000170 ad 5d 74 3f 70 ec 78 3f 61 fe 81 3f bd 5d 7c 3f
       0.9545544 0.97235775 1.0155755 0.98580533
000180 47 14 77 3f de d3 76 3f a4 9d 83 3f e8 1d 7e 3f
       0.96515316 0.96417034 1.0282483 0.99264383
000190 35 81 74 3f 51 82 88 3f 0e 40 8d 3f 49 4d 8e 3f
       0.95509654 1.066477 1.1035173 1.1117336
0001a0 c0 e3 84 3f 66 a6 8d 3f a3 91 7e 3f 72 80 7c 3f
       1.0382004 1.1066406 0.99440974 0.9863349
0001b0 33 36 77 3f a1 45 7c 3f 3c 93 83 3f 86 09 83 3f
       0.96567076 0.98543745 1.0279307 1.0237281
0001c0 65 56 83 3f 67 d8 87 3f b5 bc 7b 3f c1 d3 87 3f
       1.026074 1.0612916 0.9833482 1.0611497
0001d0 fc 6e 7c 3f b7 b7 8f 3f da 52 90 3f e9 65 7f 3f
       0.9860685 1.122794 1.1275284 0.9976488
0001e0 8e 83 7a 3f bf f2 74 3f b8 aa 83 3f 0b 47 91 3f
       0.97856987 0.956829 1.0286474 1.1349806
0001f0 f0 8b 78 3f 5c 07 89 3f f8 25 8b 3f 42 7a 78 3f
       0.9708853 1.0705371 1.0870962 0.9706155

bn1.bias f4 [128]
000000 c4 ad 42 3c 68 3e 14 bc cb 31 e9 bc bb 74 da bc
       0.011882249 -0.009048082 -0.028466126 -0.02666699
000010 78 83 21 bd 30 c4 d6 3b 84 b0 b5 3b 5b e2 5c bd
       -0.03943202 0.006554149 0.005544724 -0.053926807
000020 7e 6a e5 bc 04 53 a8 bc e5 23 64 bd a8 6f 1b 3b
       -0.028004881 -0.020547397 -0.055698294 0.0023717675
000030 5e 54 57 bc e8 a1 a0 bd e0 9d 60 bd 46 40 0b bd
       -0.013142673 -0.07843381 -0.05483806 -0.033996843
000040 29 96 0a bd 0d 48 59 bd 30 01 15 be 20 cc 1f bd
       -0.03383461 -0.05304723 -0.14551234 -0.03901303
000050 1b 66 92 bd 3f 95 14 3c ac d0 2e bd c8 af 32 3c
       -0.07148381 0.009068786 -0.042679474 0.010906167
000060 d7 ef 47 bd f5 d4 a7 bc 82 ee 85 bd 71 e6 3a bd
       -0.048812713 -0.020487288 -0.065396324 -0.045629922
000070 3f d1 a5 bd 28 69 56 bd bb 5e a3 bd df 70 2d bc
       -0.08096551 -0.05234638 -0.07977053 -0.010585993
000080 90 cb 6c ba 21 54 99 bd 76 40 95 bd 2a d0 24 bd
       -0.0009033019 -0.074867494 -0.072876856 -0.040237583
000090 94 53 1b bd 46 a4 80 3b f8 5d 20 bc 3e e3 49 bd
       -0.037921503 0.003925833 -0.009788029 -0.04928898
0000a0 44 9e c0 bc a5 c8 f9 bc d8 ad 60 bd fd f8 af bd
       -0.023512967 -0.030491183 -0.05485329 -0.085924126
0000b0 1b 47 80 bd 06 a2 80 3c 4e be f0 3b a2 e3 40 bd
       -0.06263562 0.015702259 0.007346905 -0.047092088
0000c0 34 b5 df bd be 59 1e 3d 6d 68 ff bd 8e b8 87 bd
       -0.10923234 0.038659804 -0.124710895 -0.06626998
0000d0 36 32 7c 3d 2f 7a 43 bb 46 00 8f bc 68 77 0a bd
       0.061571322 -0.0029827466 -0.017456185 -0.03380528
0000e0 15 e5 c4 3c df fb 49 bc 85 1b cd bb dc 31 86 bd
       0.024035016 -0.012328117 -0.006259384 -0.06552479
0000f0 0b 86 86 bd 1b f7 92 bd 77 ff a8 bb 3b e7 63 bd
       -0.065685354 -0.07176038 -0.005157407 -0.05564044
000100 d1 1a 86 bd 9a f0 d2 bd 40 bf 1e 3d a3 57 2e 3c
       -0.065480836 -0.10299797 0.03875661 0.010641011
000110 ea 62 48 3b 08 d0 d1 bd 02 01 cb bd e4 2e ca bd
       0.0030576536 -0.10244757 -0.099123016 -0.09872225
000120 55 67 9c 3c ef e4 6f bc 27 6a 80 bd 40 f0 3b bc
       0.019092241 -0.014641984 -0.06270247 -0.011470854
000130 86 d3 63 bd 02 9b 1c be b8 c5 0e bc f5 bd 25 bd
       -0.055621646 -0.15293506 -0.008714132 -0.04046436
000140 f3 9b 8e bd d9 79 f1 bc e0 37 6e bb 3d 89 3a bd
       -0.06963339 -0.029477047 -0.0036349222 -0.045541037
000150 d4 9b 9d bc 76 3e ca bc 27 a0 95 3b 1d 0c 03 bd
       -0.019239344 -0.024687987 0.004566211 -0.031993974
000160 47 03 8d 3c 9a 6d 23 bd 8a d7 fe bd 7a 63 6a bd
       0.017213477 -0.039899446 -0.124434546 -0.057223774
000170 bd e7 cc bd a7 09 72 bd c6 b2 98 3b 0a c8 de 3c
       -0.10005138 -0.059091236 0.0046599833 0.027194995
000180 c1 67 93 bd c2 aa d6 bd b1 19 26 bd fd bf e5 bc
       -0.07197524 -0.10481788 -0.040551845 -0.028045649
000190 a9 60 76 bd 35 df 1c bd 6f b8 42 bd af 8c d6 bc
       -0.060150776 -0.038298804 -0.04753917 -0.02619013
0001a0 ad da da bd 06 ce 01 bd a5 29 92 bc 55 b7 63 bc
       -0.1068624 -0.03169062 -0.017842123 -0.01389869
0001b0 c7 7b 0e bd e5 45 fe bc d0 39 fb bd 02 02 da bc
       -0.034786012 -0.031039188 -0.12266886 -0.026612286
0001c0 2b d8 0a 3c 95 0a ba 3a 24 13 85 bd 21 5c 89 3d
       0.00847439 0.0014193828 -0.064977914 0.06707025
0001d0 29 cc 31 bd af 39 16 bb 06 9b f8 bc 63 59 c7 bc
       -0.043407593 -0.0022922566 -0.030347358 -0.024334615
0001e0 a3 1c 0c 3c b1 25 6c bd 4d b2 58 bc 9f 19 3d bc
       0.008551749 -0.057653133 -0.013226104 -0.011541753
0001f0 21 15 62 bd b1 9c 98 bd ef 9f 0b bc d0 d0 54 bd
       -0.05519593 -0.074517615 -0.008522018 -0.05195695

bn1.running_mean f4 [128]
000000 49 66 88 3d d6 84 86 3d f7 bb 88 bd 66 81 c7 bd
       0.06660134 0.06568305 -0.066764764 -0.09741478
000010 8b ec 55 bd 37 51 47 bd 86 b9 0e 3e 9a 96 06 bd
       -0.052227538 -0.048661437 0.13937959 -0.03285847
000020 34 cd a4 3d 9a a4 a5 3d 94 ec f5 3d 79 db 4c 3d
       0.08046952 0.08088036 0.12008014 0.050013993
000030 80 4e f1 bd 8d d9 64 bd 0e 5c d6 bd 53 7b 08 bd
       -0.11782551 -0.055871535 -0.10466777 -0.033320736
000040 66 cb 13 bd f2 fb 45 3d 0d 4d 74 3d d8 b2 e5 bd
       -0.036082648 0.048335977 0.059643794 -0.11215752
000050 c5 f6 12 be 2c 69 19 be 7e 2f 11 3c 14 94 08 3d
       -0.14351948 -0.14981526 0.008861421 0.033344343
000060 a3 58 e9 bd 9f 8b f0 bb da 71 d7 bc f9 cb ee 3c
       -0.11393859 -0.007340863 -0.026299406 0.029149996
000070 33 d4 a1 bd 5e 42 ef bc db 2a c9 bd 5d 9d 0d 3e
       -0.07901802 -0.029206451 -0.09822627 0.1382956
000080 4a 6a 01 3e b6 4b 5d bd c6 a3 7d 3b a6 bc 3b 3c
       0.12638202 -0.05402728 0.0038702353 0.0114585515
000090 45 da f9 3d ac a2 e2 bd 87 20 23 be b2 fb 8d bc
       0.12199835 -0.110661834 -0.15930377 -0.017331932
0000a0 c1 c9 ec bc 46 54 95 3d cd df b1 3d 9f dd 01 bd
       -0.028904798 0.072914645 0.08685265 -0.031705495
0000b0 6a a0 19 3c 91 ae ac bc 97 25 0d be 71 d2 c6 3c
       0.009376625 -0.021079333 -0.1378387 0.024270268
0000c0 f3 1f c2 3d 3b fc 87 3d 40 c5 b0 3d c4 c0 1f be
       0.0947875 0.06639906 0.086313725 -0.15600878
0000d0 76 f9 10 be 38 ac 15 3c 5d 90 b5 bc 63 0b ea 3d
       -0.14157662 0.009135298 -0.022163564 0.11427953
0000e0 c2 72 9b bd d9 cd 77 bc 38 59 57 bd ac 77 ea bd
       -0.07590248 -0.0151247615 -0.05257532 -0.11448607
0000f0 e5 b1 c6 bd 22 df 14 bd ac 15 6d 3d 89 7c 4c bd
       -0.097018994 -0.03634561 0.057881996 -0.049923453
000100 47 2b 91 bc d3 7d 4a 3c e2 4e 43 bd 6f 4d 4a 3c
       -0.017720832 0.0123591 -0.04768265 0.012347563
000110 e3 9f 37 3d b2 d0 cb 3b 41 62 fd 3d 5b a7 d1 bd
       0.044830214 0.006219947 0.12372256 -0.10236999
000120 49 70 1d be 99 4d 53 3d fe 35 8c bd 3b 22 f8 3c
       -0.15374865 0.051587675 -0.06846236 0.03028976
000130 01 03 b3 bd 43 4c 0b 3e 64 23 ae 3d 28 14 82 bd
       -0.08740807 0.1360331 0.08502844 -0.06351501
000140 4b 39 14 3e 91 b4 e1 bc 1f 0e 1d be 65 1b 0e bb
       0.1447498 -0.027551921 -0.15337418 -0.002168381
000150 da f6 7b 3c ba d2 e9 bc 64 dd e2 3d f6 c6 fe bc
       0.015378678 -0.028542865 0.11077383 -0.031100731
000160 36 6d b7 bc b1 86 13 bd 08 d5 a2 3d 36 73 62 3c
       -0.022390943 -0.036017124 0.07950789 0.013821414
000170 2c 12 23 3d df 52 a7 3c 85 52 c5 3b 14 41 e3 3d
       0.039812252 0.020425258 0.0060218 0.11096397
000180 07 7d 19 be 4a a0 41 3d fe d2 9b bd 0a 57 17 3e
       -0.149891 0.047272004 -0.07608603 0.14779297
000190 26 8a 15 3c a9 5a 01 3e e5 6e 0a be 3d 04 26 3e
       0.009127175 0.1263224 -0.13518865 0.16212554
0001a0 1d b6 da 3c 6f 9a ef 3d 47 b4 17 3e 88 b9 92 3d
       0.026698167 0.11699378 0.14814864 0.071642935
0001b0 91 06 ac 3c 31 fd fe bd 0a 94 2f 3c 59 3c e7 bd
       0.020999225 -0.12450636 0.010716448 -0.11290807
0001c0 0d 6e 2b 3d ae 6f a6 3d 7b f5 dd bc 0e 6b f5 3d
       0.041853 0.0812677 -0.027094593 0.1198331
0001d0 ee ec c8 3d 5b d9 c0 3c 73 4f 37 bc 8f 7b f7 bd
       0.09810816 0.023541143 -0.011188376 -0.12084114
0001e0 2c 50 fc bd a2 f3 3b bd 12 5a db 3d 74 9b f2 3d
       -0.12319979 -0.045886643 0.10710539 0.118460566
0001f0 66 c2 3a bd f1 03 8e 3d 60 c5 db 3d a3 05 df bd
       -0.04559555 0.069343455 0.10731006 -0.10889747

bn1.running_var f4 [128]
000000 3e a3 2c 3f cb 88 a8 3e e5 43 cc 3e ff 49 26 3e
       0.6743659 0.32916865 0.3989555 0.16239165
000010 09 e8 97 3f f8 74 4e 3e 03 f7 e7 3d 02 27 81 3e
       1.1867687 0.20161808 0.113264106 0.25225073
000020 b8 d6 04 3f 92 79 42 3f fa c1 10 3e 78 be a6 3e
       0.51890135 0.7596675 0.14136496 0.3256719
000030 cb 3b 14 3e 66 b8 c5 3e 0e aa 19 3e 58 a4 e9 3e
       0.14475934 0.38617247 0.15006277 0.45633197
000040 79 34 9b 3e db 11 43 3e 6d ee 40 3e 24 64 c8 3e
       0.3031347 0.1904978 0.18840952 0.391389
000050 76 cf 9d 3e c8 b3 4f 3e b4 c6 f7 3e f0 f9 f9 3e
       0.30822343 0.20283425 0.48393786 0.488235
000060 22 a1 34 3e d3 4f 5c 3e a6 06 7d 3f d7 51 01 3e
       0.17639592 0.21514826 0.9883827 0.12628876
000070 bd c7 79 3e 22 ca 1c 3f b9 59 47 3f 5c 5e 1d 3f
       0.243926 0.6124593 0.7787128 0.61472106
000080 bf ad d9 3d 87 50 27 3e 93 6b 82 3e ac 8f 4d 3e
       0.106288426 0.16339312 0.25472698 0.20074338
000090 52 21 4d 3e 14 ad 5c 3e 18 68 ff 3e 42 59 c8 3e
       0.20032242 0.21550399 0.49884105 0.39130598
0000a0 b6 57 52 3e 14 65 0e 3f f6 db 3a 3e ba 95 a7 3e
       0.20541272 0.5562298 0.18247971 0.3273142
0000b0 28 fc 67 3e 36 03 21 3e da 58 ba 3d 48 fc d4 3d
       0.22654784 0.15723881 0.09098978 0.10399681
0000c0 b3 8d c1 3d bb 1b 25 3f f6 30 b0 3d 0a f2 e6 3d
       0.09450855 0.6449544 0.086030886 0.11276634
0000d0 53 04 92 3f ff 9e c0 3d 5b 7a 7f 3e 53 57 00 3f
       1.140757 0.09405326 0.24949019 0.50133246
0000e0 e2 7f 45 3f 6d 98 d9 3e 29 b2 09 3f e4 17 a8 3e
       0.7714826 0.42499104 0.53787476 0.32830727
0000f0 8d 8e ec 3e 96 4c 5c 3f c7 38 4d 3e 87 32 83 3e
       0.46202508 0.8605436 0.2004119 0.25624487
000100 14 71 5f 3e 52 2f 5c 3e 5d a8 18 3e 63 4e 1c 3e
       0.2182048 0.21502426 0.14907975 0.15264277
000110 23 66 48 3e be d3 19 3e 30 20 6e 3e 37 d0 81 3e
       0.19570212 0.1502218 0.23254466 0.25354168
000120 cb 41 49 3f 58 eb 4e 3e de cd 45 3f 80 29 75 3e
       0.7861602 0.20206964 0.77267253 0.23941612
000130 7c ff 5f 3f a6 fc 93 3e aa 90 45 3f 87 d0 79 3e
       0.87499213 0.28903693 0.77173865 0.24395953
000140 11 59 90 3e d9 ea c7 3d ff ef 58 3e 53 9c b0 3e
       0.28192952 0.097615905 0.21185301 0.34494266
000150 e6 e8 13 3e 52 7c 98 3e 77 a6 96 3e 3d 47 26 3f
       0.14444312 0.2978235 0.29423878 0.6495245
000160 25 4f 6e 3e 21 9c 4d 3f 41 e5 32 3e 6b 5e 9f 3e
       0.23272379 0.8031636 0.17470266 0.31126723
000170 d9 29 b7 3f b2 5c 41 3e 33 9c 18 3e 24 a0 aa 3e
       1.4309646 0.18883017 0.14903335 0.33325303
000180 97 dd 7a 3e 13 c5 85 3e 89 76 62 3e 09 75 22 3e
       0.24498592 0.26126918 0.2211553 0.15864958
000190 2a 8c 96 3e 92 5b 68 3e 25 e0 13 3e 5d dd 49 3e
       0.29403812 0.22691181 0.14440973 0.1971335
0001a0 08 f8 ed 3d 22 79 e1 3d f6 d4 d9 3d 76 84 09 3e
       0.11619574 0.110094324 0.10636322 0.13429436
0001b0 15 f3 86 3f 42 a9 0b 3f 0e a4 26 3e 56 9d ac 3e
       1.0542933 0.5455514 0.1627352 0.33713788
0001c0 ab d5 2d 3e 6d 70 90 3e a2 7d 81 3f 4d e4 00 3e
       0.16976039 0.28210774 1.0116465 0.1258709
0001d0 4f 8c 86 3e 61 0d e3 3e 32 c5 85 3d 78 8e 89 3e
       0.26278922 0.44346145 0.06531753 0.26866508
0001e0 24 95 4e 3e 91 5c 29 3f 75 ab 63 3e f6 f5 94 3e
       0.2017408 0.6615687 0.22233374 0.29093903
0001f0 ce 12 39 3e 71 bb 48 3e a9 49 08 3e 29 a5 8a 3e
       0.1807358 0.19602753 0.13309349 0.27079132

fc2.weight f4 [64, 128]
000000 4a 19 71 3d 41 3a 16 3d 9a ee 5e 3a b9 43 05 be
       0.05886201 0.03667665 0.00085041823 -0.13014115
000010 8a a9 1c bd ce 10 88 bd 5d 75 09 be 2c 5b f9 bc
       -0.038247623 -0.0664383 -0.13423677 -0.030438982
000020 fa 88 24 bc 9e 84 04 be 7c d0 a7 bc 87 53 a7 bd
       -0.010042423 -0.12941214 -0.020485155 -0.081702285
000030 a5 1f b1 bc b8 6d 2b ba f3 c1 9b 3d ab 85 85 bc
       -0.021621535 -0.00065394817 0.07605352 -0.01629909
000040 53 8b df bc 7f ad 76 3d b2 0a 69 bb fa 20 b6 bd
       -0.027288115 0.060224053 -0.0035559353 -0.088930085
000050 29 c1 99 3d e5 7a 14 3d 2b 2f 13 3d 3b 1e 88 3d
       0.075075455 0.036250014 0.035933655 0.06646391
000060 fe d7 7e bc 22 5f a7 3d ad 84 58 bc d0 0a 37 bd
       -0.015554426 0.08172442 -0.013215226 -0.044688046
000070 f6 6e b1 bc 8c 34 a3 bc a5 ae 35 3d 17 60 a9 bc
       -0.021659356 -0.019922517 0.044356007 -0.020675702
000080 b6 57 a2 bc 0e f4 b7 3d 69 6f 03 bc c2 ab 55 3d
       -0.019817214 0.089820966 -0.008022168 0.052165754
000090 2d 7a 40 bc b2 13 8b 3c e9 d5 9b bd e5 b5 4e bd
       -0.011747879 0.016977165 -0.076091595 -0.050466437
0000a0 6e 08 20 3a 6c 07 be 3c 08 ca 06 bd ad 6b a1 bb
       0.0006104772 0.023196898 -0.032907516 -0.004926166
0000b0 bc 8d 1f bd 28 42 a2 bd 5f e7 c4 3b fc 0f 04 bd
       -0.038953528 -0.079227746 0.006009027 -0.032241806
0000c0 c3 28 0d bd 05 3a 5a 3d 35 b4 1b be 18 7a c9 3d
       -0.0344627 0.053277988 -0.15205462 0.09837741
0000d0 54 2d 12 3e 9e 0d 2b be 24 c6 b9 bc 75 03 e2 3c
       0.14275104 -0.16704413 -0.022677489 0.027589539
0000e0 c6 d7 66 3c 57 d5 16 3d 42 6b cb ba d7 c5 93 bd
       0.01408953 0.03682455 -0.0015519636 -0.07215469
0000f0 29 16 48 3d c1 89 2f 3d 0a 18 81 3d 2c 2e af bd
       0.04884926 0.04285598 0.06303413 -0.085537285
000100 bf 41 01 3d e8 94 aa bd 30 28 5f 3d f0 aa c8 3d
       0.03155684 -0.08329183 0.054481685 0.09798229
000110 16 74 60 3d 74 9a b1 3d ed 4b 93 bd 67 9a e7 bc
       0.05479821 0.08672038 -0.07192216 -0.028271867
000120 17 09 94 bd a4 e4 4f bc 7a 5b 3f bd 72 6c 93 bd
       -0.07228296 -0.0126887895 -0.0467181 -0.07198419
000130 32 6b b8 3c 52 26 24 3d 98 58 c7 bc 8f 5e d0 3b
       0.022512052 0.040075608 -0.024334237 0.0063589285
000140 a1 e3 f1 bc 70 fe ee bc da e3 2e 39 b4 be 32 bd
       -0.029527487 -0.02917406 0.00016678814 -0.0436389
000150 02 7f eb bc 5e 0c 1e 3c fc 96 75 bc c1 e0 e8 3c
       -0.028747085 0.009646503 -0.014989611 0.028427484
000160 6a ea 91 3d d6 1a 37 bd b8 a7 c3 bc 2c df aa bd
       0.07124789 -0.044703327 -0.023883685 -0.08343348
000170 c2 10 30 3d d0 a7 19 bd 74 5b f9 3c a0 b9 3e 3d
       0.04298473 -0.037513554 0.030439116 0.046563745
000180 a7 14 59 bd 26 e8 85 3d 49 ae 95 3d 24 20 87 3d
       -0.05299821 0.065384194 0.07308633 0.06597927
000190 e4 2b cf bc 9f 70 2e bd 3b a4 2f bd d3 39 a4 bd
       -0.025289483 -0.042587873 -0.04288123 -0.080188416
0001a0 28 0f 83 3d f6 3c 82 bd 88 19 81 3c d6 8c 5f 3c
       0.06399375 -0.063592836 0.015759245 0.013644418
0001b0 d6 41 ce bc 97 f9 b0 bd e6 86 c5 bd f4 16 58 3d
       -0.025177877 -0.086413555 -0.096448705 0.052756265
0001c0 10 3d 54 bd 70 35 af bd 8d bb 1b 3d 26 4f 8a bd
       -0.051816046 -0.08555114 0.03802066 -0.067533776
0001d0 e7 1a 87 3d cb e9 46 3c cc 9d ab bc c7 fa 78 b9
       0.06596928 0.0121407015 -0.020949267 -0.00023744545
0001e0 a1 e2 56 3d 70 e0 e2 3b 91 05 f6 3c 02 70 a4 3d
       0.052462224 0.0069237277 0.030031951 0.08029176
0001f0 57 b7 8f bd dc 4d 5d 3d d2 ac 19 bc 90 2f ef 3c
       -0.07017391 0.05402933 -0.0093795825 0.029197484
000200 59 89 d5 3d 77 6a 1d 3d 0a d6 8d 3d a1 95 7a bd
       0.104265876 0.03843161 0.0692559 -0.061177853
000210 59 3a 58 3d dd 79 7f 3d 27 5b a4 bc 4f 2f b4 3d
       0.05279002 0.062372077 -0.020062996 0.08798086
000220 c5 cb b6 bd 05 c4 dd 3c 8c ec 2b 3c ba cf e2 bd
       -0.08925585 0.027071008 0.010493409 -0.11074777
000230 f6 55 2b 3d 66 50 19 bd 63 61 12 3d 93 71 ae 3d
       0.041830026 -0.03743019 0.035737406 0.08517756
000240 cd 2b c9 bd 33 28 5d 3d 2d c6 23 3d 9a 7f 06 3d
       -0.098228075 0.053993415 0.039983917 0.032836534
000250 9a a2 5f 3d d0 b8 97 3d ac ef ce 3c ce 7f 5f bd
       0.05459843 0.07408297 0.025260769 -0.054565243
000260 f5 75 03 3d de 0c a9 bd cf 34 52 3d c1 88 93 bc
       0.032094914 -0.08254407 0.051319893 -0.018009545
000270 c8 28 9d bc 7c 8b f2 bc 81 56 a7 3d 22 76 68 bd
       -0.019184485 -0.029607527 0.08170796 -0.056753285
000280 20 ef 47 3d dc 13 c4 3d fc 7d 50 3b c2 47 43 3d
       0.04881203 0.095741004 0.0031813374 0.047675855
000290 35 25 5f bd e7 b4 88 bd 23 68 be bd 52 37 de 3c
       -0.054478843 -0.066751294 -0.09297206 0.027125988
0002a0 a8 bb 6e 3c 99 04 5c 3d 73 20 4d bd c3 e2 0b bb
       0.014571108 0.053715322 -0.050079774 -0.0021344877
0002b0 15 ab 68 3d 12 6a 87 3d 96 95 2f 3d 9b 6f a6 bd
       0.05680378 0.06612028 0.042867266 -0.08126756
0002c0 0d ff 37 3d c7 3b 38 3d 7f 4a 4b bd 57 90 88 3d
       0.04492097 0.044978883 -0.049631592 0.06668156
0002d0 71 5c 8a 3b 2e b5 c2 bb 07 a7 bd 3d 84 36 00 3c
       0.0042224457 -0.0059420085 0.092603736 0.007825498
0002e0 b8 9d 8b bd b5 a2 f9 bc 37 7c c9 3b b7 f0 b5 3b
       -0.06817192 -0.030473093 0.0061488408 0.005552377
0002f0 2f 01 17 3d 01 2a 0d 3d 32 d1 1a bc 4a 49 43 3d
       0.036866363 0.034463886 -0.00944929 0.047677316
000300 30 46 6c 3d a3 0a 86 bd 69 76 80 3d 99 bf 0c 3c
       0.057684124 -0.065449975 0.06272585 0.008590602
000310 a9 24 31 bb 4b bc fa 3d 28 26 8a bd c9 9b 41 bd
       -0.0027029908 0.12242945 -0.06745559 -0.04726771
000320 b0 77 88 bc 45 5b ba 3d 76 61 25 3d d3 b8 72 bd
       -0.016658634 0.090994395 0.04037615 -0.059258293
000330 b7 32 81 bd 8f d3 ef 3d f3 6c 59 3d 33 ae ac 3d
       -0.06308501 0.117102735 0.053082418 0.08431663
000340 de c1 95 3c 11 46 c1 3c 62 49 6b bc 6d bf 08 3d
       0.01828092 0.02359298 -0.014360758 0.033385683
000350 69 71 e6 3d 65 05 2d bd 90 98 c3 3c f4 2a aa 3c
       0.112521 -0.042241473 0.023876458 0.020772435
000360 a1 55 63 bc 64 0e 03 bd 1e 22 00 3d 98 7f 23 3d
       -0.013875396 -0.031996146 0.031282537 0.039916605
000370 2a 1b 2a 3d ba ad 93 bd 50 43 0b bc 01 b6 48 bc
       0.041529812 -0.0721087 -0.008499935 -0.012250424
000380 d1 e6 29 bd 8c 3d e1 3c 54 44 1e 3d d2 2d a8 3d
       -0.04147989 0.027495168 0.03863938 0.082118645
000390 fb 95 ab bd e5 c6 a5 bc 7f 6c 2b bd bb 5e 5f bd
       -0.08378216 -0.020236442 -0.041851517 -0.0545337
0003a0 35 69 d7 3d 70 33 92 39 5b d6 89 3c 0a 3c 34 bd
       0.105181135 0.00027885614 0.016825845 -0.04400257
0003b0 4e 4d 14 bd c2 0e 43 3d c1 36 1a bd 97 9e 6e 3c
       -0.036206536 0.047621496 -0.037649874 0.014564178
0003c0 ba b4 08 3d 88 4e f7 bd 85 dc 9d bd 74 29 10 3d
       0.03337548 -0.120755255 -0.077080764 0.035195783
0003d0 fc 44 81 3d d9 95 da 3d f9 48 e8 bd 60 e6 32 3d
       0.06311986 0.106731124 -0.113420434 0.043676734
0003e0 66 b5 30 bd 60 a5 f2 bc 80 87 78 bd 1f 30 38 3d
       -0.043141745 -0.029619873 -0.060676098 0.044967767
0003f0 28 48 a3 3d 6e ac 59 bc 9b d6 35 bd 89 01 70 3d
       0.07972747 -0.013285739 -0.044394117 0.058595214

fc2.bias f4 [64]
000000 f1 98 29 bd b6 3a 9d 3d 24 7f 93 bd 31 05 1e bc
       -0.041405622 0.07677214 -0.072019845 -0.009644792
000010 79 f5 56 bd 52 40 6c 3d c1 e5 7f bc 34 8f 2b bd
       -0.052480195 0.057678528 -0.015618742 -0.041884616
000020 77 98 57 bb 2d c8 fe bb 35 56 6a 3d 57 1a 9c bd
       -0.0032897273 -0.0077753277 0.05721112 -0.076222114
000030 b9 bc a5 bd f3 b5 8c bd bd df 88 3d 8a 2b 5d bd
       -0.080926366 -0.068706416 0.066833 -0.0539966
000040 d3 51 0d 3d e4 40 1a 3d 7d 38 0d bd 1e 9c 96 3c
       0.03450186 0.03765954 -0.0344777 0.01838499
000050 9f 36 e5 3b fb 15 ad 3c e8 9d 81 bd 38 6a 65 bd
       0.0069950367 0.021128645 -0.06328946 -0.0560095
000060 b7 af 6d 3c 50 59 3b bd fa b9 74 3d f7 59 56 3d
       0.014507226 -0.045739472 0.059747674 0.05233189
000070 46 2a 68 3c 91 f4 22 bd 1d 36 92 bd d6 7f 58 bd
       0.014170235 -0.039784018 -0.071392275 -0.05285629
000080 5a cb 9c 3c a3 a8 3d bd 70 57 8e 3d 3b d5 a8 bd
       0.019139934 -0.046303403 0.06950271 -0.082437955
000090 46 14 9b bd 77 c3 99 3d 3f c3 8f 3c 19 72 95 3c
       -0.07572226 0.07507985 0.017549155 0.018242883
0000a0 d2 08 92 3b 72 cc 7e 3d d0 6d 7a bd 7a 1a 86 3d
       0.004456618 0.062206693 -0.06113988 0.06548019
0000b0 63 51 ca 3c 9c e9 ae 3d 1f d0 ca bc ff a2 1c 3d
       0.024697011 0.08540651 -0.024757443 0.038241383
0000c0 1c a0 2c 3d 13 9f 09 bd f5 f8 1f bd 72 f7 5a 3c
       0.04214488 -0.03359897 -0.039055783 0.01336466
0000d0 c2 46 8f 3d e0 f2 99 3d a1 7f 64 3d f0 0f 6f 3d
       0.06995918 0.07517028 0.05578578 0.05836481
0000e0 e9 20 1c bd c4 3c 14 3d 87 f4 e8 bc 93 2f 19 3c
       -0.038117323 0.036190763 -0.028436912 0.0093497215
0000f0 1c 10 7f 3c 13 f3 04 3d c9 63 94 3d 1e b3 73 bd
       0.015567806 0.032458376 0.07245595 -0.05949699

bn2.weight f4 [64]
000000 d8 f8 88 3f 77 6e 82 3f b2 a9 81 3f 13 e5 78 3f
       1.0700941 1.0189961 1.0129912 0.9722454
000010 72 10 7d 3f 01 06 8b 3f 5f f2 82 3f 34 e0 88 3f
       0.9885322 1.0861207 1.0230216 1.0693421
000020 ad b0 8d 3f cf 43 81 3f e2 0b 84 3f e7 d9 7b 3f
       1.1069542 1.0098819 1.0316126 0.9837937
000030 07 c7 7c 3f 98 d7 78 3f 60 f8 73 3f 78 cb 76 3f
       0.9874119 0.9720397 0.95300865 0.9640422
000040 94 3e 79 3f b6 96 88 3f a9 7c 82 3f 7d 4a 82 3f
       0.9736111 1.0670993 1.0194293 1.0178982
000050 ee 86 85 3f 0a 23 89 3f 21 13 85 3f c6 1d 89 3f
       1.0431802 1.0713818 1.0396463 1.0712211
000060 13 4a 8a 3f e4 08 75 3f d7 82 7c 3f 98 03 83 3f
       1.0803856 0.9571669 0.98637146 1.0235472
000070 70 15 7f 3f f2 59 85 3f fb 7e 7b 3f ad 22 8b 3f
       0.99642086 1.0418074 0.9824063 1.0869957
000080 5e f8 79 3f c8 6c 7f 3f eb ed 96 3f be 29 7b 3f
       0.97644603 0.9977536 1.1791357 0.9811057
000090 6d 09 80 3f 72 62 81 3f 1f 1a 7e 3f eb b8 83 3f
       1.0002877 1.0108168 0.9925861 1.0290807
0000a0 89 96 80 3f 0d 15 8a 3f 55 6d 74 3f 29 39 80 3f
       1.004594 1.0787674 0.9547933 1.0017444
0000b0 19 06 7c 3f bc 3a 8b 3f 18 7c 8e 3f fb b9 76 3f
       0.98446804 1.0877299 1.113162 0.96377534
0000c0 c1 46 97 3f fa 89 95 3f e8 7b 8f 3f 6d e5 78 3f
       1.1818467 1.1682732 1.1209688 0.97225076
0000d0 14 14 76 3f 63 54 80 3f 4f aa 81 3f c4 c2 85 3f
       0.96124387 1.0025753 1.0130099 1.0450063
0000e0 df 99 78 3f b6 a3 73 3f df 6b 8c 3f 9f d9 8a 3f
       0.9710979 0.9517168 1.097042 1.0847663
0000f0 b1 76 7e 3f 34 1d 73 3f 8e 0e 7c 3f bb a8 86 3f
       0.9939986 0.94966435 0.9845971 1.0520242

bn2.bias f4 [64]
000000 78 d3 90 3c 0e 67 3f 3d 79 d8 56 bc 22 be 0c bd
       0.017678961 0.04672914 -0.013113135 -0.034361012
000010 74 c4 ee bc 74 76 f2 3d 50 7d d7 3c 47 45 10 3d
       -0.02914641 0.118389994 0.02630487 0.035222318
000020 cc b6 2a 3c ca 2c 9f bc 66 ae 18 3a 59 7b b1 bb
       0.010419559 -0.019430537 0.0005824327 -0.0054163155
000030 de d4 a4 bd 82 44 2a bc 8b 9b 91 bd 1d da 88 bd
       -0.08048414 -0.01039231 -0.071097456 -0.06682227
000040 6b 97 47 bd 5a ff 42 bc be 20 b2 3c c8 88 1e bd
       -0.048728388 -0.011901701 0.021744128 -0.038704664
000050 7a 9b 96 bb cd 14 65 bc 7e 13 99 3c 06 f3 51 3d
       -0.004596171 -0.01398201 0.018686052 0.051257156
000060 f5 3f 52 3c b6 cb 3e bc db 64 1f 3c 10 56 19 3e
       0.012832631 -0.011645248 0.009728636 0.14974236
000070 ba b7 19 be de 74 37 3d bb 6c c9 bc 9f b7 e2 3d
       -0.15011492 0.044789188 -0.02458798 0.11070179
000080 e9 99 c0 3c f6 1b 82 3d fe 12 6b 3c ec 85 00 bc
       0.02351089 0.063529894 0.01434779 -0.007844429
000090 f9 de 5d bc b7 d6 80 bc 92 30 31 bc dc 17 2f 3c
       -0.01354193 -0.015727384 -0.010814803 0.010686841
0000a0 60 31 82 3d 5b b3 c7 3d 8f 4e 93 bd 5d 60 0d bd
       0.06357074 0.09751006 -0.07192718 -0.034515727
0000b0 a0 8f a9 3b a9 30 84 3d cf 69 0b 3d 67 50 a7 bd
       0.005174592 0.06454594 0.034036454 -0.081696324
0000c0 17 c3 c9 3d 17 b1 1d 3e 9f a6 12 3d 34 bf 03 bc
       0.098516636 0.15399586 0.035803434 -0.008041192
0000d0 f7 89 3c bd 22 df 62 3c 53 bc 34 3c cd 94 20 3d
       -0.04603001 0.013847144 0.011031228 0.039204407
0000e0 45 2e 02 bd 1a 46 89 bd 19 92 ae 3d c5 af 54 3c
       -0.031782407 -0.06702824 0.0852396 0.01298136
0000f0 04 be 01 bd 02 ca 43 bd 75 55 0a bd 81 0b 83 3b
       -0.031675354 -0.04780007 -0.033772904 0.003999174

bn2.running_mean f4 [64]
000000 d0 82 8c be c2 dd 28 3e 7f 4b 81 be 10 15 9e be
       -0.27443552 0.16490844 -0.2525291 -0.30875444
000010 c9 4c 23 be 60 a7 ac 3e 92 0a 10 3e 21 2b 6d be
       -0.1594726 0.33721447 0.14066532 -0.23160984
000020 ea d3 34 be ca ef 86 be bf 02 ae bd 1f 41 36 3e
       -0.17658964 -0.2635482 -0.084966175 0.17798279
000030 73 0a ae be 2c c5 54 be 39 7d a7 bd ca eb 9e be
       -0.33992347 -0.2077834 -0.08178181 -0.31039268
000040 31 9c 87 3d 11 19 e3 3d 5e 1b 90 be 8c 32 b0 3d
       0.06621588 0.110887654 -0.2814588 0.08603391
000050 0c ab 18 be e9 07 62 bd 53 f7 9c be bb 9a 42 bd
       -0.14908999 -0.055183325 -0.30657443 -0.047510844
000060 a8 b8 85 3d b1 91 fa be 85 6a eb bd 6b 98 36 3e
       0.06529361 -0.4893928 -0.11494926 0.1783158
000070 33 a7 9c bd 76 8a 3c be 33 b0 e0 be 74 ae 63 3d
       -0.07649078 -0.18412194 -0.4388443 0.055586293
000080 2c ee ad 3e 41 bd 0f 3e 1a 45 78 3e 59 7a d0 bd
       0.33970773 0.14037038 0.2424511 -0.10179586
000090 1f 30 ab be e4 b6 05 be eb d6 30 be 2a bf 4d be
       -0.3343515 -0.13058048 -0.17269485 -0.20092455
0000a0 2d 38 12 3e 2b 3f 99 3d 54 5a 6b be d7 c2 44 3e
       0.14279242 0.074827515 -0.22983676 0.1921495
0000b0 8d 10 6d be 4d 4a a0 3e 7b ee 81 be 49 e3 33 3e
       -0.23150845 0.31306687 -0.2537726 0.17567171
0000c0 9d b9 2e 3e d4 7a 4a 3e 91 c5 3f bd 8c 7d 82 be
       0.17062993 0.19773418 -0.046819273 -0.2548641
0000d0 e2 1f 68 be ad e4 c4 3a 19 69 7a be 0c 6a 6a ba
       -0.22668412 0.0015021764 -0.24454154 -0.0008942194
0000e0 b5 1b 9a be 6d 0d 0d bf 71 0a 8b bb f4 b6 7b be
       -0.30099264 -0.5509861 -0.004243188 -0.2458151
0000f0 ef ca 2e 3e 70 3e f6 bd 9f e7 b0 bd 84 49 4e be
       0.170696 -0.12023628 -0.08637928 -0.20145231

bn2.running_var f4 [64]
000000 9e fb a7 3e 42 d6 ef 3e 4d 04 a6 3e f5 2a ee 3e
       0.32809156 0.46843153 0.32425156 0.4651715
000010 7e ea 06 3f cc b0 5b 3f c2 b1 f1 3e 28 a5 02 3f
       0.52701557 0.85816646 0.4720593 0.5103326
000020 5a e7 07 3f 4f 42 7b 3e 6e ee e7 3e 18 b7 2a 3f
       0.5308739 0.24537013 0.45299095 0.6668563
000030 62 20 c1 3e 0b 28 10 3f 7c d2 ea 3e 99 75 02 3f
       0.3772002 0.563111 0.45863712 0.5096069
000040 69 62 4d 3e 72 67 6b 3f d9 7d a6 3e 4f 00 ec 3e
       0.20057072 0.9195472 0.3251789 0.46093985
000050 13 49 97 3e bd 4b 97 3e a4 ac 19 3f 52 e7 22 3f
       0.2954794 0.2954997 0.60029054 0.63634217
000060 4b 88 0f 3f b5 26 fa 3e a3 4d 01 3f ae 88 1b 3f
       0.5606734 0.48857656 0.5050909 0.6075543
000070 f0 1b 2e 3e 8c 87 37 3f 5c 85 0a 3f b6 9c 25 3f
       0.17002845 0.71691203 0.5410974 0.64692247
000080 b1 dc cf 3e f3 8e 06 3f ce 8a 37 3f bf 7f c4 3e
       0.40598062 0.52561873 0.71696174 0.38378713
000090 50 cc 10 3f b4 fd d5 3e 6a b1 0a 3f 49 c6 4d 3f
       0.56561756 0.41795123 0.5417696 0.80380684
0000a0 f6 ec 14 3f af 7a 4b 3f c4 4f 8c 3e 8b 3f a7 3e
       0.58174074 0.79484075 0.27404606 0.32665667
0000b0 54 50 ba 3e f8 51 5d 3f f1 58 1c 3f f0 b7 33 3e
       0.3638941 0.864532 0.61073214 0.17550635
0000c0 e3 7a 2f 3f db f1 1a 3f a3 46 42 3f 7d 81 a8 3e
       0.68546885 0.6052529 0.75889033 0.32911292
0000d0 6f 20 88 3e 30 15 01 3f fe a2 f7 3e 09 7b 13 3f
       0.26587245 0.50422955 0.4836654 0.5760961
0000e0 19 04 cb 3e 9f 75 48 3f e1 e1 08 3f 7e 06 38 3f
       0.39651564 0.78304476 0.53469664 0.71884906
0000f0 c3 50 a5 3e f6 5f 0f 3f bf 5b a2 3e ca cf f7 3e
       0.3228818 0.560058 0.31710622 0.48400718

fc3.weight f4 [32, 64]
000000 6d 1f 0b 3c 38 cf a1 3c 35 3b fb 3c 11 04 fe bd
       0.008491379 0.01975213 0.03066788 -0.12403119
000010 ad 7c 0f be 5d 4c 1b 3d 88 21 07 bd 5a e6 7e bd
       -0.14012404 0.037914623 -0.032990962 -0.0622314
000020 42 b1 0e be 18 cf db bd 98 71 f5 bd b4 53 09 bd
       -0.13934806 -0.107328594 -0.11984557 -0.03352709
000030 d6 ed e0 bd 4f d5 e2 bd ae 10 29 3d 22 63 8d bd
       -0.109828636 -0.11075842 0.041275673 -0.06903674
000040 90 8f fd bc 55 b8 22 bd ed 1c 90 3d c5 76 1d be
       -0.030952245 -0.039726574 0.07036767 -0.15377338
000050 86 f9 95 bd 56 1f 04 3d 22 b9 17 be 87 44 21 bc
       -0.073229834 0.032256447 -0.14816716 -0.009842998
000060 40 fd 5e bd fa ee 26 3d e7 7a 18 be b7 ca 1a bc
       -0.054440737 0.04075525 -0.14890634 -0.009447745
000070 0c 79 98 bd b4 de 94 bd 93 2f c3 bd d0 70 00 3d
       -0.07444963 -0.0726904 -0.095305584 0.031357586
000080 c2 a4 ae bc 33 fa 0c 3d 5e a8 4f 3b f4 81 63 bd
       -0.021318797 0.034418296 0.0031686048 -0.055543855
000090 d2 bd 6a 3d 03 1a c0 3d 73 5a c7 bd de 84 7d bd
       0.057309933 0.09379961 -0.09734049 -0.06189429
0000a0 2e a0 8e bc a5 22 1e 3d b2 72 9e 3d c7 1f d4 bd
       -0.017410364 0.03860726 0.0773672 -0.103576235
0000b0 07 43 4e 3d ad 65 e3 bc cb 9e 46 bd 2b 19 84 bc
       0.05035689 -0.027758444 -0.04849128 -0.016125282
0000c0 b2 16 07 3d d8 a5 96 3c a3 2b c6 3c d9 90 8c 3d
       0.03298063 0.018389627 0.02419073 0.06863565
0000d0 cc fc e9 3c 3d 9d 24 be ff b2 8f bd ab ba 0e 3d
       0.028562926 -0.16075607 -0.07016563 0.03484599
0000e0 95 13 d6 bc ef 20 52 bc 01 21 49 bc 37 20 7c bd
       -0.026132384 -0.012825235 -0.012275935 -0.06155416
0000f0 ee 53 43 3d eb 52 fc 3d 07 02 1a be bf 64 12 3c
       0.047687463 0.12320503 -0.15039836 0.008935153
000100 37 06 61 3d b3 22 45 3d 45 04 11 bd f5 e5 19 bc
       0.054937568 0.048128795 -0.035404462 -0.009393205
000110 9c 44 26 bc c1 a8 8f bd 66 3a 4e 3d 36 02 11 3d
       -0.010148194 -0.07014609 0.05034866 0.0354025
000120 2b 21 cd 3d 98 88 88 3d 72 93 8e 3d 15 ec e1 3c
       0.10016092 0.06666678 0.06961717 0.027578393
000130 ea 26 47 3d df 7f da bd 30 b4 cf 3d ad 4f 49 bc
       0.048621096 -0.10668921 0.1014179 -0.012287063
000140 b0 b0 b6 bd b9 58 0f 3d b7 bd ea bc bb cd a8 3b
       -0.08920419 0.034996722 -0.028654916 0.005151478
000150 98 58 88 bd bc 70 d8 3d 5e 82 ed bc 95 1f 28 be
       -0.06657523 0.105683774 -0.028992828 -0.16418298
000160 ce cd 55 be e1 e2 69 bd 25 3d 54 bd d8 6c 24 bc
       -0.2087929 -0.057101134 -0.051816124 -0.010035716
000170 64 0e 2b bd 62 e2 2f bc f1 98 4c bc 3a 0b b5 3c
       -0.04176177 -0.010735126 -0.012487636 0.02210008
000180 ff 2d cd bd 05 a9 d9 bc 1c 57 7e 3a 87 f5 84 bc
       -0.10018539 -0.026569853 0.00097023114 -0.016230358
000190 37 ec 3f 3d f0 7b 90 bd e2 38 1c 3d c3 62 60 bd
       0.04685613 -0.07054889 0.038140185 -0.054781687
0001a0 9b 2f 13 3d 72 ce 24 be 2c a7 eb bd 3e 21 28 3d
       0.035934072 -0.16094378 -0.11506495 0.041047327
0001b0 ed d9 2a bd 99 ac 35 be 2f 63 48 be 87 a6 92 bd
       -0.041711736 -0.17741622 -0.19569086 -0.07160669
0001c0 37 b1 33 be 1b 2e 45 be 22 f3 b0 bc 34 8a 9f bc
       -0.17548071 -0.19255869 -0.02160031 -0.01947508
0001d0 ac 65 a4 3d e8 54 a3 3c d1 36 1f 3d 3d 43 2b bb
       0.08027205 0.019937947 0.038870636 -0.0026132606
0001e0 0f 02 41 bd ef 5e ac bd 64 ad 10 3d c4 a1 35 be
       -0.047121104 -0.08416545 0.03532161 -0.1773749
0001f0 e2 54 60 3d 95 62 c0 3d 10 f6 6a bd 52 ba d0 bc
       0.05476845 0.09393803 -0.05736357 -0.02547947
000200 5e 11 b7 bd cb 2c bf bd 62 e1 44 3d 8d 72 8b 3d
       -0.089388594 -0.093347155 0.048066504 0.06808958
000210 fa fd 7b 3d bb 22 18 be d9 68 98 bd bf 79 f2 bd
       0.061521508 -0.14856999 -0.07441873 -0.118396275
000220 85 f2 37 bd cc db 0a bc a8 38 a5 3a f9 0a e8 bd
       -0.04490902 -0.008475255 0.0012605386 -0.11330218
000230 ae 20 a8 bd f9 40 3d 3d c7 13 ed 3d 06 06 47 3b
       -0.08209358 0.04620454 0.11576038 0.003036858
000240 b9 97 f5 bd 59 b2 bf bc a7 89 16 3d d7 5a a7 3b
       -0.119918294 -0.023400472 0.03675237 0.0051072645
000250 e1 c3 d9 3c 17 ab c5 bc d5 20 bb 3c 9f b6 33 be
       0.02658266 -0.024129434 0.022842804 -0.17550133
000260 b7 42 d8 bd 21 7c 11 bd 77 4c ad bd 72 6e d2 bd
       -0.105596 -0.03551877 -0.0846185 -0.10274972
000270 e2 34 d5 bc 97 c8 b2 bc e3 eb a9 bd 21 e5 b7 bd
       -0.026026193 -0.021824164 -0.08296945 -0.0897925
000280 f8 4b 24 3d b0 4f 6f 3b 3b 34 3e be 1f 67 d1 bc
       0.040111512 0.0036516003 -0.18574612 -0.025561867
000290 37 53 8c 3c 45 47 d8 bc 0d 6a 19 bd b3 aa 43 3c
       0.017129524 -0.026401171 -0.037454654 0.011942553
0002a0 30 8d 6b bd de 88 93 bc 4f bc f3 bc 3e 7c fb 3a
       -0.057507694 -0.0180096 -0.029752878 0.0019186807
0002b0 6c e8 2a bb 6e a7 1e be 04 69 d0 bd 95 10 33 3d
       -0.0026078476 -0.15493557 -0.1017628 0.043716986
0002c0 80 fa 9a bd 8a 45 e7 bd 94 dd 0e be 41 8f c1 3d
       -0.0756731 -0.112925604 -0.13951713 0.09451152
0002d0 72 f4 af 3b 62 1a 8b 3d d0 b8 a0 bc bb f8 27 be
       0.0053697163 0.067921415 -0.019619375 -0.16403477
0002e0 c9 02 a4 3d 44 5d 92 3c 6b 3c 11 be d7 f4 24 be
       0.08008344 0.017866738 -0.14183204 -0.16109024
0002f0 66 81 8f bd ca 03 4b 3c c0 40 9f 3c 36 9f de bc
       -0.07007103 0.01239104 0.019440055 -0.027175527
000300 44 ff 3f be da 44 0d bb b5 11 45 be c2 4c 62 bd
       -0.1874972 -0.0021555931 -0.19245036 -0.055248983
000310 ed 8c 9e bd 05 50 26 bd 1d 59 53 3d ef 58 7a 3d
       -0.07741723 -0.040603656 0.051598657 0.06111997
000320 96 06 43 be cb 42 9c bd 9f 18 f0 bd 24 08 c0 bc
       -0.19045481 -0.07629927 -0.11723446 -0.023441382
000330 c6 d0 e8 bc 54 80 f8 bd cb 26 e6 3c 91 40 24 3d
       -0.028419863 -0.12133852 0.02809467 0.040100638
000340 ad 0c 08 bc 13 c1 ab bc 0e 58 df bd ce 5d e9 bd
       -0.008303803 -0.020966088 -0.10905467 -0.11394845
000350 b3 98 b5 3c c5 0d 5d be df 39 86 bc 54 8d f2 bc
       0.02216754 -0.21587284 -0.016385017 -0.029608406
000360 47 03 ea 3d 37 19 9f 3d ed 5c 18 be a6 a8 ca bd
       0.11426406 0.07768481 -0.14879198 -0.098954484
000370 e1 f4 a7 3d 82 2a ab bd 45 8c c3 3c ae 9f b1 3d
       0.08201004 -0.08357717 0.023870597 0.086730346
000380 bb 37 40 bc dc 60 48 bd b0 16 0a bd 04 d3 08 bd
       -0.011732037 -0.048920497 -0.033713043 -0.033404365
000390 e3 bf cf 3c 5b f7 41 bd f1 29 8d bd 61 85 02 be
       0.025360053 -0.047355037 -0.06892765 -0.12746193
0003a0 6e c8 03 bd bf f5 87 3d 1f b8 96 bd de 38 9a bb
       -0.032173567 0.06638669 -0.07359337 -0.004706486
0003b0 a6 a2 f1 bb f5 d2 d9 bc 13 64 b5 3c f8 16 9a 3c
       -0.0073741255 -0.02658985 0.022142446 0.01880978
0003c0 19 fe 5b bc e6 ac d2 3b a7 74 cc 3d 7c 7e 10 be
       -0.013427281 0.0064293025 0.09983187 -0.1411075
0003d0 71 52 2e bd 7a 9c bb bd 97 b3 f5 bd 96 44 97 3d
       -0.04255909 -0.09160705 -0.11997145 0.073861286
0003e0 7f a7 59 3c 3d 08 0c be 17 39 94 bc 77 52 50 3d
       0.013284563 -0.13675018 -0.018093629 0.050859895
0003f0 5e e1 07 be 54 fd cc bd 71 83 40 3c 6a f0 4f 3d
       -0.13269565 -0.10009256 0.011750088 0.050766386

fc3.bias f4 [32]
000000 0e e3 98 bc 99 1c a0 3d fc 54 37 3b 2c 36 3a 3d
       -0.018662956 0.078179546 0.0027974239 0.04546182
000010 c4 a3 c6 bc c6 56 19 bc e0 7e 9f bd b5 8f c1 bd
       -0.024248011 -0.009359067 -0.07787871 -0.09451238
000020 17 7b 32 bd 08 df a8 bd 5f 0c fa 3d 81 f3 74 3d
       -0.04357442 -0.08245665 0.12209391 0.059802536
000030 8d 91 c7 bd a1 7b 14 bd 9b 3c 7c bd 6c 87 52 bd
       -0.097445585 -0.036250714 -0.061581235 -0.05139868
000040 4a f8 73 3c 17 17 68 3d d8 3d df bc 94 81 02 3d
       0.01489074 0.056662645 -0.02725117 0.031861857
000050 93 b9 c8 3c a5 d6 1e 3d cb c5 97 3c 7b 2c 05 3d
       0.024502551 0.03877892 0.018526932 0.032513123
000060 69 de 93 bc 6d 2a 92 bd ef 20 c6 bd 91 5f 90 bc
       -0.01805039 -0.07136998 -0.0967425 -0.017623695
000070 62 3a 7f bd 67 e5 e7 3c 91 15 f3 3c 2e a3 2c 3c
       -0.062311538 0.02830763 0.02967337 0.010536952

bn3.weight f4 [32]
000000 85 f7 66 3f 32 18 5a 3f 14 12 88 3f ed 53 a3 3f
       0.90221435 0.8519317 1.0630517 1.2759987
000010 50 b0 8b 3f 96 a2 68 3f 79 24 7d 3f bb cc 61 3f
       1.0913181 0.90873086 0.9888378 0.8820302
000020 51 06 75 3f 73 1e 89 3f e5 91 91 3f da 34 7a 3f
       0.95712763 1.0712417 1.1372648 0.97736895
000030 0a 03 83 3f 86 2a 6f 3f 0a 69 6e 3f 19 39 69 3f
       1.0235302 0.9342426 0.93129027 0.9110275
000040 16 0e 6c 3f 44 73 69 3f 04 71 6c 3f 46 ea 95 3f
       0.92208993 0.91191506 0.9235995 1.171212
000050 5e 89 7e 3f e1 00 69 3f cf 2a 86 3f d9 f7 89 3f
       0.99428356 0.91016966 1.0481814 1.0778762
000060 a9 d5 74 3f d5 65 9b 3f e6 eb 9a 3f 9b 9b 84 3f
       0.9563852 1.2140452 1.210324 1.0359987
000070 94 65 91 3f 81 e1 82 3f 13 e6 67 3f 7a 8b 84 3f
       1.1359124 1.0225068 0.9058544 1.0355065

bn3.bias f4 [32]
000000 69 74 35 be 0a 77 d5 bd f9 82 32 3d b9 57 64 3e
       -0.17720188 -0.104230955 0.043581937 0.22299089
000010 da a8 f3 3d 9c 54 5d 3c 41 3e 88 bb a8 09 af bd
       0.1189744 0.013508942 -0.004157812 -0.08546764
000020 45 3f ad bc d9 e0 9a 3d c3 6f 78 3e fb 15 ee bc
       -0.021148333 0.075624175 0.24261384 -0.029063215
000030 fe 37 d4 3d d1 de 91 bd 62 11 16 bd 45 2a 6b bd
       0.10362242 -0.07122577 -0.03663767 -0.05741336
000040 21 a0 f5 bd 93 16 d2 bd 0e 26 cc bd ff 3f c9 3d
       -0.11993433 -0.10258212 -0.09968196 0.098266594
000050 f9 af 71 3d b3 4a ef bc 49 91 9d 3d ce a8 15 3e
       0.05900571 -0.029210424 0.076937266 0.14615175
000060 df 3b da 3d 12 8e 1f 3e b8 32 2a 3e db 49 9a bc
       0.10655951 0.1558154 0.1662091 -0.018834045
000070 f6 71 13 3e 81 c4 2e 3d 81 7c c9 bd 45 17 13 3e
       0.14398941 0.04266787 -0.098382 0.14364345
