MELOSDP/SDP/chkpt/mc1/linear/8/sdp_classifier_linear-240.pth (torch, 77408 bytes, 25 tensors)

fc1.weight f4 [128, 38]
-0.04714876 0.0056460113 -0.14723219 -0.04060434 0.12574422 -0.022158412 0.05842721 -0.10996453
-0.1163733 -0.03729551 -0.14373529 0.1026914 0.07681676 0.061318442 0.08773462 0.008641289
0.16933936 0.029807877 0.05645349 -0.13109618 -0.057569865 0.13350603 0.11919789 0.107344456
0.001627896 0.12201577 -0.14559093 -0.059961863 0.03667336 0.15681092 -0.010440032 0.10134201
-0.14972152 -0.0010999761 -0.10547487 0.039438356 0.09463398 0.14516938 -0.14772585 -0.0650743
-0.050144326 0.04032147 0.093388855 -0.0056996406 0.0850247 -0.17774433 0.159959 0.014183532
0.084720075 -0.16489798 0.15514046 0.06463495 -0.07295251 -0.11778604 0.0864129 0.051635467
-0.03020219 -0.051341843 0.11160079 -0.15151842 0.09359679 -0.02427595 -0.018633055 -0.040518414
-0.109288156 -0.119273506 -0.08339199 0.028025681 0.035145685 0.07553358 0.121646546 -0.11052676
-0.08927065 0.08601856 -0.012988861 0.15460634 0.061208673 -0.018968 0.11173655 -0.07717222
-0.05295715 0.015599161 0.14925668 -0.15338017 -0.07416657 0.0110345455 0.11660938 0.09865305
-0.08795851 -0.09937841 -0.13689135 0.07076576 -0.00075851567 -0.11698678 0.03524935 0.017042236
-0.0071223546 -0.10533009 0.024312792 -0.0026986839 0.012956627 -0.09595896 -0.0019504545 -0.00063116197
0.11913953 -0.09590975 0.1187369 0.15132241 0.16581781 0.05220527 0.123846315 0.16138484
0.10327763 -0.024012713 -0.052432843 0.059484173 0.117177695 -0.11510829 -0.14034845 0.09174546
-0.10689046 -0.09737719 -0.024463668 0.102321796 -0.14124942 -0.07478576 -0.02498766 -0.031237446
0.12588468 0.07393206 0.14586978 0.13613796 -0.05151979 -0.0804431 -0.14548485 0.023251425
0.054559477 0.065589495 -0.055036053 -0.15445206 0.042360686 -0.01755006 -0.13905756 -0.13030212
0.1178542 -0.024897369 -0.032093275 -0.10549093 -0.08736554 0.01185821 0.023643173 -0.14744422
-0.020313397 0.025986789 -0.10092817 -0.020860413 -0.102183074 0.13411658 0.17216516 -0.09940165
0.15354571 0.0025370813 -0.03020064 0.16761318 0.11706294 -0.051427748 -0.006187022 0.07936767
-0.016110597 -0.13691525 -0.044910423 -0.0714385 0.066701755 -0.10362658 -0.000909489 0.018316606
-0.072403245 -0.0710526 0.105746344 -0.14088418 -0.049178287 0.11638139 0.16381387 -0.020470943
-0.14855707 -0.07255534 -0.0059900945 -0.08723987 0.08318049 -0.15067619 -0.08421242 -0.10535353
-0.005157359 -0.04811196 -0.048665263 -0.010318282 -0.098779075 0.05598054 0.05880486 0.1470507
-0.038135115 0.01123334 -0.04549439 -0.052349523 0.13905267 0.029184993 -0.017703816 0.066964634
-0.09369723 0.06230262 -0.004233397 0.0135267805 -0.08444925 -0.06286511 -0.05180779 -0.059347983
0.14321075 0.10744325 0.0075014858 -0.015081241 0.15462776 0.0782469 -0.012098291 -0.11508843
0.037022997 0.12059859 0.012943095 -0.15678604 -0.050107077 -0.03061591 -0.16396119 -0.03722588
-0.15612577 0.08634419 -0.027321776 0.009875533 0.10580128 -0.1213321 0.072184406 0.1183222
0.038939945 -0.0571752 0.06530717 0.0725895 0.07259035 -0.12949692 -0.16380496 0.023898123
0.03723381 0.07952389 -0.165008 0.07086574 -0.046099003 -0.12471115 0.09560592 0.023240885
00000000: 0f1f 41bd 2d02 b93b 09c4 16be bd50 26bd
00000010: 18c3 003e 8f85 b5bc 5f51 6f3d 1535 e1bd
00000020: 2055 eebd 2dc3 18bd 582f 13be de4f d23d
00000030: 1b52 9d3d 0c29 7b3d 35ae b33d 3194 0d3c
00000040: 4c67 2d3e a62f f43c c63b 673d 143e 06be
00000050: 61ce 6bbd ceb5 083e 061e f43d 69d7 db3d
00000060: 205f d53a 67e3 f93d ca15 15be 929a 75bd
00000070: ce36 163d 0b93 203e ab0c 2bbc 668c cf3d
00000080: 9950 19be 132d 90ba 3503 d8bd 1d8a 213d
00000090: 76cf c13d 48a7 143e 7245 17be ad45 85bd
000000a0: 2364 4dbd 2028 253d a842 bf3d 0dc4 babb
000000b0: 6e21 ae3d 9c02 36be 4bcc 233e 0c62 683c
000000c0: b881 ad3d 04db 28be 24dd 1e3e 545f 843d
000000d0: 2068 95bd cf39 f1bd 3ff9 b03d b67f 533d
000000e0: 956a f7bc d34b 52bd f48e e43d a527 1bbe
000000f0: adaf bf3d 5bde c6bc 59a4 98bc a3f6 25bd
00000100: 78d2 dfbd ab45 f4bd 6bc9 aabd 1d96 e53c
00000110: ecf4 0f3d 59b1 9a3d d321 f93d db5b e2bd
00000120: 88d3 b6bd 802a b03d 3bcf 54bc 2051 1e3e
00000130: f2b5 7a3d c762 9bbc 22d6 e43d 780c 9ebd
00000140: 99e9 58bd a093 7f3c bed6 183e b10f 1dbe
00000150: a5e4 97bd 3dca 343c e6d0 ee3d 9c0a ca3d
00000160: 9723 b4bd e886 cbbd 3f2d 0cbe a4ed 903d
00000170: 20d7 46ba c496 efbd 9f61 103d 299c 8b3c
00000180: a462 e9bb 4db7 d7bd 9f2b c73c 67dc 30bb
00000190: 0848 543c 2286 c4bd 65a6 ffba 9074 25ba
000001a0: 6dff f33d 556c c4bd 552c f33d 43f4 1a3e
000001b0: 25cc 293e 31d5 553d 23a3 fd3d 1142 253e
000001c0: 3983 d33d 4fb6 c4bc d2c3 56bd ada5 733d
000001d0: dcfa ef3d e5bd ebbd 81b7 0fbe 0be5 bb3d
000001e0: 63e9 dabd b16d c7bd 0868 c8bc 178e d13d
000001f0: b0a3 10be 4729 99bd ecb2 ccbc ace5 ffbc
00000200: eae7 003e b169 973d e35e 153e c067 0b3e
00000210: 6a06 53bd 5abf a4bd fbf9 14be c679 be3c
00000220: c279 5f3d c953 863d 7c6d 61bd ae28 1ebe
00000230: 6682 2d3d 25c5 8fbc 1b65 0ebe eb6d 05be
00000240: 8b5d f13d 91f5 cbbc 3d74 03bd a10b d8bd
00000250: b4ec b2bd f048 423c 54af c13c 9efb 16be
00000260: 4868 a6bc 3fe2 d43c 6eb3 cebd 75e3 aabc
00000270: 5c45 d1bd db55 093e 104c 303e 1893 cbbd
00000280: 163b 1d3e 2945 263b 5567 f7bc caa2 2b3e
00000290: b2be ef3d e7a5 52bd 81bc cabb 848b a23d
000002a0: 5ffa 83bc 8333 0cbe fef3 37bd 594e 92bd
000002b0: ee9a 883d 2c3a d4bd c66a 6eba b50c 963c
000002c0: 2748 94bd 0784 91bd 8a91 d83d f143 10be
000002d0: 2c6f 49bd 5e59 ee3d d3be 273e aeb2 a7bc
000002e0: 581f 18be e597 94bd 8e48 c4bb d1aa b2bd
000002f0: 885a aa3d dc4a 1abe 9077 acbd 97c3 d7bd
00000300: 10ff a8bb 0c11 45bd 3a55 47bd 030e 29bc
00000310: af4c cabd da4b 653d 5ddd 703d 7594 163e
00000320: 9133 1cbd 0b0c 383c 5358 3abd 746c 56bd
00000330: d363 0e3e 5e15 ef3c 9807 91bc c124 893d
00000340: 55e4 bfbd 0831 7f3d 4fb8 8abb 6e9f 5d3c
00000350: baf3 acbd 6cbf 80bd 6834 54bd df16 73bd
00000360: d7a5 123e 350b dc3d 06cf f53b 4f17 77bc
00000370: bd56 1e3e e93f a03d e937 46bc 7cb3 ebbd
00000380: 6da5 173d 65fc f63d 460f 543c 858c 20be
00000390: 143d 4dbd 38ce fabc 71e5 27be 2a7a 18bd
000003a0: 6fdf 1fbe 39d5 b03d ebd1 dfbc fdcc 213c
000003b0: 57ae d83d f77c f8bd 6bd5 933d e952 f23d
000003c0: 7e7f 1f3d 8b30 6abd c4bf 853d cea9 943d
000003d0: 40aa 943d d79a 04be 7dbc 27be ffc5 c33c
000003e0: 7b82 183d 6cdd a23d dbf7 28be 0f22 913d
000003f0: 4fd2 3cbd 8f68 ffbd 09cd c33d ab63 be3c

fc1.bias f4 [128]
-0.07083516 0.02468009 0.012399556 -0.029012768 0.0871822 -0.05089173 -0.03080571 0.09667287
0.15783617 -0.05889831 0.08444433 0.0332053 -0.15470178 0.106397696 -0.13870469 -0.045852344
-0.0098016225 -0.056729812 0.15838894 0.006756531 0.13182484 0.12333735 0.017506378 0.056531962
0.012524804 0.019926194 -0.084278755 0.10115899 -0.053964213 0.15144247 0.16152175 0.054064255
0.10599783 -0.07012206 0.16069038 -0.019224802 -0.1117573 -0.11049543 -0.059829153 -0.007805353
0.102293484 0.09671711 -0.0054635466 0.13447998 -0.15127803 -0.0045627835 0.1538933 0.012774842
0.12926489 -0.086263865 -0.0183587 0.05753051 -0.059085775 -0.022909746 0.057340924 0.13367145
-0.13115841 -0.11084479 0.04297225 -0.09437123 -0.12723815 -0.12363798 0.005342607 -0.113327086
0.11752015 0.021767791 -0.09116712 -0.102367744 -0.13583277 0.08581587 -0.013159732 -0.06880478
0.1383016 0.10580985 0.14461008 -0.03608756 0.08733625 -0.017622665 -0.0056868265 0.053260546
0.02555241 0.07667283 0.029085033 0.0059661567 0.14866509 0.1361152 -0.13130578 -0.13340741
0.02397352 0.12169024 -0.017703848 0.042746793 0.1350071 -0.03340307 0.02546159 -0.12022354
-0.13531585 -0.053016137 -0.05174828 -0.15000054 -0.0159915 0.054846406 0.1298143 -0.1383523
0.01696504 0.10835419 -0.027011834 0.14690475 0.061312377 0.1619927 -0.110976145 0.0429
-0.103957795 -0.10244167 0.11553586 0.1494976 -0.08775343 0.1074137 0.084774844 -0.038422782
0.12835859 -0.0102064945 0.15155621 -0.15707438 0.034081094 0.016567593 -0.082587264 0.0911263
00000000: 0612 91bd e62d ca3c 8227 4b3c 2fac edbc
00000010: 958c b23d d973 50bd 425c fcbc 6dfc c53d
00000020: ce9f 213e 5b3f 71bd 26f1 ac3d 4802 083d
00000030: 256a 1ebe 09e7 d93d 9a08 0ebe abcf 3bbd
00000040: fc96 20bc 855d 68bd b630 223e e465 dd3b
00000050: 17fd 063e 4b98 fc3d 8969 8f3c 0f8e 673d
00000060: d634 4d3c 423c a33c 579a acbd 722c cf3d
00000070: 9409 5dbd bc13 1b3e f565 253e 7b72 5d3d
00000080: 6415 d93d 289c 8fbd 058c 243e 557d 9dbc
00000090: 03e1 e4bd 6e4b e2bd 6a0f 75bd 0cc4 ffbb
000000a0: 3f7f d13d 9f13 c63d 8d07 b3bb 1fb5 093e
000000b0: a1e8 1abe 6783 95bb 3596 1d3e 924d 513c
000000c0: 045e 043e 1cab b0bd fc64 96bc 1da5 6b3d
000000d0: ed03 72bd 38ad bbbc 51de 6a3d 2be1 083e
000000e0: 644e 06be 9802 e3bd ac03 303d b445 c1bd
000000f0: b84a 02be e935 fdbd 0911 af3b 0818 e8bd
00000100: 68ae f03d 5e52 b23c d4b5 babd 2ea6 d1bd
00000110: bf17 0bbe 3bc0 af3d eb9b 57bc 85e9 8cbd
00000120: ef9e 0d3e d6b2 d83d aa14 143e 8dd0 13bd
00000130: 59dd b23d 685d 90bc 8f58 babb bb27 5a3d
00000140: 4a53 d13c a506 9d3d bc43 ee3c c07f c33b
00000150: a93b 183e c861 0b3e 0675 06be f49b 08be
00000160: 1e64 c43c bc38 f93d a907 91bc 4317 2f3d
00000170: 4d3f 0a3e a8d1 08bd d394 d03c c237 f6bd
00000180: 3d90 0abe 7327 59bd 01f6 53bd be99 19be
00000190: 9b00 83bc a0a6 603d 0aee 043e 3aac 0dbe
000001a0: 44fa 8a3c cde8 dd3d ec47 ddbc 336e 163e
000001b0: b022 7b3d 6ae1 253e 7647 e3bd e9b7 2f3d
000001c0: d3e7 d4bd f0cc d1bd 119e ec3d e615 193e
000001d0: 12b8 b3bd b7fb db3d 6f9e ad3d 3561 1dbd
000001e0: 6f70 033e 2439 27bc 8d31 1b3e 1bd8 20be
000001f0: 9e98 0b3d c3b8 873c 8323 a9bd 6da0 ba3d

bn1.weight f4 [128]
0.9581488 1.0307714 0.99307686 0.9868996 0.99950427 1.0278164 0.9978832 1.0204611
0.944266 1.0208974 0.9827738 1.0735984 1.0019473 0.97612804 1.0276495 1.0750624
1.0003048 0.9906926 1.09883 1.0473104 0.98112315 0.9878974 1.1582755 1.0852824
1.0038594 0.97616976 0.97702926 0.989366 1.0221664 0.99945533 1.0253057 1.0582021
0.9717447 1.011151 0.96715146 1.0304207 0.98472613 1.0050584 0.9997735 1.006774
0.9870372 1.0054178 0.99936676 0.99228305 0.99380106 1.0180287 0.99493325 1.0324557
0.9611577 1.0694047 0.99682295 1.0185494 0.9934408 0.99823046 1.0071254 1.0065916
0.97453916 0.99305314 0.95363414 0.9848952 1.0050005 0.9917669 0.99782026 1.0224167
0.97670126 0.9806693 1.1721159 0.965759 1.052532 0.99323714 1.0128579 0.99355197
0.97717947 1.0036104 0.96744704 1.0654013 0.998135 1.0151523 0.9765985 0.97448295
0.99099296 1.0310687 0.9844792 1.0224378 1.0089602 0.96556866 1.074146 1.0270759
1.0064278 0.9860148 1.0579664 0.9499156 0.97611463 1.0165435 0.9994787 0.9996012
0.99743485 0.9896038 0.97705454 1.0029998 1.0415642 1.0353911 1.0376363 1.0129249
1.0668627 1.0011529 0.99722445 1.1780952 0.9937433 1.0189573 1.0313448 1.0111685
0.9919797 1.0060776 0.99437916 0.99178934 1.060337 0.9794647 1.0689331 0.99099374
1.0472609 0.99147505 0.9722003 1.0095934 0.98548293 0.96628296 1.0062592 0.9959962
00000000: 3d49 753f 51f0 833f 493a 7e3f 74a5 7c3f
00000010: 83df 7f3f 7d8f 833f 4675 7f3f 789e 823f
00000020: 6bbb 713f c4ac 823f 1097 7b3f ac6b 893f
00000030: cf3f 803f 87e3 793f 058a 833f a59b 893f
00000040: fd09 803f 089e 7d3f 76a6 8c3f 440e 863f
00000050: e32a 7b3f d8e6 7c3f 5f42 943f 89ea 8a3f
00000060: 777e 803f 43e6 793f 971e 7a3f 1747 7d3f
00000070: 59d6 823f 4edc 7f3f 383d 833f 2b73 873f
00000080: 43c4 783f 656d 813f 3d97 773f d3e4 833f
00000090: 0317 7c3f c1a5 803f 28f1 7f3f f8dd 803f
000000a0: 78ae 7c3f 88b1 803f 80d6 7f3f 4306 7e3f
000000b0: bf69 7e3f c44e 823f f2b3 7e3f 8227 843f
000000c0: 6e0e 763f 41e2 883f ca2f 7f3f d45f 823f
000000d0: 2352 7e3f 088c 7f3f 7ce9 803f fed7 803f
000000e0: 667b 793f bb38 7e3f 5e21 743f 1822 7c3f
000000f0: dba3 803f 70e4 7d3f 2671 7f3f 8dde 823f
00000100: 1809 7a3f 250d 7b3f e507 963f fb3b 773f
00000110: 5eb9 863f ca44 7e3f 54a5 813f 6c59 7e3f
00000120: 6f28 7a3f 4e76 803f 9caa 773f 125f 883f
00000130: c685 7f3f 83f0 813f 5c02 7a3f b777 793f
00000140: b7b1 7d3f 0ffa 833f d406 7c3f 3edf 823f
00000150: 9c25 813f 822f 773f 9e7d 893f 3977 833f
00000160: a0d2 803f 776b 7c3f 716b 873f ab2d 733f
00000170: a6e2 793f 191e 823f d6dd 7f3f dde5 7f3f
00000180: e457 7f3f ad56 7d3f 3f20 7a3f 4c62 803f
00000190: fa51 853f b287 843f 44d1 843f 86a7 813f
000001a0: f58e 883f c725 803f 1a4a 7f3f d3cb 963f
000001b0: f665 7e3f 316d 823f 1b03 843f f86d 813f
000001c0: 62f2 7d3f 27c7 803f a28f 7e3f e8e5 7d3f
000001d0: 1fb9 873f 33be 7a3f cdd2 883f c4b1 7d3f
000001e0: a50c 863f 4fd1 7d3f 1ee2 783f 5b3a 813f
000001f0: 9c48 7c3f 525e 773f 1acd 803f 9bf9 7e3f

bn1.bias f4 [128]
-0.051405936 0.046823334 -0.002174852 -0.014261737 -0.019161835 -0.016924163 -0.0024081632 -0.005003154
-0.046285596 0.063417345 -0.00080620585 -0.029234014 0.05533563 -0.073437124 0.045670282 0.032731876
-0.057776738 -0.019458003 0.0837144 -0.00405975 -0.022275625 -0.027898185 0.04088136 0.08335567
-0.012143365 0.009186135 -0.02561122 -0.0013056464 0.0800651 -0.07273894 0.008681054 0.0025382466
-0.013662628 0.055414803 -0.07833624 0.003162028 -0.063494235 0.0678667 0.048555832 -0.0085743535
-0.03877779 0.011134904 -0.061541017 -0.047851294 -0.043580696 -0.012744302 -0.015359325 0.02307899
-0.04143797 0.03884594 -0.009829117 0.05387074 -0.019917816 -0.008275557 0.002794229 0.042840365
-0.010764844 -0.04143718 -0.043218188 -0.030391118 -0.0065495195 0.007257853 0.004327915 0.022629276
-0.043537747 -0.02025384 0.05560413 -0.049929183 -0.026673768 -0.02228628 0.030440612 -0.05053182
-0.0343075 -0.013834623 -0.052060336 0.038733393 -0.038868047 0.029655142 0.008545585 -0.0098869605
-0.039862234 -0.005777591 0.0052326582 0.008619303 -0.013305144 -0.03638251 -0.040986307 -0.0072908346
-0.009550113 -0.025977157 -0.059136543 -0.04486045 0.0029353339 -0.018671129 0.10351093 -0.020277198
-0.0017059956 -0.05416257 -0.040259346 0.01160043 -0.02947145 0.047898043 0.0051223 0.09915585
0.098833784 0.0067523518 -0.047400758 -0.011767621 -0.02621054 -0.015210551 0.006773857 0.005902093
0.012425751 -0.06589457 -0.015365317 -0.06125426 0.0036191163 -0.06954277 -0.046894513 0.011686098
-0.0049622287 -0.042030755 -0.051007457 0.022464039 -0.002489319 -0.043001026 -0.009653178 0.00028130072
00000000: 088f 52bd d3c9 3f3d f687 0ebb 0faa 69bc
00000010: 48f9 9cbc 8ba4 8abc 46d2 1dbb 7ff1 a3bb
00000020: f795 3dbd f4e0 813d 8f57 53ba 2c7c efbc
00000030: 9da7 623d 3466 96bd c310 3b3d dc11 063d
00000040: 4da7 6cbd 6466 9fbc 7572 ab3d a707 85bb
00000050: 5f7b b6bc bc8a e4bc 3773 273d 61b6 aa3d
00000060: f7f4 46bc 7181 163c 9fce d1bc 3922 abba
00000070: 2cf9 a33d 27f8 94bd fb3a 0e3c b658 263b
00000080: 37d9 5fbc a2fa 623d c06e a0bd 073a 4f3b
00000090: 4409 82bd b2fd 8a3d 7be2 463d 727b 0cbc
000000a0: 76d5 1ebd 2c6f 363c 6f12 7cbd b8ff 43bd
000000b0: ac81 32bd 7acd 50bc aea5 7bbc 2610 bd3c
000000c0: dcba 29bd ec1c 1f3d 4e0a 21bc 91a7 5c3d
000000d0: b02a a3bc 3496 07bc 621f 373b 6179 2f3d
000000e0: 075f 30bc 08ba 29bd 8e05 31bd cbf6 f8bc
000000f0: 5a9d d6bb 49d3 ed3b 2fd1 8d3b 0861 b93c
00000100: a354 32bd 62eb a5bc 28c1 633d 8b82 4cbd
00000110: f282 dabc b791 b6bc 975e f93c 74fa 4ebd
00000120: 0586 0cbd 9daa 62bc 383d 55bd e8a6 1e3d
00000130: 1a34 1fbd 57ef f23c c802 0c3c ebfc 21bc
00000140: 9546 23bd f251 bdbb b876 ab3b fa37 0d3c
00000150: d2fd 59bc d405 15bd 42e1 27bd f4e7 eebb
00000160: 1478 1cbc 0cce d4bc 2939 72bd 97bf 37bd
00000170: bb5e 403b 32f4 98bc 8afd d33d 5e1c a6bc
00000180: b79b dfba 92d9 5dbd fce6 24bd bb0f 3e3c
00000190: 1c6e f1bc bd30 443d f7d8 a73b 3912 cb3d
000001a0: 5e69 ca3d d542 dd3b 4c27 42bd fbcc 40bc
000001b0: 7db7 d6bc ad35 79bc 3bf7 dd3b 5866 c13b
000001c0: 6195 4b3c bbf3 86bd d0be 7bbc bfe5 7abd
000001d0: b22e 6d3b 716c 8ebd 7614 40bd 0c77 3f3c
000001e0: 319a a2bb 7128 2cbd 32ed 50bd 8106 b83c
000001f0: d823 23bb d821 30bd 5d28 1ebc 8b7b 9339

bn1.running_mean f4 [128]
-0.07214142 0.02282739 0.011373986 -0.026183927 0.08783888 -0.04801011 -0.026000846 0.10139882
0.15789494 -0.06325956 0.087694705 0.035412494 -0.1595384 0.104883835 -0.13336463 -0.04772113
-0.010433098 -0.0631298 0.15392661 0.005274378 0.13473599 0.12247117 0.015123915 0.052852385
0.015637685 0.0155940475 -0.07964971 0.104576334 -0.06093902 0.15409909 0.16697899 0.060291186
0.103668496 -0.07735214 0.16599388 -0.011617638 -0.1063109 -0.11339361 -0.06931379 -0.012772826
0.10644978 0.10237391 -0.0072667543 0.14014138 -0.14963205 -0.0066613825 0.15075967 0.010098807
0.12979409 -0.08847878 -0.015865825 0.053019315 -0.064317405 -0.024476444 0.054013945 0.13016006
-0.1361694 -0.11173329 0.041993875 -0.09926981 -0.12808634 -0.118367225 0.0035548834 -0.116724275
0.11655551 0.022081867 -0.09123145 -0.09521905 -0.13178039 0.090131745 -0.011871899 -0.0629034
0.13471575 0.10339746 0.14906512 -0.03897358 0.08742563 -0.02080733 -0.011764897 0.05417524
0.030335328 0.084382705 0.030732045 0.0062944656 0.15023272 0.13925566 -0.13245176 -0.125829
0.02127007 0.12232028 -0.01785785 0.03779733 0.13433084 -0.029865894 0.024559855 -0.11628145
-0.13846786 -0.055000834 -0.053326126 -0.14494558 -0.011414153 0.053951845 0.13424988 -0.14370306
0.016418846 0.10886964 -0.021455811 0.14848165 0.06330306 0.16520333 -0.11264786 0.048032112
-0.10137951 -0.10626546 0.11369286 0.15041287 -0.08655744 0.10675276 0.08713864 -0.043384176
0.13404569 -0.015038874 0.15691805 -0.16000192 0.031081663 0.019721586 -0.08252221 0.09422531
00000000: e1be 93bd 8200 bb3c f459 3a3c ad7f d6bc
00000010: dfe4 b33d 40a6 44bd baff d4bc 2faa cf3d
00000020: 36af 213e 3a8e 81bd 4899 b33d b10c 113d
00000030: 095e 23be 56cd d63d bd90 08be 3b77 43bd
00000040: 96ef 2abc 324a 81bd f09e 1d3e b1d4 ac3b
00000050: 3bf8 093e 2ad2 fa3d 4cca 773c be7b 583d
00000060: 9a1a 803c 2d7e 7f3c 631f a3bd 1e2c d63d
00000070: 329b 79bd 27cc 1d3e 8afc 2a3e e4f3 763d
00000080: 2650 d43d cc6a 9ebd 4dfa 293e e857 3ebc
00000090: 87b9 d9bd e93a e8bd 63f4 8dbd 1d45 51bc
000000a0: 5802 da3d 6aa9 d13d f41d eebb 3981 0f3e
000000b0: 2539 19be ba47 dabb be60 1a3e 7775 253c
000000c0: bee8 043e 5d34 b5bd 0cf9 81bc c82a 593d
000000d0: d8b8 83bd d382 c8bc ba3d 5d3d ae48 053e
000000e0: fe6f 0bbe 6cd4 e4bd c501 2c3d f84d cbbd
000000f0: 1129 03be 846a f2bd 0cf9 683b 230d efbd
00000100: a8b4 ee3d 08e5 b43c 8ed7 babd 3502 c3bd
00000110: 70f1 06be fe96 b83d 5a82 42bc 7fd3 80bd
00000120: edf2 093e 0cc2 d33d 87a4 183e c3a2 1fbd
00000130: 350c b33d 2274 aabc 8ec1 40bc dbe6 5d3d
00000140: cb81 f83c d7d0 ac3d c5c1 fb3c ce41 ce3b
00000150: 9bd6 193e 0999 0e3e 6fa1 07be 51d9 00be
00000160: 923e ae3c 0e83 fa3d a04a 92bc 60d1 1a3d
00000170: 068e 093e 52a9 f4bc c031 c93c f824 eebd
00000180: 85ca 0dbe 8e48 61bd 7f6c 5abd 9d6c 14be
00000190: 6d02 3bbc 9cfc 5c3d cd78 093e e526 13be
000001a0: d180 863c 0cf7 de3d 19c4 afbc 930b 183e
000001b0: 09a5 813d 102b 293e ecb3 e6bd 52bd 443d
000001c0: 0fa0 cfbd b5a1 d9bd cdd7 e83d d505 1a3e
000001d0: 0745 b1bd 31a1 da3d be75 b23d 9bb3 31bd
000001e0: 4643 093e 9c65 76bc 20af 203e 8bd7 23be
000001f0: f99e fe3c 2a8f a13c 6801 a9bd 33f9 c03d

bn1.running_var f4 [128]
0.61118567 0.081256755 0.30566558 0.5523255 0.28331164 0.17423555 0.45488 0.21500066
0.3135711 0.1258387 0.2009944 0.07647351 0.12962893 0.7453312 0.1589923 0.0418963
0.39762163 0.1945 0.1476707 0.091427155 0.81277084 0.12646934 0.062108926 0.16455953
0.3226139 0.38880944 0.20596565 0.4003593 0.18894985 0.14928204 0.09744558 0.15328074
0.14025073 0.2969177 0.3959523 0.23223686 0.38066345 0.14510575 0.20129287 0.21449092
0.20150612 0.25484338 0.23853748 0.21889053 0.12605284 0.19262277 0.1415348 0.1110204
0.42100322 0.26749918 0.3289336 0.12633364 0.14253892 0.49222472 0.56465364 0.4024066
0.20819756 0.22350116 0.1468183 0.4221367 0.33531216 0.12788291 0.074867666 0.33462968
0.20015308 0.29559967 0.041708164 0.21138948 0.08257653 0.1490322 0.112629406 0.1993514
0.6248602 0.54002035 0.18343303 0.24045451 0.27430987 0.20492986 0.21829139 0.3261142
0.2808848 0.22354156 1.5336753 0.16047986 0.30824688 0.3472207 0.026614577 0.12572177
0.44153258 0.2744548 0.33221158 1.2238982 0.13282444 0.12962538 0.16272713 0.35187972
0.29133883 0.17185588 0.32210144 0.25147915 0.17670059 0.122934245 0.076753594 0.11277387
0.070427336 0.14284565 0.22550038 0.056102335 0.11386139 0.15584321 0.19465247 0.35132405
0.2500917 0.22061063 0.1639937 0.20949562 0.24217361 0.5138313 0.14576711 0.11892447
0.23145618 0.56783444 0.3768001 0.15927604 0.97355664 0.5459237 0.17458405 0.09214659
00000000: aa76 1c3f f169 a63d 3380 9c3e 3465 0d3f
00000010: 390e 913e ce6a 323e 08e6 e83e 2229 5c3e
00000020: 648c a03e dcdb 003e 7ad1 4d3e 259e 9c3d
00000030: 72bd 043e 07ce 3e3f e1ce 223e 749b 2b3d
00000040: 1095 cb3e 022b 473e fd36 173e 293e bb3d
00000050: c011 503f 2e81 013e ee65 7e3d 4b82 283e
00000060: a62d a53e 0812 c73e a9e8 523e e5fb cc3e
00000070: 127c 413e 64dd 183e 8c91 c73d a0f5 1c3e
00000080: e39d 0f3e 9905 983e 43ba ca3e 80cf 6d3e
00000090: 52e6 c23e 9a96 143e b81f 4e3e 82a3 5b3e
000000a0: 9f57 4e3e d57a 823e 2b43 743e d724 603e
000000b0: ff13 013e e73e 453e 80ee 103e aa5e e33d
000000c0: bc8d d73e a7f5 883e fc69 a83e 9b5d 013e
000000d0: b9f5 113e e104 fc3e 248d 103f 3d08 ce3e
000000e0: be31 553e 7ddd 643e 8957 163e 4d22 d83e
000000f0: 09ae ab3e bdf3 023e 3854 993d 9554 ab3e
00000100: eef4 4c3e d758 973e 2ed6 2a3d 7c76 583e
00000110: e21d a93d e69b 183e 3faa e63d c622 4c3e
00000120: d7f6 1f3f c63e 0a3f ded5 3b3e b539 763e
00000130: 5872 8c3e 22d9 513e c787 5f3e 71f8 a63e
00000140: 22d0 8f3e 14e8 643e 794f c43f d554 243e
00000150: 89d2 9d3e e9c6 b13e d006 da3c 35bd 003e
00000160: 8f10 e23e 5785 8c3e a317 aa3e b2a8 9c3f
00000170: 2103 083e 84bc 043e f1a1 263e 9429 b43e
00000180: 5d2a 953e fdfa 2f3e 7bea a43e e0c1 803e
00000190: 00f1 343e f3c4 fb3d fd30 9d3d fdf5 e63d
000001a0: 353c 903d 2146 123e 92e9 663e 90cb 653d
000001b0: 2930 e93d 5d95 1f3e fa52 473e bfe0 b33e
000001c0: 050c 803e c1e7 613e f7ed 273e 0586 563e
000001d0: 5cfc 773e 738a 033f f943 153e ac8e f33d
000001e0: d902 6d3e 995d 113f f1eb c03e 4219 233e
000001f0: 023b 793f a8c1 0b3f 29c6 323e 5ab7 bc3d

fc2.weight f4 [64, 128]
-0.07685476 -0.0038274513 0.0034390457 -0.012259007 0.033665538 -0.089823306 -0.0649622 -0.12251031
0.008063828 0.061202377 -0.004916644 0.0067605027 0.006338911 -0.078626566 -0.09933043 -0.0039004353
-0.005099112 -0.03791767 -0.042076815 -0.010205949 -0.032440297 0.003924439 0.010383902 0.023467887
0.01354011 -0.069313 0.04167149 0.028587041 0.0019079655 0.05259943 -0.1043729 -0.11914701
0.06989465 -0.008350609 -0.06576316 -0.10542762 -0.013487436 -0.041038577 -0.06359866 0.006906769
0.0014339102 -0.054146197 -0.0029618698 -0.05631282 -0.032062527 -0.03108954 -0.009025883 0.087754704
-0.06199254 0.04350213 -0.061302885 0.03182321 0.061201874 7.6412456e-05 0.06912276 0.069250815
-0.060958464 0.044602614 0.08831143 -0.02430526 0.030618748 0.012463139 0.10157617 -0.024494147
0.069710255 0.07399224 -0.014809716 0.043937836 -0.0916249 0.041387375 -0.04473458 0.023287548
-0.031131072 0.008737326 0.039379776 0.06320834 -0.071366735 0.06786273 -0.076637894 0.09227372
0.05295086 -0.029050756 -0.043543946 -0.04682481 -0.07304766 -0.016230132 0.0988401 -0.031255037
-0.012218143 -0.063661285 0.07076643 0.018169168 0.058135323 -0.09216706 0.07355926 -0.09550685
-0.04093809 0.06360567 0.011781162 -0.022730526 -0.09276209 0.009884709 -0.06399449 0.09072983
0.009812589 0.02973114 0.015931116 0.10129811 -0.109222256 -0.11536234 0.0751231 -0.006435983
0.009945599 -0.010000132 -0.03208798 -0.055519186 0.005221361 -0.082876876 -0.041802865 -0.03960923
-0.15042436 -0.004470624 0.07110956 -0.04178994 -0.05596402 -0.029912157 -0.01729032 -0.022677928
-0.0027072488 -0.0018252338 0.026138065 0.08368845 -0.07779647 -0.011274172 0.050385155 0.0020217544
-0.012336595 -0.04509568 -0.017760089 0.0111114755 -0.07762413 -0.060338452 -0.03270932 -0.07123618
-0.08794766 -0.06787288 -0.031384233 -0.008253178 -0.009146095 -0.0408513 0.032358035 -0.03487042
0.03506083 0.056630623 0.073162444 -0.086188436 -0.047575016 0.037550163 0.017889483 0.052466523
0.038606804 -0.053635936 -0.062747 -0.059180126 0.07463632 0.0060856175 -0.0152043635 0.028626159
-0.07194886 0.027376859 -0.028797746 -0.038619667 -0.043391876 0.048488386 0.020213952 -0.012506847
-0.034520265 0.032879196 0.06418448 -0.032964375 -0.03583399 -0.08789452 -0.075982116 -0.10000653
-0.080951996 -0.02217847 0.027306655 -0.05002951 0.031999823 -0.013646736 -0.08874581 -0.024989631
-0.103059724 0.016311182 0.041339662 -0.07193496 0.0496334 -0.074992865 -0.08571962 -0.105620556
0.017494256 -0.09756849 0.039897017 -0.06972544 0.08233203 0.00049242005 -0.056783687 0.028107667
0.03905501 -0.06744766 -0.036228944 0.0155156385 0.0043661078 0.01459124 -0.107489884 -0.041873943
-0.07385256 -0.072185576 0.010046923 0.0550741 -0.050088882 -0.06761272 -0.08045208 0.05909147
0.049036674 -0.0033489114 -0.05785331 0.050829217 -0.057515215 -0.10069427 0.05561811 -0.01690611
0.028465213 0.025706181 0.015499163 0.034076482 0.031260237 0.084655195 -0.0057294737 0.052620336
0.01196565 0.05894231 0.013379561 -0.098235354 0.11485151 0.06576623 -0.0050037988 0.008605473
-0.056100134 -0.029167058 0.040229272 -0.101516046 0.085791215 0.04616894 -0.005880855 0.06647328
00000000: 0766 9dbd fad5 7abb 9d61 613b 01da 48bc
00000010: e0e4 093d 48f5 b7bd e70a 85bd afe6 fabd
00000020: 251e 043c 58af 7a3d cd1b a1bb 3587 dd3b
00000030: a4b6 cf3b f706 a1bd c16d cbbd 729e 7fbb
00000040: 7416 a7bb 8f4f 1bbd bd58 2cbd da36 27bc
00000050: 1ee0 04bd 9598 803b 3e21 2a3c ba3f c03c
00000060: 56d7 5d3c f9f3 8dbd b9af 2a3d 5f2f ea3c
00000070: b314 fa3a 8072 573d 76c1 d5bd 5903 f4bd
00000080: ed24 8f3d fed0 08bc d6ae 86bd 70ea d7bd
00000090: 68fa 5cbc 1118 28bd 0440 82bd 2d52 e23b
000000a0: 0bf2 bb3a 67c8 5dbd ee1b 42bb 46a8 66bd
000000b0: ff53 03bd 7eaf febc 4ce1 13bc bdb8 b33d
000000c0: e4eb 7dbd 4a2f 323d bc18 7bbd 0e59 023d
000000d0: d1ae 7a3d a03f a038 3c90 8d3d 5fd3 8d3d
000000e0: 95af 79bd 3bb1 363d 9fdc b43d d31b c7bc
000000f0: 2bd4 fa3c 3232 4c3c 2b07 d03d f3a7 c8bc
00000100: 40c4 8e3d 3e89 973d 73a4 72bc 29f8 333d
00000110: d6a5 bbbd cf85 293d 9b3b 37bd 87c5 be3c
00000120: 9706 ffbc 0027 0f3c b04c 213d 6073 813d
00000130: b928 92bd 9dfb 8a3d 54f4 9cbd 01fa bc3d
00000140: 00e3 583d dafb edbc 235b 32bd 5fcb 3fbd
00000150: 039a 95bd 0ef5 84bc ae6c ca3d 4805 00bd
00000160: 9b2e 48bc d960 82bd fded 903d 82d7 943c
00000170: 4e1f 6e3d 15c2 bcbd 3da6 963d 1899 c3bd
00000180: b3ae 27bd b143 823d c605 413c 5e35 babc
00000190: 0dfa bdbd 79f3 213c 8b0f 83bd 90d0 b93d
000001a0: fbc4 203c b88e f33c f981 823c 6275 cf3d
000001b0: ebaf dfbd 1743 ecbd 24da 993d f0e4 d2bb
000001c0: def2 223c 98d7 23bc b06e 03bd 1668 63bd
000001d0: f317 ab3b 5abb a9bd 7b39 2bbd 4a3d 22bd
000001e0: d808 1abe 507e 92bb e4a1 913d ee2b 2bbd
000001f0: 873a 65bd 570a f5bc 6ea4 8dbc 10c7 b9bc
00000200: 196c 31bb af3c efba 7f1f d63c da64 ab3d
00000210: c153 9fbd 4eb7 38bc aa60 4e3d 697f 043b
00000220: 6e1f 4abc 3fb6 38bd 9b7d 91bc e80c 363c
00000230: 66f9 9ebd 7425 77bd 35fa 05bd 46e4 91bd
00000240: e71d b4bd f000 8bbd c18c 00bd 5638 07bc
00000250: 81d9 15bc b153 27bd dc89 043d 49d4 0ebd
00000260: f29b 0f3d 83f5 673d 31d6 953d 9083 b0bd
00000270: 05de 42bd 33ce 193d f78c 923c 23e7 563d
00000280: 2b22 1e3d 5bb1 5bbd 8081 80bd dc66 72bd
00000290: edda 983d dc69 c73b b91b 79bc 6881 ea3c
000002a0: ed59 93bd 6f45 e03c 40e9 ebbc a82f 1ebd
000002b0: aebb 31bd c29b 463d bb97 a53c 85e9 4cbc
000002c0: 1f65 0dbd 56ac 063d 2773 833d a705 07bd
000002d0: a9c6 12bd 0b02 b4bd 839c 9bbd 39d0 ccbd
000002e0: 29ca a5bd 9faf b5bc 35b2 df3c beeb 4cbd
000002f0: 3f12 033d 8f96 5fbc 5dc0 b5bd 0eb7 ccbc
00000300: fa10 d3bd 079f 853c c753 293d a352 93bd
00000310: 644c 4b3d dc95 99bd c58d afbd 974f d8bd
00000320: 1d50 8f3c fdd1 c7bd 0e6b 233d 36cc 8ebd
00000330: b29d a83d c015 013a 0396 68bd 0d42 e63c
00000340: 25f8 1f3d 0022 8abd cd64 14bd 4e35 7e3c
00000350: 9111 8f3b 1910 6f3c a823 dcbd 0384 2bbd
00000360: 0340 97bd 08d6 93bd d99b 243c 6195 613d
00000370: 002a 4dbd 8a78 8abd 0fc4 a4bd e609 723d
00000380: aeda 483d 6979 5bbb 98f7 6cbd 4c32 503d
00000390: 1395 6bbd cc38 cebd d1cf 633d af7e 8abc
000003a0: e12f e93c c595 d23c 34f0 7d3c c893 0b3d
000003b0: bc0a 003d b45f ad3d 4fbe bbbb 6c88 573d
000003c0: 930b 443c 7e6d 713d f235 5b3c 9e2f c9bd
000003d0: 4537 eb3d 72b0 863d e8f6 a3bb f8fd 0c3c
000003e0: 41c9 65bd c1ef eebc 73c7 243d a5e7 cfbd
000003f0: 4eb3 af3d a41b 3d3d 30b4 c0bb 2523 883d

fc2.bias f4 [64]
-0.02568584 -0.032690667 0.011217864 0.07511088 0.036678504 0.004841141 0.0029224479 -0.04210068
-0.038926017 -0.000108896646 0.050832964 0.08172691 -0.072605565 0.023471862 0.007008891 0.030236045
0.061867762 -0.07178013 0.04377801 -0.006482403 -0.05908802 -0.040306237 -0.032074712 0.016193928
0.030536776 0.013398233 0.049524263 -0.07419447 -0.0064189215 -0.011522759 -0.08798506 0.015616379
0.077602364 -0.03685407 -0.018186346 0.07358282 0.02232217 -0.030097961 -0.06721883 0.036293853
0.059176616 -0.06815242 0.0048419456 -0.08533538 -0.088133745 0.06916884 0.002573478 -0.019602392
-0.0607629 0.07113964 -0.010240433 -0.071960986 -0.08840785 -0.05296972 0.005148273 0.030540826
0.050727993 -0.024658674 -0.034205157 0.054603565 0.055280898 0.037838064 0.03325233 0.023675459
00000000: 1c6b d2bc a6e6 05bd 22cb 373c bcd3 993d
00000010: 333c 163d 6fa2 9e3b 8a86 3f3b c371 2cbd
00000020: e370 1fbd 715f e4b8 3a36 503d 7060 a73d
00000030: 3ab2 94bd 1048 c03c d7aa e53b 95b1 f73c
00000040: 0d69 7d3d 7601 93bd 9250 333d 566a d4bb
00000050: 4806 72bd 2718 25bd c660 03bd 21a9 843c
00000060: 4328 fa3c 4384 5b3c f4d9 4a3d 45f3 97bd
00000070: d155 d2bb f4c9 3cbc 8331 b4bd d7db 7f3c
00000080: fded 9e3d 4bf4 16bd 88fb 94bc 97b2 963d
00000090: fcdc b63c 0090 f6bc 07aa 89bd dda8 143d
000000a0: 2e63 723d 7f93 8bbd 2fa9 9e3b 51c4 aebd
000000b0: 777f b4bd 65a8 8d3d cca7 283b 3295 a0bc
000000c0: 85e2 78bd a9b1 913d 7dc7 27bc 4860 93bd
000000d0: 2d0f b5bd c7f6 58bd d8b2 a83b c130 fa3c
000000e0: 28c8 4f3d fd00 cabc b51a 0cbd fda7 5f3d
000000f0: 396e 623d 16fc 1a3d 9833 083d 09f3 c13c

bn2.weight f4 [64]
1.0092589 0.96780807 1.0710924 0.9746606 0.9703589 0.9795723 0.9661213 0.98359895
1.0159582 0.9961118 1.0137383 1.0157871 0.97554195 1.0233492 1.0107316 1.0159553
1.0075862 1.0112818 1.0199823 1.033462 0.99499786 1.0080795 0.9497206 0.9736294
0.9957682 1.0273788 1.0319226 0.992897 1.0047737 1.0079714 0.9913878 0.99728817
1.0100006 0.979443 1.0199198 0.9795444 1.0209452 0.9937196 1.0494264 0.9705464
1.0145552 1.007804 0.96522295 1.0757258 0.9811377 0.9561912 1.0494521 0.9870758
1.0457892 0.97955936 1.0386975 1.0094137 0.96086645 1.0116639 1.0900061 1.0056574
0.9863299 1.058091 1.0085595 0.9922232 1.0309453 0.98660934 1.0824482 1.0302428
00000000: 652f 813f 45c2 773f 8e19 893f 5b83 793f
00000010: 7169 783f 40c5 7a3f ba53 773f 24cd 7b3f
00000020: eb0a 823f 2f01 7f3f 2dc2 813f 5005 823f
00000030: 1ebd 793f 1bfd 823f a75f 813f d30a 823f
00000040: 96f8 803f af71 813f c88e 823f 7c48 843f
00000050: 2eb8 7e3f c008 813f e420 733f c73f 793f
00000060: aaea 7e3f 2681 833f 0a16 843f 7f2e 7e3f
00000070: 6d9c 803f 3505 813f 97cb 7d3f 474e 7f3f
00000080: b347 813f c7bc 7a3f bb8c 823f 6cc3 7a3f
00000090: 55ae 823f 6864 7e3f 9b53 863f bb75 783f
000000a0: f2dc 813f b9ff 803f da18 773f 62b1 893f
000000b0: d72b 7b3f f2c8 743f 7254 863f 00b1 7c3f
000000c0: 6cdc 853f 67c4 7a3f 0af4 843f 7834 813f
000000d0: 58fb 753f 347e 813f 5285 8b3f 62b9 803f
000000e0: 1e80 7c3f 876f 873f 7a18 813f 5702 7e3f
000000f0: 04f6 833f 6e92 7c3f aa8d 8a3f ffde 833f

bn2.bias f4 [64]
0.035117257 -0.021224745 0.06307179 -0.046260115 0.00070472027 0.05345815 0.006106308 -0.037857637
0.014129313 0.039581798 0.06845398 -0.0052048387 -0.0064580305 0.016179726 0.06844813 -0.06318778
-0.009972171 0.029972132 -0.035347912 0.013893543 0.00830198 0.00537333 -0.10550498 -0.05131373
0.0044285483 -0.028059095 -0.064611435 0.035908006 -0.027221387 -0.01568246 -0.026206266 -0.013001512
-0.07814035 -0.031079121 0.063897155 -0.0065856655 -0.038805615 -0.07190185 -0.022054188 0.0022812353
0.03444222 0.015050703 0.06110836 -0.013801894 0.002186164 -0.031250156 0.012029032 -0.005618619
0.0930339 -0.0024954556 0.073954806 -0.023114908 -0.006242309 0.050947793 -0.015705485 -0.002834706
-0.047736116 0.028195057 0.011633717 0.0049734265 0.05119162 -0.025908928 -0.007772509 0.04529812
00000000: 1dd7 0f3d 84df adbc c82b 813d 3f7b 3dbd
00000010: fabc 383a eff6 5a3d 6d17 c83b 9c10 1bbd
00000020: a27e 673c 8620 223d 9a31 8c3d 5a8d aabb
00000030: e39d d3bb 588b 843c 882e 8c3d 9868 81bd
00000040: 5162 23bc 1e88 f53c f9c8 10bd bea1 633c
00000050: 0705 083c c212 b03b ff12 d8bd 592e 52bd
00000060: 5b1d 913b 30dc e5bc 0053 84bd 4614 133d
00000070: 63ff debc 8178 80bc 86ae d6bc 4b04 55bc
00000080: 0c08 a0bd a499 febc 83dc 823d 91cc d7bb
00000090: a3f2 1ebd 4741 93bd fcaa b4bc c780 153b
000000a0: 4913 0d3d 3997 763c c24c 7a3d 5721 62bc
000000b0: bf45 0f3b 2a00 00bd 6b15 453c 641c b8bb
000000c0: 8f88 be3d cc8a 23bb 9e75 973d 7a5b bdbc
000000d0: 498c ccbb a2ae 503d caa8 80bc 7ac6 39bb
000000e0: f286 43bd 52f9 e63c 599b 3e3c 20f8 a23b
000000f0: 4eae 513d f63e d4bc 88b0 febb 858a 393d

bn2.running_mean f4 [64]
-0.30832797 -0.29431564 -0.3539134 0.29231864 0.084963374 -0.10270297 -0.32992083 0.06429097
-0.26825815 -0.30310452 0.16703056 -0.08454757 -0.2172316 0.37527835 0.09355046 0.26556584
-0.16675563 -0.08165466 -0.17237046 -0.16167471 -0.40003037 -0.12171438 -0.02242833 -0.19783117
-0.26162094 -0.34330228 0.09916869 -0.048993513 -0.08526119 0.24121177 -0.34262612 -0.31656876
0.38020262 -0.36104697 -0.13205086 -0.23604865 -0.084702626 -0.25446054 -0.47400048 -0.1824744
0.07407649 -0.50629926 -0.015801314 -0.10844528 -0.23088424 -0.12487661 -0.12351629 -0.1596047
-0.18902597 -0.13061576 -0.23389593 -0.44710073 0.20089595 -0.38325545 -0.36846387 -0.09369397
-0.31381834 -0.36563662 -0.1452253 0.26036662 -0.3054114 -0.25878665 -0.2786532 -0.4259705
00000000: 2add 9dbe 8ab0 96be 2334 b5be caaa 953e
00000010: 4701 ae3d ef55 d2bd 62eb a8be fcaa 833d
00000020: 2259 89be 8430 9bbe 0f0a 2b3e 4727 adbd
00000030: f671 5ebe 7c24 c03e 6297 bf3d 3ff8 873e
00000040: fdc1 2abe 8f3a a7bd e281 30be 0e8e 25be
00000050: c8d0 ccbe 6445 f9bd 9ebb b7bc 4194 4abe
00000060: 2ef3 85be 51c5 afbe f418 cb3d 6cad 48bd
00000070: 6b9d aebd 3800 773e b16c afbe 4d15 a2be
00000080: eba9 c23e 26db b8be 5738 07be bdb6 71be
00000090: 9278 adbd a748 82be 31b0 f2be 92da 3abe
000000a0: 6ab5 973d d49c 01bf c271 81bc 8f18 debd
000000b0: eb6c 6cbe 4fbf ffbd 1cf6 fcbd 6a6f 23be
000000c0: 0690 41be 23c0 05be 6a82 6fbe 63ea e4be
000000d0: abb7 4d3e 0f3a c4be 4ca7 bcbe a0e2 bfbd
000000e0: ccac a0be b934 bbbe f1b5 14be c64e 853e
000000f0: e25e 9cbe af7f 84be a2ab 8ebe ce18 dabe

bn2.running_var f4 [64]
0.74675024 0.62504566 0.6686743 0.5337299 0.2786364 0.627762 0.54616314 0.3610441
0.78858954 0.68487185 0.6774605 1.0180647 0.5066193 0.5441486 0.8455915 0.44065073
0.71190625 0.662895 0.26606536 0.3484622 0.8739202 0.6911142 0.22900741 0.54702485
0.6136106 0.37234184 0.6934892 0.5802971 0.5481915 0.8453399 0.43374744 0.31851625
0.92562807 0.3926665 0.41568968 0.6283134 0.5176456 0.25073487 0.8322957 0.72530687
0.9361588 0.7800448 0.74093556 0.8035994 0.45453912 0.6058428 0.7764074 0.8869929
0.73724085 0.8412355 0.67858565 0.3816324 0.5833118 0.63434577 0.6774647 0.67831105
0.36862972 0.915102 0.7170704 0.58063203 0.8034286 0.84577084 0.93713707 0.61478144
00000000: 062b 3f3f fe02 203f 3d2e 2b3f 86a2 083f
00000010: 6ea9 8e3e 03b5 203f 59d1 0b3f c6da b83e
00000020: 01e1 493f c353 2f3f 0d6e 2d3f f24f 823f
00000030: cdb1 013f 534d 0b3f af78 583f f99c e13e
00000040: 7d3f 363f 7db3 293f b839 883e a369 b23e
00000050: 3cb9 5f3f dcec 303f eb80 6a3e d209 0c3f
00000060: 9615 1d3f 97a3 be3e 8288 313f 5a8e 143f
00000070: 4756 0c3f 3268 583f 2514 de3e 9014 a33e
00000080: f6f5 6c3f 950b c93e 47d5 d43e 26d9 203f
00000090: 6c84 043f 5260 803e 5511 553f b6ad 393f
000000a0: 1aa8 6f3f 04b1 473f f4ad 3d3f b1b8 4d3f
000000b0: 5ab9 e83e 8418 1b3f a3c2 463f f711 633f
000000c0: d1bb 3c3f 365b 573f cab7 2d3f 5265 c33e
000000d0: ec53 153f 7c64 223f 546e 2d3f cba5 2d3f
000000e0: 09bd bc3e 2044 6a3f ed91 373f 4da4 143f
000000f0: 7fad 4d3f 7084 583f 37e8 6f3f 5162 1d3f

fc3.weight f4 [32, 64]
0.029925948 -0.119788975 0.08584491 -0.08586499 -0.00952907 -0.055215325 -0.08201193 -0.09134092
-0.16408117 -0.0898311 0.0057082707 -0.007029665 -0.008485424 0.09077395 0.016471138 -0.03996882
-0.049401246 0.05335085 -0.03607132 0.050561983 -0.010660495 0.022953425 0.07671068 0.08340424
-0.052675053 0.041736253 0.076009594 0.0021100442 -0.042676654 0.021647079 -0.02441414 -0.0080699995
-0.033975925 0.075397424 -0.16019 0.036429223 -0.11925621 0.02551879 0.018396184 -0.12133744
-0.11570921 -0.17831153 -0.07653067 -0.17429064 -0.03923984 0.08579623 0.05552776 -0.05232791
-0.028435983 -0.023927242 0.050213143 -0.07806144 0.025098648 0.009721222 -0.065728396 0.0727134
-0.04641031 -0.18149142 -0.13260628 0.07557604 0.067691796 0.029140387 0.008141223 -0.0035382728
-0.03127037 0.07530504 -0.20507033 -0.081526324 -0.13587359 -0.050083894 -0.15473624 -0.050559085
-0.057113063 -0.0034295954 0.04126398 0.07851508 0.08609219 -0.009433275 -0.027290808 0.056414194
-0.040982652 0.103485525 0.053578734 -0.08705285 -0.06338751 0.002012755 -0.13835397 -0.082722075
-0.018327313 0.09270334 0.03834001 -0.040622093 0.06265825 0.03492164 0.0309412 0.12013041
-0.11328592 0.07022404 -0.033887755 0.060540464 0.05256573 0.026802909 -0.036387872 -0.019353405
0.07568024 0.019490056 -0.019864995 0.027209606 0.022601508 -0.1386167 0.02856541 0.065623485
-0.02249088 0.0949344 -0.103107385 0.014723055 -0.017424779 -0.09935779 0.05931549 -0.04241037
0.061083797 0.114407234 0.054517053 -0.10296197 -0.14126174 -0.027402343 0.026498627 -0.061359975
0.049713314 0.117474005 -0.20838867 -0.02951517 -0.13104147 -0.11478146 -0.06249349 -0.05510791
0.07446084 -0.046250917 -0.14168362 0.017476678 -0.019944051 0.020389428 -0.049470436 -0.032163598
-0.01065786 -0.0518174 0.077166386 -0.09828246 0.016430913 -0.0062449174 -0.015568092 0.03812518
-0.082189925 0.053577248 -0.077052824 -0.07311846 0.036036704 0.03557859 -0.06517582 0.04639139
-0.030223574 0.10175571 0.012388492 0.042110555 0.10812833 0.10801588 0.11714144 -0.0143961655
0.08747588 -0.0029870854 -0.0076702433 0.04952086 0.06901304 -0.07648278 0.06141358 -0.070301615
-0.13993359 0.09818454 -0.1730153 -0.060584266 -0.12639703 -0.16101947 0.14293428 0.13607173
-0.09557984 0.049167637 0.0900901 -0.061890457 -0.15477371 0.022162968 0.040705126 -0.06347146
-0.1373908 0.008992477 -0.010869871 -0.019303894 -0.05935962 0.05108797 -0.02111536 -0.08922309
-0.027891388 0.042627245 0.018349774 -0.12665012 0.005137996 0.043813404 -0.04053787 -0.06935839
-0.13792033 -0.116199404 0.08703897 0.054218326 -0.03800267 -0.0904088 -0.12699828 0.066149384
-0.08246511 0.091600575 0.011213509 0.013428524 -0.12450745 0.044666205 0.059332695 -0.06204961
-0.11048852 0.046130598 -0.09396835 -0.058660153 0.007690753 0.07684137 -0.044847604 -0.077790864
-0.017889334 0.03362393 -0.0767351 -0.14172101 -0.02616994 -0.008985003 -0.098168366 -0.10548544
-0.09763864 -0.024112271 -0.120536 0.10422298 -0.07058582 0.040944643 -0.122587256 0.034337126
0.09440296 -0.10160924 -0.0015750572 -0.029231267 -0.14493051 -0.12149168 -0.07506445 0.023621203
00000000: 4327 f53c ec53 f5bd 75cf af3d fcd9 afbd
00000010: d11f 1cbc 7729 62bd dff5 a7bd f310 bbbd
00000020: e504 28be 5ef9 b7bd 720c bb3b 1b59 e6bb
00000030: 7306 0bbc b1e7 b93d 7bee 863c 58b6 23bd
00000040: f658 4abd 6c86 5a3d 85bf 13bd 151a 4f3d
00000050: 5ba9 2ebc d208 bc3c 7d1a 9d3d d8cf aa3d
00000060: ccc1 57bd a2f3 2a3d ebaa 9b3d ab48 0a3b
00000070: b7cd 2ebd 3755 b13c 2a00 c8bc 0838 04bc
00000080: 572a 0bbd f769 9a3d d908 24be cf36 153d
00000090: 9a3c f4bd c80c d13c 98b3 963c c47f f8bd
000000a0: f3f8 ecbd 4c97 36be 1dbc 9cbd 3f79 32be
000000b0: f4b9 20bd efb5 af3d 1471 633d ca55 56bd
000000c0: 94f2 e8bc 1003 c4bc 4cac 4d3d adde 9fbd
000000d0: ae9b cd3c c345 1f3c 9c9c 86bd c3ea 943d
000000e0: bd18 3ebd e3d8 39be f1c9 07be 9cc7 9a3d
000000f0: ffa1 8a3d d2b7 ee3c c462 053c 5ee2 67bb
00000100: 5c15 00bd 8739 9a3d f5fd 51be 46f7 a6bd
00000110: 7222 0bbe c524 4dbd 2d73 1ebe 0b17 4fbd
00000120: 63ef 69bd 10c3 60bb 6b04 293d 84cc a03d
00000130: 1a51 b03d 068e 1abc f990 dfbc 9212 673d
00000140: 6ddd 27bd 38f0 d33d 6075 5b3d c448 b2bd
00000150: 50d1 81bd 6de8 033b aaac 0dbe 316a a9bd
00000160: 2923 96bc 40db bd3d 6a0a 1d3d 5a63 26bd
00000170: f852 803d fe09 0f3d 6678 fd3c ef06 f63d
00000180: 7302 e8bd 9fd1 8f3d e3cd 0abd 47f9 773d
00000190: 2a4f 573d c691 db3c 730b 15bd 088b 9ebc
000001a0: 3efe 9a3d 9ca9 9f3c eabb a2bc aee6 de3c
000001b0: cc26 b93c 89f1 0dbe 0202 ea3c 9b65 863d
000001c0: cb3e b8bc f76c c23d f729 d3bd f838 713c
000001d0: 69be 8ebc 197c cbbd cdf4 723d 7fb6 2dbd
000001e0: 0133 7a3d 574e ea3d 464d 5f3d badd d2bd
000001f0: eba6 10be e17a e0bc a613 d93c 9954 7bbd
00000200: 30a0 4b3d 3696 f03d d763 55be ccc9 f1bc
00000210: bc2f 06be 8b12 ebbd 2cf9 7fbd d5b8 61bd
00000220: ed7e 983d 9a71 3dbd 8315 11be 402b 8f3c
00000230: b561 a3bc bb07 a73c 83a1 4abd fabd 03bd
00000240: 4e9e 2ebc 7b3e 54bd 6909 9e3d 5048 c9bd
00000250: 1f9a 863c 2aa2 ccbb 5011 7fbc 2629 1c3d
00000260: 3153 a8bd d173 5b3d dfcd 9dbd 22bf 95bd
00000270: 399b 133d dbba 113d e67a 85bd e604 3e3d
00000280: 6e97 f7bc 4c65 d03d 1af9 4a3c 1e7c 2c3d
00000290: 6372 dd3d 6e37 dd3d dae7 ef3d e5dd 6bbc
000002a0: 8e26 b33d fac2 43bb aa56 fbbb 63d6 4a3d
000002b0: b556 8d3d 01a3 9cbd ce8c 7b3d 4bfa 8fbd
000002c0: c04a 0fbe fa14 c93d ec2a 31be 3527 78bd
000002d0: 396e 01be 4ae2 24be 5d5d 123e 6356 0b3e
000002e0: 5dbf c3bd 0164 493d 2981 b83d d980 7dbd
000002f0: 007d 1ebe 1d8f b53c 6bba 263d 53fd 81bd
00000300: 2db0 0cbe 2f55 133c 8b17 32bc 3323 9ebc
00000310: 1323 73bd 9f41 513d 1ffa acbc 98ba b6bd
00000320: 7b7c e4bc e899 2e3d 4452 963c 92b0 01be
00000330: a25c a83b af75 333d 0a0b 26bd c60b 8ebd
00000340: fd3a 0dbe f4f9 edbd 7d41 b23d 0914 5e3d
00000350: b0a8 1bbd 4028 b9bd d60b 02be 5479 873d
00000360: 78e3 a8bd 1599 bb3d deb8 373c 5003 5c3c
00000370: c3fd febd e9f3 363d d706 733d bb27 7ebd
00000380: ce47 e2bd 70f3 3c3d 7a72 c0bd a145 70bd
00000390: b602 fc3b 025f 9d3d 1fb2 37bd d150 9fbd
000003a0: a78c 92bc 3fb9 093d 4b27 9dbd 501f 11be
000003b0: 5862 d6bc d635 13bc 7f0c c9bd c008 d8bd
000003c0: c4f6 c7bd 1987 c5bc 94db f6bd dc72 d53d
000003d0: 4c8f 90bd 92b5 273d 070f fbbd 16a5 0c3d
000003e0: 5756 c13d 8118 d0bd 2672 ceba 6976 efbc
000003f0: aa68 14be a1d0 f8bd 64bb 99bd 4181 c13c

fc3.bias f4 [32]
0.04706782 0.037070602 0.048244026 -0.08939211 -0.12573135 -0.013513291 -0.006913582 0.010131843
0.06451874 -0.017514363 0.07460885 -0.07954712 -0.08667344 -0.09234547 -0.02539236 0.037054032
0.08632687 0.0032306383 0.07129606 0.11665557 0.10516321 0.023262158 0.08465184 0.10524738
-0.11225444 -0.12478948 0.09726796 0.06112126 0.07665103 0.06512723 0.025170512 -0.1238235
00000000: 30ca 403d 58d7 173d 879b 453d 3613 b7bd
00000010: b8bf 00be da66 5dbc 548b e2bb 0800 263c
00000020: 6722 843d 487a 8fbc 86cc 983d 9ae9 a2bd
00000030: d881 b1bd 9f1f bdbd a303 d0bc f8c5 173d
00000040: 24cc b03d 1eb9 533b ab03 923d 1ee9 ee3d
00000050: cf5f d73d 4890 be3c f25d ad3d f08b d73d
00000060: a8e5 e5bd a091 ffbd 6d34 c73d 495a 7a3d
00000070: 37fb 9c3d 6d61 853d 6432 ce3c 2d97 fdbd

bn3.weight f4 [32]
0.9369424 1.0443914 1.1155336 1.0039124 1.0457982 0.96862566 0.9334112 0.94027245
0.99392486 0.9713012 0.94896066 1.009019 0.9318981 0.937759 0.9442693 1.0196826
1.1418973 0.9925633 1.0090346 1.0416106 0.9810426 1.0933324 0.9649455 0.9495411
1.0927001 1.0021615 1.0093666 0.9294999 0.9196026 0.97464544 1.1565963 0.9447542
00000000: 75db 6f3f 9eae 853f cec9 8e3f 3480 803f
00000010: b7dc 853f daf7 773f 09f4 6e3f b2b5 703f
00000020: dc71 7e3f 32a7 783f 16ef 723f 8927 813f
00000030: e090 6e3f f910 703f a2bb 713f f684 823f
00000040: b129 923f a118 7e3f 0c28 813f 7f53 853f
00000050: 9c25 7b3f 51f2 8b3f ab06 773f 2015 733f
00000060: 99dd 8b3f d446 803f ed32 813f b5f3 6d3f
00000070: 136b 6b3f 5d82 793f 590b 943f 69db 713f

bn3.bias f4 [32]
-0.0076638763 0.058105085 0.09303605 0.08228461 0.13235356 0.015916053 -0.007657594 -0.09008895
0.08212426 0.07049116 -0.024816172 0.08807462 -0.012880449 -0.007760243 -0.08363774 0.043016158
0.16260768 0.09922515 0.03415019 0.09721739 -0.028445074 0.08548392 -0.014026092 -0.05996085
0.10454195 -0.07064262 -0.06342136 -0.00052791147 -0.061688457 0.071733296 0.13687088 0.039823633
00000000: 4121 fbbb 99ff 6d3d af89 be3d d584 a83d
00000010: b187 073e 6262 823c 8eec fabb 8e80 b8bd
00000020: c430 a83d ab5d 903d 494b cbbc 7760 b43d
00000030: 8508 53bc a349 febb 434a abbd b631 303d
00000040: a182 263e 8e36 cb3d 12e1 0b3d e919 c73d
00000050: a505 e9bc 3212 af3d b2cd 65bc 8299 75bd
00000060: 171a d63d 14ad 90bd 0fe3 81bd 8a63 0aba
00000070: 09ad 7cbd e8e8 923d e127 0c3e 1b1e 233d

bn3.running_mean f4 [32]
-0.28678024 -0.09363238 -0.18376034 -0.6811861 -0.47582918 0.11251837 -0.567042 -0.6154292
-0.3455141 -0.525517 -0.20493625 -0.6624824 -0.27552775 -0.40974337 0.34112173 -0.3271135
-0.25938925 -0.2843248 -0.2516579 0.0053683063 -0.03967854 -0.21023037 0.03069239 -0.12025982
-0.30278713 -0.21854454 0.52502245 -0.39297345 -0.35436112 -0.20655401 -0.15447755 -0.44578195
00000000: dcd4 92be 55c2 bfbd ac2b 3cbe 3662 2ebf
00000010: e29f f3be 0870 e63d aa29 11bf c58c 1dbf
00000020: 39e7 b0be 4888 06bf cfda 51be 7298 29bf
00000030: f911 8dbe e2c9 d1be 82a7 ae3e 6c7b a7be
00000040: abce 84be 0593 91be 4ed9 80be 9ee8 af3b
00000050: f785 22bd a146 57be 9b6e fb3c c84a f6bd
00000060: ea06 9bbe 24ca 5fbe df67 063f d133 c9be
00000070: d26e b5be e582 53be 5d2f 1ebe 883d e4be

bn3.running_var f4 [32]
0.65249693 0.9142767 1.5916046 0.6380835 0.8358982 0.77279705 0.6660443 0.5782675
0.85444075 0.55592096 0.89677185 1.0728744 0.61211777 0.5560467 0.6407108 1.0196658
1.2816609 0.87440085 1.0149064 0.83670956 0.6276816 1.0973556 0.5026812 0.43332976
1.0550207 0.590182 0.54463476 0.87553495 0.31657618 1.3398196 1.27102 0.6236761
00000000: 0a0a 273f 0a0e 6a3f b3b9 cb3f 7159 233f
00000010: 6dfd 553f 07d6 453f e181 2a3f 5709 143f
00000020: a1bc 5a3f d650 0e3f d792 653f f353 893f
00000030: c0b3 1c3f 1459 0e3f 9f05 243f 6984 823f
00000040: 770d a43f bcd8 5f3f 74e8 813f 9932 563f
00000050: beaf 203f 2676 8c3f b7af 003f 66dd dd3e
00000060: eb0a 873f 2b16 173f 2f6d 0b3f 0f23 603f
00000070: 4616 a23e 357f ab3f c9b0 a23f 3da9 1f3f
