MELOSDP/SDP/chkpt/mc1/linear/8/sdp_classifier_linear-680.pth (torch, 77408 bytes, 25 tensors)

fc1.weight f4 [128, 38]
-0.07720489 0.004547179 -0.170219 -0.06060899 0.110394605 -0.013153271 0.06550138 -0.0956486
-0.10907447 -0.032547444 -0.1479918 0.10850445 0.10618309 0.07583287 0.07721492 0.051572714
0.16388652 0.010252617 0.021323048 -0.12543163 -0.05538168 0.13415909 0.11677861 0.12204274
0.003816081 0.12368673 -0.15531288 -0.049326822 0.045702573 0.1660143 -0.006673607 0.09549063
-0.1496537 -0.023350932 -0.10300234 0.022641363 0.06686034 0.13138828 -0.14532375 -0.06630106
-0.028914591 0.025654705 0.05190185 -0.017767623 0.078693055 -0.20828234 0.14865251 0.004885178
0.13005862 -0.1891753 0.15694784 0.039235413 -0.040560283 -0.04757615 0.074772276 0.05208981
-0.05716924 -0.07327794 0.10169159 -0.14123231 0.102912016 0.026651876 -0.028542219 -0.03363175
-0.11479193 -0.13205793 -0.09551743 -0.0039667226 0.00035465864 0.08299627 0.13231212 -0.07891362
-0.13198169 0.09307625 0.028390473 0.17530565 0.00955045 -0.020650616 0.108967766 -0.100774236
-0.064154275 0.018340426 0.15535179 -0.14241931 -0.07199941 0.02008442 0.13947406 0.09835306
-0.07990217 -0.10992213 -0.15945987 0.07686806 0.007352121 -0.14871512 0.018027868 0.016377337
0.00087241206 -0.099130474 0.028791584 0.019162342 0.02095141 -0.08980076 -0.0117892455 0.002666164
0.12188242 -0.09446143 0.11825993 0.15262234 0.17269126 0.029242225 0.08395386 0.13539378
0.074806735 -0.048057187 -0.092948884 0.0828388 0.08383323 -0.16623877 -0.14634413 0.11955481
-0.09618193 -0.09563707 -0.010556376 0.10611227 -0.15231355 -0.04337906 -0.0022788222 -0.05541351
0.14558016 0.05003288 0.17064784 0.11901833 -0.11361437 -0.058216996 -0.112115696 0.019635346
0.05458927 0.0623141 -0.021666897 -0.14683321 0.028999636 0.022231659 -0.11126051 -0.094497755
0.12684864 -0.018674836 -0.0365334 -0.10443913 -0.035406772 0.037867147 0.09185272 -0.13620265
-0.04199383 0.015846541 -0.054219402 -0.016633725 -0.15700017 0.14287835 0.15166163 -0.08933301
0.16956918 0.01772335 0.01577806 0.17240752 0.068235174 -0.0756038 -0.0071784714 0.029673357
-0.016903719 -0.12890677 0.020140616 -0.08237198 0.06707159 -0.1052959 0.0011854664 -0.0063720336
-0.07203343 -0.06925138 0.13674764 -0.13908271 -0.040387228 0.12706059 0.18320747 -0.019204006
-0.14585793 -0.063841306 -0.013215579 -0.08147879 0.029104108 -0.15103924 -0.09997454 -0.10683926
0.00995327 0.0146108605 -0.15907697 -0.011318972 -0.09589789 0.031995457 0.059003867 0.1512973
0.0037741251 0.009510197 -0.06712507 0.0046082335 0.1443023 -0.049338233 -0.023882067 0.02219049
-0.08049132 0.058715384 -0.003398385 0.014068095 -0.08281145 -0.06685062 -0.050972812 -0.055371724
0.09962973 0.10527842 0.006525787 -0.01662418 0.1599602 0.085586675 -0.014798354 -0.084645115
0.08638333 0.09226868 0.07718387 -0.14649622 -0.06304613 -0.03712049 -0.16426182 -0.043332726
-0.17275105 0.08078105 -0.03384562 0.013804827 0.100793146 -0.12305131 0.102562174 0.11207761
0.011299789 -0.07127185 0.055060375 0.050095215 0.069429114 -0.1186989 -0.17247514 0.018892325
0.036523543 0.075565614 -0.16934119 0.07187902 -0.046809275 -0.12839706 0.11154277 0.01714655
00000000: 991d 9ebd 8100 953b e44d 2ebe 2241 78bd
00000010: 9116 e23d d180 57bc 9625 863d 6ae3 c3bd
00000020: 7062 dfbd 7850 05bd 2a8b 17be 9537 de3d
00000030: 8576 d93d 444e 9b3d db22 9e3d e93d 533d
00000040: ded1 273e 98fa 273c acad ae3c 2671 00be
00000050: e7d7 62bd 0061 093e a029 ef3d 8bf1 f93d
00000060: 3717 7a3b 784f fd3d 570a 1fbe ec0a 4abd
00000070: 9f32 3b3d a7ff 293e 46ae dabb 9790 c33d
00000080: d23e 19be 744a bfbc e4f2 d2bd 617a b93c
00000090: 13ee 883d a68a 063e c0cf 14be dac8 87bd
000000a0: 4bde ecbc d129 d23c 0997 543d 688d 91bc
000000b0: d329 a13d f747 55be 5d38 183e d813 a03b
000000c0: 162e 053e 2bb7 41be efb6 203e 50b5 203d
000000d0: 8a22 26bd 36df 42bd 3522 993d 205c 553d
000000e0: 4b2a 6abd bf12 96bd ae43 d03d 349f 10be
000000f0: 89c3 d23d 0955 da3c 5fd1 e9bc 72c1 09bd
00000100: 0818 ebbd 323a 07be a49e c3bd 48fb 81bb
00000110: 7af1 b939 f3f9 a93d d47c 073e 779d a1bd
00000120: 3526 07be c39e be3d 2393 e83c 5383 333e
00000130: 7e79 1c3c 7b2b a9bc 7e2a df3d b962 cebd
00000140: 5163 83bd a93e 963c 8a14 1f3e 5ed6 11be
00000150: 6d74 93bd 1588 a43c 4ad2 0e3e 546d c93d
00000160: c0a3 a3bd db1e e1bd 7349 23be 006d 9d3d
00000170: 10ea f03b c748 18be 2eaf 933c c429 863c
00000180: 95b2 643a eb04 cbbd 54dc eb3c 58fa 9c3c
00000190: 4ba2 ab3c 76e9 b7bd ae27 41bc cfba 2e3b
000001a0: 7d9d f93d ff74 c1bd 4332 f23d 0849 1c3e
000001b0: fad5 303e 648d ef3c 00f0 ab3d aba4 0a3e
000001c0: 4634 993d 9dd7 44bd fc5b bebd 64a7 a93d
000001d0: c2b0 ab3d 7f3a 2abe 3cdb 15be 27d9 f43d
000001e0: 08fb c4bd 5edd c3bd a6f4 2cbc 6451 d93d
000001f0: 15f8 1bbe 3eae 31bd 4b58 15bb 47f9 62bd
00000200: f712 153e 47ef 4c3d 4fbe 2e3e e2bf f33d
00000210: a7ae e8bd f274 6ebd ea9c e5bd 4eda a03c
00000220: 0099 5f3d 123d 7f3d c77e b1bc 725b 16be
00000230: a590 ed3c 2b1f b63c 8ddc e3bd 0a88 c1bd
00000240: 9ce4 013e f8fb 98bc 0ca4 15bd 2fe4 d5bd
00000250: b106 11bd 951a 1b3d 471d bc3d b578 0bbe
00000260: b901 2cbd 9bd0 813c 2a15 5ebd 7343 88bc
00000270: a7c4 20be b44e 123e 304d 1b3e 3af4 b6bd
00000280: 8ba3 2d3e 8f30 913c fd40 813c 998b 303e
00000290: e2be 8b3d 2ad6 9abd 6239 ebbb 8a15 f33c
000002a0: ab79 8abc 2300 04be effd a43c a4b2 a8bd
000002b0: d45c 893d 60a5 d7bd a761 9b3a 7ecc d0bb
000002c0: 4386 93bd abd3 8dbd 9307 0c3e b36b 0ebe
000002d0: 146d 25bd 2c1c 023e bd9a 3b3e b851 9dbc
000002e0: c85b 15be 3bbf 82bd 2886 58bc 5ade a6bd
000002f0: bd6b ee3c 08aa 1abe 74bf ccbd 8bce dabd
00000300: 0a13 233c 6462 6f3c 13e5 22be 3673 39bc
00000310: 1d66 c4bd ab0d 033d 0aae 713d aeed 1a3e
00000320: 5057 773b a8d0 1b3c de78 89bd aa00 973b
00000330: fbc3 133e e316 4abd 53a4 c3bc d5c8 b53c
00000340: a2d8 a4bd 8b7f 703d 70b7 5ebb de7d 663c
00000350: 0d99 a9bd fae8 88bd dec8 50bd 76cd 62bd
00000360: ac0a cc3d 369c d73d 45d6 d53b 6f2f 88bc
00000370: 9bcc 233e 1148 af3d cc74 72bc 6b5a adbd
00000380: bee9 b03d 5df7 bc3d 9412 9e3d 1b03 16be
00000390: 541e 81bd a80b 18bd 4034 28be a87d 31bd
000003a0: a7e5 30be 8970 a53d b4a1 0abd a42d 623c
000003b0: a36c ce3d 5302 fcbd 1e0c d23d f288 e53d
000003c0: c022 393c faf6 91bd fd86 613d a430 4d3d
000003d0: da30 8e3d 6918 f3bd 539d 30be 14c4 9a3c
000003e0: b699 153d 25c2 9a3d c767 2dbe 4f35 933d
000003f0: 15bb 3fbd 857a 03be 8970 e43d ec76 8c3c

fc1.bias f4 [128]
-0.07081054 0.024662534 0.012398356 -0.029039195 0.08724499 -0.050954662 -0.030795626 0.09668724
0.15787613 -0.058916714 0.0844688 0.033068467 -0.15493761 0.10639457 -0.1386045 -0.046204243
-0.009484542 -0.05672158 0.15845026 0.0064107478 0.13181575 0.12325051 0.017603995 0.056676716
0.012495804 0.019938277 -0.08431941 0.1011411 -0.05400302 0.1513987 0.16161638 0.054073434
0.10599585 -0.0700615 0.16070724 -0.019226518 -0.111727305 -0.11038114 -0.059912235 -0.0077710156
0.102329955 0.09686831 -0.005477043 0.1344563 -0.15126264 -0.004441544 0.1540018 0.012896313
0.12927054 -0.08636617 -0.018364793 0.05760834 -0.05899775 -0.022886712 0.05734479 0.13364789
-0.13107012 -0.11083295 0.04298533 -0.09435283 -0.12719192 -0.12346174 0.005426543 -0.11331469
0.11744831 0.021779656 -0.0915206 -0.10232274 -0.13598166 0.08593368 -0.013088204 -0.06883243
0.13831054 0.10579926 0.14459574 -0.03608938 0.087318175 -0.017580673 -0.0056047933 0.053264044
0.025555948 0.0767427 0.029089602 0.005956297 0.14872384 0.13613829 -0.13125983 -0.1332557
0.02405338 0.12175081 -0.017671485 0.042748414 0.1350862 -0.033343483 0.02541984 -0.120220855
-0.13531691 -0.052994996 -0.051725037 -0.14996897 -0.015914299 0.054808035 0.13023563 -0.13850725
0.017225932 0.10837968 -0.027014643 0.14753546 0.061329074 0.1621007 -0.1109967 0.04290658
-0.10390088 -0.10241954 0.11551734 0.14952926 -0.08766968 0.107384 0.08489768 -0.03842606
0.12845357 -0.010213043 0.15155149 -0.15705094 0.03408133 0.01660042 -0.08257054 0.0912989
00000000: 1e05 91bd 1509 ca3c 7922 4b3c 9be3 edbc
00000010: 80ad b23d d6b5 50bd 1c47 fcbc f603 c63d
00000020: 48aa 213e a752 71bd fafd ac3d cd72 073d
00000030: f7a7 1ebe 65e5 d93d 57ee 0dbe a940 3dbd
00000040: 0d65 1bbc e354 68bd c940 223e 4011 d23b
00000050: b5fa 063e c36a fc3d 4136 903c d825 683d
00000060: 33bb 4c3c 9955 a33c a8af acbd 1123 cf3d
00000070: 4532 5dbd 4308 1b3e c47e 253e 1b7c 5d3d
00000080: 5a14 d93d 677c 8fbd 7090 243e ee80 9dbc
00000090: 49d1 e4bd 820f e2bd 8866 75bd 01a4 febb
000000a0: 5e92 d13d e462 c63d c478 b3bb eaae 093e
000000b0: 98e4 1abe 5f8a 91bb a6b2 1d3e 0f4b 533c
000000c0: 7f5f 043e bfe0 b0bd c371 96bc b9f6 6b3d
000000d0: a0a7 71bd ea7c bbbc 5fe2 6a3d feda 083e
000000e0: 3f37 06be 63fc e2bd 6311 303d 0e3c c1bd
000000f0: 993e 02be 82d9 fcbd 24d1 b13b 8811 e8bd
00000100: bd88 f03d 406b b23c 276f bbbd 968e d1bd
00000110: c73e 0bbe fffd af3d e86f 56bc 04f8 8cbd
00000120: 47a1 0d3e 48ad d83d e810 143e 75d2 13bd
00000130: dfd3 b23d 5805 90bc 6aa8 b7bb 662b 5a3d
00000140: b55a d13c 472b 9d3d 514d ee3c 0a2d c33b
00000150: 104b 183e d667 0b3e fa68 06be 2f74 08be
00000160: 980b c53c 7d58 f93d cac3 90bc f618 2f3d
00000170: 0954 0a3e 2d93 08bd 453d d03c 5a36 f6bd
00000180: 8490 0abe 4811 59bd a2dd 53bd 7791 19be
00000190: b45e 82bc 647e 603d 7d5c 053e d8d4 0dbe
000001a0: 661d 8d3c 2af6 dd3d d04d ddbc 8913 173e
000001b0: 3234 7b3d bafd 253e 3d52 e3bd cfbe 2f3d
000001c0: fcc9 d4bd 56c1 d1bd 5b94 ec3d 331e 193e
000001d0: 298c b3bd 25ec db3d d6de ad3d a564 1dbd
000001e0: 5589 033e 9b54 27bc 5030 1b3e f6d1 20be
000001f0: dd98 0b3d 9bfd 873c be1a a9bd ebfa ba3d

bn1.weight f4 [128]
0.92434233 1.0828811 0.9433458 1.0259147 1.0033096 1.0906438 0.98012465 1.0196706
0.93637574 1.0357149 0.9893755 1.0896485 1.1442362 0.9394211 0.95909274 1.1831176
1.2293794 1.0032637 1.196352 1.4193776 0.997936 0.9774886 1.1643775 1.147398
0.99908125 0.8963953 0.9790326 0.9952947 1.0383291 0.983665 1.0389093 1.063013
0.9706726 0.99393404 0.96720076 1.0120178 0.9793689 0.99605614 1.036672 1.0095751
1.0017933 1.091494 0.99201536 0.98768944 0.99114 1.0155766 1.0455221 1.0550985
0.9183286 1.1047239 0.9937421 1.0517958 1.0201079 0.95841765 0.9969848 0.9530751
0.9520269 1.0446184 0.947692 0.9830125 0.9991619 0.97515386 1.0046866 1.0080947
0.9506001 0.98308504 1.3149858 0.96404475 1.1084894 1.0224388 0.98761344 0.983229
0.9392408 0.9566551 0.9676354 1.1740104 0.99736464 1.0232551 0.9615888 0.95590615
0.98182625 1.0385422 1.0021666 1.0229434 1.0481046 0.9533569 1.2019202 0.9821125
1.0069814 1.043215 1.1066736 0.8927565 0.98472685 1.0204945 0.9684377 0.99599695
1.0178233 0.99120206 0.94714326 0.9861396 1.0764161 1.0264486 1.1229941 1.0827657
1.1969833 1.0308605 0.99130803 1.3014783 1.049801 1.0748512 1.035676 1.0598677
0.97822136 0.985881 0.9896588 0.9923008 1.1026955 0.96487594 1.1313708 0.986661
1.061132 0.9865795 0.96556896 0.997735 0.97641957 0.95722663 0.9844733 1.0020344
00000000: b3a1 6c3f d99b 8a3f 1c7f 713f 2c51 833f
00000010: 736c 803f 379a 8b3f 73e9 7a3f 9184 823f
00000020: 52b6 6f3f 4e92 843f b647 7d3f 9a79 8b3f
00000030: 5576 923f e77d 703f 1a87 753f 6670 973f
00000040: 4e5c 9d3f f26a 803f 1022 993f 2aae b53f
00000050: bc78 7f3f b13c 7a3f 520a 953f f0dd 923f
00000060: cac3 7f3f 2a7a 653f e1a1 7a3f a2cb 7e3f
00000070: f8e7 843f 78d1 7b3f fbfa 843f cf10 883f
00000080: 007e 783f 7672 7e3f 789a 773f cd89 813f
00000090: ecb7 7a3f 89fd 7e3f abb1 843f c239 813f
000000a0: c33a 803f 13b6 8b3f b8f4 7d3f 37d9 7c3f
000000b0: 5abb 7d3f 6afe 813f abd3 853f 780d 873f
000000c0: 9517 6b3f 9867 8d3f e265 7e3f 3fa1 863f
000000d0: e592 823f dc5a 753f 653a 7f3f bbfc 733f
000000e0: 09b8 733f 0eb6 853f f19b 723f b5a6 7b3f
000000f0: 13c9 7f3f afa3 793f 9299 803f 3f09 813f
00000100: 875a 733f 76ab 7b3f 7451 a83f a3cb 763f
00000110: fbe2 8d3f 46df 823f 3cd4 7c3f e5b4 7b3f
00000120: 1672 703f 59e7 743f f4b6 773f f945 963f
00000130: 4a53 7f3f 06fa 823f af2a 763f 44b6 743f
00000140: f758 7b3f f3ee 843f ff46 803f cfef 823f
00000150: 4b28 863f 330f 743f 85d8 993f ba6b 7b3f
00000160: c4e4 803f 1288 853f 7ba7 8d3f b18b 643f
00000170: 0f17 7c3f 909f 823f 88eb 773f a8f9 7e3f
00000180: 0948 823f 6bbf 7d3f fb77 723f a573 7c3f
00000190: 01c8 893f ab62 833f 45be 8f3f 1198 8a3f
000001a0: c036 993f 3df3 833f 5dc6 7d3f d796 a63f
000001b0: e15f 863f b994 893f 0891 843f bfa9 873f
000001c0: b76c 7a3f b262 7c3f 475a 7d3f 6d07 7e3f
000001d0: 2025 8d3f 1c02 773f c2d0 903f d195 7c3f
000001e0: 2cd3 873f 7990 7c3f 872f 773f 906b 7f3f
000001f0: a2f6 793f ce0c 753f 7106 7c3f aa42 803f

bn1.bias f4 [128]
-0.098090775 0.0011913036 -0.054271463 0.012257881 -0.036866132 -0.08101399 -0.012218143 -0.01985285
-0.08392053 0.034160312 -0.11235522 -0.09563486 -0.07533821 -0.17016855 -0.014036214 -0.056224067
-0.1557559 -0.08985931 -0.06783195 -0.08504381 -0.019599592 -0.0101821935 -0.08224042 0.033233594
-0.025863899 -0.03290812 -0.012244319 0.0075639933 0.06615616 -0.23006925 -0.03895173 -0.035861354
-0.0132897245 0.019119374 -0.07211131 -0.009923731 -0.079187 0.016840734 -0.04448625 -0.07506524
-0.06508188 -0.0413514 -0.08827164 -0.07018884 -0.10361525 -0.1023096 -0.007466356 -0.043312453
-0.12804598 -0.098629564 -0.027877655 0.020648226 -0.09203556 -0.10524147 -0.016337024 0.032081947
-0.06630996 -0.060372867 -0.13309424 -0.064830355 -0.04123036 -0.042222325 -0.061275814 -0.041938014
-0.09053627 -0.033147424 -0.10486032 -0.14778331 -0.07388375 -0.04107294 -0.02794661 -0.22407754
-0.09798097 -0.08861651 -0.08200615 -0.107102 -0.054248393 -0.015118212 -0.0062958687 -0.029956441
-0.034958933 -0.05010153 0.013663181 0.006704963 -0.039894503 -0.06327002 -0.24292044 -0.07014788
-0.08739469 -0.13958693 -0.17240176 -0.14827149 -0.061469708 -0.07211188 0.10031162 -0.05434616
-0.07706807 -0.07876624 -0.08517065 -0.0068638586 -0.08605069 0.07160356 -0.1343604 0.013345588
0.016434478 -0.04613875 -0.07317616 -0.21193697 -0.077315174 -0.11136034 -0.046357136 -0.017592648
-0.058464117 -0.0851559 -0.029537786 -0.100590646 -0.13905744 -0.10854954 -0.082684815 -0.10845279
-0.0020901375 -0.03291857 -0.091545604 -0.026420385 -0.02534772 -0.06844429 -0.07064601 -0.04855351
00000000: d1e3 c8bd 8425 9c3a c14b 5ebd 48d5 483c
00000010: f100 17bd aaea a5bd 9b2e 48bc 72a2 a2bc
00000020: 87de abbd afeb 0b3d 7e1a e6bd 36dc c3bd
00000030: eb4a 9abd aa40 2ebe 26f8 65bc 354b 66bd
00000040: 7a7e 1fbe 2808 b8bd 7aeb 8abd 732b aebd
00000050: 538f a0bc 37d3 26bc aa6d a8bd f31f 083d
00000060: 87e0 d3bc aaca 06bd 659c 48bc 60db f73b
00000070: e17c 873d 4697 6bbe d98b 1fbd 5be3 12bd
00000080: 25bd 59bc 3ca0 9c3c 18af 93bd 2597 22bc
00000090: cb2c a2bd 94f5 893c 3737 36bd cebb 99bd
000000a0: a649 85bd 1660 29bd c3c7 b4bd 2bbf 8fbd
000000b0: 3b34 d4bd b287 d1bd 55a8 f4bb 6668 31bd
000000c0: 7c1e 03be 4cfe c9bd ae5f e4bc 7826 a93c
000000d0: 247d bcbd d788 d7bd 39d5 85bc 5c68 033d
000000e0: 84cd 87bd 8a49 77bd db49 08be c7c5 84bd
000000f0: 2ae1 28bd 51f1 2cbd 59fc 7abd 32c7 2bbd
00000100: 146b b9bd 98c5 07bd 02c1 d6bd 8254 17be
00000110: 5d50 97bd 193c 28bd 4af0 e4bc 9574 65be
00000120: 3faa c8bd 937c b5bd d7f2 a7bd 4b58 dbbd
00000130: 9033 5ebd 61b2 77bc 934d cebb 3667 f5bc
00000140: 1931 0fbd 4337 4dbd 89db 5f3c 4eb5 db3b
00000150: 6b68 23bd b693 81bd 23c0 78be b1a9 8fbd
00000160: fdfb b2bd e0ef 0ebe 168a 30be 7bd4 17be
00000170: a9c7 7bbd 65af 93bd 2e70 cd3d 149a 5ebd
00000180: ddd5 9dbd 3250 a1bd f36d aebd 38ea e0bb
00000190: 583b b0bd e3a4 923d c695 09be 74a7 5a3c
000001a0: 99a1 863c fcfb 3cbd 62dd 95bd 0106 59be
000001b0: 6b57 9ebd e410 e4bd fbe0 3dbd 751e 90bc
000001c0: 1278 6fbd 3766 aebd 3af9 f1bc 7802 cebd
000001d0: 1365 0ebe 394f debd a856 a9bd 7f1c debd
000001e0: b0fa 08bb 9fd5 06bd 437c bbbd 906f d8bc
000001f0: 06a6 cfbc 852c 8cbd dbae 90bd 0ce0 46bd

bn1.running_mean f4 [128]
-0.07202712 0.02339784 0.011627193 -0.027638499 0.08900908 -0.048707303 -0.026007624 0.10079112
0.15780276 -0.06288642 0.090797655 0.03544244 -0.1579736 0.10568238 -0.13405384 -0.04709127
-0.01019874 -0.064309165 0.15416858 0.0072398474 0.13396852 0.12007176 0.016326476 0.052618347
0.015093904 0.014186609 -0.0795988 0.10312336 -0.064567 0.15447845 0.16627982 0.060472153
0.103411324 -0.078582145 0.16481483 -0.01186367 -0.10749857 -0.111701205 -0.068705045 -0.011402061
0.106573224 0.10034973 -0.009860472 0.13965541 -0.14908506 -0.008574432 0.1511562 0.010552724
0.13094707 -0.087212235 -0.015962087 0.055744547 -0.06422891 -0.024645722 0.05298583 0.1306686
-0.13758199 -0.11129477 0.042734325 -0.09889803 -0.12761357 -0.11847353 0.0038254254 -0.11655208
0.115937926 0.022297721 -0.09199515 -0.094384864 -0.1323931 0.089165375 -0.012785 -0.06092297
0.13433239 0.1053002 0.14918973 -0.03696722 0.08831348 -0.021219132 -0.01217038 0.05366274
0.030615328 0.084338926 0.030981598 0.00608212 0.14989111 0.13950925 -0.13182783 -0.124874294
0.021425504 0.122854814 -0.019085133 0.036803015 0.13326289 -0.030555384 0.022014715 -0.116636045
-0.13942169 -0.055447638 -0.05469001 -0.14390127 -0.010898186 0.05301742 0.13432777 -0.14492276
0.017131248 0.10767778 -0.021287277 0.14812058 0.062042132 0.16602373 -0.11067835 0.04773397
-0.09925353 -0.10601225 0.11327698 0.15077801 -0.084961034 0.10813473 0.0881253 -0.04494708
0.13298567 -0.015846893 0.15710539 -0.1596455 0.03130123 0.0204676 -0.08260137 0.09422201
00000000: f482 93bd d4ac bf3c fb7f 3e3c 226a e2bc
00000010: 644a b63d 4f81 47bd f10d d5bc 936b ce3d
00000020: 0c97 213e 98ca 80bd 1ff4 b93d 182c 113d
00000030: d5c3 21be 0170 d83d 6945 09be c7e2 40bd
00000040: 9e18 27bc 86b4 83bd 5ede 1d3e 3e3c ed3b
00000050: 0b2f 093e 2fe8 f53d 1abf 853c 5686 573d
00000060: 6c4c 773c f36e 683c b204 a3bd 5732 d33d
00000070: b43b 84bd 992f 1e3e 4245 2a3e a6b1 773d
00000080: 51c9 d33d adef a0bd 38c5 283e d75f 42bc
00000090: 3628 dcbd 9ac3 e4bd 3bb5 8cbd b6cf 3abc
000000a0: 1043 da3d 2984 cd3d d18d 21bc d401 0f3e
000000b0: c1a9 18be c67b 0cbc b1c8 1a3e 55e5 2c3c
000000c0: fd16 063e 549c b2bd ecc2 82bc 6554 643d
000000d0: 728a 83bd d3e5 c9bc ab07 593d fdcd 053e
000000e0: 4be2 0cbe 83ee e3bd 300a 2f3d 0d8b cabd
000000f0: 22ad 02be 40a2 f2bd fdb3 7a3b dbb2 eebd
00000100: dd70 ed3d b6a9 b63c f467 bcbd da4c c1bd
00000110: 0f92 07be 569c b63d 2d78 51bc 5d8a 79bd
00000120: 6e8e 093e a2a7 d73d 31c5 183e f16a 17bd
00000130: b3dd b43d bfd3 adbc 4666 47bc 76cd 5b3d
00000140: ffcc fa3c e3b9 ac3d 1fcd fd3c 854c c73b
00000150: 0e7d 193e 83db 0e3e e0fd 06be 18be ffbd
00000160: 8a84 af3c 4e9b fb3d 6d58 9cbc c2be 163d
00000170: 1176 083e 494f fabc 3458 b43c e1de eebd
00000180: 8fc4 0ebe 101d 63bd a202 60bd db5a 13be
00000190: 4e8e 32bc cb28 593d 388d 093e a266 14be
000001a0: d556 8c3c 2b86 dc3d a862 aebc ecac 173e
000001b0: e41f 7e3d 2002 2a3e 55ab e2bd b284 433d
000001c0: 6f45 cbbd f31c d9bd c3fd e73d 8d65 1a3e
000001d0: 0d00 aebd be75 dd3d 0a7b b43d 6e1a 38bd
000001e0: 652d 083e 58d1 81bc 3ce0 203e 1c7a 23be
000001f0: b835 003d abab a73c e82a a9bd 78f7 c03d

bn1.running_var f4 [128]
0.5338927 0.0664352 0.19452408 0.29830357 0.2919263 0.12045791 0.6389727 0.17004462
0.32103178 0.14507405 0.27257764 0.11040102 0.071196854 0.6616641 0.17047189 0.070828296
0.12262345 0.1606184 0.10426437 0.068121776 0.43591288 0.1303582 0.13885172 0.16193151
0.28766942 0.5019561 0.21998276 0.24102613 0.22850484 0.18632658 0.107102126 0.26519236
0.1783703 0.4896272 0.20836633 0.23475797 0.35000712 0.16654992 0.21259187 0.19010355
0.123479605 0.20083256 0.39100295 0.53674865 0.19025134 0.24684946 0.11511094 0.17946278
0.3264533 0.3393598 0.31675947 0.10325447 0.1378816 0.5165124 0.286577 0.35583773
0.20883097 0.3076097 0.13067864 0.30672002 0.41719964 0.18349044 0.076107554 0.31817466
0.1916229 0.21512969 0.055266276 0.2693191 0.10103471 0.12596297 0.11079399 0.21513997
0.47704062 0.4117216 0.20219545 0.16559072 0.3852062 0.19010876 0.23865813 0.28434128
0.27661946 0.22037822 1.4357018 0.16343139 0.36039245 0.55162066 0.04637018 0.17263353
0.36126545 0.20974898 0.2674381 1.2163392 0.11006349 0.15918554 0.17647243 0.334668
0.28379598 0.18734883 0.18497461 0.2719849 0.21567063 0.10175742 0.08043289 0.12634833
0.080301136 0.1848705 0.2865668 0.11530352 0.12522507 0.14776748 0.12697001 0.1602251
0.2252313 0.28078085 0.12709591 0.24963365 0.23195069 0.30174384 0.09480853 0.1079679
0.28746518 0.3808119 0.39795953 0.15171273 1.0975428 0.37125146 0.37288243 0.08594652
00000000: 31ad 083f 2e0f 883d 5231 473e 3fbb 983e
00000010: 5d77 953e a3b2 f63d b793 233f 2d20 2e3e
00000020: 475e a43e 4b8e 143e 4c8f 8b3e ee19 e23d
00000030: a8cf 913d d262 293f 2f90 2e3e 6d0e 913d
00000040: 0122 fb3d 2679 243e 8f88 d53d 6e83 8b3d
00000050: f92f df3e 9f7c 053e 252f 0e3e 60d1 253e
00000060: 6849 933e 3280 003f 2943 613e 8ecf 763e
00000070: 2cfd 693e 65cc 3e3e 5c58 db3d 4bc7 873e
00000080: b4a6 363e 6bb0 fa3e fc5d 553e 6564 703e
00000090: 2234 b33e 108c 2a3e afb1 593e 81aa 423e
000000a0: e0e2 fc3d 0da7 4d3e 8a31 c83e 5c68 093f
000000b0: 3fd1 423e 1bc6 7c3e 49bf eb3d 17c5 373e
000000c0: e324 a73e 91c0 ad3e 4c2e a23e 1477 d33d
000000d0: d630 0d3e 283a 043f 38ba 923e 5d30 b63e
000000e0: c9d7 553e 057f 9d3e 9fd0 053e 680a 9d3e
000000f0: 319b d53e ebe4 3b3e 47de 9b3d cae7 a23e
00000100: cb38 443e f54a 5c3e e45e 623d 31e4 893e
00000110: 49eb ce3d 70fc 003e f6e7 e23d a74d 5c3e
00000120: ab3e f43e 2ccd d23e 530c 4f3e 9d90 293e
00000130: bf39 c53e dfab 423e cc62 743e 2e95 913e
00000140: 11a1 8d3e d4aa 613e 14c5 b73f 8f5a 273e
00000150: 5c85 b83e 0337 0d3f a8ee 3d3d d8c6 303e
00000160: c9f7 b83e 70c8 563e a6ed 883e 01b1 9b3f
00000170: f868 e13d 8901 233e 30b5 343e 9b59 ab3e
00000180: b54d 913e 5fd8 3f3e fc69 3d3e 9b41 8b3e
00000190: c3d8 5c3e 3266 d03d 00ba a43d 7561 013e
000001a0: ec74 a43d b14e 3d3e e2b8 923e 4024 ec3d
000001b0: 003b 003e 5c50 173e 6d04 023e 0c12 243e
000001c0: 09a3 663e 82c2 8f3e 6e25 023e f79f 7f3e
000001d0: 7b84 6d3e 2b7e 9a3e f92a c23d 461e dd3d
000001e0: a32e 933e c7f9 c23e 5ac1 cb3e 955a 1b3e
000001f0: 487c 8c3f ac14 be3e 72ea be3e bb04 b03d

fc2.weight f4 [64, 128]
-0.07744616 0.011633423 0.012267264 -0.027716514 0.006999233 -0.119521804 -0.0526728 -0.11870169
-0.016766476 0.053253923 -0.016653039 -0.006833962 0.0457795 -0.07152559 -0.0786011 0.025830073
0.08325278 -0.032499027 -0.041764114 0.057109986 -0.05080589 0.002765599 0.023916494 0.04336955
0.023174252 -0.05543937 0.03207085 0.016110308 0.022063272 0.029850725 -0.10393164 -0.09581667
0.07333637 -0.020140966 -0.04950129 -0.08929681 -0.016349668 -0.04563795 -0.05512405 -0.022632068
0.008346198 -0.068376765 -0.01498941 -0.072300956 -0.03662657 -0.057060268 0.0052211373 0.104944855
-0.06707536 -0.010792466 -0.04528672 0.020291924 0.07054633 0.008944835 0.06613017 0.08014813
-0.06256115 0.071411505 0.08469264 -0.021498742 0.03486424 -0.0012438849 0.07142382 -0.02575483
0.063336186 0.07828003 0.0054830993 0.04062006 -0.113470316 0.069669574 -0.03189217 0.010352064
-0.031163398 0.013689005 0.0489517 0.07524038 -0.06132689 0.049009353 -0.07508437 0.10229548
0.050386056 -0.025778173 -0.044269755 -0.022737062 -0.03581082 -0.028282655 0.12871292 -0.017229646
-0.06776958 -0.054441635 0.06186192 0.009384754 0.06991904 -0.11278565 0.079433806 -0.090611584
-0.03665159 0.05886159 0.014521225 -0.021805387 -0.09154685 0.04960688 -0.081058234 0.10330686
0.04588477 0.015597721 0.014428711 0.1282777 -0.083009355 -0.10847363 0.0800653 0.04535635
-0.0045501473 0.012812851 -0.022648407 -0.057810787 -0.06517742 -0.074584514 -0.037277676 -0.029599236
-0.16486052 0.004762458 0.050707117 -0.031681113 -0.06445464 -0.038653724 -0.022202887 -0.036457837
-0.0014297903 -0.013509607 0.016018169 0.061498612 -0.066276476 -0.030559165 0.03570731 -0.004113593
-0.02047584 -0.05032511 -0.008538431 -0.016349908 -0.106166594 -0.05353697 -0.043613806 -0.08971991
-0.13863058 -0.07063388 -0.028894095 -0.13931139 -0.007019827 -0.050203525 0.04052114 -0.05138767
0.02647644 0.036409408 0.074984945 -0.081992686 -0.05070058 0.03466531 0.0075569274 0.05570417
0.04711033 -0.047424298 -0.069131464 -0.041584466 0.07661514 0.02346694 -0.021768535 0.077351175
-0.07978878 0.02753624 -0.028853504 -0.047789387 -0.04588285 0.04114725 0.0036000656 -0.042584416
-0.035291933 0.005294907 0.05488617 -0.031495545 -0.048904322 -0.06749253 -0.06957174 -0.085234776
-0.07755658 -0.066591784 0.028668322 -0.047491048 0.028406965 -0.020187853 -0.025777642 -0.01772828
-0.11523989 0.013777393 -0.028601432 -0.07699902 0.031314723 -0.068301335 -0.10204153 -0.09897906
0.023449194 -0.09112751 0.035413757 -0.082170375 0.077780224 -0.0296351 -0.05134104 0.040649615
0.035738844 -0.056526102 -0.04894059 0.01015188 -0.025024148 0.010875759 -0.12977044 -0.08341158
-0.059220415 -0.069411024 0.009204526 0.049479768 -0.043691546 -0.0659367 -0.09387004 0.05261512
0.052160878 0.0032729988 -0.06079626 0.04078132 -0.057171334 -0.11729611 0.050094802 -0.028133117
0.0056345616 0.002331932 0.012880533 -0.011575525 -0.0015638897 0.08030841 0.0023489622 0.041626897
0.0143001685 0.055021733 0.009325074 -0.103392094 0.10328563 0.066498674 0.002767182 0.012946551
-0.06463134 -0.029919188 0.039155114 -0.091784105 0.08609589 0.052335344 -0.024618031 0.06616072
00000000: 189c 9ebd 1d9a 3e3c a2fc 483c be0d e3bc
00000010: d259 e53b d9c7 f4bd 6fbf 57bd df19 f3bd
00000020: d959 89bc c920 5a3d f46b 88bc 6eef dfbb
00000030: 4983 3b3d 027c 92bd 9df9 a0bd 9799 d33c
00000040: 6f80 aa3d b31d 05bd d910 2bbd 29ec 693d
00000050: d619 50bd 0d3f 353b 86ec c33c 45a4 313d
00000060: eed7 bd3c 6514 63bd b95c 033d c4f9 833c
00000070: 09be b43c 8289 f43c 1dda d4bd 883b c4bd
00000080: 6131 963d abfe a4bc ddc1 4abd 3fe1 b6bd
00000090: bdef 85bc dcee 3abd c1c9 61bd e366 b9bc
000000a0: 7ebe 083c 1e09 8cbd 2496 75bc 8612 94bd
000000b0: be05 16bd 07b8 69bd 1316 ab3b 54ed d63d
000000c0: ce5e 89bd e2d2 30bc 917e 39bd 403b a63c
000000d0: 987a 903d 5b8d 123c 416f 873d b424 a43d
000000e0: 0f20 80bd 3240 923d 5673 ad3d 211e b0bc
000000f0: cecd 0e3d da09 a3ba a746 923d cbfb d2bc
00000100: 67b6 813d 4851 a03d 92ab b33b 3861 263d
00000110: 2063 e8bd ecae 8e3d 5da1 02bd b49b 293c
00000120: 624a ffbc d947 603c 9481 483d a117 9a3d
00000130: e831 7bbd 08be 483d d6c5 99bd 4b80 d13d
00000140: 9c61 4e3d bf2c d3bc 3454 35bd 1343 babc
00000150: 5eae 12bd 07b1 e7bc 52cd 033e 3025 8dbc
00000160: c7ca 8abd 31fe 5ebd ed62 7d3d 83c2 193c
00000170: b731 8f3d 2afc e6bd 31ae a23d 9192 b9bd
00000180: fa1f 16bd da18 713d 6fea 6d3c 36a1 b2bc
00000190: ea7c bbbd 9530 4b3d dc01 a6bd 8c92 d33d
000001a0: abf1 3b3d 958d 7f3c 6666 6c3c 3b5b 033e
000001b0: cf00 aabd 6c27 debd 47f9 a33d 94c7 393d
000001c0: 6719 95bb feec 513c 2789 b9bc 01cb 6cbd
000001d0: bd7b 85bd c4bf 98bd 7ab0 18bd 197a f2bc
000001e0: 32d1 28be 650e 9c3b 44b2 4f3d 0ec4 01bd
000001f0: cb00 84bd 5e53 1ebd d4e2 b5bc d054 15bd
00000200: cd67 bbba 6657 5dbc 8938 833c f8e5 7b3d
00000210: f6bb 87bd 3757 fabc d441 123d 52cb 86bb
00000220: f3bc a7bc b421 4ebd c6e4 0bbc 3ef0 85bc
00000230: df6d d9bd 9549 5bbd 64a4 32bd 12bf b7bd
00000240: 2df5 0dbe 7fa8 90bd 4fb3 ecbc a5a7 0ebe
00000250: 9406 e6bb 36a2 4dbd 7ff9 253d e17b 52bd
00000260: 1ee5 d83c 0822 153d b591 993d c8eb a7bd
00000270: 69ab 4fbd 36fd 0d3d 1aa0 f73b 0e2a 643d
00000280: c3f6 403d fb3f 42bd cc94 8dbd 7954 2abd
00000290: 66e8 9c3d bd3d c03c ed53 b2bc 4b6a 9e3d
000002a0: 4d68 a3bd ae93 e13c 2f5e ecbc cebe 43bd
000002b0: a8ef 3bbd 058a 283d 14ef 6b3b ff6c 2ebd
000002c0: 468e 10bd e680 ad3b 52d0 603d 7901 01bd
000002d0: e64f 48bd 8639 8abd a17b 8ebd 928f aebd
000002e0: fcd5 9ebd 4661 88bd d4d9 ea3c f985 42bd
000002f0: b9b5 e83c ff60 a5bc a22b d3bc e63a 91bc
00000300: e402 ecbd 93ba 613c 8d4d eabc aab1 9dbd
00000310: de43 003d 92e1 8bbd 26fb d0bd 89b5 cabd
00000320: 8618 c03c 0fa1 babd 040e 113d f148 a8bd
00000330: 3d4b 9f3d 4fc5 f2bc fb4a 52bd 3680 263d
00000340: e562 123d ea87 67bd ee75 48bd 1254 263c
00000350: 71ff ccbc 3d30 323c 8be2 04be b1d3 aabd
00000360: 1b91 72bd 5e27 8ebd 95ce 163c 4cab 4a3d
00000370: e8f5 32bd d209 87bd ef3e c0bd f482 573d
00000380: a5a6 553d cf7f 563b 8005 79bd 500a 273d
00000390: 7d2c 6abd f138 f0bd 3530 4d3d 6c77 e6bc
000003a0: 21a2 b83b 54d3 183b df08 533c 45a7 3dbc
000003b0: 6efb ccba bc78 a43d 0cf1 193b f780 2a3d
000003c0: 414b 6a3c 785e 613d 32c8 183c 3cbf d3bd
000003d0: 6b87 d33d 7530 883d 9c59 353b c51d 543c
000003e0: 705d 84bd 1619 f5bc 1d61 203d 4ef9 bbbd
000003f0: 0b53 b03d 965d 563d c1ab c9bc 467f 873d

fc2.bias f4 [64]
-0.025683418 -0.032728884 0.011180396 0.07508731 0.036628272 0.0048859026 0.0028681864 -0.042079493
-0.038934372 -0.00012501783 0.050823014 0.08177225 -0.07261962 0.023407092 0.007074199 0.030193381
0.061853744 -0.07179532 0.044030212 -0.006511767 -0.059133835 -0.04029086 -0.032030348 0.016240746
0.030535145 0.013547295 0.049542602 -0.07415409 -0.0063821753 -0.011534495 -0.087958954 0.015694555
0.07753425 -0.03693792 -0.0182609 0.07364288 0.02232973 -0.029935108 -0.06727659 0.03631153
0.059181012 -0.068166934 0.0048587993 -0.08538383 -0.088229105 0.06917467 0.002511685 -0.01955275
-0.060687035 0.07113296 -0.010298663 -0.07187974 -0.0884611 -0.052848402 0.0051773055 0.030538304
0.05073565 -0.02468539 -0.034248397 0.054628663 0.05531373 0.037784062 0.033222526 0.023667034
00000000: 0866 d2bc b90e 06bd fb2d 373c 60c7 993d
00000010: 8707 163d ec19 a03b 2ff8 3b3b 8c5b 2cbd
00000020: a679 1fbd 3817 03b9 cb2b 503d 3678 a73d
00000030: 98b9 94bd 3bc0 bf3c afce e73b 1c58 f73c
00000040: 5a5a 7d3d 6d09 93bd 0659 343d a960 d5bb
00000050: 5236 72bd 0708 25bd 4132 03bd 500b 853c
00000060: d724 fa3c 79f5 5d3c 2fed 4a3d 19de 97bd
00000070: 9121 d1bb 2efb 3cbc d323 b4bd de91 803c
00000080: 47ca 9e3d 374c 17bd e297 95bc 14d2 963d
00000090: d7ec b63c 793a f5bc 4fc8 89bd 66bb 143d
000000a0: ca67 723d 1b9b 8bbd 9036 9f3b b8dd aebd
000000b0: 76b1 b4bd 73ab 8d3d 159b 243b 172d a0bc
000000c0: f892 78bd 28ae 913d b9bb 28bc af35 93bd
000000d0: 182b b5bd 9177 58bd 63a6 a93b 772b fa3c
000000e0: 2fd0 4f3d 0439 cabc 0c48 0cbd 4ec2 5f3d
000000f0: a690 623d 76c3 1a3d 5814 083d 5ee1 c13c

bn2.weight f4 [64]
1.0127429 0.9863392 1.1515474 0.9677907 0.9637571 0.98129094 1.0268741 0.98393553
1.1460041 1.0306848 1.0120205 1.0096388 0.9900783 0.9923758 1.0028151 1.0004212
1.0792326 1.0149779 1.0581403 1.0529864 1.0313216 1.0293901 0.9334585 0.9723331
1.0046179 1.0554519 1.0177878 0.9777511 0.99584424 1.0022792 0.9979168 1.023362
0.98628926 0.9863967 1.0901703 1.0052128 1.0040913 0.99421465 1.1037375 1.0165946
1.0363691 1.0785859 0.9676746 1.1350965 0.9759007 0.9272658 1.1036063 0.97385025
1.077402 1.0188242 1.0585787 0.989465 0.94235986 0.9991393 1.1027269 0.9941379
0.9934096 1.0899175 1.0277225 0.99452597 1.0367866 1.0515488 1.1693437 1.0784131
00000000: 8fa1 813f ba80 7c3f e865 933f 22c1 773f
00000010: c9b8 763f e235 7b3f 9c70 833f 33e3 7b3f
00000020: 43b0 923f 7bed 833f e389 813f d83b 813f
00000030: c575 7d3f 570c 7e3f 3f5c 803f cd0d 803f
00000040: 4b24 8a3f ccea 813f 2471 873f 42c8 863f
00000050: 5902 843f 0ec3 833f 23f7 6e3f d2ea 783f
00000060: 5297 803f 0c19 873f df46 823f e54d 7a3f
00000070: a6ef 7e3f af4a 803f 7a77 7f3f 87fd 823f
00000080: 747d 7c3f 7e84 7c3f b38a 8b3f d0aa 803f
00000090: 1086 803f da84 7e3f 4547 8d3f c61f 823f
000000a0: bea7 843f 1a0f 8a3f 86b9 773f d84a 913f
000000b0: a1d4 793f 4b61 6d3f f942 8d3f 404e 793f
000000c0: 4fe8 893f d568 823f 827f 873f 944d 7d3f
000000d0: 7f3e 713f 98c7 7f3f 2826 8d3f d27f 7e3f
000000e0: 1750 7e3f 6b82 8b3f 698c 833f 4199 7e3f
000000f0: 6cb5 843f 2799 863f 0ead 953f 7109 8a3f

bn2.bias f4 [64]
-0.00024555606 -0.08134008 0.010089182 -0.05893394 0.035456505 0.05354778 -0.005865578 -0.04575306
0.04077735 0.015809605 0.064729154 -0.028921042 0.024713699 -0.028785683 0.056756746 -0.112489834
-0.008488533 0.05155407 -0.3753972 0.01564056 0.009504222 0.01716901 -0.11631116 -0.055148203
0.0002239454 -0.3555311 -0.113763176 0.016514666 -0.10405556 -0.0031218997 -0.026983427 -0.25640514
-0.11396487 -0.17664091 0.06694602 -0.1630072 -0.09312607 -0.3127634 -0.2294326 -0.111936316
0.063138895 -0.0071308003 0.057009123 -0.11931581 -0.047713537 -0.07165693 -0.036885556 -0.016809296
0.07383857 0.038958985 0.047721803 -0.06176319 0.026493477 0.018127918 -0.16200691 -0.08931368
-0.06961521 -0.005413965 0.02845244 0.006283857 0.003727414 -0.0051838574 0.0033621385 0.022752494
00000000: fabd 80b9 a195 a6bd 194d 253c b764 71bd
00000010: d73a 113d eb54 5b3d 0934 c0bb 9067 3bbd
00000020: 2706 273d 2583 813c b890 843d d2eb ecbc
00000030: 6274 ca3c f4cf ebbc c379 683d 1261 e6bd
00000040: 7d13 0bbc 5c2a 533d 1034 c0be a220 803c
00000050: 99b7 1b3c 06a6 8c3c 8c34 eebd 15e3 61bd
00000060: e3d2 6a39 2c08 b6be abfc e8bd c449 873c
00000070: 151b d5bd c998 4cbb 590c ddbc 8947 83be
00000080: 6a66 e9bd 5be1 34be ff1a 893d 5ceb 26be
00000090: e2b8 bebd 8622 a0be 61f0 6abe de3e e5bd
000000a0: f74e 813d 7da9 e9bb 6682 693d d95b f4bd
000000b0: 456f 43bd dec0 92bd 4f15 17bd a6b3 89bc
000000c0: ad38 973d 7593 1f3d f077 433d 66fb 7cbd
000000d0: d908 d93c 0081 943c 24e5 25be 17ea b6bd
000000e0: 6b92 8ebd a167 b1bb 1715 e93c d0e8 cd3b
000000f0: a147 743b 59dd a9bb 5357 5c3b 7063 ba3c

bn2.running_mean f4 [64]
-0.17877604 -0.4311928 -0.47829196 0.2673739 0.002533308 -0.08197121 -0.43531287 0.04857032
-0.034108803 -0.2762835 0.093599066 -0.21284345 -0.0690672 0.3770891 -0.0046006404 0.20674868
-0.115356304 -0.0942372 -0.38357952 -0.3509457 -0.22081095 -0.008370968 -0.091575965 -0.10946562
-0.15256296 -0.5684089 0.013507319 -0.0642491 -0.3872437 0.22956604 -0.4028852 -0.48644367
0.3143466 -0.46314347 -0.03893545 -0.48980796 -0.073226064 -0.48177606 -0.6276266 -0.38684204
0.20205203 -0.33554375 -0.16525772 -0.40112633 -0.47714135 -0.1131709 -0.1933474 -0.24312843
-0.0829543 -0.007841792 -0.24607967 -0.4281127 -0.016450195 -0.40362072 -0.50863177 -0.28762847
-0.06121769 -0.24123803 -0.105984345 0.2504193 -0.27718624 -0.064739786 -0.023995973 -0.46372494
00000000: 1111 37be 4dc5 dcbe afe2 f4be 3be5 883e
00000010: db05 263b 86e0 a7bd 54e1 debe acf1 463d
00000020: acb5 0bbd 0875 8dbe deb0 bf3d a2f3 59be
00000030: 1b73 8dbd d311 c13e f8c0 96bb edb5 533e
00000040: ed3f ecbd 6fff c0bd 8964 c4be 28af b3be
00000050: 441c 62be 6226 09bc 2e8c bbbd 832f e0bd
00000060: 7739 1cbe 3f83 11bf cd4d 5d3c 0895 83bd
00000070: ce44 c6be 5c13 6b3e f846 cebe 250f f9be
00000080: 0af2 a03e 2421 edbe c77a 1fbd 1cc8 fabe
00000090: 8cf7 95bd 5aab f6be 23ac 20bf 2910 c6be
000000a0: bae6 4e3e 64cc abbe 5239 29be 6e60 cdbe
000000b0: df4b f4be 25c6 e7bd dcfc 45be a9f6 78be
000000c0: f2e3 a9bd dc7a 00bc 4ffc 7bbe 9631 dbbe
000000d0: 8fc2 86bc 60a7 cebe b135 02bf 0a44 93be
000000e0: 67bf 7abd 1a07 77be 520e d9bd f536 803e
000000f0: 5beb 8dbe 4b96 84bd 3493 c4bc 5b6d edbe

bn2.running_var f4 [64]
0.7350434 0.529499 0.35027078 0.4089802 0.6132858 0.6635171 0.46452788 0.4386923
1.0976026 0.49557105 0.7175789 1.2636175 0.4918759 0.8575409 1.0762197 0.40314117
0.670112 0.7228903 0.33682287 0.38874847 0.80088145 0.5441101 0.26181987 0.43900612
0.66186476 0.48349014 0.5274926 0.46385464 0.6092379 0.6283893 0.3712932 0.5402398
0.8631666 0.35647655 0.5476784 0.8548004 0.38841256 0.5046933 0.546715 0.7353962
0.87257355 1.0464251 0.52557516 0.97781587 0.55265516 0.49274898 1.0075479 0.81063104
0.9440365 0.6638121 0.5306533 0.51437515 0.57184356 0.46840468 0.6443765 0.5849907
0.44504148 0.9060359 0.6028641 0.7441599 0.6262219 0.7789854 0.98281544 0.41363958
00000000: ce2b 3c3f 3f8d 073f b156 b33e da65 d13e
00000010: 4c00 1d3f 42dc 293f 99d6 ed3e 479c e03e
00000020: 3e7e 8c3f 7dbb fd3e 40b3 373f 38be a13f
00000030: 28d7 fb3e cd87 5b3f 91c1 893f 8568 ce3e
00000040: 768c 2b3f 570f 393f 0c74 ac3e 0a0a c73e
00000050: 9106 4d3f cd4a 0b3f 410d 863e 69c5 e03e
00000060: f86f 293f 058c f73e c109 073f 5b7e ed3e
00000070: 04f7 1b3f 1fde 203f 241a be3e 284d 0a3f
00000080: 7cf8 5c3f 1884 b63e a734 0c3f 33d4 5a3f
00000090: 03de c63e 9533 013f 84f5 0b3f ed42 3c3f
000000a0: fb60 5f3f 42f1 853f 188c 063f 2452 7a3f
000000b0: cf7a 0d3f 9849 fc3e 54f7 803f 8485 4f3f
000000c0: 60ac 713f 97ef 293f e5d8 073f 17ae 033f
000000d0: 5764 123f bdd2 ef3e dcf5 243f f3c1 153f
000000e0: 7adc e33e f8f1 673f 4d55 1a3f 4381 3e3f
000000f0: 1450 203f 966b 473f cb99 7b3f 91c8 d33e

fc3.weight f4 [32, 64]
0.008361329 -0.11740748 0.05962121 -0.08879949 -0.022186112 -0.061580617 -0.08561597 -0.09024847
-0.1783423 -0.11461524 -0.028663568 0.0025175468 -0.018093873 0.08563755 0.010653389 -0.03574552
-0.06269896 0.0464545 0.055641305 0.04667257 -0.020833973 0.014797793 0.05755001 0.07068234
-0.05788721 0.124199465 0.07304368 -0.02491647 -0.023514697 0.01571202 -0.02999146 0.029125066
-0.032215685 0.08267698 -0.17053857 0.06644171 -0.12642512 0.05079835 0.05014772 -0.10254382
-0.12010906 -0.19396599 -0.08034426 -0.15960743 -0.029663017 0.07191703 0.042427894 -0.04662355
-0.05141237 -0.040624656 0.02632327 -0.05100501 0.017095616 -0.013554591 -0.007290433 0.08125901
-0.045768503 -0.18615189 -0.14148131 0.06348955 0.050400414 0.01237151 -0.0072409683 -0.034752186
-0.042984784 0.09697531 -0.21245216 -0.06543661 -0.1328634 -0.0504198 -0.17202981 0.0014843465
-0.07026024 -0.019630305 0.016705342 0.06928352 0.075099334 0.004461534 -0.025652768 0.058727246
-0.040971696 0.0733457 0.0904782 -0.09432714 -0.06655424 -0.012871048 -0.1447491 -0.08088946
-0.030602347 0.0919382 0.040835794 -0.056237753 0.08714639 0.03420847 -0.009336376 0.12477732
-0.092894666 0.0959346 -0.040962663 0.08506943 0.0578861 0.06430445 0.01699241 0.008632871
0.05747268 0.01885649 -0.03276856 0.040119167 0.029106105 -0.13033506 0.035253078 0.04742528
-0.04926614 0.07766321 -0.11144648 0.03599788 -0.028264761 -0.10017755 0.07627669 -0.02525989
0.029440017 0.08216899 0.030264677 -0.10205632 -0.14336993 -0.043216083 0.0054066353 -0.07872253
0.034863453 0.14436094 -0.2136691 -0.030475954 -0.113827474 -0.09683738 -0.10149438 -0.035280686
0.027125204 -0.053772792 -0.1223838 0.02004852 -0.03663331 0.028890898 -0.025836397 -0.0015009914
-0.0036544143 -0.07230348 0.11049772 -0.107078664 0.0012693158 -0.022148894 -0.028294146 0.036565192
-0.09343031 0.041903086 -0.04843749 -0.06823855 0.055345517 0.02625269 -0.09735146 0.08451423
-0.018331507 0.12285415 0.005374874 0.084774636 0.089048594 0.13107462 0.15406871 0.036801863
0.042656325 -0.002860026 -0.037966534 0.06630755 0.075554274 -0.0673236 0.06772048 -0.070806116
-0.12675133 0.074561276 -0.16618623 -0.0012710849 -0.084070064 -0.1396434 0.16273619 0.14847764
-0.0877104 0.021964928 0.06328811 -0.07524949 -0.16582574 -0.0036134378 0.009730044 -0.08020608
-0.14220117 0.001219687 -0.0017412218 -0.022271212 -0.052731927 0.05264303 -0.029423812 -0.07690999
-0.074541934 0.029566485 0.016965399 -0.115824535 -0.0088412855 0.060125135 -0.04096365 -0.061151303
-0.18341143 -0.12621355 0.09703155 0.06803053 -0.061380208 -0.11432455 -0.13516222 0.05665209
-0.098427944 0.115136184 0.0053014783 0.0068546357 -0.07574657 0.035658848 0.054009344 -0.011620377
-0.109425776 0.06946769 -0.13173479 -0.040016685 -0.008155288 0.086228244 0.019017387 -0.06301616
-0.032460753 -0.021606535 -0.079707265 -0.10487654 -0.026391372 -0.016015556 -0.10394581 -0.10726315
-0.095579594 -0.055972002 -0.12315026 0.09561368 -0.06611261 0.03165293 -0.03059675 0.03548713
0.08652794 -0.118106455 -0.031017985 -0.026560944 -0.14288087 -0.1806699 -0.09773154 0.01364135
00000000: f5fd 083c 5573 f0bd 5f35 743d 82dc b5bd
00000010: a6bf b5bc f53b 7cbd 6d57 afbd 31d4 b8bd
00000020: 5d9f 36be 65bb eabd dccf eabc 6dfd 243b
00000030: 9a39 94bc bd62 af3d 8d8b 2e3c e569 12bd
00000040: 5068 80bd 1347 3e3d 23e8 633d bd2b 3f3d
00000050: 02ac aabc 7172 723c 8fb9 6b3d e7c1 903d
00000060: 241b 6dbd 4a5c fe3d ed97 953d a01d ccbc
00000070: e5a1 c0bc 7fb6 803c a6b0 f5bc b197 ee3c
00000080: 98f4 03bd 8c52 a93d aaa1 2ebe 9712 883d
00000090: 9675 01be ee11 503d b267 4d3d 7f02 d2bd
000000a0: bdfb f5bd 059f 46be 888b a4bd 2170 23be
000000b0: dbff f2bc 3c49 933d dfc8 2d3d 56f8 3ebd
000000c0: c795 52bd 0a66 26bd e6a3 d73c a1ea 50bd
000000d0: 1b0c 8c3c 1314 5ebc 96e4 eebb 206b a63d
000000e0: c177 3bbd 9a9e 3ebe 7ae0 10be cf06 823d
000000f0: aa70 4e3d e0b1 4a3c a545 edbb 4f58 0ebd
00000100: d010 30bd fe9a c63d 0f8d 59be a103 86bd
00000110: 580d 08be fe84 4ebd 9528 30be 678e c23a
00000120: 9ae4 8fbd bccf a0bc a4d9 883c 85e4 8d3d
00000130: aecd 993d 0f32 923b c125 d2bc fb8b 703d
00000140: f0d1 27bd 4536 963d a24c b93d 962e c1bd
00000150: 974d 88bd 17e1 52bc 1c39 14be 60a9 a5bd
00000160: c6b1 fabc 184a bc3d 6f43 273d 8f59 66bd
00000170: ce79 b23d 2e1e 0c3d 99f7 18bc 408b ff3d
00000180: 8f3f bebd 5c79 c43d 77c8 27bd e238 ae3d
00000190: fa19 6d3d 0db2 833d ab33 8b3c e370 0d3c
000001a0: 7968 6b3d ed78 9a3c 5338 06bd ff53 243d
000001b0: ed6f ee3c 8e76 05be 8865 103d 0341 423d
000001c0: 4bcb 49bd e40d 9f3d 0d3e e4bd 8372 133d
000001d0: 808b e7bc e329 cdbd f436 9c3d d4ed cebc
000001e0: 312c f13c 3748 a83d a1ed f73c e702 d1bd
000001f0: 91cf 12be 5903 31bd 252a b13b 4739 a1bd
00000200: fbcc 0e3d 5bd3 133e 13cc 5abe b5a8 f9bc
00000210: 611e e9bd ad52 c6bd 49dc cfbd 7b82 10bd
00000220: ad35 de3c dc40 5cbd 5ca4 fabd cb3c a43c
00000230: cf0c 16bd 9bac ec3c daa6 d3bc eabc c4ba
00000240: e67e 6fbb d913 94bd a14c e23d 0f4c dbbd
00000250: 2c5f a63a 9971 b5bc 20c9 e7bc 62c5 153d
00000260: 6458 bfbd 92a2 2b3d 6466 46bd a7c0 8bbd
00000270: fbb1 623d e20f d73c 3460 c7bd cc15 ad3d
00000280: f52b 96bc f59a fb3d b61f b03b 539e ad3d
00000290: 1c5f b63d 6d38 063e 30c4 1d3e 8dbd 163d
000002a0: 66b8 2e3d 466f 3bbb cc82 1bbd 41cc 873d
000002b0: 33bc 9a3d f5e0 89bd 09b1 8a3d cc02 91bd
000002c0: 1acb 01be 95b3 983d b92c 2abe 889a a6ba
000002d0: ed2c acbd aefe 0ebe 51a4 263e 860a 183e
000002e0: 83a1 b3bd cbef b33c 329d 813d 681c 9abd
000002f0: 39ce 29be 6dcf 6cbb c36a 1f3c 1643 a4bd
00000300: 2f9d 11be e8dd 9f3a b539 e4ba 1e72 b6bc
00000310: 6ffd 57bd 38a0 573d 350a f1bc fc82 9dbd
00000320: 71a9 98bd 6a35 f23c 05fb 8a3c 6a35 edbd
00000330: 0adb 10bc c645 763d 80c9 27bd ca79 7abd
00000340: 35d0 3bbe 203e 01be 7ab8 c63d 9753 8b3d
00000350: d069 7bbd fd22 eabd f767 0abe 060c 683d
00000360: 9794 c9bd 85cc eb3d 06b8 ad3b da9c e03b
00000370: 0521 9bbd 030f 123d e738 5d3d 6563 3ebc
00000380: 9f1a e0bd 1445 8e3d 7ce5 06be 89e8 23bd
00000390: c29d 05bc 6f98 b03d 5aca 9b3c 9e0e 81bd
000003a0: 91f5 04bd 3000 b1bc 903d a3bd 83c9 d6bd
000003b0: b832 d8bc 0e33 83bc 8ae1 d4bd c8ac dbbd
000003c0: 3cbf c3bd e642 65bd 3436 fcbd 1bd1 c33d
000003d0: 0c66 87bd 81a6 013d 09a6 fabc f45a 113d
000003e0: 9035 b13d cce1 f1bd 6e19 febc 5696 d9bc
000003f0: 5d4f 12be 8801 39be 7927 c8bd f87f 5f3c

fc3.bias f4 [32]
0.04709107 0.03692305 0.0481112 -0.089527525 -0.12596977 -0.013705602 -0.006905045 0.01041641
0.06455127 -0.017532527 0.074716315 -0.07960259 -0.086818144 -0.09214443 -0.025721706 0.037048467
0.086192966 0.003156435 0.07105597 0.11662294 0.105211735 0.022953212 0.0846138 0.1052594
-0.11247831 -0.12455874 0.0972668 0.061181065 0.0770915 0.065259226 0.025183998 -0.12355257
00000000: 91e2 403d a03c 173d 4010 453d 355a b7bd
00000010: 38fe 00be 768d 60bc b743 e2bb 97a9 2a3c
00000020: 7533 843d 60a0 8fbc de04 993d af06 a3bd
00000030: b6cd b1bd 38b6 bcbd 54b6 d2bc 22c0 173d
00000040: f085 b03d 31dc 4e3b cb85 913d 02d8 ee3d
00000050: 4079 d73d 6008 bc3c 004a ad3d 3e92 d73d
00000060: 075b e6bd a718 ffbd d133 c73d ff98 7a3d
00000070: 26e2 9d3d a1a6 853d ac4e ce3c 2109 fdbd

bn3.weight f4 [32]
0.9284111 1.15112 1.2508794 1.0205008 1.0676429 1.0064402 0.9061472 0.9057485
0.9755865 0.9673202 0.92291903 1.0081785 0.9664195 0.90526015 0.8819383 1.0201995
1.1849602 1.023507 1.1593479 1.0615956 0.963622 1.197219 0.9719689 0.92847645
1.1676908 0.9826409 1.00483 0.89974356 0.85737497 0.92772365 1.2731776 0.9199454
00000000: 5aac 6d3f e657 933f d11c a03f c59f 823f
00000010: 86a8 883f 08d3 803f 43f9 673f 22df 673f
00000020: 09c0 793f 4ca2 773f 6c44 6c3f fe0b 813f
00000030: 4567 773f 21bf 673f b5c6 613f e695 823f
00000040: c7ac 973f 4702 833f 8365 943f 5de2 873f
00000050: eeaf 763f 793e 993f f4d2 783f a2b0 6d3f
00000060: e476 953f 5b8e 7b3f 459e 803f 9855 663f
00000070: ed7c 5b3f 4c7f 6d3f 7cf7 a23f 8b81 6b3f

bn3.bias f4 [32]
0.040921178 0.011791005 0.029043632 0.12701859 0.20926103 0.0003336629 0.0134428 -0.18444525
0.13762286 0.12700585 -0.0718855 0.12632412 0.025469746 -0.034626238 -0.1718238 0.080258206
0.22753522 0.2554863 0.026626451 0.1634408 -0.06519031 0.06839528 0.0034942203 -0.122771695
0.05959176 -0.13191544 -0.2224219 0.01852068 -0.14737734 0.056919172 0.07599958 0.015821088
00000000: f79c 273d 0f2f 413c e9ec ed3c 2911 023e
00000010: 8648 563e 7aef ae39 313f 5c3c 37df 3cbe
00000020: 02ed 0c3e d20d 023e b438 93bd 1c5b 013e
00000030: eea5 d03c 3ed4 0dbd 94f2 2fbe 6a5e a43d
00000040: fefe 683e 1acf 823e b71f da3c 065d 273e
00000050: 7f82 85bd d312 8c3d 4aff 643b ba6f fbbd
00000060: 7d16 743d d714 07be 91c2 63be aeb8 973c
00000070: 16ea 16be 1424 693d aba5 9b3d 3a9b 813c

bn3.running_mean f4 [32]
-0.44148874 -0.23276004 -0.2919608 -0.7750914 -0.6892391 -0.18076771 -0.5930958 -0.58412784
-0.38042048 -0.6107315 -0.17656553 -0.800991 -0.38536555 -0.47939804 0.19271442 -0.5681528
-0.4419208 -0.45915693 -0.3262118 -0.2667561 -0.090826154 -0.28139484 -0.017123502 -0.0025805885
-0.40155876 -0.20248838 -0.0015037464 -0.42020783 -0.1573378 -0.50828123 -0.32649082 -0.51585174
00000000: d00a e2be a658 6ebe e37b 95be 646c 46bf
00000010: f971 30bf 2c1b 39be 20d5 17bf 6789 15bf
00000020: 79c6 c2be e658 1cbf 98cd 34be bf0d 4dbf
00000030: a24e c5be a973 f5be ee56 453e 7672 11bf
00000040: 7143 e2be 9e16 ebbe 3c05 a7be 4194 88be
00000050: 1003 babd fc12 90be 9646 8cbc 171f 29bb
00000060: 1c99 cdbe 1d59 4fbe 5b19 c5ba 7b25 d7be
00000070: 291d 21be b81e 02bf ce29 a7be dc0e 04bf

bn3.running_var f4 [32]
0.5840524 0.8593567 1.3192585 0.66866493 1.0592285 0.6078718 0.8193103 0.62516
0.9660021 0.80696255 0.9235619 1.1361098 0.57584715 0.6764785 0.5741044 1.1087883
1.3493296 1.0130265 1.0294167 1.0696272 0.52591956 1.0970118 0.6492711 0.4574164
0.922975 0.59623307 0.13168697 0.7392157 0.35906067 1.3085423 1.4055256 0.747267
00000000: 7584 153f cdfe 5b3f 76dd a83f a02d 2b3f
00000010: cd94 873f 7c9d 1b3f 52be 513f 7c0a 203f
00000020: ea4b 773f 1995 4e3f 8d6e 6c3f 0c6c 913f
00000030: b86a 133f b22d 2d3f 82f8 123f c6ec 8d3f
00000040: d5b6 ac3f daaa 813f edc3 833f 8be9 883f
00000050: aaa2 063f e26a 8c3f a136 263f 7b32 ea3e
00000060: 1748 6c3f bba2 183f f3d8 063e 3d3d 3d3f
00000070: cdd6 b73e 507e a73f 43e8 b33f e44c 3f3f
