MELOSDP/SDP/chkpt/mc1/linear/8/sdp_classifier_linear-380.pth (torch, 77408 bytes, 25 tensors)

fc1.weight f4 [128, 38]
0	0xbd5e82bf	-0.054323908
1	0x3b5cf81b	0.0033717218
2	0xbe1ffa62	-0.15622857
3	0xbd464435	-0.04840489
4	0x3df138cf	0.117784135
5	0xbca27de1	-0.019835414
6	0x3d63abf9	0.055583928
7	0xbde2fe50	-0.110836625
8	0xbde9fb27	-0.11424857
9	0xbd20fbc8	-0.039302617
10	0xbe149e0c	-0.14513415
11	0x3dd6d952	0.10490669
12	0x3d9915bb	0.07474848
13	0x3d92fe01	0.07177354
14	0x3daf67bb	0.08564707
15	0x3cad7990	0.02117613
16	0x3e2a199c	0.16611332
17	0x3ca14145	0.019684443
18	0x3d4f85e2	0.05066479
19	0xbe0432f3	-0.1291006
20	0xbd65586a	-0.05599252
21	0x3e0adfd7	0.1356195
22	0x3df6dc9d	0.120537974
23	0x3dd8f063	0.10592725
24	0x3b520f23	0.003205248
25	0x3dfe94dd	0.12430737
26	0xbe17574f	-0.147794
27	0xbd6b544f	-0.05745345
28	0x3d1fb797	0.038993444
29	0x3e249a3e	0.16074464
30	0xbc677219	-0.014126324
31	0x3dd18cca	0.102319315
32	0xbe17b0c8	-0.1481353
33	0xbb90960a	-0.0044124173
34	0xbddba295	-0.107243694
35	0x3d0e4393	0.034732413
36	0x3db1adb1	0.08675707
37	0x3e10f06c	0.14154214
38	0xbe174c59	-0.14775218
39	0xbd8628d1	-0.06550754
40	0xbd115cef	-0.03548902
41	0x3d249fff	0.040191647
42	0x3da6dff1	0.08148182
43	0xbc00d49c	-0.00786319
44	0x3da6152f	0.08109509
45	0xbe3b1042	-0.1826792
46	0x3e21f326	0.1581541
47	0x3c38f4f7	0.011288873
48	0x3ddfea48	0.109333575
49	0xbe3225d0	-0.17397237
50	0x3e2877ab	0.164519
51	0x3d91d43a	0.07120557
52	0xbd8026ce	-0.062574014
53	0xbdc27b8c	-0.09496221
54	0x3d9f265d	0.07770989
55	0x3d0424c3	0.03226162
56	0xbd157198	-0.036485285
57	0xbd7ffe6c	-0.062498495
58	0x3dd9a3fe	0.10626982
59	0xbe1aa636	-0.15102467
60	0x3dc0ab33	0.09407654
61	0xbbbe7b26	-0.0058130203
62	0xbcc45039	-0.023964034
63	0xbd25d0ca	-0.04048232
64	0xbdd58e99	-0.10427589
65	0xbdf96c33	-0.121788405
66	0xbdaf3b0f	-0.085561864
67	0x3c879073	0.016548371
68	0x3cc31d0a	0.023817558
69	0x3d9c337f	0.076270096
70	0x3df9b62c	0.1219295
71	0xbdcf1d60	-0.10113025
72	0xbde64768	-0.112440884
73	0x3dbad91d	0.09123442
74	0x3bf5ab43	0.0074972226
75	0x3e26c53c	0.16286176
76	0x3d44a706	0.04801085
77	0xbc9dfe26	-0.019286226
78	0x3de27759	0.1105792
79	0xbdb1eb13	-0.08687415
80	0xbd7e2ae7	-0.062052634
81	0x3c8f4647	0.017489566
82	0x3e1d567a	0.1536502
83	0xbe1642fe	-0.14673993
84	0xbd93a95a	-0.072100356
85	0x3c7dfdde	0.015502421
86	0x3df4d53d	0.119547345
87	0x3dc96a8f	0.098347776
88	0xbdad70fa	-0.08468814
89	0xbdd0bf50	-0.1019274
90	0xbe141f04	-0.14464957
91	0x3d95bc1b	0.07311269
92	0x3b264c8b	0.0025375213
93	0xbe06c46f	-0.13160871
94	0x3cd5efde	0.026115354
95	0x3c8a12d9	0.01685469
96	0xbb91ade4	-0.004445778
97	0xbdd57704	-0.10423091
98	0x3ccc1aeb	0.02491518
99	0x3b94a124	0.004535811
100	0x3c801136	0.015633207
101	0xbdc22e4e	-0.09481488
102	0xbbd6701a	-0.0065441253
103	0x3a8dc6c6	0.0010816685
104	0x3df7e055	0.12103335
105	0xbdc3da8b	-0.09563168
106	0x3df7c99c	0.12099001
107	0x3e1b17de	0.15145823
108	0x3e2ac6f6	0.1667746
109	0x3d302876	0.043007337
110	0x3ddd912b	0.10818704
111	0x3e1b7db3	0.15184669
112	0x3dc34abc	0.09535739
113	0xbd05543c	-0.032551035
114	0xbd5c2c3a	-0.053753115
115	0x3d9fb215	0.07797638
116	0x3e02d1d6	0.12775359
117	0xbdf0ad0e	-0.117517576
118	0xbe0f4b3d	-0.13993545
119	0x3de57727	0.11204367
120	0xbdb5d8b5	-0.08879224
121	0xbdca31da	-0.0987279
122	0xbbf9b6ae	-0.007620654
123	0x3df67898	0.1203472
124	0xbe18cb39	-0.14921273
125	0xbd6f5d31	-0.058438484
126	0x3c4b1c37	0.012396864
127	0xbd3ff67b	-0.04686592
128	0x3e0adbe8	0.1356045
129	0x3d93a13a	0.07208486
130	0x3e2e98d3	0.17050485
131	0x3e046f54	0.12933093
132	0xbd3ce9da	-0.046121456
133	0xbd98b6e3	-0.07456758
134	0xbe10e5ff	-0.14150237
135	0x3cd2506d	0.025673116
136	0x3d6eec9a	0.05833111
137	0x3d7659b7	0.060144152
138	0xbd511d7e	-0.051053517
139	0xbe19f21e	-0.15033767
140	0x3d1b284c	0.037880227
141	0x3bbd8e54	0.005784789
142	0xbdf33c9f	-0.11876797
143	0xbde95148	-0.11392456
144	0x3dfbbc12	0.12291731
145	0xbca960f6	-0.020676117
146	0xbceab3b2	-0.028650139
147	0xbdc296d9	-0.09501428
148	0xbd8f7b13	-0.070058964
149	0x3cc873d7	0.0244693
150	0x3d272365	0.04080524
151	0xbe0e68c8	-0.13907158
152	0xbcb49f3d	-0.022048587
153	0x3cca6f43	0.024711257
154	0xbd8f215e	-0.06988786
155	0xbc32f39f	-0.010922342
156	0xbdf40c6c	-0.11916432
157	0x3e11c13f	0.14233874
158	0x3e2b6e1a	0.16741219
159	0xbdc5751a	-0.09641476
160	0x3e282806	0.16421518
161	0x3bfa34e2	0.0076356987
162	0xbc793541	-0.015210451
163	0x3e302d99	0.17204894
164	0x3dcb1158	0.099154174
165	0xbd8b20c1	-0.06793357
166	0xbbd6f627	-0.0065601054
167	0x3d7fa37f	0.06241178
168	0xbc058ef2	-0.008151757
169	0xbe054aec	-0.13016862
170	0xbce668cb	-0.028126141
171	0xbd9911a4	-0.07474068
172	0x3d8a2b57	0.06746548
173	0xbdd81adc	-0.10551998
174	0xbac5f890	-0.0015103985
175	0x3c5d2f27	0.0135000115
176	0xbd92b7be	-0.07163952
177	0xbd93623d	-0.07196472
178	0x3decaf02	0.115568176
179	0xbe0a441e	-0.13502547
180	0xbd27c10e	-0.040955596
181	0x3dfcaad1	0.12337268
182	0x3e3183a0	0.17335367
183	0xbcb1b04d	-0.021690512
184	0xbe1845e1	-0.14870407
185	0xbd92ef66	-0.07174568
186	0xbb92424d	-0.00446347
187	0xbda947fd	-0.08265684
188	0x3d6e98e4	0.058251277
189	0xbe18f10b	-0.149357
190	0xbdb97c83	-0.09056952
191	0xbddcdd1c	-0.10784361
192	0x3b9e103f	0.004823714
193	0xbc9d7b61	-0.01922387
194	0xbd841edc	-0.064511985
195	0xbc5b69fd	-0.013391969
196	0xbdce47c9	-0.10072286
197	0x3d2f3a46	0.042780183
198	0x3d65984b	0.05605344
199	0x3e15539f	0.1458268
200	0xbc09ff06	-0.008422619
201	0x3c14379e	0.009046463
202	0xbd88d69e	-0.0668156
203	0xbd049446	-0.032367967
204	0x3e0ebf14	0.13940078
205	0x39b3e948	0.0003431535
206	0xbcb48c12	-0.022039447
207	0x3d6005d4	0.054693058
208	0xbdc7a20a	-0.097477034
209	0x3d7e3d81	0.062070373
210	0xbbaf922f	-0.0053580026
211	0x3c5f63cb	0.013634632
212	0xbdabe8ba	-0.083939984
213	0xbd99214b	-0.07477053
214	0xbd58cfa5	-0.0529324
215	0xbd7147bc	-0.0589063
216	0x3e1ceaeb	0.15323989
217	0x3dd51c11	0.10405744
218	0x3b913074	0.004430825
219	0xbc8d8271	-0.017274113
220	0x3e1d656b	0.15370719
221	0x3da1dda7	0.07903605
222	0xbc415ecc	-0.0118023865
223	0xbdde7bea	-0.108634785
224	0x3d5371f1	0.051622335
225	0x3dea933a	0.114538625
226	0x3d958d8e	0.0730239
227	0xbe1dcdca	-0.15410534
228	0xbd60a1f3	-0.054841947
229	0xbd0a11cb	-0.033708375
230	0xbe27074a	-0.16311374
231	0xbd2f5d21	-0.042813424
232	0xbe26af56	-0.16277823
233	0x3dab86ee	0.08375345
234	0xbcfa43e7	-0.030549956
235	0x3c422f65	0.01185212
236	0x3dd3fc71	0.10350884
237	0xbdf9cc35	-0.121971525
238	0x3db1d361	0.086828955
239	0x3dec8d41	0.115503795
240	0x3cd30320	0.025758326
241	0xbd843585	-0.064555205
242	0x3d78dd99	0.060758207
243	0x3d819b28	0.06328422
244	0x3d922eb5	0.07137815
245	0xbdfe92d6	-0.124303505
246	0xbe2abfcf	-0.16674732
247	0x3cad1c17	0.021131558
248	0x3d17233d	0.03689884
249	0x3d9f08ae	0.077653274
250	0xbe2b250f	-0.16713355
251	0x3d8f1d17	0.0698797
252	0xbd3e318e	-0.046433978
253	0xbe0192c8	-0.12653649
254	0x3dd22af5	0.102621
255	0x3ca6d2ef	0.020364253

fc1.bias f4 [128]
0	0xbd910e4f	-0.07082807
1	0x3cca5406	0.024698269
2	0x3c4b3247	0.012402124
3	0xbcedc389	-0.029023902
4	0x3db2a3a2	0.08722617
5	0xbd5052c8	-0.050860196
6	0xbcfc4fe5	-0.030799815
7	0x3dc5fc1d	0.096672274
8	0x3e21a2ef	0.1578481
9	0xbd71433e	-0.058902018
10	0x3dacf073	0.084442995
11	0x3d07c7af	0.033149417
12	0xbe1e8280	-0.1547947
13	0x3dd9e11f	0.106386416
14	0xbe0e0504	-0.13869101
15	0xbd3cb74f	-0.046073254
16	0xbc20cf58	-0.00981506
17	0xbd68799f	-0.056756612
18	0x3e225020	0.15850878
19	0x3bdc5649	0.006724153
20	0x3e07003e	0.13183686
21	0x3dfc7bd5	0.123283066
22	0x3c8fb095	0.017540256
23	0x3d67a340	0.05655217
24	0x3c4d04f8	0.012513392
25	0x3ca31c1d	0.019910866
26	0xbdac9dde	-0.08428548
27	0x3dcf2bb1	0.10115755
28	0xbd5d4065	-0.05401649
29	0x3e1b1767	0.15145646
30	0x3e254b7f	0.1614208
31	0x3d5d7ba8	0.054073006
32	0x3dd91639	0.10599942
33	0xbd8f8163	-0.070071004
34	0x3e248a80	0.16068459
35	0xbc9d6c67	-0.01921673
36	0xbde4dfcb	-0.111754976
37	0xbde231f8	-0.11044687
38	0xbd753099	-0.0598608
39	0xbbff8aaa	-0.0077985125
40	0x3dd185de	0.10230611
41	0x3dc62548	0.096750796
42	0xbbb36cad	-0.0054756016
43	0x3e09afaf	0.13445924
44	0xbe1ae519	-0.15126456
45	0xbb956cf3	-0.004560107
46	0x3e1d96b7	0.15389524
47	0x3c5222cf	0.012825682
48	0x3e0458f8	0.12924564
49	0xbdb0a36b	-0.086249195
50	0xbc962942	-0.01833022
51	0x3d6bd2cb	0.057574075
52	0xbd71fbd4	-0.059078053
53	0xbcbb9fa4	-0.022903271
54	0x3d6ae311	0.057345454
55	0x3e08e7cd	0.13369675
56	0xbe064834	-0.13113481
57	0xbde2fc03	-0.11083224
58	0x3d3006f0	0.042975366
59	0xbdc1426f	-0.09436499
60	0xbe0241f7	-0.12720476
61	0xbdfd31d5	-0.1236302
62	0x3bafb68d	0.005362338
63	0xbde8114a	-0.113314226
64	0x3df0a37f	0.117499344
65	0x3cb259e9	0.021771388
66	0xbdbab530	-0.0911659
67	0xbdd1ab70	-0.10237777
68	0xbe0b3195	-0.13593133
69	0x3dafcaca	0.08583601
70	0xbc56abd9	-0.013102495
71	0xbd8ce84e	-0.06880246
72	0x3e0d9fa3	0.13830428
73	0x3dd8bb95	0.105826534
74	0x3e14149f	0.14460991
75	0xbd13de05	-0.036100406
76	0x3db2d94c	0.08732852
77	0xbc906c76	-0.017629843
78	0xbbb9ca39	-0.005669859
79	0x3d5a1316	0.053240858
80	0x3cd15134	0.025551416
81	0x3d9d1bdc	0.076713294
82	0x3cee4482	0.029085401
83	0x3bc3ed4d	0.005979216
84	0x3e183d52	0.14867142
85	0x3e0b641b	0.13612406
86	0xbe068216	-0.13135561
87	0xbe088c90	-0.1333487
88	0x3cc47948	0.023983613
89	0x3df9536b	0.12174114
90	0xbc90d3fb	-0.017679205
91	0x3d2f157a	0.04274509
92	0x3e0a41fb	0.13501732
93	0xbd08ceb0	-0.033400238
94	0x3cd04d6c	0.025427543
95	0xbdf64058	-0.12023991
96	0xbe0a932d	-0.13532706
97	0xbd594828	-0.05304733
98	0xbd53e6d3	-0.051733803
99	0xbe199386	-0.14997682
100	0xbc82c0dc	-0.015961103
101	0x3d6089f2	0.054819055
102	0x3e051b43	0.12998681
103	0xbe0da779	-0.13833417
104	0x3c8bed51	0.017080935
105	0x3dddfbd5	0.10839049
106	0xbcdd3589	-0.027003067
107	0x3e169636	0.14705738
108	0x3d7b3456	0.06132921
109	0x3e25eb50	0.16203046
110	0xbde3539b	-0.11099931
111	0x3d2fba32	0.04290218
112	0xbdd4df15	-0.10394112
113	0xbdd1c5db	-0.10242816
114	0x3deca068	0.115540326
115	0x3e191210	0.14948297
116	0xbdb3bc07	-0.08776098
117	0x3ddbfabb	0.107411824
118	0x3dadae5c	0.08480522
119	0xbd1d8a69	-0.038462076
120	0x3e036e09	0.12834944
121	0xbc273e23	-0.010207686
122	0x3e1b2de7	0.15154229
123	0xbe20d49f	-0.15706109
124	0x3d0b9c3d	0.034084547
125	0x3c87d102	0.016579155
126	0xbda91b9e	-0.08257221
127	0x3dbac505	0.0911961

bn1.weight f4 [128]
0	0x3f72bc9c	0.94819045
1	0x3f86703c	1.0503001
2	0x3f797456	0.9744314
3	0x3f7dbd2d	0.99116784
4	0x3f7f129a	0.9963776
5	0x3f84ca27	1.0374192
6	0x3f7ce691	0.98789316
7	0x3f824793	1.0178093
8	0x3f725b80	0.9467087
9	0x3f830bff	1.0238036
10	0x3f7ba67d	0.98300916
11	0x3f8a89a1	1.0823251
12	0x3f868e43	1.0512165
13	0x3f7685e9	0.9629808
14	0x3f7ef13a	0.9958683
15	0x3f90170b	1.1257032
16	0x3f85ee27	1.0463303
17	0x3f7f2627	0.9966759
18	0x3f92ac5b	1.1458849
19	0x3f9bbea2	1.2167552
20	0x3f7c7b82	0.9862596
21	0x3f7b946a	0.98273337
22	0x3f95529e	1.1665838
23	0x3f8e58af	1.1120814
24	0x3f803d60	1.001873
25	0x3f7373e5	0.95098716
26	0x3f797ad1	0.9745303
27	0x3f7db7bb	0.99108475
28	0x3f831dae	1.0243433
29	0x3f7e4590	0.99324894
30	0x3f81baf8	1.0135183
31	0x3f882cd0	1.0638676
32	0x3f780709	0.96885735
33	0x3f808f3a	1.0043709
34	0x3f76eec1	0.9645806
35	0x3f83bc20	1.0291786
36	0x3f7be814	0.98401
37	0x3f7fa662	0.99863255
38	0x3f825296	1.0181453
39	0x3f813b88	1.0096292
40	0x3f7cbd14	0.9872601
41	0x3f847622	1.0348551
42	0x3f8066dc	1.003139
43	0x3f7a50c0	0.97779465
44	0x3f7cdbdd	0.98772985
45	0x3f82eebf	1.022911
46	0x3f813025	1.0092818
47	0x3f845d6d	1.0341011
48	0x3f6f2b11	0.9342509
49	0x3f8ebf91	1.1152211
50	0x3f7c8c73	0.9865181
51	0x3f843cbb	1.0331033
52	0x3f7dc5e1	0.99130064
53	0x3f7b5595	0.9817746
54	0x3f7fe90a	0.99964964
55	0x3f7c92d2	0.9866153
56	0x3f788ae7	0.9708695
57	0x3f804f9e	1.0024297
58	0x3f72eb59	0.9489036
59	0x3f7c6183	0.9858629
60	0x3f8061af	1.0029811
61	0x3f7b5640	0.9817848
62	0x3f8069c2	1.0032275
63	0x3f827b64	1.0193906
64	0x3f76a74a	0.9634901
65	0x3f7a2f24	0.9772818
66	0x3f9f273b	1.2433847
67	0x3f76a1f1	0.9634085
68	0x3f886eac	1.0658774
69	0x3f807e16	1.0038478
70	0x3f815481	1.0103914
71	0x3f7be3b1	0.98394305
72	0x3f76fb02	0.9647676
73	0x3f7c9606	0.9866642
74	0x3f77717a	0.96657526
75	0x3f905697	1.1276425
76	0x3f7f6b79	0.99773365
77	0x3f82c9a2	1.0217783
78	0x3f782cfe	0.9694365
79	0x3f77a978	0.96742964
80	0x3f7d4fd3	0.9894993
81	0x3f8420df	1.0322531
82	0x3f7b2a44	0.9811137
83	0x3f8300dc	1.0234637
84	0x3f83d146	1.029824
85	0x3f75c8bb	0.96009415
86	0x3f92d303	1.1470646
87	0x3f816021	1.0107461
88	0x3f81b5ec	1.0133643
89	0x3f808a06	1.0042121
90	0x3f8a2537	1.0792607
91	0x3f6d110e	0.9260415
92	0x3f7a1b8c	0.97698283
93	0x3f83603a	1.0263741
94	0x3f7d0738	0.9883914
95	0x3f801664	1.0006833
96	0x3f808593	1.0040764
97	0x3f7cfd6d	0.988242
98	0x3f7785b2	0.9668838
99	0x3f7ec6f8	0.9952235
100	0x3f874abc	1.0569682
101	0x3f848413	1.0352806
102	0x3f88ca50	1.0686741
103	0x3f84aabc	1.0364604
104	0x3f8e3856	1.1110942
105	0x3f822807	1.0168465
106	0x3f7e71b0	0.99392223
107	0x3f9c2249	1.2197963
108	0x3f7df76f	0.9920568
109	0x3f83c583	1.0294651
110	0x3f83a941	1.0286027
111	0x3f829f57	1.0204877
112	0x3f7d3ede	0.9892405
113	0x3f7f6f18	0.9977889
114	0x3f7dd1c4	0.991482
115	0x3f7c8777	0.986442
116	0x3f8c33b0	1.0953274
117	0x3f7925ca	0.97323287
118	0x3f8b9049	1.0903407
119	0x3f7b5408	0.98175097
120	0x3f865850	1.0495701
121	0x3f7d5272	0.98953927
122	0x3f7859fe	0.9701232
123	0x3f7e8cf9	0.9943386
124	0x3f7aa342	0.9790536
125	0x3f765a05	0.9623111
126	0x3f7f78ea	0.99793875
127	0x3f800ddc	1.000423

bn1.bias f4 [128]
0	0xbd80eedb	-0.06295558
1	0x3d380c87	0.044933822
2	0xbcc1a049	-0.023636
3	0x3c00e49c	0.007867005
4	0xbcc6fab8	-0.024289474
5	0xbcdcc674	-0.026950099
6	0xbc5a1bd4	-0.013312299
7	0xbc70bf4d	-0.014694047
8	0xbd6a4b27	-0.057200577
9	0x3d6cc47e	0.057804577
10	0xbd0a7ca3	-0.03381027
11	0xbd33f3b6	-0.043933593
12	0x3d18cb04	0.037302986
13	0xbdd6c1b5	-0.104861654
14	0x3d049e7c	0.032377705
15	0x3c8cb388	0.01717545
16	0xbd6564cf	-0.05600434
17	0xbc0c3462	-0.008557411
18	0x3d606472	0.054783292
19	0xbb89c1e2	-0.004204021
20	0xbc9defaa	-0.01927932
21	0xbc99c345	-0.01876987
22	0xbbaf1942	-0.005343587
23	0x3db48d85	0.08816055
24	0xbc82b54f	-0.015955595
25	0xbc14ae1f	-0.009074717
26	0xbcdb1c02	-0.026746754
27	0x3c485e5d	0.012229529
28	0x3dced600	0.10099411
29	0xbe1813b6	-0.14851269
30	0x3a7842a2	0.0009470378
31	0xbc0f07c5	-0.00872988
32	0xbc38291a	-0.011240268
33	0x3d43bea2	0.047789223
34	0xbd93d791	-0.072188504
35	0xb92f4a11	-0.00016716892
36	0xbd8aa783	-0.067702316
37	0x3d1971d4	0.03746207
38	0x3d1d20eb	0.03836147
39	0xbd07095e	-0.032967918
40	0xbd3c3595	-0.045949537
41	0x3cd9624c	0.02653613
42	0xbd9200d2	-0.07129063
43	0xbd864fde	-0.06558202
44	0xbd86b839	-0.065781064
45	0xbd14d277	-0.036333527
46	0xbba24208	-0.004951719
47	0x3bc742d5	0.006080965
48	0xbdb6425b	-0.08899375
49	0xbae33a95	-0.0017336184
50	0xbcd67aaa	-0.026181538
51	0x3d3f656c	0.046727583
52	0xbd172c14	-0.03690727
53	0xbd585766	-0.052817725
54	0xbbaa0f67	-0.0051898244
55	0x3d1c1d27	0.03811374
56	0xbc8ff437	-0.017572505
57	0xbd46bd94	-0.04852064
58	0xbd86b514	-0.06577507
59	0xbd3dd0fe	-0.04634189
60	0xbca43827	-0.020046307
61	0x3c5daea8	0.013530411
62	0xbc66b473	-0.014081108
63	0xbb1087a0	-0.0022053495
64	0xbd9c596b	-0.076342426
65	0xbcd81399	-0.026376532
66	0xbcdb4387	-0.026765598
67	0xbda93784	-0.08262542
68	0xbd0d9c46	-0.034572862
69	0xbcdb1260	-0.02674216
70	0x3cf922d4	0.030412115
71	0xbde1f3f4	-0.110328585
72	0xbd417cec	-0.047238275
73	0xbd392b5e	-0.045207374
74	0xbd8fd856	-0.07023685
75	0xbce4d9f3	-0.027935958
76	0xbd4ff08c	-0.050766513
77	0x3c7dfa9d	0.015501645
78	0xbab9ee91	-0.0014185478
79	0xbc7cced4	-0.015430171
80	0xbd26bdf9	-0.040708516
81	0xbca781d9	-0.020447658
82	0x3bedcd88	0.0072571672
83	0x3c38d793	0.011281866
84	0xbc6f2491	-0.01459612
85	0xbd4e32f9	-0.05034158
86	0xbdd2a47d	-0.1028528
87	0xbd0dec12	-0.034648962
88	0xbcf55ff6	-0.029952984
89	0xbd3b8604	-0.045782104
90	0xbdd3d0a1	-0.10342527
91	0xbdb3286b	-0.087479435
92	0xb9c6fa92	-0.00037952192
93	0xbc7b29c4	-0.015329782
94	0x3e005e71	0.12536027
95	0xbd009a88	-0.031397372
96	0xbc9feb93	-0.01952151
97	0xbd96bced	-0.073602535
98	0xbd6c5d47	-0.057706144
99	0xbbc38b3a	-0.005967525
100	0xbd39d4e5	-0.045369048
101	0x3d93ef57	0.07223385
102	0xbcc560f1	-0.024094077
103	0x3db566a5	0.088574685
104	0x3dabf4bd	0.083962895
105	0x3c238332	0.00998001
106	0xbd6c64a9	-0.057713185
107	0xbdbf668c	-0.09345731
108	0xbd125958	-0.035729736
109	0xbd0e5201	-0.034746174
110	0xbc4846a8	-0.012223877
111	0x3b9d64b1	0.004803263
112	0xbcb2cd01	-0.02182627
113	0xbdb020c3	-0.08599999
114	0xbcb057e4	-0.021526285
115	0xbd974081	-0.0738535
116	0xbd3910b3	-0.04518194
117	0xbdb901b9	-0.09033532
118	0xbd62e207	-0.055391338
119	0xbc53b48e	-0.012921466
120	0x3b17f794	0.002318834
121	0xbd30b8af	-0.043144878
122	0xbd728aeb	-0.059214514
123	0x3b20bf3d	0.002452805
124	0xbc520048	-0.01281745
125	0xbd4c2cdc	-0.04984747
126	0xbd131a26	-0.03591361
127	0xbc81484b	-0.015781542

bn1.running_mean f4 [128]
0	0xbd9448e3	-0.072404645
1	0x3cbf2bee	0.023336377
2	0x3c3c4eea	0.011493424
3	0xbcd6d2fe	-0.026223656
4	0x3db4e97f	0.08833598
5	0xbd45dd5e	-0.048306815
6	0xbcd45d9a	-0.025923539
7	0x3dcf170b	0.10111817
8	0x3e21b407	0.15791331
9	0xbd80b039	-0.06283612
10	0x3db64aa0	0.08900952
11	0x3d12bbfc	0.035823807
12	0xbe235be3	-0.15953021
13	0x3dd6ec26	0.104942605
14	0xbe08cd29	-0.13359512
15	0xbd43c84b	-0.047798436
16	0xbc2b8fc8	-0.010471292
17	0xbd84401f	-0.06457543
18	0x3e1d257a	0.15346327
19	0x3be044d3	0.006844142
20	0x3e0a1988	0.13486302
21	0x3df8c691	0.121472485
22	0x3c800393	0.015626704
23	0x3d55a2e0	0.052157283
24	0x3c8070db	0.015678814
25	0x3c80ff12	0.015746627
26	0xbda29094	-0.07937732
27	0x3dd58f54	0.10427728
28	0xbd80852a	-0.06275399
29	0x3e1e6612	0.15468624
30	0x3e2b1a5a	0.16709271
31	0x3d7937fb	0.060844403
32	0x3dd3baf2	0.10338391
33	0xbd9fd382	-0.07804014
34	0x3e29a7d4	0.16567928
35	0xbc3eef4e	-0.011653734
36	0xbdda9359	-0.106726356
37	0xbde681d2	-0.1125523
38	0xbd8e5d75	-0.06951419
39	0xbc4ac5e9	-0.012376287
40	0x3dd9e070	0.10638511
41	0x3dced907	0.100999884
42	0xbc0484aa	-0.00808827
43	0x3e0fd21e	0.14044997
44	0xbe18cc50	-0.14921689
45	0xbc0561e1	-0.008141012
46	0x3e19fafc	0.15037149
47	0x3c205e67	0.009788132
48	0x3e05e3f8	0.13075244
49	0xbdb3a133	-0.08770981
50	0xbc819c4b	-0.015821597
51	0x3d5e8774	0.054328397
52	0xbd844f7f	-0.06460475
53	0xbcc8654c	-0.024462365
54	0x3d5bb9a3	0.053643834
55	0x3e059c7d	0.13047977
56	0xbe0c5592	-0.13704517
57	0xbde478f4	-0.111558825
58	0x3d2c1ed6	0.042021595
59	0xbdcafe98	-0.09911841
60	0xbe02f347	-0.12788115
61	0xbdf2c3ae	-0.11853729
62	0x3b839d36	0.0040165437
63	0xbdeee297	-0.11664312
64	0x3def2364	0.11676672
65	0x3cb6cfc0	0.02231586
66	0xbdbb00eb	-0.091310345
67	0xbdc12df4	-0.09432593
68	0xbe077ff7	-0.13232408
69	0x3db7dd50	0.08977759
70	0xbc505c15	-0.012717267
71	0xbd7a79ac	-0.06115119
72	0x3e094f3b	0.1340913
73	0x3dd60a49	0.104511805
74	0x3e187ebf	0.148921
75	0xbd190649	-0.03735951
76	0x3db3e548	0.08783966
77	0xbcab2fa9	-0.02089675
78	0xbc4595dd	-0.012059656
79	0x3d5d4350	0.054019272
80	0x3cf8b756	0.030360859
81	0x3dad1632	0.08451499
82	0x3cfe796a	0.031063754
83	0x3bd2b73d	0.006430535
84	0x3e19fb78	0.15037334
85	0x3e0ebb0b	0.13938539
86	0xbe07bb0b	-0.13254945
87	0xbe006592	-0.12538746
88	0x3cab8ea1	0.020942034
89	0x3dfa205f	0.122132055
90	0xbc9343ec	-0.017976724
91	0x3d18a61a	0.03726778
92	0x3e08ca9b	0.13358538
93	0xbcfa5131	-0.030556293
94	0x3cbdb162	0.023155872
95	0xbdee63e0	-0.116401434
96	0xbe0e9472	-0.13923815
97	0xbd61cd21	-0.055127267
98	0xbd5c2ee8	-0.05375567
99	0xbe1391d4	-0.14411098
100	0xbc30f70a	-0.010801086
101	0x3d5b9675	0.053610284
102	0x3e098df4	0.13433057
103	0xbe13f706	-0.144497
104	0x3c87f5ef	0.016596762
105	0x3ddcc1ac	0.107791275
106	0xbcb0246e	-0.021501746
107	0x3e17971f	0.14803742
108	0x3d812c7b	0.06307312
109	0x3e293c1a	0.16526833
110	0xbde49ab4	-0.1116232
111	0x3d44ebb4	0.048076347
112	0xbdcd1d65	-0.10015372
113	0xbdd926b1	-0.10603083
114	0x3de85bf6	0.11345665
115	0x3e1a69de	0.15079448
116	0xbdb04e4f	-0.08608686
117	0x3ddbd612	0.1073419
118	0x3db3e348	0.08783585
119	0xbd37afda	-0.04484544
120	0x3e092844	0.13394266
121	0xbc7a92f2	-0.015293824
122	0x3e20c896	0.15701517
123	0xbe242263	-0.16028742
124	0x3cff914b	0.03119721
125	0x3ca17b52	0.019712124
126	0xbda84f71	-0.08218277
127	0x3dc18022	0.094482675

bn1.running_var f4 [128]
0	0x3f16de8f	0.5893335
1	0x3d94d064	0.0726631
2	0x3e8057ec	0.2506708
3	0x3e96888a	0.29401046
4	0x3e825a46	0.25459498
5	0x3e1fa8c9	0.1559173
6	0x3f09da95	0.53849155
7	0x3e40a1f0	0.18811774
8	0x3eb49016	0.3526618
9	0x3e066485	0.13124283
10	0x3e640f7a	0.22271529
11	0x3dcefe67	0.10107117
12	0x3dc810ae	0.097688064
13	0x3f42b78e	0.7606133
14	0x3e4ab9c9	0.19797434
15	0x3d7183c7	0.058963563
16	0x3de91c55	0.11382357
17	0x3e249ba2	0.16074994
18	0x3e011464	0.12605435
19	0x3da33ee8	0.07970983
20	0x3f32305e	0.6960505
21	0x3dfa4418	0.12220019
22	0x3dd90a6a	0.105976894
23	0x3e2625c3	0.16225342
24	0x3ea60f02	0.32433325
25	0x3ed7f940	0.4218235
26	0x3e69a10d	0.22815342
27	0x3ea48c5b	0.32138333
28	0x3e4874ff	0.1957588
29	0x3e30ae4d	0.1725399
30	0x3dc8547d	0.0978174
31	0x3e39fb16	0.18162188
32	0x3e287a26	0.16452846
33	0x3ecf14a6	0.4044544
34	0x3e95a96b	0.29230818
35	0x3e810c88	0.25204873
36	0x3eaf7b67	0.34273836
37	0x3e226c97	0.15861736
38	0x3e4f6215	0.20252259
39	0x3e5cbca1	0.21556331
40	0x3e215e09	0.15758528
41	0x3e2dedfe	0.16985318
42	0x3e9416ee	0.28923744
43	0x3ecd8d90	0.40147066
44	0x3e159866	0.14608917
45	0x3e487b90	0.19578385
46	0x3e11b83f	0.1423044
47	0x3e0cb63c	0.13741392
48	0x3eb8b59f	0.36076066
49	0x3e73eda0	0.23821115
50	0x3eb0c717	0.34526893
51	0x3de585ba	0.11207147
52	0x3e127ea2	0.14306119
53	0x3ed5ab2b	0.41732153
54	0x3f016e7f	0.5055923
55	0x3eafd4be	0.34341997
56	0x3e61c9a6	0.22049579
57	0x3e818252	0.2529474
58	0x3e0b5c62	0.1360946
59	0x3ebd8686	0.37016696
60	0x3ebb9f47	0.36644956
61	0x3e0d442f	0.13795541
62	0x3d92f76c	0.07176098
63	0x3eb957f5	0.36199918
64	0x3e50ddc5	0.20397098
65	0x3e9f8b82	0.31161124
66	0x3d4ee648	0.050512582
67	0x3e975e98	0.29564357
68	0x3d7ae4ee	0.06125348
69	0x3e18b634	0.14913255
70	0x3de8d1b0	0.1136812
71	0x3e3822ec	0.17982072
72	0x3f0c3d9e	0.5478152
73	0x3ee7b9fe	0.45259088
74	0x3e18e648	0.14931595
75	0x3e428c2f	0.18998788
76	0x3ea175d0	0.31535196
77	0x3e32e02d	0.17468329
78	0x3e3c1a32	0.18369368
79	0x3e9e74d2	0.30948502
80	0x3e8af963	0.27143392
81	0x3e58fd94	0.21190482
82	0x3fcf138c	1.617784
83	0x3e2aaf53	0.16668443
84	0x3e975ce5	0.2956306
85	0x3ee437e0	0.4457388
86	0x3d0a5c5b	0.033779483
87	0x3e14dd40	0.14537525
88	0x3ec38936	0.3819062
89	0x3e7b0405	0.24513252
90	0x3eaefc44	0.34176838
91	0x3f920509	1.1407787
92	0x3de8381d	0.11338828
93	0x3e0c73a9	0.13715996
94	0x3e29a8e4	0.16568333
95	0x3ea98df8	0.33116126
96	0x3eb3a01c	0.3508309
97	0x3e078374	0.13233739
98	0x3e62f1b6	0.22162518
99	0x3e891ecf	0.26781318
100	0x3e483bab	0.19554012
101	0x3dda7af5	0.106679834
102	0x3d92aedf	0.0716226
103	0x3e00d1b3	0.12579994
104	0x3d972c2d	0.07381473
105	0x3e2282e1	0.15870239
106	0x3e698bfe	0.22807309
107	0x3db0ad90	0.086268544
108	0x3e0569f0	0.13028693
109	0x3e1cf339	0.15327157
110	0x3e35a906	0.17740259
111	0x3e9441ba	0.28956395
112	0x3e22008b	0.1582052
113	0x3e53281c	0.2062077
114	0x3e0a00fd	0.1347694
115	0x3e4c115d	0.19928499
116	0x3e625f71	0.2210672
117	0x3ec31a56	0.3810603
118	0x3de6df67	0.11273079
119	0x3e06ba09	0.13156904
120	0x3e81d253	0.25355777
121	0x3ed49611	0.41520742
122	0x3eba3394	0.36367476
123	0x3e1cb4d6	0.15303358
124	0x3f858d04	1.043366
125	0x3f0affe6	0.5429672
126	0x3e99c28e	0.30031246
127	0x3dad5f18	0.08465403

fc2.weight f4 [64, 128]
0	0xbda5e18e	-0.08099662
1	0x3ad82714	0.0016491138
2	0x3b4ee9af	0.0031572392
3	0xbc65f786	-0.014036065
4	0x3cd5c6e8	0.026095822
5	0xbdbe1dcb	-0.09283026
6	0xbd758191	-0.059938017
7	0xbdf82ac0	-0.12117529
8	0x3aa8c532	0.0012876152
9	0x3d5e1fd6	0.05422958
10	0xbc3e041f	-0.011597662
11	0xbb1e97df	-0.002419941
12	0x3cb42002	0.021987919
13	0xbda66ebf	-0.08126592
14	0xbdc3d3e2	-0.09561898
15	0x3c9bd1f6	0.019021016
16	0x3cd72ad0	0.026265532
17	0xbcea1cb8	-0.028578147
18	0xbd001c3d	-0.03127693
19	0x3ce34ead	0.027747476
20	0xbd0e7524	-0.034779683
21	0x3bc60097	0.006042551
22	0x3c8f4bac	0.017492138
23	0x3d1d552d	0.038411308
24	0x3c86e050	0.016464382
25	0xbd9cd332	-0.0765747
26	0x3d2596b5	0.04042693
27	0x3ce75f4e	0.028243687
28	0x3c0514c2	0.008122625
29	0x3d28847b	0.04114197
30	0xbdd3901a	-0.103302196
31	0xbde68bbb	-0.1125712
32	0x3d86209d	0.06549189
33	0xbc929d6d	-0.017897332
34	0xbd7e5f07	-0.062102344
35	0xbdd1ba8b	-0.102406584
36	0xbc8379cb	-0.016049286
37	0xbd36cd94	-0.04462965
38	0xbd6c577d	-0.057700623
39	0xbbeb0f69	-0.007173468
40	0x3b032b31	0.0020014758
41	0xbd8a76e2	-0.06760956
42	0xbb7986d0	-0.003807474
43	0xbd7ac156	-0.061219536
44	0xbd1a63f3	-0.037692975
45	0xbd1b501b	-0.03791819
46	0xba904d5c	-0.0011009383
47	0x3dbf5907	0.093431525
48	0xbd835873	-0.06413355
49	0x3bdbddc9	0.0067097885
50	0xbd6765e5	-0.05649366
51	0x3cfe3362	0.03103036
52	0x3d70d2cd	0.058794785
53	0x3aaf109c	0.001335639
54	0x3d83b85a	0.06431647
55	0x3d899f15	0.067197956
56	0xbd72caca	-0.059275426
57	0x3d53c72b	0.051703613
58	0x3db28762	0.087172285
59	0xbcd3f071	-0.025871487
60	0x3d0ffa24	0.035150662
61	0x3b8962ed	0.004192701
62	0x3dbbacb7	0.09163802
63	0xbced65be	-0.028979179
64	0x3d875f07	0.06609922
65	0x3da283c2	0.07935287
66	0x3b154f6d	0.0022782937
67	0x3d23a6a0	0.039953828
68	0xbdca7784	-0.09886077
69	0x3d597671	0.05309147
70	0xbd31ade5	-0.04337873
71	0x3c86cb54	0.016454376
72	0xbd0a77a5	-0.03380551
73	0x3bc3a23d	0.005970268
74	0x3d31f5a0	0.043447137
75	0x3d945fe5	0.07244853
76	0xbd8f121c	-0.06985876
77	0x3d6cb5a7	0.057790425
78	0xbda14fdf	-0.07876562
79	0x3dc2ddc6	0.09514956
80	0x3d57bb26	0.052668713
81	0xbcefbab0	-0.029263824
82	0xbd1691e7	-0.036760237
83	0xbd38330c	-0.044970557
84	0xbd896152	-0.067080155
85	0xbcb9ed25	-0.022696087
86	0x3df6f218	0.120578945
87	0xbcf1f7a9	-0.029537039
88	0xbcb385b5	-0.021914342
89	0xbd78024c	-0.060549065
90	0x3d905bf9	0.070487924
91	0x3c278a71	0.010225878
92	0x3d8440d8	0.064576805
93	0xbdcf2328	-0.101141274
94	0x3d99d40a	0.07511146
95	0xbdc3091f	-0.09523224
96	0xbd2312b9	-0.039812777
97	0x3d7e8827	0.062141564
98	0x3c5b3ee8	0.013381697
99	0xbcb631a8	-0.022240475
100	0xbdbee2c9	-0.093205996
101	0x3c8fc276	0.01754878
102	0xbd8f15da	-0.0698659
103	0x3dc5649f	0.096383326
104	0x3cc3dc5c	0.023908786
105	0x3c9823dd	0.018571788
106	0x3c6acd32	0.014331149
107	0x3df46092	0.11932482
108	0xbdd2f14e	-0.102999315
109	0xbdefc49e	-0.117074236
110	0x3d8b032b	0.067877136
111	0x3c09c005	0.008407597
112	0xba8c849b	-0.0010720672
113	0xbbf5a464	-0.0074964035
114	0xbced7d45	-0.028990397
115	0xbd7bd46b	-0.061481874
116	0xbd0fd412	-0.035114355
117	0xbda994ec	-0.08280358
118	0xbd205380	-0.03914213
119	0xbd1ef76e	-0.038810186
120	0xbe1b6d50	-0.15178418
121	0xbb203c6b	-0.0024450074
122	0x3d737f99	0.05944786
123	0xbd38a1ae	-0.045076065
124	0xbd6ac38f	-0.057315405
125	0xbd157b11	-0.03649432
126	0xbcc0398e	-0.023464944
127	0xbcd2b093	-0.025718963
128	0xbace175f	-0.0015723518
129	0xbb9f3458	-0.004858535
130	0x3ccf89a9	0.025334196
131	0x3da0782f	0.07835423
132	0xbdb7e8d1	-0.08979953
133	0xbcc7f6dd	-0.024409706
134	0x3d20e5e8	0.039281756
135	0xbc0bf37a	-0.008541936
136	0xbbc91a24	-0.0061371494
137	0xbd1e4e0c	-0.03864865
138	0xbc81d475	-0.015848378
139	0xbb16a79c	-0.0022988087
140	0xbdb9271e	-0.09040664
141	0xbd687c44	-0.056759134
142	0xbd33c48b	-0.04388861
143	0xbd9eaeea	-0.07748206
144	0xbde0c0f6	-0.109743044
145	0xbd9751f7	-0.073886804
146	0xbd202b48	-0.039103776
147	0xbd8c63f7	-0.06855004
148	0xbc221bc6	-0.009894317
149	0xbd28edd6	-0.041242443
150	0x3d11e1c6	0.035615705
151	0xbd472eaa	-0.048628487
152	0x3cfafec1	0.030639054
153	0x3d7b18e5	0.06130304
154	0x3d978170	0.07397735
155	0xbdb2e07b	-0.087342225
156	0xbd473758	-0.048636764
157	0x3d0ea0d9	0.034821365
158	0x3c29d6f2	0.010366188
159	0x3d4f9940	0.05068326
160	0x3d2c6cd6	0.04209598
161	0xbd52f2e4	-0.05150117
162	0xbd835b6f	-0.06413924
163	0xbd6d164f	-0.057882603
164	0x3d9ad26b	0.07559665
165	0x3c8844b5	0.016634325
166	0xbc9b1c9a	-0.018934537
167	0x3d47d293	0.048784804
168	0xbd962b6d	-0.073325016
169	0x3d088b4a	0.03333596
170	0xbd051989	-0.032495055
171	0xbd336737	-0.043799605
172	0xbd3e2fce	-0.04643231
173	0x3d764ccd	0.060131837
174	0x3c366b44	0.011133973
175	0xbc990802	-0.018680576
176	0xbcf41139	-0.029793369
177	0x3d353935	0.04424401
178	0x3d6e2d04	0.0581484
179	0xbce2edad	-0.027701223
180	0xbd20c5ad	-0.03925102
181	0xbda56b26	-0.080770776
182	0xbd930e93	-0.07180514
183	0xbdc3cac2	-0.09560157
184	0xbda547ac	-0.08070311
185	0xbd18108b	-0.03712515
186	0x3cedaffb	0.029014578
187	0xbd4bde69	-0.049772654
188	0x3cd12adf	0.025533138
189	0xbc852cd2	-0.016256724
190	0xbd841f4a	-0.064512804
191	0xbcac41d3	-0.021027481
192	0xbdcf64f6	-0.10126679
193	0x3c805766	0.015666675
194	0x3c6ef260	0.014584154
195	0xbd95ce75	-0.07314769
196	0x3d2a4dd8	0.041578144
197	0xbd95986d	-0.073044635
198	0xbdbb2bb0	-0.09139192
199	0xbdd2e882	-0.102982536
200	0x3cc0bc34	0.023527242
201	0xbdbdacf0	-0.09261501
202	0x3d1c0581	0.038091186
203	0xbd9523a7	-0.07282191
204	0x3da524e6	0.080636784
205	0x3afda043	0.001935013
206	0xbd50a274	-0.050936177
207	0x3cc19755	0.023631731
208	0x3d19a31e	0.037509076
209	0xbd8236ac	-0.06358084
210	0xbd402498	-0.0469099
211	0x3c7bded2	0.015372949
212	0xbc0a1c0a	-0.008429537
213	0x3c8c8345	0.017152438
214	0xbded81fe	-0.1159706
215	0xbd817203	-0.06320574
216	0xbd85a1e1	-0.065250166
217	0xbd90ac6a	-0.070641354
218	0x3c4845b5	0.012223651
219	0x3d713255	0.05888589
220	0xbd51ae42	-0.051191576
221	0xbd8a4837	-0.06752055
222	0xbdad3652	-0.084576264
223	0x3d613164	0.054978743
224	0x3d4f64b7	0.05063316
225	0x3b302f60	0.0026883706
226	0xbd6eedfa	-0.05833242
227	0x3d3bca06	0.04584696
228	0xbd713a20	-0.058893323
229	0xbde152bc	-0.110021085
230	0x3d4fe5ab	0.050756138
231	0xbcc0d471	-0.0235388
232	0x3c9e6a1b	0.019337704
233	0x3d2f55fb	0.042806607
234	0x3c6dcbaf	0.014513894
235	0x3ccf8234	0.02533064
236	0x3cafc7f9	0.02145766
237	0x3d9a7c82	0.07543279
238	0x3c22f079	0.009945028
239	0x3d48fb54	0.04906781
240	0x3c662553	0.014046985
241	0x3d6a80af	0.05725163
242	0x3c3e0642	0.011598172
243	0xbdcc2036	-0.09967081
244	0x3dfbba95	0.12291447
245	0x3d87dc8d	0.066338636
246	0xbca66e69	-0.02031632
247	0x3c1720d8	0.009224139
248	0xbd7d0abb	-0.06177781
249	0xbcf78512	-0.03021482
250	0x3d316f5a	0.043319084
251	0xbdca9c4c	-0.098930925
252	0x3da69552	0.08133949
253	0x3d59014c	0.052979752
254	0xbc30b9a9	-0.010786452
255	0x3d881385	0.06644348

fc2.bias f4 [64]
0	0xbcd272d7	-0.025689526
1	0xbd05f464	-0.032703772
2	0x3c36d3f6	0.011158934
3	0x3d99c17d	0.07507608
4	0x3d1627eb	0.036659162
5	0x3b9f2cd9	0.004857641
6	0x3b3ecbe8	0.0029113237
7	0xbd2c680f	-0.042091426
8	0xbd1f8ed7	-0.038954582
9	0xb8dda41b	-0.00010568668
10	0x3d5030da	0.05082784
11	0x3da77469	0.081765
12	0xbd94b070	-0.07260215
13	0x3cbfd783	0.023418194
14	0x3be5cecc	0.0070131775
15	0x3cf791eb	0.030220946
16	0x3d7d57c2	0.06185127
17	0xbd930006	-0.07177739
18	0x3d336b0d	0.043803263
19	0xbbd6572a	-0.0065411525
20	0xbd722f31	-0.059127036
21	0xbd250aa9	-0.04029337
22	0xbd0366eb	-0.032080572
23	0x3c84c523	0.016207283
24	0x3cfa2ec7	0.030539883
25	0x3c5bddef	0.013419612
26	0x3d4ae972	0.049539037
27	0xbd97e76d	-0.07417188
28	0xbbd1abdd	-0.0063986615
29	0xbc3cd9b5	-0.011526515
30	0xbdb41b50	-0.08794272
31	0x3c7f50b1	0.015583203
32	0x3d9edbc4	0.07756761
33	0xbd171716	-0.03688725
34	0xbc9582cc	-0.018250845
35	0x3d96b174	0.07358065
36	0x3cb6dd31	0.02232227
37	0xbcf5d7ff	-0.030010222
38	0xbd89bf5b	-0.06725951
39	0x3d149d2e	0.03628271
40	0x3d725d19	0.059170816
41	0xbd8b9beb	-0.06816848
42	0x3b9eb909	0.0048438353
43	0xbdaeb5b7	-0.08530753
44	0xbdb486a1	-0.08814741
45	0x3d8da06f	0.06915366
46	0x3b273867	0.0025515796
47	0xbca05df2	-0.019576047
48	0xbd78d3c3	-0.060748827
49	0x3d91af29	0.07113487
50	0xbc289683	-0.010289791
51	0xbd934d7a	-0.07192512
52	0xbdb5168f	-0.08842193
53	0xbd58dfa8	-0.05294767
54	0x3ba8781d	0.0051412717
55	0x3cf9f0a5	0.030510256
56	0x3d4fcc4e	0.05073195
57	0xbcca2c57	-0.024679346
58	0xbd0c258b	-0.03421549
59	0x3d5f9a90	0.05459076
60	0x3d6273f2	0.055286355
61	0x3d1afa35	0.037836272
62	0x3d08092e	0.03321188
63	0x3cc20798	0.023685262

bn2.weight f4 [64]
0	0x3f80833a	1.0040047
1	0x3f79874c	0.9747207
2	0x3f8df3db	1.1090044
3	0x3f788ad7	0.9708685
4	0x3f77f20e	0.9685372
5	0x3f79f16a	0.97633994
6	0x3f7902e5	0.9727004
7	0x3f7af5b4	0.98031163
8	0x3f891392	1.0709097
9	0x3f7eeb42	0.99577725
10	0x3f818e1e	1.0121496
11	0x3f818127	1.0117539
12	0x3f7af79d	0.9803408
13	0x3f812f9b	1.0092653
14	0x3f80b268	1.0054445
15	0x3f817065	1.0112425
16	0x3f83b021	1.0288125
17	0x3f81cbb1	1.0140287
18	0x3f84e17a	1.038131
19	0x3f860e75	1.0473162
20	0x3f82d6d3	1.0221809
21	0x3f82463c	1.0177684
22	0x3f719e52	0.943822
23	0x3f791d71	0.9731055
24	0x3f7fdefe	0.99949634
25	0x3f84e805	1.0383307
26	0x3f8462aa	1.034261
27	0x3f7a79fd	0.9784239
28	0x3f7effc0	0.99608994
29	0x3f80ddda	1.0067704
30	0x3f7d2670	0.98886776
31	0x3f8137e4	1.0095181
32	0x3f80336b	1.0015692
33	0x3f7a3a86	0.9774555
34	0x3f881349	1.0630885
35	0x3f7cfb7c	0.98821235
36	0x3f81bf04	1.0136418
37	0x3f7dc781	0.99132544
38	0x3f88c961	1.0686456
39	0x3f7c849f	0.98639864
40	0x3f82d840	1.0222244
41	0x3f84b3c8	1.0367365
42	0x3f7688ec	0.96302676
43	0x3f8da215	1.1065089
44	0x3f7b0a7e	0.98062885
45	0x3f70f643	0.94125766
46	0x3f890ffb	1.0708002
47	0x3f7a63ca	0.97808516
48	0x3f8744c1	1.0567857
49	0x3f7d0ee7	0.98850864
50	0x3f8597e1	1.0436975
51	0x3f8075c2	1.0035937
52	0x3f74a8de	0.9557017
53	0x3f7f19b4	0.99648595
54	0x3f8b4c65	1.0882689
55	0x3f7ff414	0.9998181
56	0x3f7dfc9c	0.99213576
57	0x3f898a9d	1.0745426
58	0x3f81d4c9	1.0143062
59	0x3f7d8308	0.9902806
60	0x3f82cd98	1.0218992
61	0x3f80f427	1.0074509
62	0x3f90e615	1.1320215
63	0x3f84abfb	1.0364984

bn2.bias f4 [64]
0	0x3cd7a091	0.026321681
1	0xbca3afa7	-0.019981219
2	0x3d7d015d	0.06176888
3	0xbd4f072a	-0.05054394
4	0x3d2b855e	0.041875236
5	0x3d7551fd	0.059892643
6	0x3b7fd2ec	0.0039035631
7	0xbd1e9f82	-0.038726337
8	0x3d59c378	0.05316493
9	0x3d0a4b50	0.03376323
10	0x3d97c284	0.07410148
11	0xbcb68b1a	-0.022283126
12	0x3c2e466e	0.010636909
13	0x3ba2dae5	0.004969942
14	0x3d9a0333	0.075201415
15	0xbdaef715	-0.08543221
16	0xbb5a2cc6	-0.0033290847
17	0x3d20f080	0.03929186
18	0xbdf1d409	-0.118080206
19	0x3cb26595	0.021776954
20	0x3cc6b2b3	0.024255132
21	0x3bad2dc4	0.0052849967
22	0xbde16062	-0.11004712
23	0xbd3a1941	-0.04543424
24	0x3b8009dc	0.0039074253
25	0xbdd690ac	-0.10476813
26	0xbd9c9113	-0.07644858
27	0x3d05b7c8	0.03264597
28	0xbd6fa98e	-0.05851131
29	0xbc443187	-0.011974699
30	0xbcc99c2e	-0.024610605
31	0xbda9b4f3	-0.082864664
32	0xbdc9787c	-0.09837434
33	0xbd818f98	-0.063262165
34	0x3da39227	0.07986861
35	0xbd041c83	-0.032253753
36	0xbd671aaa	-0.056421913
37	0xbe0a56bc	-0.13509649
38	0xbd905d38	-0.0704903
39	0xba941f84	-0.0011300896
40	0x3d3047a3	0.043037068
41	0x3c2f3865	0.010694598
42	0x3d7cff04	0.06176664
43	0xbcec2c3f	-0.028829692
44	0x3b68abf3	0.003550288
45	0xbd4091aa	-0.047013916
46	0x3c089f3a	0.008338744
47	0xbc2d0f02	-0.01056266
48	0x3db488b4	0.088151366
49	0x3ca6983f	0.020336268
50	0x3d953733	0.07285919
51	0xbd0a86ef	-0.03382009
52	0x3c3f0ca9	0.011660733
53	0x3d2181ca	0.039430417
54	0xbd6f087c	-0.0583577
55	0xbd071c68	-0.032986075
56	0xbd517071	-0.051132623
57	0x3c9e680b	0.01933672
58	0x3ca3af47	0.01998104
59	0x3bb180c0	0.0054169595
60	0x3d148ddb	0.036268096
61	0xbc9405cc	-0.01806917
62	0x3c2a01fc	0.01037645
63	0x3d33b49a	0.043873407

bn2.running_mean f4 [64]
0	0xbe93b77e	-0.2885093
1	0xbebc080f	-0.36724898
2	0xbec085fb	-0.3760222
3	0x3e85c497	0.2612655
4	0x3d84577f	0.06462001
5	0xbdbaeb1f	-0.09126877
6	0xbebe3c7c	-0.3715552
7	0x3d1dd673	0.038534593
8	0xbe35e67e	-0.17763707
9	0xbe94ab3c	-0.2903689
10	0x3e4c7b35	0.19968875
11	0xbe03ecf3	-0.12883358
12	0xbe2dc7ff	-0.16970824
13	0x3ebacff8	0.36486793
14	0x3d5a433c	0.053286776
15	0x3e7ae2f2	0.24500635
16	0xbe260aa9	-0.16215004
17	0xbde405d9	-0.11133928
18	0xbe9e4d06	-0.3091814
19	0xbe68d900	-0.22739029
20	0xbe9e8cc5	-0.30966774
21	0xbdec5a09	-0.1154061
22	0xbd01e9f1	-0.031717245
23	0xbe1a6841	-0.15078832
24	0xbe8109c4	-0.25202763
25	0xbefaae01	-0.4896088
26	0x3da34fe1	0.0797422
27	0xbd465d8c	-0.048429057
28	0xbe3b2327	-0.18275128
29	0x3e714f86	0.23565492
30	0xbece2fd5	-0.40270868
31	0xbef8430e	-0.4848866
32	0x3eb5d64d	0.3551506
33	0xbed5d9fc	-0.4176787
34	0xbe1541dd	-0.14575906
35	0xbec6ffb3	-0.38866958
36	0xbdd5d6a4	-0.1044133
37	0xbec07208	-0.37587
38	0xbf1e5a46	-0.61856496
39	0xbe5ee4a0	-0.21766901
40	0x3df00e19	0.11721439
41	0xbecdc6d7	-0.40190765
42	0xbda3785c	-0.07981941
43	0xbe5f30f8	-0.21796024
44	0xbe970f0f	-0.29503676
45	0xbdc55520	-0.09635377
46	0xbe333334	-0.17500001
47	0xbe330aef	-0.1748464
48	0xbdf5fe39	-0.1201138
49	0xbdb2b527	-0.08725958
50	0xbe4ba509	-0.19887175
51	0xbef479fb	-0.47749314
52	0x3e20c458	0.15699899
53	0xbecf02b0	-0.40431738
54	0xbee7405f	-0.451663
55	0xbe41c955	-0.18924458
56	0xbe4191a7	-0.18903218
57	0xbeb4d0bc	-0.35315502
58	0xbdf00f63	-0.11721685
59	0x3e901583	0.28141412
60	0xbe8a7837	-0.27044842
61	0xbe67221b	-0.22571604
62	0xbe5ee6da	-0.2176775
63	0xbedcd3b4	-0.43130267

bn2.running_var f4 [64]
0	0x3f661f41	0.8989144
1	0x3efa556e	0.48893303
2	0x3f114b6e	0.5675572
3	0x3ecf71e0	0.40516567
4	0x3f08241e	0.5318011
5	0x3f475d72	0.7787696
6	0x3f0e85d4	0.55672956
7	0x3eafce40	0.34337044
8	0x3f57831a	0.8418442
9	0x3f16acb4	0.58857274
10	0x3f320028	0.6953149
11	0x3fa21758	1.2663374
12	0x3f008365	0.5020049
13	0x3f419c60	0.75629234
14	0x3f7fb55c	0.9988611
15	0x3efc6166	0.4929306
16	0x3f3e7a60	0.7440548
17	0x3f3eab3b	0.74480027
18	0x3e9617b7	0.29314968
19	0x3ec18155	0.37793985
20	0x3f3df06e	0.7419499
21	0x3f2c82ad	0.67386895
22	0x3e4f83d8	0.20265138
23	0x3f032739	0.51231724
24	0x3f2e56aa	0.6810099
25	0x3e9bba6a	0.3041566
26	0x3f23243d	0.6372717
27	0x3f0cec30	0.55047894
28	0x3f0fcc81	0.56171423
29	0x3f504b12	0.8136455
30	0x3ed7065e	0.41997045
31	0x3ed4296d	0.41437855
32	0x3f6342fb	0.8877408
33	0x3eb55a98	0.3542068
34	0x3f089441	0.5335122
35	0x3f33dc25	0.7025779
36	0x3ef341bf	0.47511098
37	0x3e94276b	0.28936324
38	0x3f21980b	0.63122624
39	0x3f09f3f4	0.5388787
40	0x3f800fd3	1.0004829
41	0x3f4bb406	0.7957157
42	0x3f2f2ccc	0.6842773
43	0x3f50fdea	0.8163744
44	0x3f0805d9	0.5313392
45	0x3f099788	0.53746843
46	0x3f53d7d0	0.8275118
47	0x3f5856bc	0.84507346
48	0x3f4f3e60	0.8095455
49	0x3f3017e7	0.6878647
50	0x3f22f8d6	0.63660944
51	0x3edebd0f	0.43503615
52	0x3f1fc308	0.6240697
53	0x3f1eb337	0.6199221
54	0x3f25a44f	0.6470384
55	0x3f0b6d14	0.54463315
56	0x3ebbe3e6	0.3669731
57	0x3f6a29cd	0.9147003
58	0x3f402564	0.75057054
59	0x3f3c8d3e	0.7365302
60	0x3f55b265	0.83475333
61	0x3f68a5a3	0.9087774
62	0x3f8e1b08	1.1101999
63	0x3f02685e	0.509405

fc3.weight f4 [32, 64]
0	0x3cc00563	0.023440069
1	0xbdf9d535	-0.12198869
2	0x3d8bcedc	0.06826565
3	0xbdb38428	-0.08765441
4	0xbc3c8bbc	-0.011507925
5	0xbd62ec02	-0.055400856
6	0xbdab5f35	-0.08367769
7	0xbdbcf9f9	-0.09227366
8	0xbe3356ca	-0.17513576
9	0xbdd1dddd	-0.10247395
10	0xbbd26b4b	-0.0064214817
11	0xbb8750b0	-0.0041294917
12	0xbc767714	-0.015043039
13	0x3db999e8	0.090625584
14	0x3c8f5e88	0.01750113
15	0xbd1937b4	-0.03740664
16	0xbd6c46b4	-0.057684615
17	0x3d4ba5ec	0.049718782
18	0x3c3c8540	0.011506379
19	0x3d309262	0.04310835
20	0xbc88b661	-0.016688528
21	0x3c9ae8ad	0.018909777
22	0x3d8a27ab	0.06745847
23	0x3da15d32	0.07879104
24	0xbd635561	-0.055501346
25	0x3da683f0	0.08130634
26	0x3d9cf5ae	0.07664047
27	0xbba6b6b8	-0.0050876997
28	0xbd14c815	-0.036323626
29	0x3ca5dbef	0.020246474
30	0xbcd32be2	-0.02577776
31	0x3c23c4f2	0.009995686
32	0xbd07cef2	-0.033156343
33	0x3d9c3d89	0.076289244
34	0xbe2be64a	-0.16787067
35	0x3d3146a2	0.04328025
36	0xbdf3d39c	-0.11905596
37	0x3d0ac8d5	0.033882935
38	0x3ccf7cbb	0.02532803
39	0xbdf61ac4	-0.12016824
40	0xbded2a12	-0.1158029
41	0xbe401791	-0.1875899
42	0xbda0bfab	-0.07849058
43	0xbe3342a0	-0.17505884
44	0xbd1f9a80	-0.038965702
45	0x3da49375	0.08035938
46	0x3d4628b0	0.048378646
47	0xbd4e3293	-0.0503412
48	0xbd08cb07	-0.033396747
49	0xbd002692	-0.031286784
50	0x3d22d056	0.039749466
51	0xbd890544	-0.066904575
52	0x3cb8800e	0.022521999
53	0xb8d8896c	-0.000103252794
54	0xbd49fdf2	-0.049314447
55	0x3d9d86d1	0.0769173
56	0xbd4c13dc	-0.049823627
57	0xbe3e08a7	-0.18557988
58	0xbe0c335c	-0.13691467
59	0x3d936da1	0.071986444
60	0x3d771816	0.060325705
61	0x3ca681ef	0.020325629
62	0xbb8591a0	-0.0040761977
63	0xbc93e21c	-0.018052153
64	0xbd0e95d7	-0.034810867
65	0x3dabf56c	0.0839642
66	0xbe59f6ea	-0.21285596
67	0xbda3772f	-0.07981717
68	0xbe0a182d	-0.13485785
69	0xbd4e3def	-0.050352033
70	0xbe2381cc	-0.15967482
71	0xbc933b26	-0.01797254
72	0xbd88cc50	-0.066795945
73	0xbc811bf1	-0.015760394
74	0x3cbba831	0.022907348
75	0x3d95e0d3	0.073182724
76	0x3da724e2	0.08161332
77	0xbbbf93e8	-0.005846489
78	0xbcd4d2d8	-0.025979444
79	0x3d81c94f	0.06337225
80	0xbd1f1c80	-0.03884554
81	0x3dbfe929	0.09370644
82	0x3db04903	0.08607676
83	0xbdbe3b28	-0.09288627
84	0xbd826603	-0.063671134
85	0xbbcf4261	-0.0063250517
86	0xbe11d0bf	-0.14239787
87	0xbdacbf8e	-0.08434974
88	0xbcb60278	-0.022217974
89	0x3dbe6a9d	0.092976786
90	0x3d277e22	0.040891774
91	0xbd38e3b5	-0.045139033
92	0x3d934a8c	0.07191953
93	0x3d1bcd81	0.03803778
94	0x3c3e266e	0.011605842
95	0x3df3920b	0.1189309
96	0xbdcfcf37	-0.10146945
97	0x3d9a6421	0.07538629
98	0xbce9eb52	-0.028554592
99	0x3d8e0532	0.06934585
100	0x3d5ac35d	0.05340897
101	0x3d504533	0.050847244
102	0xbc05df97	-0.008170984
103	0xbbbdc29c	-0.0057910215
104	0x3d91023e	0.07080506
105	0x3c6b8383	0.014374617
106	0xbccea962	-0.025227252
107	0x3cefe33e	0.029283162
108	0x3cf09cde	0.029371675
109	0xbe0bd9bc	-0.13657278
110	0x3ce5785d	0.028011495
111	0x3d71bf56	0.059020363
112	0xbd22edc9	-0.03977755
113	0x3dadd744	0.08488324
114	0xbddae2b2	-0.1068777
115	0x3d07f821	0.03319562
116	0xbcac0e1a	-0.021002818
117	0xbdc735a5	-0.09727029
118	0x3d88b65f	0.066754095
119	0xbce20dc0	-0.027594447
120	0x3d51cbec	0.051219866
121	0x3dc8d5d3	0.09806409
122	0x3d29f0bf	0.04148936
123	0xbdd83ca3	-0.105584405
124	0xbe0e45d2	-0.13893822
125	0xbd0ebf69	-0.03485051
126	0x3c884a9d	0.01663714
127	0xbd8b3ccc	-0.067987055
128	0x3d36fc9c	0.0446745
129	0x3e031f89	0.12804998
130	0xbe62eda8	-0.22160971
131	0xbd100cba	-0.035168387
132	0xbe08da3a	-0.13364497
133	0xbdd10a70	-0.10207069
134	0xbd9c02bc	-0.07617709
135	0xbd5dd7ff	-0.054161068
136	0x3d47ee2d	0.048811127
137	0xbd5595f1	-0.05214495
138	0xbe197c65	-0.14988859
139	0x3ca1a634	0.019732572
140	0xbce00681	-0.027346851
141	0x3cdcaa7b	0.02693676
142	0xbcf7883b	-0.030216327
143	0xbb00114e	-0.0019541564
144	0xbbd4445f	-0.006477877
145	0xbd6768c2	-0.05649639
146	0x3dee33b7	0.116309576
147	0xbdddd8a8	-0.108323395
148	0x3c14c52b	0.009080212
149	0xbc981bcf	-0.018567948
150	0xbcb6a24f	-0.022294192
151	0x3d0e07c7	0.034675386
152	0xbdb2919a	-0.087191775
153	0x3d5b66e4	0.05356492
154	0xbd8709b3	-0.06593647
155	0xbd8d658b	-0.069041334
156	0x3d2dd2f3	0.042437505
157	0x3ce7fcc0	0.028318763
158	0xbd962493	-0.07331195
159	0x3d684b09	0.056712184
160	0xbcd6d7c0	-0.026225924
161	0x3de0d091	0.10977281
162	0x3c7975c6	0.015225833
163	0x3d64f319	0.0558959
164	0x3dc0c1a3	0.09411933
165	0x3dfae82a	0.12251313
166	0x3e060347	0.13087188
167	0xba21bb1d	-0.00061695446
168	0x3d75dac4	0.060023084
169	0xbc1605d6	-0.009156665
170	0xbccee96b	-0.025257787
171	0x3d44759e	0.04796373
172	0x3d918e4d	0.0710722
173	0xbda4eff4	-0.0805358
174	0x3d782f44	0.06059195
175	0xbd8a87a8	-0.067641556
176	0xbe1451b3	-0.14484291
177	0x3db0f52f	0.08640515
178	0xbe30f6b9	-0.17281617
179	0xbcf9a90c	-0.030476116
180	0xbdd78704	-0.10523799
181	0xbe143ec8	-0.14477074
182	0x3e1d9d3c	0.15392011
183	0x3e0f9cad	0.14024611
184	0xbdb3b6b6	-0.08775084
185	0x3d0b2966	0.033975028
186	0x3d9843c7	0.074348025
187	0xbd8c268b	-0.06843289
188	0xbe169264	-0.14704281
189	0x3bde9214	0.006792316
190	0x3ca30046	0.019897591
191	0xbd89b9b4	-0.06724873
192	0xbe10f6d0	-0.14156651
193	0x3ba53af0	0.0050424263
194	0xbc4b8aa1	-0.012423188
195	0xbc9d24ef	-0.01918265
196	0xbd5cf5c5	-0.05394532
197	0x3d5b451c	0.053532705
198	0xbd09441c	-0.03351222
199	0xbdb7b7f8	-0.08970636
200	0xbd45db9b	-0.048305135
201	0x3ce0b5dc	0.027430467
202	0x3c8b5281	0.017007114
203	0xbdf85798	-0.12126082
204	0xba056c1b	-0.00050896563
205	0x3d53ff28	0.051757008
206	0xbd1d6bd4	-0.03843291
207	0xbd925e21	-0.0714686
208	0xbe2380e9	-0.15967144
209	0xbdf8abef	-0.12142169
210	0x3d961318	0.073278606
211	0x3d729b83	0.05923034
212	0xbd3c5176	-0.045976125
213	0xbdd09819	-0.1018526
214	0xbe077d14	-0.13231307
215	0x3d80e22e	0.0629314
216	0xbdb7fb73	-0.08983507
217	0x3dd04313	0.101690434
218	0x3bf5c212	0.0074999416
219	0x3c362a31	0.011118458
220	0xbdda570c	-0.10661134
221	0x3d26a03b	0.04068015
222	0x3d509031	0.05091876
223	0xbd073463	-0.033008944
224	0xbde0ba4e	-0.10973035
225	0x3d55810d	0.052125026
226	0xbdf05e56	-0.11736743
227	0xbd578bb0	-0.05262345
228	0x3b20a840	0.0024514347
229	0x3d9768b2	0.07393016
230	0xbcb20753	-0.021732008
231	0xbdafec0a	-0.08589943
232	0xbcc2aed6	-0.023765009
233	0x3ba769bb	0.0051090396
234	0xbda1b5f3	-0.07896032
235	0xbe1428d8	-0.14468706
236	0xbcd57760	-0.026057899
237	0xbc69da3e	-0.014273224
238	0xbdd5ed32	-0.10445632
239	0xbdd8151e	-0.10550903
240	0xbdc62588	-0.09675127
241	0xbd0ee952	-0.03489048
242	0xbe013e8e	-0.12621519
243	0x3dd703a9	0.10498745
244	0xbd8f204d	-0.06988583
245	0x3d0919c6	0.033471845
246	0xbdb6695d	-0.08906815
247	0x3d098948	0.033578187
248	0x3dbf8a13	0.093525074
249	0xbde22774	-0.11042681
250	0xbc60a944	-0.013712231
251	0xbce5c33c	-0.028047197
252	0xbe177a4d	-0.14792748
253	0xbe161ffe	-0.14660642
254	0xbdb5700b	-0.08859261
255	0x3c80024a	0.015626092

fc3.bias f4 [32]
0	0x3d40ea3d	0.047098387
1	0x3d179ab4	0.03701277
2	0x3d454e95	0.048170645
3	0xbdb74afe	-0.089498505
4	0xbe00d781	-0.12582208
5	0xbc5f328a	-0.013622889
6	0xbbe31c35	-0.006930853
7	0x3c28ec28	0.01031021
8	0x3d84335b	0.06455108
9	0xbc8f033c	-0.017457597
10	0x3d98f1a3	0.074679635
11	0xbda300d8	-0.07959145
12	0xbdb17e04	-0.08666614
13	0xbdbcc972	-0.0921811
14	0xbcd1a0ef	-0.025589434
15	0x3d179f54	0.03701718
16	0x3db09061	0.08621288
17	0x3b5163c5	0.0031950336
18	0x3d91db56	0.07121913
19	0x3deee9ec	0.11665711
20	0x3dd77051	0.105194695
21	0x3cbd8782	0.023135904
22	0x3dad6280	0.08466053
23	0x3dd79883	0.10527136
24	0xbde61d55	-0.112360634
25	0xbdff5702	-0.12467767
26	0x3dc724e2	0.09723832
27	0x3d7a2b13	0.061076235
28	0x3d9d814d	0.07690678
29	0x3d8585bf	0.06519651
30	0x3cce2c61	0.025167646
31	0xbdfd44b1	-0.123666175

bn3.weight f4 [32]
0	0x3f6e6e70	0.93137264
1	0x3f8b27f7	1.0871571
2	0x3f962f48	1.1733179
3	0x3f81e880	1.0149078
4	0x3f87199f	1.0554694
5	0x3f7bf016	0.9841322
6	0x3f6b30b2	0.9187118
7	0x3f6ccbec	0.9249866
8	0x3f7b0a5d	0.9806269
9	0x3f76453f	0.9619941
10	0x3f6e69dc	0.9313028
11	0x3f80686f	1.0031871
12	0x3f6db056	0.9284719
13	0x3f6a25b4	0.9146378
14	0x3f6ada13	0.91739005
15	0x3f848510	1.0353107
16	0x3f954222	1.1660807
17	0x3f801c43	1.0008625
18	0x3f869898	1.0515318
19	0x3f867585	1.0504614
20	0x3f779f6a	0.9672762
21	0x3f90da35	1.1316592
22	0x3f744e4e	0.95431983
23	0x3f70a43d	0.9400061
24	0x3f8ea0a1	1.114277
25	0x3f7e6827	0.99377674
26	0x3f814c78	1.0101461
27	0x3f6a991e	0.9163989
28	0x3f6417e9	0.89098984
29	0x3f728b35	0.94743663
30	0x3f99f2c7	1.2027215
31	0x3f6ede02	0.9330751

bn3.bias f4 [32]
0	0x3c21dab1	0.0098788
1	0x3d7ecb39	0.062205527
2	0x3dbff722	0.09373309
3	0x3de3d89e	0.11125301
4	0x3e334e92	0.17510441
5	0x3ced073b	0.028934112
6	0xbbf444f4	-0.007454509
7	0xbe0db020	-0.13836718
8	0x3dcf66a3	0.10126998
9	0x3db0c62d	0.08631549
10	0xbd6c02cd	-0.05761986
11	0x3dd55ab3	0.1041769
12	0xbcba8345	-0.022767672
13	0xbd05bb85	-0.032649536
14	0xbdfc7d93	-0.12328639
15	0x3dad7e14	0.08471313
16	0x3e49e026	0.19714412
17	0x3e2781c5	0.16358097
18	0x3d6eaca6	0.05827012
19	0x3e0876ab	0.13326518
20	0xbd27da9e	-0.040979974
21	0x3dcce1ad	0.10003982
22	0xbcd21fea	-0.025649983
23	0xbdb2e425	-0.08734921
24	0x3dd7eb7b	0.10542961
25	0xbdb66fe0	-0.08908057
26	0xbdb2ac96	-0.087243244
27	0x3b0cfc90	0.0021512844
28	0xbdc803c6	-0.09766345
29	0x3d763998	0.06011352
30	0x3e1719a8	0.14755881
31	0x3ced8ff0	0.028999299

bn3.running_mean f4 [32]
0	0xbebcc7f6	-0.36871308
1	0xbe249060	-0.160707
2	0xbe8274a9	-0.2547963
3	0xbf3de09b	-0.74170846
4	0xbf15fc5b	-0.5858819
5	0x3cae36e6	0.021266412
6	0xbf1919e5	-0.59805137
7	0xbf202338	-0.6255374
8	0xbec0639e	-0.37576002
9	0xbf1c1ce0	-0.6098156
10	0xbe37271e	-0.17886016
11	0xbf415da9	-0.7553354
12	0xbe8e179f	-0.27752396
13	0xbed4759f	-0.41495988
14	0x3ea68df6	0.32530183
15	0xbee5ca2d	-0.4488081
16	0xbebbb2b2	-0.3665977
17	0xbec1ca2f	-0.37849566
18	0xbe8ca31a	-0.27468187
19	0xbe15831d	-0.14600797
20	0xbdd06025	-0.10174588
21	0xbe6f7c41	-0.23387243
22	0x3d97412d	0.07385478
23	0xbdb2e4ce	-0.08735047
24	0xbec7cb08	-0.39022088
25	0xbe5e0ef0	-0.21685386
26	0x3ebcf0fe	0.36902612
27	0xbecf3ab2	-0.40474468
28	0xbe92ee31	-0.2869735
29	0xbebb10c9	-0.36536244
30	0xbe7f5ab9	-0.24936952
31	0xbf016570	-0.50545406

bn3.running_var f4 [32]
0	0x3f341fbb	0.70360917
1	0x3f74e6ba	0.9566456
2	0x3fc440fc	1.5332332
3	0x3f2ea7c6	0.6822475
4	0x3f714646	0.94247854
5	0x3f41293a	0.7545353
6	0x3f3a9e56	0.7289785
7	0x3f2a0b77	0.66423744
8	0x3f74b36e	0.9558629
9	0x3f2a3d22	0.6649953
10	0x3f5f6e02	0.87277234
11	0x3f966227	1.1748704
12	0x3f3b424d	0.7314804
13	0x3f223c66	0.6337341
14	0x3f24ace4	0.6432631
15	0x3f847f55	1.0351359
16	0x3f92656b	1.14372
17	0x3f7c28a4	0.9849951
18	0x3f811cec	1.0086951
19	0x3f63ecd7	0.89033264
20	0x3f319563	0.6936857
21	0x3f9a96d4	1.2077279
22	0x3f334483	0.70026416
23	0x3ee158ea	0.4401315
24	0x3f86fd1d	1.0545994
25	0x3f1e8796	0.6192564
26	0x3ea4365d	0.32072726
27	0x3f53b9ac	0.8270519
28	0x3eb0a2f3	0.3449932
29	0x3fb87f07	1.4413766
30	0x3fb65477	1.4244527
31	0x3f3b5771	0.731803
