MELOSDP/SDP/chkpt/mc1/linear/8/sdp_classifier_linear-860.pth (torch, 77408 bytes, 25 tensors)

fc1.weight f4 [128, 38]
-0.09118317 -0.0055682464 -0.16645257 -0.058274295 0.122132696 -0.021514036 0.07071884 -0.08164119
-0.11877493 -0.029164076 -0.1453054 0.099869795 0.12827992 0.07224765 0.05612822 0.07233138
0.17046992 0.037911773 0.009956732 -0.13370433 -0.055929214 0.121988826 0.100603774 0.15904044
0.0032685746 0.11245493 -0.15266693 -0.056344997 0.03735318 0.15770589 0.0019509755 0.07533687
-0.162786 -0.04073134 -0.10839836 0.012788495 0.07298955 0.1147034 -0.13751271 -0.06669812
-0.025302375 0.012785891 0.047208797 -0.021862898 0.076965526 -0.23318045 0.14410126 -4.7713533e-05
0.117639944 -0.1924285 0.1622147 0.04535628 -0.028494872 -0.03885763 0.07003436 0.050672136
-0.0591984 -0.080090344 0.09712839 -0.13852456 0.10578134 0.028718384 -0.03310538 -0.03315398
-0.116607614 -0.13570876 -0.0996422 -0.008421443 -0.01937425 0.0858503 0.13517858 -0.06478553
-0.13726921 0.09685674 0.03852111 0.18040882 -0.018589335 -0.016168589 0.10765753 -0.10104344
-0.077607244 0.020925293 0.15434425 -0.14623703 -0.070120275 0.020893537 0.149626 0.1021564
-0.082171805 -0.11676023 -0.1599757 0.0847077 0.0081900805 -0.15027359 0.0064267484 0.017801667
0.0034481091 -0.093590066 0.033114728 0.031083062 0.023527114 -0.08457526 -0.014360046 0.005933846
0.12446545 -0.0907248 0.11180674 0.15479034 0.17860521 0.02205308 0.075951174 0.12794837
0.063436404 -0.048561648 -0.109293595 0.086177304 0.05579334 -0.19618969 -0.1567356 0.124299005
-0.099976525 -0.096029386 -0.011860051 0.09602505 -0.154546 -0.03125545 -0.010925694 -0.055193424
0.16010483 0.036302812 0.16913235 0.11028252 -0.1350514 -0.048463635 -0.09152882 0.01552653
0.055579584 0.07846727 -0.0010800927 -0.14102656 0.016396457 0.031980976 -0.10651442 -0.079129
0.13146947 -0.010950376 -0.04036373 -0.09718973 -0.01585489 0.048045926 0.10473615 -0.12684934
-0.06606095 0.01472979 -0.0737589 -0.02498013 -0.20074818 0.14264745 0.14508526 -0.08307888
0.17078258 0.024552371 0.030333376 0.1728239 0.0529994 -0.06735748 -0.0028532476 0.006053566
-0.012003171 -0.11896086 0.04652134 -0.08042424 0.06755327 -0.09997861 0.008737225 -0.026159348
-0.07155176 -0.061821647 0.13797669 -0.14068028 -0.040602617 0.12790677 0.18656659 -0.011127329
-0.13870268 -0.048888754 0.0031216894 -0.08728818 0.007929176 -0.14925359 -0.089354135 -0.10774284
-0.020657912 0.017869642 -0.20352677 -0.011654405 -0.09143657 0.028447084 0.059317492 0.1555573
0.019083848 0.0073497836 -0.07239946 0.008884714 0.14609078 -0.060692813 -0.022309735 0.023761418
-0.06911181 0.054712936 -0.002527926 0.0121557955 -0.08344324 -0.036256284 -0.05010237 -0.05373605
0.06901041 0.10431429 0.006211157 -0.018759524 0.16037144 0.089264765 -0.01870079 -0.07567872
0.09651175 0.08390136 0.07624867 -0.14423658 -0.067834616 -0.03810624 -0.16777456 -0.04225711
-0.17936976 0.079973646 -0.03449914 0.013082344 0.10002434 -0.12334565 0.10483245 0.110746585
0.008033267 -0.07326562 0.052696433 0.045959145 0.06922271 -0.11095187 -0.17876045 0.018451342
0.03636747 0.07448794 -0.17029665 0.074308135 -0.04696535 -0.12921453 0.11263899 0.016302725
00000000: 3ebe babd d675 b6bb 8b72 2abe 07b1 6ebd
00000010: b520 fa3d 343e b0bc 0ad5 903d 7f33 a7bd
00000020: 4540 f3bd 80e9 eebc f0ca 14be 8988 cc3d
00000030: d05b 033e 93f6 933d b4e6 653d 7922 943d
00000040: ab8f 2e3e 6049 1b3d 9021 233c cae9 08be
00000050: 0816 65bd 47d5 f93d 5a09 ce3d 7fdb 223e
00000060: 9535 563b c54e e63d b854 1cbe 03ca 66bd
00000070: a6ff 183d a77d 213e e0b7 ff3a 384a 9a3d
00000080: 60b1 26be e8d5 26bd f6ff ddbd d686 513c
00000090: 8c7b 953d 9ee9 ea3d 22d0 0cbe 0699 88bd
000000a0: ed46 cfbc ea7b 513c 035e 413d d219 b3bc
000000b0: 1aa0 9d3d dbc6 6ebe 488f 133e 0420 48b8
000000c0: 36ed f03d fa0b 45be 9c1b 263e 82c7 393d
000000d0: 146e e9bc 2e29 1fbd 2d6e 8f3d 968d 4f3d
000000e0: 057a 72bd 6806 a4bd 40eb c63d 62d9 0dbe
000000f0: e3a3 d83d d142 eb3c 8299 07bd 78cc 07bd
00000100: f9cf eebd 3df7 0abe 3611 ccbd 18fa 09bc
00000110: bfb6 9ebc 48d2 af3d 416c 0a3e 47ae 84bd
00000120: 4d90 0cbe d45c c63d 50c8 1d3d 17bd 383e
00000130: a948 98bc fd73 84bc 8d7b dc3d ddef cebd
00000140: 8cf0 9ebd 856b ab3c 6b0c 1e3e 29bf 15be
00000150: 389b 8fbd ec28 ab3c 8f37 193e 6037 d13d
00000160: b149 a8bd fd1f efbd abd0 23be 3b7b ad3d
00000170: b02f 063c 52e1 19be 7997 d23b cdd4 913c
00000180: acf9 613b 26ac bfbd 4fa3 073d e8a1 fe3c
00000190: efbb c03c cb35 adbd 6646 6bbc b570 c23b
000001a0: bee7 fe3d edcd b9bd effa e43d 5c81 1e3e
000001b0: 49e4 363e a9a8 b43c 4a8c 9b3d e604 033e
000001c0: f2ea 813d 94e8 46bd 52d5 dfbd ba7d b03d
000001d0: 8f87 643d f3e5 48be 4c7f 20be 7a90 fe3d
000001e0: 7ec0 ccbd 0eab c4bd a950 42bc c8a8 c43d
000001f0: 4e41 1ebe b705 00bd af01 33bc 8012 62bd
00000200: 85f2 233e 42b2 143d 0831 2d3e cddb e13d
00000210: ea4a 0abe ce81 46bd 7673 bbbd fd62 7e3c
00000220: 6ba7 633d 73b3 a03d e691 8dba 4469 10be
00000230: dd51 863c 7cfe 023d 3b24 dabd 630e a2bd
00000240: ef9f 063e 3569 33bc 7054 25bd 690b c7bd
00000250: 1de2 81bc cecb 443d e87f d63d cbe4 01be
00000260: f74a 87bd 3855 713c e80e 97bd 21a3 ccbc
00000270: ee90 4dbe 2c12 123e 3b91 143e 4325 aabd
00000280: a1e1 2e3e 0e22 c93c b37d f83c c0f8 303e
00000290: e615 593d b8f2 89bd 8dfd 3abb fe5c c63b
000002a0: f3a8 44bc c0a1 f3bd 298d 3e3d 77b5 a4bd
000002b0: 5e59 8a3d 96c1 ccbd 9426 0f3c 214c d6bc
000002c0: bb89 92bd b238 7dbd c349 0d3e 7e0e 10be
000002d0: ee4e 26bd fef9 023e 500b 3f3e 674f 36bc
000002e0: 1308 0ebe 933f 48bd 4295 4c3b 25c4 b2bd
000002f0: 60e9 013c efd5 18be 4dff b6bd 47a8 dcbd
00000300: c83a a9bc 5b63 923c 5269 50be 1ef2 3ebc
00000310: 1943 bbbd dc09 e93c e6f6 723d 6a4a 1f3e
00000320: bb55 9c3c 74d6 f03b 2b46 94bd 3191 113c
00000330: d298 153e 0799 78bd e8c2 b6bc 4ea7 c23c
00000340: 7e8a 8dbd ac1a 603d 8fab 25bb 1a29 473c
00000350: 4ae4 aabd 7881 14bd 2538 4dbd 551a 5cbd
00000360: 5455 8d3d bba2 d53d f686 cb3b 93ad 99bc
00000370: 6938 243e 72d0 b63d 6632 99bc 72fd 9abd
00000380: f4a7 c53d 7ad4 ab3d 4328 9c3d c1b2 13be
00000390: e0ec 8abd 4a15 1cbd 18cd 2bbe cb15 2dbd
000003a0: b5ac 37be 39c9 a33d f84e 0dbd 5457 563c
000003b0: 90d9 cc3d a59c fcbd 65b2 d63d 1bcf e23d
000003c0: f79d 033c 490c 96bd 37d8 573d a83f 3c3d
000003d0: a3c4 8d3d bc3a e3bd fb0c 37be 4527 973c
000003e0: 0ef6 143d 228d 983d 3f62 2ebe dd2e 983d
000003f0: bd5e 40bd d050 04be 45af e63d 4b8d 853c

fc1.bias f4 [128]
-0.07080929 0.02470284 0.012424735 -0.029013442 0.08726954 -0.051024023 -0.030787583 0.09668998
0.1578726 -0.05896259 0.08447141 0.033044737 -0.15467496 0.106404446 -0.13861942 -0.04620487
-0.009304919 -0.0567468 0.1584922 0.006404944 0.13187698 0.12327886 0.017645476 0.056640323
0.012502038 0.019936902 -0.08433318 0.10117828 -0.054048352 0.15143242 0.1616903 0.05402793
0.10601107 -0.07002472 0.16072069 -0.019238787 -0.1117182 -0.11038001 -0.059915066 -0.007790257
0.10233244 0.09678796 -0.005469999 0.13444735 -0.15125164 -0.004433724 0.15405823 0.012997073
0.12926097 -0.08633001 -0.018331176 0.057673726 -0.059023652 -0.02288477 0.057338588 0.13363603
-0.13101088 -0.11087263 0.042950895 -0.09430366 -0.12720063 -0.12350017 0.0053773434 -0.1133175
0.11743358 0.021856332 -0.091381796 -0.10231285 -0.13616276 0.08601204 -0.013060804 -0.06887358
0.13832515 0.105784535 0.14460082 -0.036058143 0.08732366 -0.017562402 -0.0056215217 0.05329169
0.025548138 0.07675739 0.029085252 0.005967479 0.14874248 0.1360997 -0.13149 -0.13331139
0.02409818 0.12182707 -0.017686768 0.042755406 0.13513204 -0.03341647 0.025388505 -0.12022022
-0.1352363 -0.053002313 -0.05169163 -0.14997497 -0.015899684 0.05480058 0.13044055 -0.13859098
0.017518817 0.108586624 -0.027028952 0.14792354 0.06138622 0.16220978 -0.11098018 0.042957503
-0.103882916 -0.10240349 0.11550918 0.14955966 -0.087471664 0.107389905 0.08505993 -0.038368464
0.128394 -0.010212329 0.1515318 -0.15703908 0.034092005 0.016597278 -0.082561485 0.09132328
00000000: 7604 91bd 9c5d ca3c 1e91 4b3c 99ad edbc
00000010: 5fba b23d 91fe 50bd 3e36 fcbc 6505 c63d
00000020: 5ba9 213e c282 71bd 59ff ac3d eb59 073d
00000030: 1d63 1ebe 93ea d93d 40f2 0dbe 5141 3dbd
00000040: a973 18bc 556f 68bd c74b 223e 91e0 d13b
00000050: c20a 073e a079 fc3d 3f8d 903c afff 673d
00000060: 59d5 4c3c b752 a33c e0b6 acbd 8f36 cf3d
00000070: ce61 5dbd 1a11 1b3e 2492 253e 644c 5d3d
00000080: 551c d93d 1f69 8fbd f793 243e a99a 9dbc
00000090: 83cc e4bd ea0e e2bd 8069 75bd 6a45 ffbb
000000a0: ac93 d13d c438 c63d ad3d b3bb 91ac 093e
000000b0: b6e1 1abe c648 91bb 71c1 1d3e adf1 543c
000000c0: fd5c 043e cacd b0bd 432b 96bc 493b 6c3d
000000d0: c9c2 71bd d778 bbbc dedb 6a3d e2d7 083e
000000e0: b727 06be 3011 e3bd 47ed 2f3d 4722 c1bd
000000f0: e240 02be a8ed fcbd 6d34 b03b 0113 e8bd
00000100: 0481 f03d 0d0c b33c 6126 bbbd 6689 d1bd
00000110: 406e 0bbe 1527 b03d fcfc 55bc 970d 8dbd
00000120: 1ca5 0d3e 90a5 d83d 3d12 143e b4b1 13bd
00000130: bfd6 b23d 07df 8fbc be34 b8bb 6348 5a3d
00000140: 544a d13c fa32 9d3d 3244 ee3c d88a c33b
00000150: f34f 183e b85d 0b3e 51a5 06be c882 08be
00000160: 8c69 c53c 7980 f93d d7e3 90bc 4b20 2f3d
00000170: 0e60 0a3e b5df 08bd 8efb cf3c 0536 f6bd
00000180: 627b 0abe f418 59bd 9aba 53bd 0a93 19be
00000190: 0e40 82bc 9376 603d 3592 053e cbea 0dbe
000001a0: 9f83 8f3c aa62 de3d d26b ddbc 4579 173e
000001b0: 1e70 7b3d 521a 263e 9449 e3bd 35f4 2f3d
000001c0: 91c0 d4bd ecb8 d1bd 1490 ec3d 2b26 193e
000001d0: 5824 b3bd 3def db3d e733 ae3d 4028 1dbd
000001e0: b779 033e 9d51 27bc 272b 1b3e dace 20be
000001f0: 0fa4 0b3d 04f7 873c ff15 a9bd b307 bb3d

bn1.weight f4 [128]
0.91790044 1.1031815 0.934828 1.0363398 1.0161257 1.1369575 0.9770698 1.0363882
0.92245036 1.0387664 0.9940944 1.0806874 1.1791443 0.92685914 0.94870734 1.2117043
1.3084048 0.9984932 1.2326753 1.4942404 1.0097098 0.9846636 1.2045107 1.1592239
0.9978456 0.87508976 0.9846362 0.9835977 1.0417988 0.9838584 1.0640001 1.049901
0.975211 0.9900257 0.9775768 1.0070871 0.9768845 1.0065058 1.0458729 1.012365
1.0133077 1.1185442 1.0062596 0.98668534 0.9987525 1.0215106 1.0679442 1.0757024
0.90369624 1.0920179 1.0013325 1.0518309 1.0319071 0.9427165 0.99467754 0.94150674
0.94504344 1.0743643 0.94672996 0.9809396 0.9989744 0.9700272 1.0048779 1.0065706
0.93245447 0.98567647 1.3547809 0.9703374 1.1281178 1.0334555 0.9749034 0.9838177
0.9265143 0.9398377 0.96250296 1.2317879 0.99998075 1.022264 0.95438755 0.95005995
0.98447686 1.0369604 1.0082517 1.0161822 1.0647737 0.94071865 1.222223 0.9708108
1.0069206 1.0654634 1.1010807 0.8747544 0.99378943 1.0364242 0.9651736 0.9904241
1.0213436 0.9882001 0.93820316 0.9779532 1.0820743 1.0281584 1.1441139 1.1055672
1.2299827 1.0146619 0.990555 1.3446709 1.1054261 1.1007898 1.0466702 1.0882243
0.97654486 0.9795589 0.9857309 0.98192745 1.0818344 0.96285933 1.1333251 1.0046512
1.0586159 0.98422235 0.96072364 1.014268 0.978908 0.9522442 0.9704261 1.0138228
00000000: 86fb 6a3f 0d35 8d3f e350 6f3f c8a6 843f
00000010: 6810 823f d387 913f 3f21 7a3f 5ea8 843f
00000020: b525 6c3f 4cf6 843f f87c 7e3f f753 8a3f
00000030: 33ee 963f a446 6d3f 7cde 723f 2019 9b3f
00000040: cf79 a73f 409d 7f3f 4ec8 9d3f 4543 bf3f
00000050: 2c3e 813f ea12 7c3f 682d 9a3f 7361 943f
00000060: cf72 7f3f e205 603f 1e11 7c3f 0fcd 7b3f
00000070: aa59 853f 25de 7b3f 2831 883f 2863 863f
00000080: 6ea7 793f 5372 7d3f 7942 7a3f 3be8 803f
00000090: 1a15 7a3f 2fd5 803f 2adf 853f 2d95 813f
000000a0: 11b4 813f 752c 8f3f 1dcd 803f 6997 7c3f
000000b0: 3eae 7f3f dcc0 823f 65b2 883f 9eb0 893f
000000c0: a358 673f 3ec7 8b3f aa2b 803f 65a2 863f
000000d0: 8815 843f de55 713f 30a3 7e3f 9606 713f
000000e0: 5eee 713f c584 893f e55c 723f dc1e 7b3f
000000f0: c9bc 7f3f b453 783f d79f 803f 4ed7 803f
00000100: 56b5 6e3f 4b55 7c3f 7669 ad3f 0868 783f
00000110: 2a66 903f 4548 843f 4593 793f 7adb 7b3f
00000120: 0b30 6d3f 3499 703f 9866 763f 3aab 9d3f
00000130: bdfe 7f3f 8cd9 823f be52 743f 2137 733f
00000140: ad06 7c3f 1ebb 843f 640e 813f 4212 823f
00000150: 814a 883f f0d2 703f ce71 9c3f 0e87 783f
00000160: c6e2 803f 1b61 883f 36f0 8c3f e8ef 5f3f
00000170: fc68 7e3f 8ca9 843f 9e15 773f 6f8c 7d3f
00000180: 63bb 823f affa 7c3f 152e 703f 245b 7a3f
00000190: 6981 8a3f b29a 833f 5372 923f 3a83 8d3f
000001a0: 1370 9d3f 71e0 813f 0395 7d3f 2d1e ac3f
000001b0: 9a7e 8d3f aee6 8c3f 4af9 853f ef4a 8b3f
000001c0: d8fe 793f 5fc4 7a3f dc58 7c3f 995f 7b3f
000001d0: 8d79 8a3f f37d 763f cc10 913f 6998 803f
000001e0: ba80 873f fff5 7b3f fcf1 753f 89d3 813f
000001f0: b799 7a3f 47c6 733f d86d 783f f2c4 813f

bn1.bias f4 [128]
-0.11229234 -0.015156064 -0.06707508 -0.021110648 -0.061290503 -0.1162615 -0.01196096 -0.0058506853
-0.113844834 -0.0006282492 -0.15292424 -0.1311182 -0.13241492 -0.19777393 -0.03665654 -0.09413439
-0.22705343 -0.1377519 -0.11853419 -0.13007484 -0.03569008 -0.014778482 -0.10909816 0.00592515
-0.02871516 -0.049626525 -0.010342868 -0.010784185 0.025862452 -0.26530626 -0.077320315 -0.056066692
-0.013186194 -0.0013932078 -0.08281009 -0.017457187 -0.08917862 -0.0042038434 -0.0811294 -0.09882517
-0.08062466 -0.07951284 -0.1021407 -0.09187651 -0.1336638 -0.12729876 -0.008829051 -0.061739147
-0.15851039 -0.13177004 -0.034950245 0.015490065 -0.15530598 -0.14616336 -0.024164898 0.031720378
-0.09979339 -0.07670486 -0.1624821 -0.08616885 -0.04563789 -0.06661187 -0.083753526 -0.036746137
-0.11278813 -0.059259042 -0.1263606 -0.18108344 -0.113456845 -0.062631264 -0.063843764 -0.27075142
-0.13597201 -0.115149856 -0.07559215 -0.12827773 -0.050403457 -0.02926754 -0.0391916 -0.045680698
-0.02553811 -0.08230603 -0.01339668 0.0034921456 -0.04517912 -0.07114985 -0.2722011 -0.07783438
-0.10689938 -0.16590223 -0.21205139 -0.17655335 -0.0804325 -0.08709836 0.09669515 -0.07612722
-0.11796088 -0.10674822 -0.09522952 -0.020100312 -0.116855666 0.055369858 -0.18835127 -0.044771794
-0.013063953 -0.086989 -0.07449863 -0.25958437 -0.1129067 -0.1525499 -0.06436766 -0.043967474
-0.06191086 -0.0881974 -0.041681413 -0.13727571 -0.18419585 -0.11940229 -0.109683625 -0.15253891
-0.0038574878 -0.031116538 -0.12681268 -0.038356103 -0.039144475 -0.077617355 -0.10521671 -0.053137366
00000000: 87f9 e5bd 2451 78bc a95e 89bd 3df0 acbc
00000010: c00b 7bbd 821a eebd e7f7 43bc 1bb7 bfbb
00000020: 7b27 e9bd 17b1 24ba 2c98 1cbe d943 06be
00000030: c797 07be 4085 4abe 2b25 16bd 88c9 c0bd
00000040: b280 68be d60e 0dbe 0ec2 f2bd 5732 05be
00000050: c32f 12bd 7221 72bc db6e dfbd c327 c23b
00000060: 0e3c ebbc 2f45 4bbd 2275 29bc 26b0 30bc
00000070: 7edd d33c 39d6 87be 1d5a 9ebd 30a6 65bd
00000080: e80a 58bc 4c9c b6ba 5698 a9bd 6002 8fbc
00000090: 48a3 b6bd 65c0 89bb 2c27 a6bd da64 cabd
000000a0: 8b1e a5bd a1d7 a2bd 252f d1bd c029 bcbd
000000b0: 2adf 08be 9b5a 02be b9a7 10bc 30e2 7cbd
000000c0: 8c50 22be baee 06be fd27 0fbd 0bca 7d3c
000000d0: 8808 1fbe d9ab 15be 77f5 c5bc 3aed 013d
000000e0: 7a60 ccbd 7017 9dbd b561 26be 4b79 b0bd
000000f0: ccee 3abd ce6b 88bd f886 abbd 1e83 16bd
00000100: 77fd e6bd 9cb9 72bd ac64 01be f06d 39be
00000110: 105c e8bd d244 80bd 85c0 82bd ee9f 8abe
00000120: 3f3c 0bbe b0d3 ebbd 0fd0 9abd 3d5b 03be
00000130: db73 4ebd 7bc2 efbc 5f87 20bd af1b 3bbd
00000140: 4c35 d1bc 1090 a8bd c07d 5bbc 7bdc 643b
00000150: be0d 39bd 03b7 91bd f15d 8bbe a267 9fbd
00000160: 10ee dabd 46e2 29be 0024 59be 67ca 34be
00000170: cbb9 a4bd a060 b2bd 1b08 c63d 97e8 9bbd
00000180: 7995 f1bd d09e dabd b207 c3bd 69a9 a4bc
00000190: 0652 efbd 81cb 623d 28df 40be a162 37bd
000001a0: 310a 56bc 4a27 b2bd bd92 98bd 3ee8 84be
000001b0: a13b e7bd 0a36 1cbe 31d3 83bd 3d17 34bd
000001c0: 3e96 7dbd d7a0 b4bd 21ba 2abd 0192 0cbe
000001d0: d69d 3cbe 3089 f4bd cfa1 e0bd 2933 1cbe
000001e0: e8cd 7cbb 1ce8 febc 2fdb 01be 4a1b 1dbd
000001f0: f555 20bd d9f5 9ebd dc7b d7bd 91a6 59bd

bn1.running_mean f4 [128]
-0.071169116 0.023054989 0.011737032 -0.02814753 0.08911309 -0.048893124 -0.026169538 0.10022625
0.15788908 -0.06292202 0.09111033 0.035293262 -0.15706357 0.105721116 -0.13398048 -0.04667959
-0.010521887 -0.064855225 0.15447448 0.00701217 0.13342929 0.120273955 0.016544605 0.05243622
0.01470778 0.013609618 -0.07995761 0.10286076 -0.06479912 0.154212 0.16611904 0.060305934
0.10301119 -0.07900584 0.16400349 -0.012007638 -0.10752978 -0.111350246 -0.06864748 -0.0113336425
0.10671789 0.100296624 -0.01096682 0.13906416 -0.14903645 -0.00883385 0.15162133 0.010880586
0.1313078 -0.08754095 -0.015640885 0.055831473 -0.0643603 -0.024649909 0.052610263 0.13116033
-0.13736947 -0.11101656 0.04328601 -0.099029124 -0.12759967 -0.118663415 0.0036752236 -0.116921894
0.11614583 0.022808237 -0.092288285 -0.094880626 -0.13238223 0.08951352 -0.012287883 -0.061399806
0.13544233 0.10572545 0.14920315 -0.03717408 0.08834286 -0.02168924 -0.011919128 0.05332381
0.030331574 0.084581986 0.030840185 0.0061807213 0.14967467 0.13973525 -0.13153866 -0.12475134
0.021944568 0.12254924 -0.019503059 0.036565915 0.13238138 -0.031117879 0.021184139 -0.11710346
-0.13939022 -0.055432916 -0.055371024 -0.14389846 -0.011356704 0.05288215 0.13446242 -0.14462394
0.01748071 0.1083496 -0.020927133 0.14855446 0.061510883 0.16562171 -0.11062307 0.047494184
-0.0995048 -0.10580984 0.11344526 0.15120248 -0.083612815 0.10876848 0.08841525 -0.04415105
0.13254975 -0.01572507 0.15748174 -0.1598103 0.031014327 0.020725172 -0.082756646 0.09391031
00000000: 1dc1 91bd d1dd bc3c ae4c 403c a695 e6bc
00000010: ec80 b63d 2844 48bd 8061 d6bc 6c43 cd3d
00000020: adad 213e 43dd 80bd 0d98 ba3d ab8f 103d
00000030: 46d5 20be 5084 d83d 2e32 09be 1933 3fbd
00000040: fe63 2cbc d1d2 84bd 8f2e 1e3e 58c6 e53b
00000050: b0a1 083e 3152 f63d 8d88 873c 5dc7 563d
00000060: e7f8 703c e0fa 5e3c d1c0 a3bd aaa8 d23d
00000070: 67b5 84bd c0e9 1d3e 1c1b 2a3e 5b03 773d
00000080: 88f7 d23d d0cd a1bd 88f0 273e afbb 44bc
00000090: 9338 dcbd 990b e4bd 0d97 8cbd beb0 39bc
000000a0: e98e da3d 5168 cd3d 2dae 33bc d666 0e3e
000000b0: 039d 18be dabb 10bc 9f42 1b3e 7c44 323c
000000c0: 8d75 063e ab48 b3bd 5021 80bc 8baf 643d
000000d0: 55cf 83bd 9bee c9bc dc7d 573d e54e 063e
000000e0: 95aa 0cbe a65c e3bd ac4c 313d c8cf cabd
000000f0: 7da9 02be ce05 f3bd 05dc 703b bf74 efbd
00000100: dddd ed3d 57d8 ba3c a401 bdbd c650 c2bd
00000110: 358f 07be dd52 b73d 1e53 49bc 5d7e 7bbd
00000120: 65b1 0a3e 9686 d83d b6c8 183e d943 18bd
00000130: 1aed b43d a2ad b1bc 7248 43bc 116a 5a3d
00000140: ec79 f83c 5239 ad3d 8ea4 fc3c a687 ca3b
00000150: 5144 193e c216 0f3e 12b2 06be a17d ffbd
00000160: 18c5 b33c 19fb fa3d e1c4 9fbc 24c6 153d
00000170: fc8e 073e ecea febc 5c8a ad3c f0d3 efbd
00000180: 4fbc 0ebe a00d 63bd bacc 62bd 1e5a 13be
00000190: 7811 3abc f49a 583d 84b0 093e 4c18 14be
000001a0: b533 8f3c 65e6 dd3d 616f abbc a91e 183e
000001b0: d6f2 7b3d bd98 293e 598e e2bd 4389 423d
000001c0: 2cc9 cbbd d4b2 d8bd fd55 e83d d3d4 1a3e
000001d0: 323d abbd 02c2 de3d 0e13 b53d bbd7 34bd
000001e0: 1fbb 073e ddd1 80bc e542 213e 50a5 23be
000001f0: c211 fe3c d6c7 a93c 517c a9bd 0c54 c03d

bn1.running_var f4 [128]
0.3362878 0.075270034 0.17392875 0.29202875 0.31396168 0.13394918 0.6678093 0.14629811
0.4464249 0.17052352 0.27853683 0.122215435 0.07058244 0.5886214 0.14629902 0.07333986
0.12668891 0.17087932 0.10465897 0.07072107 0.2474092 0.11418333 0.10683259 0.1653916
0.26532343 0.5411358 0.18897952 0.32349235 0.2277308 0.18283084 0.12238707 0.32279518
0.18674198 0.44512466 0.22635424 0.25105405 0.39798325 0.16023056 0.2054312 0.17979744
0.11253822 0.20209734 0.33907893 0.62031853 0.2090216 0.23973525 0.11294863 0.18090697
0.32242253 0.36896545 0.32378775 0.09574387 0.1489507 0.4202724 0.2352624 0.37470442
0.20220292 0.3527882 0.13672769 0.22902687 0.45110422 0.18216991 0.08093896 0.28995806
0.20758675 0.2445143 0.055143993 0.24656384 0.09404372 0.12612377 0.10354331 0.1889642
0.36368755 0.38350478 0.24423751 0.16092816 0.32967776 0.20984697 0.24356933 0.24611828
0.26521325 0.23951708 1.3643225 0.17465751 0.3434259 0.63658947 0.055483412 0.16853343
0.3060764 0.20861457 0.32989854 1.1685201 0.123911 0.11993833 0.18663253 0.3030008
0.28116378 0.24115282 0.18674271 0.29000863 0.21015508 0.112500854 0.07920275 0.12198803
0.07618213 0.23857084 0.2804029 0.11339883 0.12788813 0.14021513 0.1284423 0.15982866
0.15678209 0.3110852 0.12455616 0.2180711 0.2552294 0.34758973 0.14150715 0.1002135
0.34246904 0.3566897 0.4101644 0.15135881 0.9511191 0.332596 0.56354517 0.095309734
00000000: ea2d ac3e 2d27 9a3d 611a 323e cb84 953e
00000010: 96bf a03e f929 093e 8df5 2a3f 2ccf 153e
00000020: ce91 e43e b89d 2e3e 619c 8e3e 164c fa3d
00000030: 878d 903d e4af 163f 69cf 153e 3533 963d
00000040: bdba 013e fdfa 2e3e 7157 d63d 35d6 903d
00000050: d658 7d3e f3d8 e93d 0ccb da3d 6a5c 293e
00000060: 79d8 873e e087 0a3f d983 413e caa0 a53e
00000070: 4332 693e 0238 3b3e 12a6 fa3d 6945 a53e
00000080: 4a39 3f3e 61e7 e33e 68c9 673e 288a 803e
00000090: 76c4 cb3e 7b13 243e 8e5c 523e d21c 383e
000000a0: 707a e63d 9bf2 4e3e c19b ad3e 32cd 1e3f
000000b0: c209 563e 287d 753e 9c51 e73d ad3f 393e
000000c0: 9114 a53e 0ae9 bc3e 82c7 a53e 5d15 c43d
000000d0: 8886 183e f22d d73e a0e8 703e 42d9 bf3e
000000e0: 480e 4f3e a8a0 b43e 5802 0c3e 0586 6a3e
000000f0: 22f7 e63e c08a 3a3e 53c3 a53d 6275 943e
00000100: 9f91 543e f561 7a3e abde 613d 3b7b 7c3e
00000110: fe99 c03d 9726 013e 840e d43d d57f 413e
00000120: 4135 ba3e bd5a c43e 6619 7a3e 5aca 243e
00000130: 86cb a83e 20e2 563e 3d6a 793e 6e06 7c3e
00000140: 08ca 873e f743 753e 1fa2 ae3f 6bd9 323e
00000150: 85d5 af3e 87f7 223f 9342 633d 0794 2c3e
00000160: 0cb6 9c3e 0f9f 553e 76e8 a83e 1192 953f
00000170: 0dc5 fd3d 3aa2 f53d 991c 3f3e ec22 9b3e
00000180: b3f4 8f3e c4f0 763e 7b39 3f3e 037c 943e
00000190: e532 573e d966 e63d 0d35 a23d dcd4 f93d
000001a0: 6005 9c3d ea4b 743e f890 8f3e a53d e83d
000001b0: 1bf5 023e 8e94 0f3e 6186 033e 20aa 233e
000001c0: 7c8b 203e 8f46 9f3e 4d17 ff3d 084e 5f3e
000001d0: 6ead 823e 48f7 b13e 40e7 103e bc3c cd3d
000001e0: 1a58 af3e 08a0 b63e 1101 d23e cefd 1a3e
000001f0: 8b7c 733f 064a aa3e 7f44 103f c031 c33d

fc2.weight f4 [64, 128]
-0.08198919 0.006764772 0.017893597 -0.056451276 0.00091303117 -0.1328087 -0.051261354 -0.1250235
-0.017721381 0.05359061 -0.015647119 -0.0030093696 0.060332302 -0.068624 -0.06841852 0.028734606
0.11452444 -0.03803891 -0.037744053 0.022337586 -0.056108076 0.003511524 0.04345427 0.04082539
0.028828055 -0.05486671 0.01728078 0.024813047 0.030518275 0.01486634 -0.10767996 -0.08927546
0.08212485 -0.015048763 -0.04266671 -0.079095945 -0.014179002 -0.04030642 -0.049479313 -0.024572374
0.011540663 -0.08153851 -0.012633071 -0.07875343 -0.032609522 -0.06666463 0.009316437 0.10808192
-0.060678218 -0.019521054 -0.06207854 -0.0025100352 0.054293618 0.0127068125 0.06699335 0.08469579
-0.05627777 0.083538584 0.08470084 -0.01802721 0.02141055 -0.00387861 0.074215665 -0.022736374
0.05690249 0.07186299 0.008999649 0.042588443 -0.12811892 0.07579041 -0.030065216 0.007874993
-0.03247576 0.0014515433 0.054192517 0.06372589 -0.05625723 0.03532563 -0.07384762 0.10954338
0.046871584 -0.02273267 -0.055496246 -0.019734833 -0.017889047 -0.027313018 0.13154314 -0.022906743
-0.07942582 -0.06522357 0.04301833 0.005953425 0.07216729 -0.112841725 0.08387053 -0.08490381
-0.025960542 0.055630464 0.011708843 -0.01895158 -0.091277145 0.06341758 -0.09107249 0.09950029
0.055417694 0.01714943 0.012071775 0.13205017 -0.073913306 -0.120440565 0.06814645 0.06386685
-0.018847115 0.032249488 -0.029171327 -0.055678166 -0.063048236 -0.065925755 -0.052839696 -0.014220022
-0.17260617 0.00887807 0.044667765 -0.031354804 -0.061268378 -0.03879353 -0.029527452 -0.04132765
-0.000922873 -0.015388846 0.013542421 0.04664078 -0.06921358 -0.027437413 0.038666416 0.004243751
-0.020213997 -0.050292533 -0.0059611844 -0.021409309 -0.112492874 -0.05580148 -0.051197402 -0.091033444
-0.13983151 -0.06899245 -0.026398443 -0.16302732 -0.00628273 -0.057920225 0.032917812 -0.05758305
0.024857637 0.029447533 0.08372279 -0.084194176 -0.050121166 0.035821512 -0.0019201185 0.054736014
0.04865897 -0.04754406 -0.06966044 -0.03578627 0.07472269 0.026428686 -0.026478758 0.077405006
-0.0817434 0.035294108 -0.030936945 -0.046015084 -0.045231506 0.029913943 0.0003785155 -0.053438943
-0.03156259 0.0049384558 0.05479951 -0.028633121 -0.0553247 -0.062800765 -0.06681364 -0.088924855
-0.079748765 -0.08554816 0.025674671 -0.044693884 0.03227903 -0.023245307 -0.016749095 -0.01573881
-0.12680672 0.017783921 -0.042580184 -0.07498323 0.026579425 -0.062229373 -0.0964472 -0.09172542
0.02198762 -0.097921096 0.033336546 -0.08349033 0.077907465 -0.030212348 -0.049573347 0.0438331
0.037095148 -0.054146774 -0.04832126 0.010068682 -0.026002707 0.014129186 -0.1305522 -0.084392466
-0.06921855 -0.06428429 0.003429119 0.043534763 -0.045793537 -0.067974195 -0.09817129 0.052596547
0.05407955 0.0053740935 -0.061130013 0.03893851 -0.05593961 -0.11183548 0.057027955 -0.02120091
0.0034035905 -0.00052436476 0.012117545 -0.022964817 -0.013673774 0.090775415 -0.0074252365 0.04173734
0.013370478 0.053832237 0.0047227507 -0.10166507 0.08344804 0.06517688 0.026407804 0.012124807
-0.05899941 -0.028069697 0.0362935 -0.080264986 0.08133417 0.05362045 -0.029713131 0.06710543
00000000: f3e9 a7bd 05ab dd3b 9895 923c 7439 67bd
00000010: 7c58 6f3a 01ff 07be 6df7 51bd 2906 00be
00000020: 6e2c 91bc d481 5b3d 632e 80bc d838 45bb
00000030: 011f 773d bd8a 8cbd 021f 8cbd d664 eb3c
00000040: ca8b ea3d b0ce 1bbd 8299 1abd 50fd b63c
00000050: 95d1 65bd 9921 663b 1bfd 313d 8638 273d
00000060: d028 ec3c eabb 60bd 6c90 8d3c bb44 cb3c
00000070: 7601 fa3c f391 733c 5087 dcbd 0dd6 b6bd
00000080: 1331 a83d 168f 76bc 4ac3 2ebd 0efd a1bd
00000090: 0b4f 68bc 5818 25bd d2aa 4abd 014c c9bc
000000a0: 0d15 3d3c aafd a6bd f1fa 4ebc 7a49 a1bd
000000b0: 9091 05bd 7787 88bd f8a3 183c 0e5a dd3d
000000c0: b989 78bd 9eea 9fbc 1146 7ebd 677f 24bb
000000d0: fc62 5e3d 3c30 503c cf33 893d fd74 ad3d
000000e0: 8583 66bd 4716 ab3d a277 ad3d cdad 93bc
000000f0: 2e65 af3c 4730 7ebb 62fe 973d a241 babc
00000100: 9612 693d e72c 933d 4473 133c 3871 2e3d
00000110: 9b31 03be 0138 9b3d 544b f6bc 1d06 013c
00000120: 4d05 05bd b641 be3a f9f8 5d3d b882 823d
00000130: fb6d 66bd 9cb1 103d 6c3d 97bd 4858 e03d
00000140: 6bfc 3f3d dd39 babc 0850 63bd f2aa a1bc
00000150: 0d8c 92bc 8dbf dfbc 3fb3 063e eca6 bbbc
00000160: 01aa a2bd ef93 85bd fd33 303d f314 c33b
00000170: 72cc 933d 9019 e7bd 50c4 ab3d 0ce2 adbd
00000180: 34ab d4bc c5dc 633d 72d6 3f3c 5840 9bbc
00000190: 83ef babd 14e1 813d 3784 babd cfc6 cb3d
000001a0: aafd 623d f67c 8c3c b2c8 453c 2938 073e
000001b0: dc5f 97bd 8ba9 f6bd 5e90 8b3d a0cc 823d
000001c0: 4465 9abc 0a18 043d b5f8 eebc ca0e 64bd
000001d0: 6f1f 81bd 1504 87bd 706e 58bd 18fb 68bc
000001e0: acbf 30be 5375 113c 8cf5 363d e56d 00bd
000001f0: 8df4 7abd f7e5 1ebd 8ee3 f1bc 2f47 29bd
00000200: f5ec 71ba 8021 7cbc 08e1 5d3c 670a 3f3d
00000210: d9bf 8dbd 6dc4 e0bc ad60 1e3d 2a0f 8b3b
00000220: d397 a5bc 8bff 4dbd 0a56 c3bb 9362 afbc
00000230: aa62 e6bd 1890 64bd 5eb4 51bd be6f babd
00000240: fe2f 0fbe ea4b 8dbd 8c41 d8bc a2f0 26be
00000250: 5cdf cdbb c23d 6dbd d4d4 063d 34dc 6bbd
00000260: 3ea2 cb3c f43b f13c db76 ab3d ff6d acbd
00000270: da4b 4dbd 94b9 123d 7cac fbba df32 603d
00000280: a14e 473d 8fbd 42bd 22aa 8ebd a094 12bd
00000290: 3608 993d f980 d83c fbe9 d8bc 8486 9e3d
000002a0: 1569 a7bd 8e90 103d 7a6f fdbc 507a 3cbd
000002b0: ac44 39bd 160e f53c 7e73 c639 cbe2 5abd
000002c0: c647 01bd c5d2 a13b 7375 603d 0290 eabc
000002d0: 279c 62bd b09d 80bd 97d5 88bd 3c1e b6bd
000002e0: 5253 a3bd e033 afbd b053 d23c ef10 37bd
000002f0: 0437 043d f16c bebc 6635 89bc adee 80bc
00000300: 9fd9 01be 96af 913c 8f68 2ebd cf90 99bd
00000310: 18bd d93c 3ae4 7ebd 1c86 c5bd 89da bbbd
00000320: 621f b43c db8a c8bd e78b 083d fafc aabd
00000330: f38d 9f3d e37f f7bc 6c0d 4bbd 568a 333d
00000340: 15f1 173d 02c9 5dbd 83ec 45bd 1df7 243c
00000350: a103 d5bc 1a7e 673c 7aaf 05be f5d5 acbd
00000360: 75c2 8dbd 7ba7 83bd 12bb 603b 8251 323d
00000370: 0192 3bbd 0e36 8bbd 070e c9bd 7a6f 573d
00000380: 8582 5d3d 2a19 b03b 7763 7abd fd7d 1f3d
00000390: ef20 65bd 000a e5bd 2596 693d 88ad adbc
000003a0: c60e 5f3b 8675 09ba ab88 463c b620 bcbc
000003b0: f707 60bc 76e8 b93d 664f f3bb c6f4 2a3d
000003c0: d90f 5b3c 317f 5c3d 4ec1 9a3b c735 d0bd
000003d0: cee6 aa3d 757b 853d 2e55 d83c 20a7 463c
000003e0: 5ea9 71bd 6cf2 e5bc 7ea8 143d f861 a4bd
000003f0: 8892 a63d 1ea1 5b3d f468 f3bc 926e 893d

fc2.bias f4 [64]
-0.025681106 -0.032747082 0.01119631 0.075074635 0.03649069 0.0048516146 0.0028316316 -0.042072482
-0.03894825 -9.994612e-05 0.05084807 0.081791386 -0.07263289 0.023400309 0.007059491 0.03020433
0.06186358 -0.07179647 0.04406041 -0.0065301494 -0.059137978 -0.040277347 -0.032029815 0.016243782
0.030517297 0.013609886 0.04953602 -0.074166566 -0.0063631865 -0.011546798 -0.08801442 0.015824486
0.07753119 -0.036894724 -0.018279407 0.07364919 0.022337502 -0.029996818 -0.06725868 0.03635939
0.05916554 -0.06818851 0.0047909576 -0.08534361 -0.08826156 0.069196135 0.002486567 -0.01957239
-0.060702704 0.07113802 -0.010262766 -0.07185871 -0.08847389 -0.05288572 0.005167884 0.030574927
0.050744034 -0.024696968 -0.034267895 0.054679003 0.055308238 0.037784938 0.033199035 0.023622397
00000000: 2f61 d2bc ce21 06bd ba70 373c bbc0 993d
00000010: 4377 153d 4bfa 9e3b e592 393b 3254 2cbd
00000020: 3388 1fbd 2a9a d1b8 1146 503d 3e82 a73d
00000030: 8dc0 94bd 01b2 bf3c 4d53 e73b 126f f73c
00000040: aa64 7d3d 070a 93bd b078 343d ddfa d5bb
00000050: aa3a 72bd dcf9 24bd b231 03bd ae11 853c
00000060: 69ff f93c 00fc 5e3c 48e6 4a3d a4e4 97bd
00000070: 4782 d0bb c82e 3dbc e740 b4bd 5aa2 813c
00000080: acc8 9e3d ec1e 17bd b2be 95bc 63d5 963d
00000090: 23fd b63c e3bb f5bc ebbe 89bd 95ed 143d
000000a0: 9157 723d 6ba6 8bbd 77fd 9c3b a1c8 aebd
000000b0: 7ac2 b4bd b4b6 8d3d acf5 223b 4756 a0bc
000000c0: 66a3 78bd cfb0 913d 2925 28bc a92a 93bd
000000d0: cd31 b5bd b29e 58bd 5a57 a93b 4578 fa3c
000000e0: fad8 4f3d 4c51 cabc 7e5c 0cbd 17f7 5f3d
000000f0: e48a 623d 61c4 1a3d b6fb 073d c283 c13c

bn2.weight f4 [64]
1.0121324 0.9929527 1.1592889 0.9641324 0.9597486 0.9857963 1.0585382 0.9793139
1.1503036 1.0326486 1.0077341 1.0153172 0.9931195 0.9856905 1.0009295 0.99048525
1.0995735 1.0169764 1.0730076 1.0611117 1.0327957 1.0369171 0.92786705 0.97521514
1.0068113 1.0627792 1.0084895 0.97646224 0.99839175 0.9979448 1.0078222 1.0308975
0.9813852 0.98607564 1.097492 1.0263157 0.9999459 1.0082438 1.1144724 1.0288976
1.0373689 1.0903168 0.97067535 1.1504602 0.9830344 0.9250193 1.1224872 0.9756093
1.0839608 1.0337747 1.0665185 0.98219717 0.94485605 1.005861 1.1172894 0.9956445
0.99235654 1.0947341 1.0375061 0.9946134 1.0419745 1.0599875 1.18236 1.1022816
00000000: 8e8d 813f 2632 7e3f 9463 943f 62d1 763f
00000010: 16b2 753f 255d 7c3f 2e7e 873f 51b4 7a3f
00000020: 263d 933f d42d 843f 6efd 803f eaf5 813f
00000030: 143d 7e3f 3656 7c3f 751e 803f 7190 7d3f
00000040: d3be 8c3f 482c 823f 5058 893f 82d2 873f
00000050: a632 843f b3b9 843f b288 6d3f b3a7 793f
00000060: 31df 803f 2609 883f 2f16 813f 6ef9 793f
00000070: 9a96 7f3f 4f79 7f3f 5100 813f 73f4 833f
00000080: 0f3c 7b3f 746f 7c3f 9e7a 8c3f 505e 833f
00000090: 74fc 7f3f 220e 813f 08a7 8e3f ebb2 833f
000000a0: 81c8 843f 808f 8b3f 2e7e 783f 4842 933f
000000b0: 24a8 7b3f 11ce 6c3f a9ad 8f3f 88c1 793f
000000c0: 3abf 8a3f bb52 843f ae83 883f 4671 7b3f
000000d0: 16e2 713f 0ec0 803f 5703 8f3f 8fe2 7e3f
000000e0: 140b 7e3f 3f20 8c3f 00cd 843f fc9e 7e3f
000000f0: 6c5f 853f acad 873f 9357 973f 9017 8d3f

bn2.bias f4 [64]
-0.034657877 -0.13051242 -0.030549621 -0.061609104 0.01795928 0.05614671 -0.024070231 -0.052950367
0.012472221 -0.008339839 0.047072038 -0.0383846 0.02682816 -0.03989105 0.043688536 -0.11564475
-0.012589788 0.05746499 -0.4935916 0.012691093 0.0010980864 0.017991977 -0.13407671 -0.04185577
-0.006347493 -0.46974143 -0.12251645 0.013252114 -0.13193674 0.021560803 -0.05648485 -0.33278388
-0.12761459 -0.23444764 0.055438172 -0.24056377 -0.1086108 -0.391159 -0.3078408 -0.188716
0.05082247 -0.011232649 0.05376714 -0.15841542 -0.098464385 -0.0706613 -0.047689192 -0.015813265
0.05899922 0.03156926 0.026688509 -0.074568525 0.04252251 0.003413289 -0.22241734 -0.10743476
-0.08185028 -0.017995154 0.038005736 0.0038694309 -0.011754235 -0.0004800035 -0.015359149 0.004453929
00000000: 6bf5 0dbd 0ca5 05be 3343 fabc d459 7cbd
00000010: 571f 933c 18fa 653d ef2e c5bc 7ce2 58bd
00000020: 4958 4c3c d2a3 08bc 9cce 403d 2c39 1dbd
00000030: bbc6 db3c cc64 23bd c0f2 323d 28d7 ecbd
00000040: 6645 4ebc 6960 6b3d 0ab8 fcbe 4dee 4f3c
00000050: aaed 8f3a e963 933c 684b 09be f570 2bbd
00000060: a1fe cfbb f381 f0be e8e9 fabd 651f 593c
00000070: 6d1a 07be 48a0 b03c a85c 67bd a662 aabe
00000080: 66ad 02be 0b13 70be 2313 633d 5956 76be
00000090: 576f debd fe45 c8be 4f9d 9dbe c43e 41be
000000a0: 392b 503d 2509 38bc ef3a 5c3d a737 22be
000000b0: b2a7 c9bd dfb6 90bd be55 43bd d28a 81bc
000000c0: 2ba9 713d c54e 013d dca1 da3c 62b7 98bd
000000d0: 152c 2e3d 7db1 5f3b 5fc1 63be c106 dcbd
000000e0: 1fa1 a7bd 936a 93bc e7ab 1b3d 4796 7d3b
000000f0: d694 40bc fba8 fbb9 f1a4 7bbc 44f2 913b

bn2.running_mean f4 [64]
-0.1780039 -0.43519348 -0.49414518 0.271777 -0.027507367 -0.077632435 -0.45181954 0.05890964
0.086283825 -0.29988575 0.050715484 -0.25365305 0.019598836 0.35980266 -0.052790683 0.1581109
-0.1119003 -0.080065556 -0.5240279 -0.3832954 -0.15009354 0.07189762 -0.10424944 -0.07778974
-0.10726372 -0.5693185 -0.03482496 -0.09592156 -0.43066767 0.18465093 -0.3619427 -0.530466
0.29775712 -0.48285258 -0.0010659039 -0.49999055 -0.08659821 -0.5087986 -0.6180356 -0.4299581
0.25349867 -0.3407652 -0.18760638 -0.46575585 -0.49804202 -0.12242543 -0.23458962 -0.26589125
-0.09156947 0.035331897 -0.22129329 -0.404716 -0.06769806 -0.39131716 -0.5593658 -0.32370055
-0.031829007 -0.21078809 -0.07346655 0.19555968 -0.30546582 0.03481115 0.025856012 -0.4053528
00000000: a846 36be aed1 debe 9900 fdbe 5b26 8b3e
00000010: 2157 e1bc c1fd 9ebd e454 e7be 3c4b 713d
00000020: 93b5 b03d a08a 99be 0abb 4f3d d0de 81be
00000030: bd8d a03c 0e38 b83e 0b3b 58bd d3e7 213e
00000040: fc2b e5bd 69f9 a3bd b126 06bf 4b3f c4be
00000050: 1fb2 19be 0f3f 933d bb80 d5bd 3a50 9fbd
00000060: 15ad dbbd dbbe 11bf 9ea4 0ebd 8672 c4bd
00000070: 7980 dcbe 2215 3d3e 8e50 b9be 9fcc 07bf
00000080: 9f73 983e 7438 f7be cdb5 8bba c3fe ffbe
00000090: 675a b1bd a040 02bf 9537 1ebf 7823 dcbe
000000a0: 94ca 813e c778 aebe e31b 40be 8d77 eebe
000000b0: 5dff febe 2fba fabd 4338 70be e622 88be
000000c0: c688 bbbd 2eb8 103d b59a 62be f036 cfbe
000000d0: 48a5 8abd b95a c8be 9932 0fbf 14bc a5be
000000e0: 225f 02bd d5d8 57be a175 96bd cc40 483e
000000f0: 0466 9cbe 2396 0e3d fdcf d33c 678a cfbe

bn2.running_var f4 [64]
0.6705839 0.49250597 0.30790526 0.40737736 0.5233208 0.62508553 0.31710523 0.4506564
1.1078959 0.4955462 0.74584025 1.1495047 0.37332377 0.90382636 1.0006435 0.23899479
0.68031204 0.72997034 0.5388106 0.377088 0.7846088 0.46051323 0.2269955 0.25115642
0.63968587 0.58706427 0.47100395 0.49670184 0.57218045 0.54067355 0.35299414 0.70152676
0.90921277 0.40560314 0.52038395 0.77983177 0.33903903 0.46491256 0.5323005 0.80054694
0.8795039 1.0530703 0.50360835 1.0883151 0.67555386 0.4791711 0.9814058 0.6767917
0.8721734 0.6133764 0.4604371 0.41301933 0.5516481 0.39552766 0.75103974 0.53432065
0.42244744 0.8625277 0.5555595 0.5469155 0.5353458 0.7758246 0.9651379 0.33071467
00000000: 63ab 2b3f be29 fc3e c2a5 9d3e c493 d03e
00000010: 5af8 053f 9b05 203f 9e5b a23e 70bc e63e
00000020: 88cf 8d3f 3bb8 fd3e 63ef 3e3f f822 933f
00000030: 4b24 bf3e 2a61 673f 1615 803f 0dbb 743e
00000040: ee28 2e3f 56df 3a3f 7eef 093f ae11 c13e
00000050: 1fdc 483f 64c8 eb3e 8271 683e 9397 803e
00000060: 74c2 233f d849 163f 6e27 f13e b44f fe3e
00000070: 6b7a 123f 9569 0a3f a6bb b43e 4297 333f
00000080: 2bc2 683f 37ab cf3e e237 053f 0ea3 473f
00000090: 8696 ad3e 0509 ee3e d844 083f a5f0 4c3f
000000a0: 2b27 613f 02cb 863f 7aec 003f e94d 8b3f
000000b0: 19f1 2c3f ea55 f53e 693d 7b3f 3942 2d3f
000000c0: c246 5f3f 3c06 1d3f 69be eb3e 4577 d33e
000000d0: cf38 0d3f 9a82 ca3e 2444 403f 3dc9 083f
000000e0: 084b d83e 9ece 5c3f 2639 0e3f a702 0c3f
000000f0: 6c0c 093f 719c 463f 4713 773f 6f53 a93e

fc3.weight f4 [32, 64]
0.00501028 -0.11458661 0.054017268 -0.08905842 -0.026918976 -0.0651602 -0.085507065 -0.0910044
-0.17898043 -0.11795938 -0.03591657 0.005570852 -0.01984215 0.07909239 0.006944968 -0.03186161
-0.062609255 0.044103704 0.0733436 0.045766808 -0.021601383 0.013657378 0.054645345 0.06626434
-0.059022736 0.15315594 0.071290076 -0.03123989 -0.019810164 0.012677584 -0.031145677 0.036610175
-0.033793956 0.08471657 -0.16716865 0.07193125 -0.12820697 0.061199807 0.060731806 -0.09321543
-0.11885605 -0.19025667 -0.08290085 -0.14948247 -0.02757751 0.06890565 0.044350814 -0.04437467
-0.059024554 -0.047563184 0.02056896 -0.042873405 0.015273307 -0.014339764 0.011835437 0.08344727
-0.04505064 -0.18392436 -0.14470296 0.058347136 0.043464888 0.011191194 -0.008509456 -0.044044554
-0.04171628 0.10044457 -0.20694005 -0.08331348 -0.12782821 -0.058596455 -0.17020673 0.0020989198
-0.06558168 -0.009172278 0.02393685 0.07180243 0.07908065 -0.008349482 -0.021491194 0.04814872
-0.036270276 0.070275664 0.09243457 -0.097267695 -0.06669373 -0.007838255 -0.1437545 -0.0785345
-0.03240315 0.09709203 0.038669955 -0.050815128 0.089832686 0.029641485 -0.018447964 0.12843259
-0.095891684 0.09466637 -0.05547502 0.09394555 0.06719601 0.07140916 0.024974952 0.01120339
0.05656648 0.014184234 -0.032630727 0.042800456 0.035587322 -0.1269765 0.033556003 0.04559565
-0.04385141 0.07580506 -0.11127736 0.046172637 -0.027678499 -0.10099807 0.07566667 -0.02852927
0.028589737 0.07760123 0.024791766 -0.099746324 -0.13835888 -0.041985374 0.0068661813 -0.085625246
0.03682447 0.1435438 -0.21491906 -0.02932053 -0.10277433 -0.10583195 -0.113463275 -0.0357641
0.01949453 -0.040766366 -0.09533668 0.021761464 -0.030879514 0.021962712 -0.015911294 0.011689112
-0.0014291097 -0.06721532 0.11730132 -0.112423584 0.0014672063 -0.02361697 -0.034300625 0.04074522
-0.09204452 0.0499645 -0.03387912 -0.06331153 0.058908373 0.020062808 -0.10871301 0.096532024
-0.022408213 0.11582827 0.0048449175 0.10208321 0.08628774 0.13716593 0.15621722 0.043401163
0.038487244 0.002835875 -0.04217056 0.07084165 0.077738315 -0.069529906 0.066203766 -0.06356958
-0.11875019 0.07677732 -0.16676347 0.0099970605 -0.090789214 -0.15005001 0.15742217 0.1469346
-0.08032329 0.020324627 0.053458728 -0.07583935 -0.16811709 -0.008689117 0.01192355 -0.09426649
-0.14410679 0.0040425374 0.00437317 -0.024358395 -0.053351525 0.050918434 -0.02420594 -0.08020941
-0.079339944 0.027455658 0.012460621 -0.11088675 -0.010906129 0.060852874 -0.04162947 -0.058159422
-0.16625774 -0.13347702 0.10723991 0.07260882 -0.063185975 -0.11797562 -0.1286901 0.054170776
-0.099087276 0.12995829 0.0024515914 0.004945505 -0.06467702 0.033150006 0.05409855 0.0035062241
-0.1101944 0.074901655 -0.1262995 -0.03684422 -0.009815846 0.09891937 0.036756415 -0.039862737
-0.034342993 -0.017158564 -0.081608586 -0.08461879 -0.018712051 -0.01839963 -0.08162477 -0.106242836
-0.09657431 -0.06357898 -0.117851324 0.09811808 -0.06633474 0.032062892 0.00937118 0.03706897
0.08409421 -0.11805852 -0.03619418 -0.031031646 -0.14502916 -0.17867848 -0.09716194 0.016681323
00000000: 462d a43b 62ac eabd 3641 5d3d 4364 b6bd
00000010: 2f85 dcbc b672 85bd 541e afbd 8460 babd
00000020: a546 37be b094 f1bd 411d 13bd b28b b63b
00000030: 018c a2bc 31fb a13d 9d92 e33b 5281 02bd
00000040: 4839 80bd 16a6 343d 2b35 963d fa75 3b3d
00000050: 62f5 b0bc 32c3 5f3c ccd3 5f3d 99b5 873d
00000060: d3c1 71bd e9d4 1c3e 8800 923d ccea ffbc
00000070: ed48 a2bc a4b5 4f3c 3825 ffbc 8df4 153d
00000080: 886b 0abd e27f ad3d 422e 2bbe b150 933d
00000090: b048 03be a6ac 7a3d eac1 783d bbe7 bebd
000000a0: cd6a f3bd a5d2 42be ecc7 a9bd ef11 19be
000000b0: 3bea e1bc 681e 8d3d 33a9 353d 37c2 35bd
000000c0: bbc3 71bd 9dd1 42bd 3c80 a83c 069c 2fbd
000000d0: e53c 7a3c 54f1 6abc 6ce9 413c 67e6 aa3d
000000e0: 0587 38bd ab56 3cbe 032d 14be 68fd 6e3d
000000f0: 3d08 323d 455b 373c 3f6b 0bbc 1068 34bd
00000100: b1de 2abd e2b5 cd3d 18e8 53be 42a0 aabd
00000110: 66e5 02be d602 70bd ac4a 2ebe 088e 093b
00000120: b04f 86bd 5347 16bc 3617 c43c 270d 933d
00000130: 09f5 a13d 44cc 08bc 4d0e b0bc 9837 453d
00000140: 2490 14bd b0ec 8f3d 564e bd3d 4934 c7bd
00000150: b996 88bd 066c 00bc 6134 13be b2d6 a0bd
00000160: 2ab9 04bd 30d8 c63d 6364 1e3d 8623 50bd
00000170: 33fa b73d b3d2 f23c 2f20 97bc d583 033e
00000180: dc62 c4bd 71e0 c13d c639 63bd 8666 c03d
00000190: 109e 893d f73e 923d 4598 cc3c 6c8e 373c
000001a0: 41b2 673d fd64 683c cca7 05bd 884f 2f3d
000001b0: 03c4 113d 2106 02be 0572 093d 81c2 3a3d
000001c0: 899d 33bd af3f 9b3d 62e5 e3bd 851f 3d3d
000001d0: 05be e2bc 13d8 cebd 21f7 9a3d 37b6 e9bc
000001e0: 0635 ea3c 65ed 9e3d 1a18 cb3c cd47 ccbd
000001f0: f3ad 0dbe dbf8 2bbd b4fd e03b 4a5c afbd
00000200: 41d5 163d 25fd 123e be13 5cbe 9c31 f0bc
00000210: 597b d2bd 6cbe d8bd 6f5f e8bd 607d 12bd
00000220: feb2 9f3c a2fa 26bd e13f c3bd 1945 b23c
00000230: 09f7 fcbc 25eb b33c 6758 82bc b083 3f3c
00000240: f750 bbba 30a8 89bd ad3b f03d 563e e6bd
00000250: 464f c03a 6078 c1bc d07e 0cbd 76e4 263d
00000260: d681 bcbd 93a7 4c3d d5c4 0abd 7aa9 81bd
00000270: e849 713d c25a a43c eda4 debd 95b2 c53d
00000280: 6e91 b7bc 5f37 ed3d 1dc2 9e3b 0111 d13d
00000290: a0b7 b03d 3a75 0c3e 68f7 1f3e 6bc5 313d
000002a0: cda4 1d3d 16da 393b 0abb 2cbd 6d15 913d
000002b0: 4435 9f3d b265 8ebd d795 873d c530 82bd
000002c0: 4d33 f3bd 6d3d 9d3d 0bc4 2abe b6ca 233c
000002d0: b2ef b9bd b6a6 19be 4733 213e 0676 163e
000002e0: 8980 a4bd d57f a63c 8af7 5a3d a951 9bbd
000002f0: e326 2cbe cc5c 0ebc fe5a 433c ca0e c1bd
00000300: bb90 13be 4377 843b cf4c 8f3b 428b c7bc
00000310: 2187 5abd d98f 503d 894b c6bc d544 a4bd
00000320: fb7c a2bd b0ea e03c a227 4c3c 9818 e3bd
00000330: 9faf 32bc dd40 793d aa83 2abd 9338 6ebd
00000340: 783f 2abe 33ae 08be 99a0 db3d efb3 943d
00000350: a667 81bd 349d f1bd 56c7 03be 2de2 5d3d
00000360: 45ee cabd c913 053e e1aa 203b e70d a23b
00000370: 6375 84bd 4dc8 073d 7196 5d3d aec8 653b
00000380: 9aad e1bd 0a66 993d a854 01be f7e9 16bd
00000390: a4d2 20bc 3d96 ca3d e58d 163d 1c47 23bd
000003a0: 3dab 0cbd 1e90 8cbc 6722 a7bd 9e4c adbd
000003b0: 044a 99bc d2ba 96bc e32a a7bd d895 d9bd
000003c0: c0c8 c5bd b235 82bd 095c f1bd 22f2 c83d
000003d0: 82da 87bd 6154 033d 9489 193c a2d5 173d
000003e0: 9639 ac3d aac8 f1bd 5940 14bd 1436 febc
000003f0: 8682 14be 7ef7 36be d7fc c6bd 45a7 883c

fc3.bias f4 [32]
0.04713774 0.03701743 0.048153754 -0.0895219 -0.12602665 -0.013768966 -0.0069019357 0.010446316
0.06451778 -0.017565057 0.0746911 -0.079635605 -0.08685416 -0.09222476 -0.025766151 0.037058543
0.08621235 0.003126997 0.07097049 0.116498575 0.10522674 0.022858001 0.08454895 0.105247855
-0.11250167 -0.124494344 0.097288094 0.06117809 0.077115 0.06528428 0.025253076 -0.12351549
00000000: 8113 413d 979f 173d df3c 453d 4257 b7bd
00000010: 210d 01be 3b97 61bc a229 e2bb 0627 2b3c
00000020: e621 843d 98e4 8fbc a6f7 983d fe17 a3bd
00000030: 98e0 b1bd 56e0 bcbd 8913 d3bc b3ca 173d
00000040: 1a90 b03d 4eee 4c3b fa58 913d ce96 ee3d
00000050: 1e81 d73d b440 bb3c 0028 ad3d 308c d73d
00000060: 4767 e6bd e4f6 febd fb3e c73d e095 7a3d
00000070: 78ee 9d3d c4b3 853d 8adf ce3c b0f5 fcbd

bn3.weight f4 [32]
0.9230101 1.174148 1.272571 1.0124406 1.0741988 1.0109626 0.9069265 0.90549815
0.97795653 0.97322345 0.9293694 1.0153316 0.9923915 0.9174476 0.86497104 1.0038401
1.1836908 1.0409634 1.1995338 1.0605958 0.95291126 1.2218572 0.98884785 0.9253101
1.1903197 0.9714377 1.0078061 0.8962797 0.85122424 0.9184241 1.30278 0.91799337
00000000: 644a 6c3f 7b4a 963f 9be3 a23f a797 813f
00000010: 597f 893f 3967 813f 562c 683f bace 673f
00000020: 5c5b 7a3f 2c25 793f 27eb 6d3f 63f6 813f
00000030: 5f0d 7e3f d9dd 6a3f be6e 5d3f d57d 803f
00000040: 2e83 973f 4a3e 853f 538a 993f 9ac1 873f
00000050: fef1 733f d165 9c3f 2225 7d3f 1fe1 6c3f
00000060: 655c 983f 24b0 783f caff 803f 9672 653f
00000070: d5e9 593f d81d 6b3f 7fc1 a63f 9d01 6b3f

bn3.bias f4 [32]
0.036778 -0.03212047 -0.014770817 0.12148687 0.21862401 -0.03942915 0.026754193 -0.19139169
0.15143523 0.15329081 -0.06085329 0.13934714 0.015210087 -0.03398824 -0.19278353 0.06445891
0.23268108 0.30408716 -0.015061255 0.17217384 -0.08802864 0.03824266 0.009688828 -0.13111764
0.030609215 -0.14653112 -0.32189065 0.031335793 -0.16306737 0.064071864 0.040817108 0.024678176
00000000: 87a4 163d c190 03bd 4c01 72bc 1cce f83d
00000010: f9de 5f3e 7680 21bd 9c2b db3c 2ffc 43be
00000020: d611 1b3e 44f8 1c3e 4d41 79bd 04b1 0e3e
00000030: bb33 793c 4137 0bbd 0c69 45be 0803 843d
00000040: f343 6e3e 50b1 9b3e 7bc3 76bc 574e 303e
00000050: 5c48 b4bd 56a4 1c3d e4bd 1e3c b443 06be
00000060: 2dc0 fa3c 410c 16be dace a4be f659 003d
00000070: 22fb 26be 1c38 833d d72f 273d e329 ca3c

bn3.running_mean f4 [32]
-0.46672922 -0.28493616 -0.34984806 -0.77786195 -0.68889475 -0.23208614 -0.595927 -0.5673794
-0.38537365 -0.634823 -0.25675586 -0.8230333 -0.39722028 -0.5392337 0.1272199 -0.58823454
-0.45431262 -0.49925032 -0.3444832 -0.31705606 -0.0927131 -0.29480168 -0.14016971 0.037223257
-0.40587848 -0.25744012 0.033532504 -0.4290607 -0.1076727 -0.58446974 -0.40102226 -0.5216691
00000000: 22f7 eebe 27e3 91be 491f b3be f621 47bf
00000010: 685b 30bf fda7 6dbe ac8e 18bf c73f 11bf
00000020: b24f c5be c383 22bf 8175 83be 4fb2 52bf
00000030: 7560 cbbe 380b 0abf ef45 023e 8a96 16bf
00000040: aa9b e8be bd9d ffbe 1a60 b0be 2c55 a2be
00000050: 5ee0 bdbd 3ff0 96be a688 0fbe 6a77 183d
00000060: 4ecf cfbe 31cf 83be 6159 093d d8ad dbbe
00000070: 8183 dcbd cf9f 15bf ca52 cdbe 1b8c 05bf

bn3.running_var f4 [32]
0.5673334 0.78791255 1.2425209 0.5901759 1.1527022 0.567213 0.8019746 0.5020548
0.9391081 0.81481904 0.74596715 1.0527061 0.595549 0.57863426 0.47772685 1.2137018
1.5280913 1.0457534 0.9948267 1.1405624 0.5299306 1.1476947 0.48996302 0.46110633
0.93321615 0.61311615 0.11839718 0.730363 0.41217402 1.3370084 1.2157781 0.7187459
00000000: c33c 113f a3b4 493f ed0a 9f3f c515 173f
00000010: bf8b 933f df34 113f 354e 4d3f aa86 003f
00000020: 6369 703f fb97 503f b4f7 3e3f 13bf 863f
00000030: e675 183f 6021 143f 9d98 f43e 955a 9b3f
00000040: 7f98 c33f 3fdb 853f f6ac 7e3f f3fd 913f
00000050: 88a9 073f a9e7 923f 6fdc fa3e 2116 ec3e
00000060: 41e7 6e3f 2ef5 1c3f 397a f23d 12f9 3a3f
00000070: 7908 d33e 1723 ab3f 9e9e 9b3f bbff 373f
