MELOSDP/SDP/chkpt/mc1/linear/7/sdp_classifier_linear-140.pth (torch, 77408 bytes, 25 tensors)

fc1.weight f4 [128, 38]
-0.05297698 -0.09691693 0.11704471 -0.0857671 0.17313267 -0.113416605 0.13565096 0.14445391
-0.13843802 -0.07995955 0.05386449 -0.05603012 0.06649273 -0.033588648 0.0026274703 -0.075052485
-0.050143547 -0.016103756 -0.016601222 -0.094920516 0.07974537 0.0741955 -0.12130043 0.08883422
0.14912756 0.063464805 -0.014276144 -0.0801006 0.0799792 0.14212576 0.05458032 0.053156685
-0.14776225 0.08749097 -0.1049266 -0.11195866 -0.06104944 0.12930626 -0.06202967 -0.05272189
0.042229198 0.04930561 0.0020278664 0.027345933 -0.110920504 0.024578178 -0.09787116 -0.116864495
0.1518566 0.12575577 -0.11373823 0.06906637 -0.055741377 -0.17386508 0.108391255 0.009675474
-0.045115117 -0.03901173 0.19158977 -0.054465417 -0.035184585 0.13066421 -0.033647865 -0.110813856
0.20299348 -0.05500919 -0.051687773 -0.036530685 0.16953646 0.16282187 -0.05797197 0.030634101
0.11164736 0.03380367 -0.059753228 -0.043264065 -0.10698354 0.12604992 0.06370462 0.013196726
-0.07435972 -0.06559 -0.15002503 -0.22031195 0.015164944 0.17146097 0.12164194 -0.09777671
-0.044397112 -0.09387805 -0.0012800292 0.12493751 -0.137685 -0.023293711 0.014429254 0.13641742
0.099648036 -0.092828564 -0.15403534 -0.14489721 -0.06020731 0.159683 -0.10463001 -0.04670755
-0.04082097 -0.060508564 0.012080102 0.028766477 0.057524428 0.1562037 0.03130717 -0.05777995
0.18042511 -0.14860195 -0.06977802 -0.068744615 0.12746541 0.12285278 0.07569816 -0.06616127
-0.119262345 -0.072829194 -0.11047575 -0.049278565 0.036028836 0.10337203 -0.12850714 0.013738453
-0.068484046 -0.04190766 -0.14272964 -0.14798526 -0.0019200571 0.097564764 -0.10651934 0.14419153
-0.038301993 0.06202418 0.015405741 -0.05399251 0.16041914 0.11443083 -0.043777503 0.024177866
-0.05457934 0.04494648 -0.0029019993 -0.06429869 0.0896625 -0.00534607 -0.059264563 -0.08646727
0.037771888 0.055740353 0.069360055 -0.035107717 -0.0548175 0.1499285 0.028422229 0.005696657
0.11587417 0.05781639 0.14313306 -0.037437785 -0.12968223 -0.008883749 0.11702078 -0.05583616
-0.05026651 0.022604562 -0.110118486 0.10302776 -0.0108641125 0.12731531 0.113007 0.17637925
-0.11539222 0.13051778 -0.07032715 -0.1391262 0.05571778 0.052871384 -0.097523294 -0.0523756
-0.10631238 -0.106708646 -0.1628783 0.042896245 -0.026787382 -0.090339415 -0.0074774106 0.14285009
0.0058650016 0.035070423 0.01869986 -0.08278845 0.081633545 -0.05810496 -0.1524127 0.124749556
-0.023552274 0.009448581 -0.065655105 -0.044070944 0.12331205 0.012344545 0.049963154 0.12401779
-0.0140303 -0.05124376 -0.076488174 0.10931356 0.14048778 -0.16201627 -0.05560001 -0.14822385
0.15274021 0.00026166148 -0.021666538 -0.04492982 -0.025838582 -0.042025644 0.052180056 0.109563
-0.042038567 -0.06913233 0.16513617 0.08933718 -0.11929031 -0.05672519 0.14093548 0.118415885
0.1418404 -0.023628896 -0.1516203 0.085396044 0.10667735 -0.14926709 0.074090995 0.0733264
0.05780823 0.01028856 -0.024307922 -0.05525725 -0.080455095 -0.08603224 -0.0805273 -0.030639147
-0.06838682 0.108608685 0.08981401 -0.020878466 -0.041409034 0.12821697 0.024674274 -0.021287758
00000000: 64fe 58bd 627c c6bd 23b5 ef3d a9a6 afbd
00000010: b149 313e f746 e8bd 16e8 0a3e baeb 133e
00000020: b2c2 0dbe d5c1 a3bd 03a1 5c3d d77f 65bd
00000030: 572d 883d 4094 09bd a331 2c3b 1eb5 99bd
00000040: 5263 4dbd 06ec 83bc 49ff 87bc b065 c2bd
00000050: 8a51 a33d cff3 973d 5c6c f8bd b7ee b53d
00000060: e5b4 183e d6f9 813d 7de6 69bc c90b a4bd
00000070: 23cc a33d 6a89 113e 9d8f 5f3d d3ba 593d
00000080: fd4e 17be 772e b33d c2e3 d6bd 954a e5bd
00000090: fa0e 7abd dc68 043e d312 7ebd e9f2 57bd
000000a0: 86f8 2c3d aef4 493d f4e5 043b 9404 e03c
000000b0: 4a2a e3bd 2d58 c93c ad70 c8bd a756 efbd
000000c0: 4c80 1b3e 1fc6 003e 97ef e8bd ab72 8d3d
000000d0: 1251 64bd b009 32be 3cfc dd3d e185 1e3c
000000e0: a1ca 38bd c4ca 1fbd 1c30 443e 2117 5fbd
000000f0: b61d 10bd d7cc 053e 58d2 09bd 60f2 e2bd
00000100: 86dd 4f3e 5151 61bd 8fb6 53bd 33a1 15bd
00000110: f79a 2d3e c7ba 263e 0474 6dbd 5ef4 fa3c
00000120: 5fa7 e43d b875 0a3d cdbf 74bd a935 31bd
00000130: 301a dbbd 3b13 013e 9177 823d 1537 583c
00000140: e949 98bd 0d54 86bd 29a0 19be 7599 61be
00000150: 6376 783c 7793 2f3e 691f f93d 283f c8bd
00000160: bfd9 35bd 2343 c0bd a7c6 a7ba 3ddf ff3d
00000170: 4cfd 0cbe 74d2 bebc ae68 6c3c 02b1 0b3e
00000180: 4514 cc3d e71c bebd 71bb 1dbe ef5f 14be
00000190: f19b 76bd f183 233e 4248 d6bd 6a50 3fbd
000001a0: e433 27bd d4d7 77bd 9feb 453c ada7 eb3c
000001b0: bc9e 6b3d ddf3 1f3e f23b 003d abaa 6cbd
000001c0: 5cc1 383e 1c2b 18be c7e7 8ebd fac9 8cbd
000001d0: 4b86 023e 3d9a fb3d a307 9b3d 8f7f 87bd
000001e0: d13f f4bd 7927 95bd 1c41 e2bd 52d8 49bd
000001f0: f992 133d b7b4 d33d 6097 03be 4017 613c
00000200: 5d41 8cbd 5ea7 2bbd b827 12be 7389 17be
00000210: 6daa fbba 09d0 c73d d026 dabd f2a6 133e
00000220: 8de2 1cbd 110d 7e3d 5c68 7c3c 4027 5dbd
00000230: ea44 243e b65a ea3d 0a50 33bd a910 c63c
00000240: 968e 5fbd cd19 383d 782f 3ebb 08af 83bd
00000250: f9a0 b73d 162e afbb 66bf 72bd c115 b1bd
00000260: b2b6 1a3d ff4f 643d a50c 8e3d 1ccd 0fbd
00000270: 5188 60bd db86 193e bcd5 e83c 06ab ba3b
00000280: 704f ed3d e1d0 6c3d 7991 123e 5d58 19bd
00000290: 6bcb 04be 258d 11bc 97a8 ef3d 75b4 64bd
000002a0: 42e4 4dbd 342d b93c cd85 e1bd 3800 d33d
000002b0: 64ff 31bc f25e 023e 3770 e73d c39c 343e
000002c0: c252 ecbd 74a6 053e ae07 90bd 1977 0ebe
000002d0: 5438 643d aa8f 583d 4bba c7bd cc87 56bd
000002e0: 4eba d9bd 108a dabd 92c9 26be f9b3 2f3d
000002f0: 3671 dbbc df03 b9bd 1105 f5bb 4b47 123e
00000300: 332f c03b 01a6 0f3d 7330 993c fe8c a9bd
00000310: 7d2f a73d 77ff 6dbd 1312 1cbe b27c ff3d
00000320: b3f0 c0bc 39ce 1a3c 2f76 86bd bc83 34bd
00000330: 078b fc3d c640 4a3c 2aa6 4c3d 0afd fd3d
00000340: 58df 65bc fae4 51bd d5a5 9cbd cadf df3d
00000350: 07dc 0f3e 98e7 25be d6bc 63bd fec7 17be
00000360: ee67 1c3e 9c2f 8939 067e b1bc 5508 38bd
00000370: 6fab d3bc 1523 2cbd c1ba 553d 9162 e03d
00000380: a230 2cbd 4095 8dbd 7519 293e 69f6 b63d
00000390: 7a4e f4bd ac58 68bd 6451 103e 0784 f23d
000003a0: 9c3e 113e 6391 c1bc 5a42 1bbe 1fe4 ae3d
000003b0: a879 da3d 79d9 18be 05bd 973d 272c 963d
000003c0: 53c8 6c3d 5991 283c 6821 c7bc 6d55 62bd
000003d0: a4c5 a4bd ac31 b0bd 7feb a4bd f3fe fabc
000003e0: 640e 8cbd 3b6e de3d 68f0 b73d 5109 abbc
000003f0: 859c 29bd 4f4b 033e b421 ca3c aa63 aebc

fc1.bias f4 [128]
-0.064611785 -0.107414275 -0.036076903 0.1173973 0.14818682 -0.08976245 0.14608079 0.061207563
0.11848742 0.04464531 0.14107883 0.033556186 -0.13618113 -0.13158914 0.008907019 0.12281968
0.12992197 -0.12022976 -0.04092951 -0.036557462 -0.05816916 0.057163958 -0.15080357 -0.15373136
-0.15401085 0.073450096 0.00029590982 -0.06476572 -0.1357961 -0.13719086 0.05938145 0.07058324
0.08718179 0.0820515 -0.11647185 0.15973575 0.06498749 0.14436962 -0.022327458 0.12097916
-0.08583057 -0.06263045 0.040689673 -0.047077272 -0.06620383 -0.15074869 -0.08428625 -0.16062902
0.058785435 -0.120136105 -0.101776265 -0.04793218 0.027053488 0.04430264 0.10299981 0.09572858
-0.10560457 0.14408688 -0.032914467 -0.035794005 -0.05234527 0.076068304 0.118618466 -0.0762216
0.07775715 -0.10092599 0.0061532473 0.06313236 -0.031685643 0.13556997 -0.13239738 0.108855836
0.08543001 -0.060397647 -0.09813758 -0.06905591 -0.061379094 0.10390119 0.14383192 -0.016303184
-0.02560218 0.02389506 0.06828308 0.123525664 0.08588687 0.029035322 -0.08422336 -0.12517719
-0.08172297 0.049558926 -0.10723736 -0.08244451 -0.0043714982 0.09303884 0.050871268 0.025567675
-0.15353504 -0.14139262 0.01177965 0.11847591 -0.08047281 0.06421579 -0.0436229 0.07555106
-0.07961398 -0.083435364 -0.07821031 -0.15342249 -0.112276055 0.12915084 0.11842106 -0.03228334
0.12584764 0.01494728 -0.041490965 -0.06322424 -0.028734917 0.12760529 -0.08251357 0.15645885
0.05326655 0.06272802 0.02441744 -0.09609377 0.060551662 0.04393007 -0.10126701 0.0064758155
00000000: 2f53 84bd 04fc dbbd 60c5 13bd ff6d f03d
00000010: 49be 173e 60d5 b7bd 3496 153e c8b4 7a3d
00000020: 88a9 f23d 00de 363d f876 103e 3672 093d
00000030: 1173 0bbe 4ebf 06be bfee 113c e288 fb3d
00000040: 440a 053e 053b f6bd b4a5 27bd 47bd 15bd
00000050: c942 6ebd c124 6a3d 406c 1abe c16b 1dbe
00000060: 05b5 1dbe 016d 963d 5824 9b39 e4a3 84bd
00000070: 220e 0bbe c37b 0cbe f739 733d f28d 903d
00000080: 5e8c b23d 9e0a a83d cb88 eebd c591 233e
00000090: 2918 853d a1d5 133e 13e8 b6bc ecc3 f73d
000000a0: f0c7 afbd 6544 80bd 37aa 263d 19d4 40bd
000000b0: e095 87bd dd5d 1abe 459e acbd ef7b 24be
000000c0: ffc8 703d eb09 f6bd 1370 d0bd 8954 44bd
000000d0: 479f dd3c af76 353d 90f1 d23d 590d c43d
000000e0: 3547 d8bd 838b 133e 52d1 06bd bc9c 12bd
000000f0: fe67 56bd b3c9 9b3d 3dee f23d 121a 9cbd
00000100: 243f 9f3d 49b2 cebd 2ea1 c93b 8a4b 813d
00000110: cec8 01bd dbd2 0a3e 2e93 07be cfef de3d
00000120: eef5 ae3d 8663 77bd 5bfc c8bd 2f6d 8dbd
00000130: a568 7bbd 26ca d43d ad48 133e 418e 85bc
00000140: aabb d1bc 93bf c33c 00d8 8b3d 06fb fc3d
00000150: 75e5 af3d 7cdb ed3c 4c7d acbd 732e 00be
00000160: 5f5e a7bd 4dfe 4a3d 439f dbbd abd8 a8bd
00000170: c93e 8fbb 268b be3d 645e 503d 4d73 d13c
00000180: 4a38 1dbe 3ac9 10be 6fff 403c 7fa3 f23d
00000190: eece a4bd 9183 833d edad 32bd 84ba 9a3d
000001a0: a80c a3bd 29e0 aabd ba2c a0bd c91a 1dbe
000001b0: fdf0 e5bd 1e40 043e be86 f23d 893b 04bd
000001c0: 34de 003e 70e5 743c 6ef2 29bd b67b 81bd
000001d0: 7d65 ebbc f6aa 023e e0fc a8bd c036 203e
000001e0: 072e 5a3d 8c77 803d 1507 c83c cfcc c4bd
000001f0: 0505 783d 04f0 333d 1465 cfbd 1433 d43b

bn1.weight f4 [128]
1.088013 1.0564083 1.0524013 0.97761923 1.027185 0.9948367 0.98917127 0.97321403
1.0813581 0.9721042 0.9873206 1.0056856 1.0315093 0.9948429 0.98739475 1.0098403
0.9808668 0.9895227 1.0071366 0.98850316 1.0902592 0.9923089 1.1084096 0.97576606
0.9966584 1.0094445 0.97957975 0.9995508 1.0188217 1.0064117 1.0193002 1.0545542
1.0587294 1.0953689 1.0226727 1.0048553 0.9708651 0.9925424 0.97256655 0.97078705
0.9946679 1.0100024 1.0102487 1.0311311 0.9945032 1.0489936 1.0336188 0.9811961
1.0074723 1.0133086 0.9998498 1.0996158 0.97300655 1.0412974 1.0037248 1.0424643
0.9651775 0.99864376 0.9633792 1.0098115 1.0264747 1.0325508 0.99521446 0.9999804
0.9864593 0.9568196 0.9771412 0.9729034 1.0458914 1.0065384 0.9706694 0.9813612
1.1241224 0.99834317 1.0022057 1.0134218 1.0246832 0.9842979 1.0037227 0.9885108
0.984894 1.0053 1.0584608 1.0279708 1.0193973 1.0159657 1.0010375 0.99494326
1.058843 1.0243118 1.0441462 0.9907524 1.044302 0.98852545 0.9968753 0.97821015
0.98103184 1.0066233 0.9684879 1.0105884 1.0144364 0.9812726 1.0153981 0.983956
0.98476803 0.9620725 0.98284024 1.0057479 0.9869253 1.0085818 1.0069895 0.9757106
0.97035533 1.0138782 0.9843718 0.9752692 0.9782807 0.9786626 1.0099338 1.0019139
0.980754 0.9791967 0.97854275 0.98155457 0.97883546 1.0065477 0.99312055 1.0768203
00000000: 0344 8b3f 6338 873f 16b5 863f 4145 7a3f
00000010: cc7a 833f 9ead 7e3f 543a 7d3f 8e24 793f
00000020: f169 8a3f d2db 783f 0bc1 7c3f 4eba 803f
00000030: 7f08 843f 06ae 7e3f e7c5 7c3f 7242 813f
00000040: 161a 7b3f 5c51 7d3f dae9 803f 8b0e 7d3f
00000050: 9d8d 8b3f f507 7e3f 5ee0 8d3f cecb 793f
00000060: 0125 7f3f 7a35 813f bdc5 7a3f 90e2 7f3f
00000070: c068 823f 19d2 803f 6e78 823f a2fb 863f
00000080: 7284 873f 0c35 8c3f f0e6 823f 199f 803f
00000090: 9d8a 783f 4217 7e3f 1ffa 783f 8085 783f
000000a0: 8ea2 7e3f c247 813f d44f 813f 1bfc 833f
000000b0: c397 7e3f 6c45 863f 9f4d 843f ab2f 7b3f
000000c0: daf4 803f 19b4 813f 28f6 7f3f 36c0 8c3f
000000d0: f516 793f 3c49 853f 0e7a 803f 786f 853f
000000e0: df15 773f 1ea7 7f3f 05a0 763f 8141 813f
000000f0: 8663 833f a02a 843f 60c6 7e3f b7fe 7f3f
00000100: 9988 7c3f 21f2 743f ed25 7a3f 3210 793f
00000110: c5df 853f 40d6 803f ca7d 783f 7d3a 7b3f
00000120: 3ee3 8f3f 6b93 7f3f 4748 803f ceb7 813f
00000130: d228 833f f2fa 7b3f fc79 803f 0b0f 7d3f
00000140: 0322 7c3f acad 803f a57b 873f 8c94 833f
00000150: 9c7b 823f 2a0b 823f ff21 803f 9ab4 7e3f
00000160: 2b88 873f a61c 833f 95a6 853f f3a1 7d3f
00000170: b0ab 853f 0110 7d3f 3833 7f3f fb6b 7a3f
00000180: e724 7b3f 08d9 803f d3ee 773f f65a 813f
00000190: 0dd9 813f ae34 7b3f 91f8 813f 8ae4 7b3f
000001a0: c219 7c3f 624a 763f 6b9b 7b3f 59bc 803f
000001b0: 23a7 7c3f 3519 813f 08e5 803f 2bc8 793f
000001c0: 3569 783f c3c6 813f caff 7b3f 3eab 793f
000001d0: 9b70 7a3f a289 7a3f 8345 813f b73e 803f
000001e0: b212 7b3f a3ac 7a3f c781 7a3f 2947 7b3f
000001f0: f694 7a3f 8ed6 803f 263d 7e3f 3fd5 893f

bn1.bias f4 [128]
0.067255355 0.04768679 0.07500978 -0.03153513 -0.06547671 -0.005827936 0.041714806 -0.029290397
0.03542086 0.011314042 -0.0010581304 -0.040235706 0.03346594 -0.030534474 0.0026557702 0.014275075
-0.040277258 -0.021644784 -0.028429814 -0.019833568 0.035439417 -0.010392005 0.026864577 -0.048973393
-0.013505062 -0.013603786 -0.066367134 -0.0103890635 0.060255323 -0.029959485 0.0072518303 0.0513568
0.026155017 0.094185516 -0.053525046 0.014306407 -0.048962064 -0.0577407 -0.05165146 -0.036380883
0.0024598583 -0.0017074294 0.020784948 -0.011412405 -0.07010768 -0.002418698 -0.0138916075 0.028554205
0.0084515 0.013080309 -0.026861785 0.08197068 -0.03677352 -0.029679283 0.026423084 0.033866975
-0.015778368 -0.06432447 -0.038904607 -0.024816537 -0.013547577 0.032049626 -0.037986502 -0.038967367
-0.046320923 -0.049420957 -0.035285015 -0.017915707 -0.021055268 -0.023288514 -0.03213332 -0.03131934
0.06601298 -0.011453971 -0.00073329115 0.041256744 0.0336372 -0.007379373 -0.026765937 -0.04366941
-0.056437783 -0.055636764 0.017714184 0.03231411 0.034470025 -0.015498202 -0.06979925 0.019849284
0.03774728 0.01973672 -0.02997652 -0.047481567 0.003779277 -0.052294537 -0.015425847 -0.04605865
-0.046143144 -0.04902819 -0.011344206 -0.025626518 -0.005988965 -0.023457615 -0.016408224 -0.022178948
0.01609103 -0.045349322 -0.027446155 0.025709352 -0.05104837 0.0014117009 -0.0021822406 -0.024607623
-0.037260506 -0.06896214 -0.040375803 0.02999706 0.012810184 -0.033105932 -0.04689468 -0.00033639182
-0.0019632336 -0.0019155102 -0.030344788 0.007842476 -0.043323018 0.011071518 -0.017692436 0.02944636
00000000: 2dbd 893d 3953 433d ba9e 993d fb2a 01bd
00000010: a718 86bd 45f8 bebb 25dd 2a3d 6af2 efbc
00000020: 7715 113d 885e 393c f7b0 8aba 32ce 24bd
00000030: 9513 093d 6f23 fabc 6e0c 2e3b 01e2 693c
00000040: c4f9 24bd 6750 b1bc a4e5 e8bc 027a a2bc
00000050: ec28 113d 3a43 2abc 1a13 dc3c 5398 48bd
00000060: 5644 5dbc 6ae2 5ebc 7eeb 87bd e436 2abc
00000070: 49ce 763d 986d f5bc c3a0 ed3b 825b 523d
00000080: 0c43 d63c 56e4 c03d 143d 5bbd 6c65 6a3c
00000090: 728c 48bd 8381 6cbd 7b90 53bd 1f04 15bd
000000a0: 9335 213b d3cb dfba 3245 aa3c 19fb 3abc
000000b0: 9e94 8fbd 0583 1ebb a099 63bc 82ea e93c
000000c0: 2978 0a3c cb4e 563c 3f0d dcbc 3ee0 a73d
000000d0: d59f 16bd f821 f3bc 3975 d83c 19b8 0a3d
000000e0: a341 81bc 8cbc 83bd 705a 1fbd 0d4c cbbc
000000f0: a8f6 5dbc 7846 033d bc97 1bbd 3f9c 1fbd
00000100: 02bb 3dbd a16d 4abd 0587 10bd f6c3 92bc
00000110: 197c acbc 8ec7 bebc 3a9e 03bd b548 00bd
00000120: d031 873d 70a9 3bbc 563a 40ba d5fc 283d
00000130: 29c7 093d abce f1bb 3d44 dbbc b2de 32bd
00000140: 4e2b 67bd 60e3 63bd 561d 913c cd5b 043d
00000150: 7130 0d3d 2cec 7dbc e9f2 8ebd f79a a23c
00000160: e49c 1a3d e7ae a13c 5291 f5bc 087c 42bd
00000170: bfad 773b cc32 56bd b1bc 7cbc ffa7 3cbd
00000180: 9800 3dbd c9d1 48bd 0cdd 39bc b4ee d1bc
00000190: 143f c4bb 2f2a c0bc 8a6a 86bc a0b0 b5bc
000001a0: 56d1 833c 36c0 39bd c2d6 e0bc 6b9c d23c
000001b0: 1818 51bd d208 b93a ec03 0fbb ed95 c9bc
000001c0: 799e 18bd 063c 8dbd 1961 25bd 65bc f53c
000001d0: cee1 513c 169a 07bd a314 40bd bf5d b0b9
000001e0: 98a9 00bb db11 fbba a295 f8bc ba7d 003c
000001f0: 7a73 31bd 5065 353c baef 90bc 7e39 f13c

bn1.running_mean f4 [128]
-0.06808285 -0.114945404 -0.032153048 0.11911014 0.14746104 -0.08619415 0.14425506 0.066569
0.11353278 0.04569105 0.1431584 0.03519509 -0.14106245 -0.13122799 0.015921822 0.1262938
0.13271992 -0.11548945 -0.04039191 -0.032282777 -0.06134974 0.058494993 -0.15230405 -0.1558829
-0.14917305 0.06866644 0.0004817132 -0.070708945 -0.13966289 -0.1328208 0.05896738 0.06375105
0.086807154 0.07861819 -0.122197144 0.15975933 0.06631882 0.14590052 -0.022923207 0.12039546
-0.090088926 -0.06345071 0.0400383 -0.049087502 -0.06482897 -0.14795284 -0.0828589 -0.15967174
0.053167548 -0.12489154 -0.105403885 -0.053426336 0.028443519 0.048169505 0.09985331 0.09886617
-0.10840631 0.14789043 -0.029555475 -0.034999426 -0.05427201 0.07534006 0.12344363 -0.074432015
0.07642827 -0.09521497 0.009994029 0.06406485 -0.031439796 0.13761197 -0.12855926 0.10192949
0.08308678 -0.060384605 -0.09934 -0.06937902 -0.059899073 0.10770755 0.1459958 -0.017571224
-0.024536012 0.025267512 0.06949774 0.12839986 0.08479972 0.029238593 -0.08541276 -0.12368373
-0.0801217 0.047830243 -0.1070861 -0.08511213 -0.008820704 0.09568453 0.05556079 0.024234235
-0.15567976 -0.14485925 0.013839875 0.12043381 -0.08156295 0.06523393 -0.04125015 0.074016556
-0.075718835 -0.08334881 -0.07536395 -0.15545626 -0.11218682 0.12892112 0.11304868 -0.028181484
0.12687807 0.00892242 -0.038338654 -0.060670678 -0.025957346 0.12748525 -0.08469842 0.1523092
0.054149687 0.05900458 0.031138362 -0.09881162 0.060564842 0.03950882 -0.103094324 0.013179669
00000000: 056f 8bbd 7f68 ebbd eab2 03bd 04f0 f33d
00000010: 0700 173e 8f86 b0bd 99b7 133e 5455 883d
00000020: e083 e83d 8a26 3b3d 1e98 123e ba28 103d
00000030: ad72 10be a160 06be 7b6e 823c 2953 013e
00000040: bbe7 073e bc85 ecbd fd71 25bd f23a 04bd
00000050: dd49 7bbd 7298 6f3d 98f5 1bbe c49f 1fbe
00000060: d2c0 18be fea0 8c3d 748e fc39 dacf 90bd
00000070: ca03 0fbe 2d02 08be c887 713d e98f 823d
00000080: f3c7 b13d 9302 a13d 7f42 fabd f397 233e
00000090: 29d2 873d f266 153e 73c9 bbbc e591 f63d
000000a0: 8b80 b8bd 72f2 81bd 33ff 233d fa0f 49bd
000000b0: 0dc5 84bd f380 17be edb1 a9bd fd80 23be
000000c0: 37c6 593d 23c7 ffbd fedd d7bd 93d5 5abd
000000d0: 6202 e93c 634d 453d e47f cc3d 597a ca3d
000000e0: 2104 debd 9770 173e 531e f2bc 8f5b 0fbd
000000f0: 544c 5ebd e44b 9a3d 04d0 fc3d d06f 98bd
00000100: 6d86 9c3d 1100 c3bd ffbd 233c 6f34 833d
00000110: 04c7 00bd 27ea 0c3e 0aa5 03be 69c0 d03d
00000120: 6729 aa3d d955 77bd c572 cbbd 9616 8ebd
00000130: bb58 75bd c795 dc3d ec7f 153e 87f1 8fbc
00000140: bfff c8bc d0fd ce3c d554 8e3d 417b 033e
00000150: 7aab ad3d c685 ef3c e3ec aebd e54d fdbd
00000160: d916 a4bd a5e9 433d f54f dbbd 454f aebd
00000170: b784 10bc 40f6 c33d b693 633d e086 c63c
00000180: 846a 1fbe fc55 14be a5c0 623c 00a6 f63d
00000190: 7a0a a7bd 5e99 853d ebf5 28bd fe95 973d
000001a0: 7a12 9bbd c8b2 aabd 6a58 9abd ed2f 1fbe
000001b0: 34c2 e5bd e603 043e 1186 e73d dbdc e6bc
000001c0: 53ec 013e 582f 123c fe08 1dbd d181 78bd
000001d0: 80a4 d4bc 7e8b 023e 5d76 adbd f1f6 1b3e
000001e0: 10cc 5d3d c9ae 713d e115 ff3c bf5d cabd
000001f0: d712 783d 00d4 213d 1e23 d3bd 8aef 573c

bn1.running_var f4 [128]
0.22394937 0.6234627 0.23960894 0.15657891 0.18676923 0.22019804 0.2593558 0.1952197
0.35935402 0.24243993 0.4927977 0.23956765 0.6395267 0.13441834 0.21275108 0.6096159
0.2731229 0.8855926 0.35344744 0.75252485 0.24926677 0.21688847 0.14064114 0.40621397
0.312421 0.2148625 0.77588856 0.22181451 0.17172955 0.21576022 0.21724546 0.67080563
0.24804986 0.20360681 0.29706538 0.12122645 0.26331222 0.15585181 0.28099194 0.22614636
1.1302854 0.17645644 0.175582 1.1152872 0.45031846 0.26428905 0.16529542 0.45241114
0.8521242 0.15523508 0.12531488 0.38349673 0.20071742 0.19649865 0.2751135 0.18556874
0.8721164 0.72457397 0.1625982 0.15423214 0.21753843 0.35407245 0.424878 0.47543266
0.19792604 0.5570659 0.5261805 0.2314598 0.10727994 0.1561589 0.17485575 0.63108957
0.12963335 0.36048755 0.4726656 0.087721586 0.28611544 0.68193173 0.3578496 0.24829015
0.180399 0.213007 0.22873445 0.29006213 0.27437994 0.107716866 0.38786447 0.19140302
0.15698318 0.3385262 0.21194209 0.1653141 0.33641624 0.63303274 1.0813214 0.17910773
0.14775677 0.28009784 0.15798825 0.15144283 0.2631692 0.23096165 0.3667499 0.19418685
0.41616824 0.7671458 0.28790122 0.20751357 0.12530766 0.18812911 0.34960687 0.4613604
0.1493602 0.15064716 0.44013548 0.2538159 0.25933057 0.29300964 0.16493931 0.99343944
0.3918553 0.22286399 0.51331806 0.18660527 0.5478419 0.18883884 0.31168184 0.16515137
00000000: fc52 653e 409b 1f3f 0c5c 753e 3956 203e
00000010: 6f40 3f3e 987b 613e 49ca 843e ace7 473e
00000020: 40fd b73e 2c42 783e fb4f fc3e 3951 753e
00000030: 06b8 233f f6a4 093e 6bdb 593e ca0f 1c3f
00000040: c4d6 8b3e 32b6 623f 10f7 b43e 78a5 403f
00000050: ca3f 7f3e 0318 5e3e 3b04 103e 47fb cf3e
00000060: a5f5 9f3e ea04 5c3e a2a0 463f 5823 633e
00000070: dfd9 2f3e 3ff0 5c3e 9875 5e3e ebb9 2b3f
00000080: c800 7e3e 4e7e 503e f418 983e 9345 f83d
00000090: dcd0 863e 9e97 1f3e 2dde 8f3e e992 673e
000000a0: 31ad 903f ffb0 343e c5cb 333e bbc1 8e3f
000000b0: 2490 e63e e550 873e 3443 293e 6fa2 e73e
000000c0: d024 5a3f f2f5 1e3e 8b52 003e af59 c43e
000000d0: de88 4d3e f136 493e addb 8c3e bb05 3e3e
000000e0: 0543 5f3f ae7d 393f 2480 263e 08ef 1d3e
000000f0: 65c2 5e3e fc48 b53e 9c89 d93e e96b f33e
00000100: 20ad 4a3e df9b 0e3f c4b3 063f cc03 6d3e
00000110: 96b5 db3d 1ee8 1f3e 630d 333e 168f 213f
00000120: 9bbe 043e d391 b83e 3a01 f23e 60a7 b33d
00000130: b97d 923e 1493 2e3f 1038 b73e c63f 7e3e
00000140: 84ba 383e 821e 5a3e 5d39 6a3e 0683 943e
00000150: 877b 8c3e a99a dc3d 2c96 c63e 27ff 433e
00000160: 33c0 203e 4e53 ad3e 5907 593e 1948 293e
00000170: c03e ac3e 6f0e 223f bd68 8a3f 0468 373e
00000180: 8d4d 173e fc68 8f3e acc7 213e d413 1b3e
00000190: 1dbe 863e 3681 6c3e a5c6 bb3e ebd8 463e
000001a0: 0114 d53e ab63 443f ca67 933e 707e 543e
000001b0: a750 003e eba4 403e acff b23e 6e37 ec3e
000001c0: e1f1 183e 4043 1a3e 7059 e13e 28f4 813e
000001d0: fac6 843e 5c05 963e dae5 283e 0c52 7e3f
000001e0: 42a1 c83e 7536 643e d068 033f 7415 3f3e
000001f0: 5e3f 0c3f f85e 413e c394 9f3e 711d 293e

fc2.weight f4 [64, 128]
-0.11212633 -0.026103891 0.027765723 0.05475147 0.010725776 0.04451466 0.012492809 0.068648405
0.08659314 -0.08859824 0.05101972 -0.033787638 -0.107225895 0.045317307 -0.12295027 -0.081035286
0.021991812 -0.008139949 0.0942475 -0.051196523 0.06046889 -0.05096405 0.06247708 0.0015252085
0.08591598 -0.03018595 -0.06284801 0.014471323 -0.044130046 -0.038619626 0.06586343 -0.00820187
-0.0037844595 0.04666213 -0.04818624 -0.058835402 -0.011537362 0.024513595 -0.07710394 0.044351995
-0.07797436 -0.0068868804 -0.043667395 0.041013807 0.005275569 0.043521196 -0.00827303 0.054998476
-0.0250855 0.019853568 -0.033342693 -0.02648713 -0.06982025 -0.00034407686 -0.07200283 -0.06212306
-0.014497189 0.062221825 0.06713336 0.08308734 0.003316846 -0.08792126 -0.050765406 -0.06817969
-0.035476133 -0.042766854 0.028090509 -0.018308062 0.028139725 -0.06653627 -0.0007608786 -0.053828705
-0.13755986 -0.010344435 0.05603284 0.010193129 -0.03385041 0.032122955 0.010581756 -0.058166496
0.088911325 0.034783095 0.02401181 -0.08749734 -0.0034690013 -0.07486723 0.0417238 -0.027655208
0.0048054764 -0.037970677 0.016507829 0.07877241 0.004235982 -0.014382377 -0.025188087 0.017122922
0.08192072 -0.058801755 0.008077877 0.006082791 0.046567116 -0.048197884 0.006556158 0.00067725626
0.012382536 -0.058371905 -0.025968608 -0.0029658317 -0.026130052 0.0023702509 -0.074831694 -0.091608
-0.036504753 -0.0980926 0.060462747 -0.012117271 -0.026496928 0.041034665 0.014816473 0.027320452
0.020229213 -0.0067744665 -0.05006564 -0.07485276 0.054444026 -0.042228032 0.0186771 -0.045323648
0.025038026 0.09616305 -0.058557358 -0.0633522 -0.027457377 0.05743582 0.009300477 0.02644272
-0.050601806 -0.02571514 -0.04286692 -0.03514309 0.026914267 -0.07041435 -0.11352796 0.02365197
0.0234937 0.029960472 0.059989423 -0.039898492 0.030567378 0.055564817 0.023509204 -0.023849647
0.08913115 0.06074677 0.010750426 0.002633567 -0.013388626 -0.05018422 -0.07924136 -0.022169981
0.039464317 0.07004168 0.048203617 -0.025189912 -0.023981744 0.014010717 -0.07474168 -0.053137083
-0.051561452 -0.011147259 0.076391906 -0.064686984 -0.06641512 -0.020783138 -0.00869879 -0.095583394
0.028462268 0.08633415 0.06807492 -0.028607687 -0.08109031 0.028919486 0.05388924 0.047960203
-0.030464672 5.2344967e-05 -0.031317763 0.0545552 0.10708623 0.06843665 0.009513447 0.058651324
0.073251575 -0.045580365 -0.0050762272 0.0146368025 -0.115462705 -0.08696311 0.01558165 -0.056895338
0.09990887 -0.04038977 -0.009945642 -0.09119473 -0.028575841 -0.041813135 -0.04135285 0.07274544
0.04270968 0.04653357 -0.037491888 -0.02702634 -0.057348005 0.027073033 0.063470796 -0.024221575
-0.052429777 -0.015950361 0.025268057 0.049683835 0.08536395 0.09377054 0.076352865 0.0067176046
-0.020675419 -0.006676536 0.01997159 -0.05137322 0.07948599 -0.0393881 -0.0052170856 -0.032990597
-0.07792966 0.07361069 0.053684574 0.04139832 0.01171164 -0.02983734 0.047235798 -0.07003112
-0.007322389 0.04564421 0.07052695 -0.08343134 0.00644936 0.035613038 0.08994563 0.081478976
0.008198017 0.0688297 0.09220509 -0.056729216 -0.027096279 -0.012005303 0.048252687 -0.09803016
00000000: 7da2 e5bd d4d7 d5bc f174 e33c 1443 603d
00000010: 2abb 2f3c 0155 363d a4ae 4c3c 8997 8c3d
00000020: bf57 b13d fe72 b5bd 0efa 503d e864 0abd
00000030: 4099 dbbd a49e 393d 5acd fbbd d4f5 a5bd
00000040: 2c28 b43c 6c5d 05bc d504 c13d 72b3 51bd
00000050: 3aae 773d aebf 50bd f7e7 7f3d 81e9 c73a
00000060: b8f4 af3d 8748 f7bc 75b6 80bd 2119 6d3c
00000070: b5c1 34bd 9d2f 1ebd 68e3 863d 2361 06bc
00000080: b204 78bb ca20 3f3d ef5e 45bd 64fd 70bd
00000090: 3407 3dbc bcd0 c83c ace8 9dbd 70aa 353d
000000a0: 05b1 9fbd 57ab e1bb 95dc 32bd 18fe 273d
000000b0: aede ac3b 4843 323d 9a8b 07bc 1546 613d
000000c0: 1b80 cdbc f3a3 a23c 5992 08bd 8afb d8bc
000000d0: ebfd 8ebd 3765 b4b9 3876 93bd c074 7ebd
000000e0: 9e85 6dbc 50dc 7e3d 377d 893d b229 aa3d
000000f0: 715f 593b 1010 b4bd 63ef 4fbd cba1 8bbd
00000100: 6c4f 11bd 4c2c 2fbd 111e e63c cafa 95bc
00000110: 4885 e63c 2b44 88bd b375 47ba 7d7b 5cbd
00000120: 7edc 0cbe b57b 29bc b182 653d 1501 273c
00000130: baa6 0abd 5c93 033d 1a5f 2d3c fe3f 6ebd
00000140: 2417 b63d b878 0e3d 6ab4 c43c ce31 b3bd
00000150: 2f58 63bb fe53 99bd 93e6 2a3d 2d8d e2bc
00000160: 4277 9d3b 2487 1bbd 6d3b 873c 6e53 a13d
00000170: fecd 8a3b 10a4 6bbc 3f57 cebc 5f45 8c3c
00000180: 0dc6 a73d 1cda 70bd 1259 043c 2652 c73b
00000190: 29bd 3e3d 256b 45bd 0ad5 d63b e689 313a
000001a0: 1fe0 4a3c 6117 6fbd 1ebc d4bc 665e 42bb
000001b0: b10e d6bc 3656 1b3b 5c41 99bd fa9c bbbd
000001c0: 0286 15bd c6e4 c8bd c9a7 773d 8587 46bc
000001d0: 1610 d9bc f713 283d cbc0 723c 24cf df3c
000001e0: bcb7 a53c 58fc ddbb a111 4dbd 674c 99bd
000001f0: b300 5f3d 4df7 2cbd b800 993c 4aa5 39bd
00000200: 8c1c cd3c 22f1 c43d d7d9 6fbd ccbe 81bd
00000210: 4bee e0bc d341 6b3d 0761 183c 679e d83c
00000220: d743 4fbd 8fa8 d2bc 3995 2fbd 33f2 0fbd
00000230: 4f7b dc3c 6635 90bd 5981 e8bd c7c1 c13c
00000240: dc75 c03c aa6f f53c 78b7 753d 9a6c 23bd
00000250: 7068 fa3c ef97 633d 6096 c03c 5660 c3bc
00000260: 648a b63d 9bd1 783d 8e22 303c ec97 2c3b
00000270: f85b 5bbc f88d 4dbd 4b49 a2bd d29d b5bc
00000280: 56a5 213d 0372 8f3d 2871 453d 135b cebc
00000290: 5d75 c4bc 358d 653c 2a12 99bd 45a6 59bd
000002a0: 1a32 53bd fea2 36bc 5c73 9c3d 9c7a 84bd
000002b0: a704 88bd 6641 aabc 5f85 0ebc 3ac1 c3bd
000002c0: b429 e93c f5cf b03d dd6a 8b3d ab5a eabc
000002d0: ad12 a6bd 8fe8 ec3c f7ba 5c3d eb71 443d
000002e0: 0c91 f9bc fb8c 5b38 0e47 00bd 4675 5f3d
000002f0: 0650 db3d 8428 8c3d 4ade 1b3c 5f3c 703d
00000300: ec04 963d 7ab2 3abd 7b56 a6bb 33cf 6f3c
00000310: b677 ecbd b719 b2bd 2d4a 7f3c 160b 69bd
00000320: 069d cc3d be6f 25bd 0cf3 22bc 4dc4 babd
00000330: e217 eabc 4044 2bbd 9b61 29bd 90fb 943d
00000340: 58f0 2e3d fc99 3e3d 1891 19bd 5866 ddbc
00000350: bee5 6abd 44c8 dd3c fafc 813d 536c c6bc
00000360: 9bc0 56bd 55aa 82bc f5fe ce3c 4781 4b3d
00000370: 4bd3 ae3d c50a c03d e45e 9c3d 5a1f dc3b
00000380: 7f5f a9bc d8c6 dabb 769b a33c ba6c 52bd
00000390: 8dc9 a23d 6b55 21bd 16f4 aabb 2621 07bd
000003a0: 9699 9fbd 34c1 963d 5be4 5b3d 4991 293d
000003b0: 2ee2 3f3c 706d f4bc 537a 413d 7a6c 8fbd
000003c0: a7f0 efbb 6cf5 3a3d 6f70 903d 0dde aabd
000003d0: 2755 d33b fade 113d 6a35 b83d 73de a63d
000003e0: fa50 063c 96f6 8c3d 06d6 bc3d e55c 68bd
000003f0: 04f9 ddbc e4b1 44bc 9ca4 453d 09c4 c8bd

fc2.bias f4 [64]
0.028043307 0.040347606 -0.08431112 0.056283038 -0.06962327 0.027249705 0.021070587 -0.012520719
-0.05428489 0.03769869 0.081374444 0.024983376 -0.052592818 0.008715279 0.016200915 0.01699551
0.04358157 0.007940096 0.054164823 0.035165388 0.026685672 0.07981684 -0.062912434 -0.03817189
-0.06914156 0.009113937 0.06908718 -0.020566905 -0.040269468 -0.024921946 -0.08666233 0.06304903
-0.04151458 0.075049244 0.014696551 0.026191192 -0.0167964 -0.07850277 -0.032309666 0.029672666
0.026704773 0.08804053 -0.07273505 -0.030086681 0.019330641 -0.019662911 -0.025014458 -0.0388634
0.038827293 -0.010046895 0.0662449 0.06372699 0.01206899 0.06456807 0.009331207 -0.011097332
0.030130774 0.04260006 0.07561966 -0.024729168 -0.023087326 0.032757547 0.031162921 -0.008453749
00000000: 14bb e53c 8843 253d 4fab acbd 0b89 663d
00000010: a596 8ebd c63a df3c 399c ac3c b423 4dbc
00000020: d559 5ebd f169 1a3d a5a7 a63d f0a9 cc3c
00000030: 916b 57bd 88ca 0e3c c8b7 843c 2b3a 8b3c
00000040: 9782 323d 2d17 023c efdb 5d3d 9509 103d
00000050: e99b da3c 0377 a33d 3cd8 80bd 215a 1cbd
00000060: 179a 8dbd 9f52 153c 947d 8d3d ed7b a8bc
00000070: 99f1 24bd 1c29 ccbc 057c b1bd da1f 813d
00000080: 310b 2abd 6bb3 993d cdc9 703c e98e d63c
00000090: 9b98 89bc 0fc6 a0bd 2457 04bd 1714 f33c
000000a0: f8c3 da3c 984e b43d 1df6 94bd 5878 f6bc
000000b0: 4b5b 9e3c 1d14 a1bc 1feb ccbc 3b2f 1fbd
000000c0: 5e09 1f3d bb9b 24bc 68ab 873d 4c83 823d
000000d0: 03bd 453c 443c 843d ebe1 183c 96d1 35bc
000000e0: d0d4 f63c 677d 2e3d 7bde 9a3d d394 cabc
000000f0: a221 bdbc c72c 063d 6249 ff3c 9881 0abc

bn2.weight f4 [64]
0.9832029 1.001508 0.96224976 1.0723163 1.0414003 0.96735024 0.9644748 0.9831422
1.0300287 0.98406804 1.0924491 0.9848343 0.9987024 0.9828871 0.98245245 0.9981876
1.0082986 0.9690976 0.9566416 1.0064338 1.0225035 1.0297279 0.9723958 0.9797382
0.99638885 1.0127047 1.014949 1.0298197 0.972305 0.9763686 1.0530046 1.005058
1.0385954 1.0183451 1.0383767 0.9887275 0.9694551 1.033126 0.9733255 0.9967228
0.98175824 0.9669872 0.97069687 0.9569522 1.0153146 1.0855962 1.0030463 0.9611974
0.97074383 1.0096253 1.0160669 0.99024695 0.9649202 1.0410507 0.97711504 1.0589839
0.96878326 0.9905025 1.0372432 1.0276895 0.9772368 0.98826045 0.9988438 0.95419264
00000000: 2fb3 7b3f 6a31 803f 0056 763f a941 893f
00000010: 9b4c 853f 44a4 773f d2e7 763f 35af 7b3f
00000020: fbd7 833f e2eb 7b3f 5fd5 8b3f 1a1e 7c3f
00000030: f6aa 7f3f 7d9e 7b3f 0182 7b3f 3989 7f3f
00000040: ee0f 813f c816 783f 77e6 743f d3d2 803f
00000050: 65e1 823f 20ce 833f eeee 783f 1fd0 7a3f
00000060: 5713 7f3f 4fa0 813f d9e9 813f 22d1 833f
00000070: fbe8 783f 4bf3 793f dbc8 863f bea5 803f
00000080: b2f0 843f 2259 823f 87e9 843f 3f1d 7d3f
00000090: 362e 783f 793d 843f dc2b 793f 3a29 7f3f
000000a0: 8254 7b3f 798c 773f 977f 783f d2fa 743f
000000b0: d4f5 813f d1f4 8a3f d263 803f 0811 763f
000000c0: ab82 783f 673b 813f 7b0e 823f d380 7d3f
000000d0: 0305 773f 2641 853f 3624 7a3f c98c 873f
000000e0: 2e02 783f 9291 7d3f 63c4 843f 548b 833f
000000f0: 312c 7a3f a3fe 7c3f 3ab4 7f3f f845 743f

bn2.bias f4 [64]
-0.014446171 -0.03681236 -0.06608055 0.107108295 -0.088405594 0.00043572864 -0.015773349 -0.0107666515
0.047732554 -0.009868726 0.085882194 0.056459073 -0.037534647 0.006429286 -0.06366092 -0.022032134
0.037828706 -0.05108267 -0.0422589 -0.04006804 0.017438287 -0.030099258 -0.043707505 -0.058378052
0.017154418 0.0027068725 0.07498772 0.07776013 -0.085641645 -0.06843515 0.051144745 -0.033307277
-0.024867147 -0.009423761 0.04106148 -0.047124807 -0.018634835 -0.03345013 -0.0465387 -0.061051443
0.00073846424 -0.06516192 -0.08127217 -0.08240658 0.04031154 0.09562584 -0.007949973 -0.0020753355
-0.052177936 0.045698542 0.047615644 0.041145626 -0.054170683 -0.004411765 -0.035908982 0.053616393
-0.06070079 -0.044734184 -0.07288679 0.036293115 -0.04000203 0.005807005 0.019046547 -0.07012341
00000000: a2af 6cbc 8fc8 16bd 3d55 87bd 985b db3d
00000010: fe0d b5bd 8272 e439 1c37 81bc 9c66 30bc
00000020: 3683 433d 70b0 21bc 01e3 af3d a141 673d
00000030: eebd 19bd c3ac d23b a860 82bd bc7c b4bc
00000040: 46f2 1a3d 103c 51bd ab17 2dbd 631e 24bd
00000050: bdda 8e3c b892 f6bc a406 33bd d31d 6fbd
00000060: 6c87 8c3c c965 313b 2993 993d b440 9f3d
00000070: e364 afbd ba27 8cbd 277d 513d 366d 08bd
00000080: 30b6 cbbc 1e66 1abc 1530 283d f105 41bd
00000090: 15a8 98bc 0103 09bd 5d9f 3ebd 1411 7abd
000000a0: 7f95 413a 9d73 85bd 0672 a6bd c8c4 a8bd
000000b0: b71d 253d 7bd7 c33d 9b40 02bc 5a02 08bb
000000c0: 88b8 55bd 652e 3b3d 9f08 433d 5188 283d
000000d0: 14e2 5dbd 9190 90bb 4c15 13bd dd9c 5b3d
000000e0: 64a1 78bd 313b 37bd ab45 95bd 17a8 143d
000000f0: 2bd9 23bd b048 be3b 8107 9c3c dd9c 8fbd

bn2.running_mean f4 [64]
-0.23176867 0.10216417 0.18443348 0.051915098 0.059946157 -0.027503554 -0.19602203 -0.11027426
-0.32228747 -0.5126276 -0.15267195 -0.0989583 0.002785135 -0.16646905 0.124790244 0.11201153
0.19336177 0.11349962 0.1189466 0.2574843 -0.46527228 -0.38202417 -0.02727783 -0.27693546
-0.30684578 -0.2636055 -0.23958327 -0.20069057 -0.004098729 -0.25514984 -0.28714454 0.07043368
0.22558542 0.27575618 0.01409016 -0.3205197 -0.46101093 0.060793597 -0.028701242 -0.022385275
-0.114403844 -0.43303558 -0.020437613 -0.16149946 0.043797657 -0.11532175 -0.41497335 -0.27144402
0.39216954 -0.21909894 0.041165024 -0.11690234 -0.3520633 -0.031211326 0.0007544077 -0.20151854
-0.06869587 0.09373887 0.14564204 -0.25244743 -0.30731547 -0.046936832 0.08816079 -0.3706024
00000000: c454 6dbe 733b d13d 21dc 3c3e eda4 543d
00000010: 1a8a 753d 224f e1bc 00ba 48be 79d7 e1bd
00000020: dd02 a5be 903b 03bf 0956 1cbe a6aa cabd
00000030: d086 363b dd76 2abe 0792 ff3d 4d66 e53d
00000040: a100 463e 7d72 e83d 469a f33d fbd4 833e
00000050: 2b38 eebe ac98 c3be c175 dfbc 7cca 8dbe
00000060: e41a 9dbe 4df7 86be 5155 75be d481 4dbe
00000070: a24e 86bb 00a3 82be 9c04 93be 893f 903d
00000080: ddff 663e ea2f 8d3e 6ada 663c 281b a4be
00000090: a009 ecbe b502 793d de1e ebbc 5361 b7bc
000000a0: 904c eabd d7b6 ddbe c86c a7bc 1d60 25be
000000b0: 2c65 333d cf2d ecbd 6377 d4be b6fa 8abe
000000c0: 72ca c83e 795b 60be a89c 283d 7e6a efbd
000000d0: a441 b4be e5ae ffbc 72c3 453a e05a 4ebe
000000e0: 6cb0 8cbd 2afa bf3d 3023 153e ca40 81be
000000f0: 7458 9dbe d640 40bd a58d b43d 99bf bdbe

bn2.running_var f4 [64]
0.56638384 0.8075204 0.45810765 0.75367635 0.8337273 0.64110965 0.41248518 0.51711535
0.6322481 0.8907786 0.7008989 0.49930376 0.6488433 0.9433729 0.6072914 0.43998885
0.6089775 0.3618482 0.36672714 0.6054737 0.641594 0.33864394 0.20802654 0.3435837
0.7510381 0.4426007 0.7393757 0.9118783 0.38880688 0.2758575 0.9255299 0.6003302
0.7880736 0.5899917 1.114325 0.44363707 0.733932 0.9695893 0.40724537 0.4774154
0.64804786 0.59463286 0.4282852 0.27391636 0.869128 1.1320152 0.60576427 0.6081279
0.86495167 0.6132828 0.57213646 0.46607494 0.5745897 0.5268315 0.41927928 0.9296431
0.20984735 0.43357491 0.9027614 1.2301295 0.35888118 0.6972224 0.47348914 0.74609435
00000000: 88fe 103f a8b9 4e3f 168d ea3e eff0 403f
00000010: 276f 553f c31f 243f 4231 d33e ac61 043f
00000020: 03db 213f 110a 643f 1c6e 333f bea4 ff3e
00000030: 981a 263f e380 713f 7377 1b3f 3846 e13e
00000040: f3e5 1b3f 2b44 b93e a9c3 bb3e 5300 1b3f
00000050: 813f 243f bd62 ad3e e904 553e 34ea af3e
00000060: 0844 403f 8f9c e23e ba47 3d3f db70 693f
00000070: b211 c73e 323d 8d3e 87ef 6c3f 3daf 193f
00000080: 31bf 493f b209 173f 34a2 8e3f 6624 e33e
00000090: f8e2 3b3f 0137 783f 7782 d03e cb6f f43e
000000a0: 77e6 253f dc39 183f 3348 db3e c43e 8c3e
000000b0: 2c7f 5e3f e0e5 903f 5e13 1b3f 45ae 1b3f
000000c0: 796d 5d3f 1a00 1d3f 8977 123f 60a1 ee3e
000000d0: 5018 133f 6ede 063f c6ab d63e 17fd 6d3f
000000e0: 39e2 563e 88fd dd3e 5f1b 673f e274 9d3f
000000f0: 46bf b73e 2b7d 323f 2b6d f23e 0a00 3f3f

fc3.weight f4 [32, 64]
-0.10980979 -0.04509298 0.06433064 -0.041343976 0.095313855 0.08950319 -0.0058666756 0.0014834546
0.11369011 0.1047241 -0.117996804 0.101807624 0.057154212 0.085029215 -0.13069393 -0.0040715723
0.03897669 0.08441109 -0.00419972 0.09232769 0.06266951 0.04977842 0.12122482 0.13678715
-0.055319674 -0.11291207 -0.022425042 0.07680191 0.050935917 -0.04196535 -0.016412765 -0.028346568
0.0031501714 0.045935445 0.06257662 -0.02794094 -0.022069197 0.079484925 0.021664549 -0.064763404
0.018835152 0.08067185 0.037176434 -0.070488304 0.003997525 -0.003909474 0.029629178 -0.013829167
0.078744665 -0.033056576 0.10202842 0.050143894 -0.10767482 0.027776815 -0.10519719 -0.082170725
-0.05526849 0.040882505 0.018427927 0.12634014 0.012363281 -0.03996487 0.09873798 0.040130336
-0.11582416 -0.10170233 0.084775254 -0.04901995 -0.074006125 -0.056385 -0.0007058426 -0.011756696
-0.100352764 -0.12888578 0.07920159 -0.083637185 0.043377396 -0.04908493 0.048413496 -0.03914434
0.017004874 -0.119326115 0.06859931 -0.02885937 -0.16728434 -0.065333016 -0.06783181 -0.09927124
0.060386892 -0.02614755 -0.056662593 -0.0159563 0.08781769 0.08188897 0.1027703 -0.10301381
0.03127198 -0.101064146 -0.11354075 0.09346246 -0.037223622 -0.066932015 0.055561543 -0.00694401
-0.13140514 -0.1662375 0.006671048 0.05481767 -0.039558962 0.089775816 -0.17484017 -0.05210303
-0.11749808 -0.113842815 0.08813101 -0.062189993 -0.1263928 -0.0026480358 0.00058778457 -0.053883094
0.024815572 0.08372866 0.03861976 -0.14759135 0.09111918 0.022741964 -0.08892707 0.043209348
0.08705263 0.13167171 -0.041983802 0.037449107 -0.026112335 -0.13589558 -0.038310237 0.0020053787
-0.09266208 -0.13057606 0.008390569 -0.071768366 0.020814484 0.046352193 -0.0910622 -0.029473007
0.002415113 -0.04132242 0.01818361 0.04377648 -0.16164206 -0.17105106 -0.10281077 -0.084802344
0.06846116 0.026953015 -0.11101902 -0.11870287 -0.03765414 -0.034571406 -0.012787466 -0.034853596
-0.097737804 -0.036344633 -0.027554477 0.050305597 -0.07059101 -0.005675344 0.043751307 -0.021039113
-0.15400383 -0.035507787 0.07904207 0.061453965 -0.0051349187 -0.0031002103 0.02097897 0.0076929494
-0.076023914 -0.11812478 0.09660095 -0.053851087 0.0039638844 -0.1091444 -0.049424626 -0.10286086
-0.05599208 -0.0036381667 0.076397255 -0.10295852 0.103818834 -0.12108288 0.08672407 0.08066694
0.103974335 -0.06762129 -0.09327567 0.027604645 -0.11238782 -0.12607212 -0.063372865 0.06310256
-0.103222385 -0.14490469 -0.09928104 -0.07744949 -0.020644775 0.08318304 -0.08891512 -0.06270133
-0.05075897 -0.091500066 -0.00074957265 -0.017688295 0.039944153 0.05824684 -0.034509726 -0.017763691
0.06469497 0.03576802 -0.11864233 -0.028385224 0.056335796 -0.0936033 0.057217386 0.07598737
-0.006239447 0.0038598964 -0.037788384 0.07658818 -0.10902749 -0.00090485316 -0.058942463 -0.10710099
0.058864757 -0.08610624 -0.060368188 -0.012486808 -0.082251325 -0.019031022 0.004847022 -0.012391834
-0.08834368 0.02513344 -0.057409883 0.028082611 -0.06834848 0.058622047 -0.056802467 -0.021418603
-0.08779447 -0.09452814 0.01281049 -0.13904998 0.028674915 -0.13160485 0.015850015 -0.003316844
00000000: f5e3 e0bd 6bb3 38bd c8bf 833d 4d58 29bd
00000010: e933 c33d 734d b73d 3e3d c0bb 7a70 c23a
00000020: 5cd6 e83d 9779 d63d 4fa8 f1bd 8480 d03d
00000030: 891a 6a3d cc23 ae3d a1d4 05be d36a 85bb
00000040: 06a6 1f3d b9df ac3d ce9d 89bb 4d16 bd3d
00000050: df58 803d 75e4 4b3d b844 f83d ee11 0c3e
00000060: e296 62bd 713e e7bd b9b4 b7bc 524a 9d3d
00000070: 2ea2 503d dce3 2bbd 1074 86bc 1037 e8bc
00000080: 1b73 4e3b ce26 3c3d 2c28 803d 66e4 e4bc
00000090: 76ca b4bc fec8 a23d da79 b13c ada2 84bd
000000a0: 2d4c 9a3c 4837 a53d 5146 183d 2c5c 90bd
000000b0: acfd 823b 0b1b 80bb e4b8 f23c bb93 62bc
000000c0: e244 a13d 5566 07bd 47f4 d03d af63 4d3d
000000d0: 9e84 dcbd 348c e33c a071 d7bd 2049 a8bd
000000e0: 3661 62bd 6a74 273d 2af6 963c 4f5f 013e
000000f0: 5c8f 4a3c 34b2 23bd 2337 ca3d b55f 243d
00000100: 3835 edbd 5049 d0bd a69e ad3d 25c9 48bd
00000110: 8690 97bd f5f3 66bd 4c08 39ba 289f 40bc
00000120: c085 cdbd a2fa 03be 7134 a23d f949 abbd
00000130: 7fac 313d 480d 49bd 3b4d 463d d155 20bd
00000140: ce4d 8b3c 4061 f4bd cc7d 8c3d 7c6a ecbc
00000150: 964c 2bbe 51cd 85bd 67eb 8abd b84e cbbd
00000160: 3f58 773d 6333 d6bc 0917 68bd c9b6 82bc
00000170: c3d9 b33d 68b5 a73d 3c79 d23d e8f8 d2bd
00000180: 0c17 003d b8fa cebd 0e88 e8bd 3f69 bf3d
00000190: cc77 18bd a713 89bd 8094 633d 948a e3bb
000001a0: 128f 06be 2a3a 2abe ce98 da3b 7e88 603d
000001b0: 9408 22bd 62dc b73d 4d09 33be fd69 55bd
000001c0: d5a2 f0bd 6c26 e9bd 087e b43d efba 7ebd
000001d0: 1d6d 01be ab8a 2dbb 8e15 1a3a 85b4 5cbd
000001e0: 074a cb3c ef79 ab3d c12f 1e3d 3022 17be
000001f0: b19c ba3d 5b4d ba3c 651f b6bd 49fc 303d
00000200: a648 b23d f3d4 063e 35f7 2bbd 3c64 193d
00000210: 89e9 d5bc 3628 0bbe 32eb 1cbd ac6c 033b
00000220: 9ec5 bdbd bbb5 05be 9978 093c 4bfb 92bd
00000230: 2383 aa3c ccdb 3d3d d27e babd 6071 f1bc
00000240: df46 1e3b b341 29bd cbf5 943c f74e 333d
00000250: 7f85 25be 0228 2fbe 748e d2bd daac adbd
00000260: 5d35 8c3d 92cc dc3c f15d e3bd 7e1a f3bd
00000270: 3a3b 1abd bf9a 0dbd 8582 51bc a5c2 0ebd
00000280: c22a c8bd 1cde 14bd edb9 e1bc 3e0d 4e3d
00000290: 0592 90bd 3cf8 b9bb 9234 333d 385a acbc
000002a0: 2eb3 1dbe 9d70 11bd cfe0 a13d 27b7 7b3d
000002b0: d242 a8bb e62c 4bbb 17dc ab3c 2315 fc3b
000002c0: 6db2 9bbd 68eb f1bd b8d6 c53d f592 5cbd
000002d0: 79e3 813b 1987 dfbd 7a71 4abd b7a8 d2bd
000002e0: f457 65bd 4f6e 6ebb 2a76 9c3d ebdb d2bd
000002f0: f89e d43d 4dfa f7bd 649c b13d b534 a53d
00000300: 7ff0 d43d 087d 8abd 5107 bfbd 2323 e23c
00000310: 962b e6bd 0d19 01be a2c9 81bd ea3b 813d
00000320: 4266 d3bd e561 14be dc53 cbbd d79d 9ebd
00000330: 3b1f a9bc df5b aa3d 2119 b6bd 8e69 80bd
00000340: a3e8 4fbd 6364 bbbd f87e 44ba 0be7 90bc
00000350: 7b9c 233d 3d94 6e3d 125a 0dbd 2985 91bc
00000360: cc7e 843d 7d81 123d c0fa f2bd 2188 e8bc
00000370: 5dc0 663d 16b3 bfbd c75c 6a3d 449f 9b3d
00000380: 4674 ccbb 51f6 7c3b fec7 1abd 44da 9c3d
00000390: ce49 dfbd ab33 6dba a76d 71bd c457 dbbd
000003a0: 2c1c 713d 7858 b0bd a244 77bd 7895 4cbc
000003b0: 6273 a8bd f2e6 9bbc c4d3 9e3b 1e07 4bbc
000003c0: 88ed b4bd a5e4 cd3c a026 6bbd 810d e63c
000003d0: 4afa 8bbd ac1d 703d b4a9 68bd 1176 afbc
000003e0: 96cd b3bd f897 c1bd 17e3 513c 1e63 0ebe
000003f0: a8e7 ea3c 6cc3 06be e4d7 813c 695f 59bb

fc3.bias f4 [32]
0.10751208 0.014797437 -0.089438535 -0.0922304 0.039299257 -0.041370258 0.002091639 0.117707506
0.005797371 -0.043314397 -0.09536275 0.12058071 -0.030123223 -0.003907571 0.112834066 -0.0427363
-0.051068574 0.0652574 -0.085508324 -0.015448061 -0.0816666 0.112812296 -0.103791885 0.04568611
0.11569636 0.08322204 0.030356456 -0.021786688 -0.09255976 -0.013131567 0.10048528 0.06594093
00000000: 4b2f dc3d f370 723c 8d2b b7bd 4be3 bcbd
00000010: 42f8 203d dc73 29bd e113 093b a210 f13d
00000020: dff7 bd3b 706a 31bd 8c4d c3bd 05f3 f63d
00000030: fac4 f6bc 150b 80bb 8c15 e73d 420c 2fbd
00000040: 482d 51bd aca5 853d fd1e afbd dd19 7dbc
00000050: d240 a7bd 220a e73d d790 d4bd 5c21 3b3d
00000060: 37f2 ec3d 5170 aa3d 1aae f83c ff79 b2bc
00000070: f98f bdbd c925 57bc 3acb cd3d 0a0c 873d

bn3.weight f4 [32]
0.9493088 1.086117 1.0735345 0.99299073 1.0248268 0.98952043 0.9772271 0.9927123
0.99552107 0.96554065 1.0077304 1.0007485 1.0560614 1.0001712 0.9485998 1.077079
0.91757375 0.9819078 0.9505385 1.0269954 0.9775811 1.029293 1.0224932 0.9965989
0.98998237 0.97429514 0.98430973 0.9339899 0.9914183 1.0280839 1.0562809 1.0103811
00000000: e705 733f e205 8b3f 9469 893f a434 7e3f
00000010: 862d 833f 3651 7d3f 8e2b 7a3f 6522 7e3f
00000020: 78da 7e3f ac2d 773f 4ffd 803f 8718 803f
00000030: 052d 873f 9c05 803f 70d7 723f badd 893f
00000040: 1de6 6a3f 4f5e 7b3f 7e56 733f 9674 833f
00000050: c142 7a3f dfbf 833f 0fe1 823f 1b21 7f3f
00000060: 7c6f 7d3f 686b 793f b9fb 7b3f f619 6f3f
00000070: 97cd 7d3f 4198 833f 3634 873f 2b54 813f

bn3.bias f4 [32]
0.008175626 0.086973995 0.075142 0.008791544 0.11004233 -0.04434839 -0.06609528 0.074116975
-0.10747076 0.02117077 -0.033334125 -0.00039074008 0.08367107 0.026010549 0.03573745 0.0964723
-0.08952095 -0.038511634 0.005735651 0.058112357 0.0028662086 0.08866222 0.0021250395 -0.055242144
0.01707828 0.055263102 0.036529016 -0.11684614 -0.093679786 0.051810082 0.08258571 -0.065506354
00000000: 10f3 053c 6c1f b23d 0de4 993d 680a 103c
00000010: e05d e13d a8a6 35bd f65c 87bd a4ca 973d
00000020: a119 dcbd 536e ad3c 5d89 08bd 3fdc ccb9
00000030: bd5b ab3d 1314 d53c 6f61 123d 4593 c53d
00000040: c356 b7bd 60be 1dbd 21f2 bb3b 3907 6e3d
00000050: 00d7 3b3b 8a94 b53d 3f44 0b3b 9645 62bd
00000060: c0e7 8b3c 905b 623d 739f 153d 074d efbd
00000070: 30db bfbd cf36 543d b222 a93d 3228 86bd

bn3.running_mean f4 [32]
0.31426623 -0.39377847 -0.54018754 -0.45356977 0.07220674 -0.12937565 0.0007928728 0.23544928
0.14561191 -0.3795141 0.021068778 -0.3273672 -0.36509833 -0.34806126 -0.115292035 -0.23069823
-0.20446032 -0.050479174 -0.28350535 -0.4672252 -0.13891795 -0.062370963 -0.6358572 -0.0066681285
-0.030922106 -0.30318642 -0.1619281 0.023240618 -0.20106724 -0.0619415 -0.1894957 -0.01796636
00000000: 81e7 a03e 559d c9be bb49 0abf 4c3a e8be
00000010: 21e1 933d 0d7b 04be cbd8 4f3a 9e19 713e
00000020: 4a1b 153e ac4f c2be 6e98 ac3c ac9c a7be
00000030: 2bee babe 1635 b2be 3b1e ecbd 283c 6cbe
00000040: 0c5e 51be 40c3 4ebd 9d27 91be 2438 efbe
00000050: 8240 0ebe b278 7fbd 8ac7 22bf 5180 dabb
00000060: 5b50 fdbc 403b 9bbe 7bd0 25be 1c63 be3c
00000070: 92e4 4dbe 5fb6 7dbd 290b 42be 302e 93bc

bn3.running_var f4 [32]
0.5239207 1.1729636 0.91578496 0.60715055 0.85733646 0.7727717 0.5938222 0.88518167
0.54695094 0.5029372 0.7336857 0.80140233 0.51053256 0.92720646 0.75612104 0.76696056
0.35691983 0.4616391 0.75949913 0.7086159 0.58332217 0.6839675 0.66142887 0.5142626
0.73166406 0.64691776 0.5611029 0.2056878 0.5192186 0.7613553 0.94366586 0.62248117
00000000: ab1f 063f ac23 963f e270 6a3f 386e 1b3f
00000010: 677a 5b3f 5ed4 453f bb04 183f 449b 623f
00000020: fa04 0c3f 7ec0 003f d3d2 3b3f b428 4d3f
00000030: 43b2 023f 675d 6d3f 2691 413f 8757 443f
00000040: 32be b63e f65b ec3e 896e 423f da67 353f
00000050: 9a54 153f 7e18 2f3f 6753 293f b7a6 033f
00000060: 564e 3b3f 679c 253f 71a4 0f3f d39f 523e
00000070: 83eb 043f 2ee8 423f 1694 713f ed5a 1f3f
