MELOSDP/SDP/chkpt/mc1/linear/0/sdp_classifier_linear-820.pth (torch, 77408 bytes, 25 tensors)

fc1.weight f4 [128, 38]
00000000: fd3c 22be 2531 553d 3f6e cc3d 521b c33d
00000010: e2d6 183d 2f22 b53d bc32 11bb fcab 803e
00000020: 5680 283e c9e4 afbd 0ae7 013e 94e2 4dbd
00000030: f5eb 803b af64 553c aa37 45bc f6ae 0abb
00000040: ece5 8a3c b5fc 66bd a459 82bd 5ba5 913c
00000050: ed79 0d3d 3f0c 153e d425 d3bd 21ce e9bc
00000060: a235 ccbc 56bd 9fbd 9d65 013e 39b3 f4bd
00000070: 572a 153e f113 47bd 45ed ec3c 89f1 c0bd
00000080: 5195 b3bc a513 3f3e 841e bb3c b2f4 723c
00000090: 4419 363d f540 6abd 19e4 bc3d 01c9 763b
000000a0: 9741 213d c861 8ebd dde0 13bd ad15 573d
000000b0: 7d5e 233e 5969 203e 1f6c e93d aceb 1f3e
000000c0: 6cfe 623d b73c 6abc 3902 4ebe 6e49 d03d
000000d0: 0d32 fabd 1792 913c e2c4 2ebe 339b f03b
000000e0: d702 3f3d 656e b03d c8d0 40bd bd1e a5bd
000000f0: 9e19 eb3d 9a58 2f3e d006 383c 0575 e53d
00000100: 6b3f 963c 3b40 0b3d c61a f3bc 844f 4cbd
00000110: 13d8 05bb 2b79 093d f22e debd e0fa cabd
00000120: 3004 0abe 889c 9c3d 333c dcba 438e 923d
00000130: f494 05be 4d8c 3c3d e7cd 123e 9f02 033c
00000140: 757a 823d 5dba 663d b4a2 463d c755 353e
00000150: f779 d63c 65a5 da3c b4d0 653d 8129 d5bd
00000160: e61e 9b3d 6a41 17be 6b38 083e a868 81bd
00000170: 29db 31be cec0 cbbc 1ade 163d 9282 93bc
00000180: 58b1 21bd a561 f7bd 6296 b33c 25cf 853d
00000190: 8a20 14be f398 053e fe10 383e 989c 493d
000001a0: b777 703d ce15 e73c 83b5 b03d dd15 e73d
000001b0: 5a01 c9bd 37bc ddbc af5e 4c3b 343f 87bc
000001c0: 0e56 4b3d 9283 28be 9a0c a23d dd8f 6ebd
000001d0: de21 353d 2dfb b23d 986d 343d a8cd a6bc
000001e0: abdf 2f3d ecf1 fd3d 1aa3 2fbd f9c8 3b3c
000001f0: 2f28 44bd 92d5 a0bd 6708 32be ddbd 7ebe
00000200: b75c 153e 6b62 d8bd 3c60 91bd 3bee 1b3e
00000210: 12da a7bd e456 02be bf63 4c3d 09a3 2f3e
00000220: 531a 1f3e 48b3 dfbb 305c ed3d 8417 0ebe
00000230: fd86 9bbd dd38 633d bb81 e1bb 3181 d03d
00000240: 76bb 50bd d370 323e b45b 09be fad8 e1bc
00000250: d4cf 8d3d 23a2 bcbb 7722 af3c 6add f3bd
00000260: 7c14 0c3c b04f 3abe 562a 75bd 3b87 0f3d
00000270: e2ef 073d d49c 9b3d 6f4c 6dbd 90ac 8f3d
00000280: 7dc2 7b3d 997d 13be 3714 a6bd 9068 19bd
00000290: f7fe 07bd 3d21 95bd a3f3 b0ba 9b09 6abe
000002a0: ab6f e2bb 8853 9ebd aeaf c73d 861f 5e3b
000002b0: 8579 d83d 7422 76bc 4575 cf3c bbc8 1dbe
000002c0: f77d 1b3e 1109 f53d 5130 72be ad47 1c3d
000002d0: 6553 f43d 66b0 703d fcaf 7f3d e947 203e
000002e0: 8255 f4bd d7fb e1bc 10db 01be 4f77 4a3b
000002f0: 119d aa3d ca2c bbbd 08d2 143d 3d0e ee3d
00000300: d375 31bd 5527 16be de58 5cbd ae8c bf3d
00000310: 925b ea3d 9d66 a2bd 0e8a cebd 4c03 133e
00000320: fcc6 fb3c a552 763d 3206 353d ee3f 633d
00000330: aa8c 003d 4429 913d 3f6e dcbd c2cb c2bd
00000340: 8704 7bbe 8bdc 7e3d 071c d93d 1a6f 8dbd
00000350: 4141 183e 68ee 443d 157f 83bd 326a 203e
00000360: 7a7d 2cbd 6f96 353c 3897 0a3e fa7d 2fbe
00000370: 01eb dfbd 5060 72bd f885 f9bd 7c6d 1fbe
00000380: e668 14bd b182 8fbd 574b f2bd a197 953d
00000390: a576 343c de6a 84bc 5396 ffbb 2cdb c9bd
000003a0: dacc b53d 6feb ef3d 10bc a3bb de31 293e
000003b0: b502 eabd 8f84 a5be 67e6 3fbe cc60 053e
000003c0: c1d4 af3d 98a9 b2bc c58a 2dbc 7fc8 3bbe
000003d0: 2b3d 333e fa9d 383c d212 b8bd ca6a e2bc
000003e0: faa4 79bd fbef 39be 4424 b83d 42ff 313d
000003f0: e8ee 863d eb72 06be bb0c 443d 2ef7 b4bd
-0.15843578 0.05204882 0.09981965 0.09526695 0.037314303 0.08844411 -0.0022155484 0.25131214
0.16455206 -0.08588559 0.1268579 -0.05026491 0.0039343783 0.013024493 -0.012037197 -0.0021161414
0.016955338 -0.056393344 -0.06364754 0.017779043 0.034540106 0.14555453 -0.103099495 -0.028540673
-0.024927918 -0.07799785 0.12636419 -0.119482465 0.14566933 -0.048603002 0.028921733 -0.09421069
-0.021921786 0.18659838 0.0228417 0.014828848 0.04445769 -0.057190854 0.09223194 0.0037656429
0.039369192 -0.06952244 -0.03610312 0.052510906 0.15954013 0.15665187 0.113975756 0.15617245
0.055418417 -0.014296702 -0.20118035 0.101702556 -0.12216578 0.017769856 -0.17067292 0.00734272
0.046633568 0.08614806 -0.04707411 -0.080625035 0.114794955 0.17123643 0.011232093 0.1120396
0.018340787 0.0339968 -0.029675853 -0.04988052 -0.002042298 0.03356282 -0.10848798 -0.09911132
-0.1347816 0.076470435 -0.0016802609 0.071560405 -0.13045102 0.04603224 0.14336358 0.00799623
0.06371013 0.056330074 0.04849501 0.17708503 0.026181204 0.026690194 0.056107238 -0.10408307
0.07574253 -0.14771047 0.13302772 -0.0631879 -0.17368759 -0.02487221 0.036832906 -0.018006597
-0.03947577 -0.12079171 0.021922294 0.0653365 -0.14465538 0.13046627 0.17975232 0.049221605
0.05870792 0.02820864 0.086283706 0.11283467 -0.09814711 -0.027067287 0.0031184366 -0.01650963
0.049642615 -0.1645644 0.0791256 -0.058242667 0.04422175 0.08739314 0.04404983 -0.020361736
0.042937916 0.123996586 -0.042880155 0.01146149 -0.047889885 -0.07853235 -0.17386018 -0.24877115
0.14586149 -0.10565647 -0.070984334 0.15227596 -0.081958905 -0.12728459 0.049899813 0.17152037
0.15537386 -0.006826792 0.11589849 -0.13876158 -0.07594106 0.05547415 -0.00688192 0.10180891
-0.050960027 0.17425852 -0.13413888 -0.027569283 0.06924406 -0.005756633 0.021378739 -0.11907466
0.008549806 -0.18194461 -0.059854828 0.035041075 0.033187754 0.07598272 -0.05793422 0.070153356
0.061464775 -0.1440338 -0.081093244 -0.037453234 -0.033202138 -0.0728173 -0.0013500344 -0.22855227
-0.0069102845 -0.07730776 0.09750305 0.00338933 0.10570053 -0.015022863 0.025324473 -0.15408604
0.1518477 0.1196462 -0.23651244 0.038154293 0.11929969 0.058761977 0.06242369 0.15652432
-0.11930372 -0.027585907 -0.12681222 0.0030893867 0.08330739 -0.09139402 0.036333114 0.116238095
-0.043325257 -0.14663441 -0.053795688 0.093530044 0.11443247 -0.07929728 -0.100849256 0.14356726
0.030734532 0.06013741 0.04419536 0.05548089 0.031384148 0.07087949 -0.10763215 -0.0951152
-0.24513446 0.062222045 0.10601049 -0.069059566 0.14868642 0.048078924 -0.06420723 0.1566551
-0.04211185 0.011083229 0.13534248 -0.171379 -0.10933495 -0.059173882 -0.12183756 -0.15569109
-0.03623285 -0.07007349 -0.11830776 0.073043115 0.011014615 -0.01616424 -0.0077999025 -0.09856257
0.08876963 0.11714827 -0.004996784 0.16522929 -0.114262976 -0.32327697 -0.18740235 0.13025206
0.085855015 -0.021809384 -0.010592167 -0.18338202 0.17503802 0.011268133 -0.08987965 -0.027638812
-0.06094835 -0.18157952 0.08991292 0.043456323 0.065885365 -0.13129775 0.047863703 -0.08836208

fc1.bias f4 [128]
00000000: 8ed2 bc3d e99b e6bd d149 dd3c 8f38 e0bd
00000010: cee4 0e3e 0456 cc3d f6ba 4e3d 7c27 033e
00000020: 17b1 183e 389a 0f3e 1312 a43d 7aed a13c
00000030: 0031 013e 807b bd3d d827 14bd 8daf c93d
00000040: 9813 80bd 027d 503d b19a 9f3d 4c33 d0bd
00000050: ef70 e4bd 0969 25bc 11d4 d03d 2738 e3bd
00000060: 76b8 013d 568b 043e 1f7f 54bc c3f1 113e
00000070: 5df9 4fbd f2c0 d73c 17c2 233d f232 1f3c
00000080: ea03 8d3d 5222 9fbd e5a4 5f3c b903 c03d
00000090: f37f b4bd 6779 8dbd 3a1c bdbd 7e25 fb3d
000000a0: 2426 8ebc 9046 bc3c 27f1 c03d 619b 09be
000000b0: f209 fcbc 31f6 0bbe f50c 203e 08d5 c33d
000000c0: ed7c f1bd 0260 d6bc 4172 0ebe 976b 073e
000000d0: 56da 87bc daaf 263c ef56 b8bc 3523 e53d
000000e0: 9978 c2bc e928 4ebd 7885 ac3d cacb 15be
000000f0: 4d92 853c c9a8 52bd a97f 88bc 2d8a 173e
00000100: b5f4 393d c7f0 0c3e 4c0d 293d 692c f83d
00000110: d061 bbbd 721a b73c 2001 14be 789f ef3c
00000120: 66c4 f13d 12f8 b8bc 16dd a7bd 85c2 62bd
00000130: 4489 d1bd 4fd3 fa3d 471b 123e c5e8 5fbd
00000140: 28d8 d33d 4c77 0e3d c162 193e e809 243e
00000150: d364 c7bd 55fc 6f3c 16a9 bebc 08f0 c23d
00000160: 1904 bd3d 9e4a 693d de89 c2bd dfa1 d9bd
00000170: 5010 6e3d c128 9fbd c59f 78bd bd81 63bc
00000180: fef1 41bd cc68 f13d 8de7 13be 93c2 a03d
00000190: 7030 09bd 419f ed3d 6253 cbbd 7c8e f13d
000001a0: 4326 163e 5ed1 103e 0708 84bd 9b68 d83d
000001b0: c8af 93bd 31dd 48bd 631b 1a3d 79d6 973d
000001c0: 4cc3 fe3d 338c 253d 5ac8 bfbd 01c3 f4bd
000001d0: ed6b 1dbd e62a b93d b0c5 fc3d 0c2a 7a3d
000001e0: 8558 a8bd 7774 f6bd 9dfd af3d 5be2 d73b
000001f0: 133a 883c da7b 853b 069b 20be 0147 8ebd
0.092198476 -0.11260206 0.027012737 -0.10948288 0.1395447 0.09977344 0.05047127 0.12808031
0.14911304 0.14023674 0.0801126 0.019766558 0.12616348 0.092520714 -0.03617081 0.09847937
-0.06253737 0.050900467 0.07793177 -0.10166034 -0.11154353 -0.010095843 0.101966985 -0.110946946
0.031670056 0.12943777 -0.012969761 0.14252381 -0.05077492 0.02633712 0.03998002 0.009716736
0.06885512 -0.07770218 0.013650154 0.0937571 -0.08813467 -0.06907921 -0.092338994 0.122630104
-0.017352171 0.022982866 0.09420996 -0.13438179 -0.030766461 -0.13668133 0.15629943 0.09562117
-0.11791406 -0.026168827 -0.13910772 0.13224636 -0.016583603 0.010173762 -0.02250239 0.11188356
-0.023739146 -0.050331984 0.08423895 -0.1462852 0.016305113 -0.051430497 -0.016662436 0.14798804
0.045399386 0.13763724 0.041272447 0.121178456 -0.09149516 0.022351477 -0.14453554 0.029250845
0.11805038 -0.022579227 -0.08196466 -0.05536129 -0.102312595 0.12247335 0.14268218 -0.054665346
0.10343963 0.03478174 0.14979078 0.16019404 -0.097360276 0.014647563 -0.023273986 0.095184386
0.09229297 0.056955926 -0.09498952 -0.106265776 0.058121026 -0.07771445 -0.060699243 -0.0138859125
-0.047349922 0.117875665 -0.14443798 0.07849612 -0.03349346 0.11602641 -0.099280134 0.11794755
0.14663033 0.14142367 -0.064468436 0.10566827 -0.07211262 -0.04903907 0.037623774 0.07413954
0.12439594 0.040416908 -0.09364386 -0.119512565 -0.038433004 0.09041385 0.123423934 0.061075255
-0.08220009 -0.12033933 0.08593295 0.006588263 0.016629254 0.004073602 -0.15684137 -0.06947137

bn1.weight f4 [128]
00000000: c1f1 8f3f 121c 7f3f 3963 7a3f c9a1 663f
00000010: f774 753f db69 823f 6ac7 7d3f bc40 813f
00000020: 9716 863f c5bf 743f fe35 783f a056 783f
00000030: 1e35 793f d082 7f3f 844d 7b3f 8317 843f
00000040: eca6 823f 247a 873f c0a8 7d3f 777c 713f
00000050: 9956 8a3f c610 913f 47a9 963f c1e2 743f
00000060: 1b1b 823f b9ad 863f 3165 703f 78e4 8f3f
00000070: 8c0b 803f 5a19 783f cef8 863f 4ce9 7f3f
00000080: 4d03 7f3f b477 793f 001b 753f 8942 7d3f
00000090: 0a23 7d3f afd3 843f b961 873f f723 863f
000000a0: 2a7e 8b3f 60c3 813f cf58 853f 4828 7a3f
000000b0: 776c 853f c203 713f f952 783f 9946 743f
000000c0: a23c 9a3f 5abe 723f 644a 793f 9ada 843f
000000d0: b3fa 723f c399 8b3f dc5f 813f 1521 903f
000000e0: 785e 7b3f d31b 823f eadb 993f 54c6 803f
000000f0: 0c14 613f eb67 753f 8dab 7b3f cd18 863f
00000100: 39bc 893f 5b39 a23f a99d 7d3f 7902 7b3f
00000110: 6a0d 7c3f 4dd6 9c3f f21f a73f 7a85 883f
00000120: b126 5e3f 00ff 823f 58bc 7d3f 2b8e 833f
00000130: 89d1 973f c644 833f 87b2 783f ae44 593f
00000140: 01ec 7e3f 0383 763f 29f6 783f 3f7a 843f
00000150: 6173 893f ee81 823f aef0 7f3f e8c7 943f
00000160: 8b0c 7c3f 4a26 7c3f 2cd8 833f d210 823f
00000170: cd2a 883f 9d2d 6f3f b2da 723f 9001 8c3f
00000180: 21e5 673f 66f1 873f 50b0 813f a8bc 833f
00000190: 6763 853f 86a4 763f 2529 793f 4dab 823f
000001a0: 137b 733f cc54 7d3f 5107 773f 6ea3 833f
000001b0: 7b4a 8b3f 8771 853f fb56 833f c5bb 9f3f
000001c0: a028 883f d284 833f 9393 7d3f eb6b 8a3f
000001d0: eec4 813f 0e28 863f fc7c 8c3f 075b 9d3f
000001e0: a45a 933f 32f3 753f 515c 813f 875a 983f
000001f0: 2e0e 833f a657 7e3f de1b 7d3f ad1d 8f3f
1.1245652 0.99652207 0.9780765 0.90090615 0.958816 1.0188555 0.99132407 1.009788
1.0475644 0.9560512 0.96957386 0.9700718 0.97346675 0.9980898 0.98165154 1.0319675
1.020719 1.0584149 0.9908562 0.94330543 1.0807678 1.1333244 1.1770409 0.956585
1.0164522 1.0521766 0.93904406 1.1241598 1.0003524 0.96913683 1.0544679 0.9996536
0.9961441 0.9744828 0.95744324 0.9892965 0.9888159 1.0377101 1.0576698 1.0479726
1.0897877 1.0137749 1.0417727 0.97717714 1.0423726 0.9414636 0.97001606 0.95420223
1.2049754 0.94821703 0.97379136 1.0379212 0.94913787 1.0906299 1.0107379 1.1260096
0.9819102 1.0164741 1.2020237 1.0060525 0.87921214 0.9586169 0.9830864 1.0476319
1.0760566 1.2673753 0.99068695 0.9805065 0.9845797 1.22529 1.3056624 1.0665734
0.8677779 1.023407 0.99115515 1.0277761 1.186082 1.0255363 0.9714741 0.8487042
0.99578863 0.9629366 0.9725061 1.0349807 1.0738336 1.0195901 0.99976623 1.1623507
0.9845664 0.98495924 1.0300345 1.0161383 1.0638062 0.93428975 0.9486495 1.0937977
0.90584 1.0620544 1.0131931 1.0291948 1.042096 0.9634479 0.97328407 1.0208527
0.9510967 0.98957515 0.9649554 1.028425 1.0882105 1.0425271 1.0260919 1.2479178
1.0637398 1.0274909 0.99053305 1.0814184 1.0138223 1.0480974 1.0975642 1.2293404
1.1512036 0.9607421 1.0106298 1.1902627 1.0238702 0.9935249 0.98870647 1.1180931

bn1.bias f4 [128]
00000000: 033a 73be 6f5d 18be 654d 9fbd 67fc 33be
00000010: a6fe 08be da2d bcbc fe56 eebd 720e 94bd
00000020: 04ba 74bd 46de d6bd 51e5 e6bd 926c b6bd
00000030: 5e62 12be 57d0 ebbd 185b 0cbe 4bb8 8cbc
00000040: 4bbd e2bd 403c 1fbe 9c2b 99bd 38ea eb3c
00000050: dced d4bd 449f 2dbe 375b 18be 20cc 0cbd
00000060: eee2 57bd 58ff 31be 529a b4bd 28e6 24be
00000070: 33b6 c73c 6632 8d3c 96af 8cbd 8604 51be
00000080: 21ee 02be 9020 95bd 7848 eebd af9c cabd
00000090: 4d8a 14be 07e3 84bd 2dc0 12be 690a 8bbd
000000a0: 55c4 34be 9658 5fbe 4b67 d5bd f1fc 90bd
000000b0: 7a89 32be 86b4 abbd 3477 993b e53f f7bd
000000c0: aa1a 89be 681f 24bd bf66 ccbd edb4 7dbd
000000d0: 3fec 243d 8f31 e6bd 042f ddbd 66df dabd
000000e0: e4e2 14be 7bc3 7dbd 3e48 2bbe f408 d2bd
000000f0: 7af4 0fbd 17b0 fabd e611 f5bd babf 8dbd
00000100: 6832 153d f3bf 0ebe de04 97bd 5ca6 01bd
00000110: bd35 64bd 5038 4ebe 7675 4bbe 128d 5abd
00000120: 570d 43be 277a 7abb f005 4dbd 421e d9bd
00000130: a249 6cbe 8a83 55be 2be5 f4bd aa93 c5bd
00000140: 1eb8 f9bd 1ea7 b03d 7425 09bc 60e7 a2bd
00000150: 415c 47be 7c18 81bd 156b 273d a842 8dbe
00000160: af76 fbbc 642f 04bd 45b6 03bd d0e3 ecbd
00000170: 61cb efbd 3823 d7bd 4b8e 813c 9845 4dbe
00000180: f3c4 ccbd 4289 2dbd 26d8 92bd 7033 e0bd
00000190: b256 85be f3fc d9bd 578d 2dbe 7620 e7bd
000001a0: affb c9bd ff17 67bd 97b9 59bd d031 26bd
000001b0: e9b8 aabd ad70 d0bd 7cab 10be 4574 06be
000001c0: 0217 71bd 7542 4abe db19 eebd 141f 2ebd
000001d0: e89d 7dbd cafa fbbd efec 09be 9de9 08be
000001e0: cb63 a5bd b8b7 11be aaa3 a0bd d314 0abe
000001f0: faaa e9bd 47ed e3bc 2386 f2bd e887 96bd
-0.23752598 -0.14879392 -0.07778434 -0.17576753 -0.1337839 -0.022971082 -0.11637686 -0.07229318
-0.05974771 -0.10491614 -0.112742074 -0.08907427 -0.14295337 -0.11514347 -0.13706625 -0.017177721
-0.11071261 -0.15550327 -0.07479021 0.028798208 -0.103969306 -0.16955286 -0.14878546 -0.034374356
-0.05270665 -0.17382562 -0.08818497 -0.16103423 0.024378872 0.017235946 -0.06869428 -0.20411882
-0.12786151 -0.072816014 -0.11634916 -0.09893166 -0.14505883 -0.064886145 -0.14331122 -0.06789095
-0.1765302 -0.21811137 -0.10420092 -0.07079495 -0.17435256 -0.083840415 0.0046833996 -0.12072734
-0.26778156 -0.040069014 -0.09980535 -0.061940122 0.040264364 -0.11239921 -0.10799983 -0.10687141
-0.14539677 -0.061954003 -0.16726777 -0.10255614 -0.03514526 -0.12240618 -0.119663045 -0.069213346
0.036425024 -0.1394041 -0.07373975 -0.031652793 -0.05571531 -0.20138669 -0.19869027 -0.05335719
-0.19048057 -0.003821978 -0.05005449 -0.10601474 -0.23074964 -0.2085096 -0.11957773 -0.09647305
-0.12193321 0.08625625 -0.008370746 -0.079542875 -0.19468786 -0.06303498 0.040873606 -0.27589917
-0.030696241 -0.032271758 -0.032156248 -0.11566889 -0.11708713 -0.10504764 0.01581492 -0.20046079
-0.099985026 -0.042367227 -0.07170133 -0.10947311 -0.26042706 -0.10643949 -0.16948448 -0.11285488
-0.09862458 -0.05641937 -0.053155508 -0.04057485 -0.0833605 -0.10177741 -0.14127916 -0.13130291
-0.058859833 -0.19751914 -0.11626025 -0.042510107 -0.06191817 -0.123036936 -0.13469289 -0.13370366
-0.080756746 -0.1423024 -0.078437164 -0.13484506 -0.11409564 -0.027823104 -0.11841991 -0.07350141

bn1.running_mean f4 [128]
00000000: 395f c03d 6c81 e9bd cbb2 f83c 0c30 e0bd
00000010: e144 113e aa8e c13d 3b9e 5e3d 7ac6 023e
00000020: 199b 1c3e 53e9 0b3e 0e7a a23d 405f 993c
00000030: 6b68 fa3d 751a ba3d 8555 23bd 6953 c33d
00000040: ae2f 80bd 1722 4d3d 9819 9d3d d069 d6bd
00000050: 058c e7bd fcdc fbbb 0c9a cc3d c055 ebbd
00000060: aedc e73c c4c4 043e 510a bfbc 2b51 113e
00000070: 800b 48bd e2ea 053d 6f7b 0e3d 7e49 053c
00000080: a457 863d fa58 92bd 6ffa 103c 6032 ba3d
00000090: c4a8 b7bd 95d0 8cbd dc79 b9bd 1c55 f53d
000000a0: 6df9 88bc 7def ce3c c361 b93d a439 05be
000000b0: 774f 05bd 9ff8 07be a161 1c3e a11b c93d
000000c0: 75c9 efbd a15e 01bd 8c24 09be 8f14 053e
000000d0: 9053 7bbc eb2f 683c 6889 d5bc 759f f43d
000000e0: 0580 cebc d36d 44bd d6f2 b73d 48b5 19be
000000f0: 5555 373c 207f 5fbd f1a2 82bc c7f6 193e
00000100: 44c4 373d d463 103e 6aac 243d 2c88 f23d
00000110: 8484 b2bd 5fd0 bf3c c5d5 12be 40ca e63c
00000120: 11e9 e53d c291 ccbc e5a2 a9bd 232f 4ebd
00000130: a49d cebd c8cb f43d 9ebd 0b3e 9ed3 69bd
00000140: f84a d53d b763 1c3d 9aa7 163e 4277 293e
00000150: 9c02 c0bd 75d4 703c 9226 b5bc a346 c43d
00000160: 596e b43d c69e 723d b6ab c0bd 6bed d9bd
00000170: 3224 713d 2517 a3bd 66e0 60bd 63bf 82bc
00000180: 84e7 45bd 7231 f93d e187 17be 7363 993d
00000190: 0287 14bd b1b4 ec3d 3095 cabd 2365 ed3d
000001a0: af71 0f3e 0f88 143e d8dd 5ebd 1507 d43d
000001b0: e7ec 90bd 5ece 55bd f79f 0d3d 0f6b 9c3d
000001c0: 54c0 013e 919c 2f3d 1482 c5bd fde8 eebd
000001d0: c9ff 11bd 24b4 b63d 18a8 043e a83c 763d
000001e0: d401 9abd 5795 00be 8893 b73d 4064 f63b
000001f0: a03f 523c feeb 1a3b a44b 20be 420e 81bd
0.09393162 -0.114016384 0.030358693 -0.10946664 0.14186431 0.09451039 0.05435012 0.12771025
0.1529354 0.13663225 0.07933436 0.018722177 0.122269474 0.090870775 -0.03987648 0.095373936
-0.06259094 0.05008134 0.07670897 -0.10469401 -0.113060035 -0.0076862555 0.099903196 -0.11490965
0.02830347 0.12965685 -0.023320349 0.1419112 -0.048839092 0.032694705 0.034785684 0.008135198
0.06559685 -0.07145877 0.0088487705 0.090916395 -0.08967736 -0.06875721 -0.09056446 0.11979124
-0.016720498 0.025260681 0.0905185 -0.1301027 -0.032546487 -0.13278435 0.15271617 0.09819723
-0.11708347 -0.031584386 -0.13392848 0.12996124 -0.015339747 0.014171581 -0.026066497 0.119444765
-0.025207529 -0.0479563 0.08981864 -0.1501056 0.011189778 -0.054564595 -0.015946837 0.15035544
0.044864908 0.14100581 0.04020349 0.11842379 -0.087166816 0.023414789 -0.14339359 0.028172612
0.112260945 -0.024971846 -0.08283023 -0.05033792 -0.10088661 0.11952931 0.13646552 -0.05708658
0.1041469 0.038181033 0.14712372 0.165494 -0.09375498 0.014699091 -0.022113118 0.095837854
0.0881011 0.05923345 -0.09407751 -0.10640987 0.05887241 -0.07963399 -0.054901503 -0.0159604
-0.048316494 0.12167634 -0.14797927 0.074896716 -0.036261566 0.11557902 -0.098917365 0.11591556
0.1400821 0.14505027 -0.054410785 0.10352913 -0.070764355 -0.05219876 0.034576382 0.07637607
0.12671024 0.042873923 -0.09643951 -0.11665533 -0.035644326 0.08921078 0.12954748 0.06011644
-0.0751988 -0.12556969 0.08963686 0.007519275 0.012832552 0.0023639197 -0.15653855 -0.063015476

bn1.running_var f4 [128]
00000000: 414c 0f3e 41d8 743e 7bd3 463e 4076 613e
00000010: c0b7 793e e3f9 a33e 2292 d43e cca1 da3d
00000020: 7561 863e 1ee0 b93e a06b 103e bc27 af3d
00000030: c960 193e 173c f03d 3970 ee3d 4564 463e
00000040: 287a 483e 13e7 ec3d 7663 683e ea63 f63d
00000050: 933a 7f3d bca5 1a3e dbcc 403e 226a 403e
00000060: 238b 523e 98bb 823e c7c2 313f fe5f 2b3e
00000070: b2ae 913e 52e6 143f b727 6d3e fb76 db3d
00000080: 0525 2f3e 7874 563e bf05 b03e 8c86 5a3e
00000090: fe3c 273e a265 a23e 719e dd3e 2594 7e3e
000000a0: 359c b33d 10e2 8c3e 01fc 9f3e 277e 0d3f
000000b0: cc8c cb3e 58ff 023f 10fb 223e a38e 673e
000000c0: e7d0 803d c8d6 b73e a6ea 493f 4410 713e
000000d0: 347a aa3d 962e b03e a7ad f53e d28d a13e
000000e0: 53c0 6b3e 9343 323e ca5c f03d 18a2 b53e
000000f0: ecf8 183f 706f 163e 52c6 8f3e 5089 a33e
00000100: c75a a23d 9871 1c3e 0ebd 053e e16e 3d3e
00000110: 87cc 193e ffae 1f3e ab84 083e 91b9 203e
00000120: c6dc 4c3e ab59 863e 0e45 f13d 742a fd3e
00000130: 11a5 de3d 7cf2 523e 2871 ed3e f472 eb3e
00000140: f445 933e defa 263e 3c83 de3d e3cb 133f
00000150: c97d 133e 1d79 003e 0f29 343e a27d 9a3d
00000160: 4c33 223e 305a 2a3e cc50 ba3d 0c5f 323e
00000170: f5e4 bf3e cd04 6b3e 5726 563f a5be 723d
00000180: 59e0 8c3e e061 2f3e 8c7c 153e 3595 a03e
00000190: 3f07 1e3e 17e9 fd3d 65d1 f63d 24b9 d33d
000001a0: de82 f23e 7857 973e 774d aa3f 1675 193e
000001b0: 323e ec3e 9bd7 203e 3324 153e edc9 c23d
000001c0: 589d 4d3e a043 ad3d c4a7 903e dea2 bb3d
000001d0: 55b6 383e c984 1f3e 5cce 833e 3985 973e
000001e0: bd9a 563e 386b 2e3e f315 c03e 01a8 523d
000001f0: e108 d33e bf79 ae3d cc7e 443e 811f 613e
0.13993932 0.2391062 0.19416611 0.22017765 0.24386501 0.32026586 0.4151774 0.106753916
0.2624623 0.363038 0.14103556 0.085525006 0.14978327 0.11730211 0.116424985 0.19374187
0.19577849 0.115675114 0.22694191 0.12030776 0.06231172 0.15102285 0.18828146 0.18790486
0.20560889 0.25533748 0.6943783 0.16735837 0.28453594 0.5816394 0.23159681 0.10716053
0.17103966 0.20942867 0.34379384 0.21340388 0.1633186 0.31718165 0.43284944 0.248612
0.087700285 0.27516222 0.3124695 0.5527062 0.39755857 0.51170874 0.15916085 0.22613005
0.06289845 0.35906053 0.7887367 0.23541361 0.0832409 0.34410542 0.4798405 0.31553513
0.23022585 0.1740859 0.11736448 0.3547523 0.59754825 0.14690948 0.28080994 0.319407
0.07927471 0.15277708 0.130604 0.18499328 0.15019427 0.155941 0.13331859 0.15695788
0.20006093 0.26240286 0.11780749 0.49446452 0.10871328 0.20600313 0.46375394 0.4598614
0.28764307 0.16306636 0.10864875 0.5773298 0.14403452 0.12546201 0.17593788 0.07543494
0.1583988 0.16635966 0.09097442 0.1741907 0.37479368 0.2295105 0.8365225 0.059263844
0.27514914 0.1712718 0.14598292 0.31363836 0.15432452 0.12397974 0.120516576 0.10338047
0.4736547 0.2955892 1.330489 0.14986071 0.461412 0.15707247 0.1456459 0.095111705
0.20079553 0.08460164 0.28252995 0.09161924 0.18038304 0.15577997 0.25743377 0.29593828
0.20957465 0.17033088 0.37516746 0.051429752 0.41217712 0.08519315 0.19188994 0.21984674

fc2.weight f4 [64, 128]
00000000: effc b03c 3d87 bd3b 5ebf 77bd cc07 263d
00000010: 5066 4e3d bdc6 17bd 30ec 573d dcad 0e3d
00000020: ea31 95ba 2821 11bd 72f9 ccbc aac4 d7bc
00000030: 1d26 213d ddbb 87bc fbde 29bd 0e73 823d
00000040: 2b3c 233d 35a4 17bd 9a6e 3cbd 6ede 0eba
00000050: 14ca 953d da93 d63d 30a9 463d af00 a9bd
00000060: bdda 483d 577e 0e3d d0ab 92bd 5946 05bc
00000070: 75c3 c3bd 6a70 fe3c db8b 663c 53b9 a3bd
00000080: d715 9bbc 156c 20ba 3f53 76bb 6055 b73c
00000090: 591d 0cbb b81a 453c 243e bc3c 8c69 963c
000000a0: d282 e4bd 88e8 25bd 44f7 fc3c 485d c13c
000000b0: f876 733d 661e 143d 7b3c babd e4d6 553d
000000c0: ce51 43bd a89d c53c a6e9 8e3d 8328 d33c
000000d0: df00 2fbc bb3c 1a3c 723c f1bb fab7 9b3d
000000e0: 2723 f93c f345 32bd 16ef 14bd 614d 583c
000000f0: 6d41 0139 2c95 9bba 988c b8bc 3ee7 973d
00000100: ff33 01be 1195 4a3c 0fdb 6abc 8675 73bd
00000110: 102b c0bd 8f6c afbb 39de 973d ba34 3b3b
00000120: 0240 ddbb b81d bbbd 8035 233d 0b14 7f3d
00000130: 42c4 993c 45ea 873d 1fd6 51bd 04b2 86bd
00000140: 1c8f 123d b27f 84bd bab6 d5bd 0b21 593d
00000150: a081 393c 1e8e 573d 0545 0fbd 5223 003e
00000160: 2882 c8bd 03aa 0cbe be2e 713c 3927 debd
00000170: 7ba0 1b3c 6831 95bb c299 7fbc 4ad7 16bd
00000180: e5d3 b5bd fbec 503d 1cfc 9bbd 0dab c13d
00000190: 9935 9a3c f506 bcbd b1cb 1abd c6f1 be3c
000001a0: d673 e2bc 7e03 b239 555f 673d feab b7bc
000001b0: ff32 793b 5fa8 a9bd dddf 7c3d b4dd 08bd
000001c0: a2eb e33c 4e4a c13a a071 9d3d 4c6e 77bd
000001d0: 75ee 5d3d e88b 323c 855f 073d 4de8 3c3d
000001e0: f215 fa3b 0e14 99bd 5089 c3bd 054e 063c
000001f0: 60ca 273d a3d3 db3c a598 523c e729 5abd
00000200: 8c89 003d e30b 86bd fa00 373d c9cc 7abc
00000210: f26f b63c 8b68 92bc 1696 a23b 874a d33d
00000220: e298 ef3b c848 9f3c 2435 c4bd dd1a 5bbc
00000230: f512 1fbd 3e05 88bc b9c2 08bc c8f6 89bd
00000240: e2cb 173d c8ba 1d3b ebda b6bb 2e77 b0bc
00000250: 7e65 7c3d 02be a13c 3489 3f3d d454 fd3c
00000260: d12e 78bd ab57 04bd aa45 a7bc 6152 b7bd
00000270: 6ee0 6c3d 8d58 82bd 3814 be3d e5ff 913c
00000280: 6582 5c3c e5db 10bd bd06 4fbd 0d62 adbd
00000290: f4d8 99bd e86c 72bd 2960 103d b847 15bd
000002a0: ad23 72bd a931 4a3d 3c4e 8cbc 7112 c7bd
000002b0: 865c ff39 5d39 36bd b490 bbbd 8af6 86bc
000002c0: 1e6c 373d 811a d83c 8d49 763d 0cc9 613c
000002d0: 473c debc 8d68 1f3d aafc 293d 49ed 9bbd
000002e0: c130 bf3c 56f5 c43d 6f7b af3b 66ec 1dbd
000002f0: d820 9bbd bd47 123d df91 55bd 92ba 02bc
00000300: 8ed0 ee3d c98a 67bd a74c 57bd 7ecf 66bc
00000310: b11d 2b3d 909d 963d 7357 85bd 91a7 6e3d
00000320: 4253 1bbd f20b 8b3d 9507 bdbd 7bbc dabc
00000330: e6a7 ccbd a0f8 0f3d c7d0 c7bd 5386 b0bd
00000340: 13a7 1938 b628 183d 11a6 25bd 8cbc 373c
00000350: 95f1 8bbd 73b5 e6bc 08ca e73b 5b05 0d3d
00000360: 0842 793d dbc2 12bd 88de 983c a826 9e3d
00000370: a48d c5bd 1a88 4cbb 8768 ccbc 8bae 993d
00000380: 4b97 5abc a156 febc 2a10 8d3b a57a 58bd
00000390: 325b 333d 3e15 fc3c a0cb 573d 9bc2 873d
000003a0: 3960 1e3d d1f5 ca3d 351b 65bb c9e7 17bc
000003b0: fe9e 42bd 991d fb3d 0617 f03b a629 87bd
000003c0: a1bf 093e 99a4 373c 4273 9fbd ea58 b03d
000003d0: da2e 8dbd c0ba 06bd c3ba 87bc 4d08 d83d
000003e0: e2e0 553d 7780 7f3d a1df 8e3d 509c 1f3d
000003f0: 1a3b a0bd 3cb0 163c fe25 b0bd d30d dd3d
0.021604983 0.005783944 -0.060485236 0.04053478 0.05039054 -0.037054766 0.05271548 0.034833774
-0.0011382673 -0.03543201 -0.025021289 -0.026338894 0.03934299 -0.016569072 -0.041472416 0.06369601
0.039852303 -0.037021834 -0.046003915 -0.0005450015 0.07313934 0.10477419 0.048501194 -0.082520835
0.04903673 0.034788456 -0.07161677 -0.008134448 -0.09558765 0.031059463 0.01407143 -0.07994332
-0.018931312 -0.0006119621 -0.003758624 0.022379577 -0.0021379797 0.012030296 0.02297885 0.018360876
-0.111577645 -0.040504962 0.030879624 0.02360405 0.05943963 0.036161803 -0.09093567 0.05220689
-0.047685437 0.024123028 0.06978159 0.025776153 -0.01068136 0.009413893 -0.007361942 0.0760345
0.03041227 -0.04352374 -0.036360823 0.013202042 0.00012326772 -0.0011870018 -0.022527978 0.07417153
-0.12617491 0.012364642 -0.014334454 -0.05943825 -0.093832135 -0.0053535174 0.074154325 0.0028565363
-0.006752015 -0.09136528 0.039845943 0.062274974 0.01877034 0.0663648 -0.051229592 -0.065769225
0.03578101 -0.064696684 -0.10435243 0.053010028 0.011322409 0.052625768 -0.03497793 0.12513474
-0.0979045 -0.1373673 0.014720617 -0.10847325 0.009498711 -0.004553009 -0.015600624 -0.03682641
-0.08878306 0.051007252 -0.076164454 0.094564535 0.018824385 -0.091810144 -0.03779191 0.023308646
-0.027643126 0.00033953408 0.0564874 -0.02242088 0.003802478 -0.08284067 0.06173693 -0.033414558
0.02782232 0.0014746876 0.07687688 -0.06040792 0.05418249 0.010897614 0.03305008 0.046119977
0.0076320106 -0.07474528 -0.09547675 0.008197312 0.040964484 0.026834315 0.012853776 -0.053262617
0.031381175 -0.06545236 0.044678666 -0.015307614 0.022270177 -0.017872116 0.0049617393 0.10316949
0.007311926 0.019443884 -0.09580448 -0.013373104 -0.03883644 -0.016604062 -0.008347207 -0.06736523
0.037059672 0.002406763 -0.0055802963 -0.021541204 0.061620228 0.019743923 0.046761706 0.030924238
-0.060591523 -0.03231017 -0.02041896 -0.089512594 0.05783122 -0.06364546 0.092812 0.017822215
0.013458823 -0.035365958 -0.050543536 -0.08465967 -0.07512084 -0.059185892 0.035247955 -0.03644535
-0.059116054 0.049363766 -0.017127149 -0.09720314 0.00048706325 -0.0444883 -0.09158459 -0.01647498
0.044780843 0.026379826 0.060128737 0.0137808435 -0.027128352 0.038918067 0.041500725 -0.07613618
0.023338677 0.096171066 0.0053552906 -0.038555525 -0.07574624 0.035712946 -0.052141067 -0.007979052
0.116608724 -0.05652884 -0.052563336 -0.014087556 0.041776363 0.073542714 -0.0651082 0.058265273
-0.037921198 0.06789388 -0.09229962 -0.026701203 -0.099929616 0.035149217 -0.09756618 -0.0861937
3.6633643e-05 0.0371482 -0.040441576 0.011214387 -0.068331875 -0.028162694 0.0070736445 0.034428935
0.060853988 -0.03583036 0.018660799 0.07722217 -0.096461564 -0.0031209053 -0.024952186 0.075039946
-0.013341735 -0.031047167 0.0043049054 -0.052851338 0.043788143 0.030771848 0.052684426 0.06628915
0.038665984 0.09910167 -0.0034958844 -0.0092715705 -0.047514908 0.12261505 0.0073269634 -0.06599741
0.13452007 0.011208677 -0.077856556 0.08610709 -0.06893702 -0.032892942 -0.016568547 0.10548458
0.052216418 0.062378373 0.069762476 0.03896743 -0.07823773 0.009197291 -0.086009964 0.107936524

fc2.bias f4 [64]
00000000: 55a1 b2bc 5c08 5c3d d1c4 fd3a 54d6 cf3a
00000010: 7354 a1bc 53c1 9dbd e048 34bc 07b2 34bc
00000020: 46e9 b2bc 25d4 413d 137e 56bd 7627 123d
00000030: 6730 943d fd4f 973d ac97 39bc 2934 92bd
00000040: 2917 f63c 2c01 793b 379c 053d ab73 763d
00000050: f92c 873d e612 8abd 6fb3 343d 81e8 9d3d
00000060: 9f10 94bd e040 a33d 92cd 863d e75f a6bd
00000070: 6d5e 1c3d d8a3 69bd c979 b2bd aa76 83bb
00000080: c766 963d 7284 3cbd d8a5 a63c b138 9cbd
00000090: 820d aa3d 59ab a3bd 8afd 5b3c de13 a5bd
000000a0: 8767 ad3d 3a5c 553c 8fbc 5b3d d930 89bd
000000b0: 3fb1 9ebd 6bd3 e43c 67b2 403b 6481 e4b9
000000c0: 0ce0 43bd cc65 823d 3c99 e7bb 0043 70bd
000000d0: dc63 4b3c 64f7 843d d709 8abd 13b1 4b3d
000000e0: fdec 34bd ee80 12bd 1766 bdbc 7f9b 613d
000000f0: d0e9 8c3d 20d8 98bd 313b e9bc c098 f63b
-0.021805445 0.05371891 0.0019361024 0.0015856721 -0.019693589 -0.07702889 -0.011003703 -0.011028773
-0.021839749 0.047321457 -0.052366327 0.035682164 0.072357945 0.073883034 -0.011327665 -0.07138855
0.03004034 0.0037995083 0.03261968 0.060168903 0.06600375 -0.06741886 0.044116434 0.07710362
-0.07229733 0.07971358 0.06582178 -0.08123761 0.03817599 -0.05704102 -0.08714635 -0.0040119486
0.07343822 -0.046024747 0.020342752 -0.076280005 0.08303358 -0.07991666 0.013427148 -0.0806043
0.08467012 0.013022477 0.05364662 -0.0669877 -0.07748651 0.027932843 0.002940321 -0.00043583952
-0.04782109 0.063670725 -0.0070678275 -0.058657646 0.012413945 0.064924985 -0.06740158 0.049729418
-0.044171322 -0.03576749 -0.02311997 0.055079933 0.06880534 -0.074630976 -0.028470607 0.0075255334

bn2.weight f4 [64]
00000000: b6d7 853f 1611 773f 86ab 7f3f dc9b 893f
00000010: 8b0a 813f 95bc 823f 149b 943f a3ab 7d3f
00000020: 7b3b 773f 1172 6f3f c187 803f b6cc 803f
00000030: 1e96 813f 1a54 893f 6f4d 7b3f 64fd 7a3f
00000040: eafd 753f 67a7 7f3f 5e05 923f d4d0 763f
00000050: 2404 8a3f d0b6 823f 2c28 883f 125f 863f
00000060: 289f 783f b5de 873f 2d35 8d3f 7a2d 7f3f
00000070: 32e4 7a3f 7647 8d3f 03a8 823f 6c7d 853f
00000080: 375c 8b3f 1d50 8d3f 739c 753f 49ab 743f
00000090: 119c 8a3f 1d66 803f 5ebb 813f 200c 8a3f
000000a0: 5a36 823f c28c 733f 76fe 7d3f 754e 843f
000000b0: 27ba 8f3f 5246 813f 2432 7e3f 6d90 833f
000000c0: 99df 813f 2896 7c3f 4e99 7c3f b94e 773f
000000d0: 47f5 883f aa00 7d3f 6686 7c3f 7e1d 823f
000000e0: 8249 973f 8a53 7d3f 6ace 733f e027 8b3f
000000f0: 1009 843f 650c 8c3f 7114 843f 2293 783f
1.0456455 0.96510446 0.998711 1.075069 1.0081342 1.0213801 1.1609826 0.9909002
0.96575135 0.93533427 1.0041429 1.0062473 1.0123937 1.0728791 0.9816503 0.98042893
0.9609057 0.9986481 1.1407888 0.96412396 1.0782514 1.021204 1.063726 1.0497763
0.97117853 1.061484 1.1031853 0.99678767 0.9800445 1.1037433 1.0207523 1.0428901
1.0887517 1.1040074 0.9594185 0.9557386 1.0828878 1.0031163 1.0135305 1.078495
1.0172837 0.95136654 0.992164 1.0336443 1.1228684 1.0099585 0.9929526 1.027845
1.0146362 0.9866662 0.98671424 0.96604496 1.0699853 0.9882914 0.98642576 1.016525
1.1819308 0.98955595 0.9523684 1.0871544 1.0315266 1.0941283 1.0318738 0.97099507

bn2.bias f4 [64]
00000000: 3d35 b83c 5e43 54bd ae47 56be 9d1e d63d
00000010: 17ba ef3c 578d 02be 8239 c13d df02 e7bd
00000020: 96d6 b0bd 6ab8 28be 52c1 19bd 796d 18be
00000030: c90d d9bc 2a39 33bd e258 6d3d ff60 adbd
00000040: 70f6 41bd 8822 64bd 2ca5 ac3d 398a 0fbe
00000050: 4cba c73d 31bf 03be fba9 54bd 3310 90bc
00000060: 683f 39bd 9698 813d 1e50 56bd d5f3 f2bd
00000070: a1ae 47bc fa4c 9bbc 4ae1 c2bc 403b dbbc
00000080: 47af e43c 497f db3d 2af1 0ebe a4f0 03be
00000090: af70 323d a683 42be 121f a13d e438 cc3d
000000a0: 8cfb cbbe 7855 5abe 2b6d a4be 7526 4a3c
000000b0: 9976 0d3d 6b59 64bd 391f 97bd 4ab8 f7bc
000000c0: 5b5a 13be dbd8 ebbd 757a 49bc f0d0 7bbc
000000d0: 10d0 933d c671 35be aa3a 6abd 9a40 bdbd
000000e0: e864 9e3d d83f c8bd 3826 48bd 6ed1 77bd
000000f0: 59a7 563d 5608 87bc b736 c3bc b75b 3abe
0.022486323 -0.05182206 -0.20925781 0.10455058 0.02926354 -0.1274923 0.09434797 -0.112798445
-0.08634679 -0.16476598 -0.03753788 -0.1488551 -0.026495831 -0.043755688 0.057946093 -0.08465766
-0.04735416 -0.055696994 0.084299415 -0.14017572 0.0975233 -0.12865902 -0.05191992 -0.01758585
-0.045226485 0.063279316 -0.0523225 -0.118629135 -0.012187631 -0.018957604 -0.023789067 -0.026761651
0.02791561 0.10717637 -0.13959184 -0.12884766 0.043564495 -0.18995532 0.07867254 0.099717885
-0.39840353 -0.21321666 -0.3211454 0.01233827 0.03453693 -0.055749338 -0.07379002 -0.030239243
-0.14389937 -0.11515971 -0.012297262 -0.015369639 0.07217419 -0.17719182 -0.057184853 -0.092408374
0.0773409 -0.09777802 -0.048864573 -0.060502462 0.05240569 -0.016483467 -0.023829801 -0.18199049

bn2.running_mean f4 [64]
00000000: 7b7c 9abd f2a9 8c3d bfa1 41be 434f b5bd
00000010: 0ad4 81be 8630 013d ba91 68be 17ad 9f3d
00000020: 9480 28be 3175 12be eba3 96be 26b9 1b3d
00000030: 5937 10be 2839 623e e2f8 5dbd 717f 94be
00000040: aec4 133e 9538 1cbe 1cd5 02be e20b 943d
00000050: eed3 fcbd 2776 a4bd 2a81 35be b73f 843d
00000060: 0d12 93be 38d9 18be 7748 0a3d abd5 84bd
00000070: 6a33 76be 59df 17be 8aba 42be 830b 20be
00000080: 8f9f dfbd 9828 32be 4f73 0dbe d6e4 18bd
00000090: 822e 0ebe d9e9 24be 66f7 f4bd a127 a3be
000000a0: 08f5 0dbe 9061 3e3d 2dfc 90be 4497 bcbe
000000b0: 4292 5cbe d9ba 83be 86f2 7cbd 5ff7 77be
000000c0: e24b 36be 60b3 55bd cc5e 79bd 1282 163c
000000d0: bcf5 3abe 1e47 0cbe d873 3cbe b62b 50bd
000000e0: 72e1 3fbe cb3f 2dbd 3bb6 63be fa2f 843c
000000f0: c8ee 6e3d ef0e 81be 2738 8ebe 6da7 f43d
-0.07543274 0.06868352 -0.18909357 -0.088530086 -0.25357085 0.031540416 -0.2271184 0.07796686
-0.16455299 -0.14302517 -0.29421934 0.03801837 -0.14083613 0.22092116 -0.05419243 -0.2900348
0.14430496 -0.1525596 -0.12776607 0.07228829 -0.1234511 -0.08030348 -0.17725053 0.06457465
-0.2872471 -0.14926612 0.033760514 -0.064860664 -0.2404305 -0.14831294 -0.19016472 -0.15629391
-0.10919105 -0.17398298 -0.13813518 -0.03732761 -0.13884929 -0.16104831 -0.1196125 -0.31866172
-0.13863003 0.04647976 -0.28317395 -0.36834157 -0.21540168 -0.2572849 -0.061754726 -0.24215458
-0.17802384 -0.05217302 -0.06088142 0.009186285 -0.18257803 -0.13699004 -0.18403566 -0.050822936
-0.18738344 -0.042297166 -0.22237484 0.016136158 0.05833319 -0.25206706 -0.27777216 0.119459964

bn2.running_var f4 [64]
00000000: 7855 3d3f a1dc 413e 4419 813e 8d60 1c3f
00000010: 0e74 0c3f 82ba 783f c469 173f 57f2 2f3f
00000020: 1c3a 223f 1471 e23e 6dc2 753f 10db 2b3f
00000030: 6651 373f 6c2c ff3e a839 003f 1358 0e3f
00000040: 26f9 023f c480 113f 7beb 283f 89ae 003f
00000050: fd6e 833f 41d8 253f c25c 443f 8214 313f
00000060: bc06 023f 2990 0f3f 2d64 073f 5633 2e3f
00000070: a48d 303f 35af f23e d2db 323f 4086 823f
00000080: aea6 ef3e 92af 003f cf63 a53e c0ad e53e
00000090: 49db 3a3f 633f ec3e e70c 273f ff1b 1b3f
000000a0: 927a 9e3e b098 363e ab49 c13e a15d 053f
000000b0: b072 ff3e eb1b 3d3f cd6f e73e 14f5 f53e
000000c0: fc06 e53e 57a7 c13e 226b 3b3f 3179 0f3f
000000d0: 49a3 553f 5b24 a13e f28b fc3e 6ecb f03e
000000e0: fb60 443f 0eba 433f e539 043f 8206 2d3f
000000f0: 7f8b 333f 2d8b 0f3f 27fc 2f3f 2890 763f
0.7395854 0.1893182 0.2521459 0.61084825 0.54864585 0.9715959 0.5914576 0.68729156
0.6336992 0.44226897 0.95999795 0.6713114 0.7160858 0.4983858 0.50087976 0.5560314
0.5116142 0.56837106 0.65984315 0.5026632 1.0268246 0.647831 0.7670404 0.6917192
0.50791526 0.56079346 0.5288723 0.6804708 0.68966126 0.47399297 0.6986667 1.019722
0.46806854 0.502679 0.3230271 0.44859123 0.7299085 0.4614211 0.6525406 0.60589594
0.3095289 0.17831683 0.37751517 0.5209599 0.49892187 0.73870724 0.45202485 0.48038542
0.4473189 0.37822983 0.73210347 0.560443 0.8345228 0.3147305 0.4932552 0.47030205
0.7671048 0.7645577 0.5165084 0.67588055 0.7013473 0.5607174 0.6874413 0.96313715

fc3.weight f4 [32, 64]
00000000: f924 94bd 5f9f ac3d 3bc4 ad3d 7ab5 8fbd
00000010: 2216 a43c 62af 64bd 2525 ec3b 0f0e 1cbe
00000020: e28e 013d 1e98 003c 07ef 4abe dfd2 7abd
00000030: 4e4b a43d ab26 fcbd 3f18 cbbc a7f7 12be
00000040: 2b2c 0ebe 4020 0dbe e9b8 ed3b b5ab b7bd
00000050: 276e 24bc d1db 84bd 4369 90bd 51b6 2fbe
00000060: 9fb2 7a3d c44f bc3c 7b03 83bd 6be0 88bd
00000070: cadd 13bc 62ff d3bd 6058 2abe 4cdb cfbd
00000080: 822f a0bc 2816 cfbd e7ec 1f3b 3f13 debd
00000090: fb39 1cbd a049 52bd f202 eebd ea43 0dbd
000000a0: a7eb 413d bcbc df3c 5920 b53d 9ee9 10bd
000000b0: da8d 9bbd 0b79 fbbd 3c12 c33c b129 ce3d
000000c0: 7cd0 1ebd 140c 1d3d 09b7 e5bd 4840 233d
000000d0: b5cc fcbc d29d 10bc fe22 ee3c 4099 8bbd
000000e0: f885 a3bc d89e d13d e044 09be 4589 12be
000000f0: 4c4b 6e3c 35d9 523d f898 5fbd d781 353d
00000100: e084 173d 2043 183d 0d59 a83d b9ed 69bd
00000110: 26fa 59bd 35f0 13bc 393f 0bbe 5c3f c0bc
00000120: 3426 d73c 8027 863d ad9c 583d 26fe 36be
00000130: 49af 50bd cfa5 b3bc d9c3 14be dcb9 983d
00000140: 5e2c 893d bb10 19bd a726 ddbd 6c33 aebd
00000150: 0813 01be 0a3d 13be b919 a83c df4d 213d
00000160: 4a7a b0bd 0758 1dbe 2f49 bc3c 5a88 853d
00000170: 8bc7 93bd 67e9 79bd 083a cabc 7e2f 2fbd
00000180: 9a55 3dbd ccb0 133c 29e4 4b3d f158 0abe
00000190: 3f24 1ebe 6586 583d 98a5 0fbd 2166 11be
000001a0: 7636 b2bd 65e2 e9bc a6bd 63bd 931f 1bbe
000001b0: bdf9 b2bd 3583 db3c 74c7 853d 4236 a8bd
000001c0: c632 56bd 0f17 b53d cd85 5cbd 99ca b1bc
000001d0: 0533 81bc 310f 24bd 1296 8cbd 1793 50be
000001e0: 90b6 0ebe 131b af3d 6fce 523d 9710 a53b
000001f0: 3cda 8e3d fc0b 2e3d dff3 323d 1ef2 953c
00000200: babe 47bd 1402 953d 206b aebd a461 6d3d
00000210: f679 1fbd 120f dc3b 163d afbc 3ee7 a23d
00000220: d715 b73d 6a57 94bd f114 7cbd ad3a bb3d
00000230: 24a5 38bc ed61 8cbc c72a 05be 75f5 ca3b
00000240: 369a 9a3d 8147 863d 4d10 87bd eea0 043d
00000250: 062d 9939 c8de fb3d 70a5 813c 662d a93b
00000260: 351d 88bd 4e8d 843d bcd1 eebb cdd3 003e
00000270: 2c3f d2b9 0558 53bd ce35 3e3d 6229 30bd
00000280: 2b14 4dbd 0bee a03a e7cf f43c 38cf 863d
00000290: 07ef 8d3d 702c 483d dad9 8cbc 950d 6b3d
000002a0: cdb3 47bd fd51 85bd 7fa1 a53d 30ed df3d
000002b0: 7a7a 733c 2f11 243d d788 8a3b a4e5 a8bd
000002c0: 369c 1f3e 6324 753d ffd8 4b3d 56bd ebba
000002d0: cbbd 9ebc 67f8 a43d df47 1fbd 30d3 cb3d
000002e0: a8cf 09bd 8592 d93d e93e b73d 466c b03c
000002f0: 7b98 50bd 33d8 c63c f4f0 63bd 07ae 00bd
00000300: 044d bdbd af08 8b3c 191c 7e3d c436 953b
00000310: 7a4c 62bc 8abe bdbd e4ba 94bc 7d81 85bd
00000320: 7b5b d7bd ffa0 8abd b131 83bd 792e 303b
00000330: b7b8 653d 9199 383d cf29 533a ea17 513d
00000340: d248 55bd 78d3 d63c 0f94 00bd 3be5 2dbe
00000350: 26f7 99bd 4cda 5c3d f907 00be aed4 c3bd
00000360: ec15 05be f3eb 52bd 3edb 80bd 4055 acbd
00000370: b1e0 3fbd 11be 333d 0cf0 23be 76fa e4bd
00000380: 56f2 8dbd 3988 fe3c e29f b7bc 929b 84bc
00000390: 9d4e 8abd 4499 6cbd b4f2 cdbd 61e8 9dbc
000003a0: 6031 4e3e f605 a63d 4fb5 963d 1151 803d
000003b0: 5a24 4c3c 602f f1bc defc 133d 48e7 a3bd
000003c0: 5d2a 653d ffd9 93bd 75d5 0fbd 73f3 37bd
000003d0: 66ef 783c 559e e93d 35cf 4a3d e299 46bd
000003e0: a270 c63c 011d e1bd 8356 3fbd f9cf edbc
000003f0: fa6d f43b 47ec 09bd 03b7 f5bc 29ae 1ebd
-0.072336145 0.08428835 0.084846936 -0.07017036 0.020030085 -0.05583132 0.0072065764 -0.15239738
0.031630404 0.007848768 -0.19817744 -0.06123626 0.08022176 -0.12312063 -0.024791835 -0.14352284
-0.13884036 -0.13781834 0.007254709 -0.089682974 -0.010036028 -0.06487239 -0.07051327 -0.17159392
0.061205503 0.022987254 -0.06397148 -0.06683429 -0.009025047 -0.10351445 -0.16635275 -0.101492494
-0.019553903 -0.10111648 0.002440268 -0.10843515 -0.038141232 -0.051339746 -0.116216555 -0.034488596
0.047343876 0.027311675 0.088440605 -0.035379045 -0.075954154 -0.122789465 0.023812406 0.10066546
-0.038773045 0.038341597 -0.11216552 0.039856225 -0.03085933 -0.00882669 0.02906942 -0.068163395
-0.019961342 0.10235375 -0.1340518 -0.14310177 0.014544319 0.051476676 -0.05458924 0.044313278
0.036991954 0.03717339 0.0822011 -0.057111476 -0.053217076 -0.009029438 -0.13598336 -0.023467712
0.026263334 0.06550503 0.052883793 -0.17870387 -0.050948415 -0.02192965 -0.14527835 0.07457325
0.066979155 -0.03736947 -0.10798388 -0.08505902 -0.12604916 -0.14378753 0.020520078 0.039380904
-0.08617075 -0.15365611 0.022984115 0.065201476 -0.07215794 -0.061013605 -0.024685875 -0.0427699
-0.046224214 0.00901432 0.049778137 -0.13510491 -0.15443514 0.052862544 -0.035070032 -0.14199115
-0.08701794 -0.028550336 -0.055600785 -0.15148763 -0.0873904 0.026795963 0.06532183 -0.08213474
-0.052294515 0.08842289 -0.05383854 -0.021703051 -0.015771398 -0.04005355 -0.06864561 -0.2036861
-0.1393683 0.08550086 0.0514664 0.005037378 0.06975219 0.042491898 0.043689605 0.018303927
-0.048765875 0.07275787 -0.08516526 0.057954445 -0.03893467 0.0067156637 -0.021391433 0.07954262
0.089397125 -0.072432354 -0.06154341 0.09142051 -0.011269841 -0.017136538 -0.130046 0.0061938115
0.07548945 0.06556607 -0.06594906 0.032380037 0.0002921598 0.122983515 0.015825957 0.0051628826
-0.06646196 0.06472264 -0.007288186 0.12580796 -0.00040101388 -0.051597614 0.04643803 -0.043008216
-0.05006806 0.0012277974 0.029884292 0.065824926 0.069303565 0.048870504 -0.017193723 0.057386
-0.048755456 -0.06509779 0.080874436 0.10933912 0.014860744 0.04005545 0.0042277384 -0.082469255
0.15586933 0.059849154 0.04976749 -0.0017985504 -0.01937761 0.080551915 -0.0388869 0.0995239
-0.033645302 0.106236495 0.08947546 0.021536004 -0.050926667 0.024273014 -0.055649713 -0.031415965
-0.09243205 0.016971914 0.062038515 0.0045536477 -0.013812179 -0.09264858 -0.018155523 -0.065188386
-0.105154954 -0.06768989 -0.06405962 0.0026883169 0.05608436 0.045068327 0.0008055241 0.051048197
-0.0520714 0.026223883 -0.0313912 -0.16981976 -0.07517843 0.05391912 -0.12503041 -0.0956205
-0.12996644 -0.05149455 -0.06291817 -0.08414698 -0.04684514 0.043882433 -0.1600954 -0.11180584
-0.069309875 0.031070815 -0.022415105 -0.016187463 -0.067532755 -0.057763353 -0.100560576 -0.019275846
0.20136023 0.08106606 0.073588006 0.06265462 0.012459839 -0.029441535 0.036129825 -0.08003098
0.055948604 -0.07219314 -0.035115678 -0.044909906 0.015193796 0.114071526 0.049514014 -0.048486598
0.02422363 -0.1099186 -0.046713363 -0.029029833 0.0074593993 -0.033672597 -0.029994493 -0.03874031

fc3.bias f4 [32]
00000000: 9124 e23d cce0 b6bd 2b6f 393d 895a 7dbb
00000010: b861 ca3c f5e0 f0bd 605c b9bd aa81 dbbd
00000020: cc70 f6bd 5e6e d93d 3cd3 e23d a78d 433d
00000030: 3b83 fcbd 2515 ab3d 5ef7 88bd 7b28 c33b
00000040: d99a d5bd 4946 f9bd d370 0abd dfa6 d83a
00000050: f487 cabc 15e0 95bd b49e fcbc 2c8d 8fbd
00000060: aed3 7bbd bc3a ab3d 4845 893d 6777 22bc
00000070: 4b4b f93d aca7 313d 1d30 f33d 6df2 bb3d
0.11042131 -0.08929595 0.045272034 -0.00386587 0.024704799 -0.11761657 -0.09050822 -0.10718091
-0.12033233 0.10616754 0.11075446 0.047742512 -0.12329718 0.083536424 -0.066878065 0.0059557534
-0.104299255 -0.12171609 -0.033799004 0.0016529224 -0.02472303 -0.07318131 -0.030837394 -0.07009348
-0.06148117 0.08360812 0.067026675 -0.009916163 0.12172564 0.043372795 0.11874411 0.091770984

bn3.weight f4 [32]
00000000: 4a01 973f fe17 5b3f a7b2 6a3f f60a 7a3f
00000010: a14a 643f e221 973f 75fd 793f 5ce7 763f
00000020: 5a94 7d3f 893e 703f 2fc0 813f 7aac 9e3f
00000030: c04a 813f b5c2 7f3f 3934 5f3f c958 b03f
00000040: c639 5f3f 7ac9 843f f119 ab3f 3c46 8f3f
00000050: f5c5 a73f 554e 7b3f 61d5 8c3f b95c 8a3f
00000060: fb8a 8f3f 736b 5a3f 7ea8 573f f751 9b3f
00000070: 336a a93f 301d 803f b5cc 723f 0ba8 8e3f
1.1797268 0.85583484 0.9167885 0.97672975 0.89176375 1.1807215 0.9765237 0.96446776
0.9905449 0.9384542 1.0136775 1.2396386 1.0100937 0.99906474 0.8718906 1.3777095
0.8719753 1.0373986 1.3367292 1.1193309 1.3107287 0.981664 1.1002618 1.0809547
1.1214288 0.85320204 0.84241474 1.2134389 1.3235534 1.0008907 0.9484361 1.1145033

bn3.bias f4 [32]
00000000: 8082 f83d cfb5 5ebe 6d24 3bbe 1a40 02ba
00000010: cec3 25be 1f5d b13e bf13 393b 0081 ecbd
00000020: 516a 2dbd 16b2 01be fb1f 0fbe a904 dc3d
00000030: 3a5d 693d c9aa bbbc a9b9 2abe 8653 f93d
00000040: 2a4b 4bbe 6039 2cbe 6ef6 643d 530a 50be
00000050: 730f 833e b99e cebd 2bb1 a73c d359 14be
00000060: 4ed4 c63d 3c80 49be e177 2fbe 4313 7dbd
00000070: e7b0 19bd b75c 1dbc 790b be3d 9171 f03d
0.12134266 -0.21749042 -0.18275614 -0.00049686583 -0.16187975 0.34641358 0.002824053 -0.11548042
-0.04233772 -0.1266559 -0.13977043 0.10743076 0.056973673 -0.022908585 -0.16672386 0.12174134
-0.19852892 -0.16818762 0.055899076 -0.20316438 0.25597724 -0.10088868 0.020470222 -0.1448739
0.09708463 -0.19677824 -0.17135574 -0.061785948 -0.037522223 -0.0096046245 0.09279532 0.11740411

bn3.running_mean f4 [32]
00000000: 44db 02bf fbc6 1fbf ca86 b83d d29f e7be
00000010: aac0 16be 6a0d d2be cec1 0cbf 7116 54be
00000020: 633e 04bf fe40 2a3e 6797 bdbe 0f8a 25bf
00000030: d0f7 38bf 5172 a7be c1d2 a5be 1681 16bf
00000040: bb04 3ebd 5035 06be 018d 34bf 6ebd 1cbf
00000050: e8e5 25bf 0c67 f9bc 8237 2fbf e922 58bf
00000060: 4ab8 27bf 3c8e 51be 6369 bfbe 6cdc 2bbf
00000070: 454f 2abf 16c0 13bf 1f3c d4be 3921 1bbf
-0.5111582 -0.62412995 0.09010084 -0.4523912 -0.14721933 -0.4102586 -0.5498322 -0.20711686
-0.51657695 0.16626355 -0.37029573 -0.64663786 -0.7225313 -0.32704404 -0.32387355 -0.5879072
-0.04639123 -0.13106275 -0.70527655 -0.61226547 -0.64803934 -0.030444644 -0.68444073 -0.8442827
-0.6551558 -0.20464414 -0.3738509 -0.6713321 -0.66527206 -0.57714975 -0.4145212 -0.6059757

bn3.running_var f4 [32]
00000000: 0743 683f 9326 753f 3b0a 4d3f 9a1b bf3e
00000010: 0448 033f cf9f 393f b36f 823f 5074 2d3f
00000020: 4416 9b3e 76b2 3b3f 61b7 193f 2646 843f
00000030: 39c9 483f b5f3 513f a5a7 1b3f a375 0e40
00000040: 26a3 d23e 9832 323f d12c 0840 63c6 613f
00000050: 540c 7e3f 58a3 823f 3082 8f3f 287c 9b3f
00000060: 894b a53f 2926 313f 5a18 eb3e cdeb bc3f
00000070: 7f05 0740 26ce c93f 1918 953f 026b 393f
0.90727276 0.95761985 0.80093735 0.37325746 0.5128176 0.72509474 1.0190338 0.67755604
0.30290425 0.73319185 0.6004544 1.0333908 0.7843204 0.8201249 0.6080268 2.22593
0.41140097 0.6960845 2.1277354 0.8819334 0.9923756 1.0206099 1.1211605 1.2147264
1.2913677 0.6919885 0.45917016 1.4759461 2.1097105 1.5766037 1.1647979 0.72428906
