MELOSDP/SDP/chkpt/mc1/linear/6/sdp_classifier_linear-880.pth (torch, 77408 bytes, 25 tensors)

fc1.weight f4 [128, 38]
-0.11912157 -0.1261986 0.056221202 0.045457453 -0.101689816 -0.1177668 0.17753989 -0.06684844
-0.0062624263 -0.0016092523 0.05801614 -0.021986296 0.046351414 -0.09372123 0.034588333 0.018598506
-0.022726376 -0.07258772 -0.0005947142 -0.033596486 -0.006360933 0.028121864 -0.055451512 -0.14868769
0.09092607 0.11602351 0.26042867 0.05102917 0.03270589 -0.10985411 0.10242925 0.022874182
-0.11595411 -0.12173608 0.16630164 0.02136236 -0.14555965 -0.1719982 0.13520917 0.12817976
0.106397144 -0.05129296 -0.07628619 0.11189185 -0.04641264 -0.119690455 -0.14883046 0.11452191
0.017965492 0.00077393 -0.2840841 0.029515784 0.029145502 0.022159645 0.12682238 0.00676745
-0.07343037 0.019461624 -0.047215343 -0.12190755 -0.14594874 -0.09820173 -0.008372455 -0.044051055
0.13034268 0.069057465 0.06863307 0.13575123 -0.16850132 -0.098649725 0.14170802 -0.14873692
-0.100833684 -0.072221525 -0.0972619 -0.022147268 0.26783168 0.026868971 -0.06196842 0.01309847
-0.09641359 0.142867 -0.06112248 0.02576185 0.056034565 -0.072194025 0.030894319 -0.091163605
0.04009549 0.006364541 -0.07206658 -0.053536788 0.051273923 0.104559004 -0.012318602 -0.016403187
-0.12471128 0.03051326 0.027685596 -0.14072531 0.08009342 0.022725685 -0.05929322 0.09839081
-0.11654481 0.09268828 -0.12167156 -0.05935288 -0.07516238 -0.10190757 -0.2896541 -0.05704545
-0.061589036 0.01815622 -0.010414737 -0.09344673 -0.02767726 -0.11090987 -0.14584194 0.020246947
-0.08344141 0.004925269 -0.038256418 -0.083578356 -0.17350133 0.011961744 0.014723153 0.02230093
-0.12999205 -0.04219174 0.052099314 -0.1327616 -0.17193428 -0.047038488 0.021837668 0.10964945
-0.04792355 -0.0908108 0.14896157 -0.115948096 0.045448437 -0.051601674 0.1289376 0.10706909
-0.028727368 0.11249226 -0.089887656 0.018223923 -0.0842178 -0.077104695 0.05131742 0.11218877
-0.12437348 -0.14055681 0.19557418 -0.02680899 0.14283547 -0.13279928 -0.0884036 0.120591626
-0.11184556 0.0026926727 0.07413363 -0.0029999034 0.07815367 -0.030586988 -0.15513039 -0.0055459966
-0.15475504 0.01029998 0.005296837 -0.049658775 0.10890048 0.08110103 -0.047365498 -0.04950492
0.07376202 0.13719036 0.10172906 0.04921955 0.016929952 -0.031923514 0.09900309 0.047889475
-0.073363334 -0.10921157 0.13963112 -0.109266594 0.020924434 0.034605682 -0.0757972 0.14593582
0.08113652 -0.05367703 0.006277674 -0.062037516 0.0052907798 -0.08971276 0.06629179 0.13970691
0.15159145 0.10914645 -0.0018809246 0.095766135 -0.10549719 -0.11289526 0.08271002 -0.06592827
-0.15162128 0.012149049 0.0066757323 0.012831756 -0.09444904 0.16427143 0.09952811 -0.07192607
0.042781483 0.08987411 -0.055862293 0.07894076 -0.033879954 0.06396113 -0.093878806 -0.05724857
0.0106013315 0.034576993 0.03037338 0.056310065 -0.16136856 0.087690994 -0.17543201 -0.010172153
-0.11817911 -0.026509397 0.03890032 -0.07273947 0.08480338 0.050788842 0.039698098 -0.036474884
0.013675546 -0.07447983 -0.122668296 -0.17045064 0.046739582 -0.047408205 -0.10411928 -0.076009065
0.12886061 0.01674918 0.09793704 0.021894058 0.14059454 0.0029294493 0.01004435 0.14464647
00000000: 02f6 f3bd 353a 01be 3448 663d 9831 3a3d
00000010: c042 d0bd b82f f1bd 04cd 353e d6e7 88bd
00000020: 0a35 cdbb 8ced d2ba 55a2 6d3d 9b1c b4bc
00000030: fbda 3d3d ebf0 bfbd 7fac 0d3d e55b 983c
00000040: aa2c babc dfa8 94bd 98e6 1bba 789c 09bd
00000050: 606f d0bb d35f e63c 2021 63bd 9641 18be
00000060: 7337 ba3d bc9d ed3d e856 853e f703 513d
00000070: 9cf6 053d 31fb e0bd 6dc6 d13d a362 bb3c
00000080: 5979 edbd c450 f9bd fa4a 2a3e 1e00 af3c
00000090: 970d 15be 4c20 30be 4674 0a3e 8e41 033e
000000a0: bfe6 d93d 9118 52bd ef3b 9cbd 8e27 e53d
000000b0: 2e1b 3ebd 4520 f5bd 0367 18be 778a ea3d
000000c0: 5e2c 933c 90e1 4a3a 7973 91be 16cb f13c
000000d0: 8cc2 ee3c 2588 b53c badd 013e 7cc1 dd3b
000000e0: a962 96bd fc6d 9f3c e064 41bd aaaa f9bd
000000f0: 9673 15be fd1d c9bd 9f2c 09bc e16e 34bd
00000100: 8d78 053e 006e 8d3d 7f8f 8c3d 5f02 0b3e
00000110: 9c8b 2cbe de08 cabd e81b 113e 7e4e 18be
00000120: e481 cebd e1e8 93bd 3f31 c7bd 306e b5bc
00000130: 3c21 893e 511c dc3c 99d2 7dbd f79a 563c
00000140: 7d74 c5bd ba4b 123e 915b 7abd 840a d33c
00000150: 8084 653d 76da 93bd 1516 fd3c fcb3 babd
00000160: 2b3b 243d a48d d03b a597 93bd 6449 5bbd
00000170: 9b04 523d 0823 d63d f6d3 49bc fa5f 86bc
00000180: a168 ffbd f2f6 f93c e7cc e23c 4c1a 10be
00000190: 0508 a43d 372b ba3c 73dd 72bd 1f81 c93d
000001a0: 0caf eebd 5ad3 bd3d f02e f9bd 011c 73bd
000001b0: bcee 99bd ebb4 d0bd 8b4d 94be 7da8 69bd
000001c0: c944 7cbd 5abc 943c 93a2 2abc 0061 bfbd
000001d0: 6cbb e2bc b724 e3bd 9757 15be eddc a53c
000001e0: 54e3 aabd 2764 a13b c3b2 1cbd 212b abbd
000001f0: 55aa 31be 31fb 433c 6139 713c 71b0 b63c
00000200: a31c 05be 3fd1 2cbd 1766 553d a8f2 07be
00000210: 8a0f 30be 6eab 40bd e9e4 b23c e48f e03d
00000220: 7c4b 44bd 03fb b9bd 6289 183e 3276 edbd
00000230: 2428 3a3d 475c 53bd 3808 043e 0a47 db3d
00000240: a855 ebbc 5862 e63d 0517 b8bd 564a 953c
00000250: 627a acbd 11e9 9dbd 3732 523d 3ac3 e53d
00000260: 86b7 febd 20ee 0fbe 9944 483e 879e dbbc
00000270: 7643 123e 89fc 07be f20c b5bd bef8 f63d
00000280: 490f e5bd 8d77 303b 5fd3 973d 079a 44bb
00000290: 080f a03d 9091 fabc 80da 1ebe 31bb b5bb
000002a0: 1b78 1ebe 3fc1 283c 1791 ad3b 0067 4bbd
000002b0: 3707 df3d 4c18 a63d 5302 42bd acc5 4abd
000002c0: 8b10 973d a17b 0c3e 5357 d03d 709a 493d
000002d0: afb0 8a3c 3bc2 02bd 22c2 ca3d c127 443d
000002e0: 843f 96bd 51aa dfbd 76fb 0e3e 2ac7 dfbd
000002f0: b869 ab3c b0be 0d3d 903b 9bbd 3370 153e
00000300: e72a a63d 72dc 5bbd f2b4 cd3b 0d1b 7ebd
00000310: 475e ad3b 53bb b7bd fdc3 873d 540f 0f3e
00000320: ca3a 1b3e 2d88 df3d 5b89 f6ba 0921 c43d
00000330: e90e d8bd a135 e7bd df63 a93d 6705 87bd
00000340: 9c42 1bbe ce0c 473c 1ac0 da3b 493c 523c
00000350: 806e c1bd c536 283e 65d5 cb3d fa4d 93bd
00000360: a33b 2f3d eb0f b83d dccf 64bd b1ab a13d
00000370: b5c5 0abd 0efe 823d 8843 c0bd 7a7d 6abd
00000380: 35b1 2d3c 9ba0 0d3d 98d1 f83c 62a5 663d
00000390: cd3d 25be 5697 b33d 73a4 33be 1aa9 26bc
000003a0: e407 f2bd 3c2a d9bc f155 1f3d 6ef8 94bd
000003b0: 65ad ad3d f607 503d 799a 223d b066 15bd
000003c0: 660f 603c e288 98bd 8439 fbbd 9d8a 2ebe
000003d0: 0172 3f3d 1b2f 42bd 7d3c d5bd a4aa 9bbd
000003e0: 09f4 033e 9435 893c 3793 c83d 2b5b b33c
000003f0: 04f8 0f3e 01fc 3f3b 0f91 243c 341e 143e

fc1.bias f4 [128]
-0.046422243 -0.07603795 0.042187884 -0.14956823 0.04670712 0.03600862 0.13501652 -0.15647337
0.019790886 -0.15509053 -0.058960866 -0.09748281 0.14413245 -0.037104256 0.11183596 0.07282251
-0.05396748 -0.008794549 -0.15426047 0.010592075 -0.10331248 0.004034523 -0.034023512 0.14299545
-0.09959023 0.13845377 -0.15211585 -0.10608917 0.15259348 -0.13671888 0.009656939 0.07977183
0.1332182 -0.14622556 -0.04697415 -0.15786782 0.035283078 0.14755256 0.01680516 -0.13771583
-0.07803429 0.107007384 0.14097777 0.08024376 0.15404902 0.09965462 -0.07494642 0.026407976
-0.022381678 0.015635708 0.05419848 0.039337605 0.024125438 -0.0292278 0.14729673 0.1405146
0.08333788 0.021694047 -0.05486787 -0.07726299 0.12237943 -0.078208044 -0.13594022 -0.0047641494
-0.09025185 -0.009833062 -0.15543577 -0.07307633 0.054856393 -0.030850448 -0.06285066 0.055881526
-0.13946962 0.04219871 -0.06761677 -0.15820843 -0.026813196 -0.11332686 -0.07616259 0.14774825
0.06778982 -0.1602989 -0.15516247 -0.0025356973 -0.087746926 0.10966519 0.08773144 0.031136673
-0.1064793 0.03908969 -0.15586574 0.09915654 0.14162132 -0.0909309 0.059080176 -0.016663669
-0.14411464 -0.03922953 0.13872793 0.026317747 -0.0038381228 -0.13170506 0.08865433 -0.08266095
-0.11826877 0.009822137 0.026390392 0.0789036 -0.10370321 0.060582284 0.07852164 -0.11371058
0.12860204 -0.036492243 -0.09542032 -0.1064635 0.12803532 0.032231305 0.12799148 -0.06275563
-0.0508218 0.055271275 -0.02128325 0.13039456 -0.09321856 0.06464557 -0.16049844 0.024583017
00000000: 4025 3ebd c9b9 9bbd 34cd 2c3d 6a28 19be
00000010: f74f 3f3d c67d 133d c541 0a3e 8e3a 20be
00000020: 7f20 a23c 0dd0 1ebe f380 71bd 11a5 c7bd
00000030: 7597 133e a2fa 17bd 400a e53d f823 953d
00000040: 010d 5dbd 0317 10bc 75f6 1dbe 628a 2d3c
00000050: 7e95 d3bd 0834 843b 3d5c 0bbd 666d 123e
00000060: f6f5 cbbd d3c6 0d3e 42c4 1bbe 4745 d9bd
00000070: 7741 1c3e 0900 0cbe 2338 1e3c 6a5f a33d
00000080: 5a6a 083e 27bc 15be f767 40bd 1aa8 21be
00000090: fd84 103d 0518 173e faaa 893c 6105 0dbe
000000a0: 71d0 9fbd b026 db3d 7a5c 103e d756 a43d
000000b0: 07bf 1d3e b917 cc3d 827d 99bd 8a55 d83c
000000c0: c859 b7bc 7516 803c 3aff 5d3d 7820 213d
000000d0: b6a2 c53c 246f efbc f4d4 163e 0fe3 0f3e
000000e0: 0dad aa3d b7b7 b13c 22bd 60bd 0f3c 9ebd
000000f0: 11a2 fa3d 8a2b a0bd ea33 0bbe 951c 9cbb
00000100: f6d5 b8bd da1a 21bc 8e2a 1fbe 0ba9 95bd
00000110: 19b1 603d 14ba fcbc d9b7 80bd 07e4 643d
00000120: 20d1 0ebe 8ed8 2c3d a97a 8abd 6401 22be
00000130: 59a7 dbbc ea17 e8bd 22fb 9bbd 514b 173e
00000140: 64d5 8a3d 6525 24be e9e2 1ebe f12d 26bb
00000150: a9b4 b3bd 2598 e03d 8bac b33d 5612 ff3c
00000160: d211 dabd 831c 203d 459b 1fbe 9612 cb3d
00000170: 2e05 113e fb39 babd 0efe 713d 3f82 88bc
00000180: ca92 13be 25af 20bd b20e 0e3e 5198 d73c
00000190: 0489 7bbb b1dd 06be 6790 b53d 254a a9bd
000001a0: e636 f2bd 07ed 203c aa30 d83c 3698 a13d
000001b0: 5962 d4bd 2125 783d f4cf a03d 18e1 e8bd
000001c0: 41b0 033e e478 15bd bb6b c3bd 8909 dabd
000001d0: b11b 033e f904 043d 3310 033e 0686 80bd
000001e0: 852a 50bd 2264 623d 365a aebc 2786 053e
000001f0: 5fe9 bebd e664 843d b459 24be 5362 c93c

bn1.weight f4 [128]
1.1048533 1.0758328 1.4019157 0.96558374 1.0753185 0.9825502 0.9915509 1.0664699
0.98942995 0.9936506 0.9856266 0.99345857 1.0527526 0.95002437 1.1987466 1.0184541
0.9016586 1.0849888 1.1447716 0.9336636 1.0165017 1.0385011 1.1413697 0.9674348
1.0556682 0.9996612 0.9642581 1.0916542 1.0878611 1.0352254 0.98573077 1.4089196
1.1729511 0.9463582 0.98557204 0.9490851 0.8895999 1.3017092 1.0276797 1.0305464
1.1695526 0.9649512 0.98531705 0.99237114 0.9566583 0.97639084 0.9938336 0.99589485
1.0219094 1.0202515 1.0213348 1.0140278 0.967666 0.9611015 0.9892376 1.0235795
1.0389333 0.979815 1.1410974 0.9830957 0.93150985 1.0643935 1.1382707 0.9919891
0.9977664 1.0471641 0.9688027 1.0015477 0.9252193 1.0267249 0.9917153 0.9565065
0.9485467 1.0026618 0.9669801 1.0282362 0.9767213 0.9666138 1.0925046 0.958363
0.96193993 0.9862341 1.063084 1.0236999 1.1299263 1.0200146 1.1173007 1.1971875
1.1831503 1.1169552 0.9438008 0.98377854 1.0092765 0.9735745 1.0074685 0.99221295
1.230039 0.98696417 0.9920861 1.036928 1.1418113 1.0155898 0.9763929 1.1833314
1.0299534 0.97658724 1.5195863 1.0449352 1.2214096 0.9307823 0.96156085 1.0057263
0.969951 1.1979945 1.0300316 0.9677372 0.9955576 1.08005 0.9904294 1.0786798
0.9746127 1.1071557 1.067806 1.1167071 1.1606256 1.0600015 0.95551014 1.1425508
00000000: d56b 8d3f e4b4 893f f971 b33f 7f30 773f
00000010: 09a4 893f 6988 7b3f 48d6 7d3f 1682 883f
00000020: 484b 7d3f e35f 7e3f 0652 7c3f 4d53 7e3f
00000030: 99c0 863f cc34 733f 8770 993f b45c 823f
00000040: 19d3 663f eae0 8a3f e087 923f 9404 6f3f
00000050: ba1c 823f 9bed 843f 6718 923f cfa9 773f
00000060: 2320 873f cce9 7f3f 9ed9 763f 53bb 8b3f
00000070: 083f 8b3f 4482 843f da58 7c3f 7a57 b43f
00000080: 4323 963f 8844 723f 734e 7c3f 3ef7 723f
00000090: d2bc 633f 689e a63f 028b 833f f2e8 833f
000000a0: e6b3 953f 0b07 773f bd3d 7c3f 090c 7e3f
000000b0: 8fe7 743f c0f4 793f e16b 7e3f f7f2 7e3f
000000c0: edcd 823f 9a97 823f 19bb 823f aacb 813f
000000d0: f5b8 773f bf0a 763f ad3e 7d3f a704 833f
000000e0: c4fb 843f 28d5 7a3f 7b0f 923f 29ac 7b3f
000000f0: 6e77 6e3f 0c3e 883f dbb2 913f fff2 7d3f
00000100: 9e6d 7f3f 7909 863f 7403 783f b732 803f
00000110: 2cdb 6c3f b96b 833f 0ee1 7d3f 9cdd 743f
00000120: f5d3 723f 3957 803f 028c 773f 3e9d 833f
00000130: 680a 7a3f 0174 773f 31d7 8b3f 4757 753f
00000140: b241 763f d779 7c3f 2313 883f 9908 833f
00000150: 6da1 903f d78f 823f b603 8f3f 713d 993f
00000160: 7871 973f 63f8 8e3f ee9c 713f e9d8 7b3f
00000170: f92f 813f 2e3c 793f baf4 803f ab01 7e3f
00000180: eb71 9d3f afa9 7c3f 5bf9 7d3f 0fba 843f
00000190: df26 923f d9fe 813f e3f4 793f 6777 973f
000001a0: 83d5 833f 9f01 7a3f ce81 c23f 70c0 853f
000001b0: 2657 9c3f c047 6e3f da28 763f a4bb 803f
000001c0: b54e 783f e257 993f 13d8 833f a0bd 773f
000001d0: dddc 7e3f 143f 8a3f c88c 7d3f 2e12 8a3f
000001e0: 3880 793f 47b7 8d3f dead 883f 42f0 8e3f
000001f0: 618f 943f 21ae 873f 509c 743f 1b3f 923f

bn1.bias f4 [128]
-0.08078978 -0.0057391687 -0.26323622 -0.12636304 -0.11704416 -0.06304231 -0.03561649 -0.13714297
-0.036726546 -0.049977403 -0.08864471 -0.03347425 -0.13271247 -0.09610063 -0.11203456 -0.07320961
-0.16856992 -0.1321601 -0.17073032 -0.059635818 -0.15191635 -0.016505478 -0.15177028 -0.07728825
-0.13640846 -0.14438412 -0.05123336 -0.08554134 -0.15582158 -0.0887636 -0.17132859 -0.31381148
-0.13487604 -0.048506584 -0.063478574 -0.079484545 -0.088819765 -0.05755889 -0.07063667 -0.14766587
-0.09410414 -0.044593547 -0.06826862 -0.1221688 -0.08313851 -0.16304982 -0.17717999 -0.084027
-0.14981827 -0.043485902 0.011523256 -0.111702494 -0.09654984 -0.16702488 -0.27543795 -0.086057164
-0.14754209 -0.07201046 -0.11370737 -0.13765769 -0.058840197 -0.10500427 -0.059484392 -0.055975102
-0.03325514 -0.07551972 -0.107155 -0.053885538 -0.10593217 -0.4187874 -0.022983395 -0.06604941
-0.20416676 -0.12934394 -0.02494736 -0.054704275 -0.08743445 -0.12163716 -0.18170592 -0.1499906
-0.15484323 -0.09430325 -0.07255364 -0.19625929 -0.01380349 -0.07365449 -0.13432355 -0.16096814
-0.11723862 -0.19966078 -0.18984574 -0.16735253 -0.06861268 -0.004081678 -0.18637736 -0.069885716
-0.06665953 -0.045493055 -0.0070066443 -0.1287802 -0.123615704 -0.20131128 -0.06387109 -0.20956111
-0.23479351 -0.23181865 -0.16611293 -0.2818742 -0.10318837 -0.08712618 -0.032862376 -0.11868226
-0.13226359 -0.10008862 -0.05624402 -0.07003038 -0.09272727 -0.11714572 -0.0751338 -0.20541528
-0.08798519 -0.11764092 -0.31737843 -0.102029845 -0.231416 -0.026294596 -0.14419171 -0.089804314
00000000: 1d75 a5bd a30f bcbb e6c6 86be 5065 01be
00000010: d9b4 efbd 541c 81bd 99e2 11bd 356f 0cbe
00000020: 936e 16bd 1bb5 4cbd 5c8b b5bd 4c1c 09bd
00000030: c7e5 07be 68d0 c4bd 6072 e5bd ecee 95bd
00000040: 989d 2cbe fa54 07be eed3 2ebe b044 74bd
00000050: f68f 1bbe 7f36 87bc ab69 1bbe 4d49 9ebd
00000060: a9ae 0bbe 6ed9 13be 12da 51bd 4c30 afbd
00000070: b18f 1fbe b1c9 b5bd c370 2fbe e6ab a0be
00000080: f21c 0abe d7ae 46bd 0e01 82bd cbc8 a2bd
00000090: 23e7 b5bd dfc2 6bbd f5a9 90bd b935 17be
000000a0: acb9 c0bd b9a7 36bd 6bd0 8bbd a333 fabd
000000b0: 8644 aabd 88f6 26be ac6e 35be 5916 acbd
000000c0: f669 19be 461e 32bd 0acc 3c3c 47c4 e4bd
000000d0: ecbb c5bd 9208 2bbe 3406 8dbe bd3e b0bd
000000e0: 4615 17be 387a 93bd 69df e8bd 23f6 0cbe
000000f0: 6b02 71bd 7b0c d7bd e8a5 73bd 2646 65bd
00000100: 8b36 08bd 15aa 9abd 1574 dbbd 15b7 5cbd
00000110: f7f2 d8bd 4d6b d6be ac47 bcbc ea44 87bd
00000120: 1711 51be bd72 04be 685e ccbc 9711 60bd
00000130: d510 b3bd e71c f9bd 1e11 3abe 2397 19be
00000140: 398f 1ebe 1022 c1bd 0197 94bd 32f8 48be
00000150: 0928 62bc 2ad8 96bd 1d8c 09be d5d4 24be
00000160: cd1a f0bd e073 4cbe ec66 42be 765e 2bbe
00000170: ce84 8cbd 99bf 85bb b5d9 3ebe 3e20 8fbd
00000180: cb84 88bd ed56 3abd fe97 e5bb f5de 03be
00000190: 3b2a fdbd 8b24 4ebe d9ce 82bd 3097 56be
000001a0: b66d 70be de61 6dbe 8219 2abe d151 90be
000001b0: 6d54 d3bd 366f b2bd b39a 06bd af0f f3bd
000001c0: 1b70 07be 43fb ccbd 2160 66bd 166c 8fbd
000001d0: cce7 bdbd 18ea efbd c0df 99bd 6258 52be
000001e0: 9431 b4bd b9ed f0bd 6d7f a2be 06f5 d0bd
000001f0: 51f8 6cbe c467 d7bc fea6 13be 53eb b7bd

bn1.running_mean f4 [128]
-0.045687772 -0.071132205 0.043928977 -0.14855026 0.045514498 0.03708757 0.1327951 -0.15310253
0.021789769 -0.15494265 -0.058345042 -0.09801569 0.14596877 -0.03351965 0.11169789 0.075642176
-0.05634733 -0.0063382965 -0.15745571 0.011461934 -0.10265903 0.005125442 -0.031342335 0.14608404
-0.10263125 0.13813792 -0.15031643 -0.104201265 0.14972764 -0.14059313 0.011650245 0.07751176
0.13343996 -0.14788896 -0.044509973 -0.15846647 0.038415924 0.14711052 0.017657043 -0.13812415
-0.07874392 0.10728994 0.1425965 0.08168102 0.15412723 0.101580895 -0.07158837 0.027464291
-0.02351627 0.01656876 0.05264501 0.038927738 0.023729632 -0.030106295 0.14926565 0.14305821
0.08338825 0.021674355 -0.053426113 -0.07984248 0.1238488 -0.08006809 -0.13823463 -0.0043132827
-0.0914329 -0.009187587 -0.1543181 -0.07590894 0.054344516 -0.024972605 -0.061165854 0.056181718
-0.1404027 0.041509554 -0.06986895 -0.16035022 -0.027794816 -0.108712934 -0.07635923 0.14687683
0.07179541 -0.16086611 -0.15292998 -8.507315e-05 -0.08475493 0.10961592 0.090962306 0.028819859
-0.10523552 0.036108237 -0.15919816 0.09690655 0.141506 -0.09318662 0.057189424 -0.013554598
-0.14491926 -0.03962938 0.14093669 0.027730219 -0.0011708117 -0.13164169 0.08694872 -0.07881202
-0.11866125 0.011498797 0.025727384 0.082445145 -0.101862624 0.06245237 0.07711616 -0.11429429
0.12737653 -0.03734668 -0.094780006 -0.10688003 0.12765339 0.02831762 0.12870532 -0.06263485
-0.050731033 0.052358236 -0.017802278 0.13127157 -0.09495349 0.06433176 -0.1633793 0.024610143
00000000: 1a23 3bbd c3ad 91bd dfee 333d 8f1d 18be
00000010: 696d 3a3d 23e9 173d 70fb 073e e9c6 1cbe
00000020: 7580 b23c 49a9 1ebe 36fb 6ebd 73bc c8bd
00000030: d678 153e e74b 09bd ddc1 e43d 49ea 9a3d
00000040: 75cc 66bd 7cb1 cfbb 123c 21be d6ca 3b3c
00000050: e63e d2bd 53f3 a73b d260 00bd 0e97 153e
00000060: 5530 d2bd 0774 0d3e 8dec 19be 7967 d5bd
00000070: 3452 193e a5f7 0fbe abe0 3e3c 7cbe 9e3d
00000080: 7ca4 083e 3470 17be 1750 36bd 0945 22be
00000090: 045a 1d3d 24a4 163e 81a5 903c 6b70 0dbe
000000a0: 7e44 a1bd d4ba db3d d104 123e 6148 a73d
000000b0: 87d3 1d3e a509 d03d ec9c 92bd cbfc e03c
000000c0: 31a5 c0bc 35bb 873c 4ba2 573d b172 1f3d
000000d0: a564 c23c 7aa1 f6bc 18d9 183e da7d 123e
000000e0: 75c7 aa3d 6b8e b13c 57d5 5abd 7484 a3bd
000000f0: 71a4 fd3d bdfa a3bd 618d 0dbe 7056 8dbb
00000100: 2c41 bbbd 8887 16bc 9005 1ebe 2576 9bbd
00000110: 5b98 5e3d 5993 ccbc 0c89 7abd cd1e 663d
00000120: bac5 0fbe ec05 2a3d 7417 8fbd d932 24be
00000130: f4b1 e3bc e3a4 debd 3a62 9cbd e166 163e
00000140: 7909 933d 16ba 24be ad99 1cbe 4d69 b2b8
00000150: fe93 adbd 507e e03d 724a ba3d a017 ec3c
00000160: b885 d7bd 3be6 133d d804 23be f176 c63d
00000170: f3e6 103e a0d8 bebd 753f 6a3d 1b14 5ebc
00000180: b765 14be 6b52 22bd b551 103e 7c2a e33c
00000190: ec75 99ba 14cd 06be 2c12 b23d 3268 a1bd
000001a0: ab04 f3bd 7365 3c3c 3cc2 d23c 00d9 a83d
000001b0: 5a9d d0bd 0ece 7f3d 14ef 9d3d 2013 eabd
000001c0: fe6e 023e d5f8 18bd 051c c2bd ebe3 dabd
000001d0: 92b7 023e 5afa e73c 54cb 033e b346 80bd
000001e0: 58cb 4fbd 9775 563d 15d6 91bc 0e6c 063e
000001f0: fa76 c2bd 5fc0 833d e74c 27be 369b c93c

bn1.running_var f4 [128]
0.28481996 0.15706755 0.10914542 0.18673916 0.32330394 0.24232684 0.22149244 0.3394575
0.21999787 0.25663796 0.3715046 0.12836383 0.20198335 0.2469419 0.14030421 1.3889047
0.2902775 0.21606669 0.31245038 0.27268752 0.1701201 0.52332073 0.127684 0.245365
0.12564696 0.1875777 0.16008581 0.15005955 0.16140169 0.13032319 0.43069378 0.07582202
0.22046582 0.5978433 0.3786182 0.18449669 0.9825669 0.17621113 0.19586708 0.1651038
0.26537177 0.1537092 0.32514265 0.50358105 0.26310918 0.50383925 0.15043278 0.2025549
0.12025975 0.1979316 0.3227401 0.22989799 0.943764 0.14271952 0.13327035 0.2018255
0.09073039 0.14737989 0.34707662 0.29842496 0.30664274 0.111773744 0.24000464 0.15490702
0.31855994 0.15091862 0.10051647 0.12983088 0.39926443 0.121044226 0.31108502 0.20664403
0.18729816 0.1413285 0.24486001 0.45886979 0.14533149 0.1998917 0.33607736 0.2545937
0.46640947 0.13756059 0.22583167 0.25862437 0.39005682 0.3637638 0.06769813 0.06199974
0.20530298 0.2067628 0.29006377 0.12838876 0.1878782 0.11526475 0.21540257 0.25355956
0.17263779 0.46248323 0.3082601 0.4859774 0.07750957 0.10742382 0.22643524 0.18675114
0.15294084 0.15931495 0.09533202 0.12512363 0.15347013 0.2974259 0.18012285 0.19561492
0.19923128 0.16919932 0.24783069 0.5557187 0.12499339 0.075967304 0.14479361 0.18551552
0.20522796 0.12294448 0.2597284 0.3039416 0.034655366 0.32883674 0.40745473 0.1891872
00000000: ecd3 913e 51d6 203e a287 df3d 8d38 3f3e
00000010: 1888 a53e 8724 783e eace 623e 60cd ad3e
00000020: 1f47 613e 0d66 833e da35 be3e cf71 033e
00000030: b9d4 4e3e 56de 7c3e e8ab 0f3e a1c7 b13f
00000040: 419f 943e 9640 5d3e 7ff9 9f3e b39d 8b3e
00000050: f733 2e3e 59f8 053f 98bf 023e f640 7b3e
00000060: 99a9 003e 5e14 403e 89ed 233e 36a9 193e
00000070: 7c46 253e 7173 053e e583 dc3e 9348 9b3d
00000080: cbc1 613e 420c 193f 3fda c13e b3ec 3c3e
00000090: 8189 7b3f b170 343e 6191 483e f810 293e
000000a0: cfde 873e f265 1d3e 1979 a63e b0ea 003f
000000b0: 3fb6 863e 9cfb 003f 0d0b 1a3e 8d6a 4f3e
000000c0: be4a f63d 95ae 4a3e 313e a53e 616a 6b3e
000000d0: 849a 713f 1125 123e 0678 083e 58ab 4e3e
000000e0: dbd0 b93d c1ea 163e 07b4 b13e 28cb 983e
000000f0: 4700 9d3e a2e9 e43d c7c3 753e f29f 1e3e
00000100: 4a1a a33e 698a 1a3e 94db cd3d 63f2 043e
00000110: 636c cc3e 09e6 f73d 8946 9f3e 7e9a 533e
00000120: 17cb 3f3e 6bb8 103e 95bc 7a3e fbf0 ea3e
00000130: c7d1 143e 69b0 4c3e 5512 ac3e 1b5a 823e
00000140: 39cd ee3e afdc 0c3e 6b40 673e 6a6a 843e
00000150: 87b5 c73e 403f ba3e 51a5 8a3d 70f3 7d3d
00000160: f23a 523e a1b9 533e 3d83 943e 5878 033e
00000170: 2563 403e ed0f ec3d 7e92 5c3e 8fd2 813e
00000180: f6c7 303e 9aca ec3e 45d4 9d3e 08d2 f83e
00000190: 56bd 9e3d 0501 dc3d a4de 673e b13b 3f3e
000001a0: 869c 1c3e 7523 233e 6f3d c33d 6920 003e
000001b0: 4627 1d3e 3548 983e 2072 383e 474f 483e
000001c0: 4903 4c3e 9642 2d3e 54c7 7d3e 9543 0e3f
000001d0: 89fc ff3d bf94 9b3d c744 143e c8f7 3d3e
000001e0: 4727 523e 51ca fb3d 1ffb 843e 3c9e 9b3e
000001f0: c9f2 0d3d 4a5d a83e e89d d03e 4aba 413e

fc2.weight f4 [64, 128]
0.009728901 0.069509365 -0.0762969 -0.008260968 0.03888767 0.012720885 -0.002015478 -0.00025696523
-0.0684046 0.026051182 0.07524886 0.033108577 -0.09960058 0.040924687 -0.0892836 0.00566074
-0.08522617 0.084255956 -0.079818584 -0.051095255 0.034639608 -0.10458684 0.047874976 0.036009196
0.020304753 -0.002224796 -0.028863832 0.04482727 -0.05137288 -0.050445527 -0.028477028 0.05398499
-0.07871864 -0.019909805 0.06589775 -0.0759923 -0.11439559 -0.0404386 0.10958746 -0.080562346
0.009305937 0.0050509972 0.06598986 -0.0075391824 -0.06321958 -0.030349018 -0.016995057 -0.08519392
-0.034081627 0.05030685 -0.08154297 -0.085012056 -0.022172434 -0.020512534 0.061974734 0.0065560215
0.008057761 0.080879964 0.0060737734 -0.066071875 -0.0099591315 -0.066642866 0.012964744 0.016999505
0.013140349 0.004208218 0.03410445 -0.038488436 0.010717827 -0.026424875 0.028871726 0.01705974
0.048182596 -0.06744081 0.009867923 -0.104679205 -0.0030846107 -0.036845993 -0.0745837 -0.009879232
-0.03307419 0.100297004 -0.026880361 -0.058214016 0.01845185 0.01577728 0.02109867 -0.036095694
0.040333293 0.05284054 0.028161252 -0.006400506 0.09333131 -0.026453087 -0.05801034 0.068169646
0.04801261 -0.003638727 -0.028769419 -0.07012889 0.054819956 0.09124936 -0.010245018 -0.07473384
-0.037135854 0.027299445 0.012160828 -0.02343861 0.005210328 0.035773437 0.03247985 0.06697004
0.07167519 -0.10922364 0.07392305 -0.0061889775 -0.009478542 0.036351737 0.028041057 -0.05310779
-0.029400356 -0.02611668 0.027425457 0.027402619 0.08332203 -0.009326531 -0.070313 -0.035888463
-0.04032738 0.09159821 0.12366118 -0.007900892 -0.015856674 -0.05307614 -0.12630984 0.06577037
0.049411934 0.027388815 0.066218086 -0.091252506 0.034171857 0.028532075 -0.06574746 0.04529115
-0.049654007 0.013740296 -0.063809164 0.04649069 0.03925572 0.025879497 0.10066823 -0.01579178
0.05993883 0.033644132 -0.032302022 -0.007662046 -0.14082973 -0.03696054 -0.038597263 0.14001867
-0.08158739 -0.0011433215 0.047953326 0.046693865 -0.06570634 -0.0668987 0.07749635 -0.055449866
-0.11797059 0.056713384 0.048062462 0.049568377 0.042714767 0.074683726 0.016339896 0.048302077
0.07560283 -0.02977992 -0.023398444 0.060339347 -0.010175799 -0.029956836 -0.061018128 0.07463797
0.027329294 0.003938762 -0.02948406 0.023163531 0.005938919 0.02618183 -0.02798333 -0.011483139
-0.05319272 -0.06929732 -0.01698434 -0.10063637 0.08526225 -0.005756143 0.07747132 -0.13673528
-0.04522279 0.08814186 -0.040683832 -0.02129255 -5.265595e-05 -0.05502794 -0.06338481 0.030084858
-0.040665366 -0.008014665 -0.034592893 0.020171857 -0.11301953 -0.0031771092 0.079698585 0.10372308
0.040124033 -0.03190679 0.03569297 -0.021225045 -0.012475325 -0.061791524 0.045729514 -0.13165724
0.07789917 0.0045176595 0.07341093 0.09788644 0.056839064 0.13291636 0.0207183 -0.07049358
-0.060389724 -0.033876296 0.041160066 -0.02928558 0.040387493 -0.089856036 -0.07492142 0.079035856
0.0074585965 0.07457362 -0.08318751 0.043061674 0.09525587 -0.020136956 -0.034769647 -0.03468003
0.029245691 0.06310747 -0.056715727 0.087492675 -0.016098578 0.06323659 -0.048179984 0.00012382313
00000000: f865 1f3c ed5a 8e3d 8d41 9cbd 0359 07bc
00000010: ad48 1f3d 426b 503c 1c16 04bb 4ab9 86b9
00000020: b617 8cbd 4a69 d53c 131c 9a3d dc9c 073d
00000030: 64fb cbbd a5a0 273d 52da b6bd bb7d b93b
00000040: 0f8b aebd 638e ac3d ed77 a3bd 4249 51bd
00000050: 43e2 0d3d a031 d6bd 8d18 443d 617e 133d
00000060: 2756 a63c e2cd 11bb d873 ecbc cd9c 373d
00000070: 5e6c 52bd f89f 4ebd a848 e9bc 5d1f 5d3d
00000080: 3d37 a1bd e319 a3bc 66f5 863d daa1 9bbd
00000090: 3c48 eabd f2a2 25bd 646f e03d dffd a4bd
000000a0: ee77 183c d682 a53b b125 873d 3f0b f7bb
000000b0: 4479 81bd 819e f8bc 3839 8bbc 267a aebd
000000c0: 2d99 0bbd 8e0e 4e3d 0000 a7bd cd1a aebd
000000d0: f7a2 b5bc e709 a8bc 38d9 7d3d e5d3 d63b
000000e0: b304 043c 65a4 a53d 8106 c73b b150 87bd
000000f0: a02b 23bc 0e7c 88bd 146a 543c 8c42 8b3c
00000100: 9e4a 573c 17e5 893b 1cb1 0b3d 0da6 1dbd
00000110: d399 2f3c fb78 d8bc 6684 ec3c dec0 8b3c
00000120: 1d5b 453d 681e 8abd 12ad 213c 0d62 d6bd
00000130: 2e27 4abb d3eb 16bd 57bf 98bd 81dc 21bc
00000140: cd78 07bd 8468 cd3d 3434 dcbc d271 6ebd
00000150: 5628 973c 5b3f 813c 1ed7 ac3c 14d9 13bd
00000160: 8634 253d 526f 583d 6db2 e63c 56bb d1bb
00000170: 7c24 bf3d 25b4 d8bc 409c 6dbd 879c 8b3d
00000180: dfa8 443d b577 6ebb d8ad ebbc bc9f 8fbd
00000190: e48a 603d f2e0 ba3d b8da 27bc 0e0e 99bd
000001a0: c41b 18bd 16a3 df3c 363e 473c 5402 c0bc
000001b0: 66bb aa3b 2b87 123d 9709 053d 9727 893d
000001c0: 71ca 923d a5b0 dfbd f864 973d e8cc cabb
000001d0: e34b 1bbc 8fe5 143d 5cb6 e53c 8e87 59bd
000001e0: 04d9 f0bc a6f2 d5bc 5aab e03c 757b e03c
000001f0: bea4 aa3d 4ece 18bc 4300 90bd c8ff 12bd
00000200: 532e 25bd d897 bb3d 1342 fd3d be72 01bc
00000210: dbe5 81bc 5e66 59bd 5e57 01be 9eb2 863d
00000220: 2b64 4a3d 825e e03c 599d 873d 98e2 babd
00000230: caf7 0b3d 19bc e93c 9ba6 86bd 3783 393d
00000240: 0062 4bbd fa1e 613c 61ae 82bd 066d 3e3d
00000250: 9bca 203d 3d01 d43c 252b ce3d c35d 81bc
00000260: 6b82 753d 6ece 093d 204f 04bd e611 fbbb
00000270: ab35 10be ef63 17bd 2a18 1ebd 0e61 0f3e
00000280: 4a17 a7bd 81db 95ba b56a 443d 1142 3f3d
00000290: 0c91 86bd 3002 89bd 68b6 9e3d 661f 63bd
000002a0: 919a f1bd 4b4c 683d 25dd 443d 3608 4b3d
000002b0: aef5 2e3d c8f3 983d 3fdb 853c 66d8 453d
000002c0: a8d5 9a3d 05f5 f3bc 18ae bfbc 6426 773d
000002d0: 65b8 26bc 0a68 f5bc 25ee 79bd cbdb 983d
000002e0: afe1 df3c bb10 813b 8e88 f1bc 72c1 bd3c
000002f0: 439b c23b 477b d63c 4c3d e5bc c723 3cbc
00000300: 9ce0 59bd c1eb 8dbd be22 8bbc 711a cebd
00000310: f99d ae3d 079e bcbb 49a9 9e3d 5504 0cbe
00000320: 883b 39bd b883 b43d 17a4 26bd b76d aebc
00000330: e5da 5cb8 fa64 61bd e5cf 81bd 8574 f63c
00000340: ba90 26bd f14f 03bc 47b1 0dbd 733f a53c
00000350: c976 e7bd 0c37 50bb 0339 a33d c46c d43d
00000360: 1959 243d b2b0 02bd cb32 123d 25e0 adbc
00000370: 4e65 4cbc 1c19 7dbd df4e 3b3d 28d1 06be
00000380: 9a89 9f3d e008 943b 7858 963d b078 c83d
00000390: 14d0 683d 3a1b 083e 6db9 a93c f05e 90bd
000003a0: 375b 77bd dfc1 0abd 7597 283d 50e8 efbc
000003b0: 5b6d 253d 7106 b8bd 6770 99bd 8ddd a13d
000003c0: 3e67 f43b 0eba 983d 375e aabd 7061 303d
000003d0: 8215 c33d 42f6 a4bc 9e6a 0ebd a60c 0ebd
000003e0: a994 ef3c 7d3e 813d c04e 68bd 5c2f b33d
000003f0: 2ae1 83bc 2f82 813d 6058 45bd 85d6 0139

fc2.bias f4 [64]
-0.048906673 0.066656254 0.005689705 0.08552295 0.009738245 -0.062051367 -0.0014841036 0.015275033
0.037791513 -0.03449781 -0.08413969 0.036691826 -0.07988831 -0.016586032 0.0200728 0.076551735
-0.078159414 -0.010894628 0.026765738 0.017188031 0.071123816 0.011798442 -0.07197471 -0.031001452
0.06739581 -0.005647584 0.023569426 -0.050480936 -0.024468742 0.037020184 -0.055805054 -0.07080405
0.0814568 0.0051714964 0.008372918 -0.08656238 0.06662637 0.023227848 0.0019208726 0.004427905
0.004417765 0.07074966 -0.06520293 0.05796335 0.028660504 0.038981 -0.021125246 0.05732383
0.041040815 0.0038393328 0.05828532 -0.054611634 0.052111655 -0.004942282 0.07289861 -0.005725638
-0.0050516487 -0.040965468 0.08012728 -0.012552419 -0.080619566 0.08002328 -0.013255675 0.01745863
00000000: 5d52 48bd 1383 883d b470 ba3b a826 af3d
00000010: 298d 1f3c 9329 7ebd 4186 c2ba 2244 7a3c
00000020: 46cb 1a3d 934d 0dbd 6e51 acbd 2b4a 163d
00000030: 7b9c a3bd 6edf 87bc b66f a43c 28c7 9c3d
00000040: 0b12 a0bd 627f 32bc d243 db3c eacd 8c3c
00000050: 5da9 913d 414e 413c 7a67 93bd c2f6 fdbc
00000060: d006 8a3d 5e0f b9bb ab14 c13c 19c5 4ebd
00000070: ac72 c8bc 7aa2 173d d793 64bd b701 91bd
00000080: d3d2 a63d a875 a93b 902e 093c 9e47 b1bd
00000090: 6873 883d 5448 be3c cac5 fb3a f617 913b
000000a0: e6c2 903b 33e5 903d 1d89 85bd fa6a 6d3d
000000b0: 6fc9 ea3c 8baa 1f3d da0e adbc 64cc 6a3d
000000c0: 6a1a 283d 519d 7b3b 96bc 6e3d 73b0 5fbd
000000d0: 0873 553d def2 a1bb de4b 953d 229e bbbb
000000e0: 4d88 a5bb 68cb 27bd c519 a43d a9a8 4dbc
000000f0: df1b a5bd 3fe3 a33d 552e 59bc 6705 8f3c

bn2.weight f4 [64]
0.96778184 1.19058 1.1067104 0.992063 1.0668743 0.98892003 1.0104005 0.97345865
1.0227722 0.99254006 1.0483824 1.1897364 0.978266 0.95272285 0.9873201 1.0264887
0.94628733 0.99732894 0.9987132 0.96197915 1.0043828 1.2308218 0.9508594 0.91727
1.1019149 0.99922955 1.0624849 1.0009153 1.0485811 0.9926379 0.98545814 0.8927127
0.9291969 1.06907 1.1061863 0.9889878 1.039158 0.9667675 1.1257132 0.97464025
1.0466386 0.96539515 0.9809954 1.1206793 1.1439016 1.0272901 1.0018353 0.98431665
1.2641752 0.986983 0.9629323 0.96366596 1.0625887 0.93478054 0.9603203 0.9658693
1.0037607 1.0105007 0.99119306 1.1106666 1.0477011 0.99690425 0.9963056 0.9893897
00000000: 8dc0 773f ed64 983f b0a8 8d3f d7f7 7d3f
00000010: 568f 883f dd29 7d3f ce54 813f 9634 793f
00000020: 33ea 823f 1b17 7e3f 6531 863f 4849 983f
00000030: a46f 7a3f a5e5 733f 03c1 7c3f fb63 833f
00000040: e33f 723f f350 7f3f abab 7f3f 4444 763f
00000050: 9e8f 803f 928b 9d3f 866b 733f 35d2 6a3f
00000060: 8c0b 8d3f 82cd 7f3f 81ff 873f fe1d 803f
00000070: e837 863f 841d 7e3f fc46 7c3f d288 643f
00000080: d9df 6d3f 49d7 883f 8397 8d3f 4e2e 7d3f
00000090: 2103 853f 137e 773f 5f17 903f 0682 793f
000000a0: 41f8 853f 2324 773f 8422 7b3f 6b72 8f3f
000000b0: 5e6b 923f 3e7e 833f 243c 803f 2dfc 7b3f
000000c0: 7ed0 a13f ebaa 7c3f bb82 763f d0b2 763f
000000d0: e802 883f c74d 6f3f 8dd7 753f 3643 773f
000000e0: 3b7b 803f 1658 813f d4be 7d3f 532a 8e3f
000000f0: 121b 863f 1e35 7f3f e20d 7f3f a548 7d3f

bn2.bias f4 [64]
-0.10318925 0.07436174 -0.19052461 -0.13145861 0.05819923 0.21185091 0.17929883 -0.081180766
-0.4098415 -0.28811124 -0.020108698 0.079013295 -0.14256704 -0.06249283 -0.039710082 -0.04963017
-0.12995295 0.15235761 -0.37757894 -0.114902 -0.06564775 -0.047819607 -0.20958492 -0.18826398
0.14915837 -0.09290504 -0.09822624 -0.24213925 -0.31005347 -0.08810371 -0.16596453 -0.07625312
-0.15424079 0.024575796 -0.4830339 -0.13349713 0.059675854 -0.10518772 0.14201428 -0.050406873
0.015144873 -0.20409039 -0.10122829 0.070643134 0.067721784 -0.053733833 0.10559842 -0.025964089
-0.109130785 -0.19840845 -0.1026292 -0.12244954 0.14311093 -0.17174578 -0.028659118 -0.16354814
-0.08678037 0.10936694 -0.06576283 0.1537684 0.09570146 0.13596837 -0.042762447 0.09547372
00000000: e354 d3bd f84a 983d e218 43be 169d 06be
00000010: 5162 6e3d 72ef 583e 1d9a 373e 1a42 a6bd
00000020: bfd6 d1be 5183 93be ffba a4bc b9d1 a13d
00000030: 18fd 11be 7bf8 7fbd 0aa7 22bd 0149 4bbd
00000040: 6312 05be a203 1c3e 0752 c1be bd51 ebbd
00000050: 5472 86bd 7ede 43bd 6e9d 56be 46c8 40be
00000060: f9bc 183e ff44 bebd d72a c9bd 5af3 77be
00000070: 54bf 9ebe b86f b4bd 9bf2 29be 992a 9cbd
00000080: 4cf1 1dbe 2e53 c93c 3850 f7be 79b3 08be
00000090: ab6e 743d a96c d7bd 316c 113e 7077 4ebd
000000a0: 3422 783c 12fd 50be c750 cfbd 59ad 903d
000000b0: b8b1 8a3d 0218 5cbd fc43 d83d a4b2 d4bc
000000c0: f67f dfbd 962b 4bbe 422f d2bd d3c6 fabd
000000d0: ac8b 123e 20de 2fbe 87c6 eabc 2a79 27be
000000e0: e8b9 b1bd c6fb df3d aaae 86bd 7775 1d3e
000000f0: 21ff c33d 4b3b 0b3e ad27 2fbd ba87 c33d

bn2.running_mean f4 [64]
-0.16583209 0.112205856 -0.22499529 -0.18147439 -0.041843355 0.07020671 0.16537419 0.055787228
-0.37981963 -0.53495455 -0.263254 -0.27470034 -0.37364966 -0.16355774 -0.0543685 -0.12494959
-0.5833872 0.07064036 -0.17267232 0.09536815 0.28817442 -0.15981427 -0.3138328 -0.28107023
0.32325178 0.08435879 -0.058816027 -0.4349325 -0.50317514 -0.49031222 -0.30120194 -0.43180138
0.5630237 -0.14316799 -0.30939618 -0.047605775 0.08684021 -0.11260878 -0.10233727 0.12166399
-0.024568956 0.18438692 -0.44286048 -0.017953303 -0.090487376 -0.07485114 -0.17380355 -0.041658435
-0.10150663 -0.39783776 0.05893596 -0.26653913 -0.0063546193 -0.4410966 -0.16811287 -0.14023113
-0.12790531 0.14806691 -0.21797127 0.1483407 -0.0001427495 0.00027205062 -0.13510169 0.09362548
00000000: e3cf 29be 2fcc e53d 2a65 66be 6cd4 39be
00000010: f063 2bbd 89c8 8f3d da57 293e 2681 643d
00000020: b877 c2be c8f2 08bf 3ac9 86be 86a5 8cbe
00000030: 024f bfbe ae7b 27be 81b1 5ebd 92e5 ffbd
00000040: dd58 15bf e5ab 903d 03d1 30be 6050 c33d
00000050: 998b 933e 5aa6 23be b1ae a0be 70e8 8fbe
00000060: 4281 a53e 4dc4 ac3d 13e9 70bd 79af debe
00000070: 16d0 00bf 340a fbbe 2437 9abe 1215 ddbe
00000080: 5222 103f a19a 12be 2d69 9ebe 46fe 42bd
00000090: 48d9 b13d 6f9f e6bd 3496 d1bd f82a f93d
000000a0: d644 c9bc edcf 3c3e 9cbe e2be ce12 93bc
000000b0: 7251 b9bd 8e4b 99bd 8ff9 31be 09a2 2abd
000000c0: b5e2 cfbd 64b1 cbbe d566 713d d177 88be
000000d0: 693a d0bb 6ad7 e1be c825 2cbe c098 0fbe
000000e0: 9cf9 02be da9e 173e dc33 5fbe a0e6 173e
000000f0: 07af 15b9 04a2 8e39 1958 0abe b7be bf3d

bn2.running_var f4 [64]
0.3008523 0.28360033 0.40280455 0.29153687 0.5312129 0.47990972 0.6911169 0.49147075
0.36154193 0.39759442 0.7876201 0.6302882 0.42487392 0.519276 0.8500409 0.5284634
0.5131902 0.47469476 0.26958376 0.7072865 0.5266695 0.47695005 0.21121214 0.33445185
0.9479172 0.42383876 0.51070845 0.29716533 0.5893471 0.67969865 0.22708507 0.38499516
0.51656973 0.79646766 0.33691898 0.49215633 0.4914458 0.65551704 0.50779176 0.5224708
0.6968971 0.61295134 0.33883697 0.31418654 0.40322492 0.36883065 0.51715463 0.31006876
0.38184336 0.30229065 0.35511434 0.18218173 0.5075668 0.33515504 0.4446715 0.43445805
0.52782166 0.7358153 0.63037 0.6349821 0.5908128 0.297082 0.5291108 0.38058376
00000000: 5009 9a3e 1034 913e 663c ce3e 5244 953e
00000010: 92fd 073f bab6 f53e 0aed 303f 0ea2 fb3e
00000020: 061c b93e 7f91 cb3e 79a1 493f 915a 213f
00000030: 1389 d93e 46ef 043f 489c 593f 6149 073f
00000040: 6f60 033f 310b f33e e206 8a3e ba10 353f
00000050: d0d3 063f cc32 f43e ff47 583e 463d ab3e
00000060: b4aa 723f 6501 d93e cabd 023f 0e26 983e
00000070: 74df 163f bb00 2e3f fd88 683e 161e c53e
00000080: ea3d 043f 4ee5 4b3f a580 ac3e eafb fb3e
00000090: c99e fb3e f7cf 273f a4fe 013f a5c0 053f
000000a0: d967 323f 61ea 1c3f 0a7c ad3e 0fdd a03e
000000b0: 7f73 ce3e 5fd7 bc3e 3f64 043f 55c1 9e3e
000000c0: f980 c33e d7c5 9a3e 8cd1 b53e d98d 3a3e
000000d0: e6ef 013f 7199 ab3e fcab e33e 4971 de3e
000000e0: 521f 073f 645e 3c3f ee5f 213f 308e 223f
000000f0: 823f 173f 221b 983e ce73 073f e0db c23e

fc3.weight f4 [32, 64]
-0.011901652 -0.27892762 -0.0317397 -0.04249586 -0.054783367 -0.12177114 -0.06481933 0.058987584
-0.03857764 0.040559806 0.019264933 -0.07801037 -0.0045533553 0.022753144 0.002947156 0.03672746
0.053721286 -0.12884559 -0.027053053 0.033120748 -0.009376276 -0.03328845 0.0055488343 0.0033771396
-0.0810217 -0.025154272 -0.043441 -0.059137795 0.0023830826 0.055523843 0.013723517 -0.0027235947
-0.06931554 -0.078074604 -0.04573919 -0.007384848 -0.16338211 0.025562588 -0.058532394 -0.077179074
-0.11661986 0.05400331 -0.065546915 -0.058377586 -0.10946617 0.031519692 -0.15024455 -0.0650078
0.017033407 0.053777494 -0.01132133 -0.1794077 -0.072674155 0.042955656 -0.04064502 -0.07204175
0.03140942 -0.06016368 0.073663965 -0.13959438 -0.06860418 -0.13865772 -0.109085664 -0.04093245
-0.012145595 0.016100328 0.013479377 0.027492467 -0.059896264 0.013854038 -0.033576857 -0.083706856
-0.038854804 0.03611674 -0.1697778 -0.043376297 0.053974286 0.10429365 -0.059842687 -0.13779378
-0.08409634 0.027327701 0.10343523 -0.06446565 -0.0921257 -0.029340403 0.027896581 -0.11282667
-0.032188956 0.010492468 0.03977785 0.11253568 0.039892998 -0.047515593 -0.015498486 0.031036567
-0.06046452 -0.081773095 0.16927351 0.0906417 0.03991607 -0.11522734 -0.08513929 0.08424963
-0.062806085 0.09051666 0.048426047 0.11727701 -0.038053602 -0.11030082 -0.041011672 0.045998927
0.0132569615 -0.016116505 -0.0019750388 -0.03529652 0.0023580012 0.10828536 0.055007376 0.110340685
-0.13217413 -0.11524116 0.03132635 0.06313879 -0.013971119 0.03706977 -0.065254375 -0.036650587
0.02843755 -0.0034334818 -0.07647673 -0.048598398 -0.118616365 0.020863282 -0.13925052 0.020703213
-0.022534022 0.0022366084 -0.009208586 -0.22298099 0.03702111 -0.083526105 0.01006333 0.00547447
-0.030752325 0.06328857 -0.13228926 -0.0016612097 0.043120544 -0.07970816 0.07053801 0.024874115
-0.04101346 -0.11657193 0.014487051 -0.12401072 -0.024205059 -0.03828687 0.020993702 0.03707841
-0.058081657 0.018108498 -0.053744122 -0.12234174 -0.06431256 -0.03640336 -0.16655752 -0.05877356
-0.08848746 0.07301535 0.117142476 -0.008259526 -0.12595119 -0.009375179 -0.0952156 0.045812692
0.012405351 0.06216197 -0.023874097 0.031114772 -0.14260039 -0.050234873 -0.13437887 0.097252175
0.008118392 -0.04209696 0.068773955 -0.12298001 0.036292713 -0.017444748 -0.07522374 -0.07965332
0.058210954 -0.06400909 0.07576453 -0.03156341 -0.021394541 0.123996995 -0.04204793 0.03195334
0.07622914 0.016194036 0.015482608 -0.07704294 0.02366456 0.071285754 -0.012406348 -0.075434335
-0.039016988 -0.07363388 0.027723633 -0.04723882 0.019833189 -0.025674785 -0.06398009 0.059549205
0.07370982 0.109593555 -0.033964835 0.03984407 -0.0067809313 -0.05154049 -0.019265827 -0.013444998
0.0031132523 -0.0018152245 -0.006866476 0.11241763 -0.09580224 -0.039780222 -0.056952246 0.09438057
-0.06887315 0.042442996 -0.05617354 -0.058280066 -0.030403908 -0.043855667 -0.08494857 0.04325616
0.0077107456 0.12048735 0.023764322 0.117953956 -0.014830988 0.07768517 0.021427516 0.1612405
0.021397397 0.07458762 -0.09931169 -0.056616206 -0.080171324 -0.004368509 0.034718044 0.046061926
00000000: 26ff 42bc 9acf 8ebe 7d01 02bd 2410 2ebd
00000010: 8664 60bd 2663 f9bd ffbf 84bd f79c 713d
00000020: 9603 1ebd 0a22 263d 7ed1 9d3c e7c3 9fbd
00000030: 5034 95bb cd64 ba3c 1325 413b 886f 163d
00000040: da0a 5c3d 19f0 03be 5d9e ddbc 9fa9 073d
00000050: f49e 19bc 7859 08bd ffd2 b53b 0053 5d3b
00000060: b4ee a5bd 5510 cebc 31ef 31bd 793a 72bd
00000070: 7e2d 1c3b f86c 633d 9ad8 603c 567e 32bb
00000080: 4ef5 8dbd 94e5 9fbd 0459 3bbd 98fc f1bb
00000090: a44d 27be a268 d13c aabf 6fbd 1010 9ebd
000000a0: 65d6 eebd 9332 5d3d 763d 86bd 561d 6fbd
000000b0: cd2f e0bd cb1a 013d b5d9 19be cf22 85bd
000000c0: a589 8b3c ca45 5c3d 1a7d 39bc a7b6 37be
000000d0: 30d6 94bd 45f2 2f3d 647b 26bd a08a 93bd
000000e0: 2aa7 003d 316e 76bd 22dd 963d d4f1 0ebe
000000f0: 5980 8cbd 4afc 0dbe 4e68 dfbd c9a8 27bd
00000100: 51fe 46bc d6e4 833c 9bd8 5c3c e237 e13c
00000110: c955 75bd 0cfc 623c e387 09bd 806e abbd
00000120: 3726 1fbd 26ef 133d 3bda 2dbe 58ab 31bd
00000130: 2414 5d3d e997 d53d 9b1d 75bd d019 0dbe
00000140: b43a acbd 58de df3c dad5 d33d 9106 84bd
00000150: 66ac bcbd 495b f0bc 5f87 e43c ab11 e7bd
00000160: 91d8 03bd 9ae8 2b3c 19ee 223d 1b79 e63d
00000170: d766 233d b69f 42bd 5ded 7dbc 6640 fe3c
00000180: a5a9 77bd a778 a7bd 0956 2d3e 5ba2 b93d
00000190: 087f 233d 50fc ebbd 825d aebd 128b ac3d
000001a0: 7aa0 80bd cc60 b93d 645a 463d ee2e f03d
000001b0: 18de 1bbd 65e5 e1bd dbfb 27bd 5f69 3c3d
000001c0: ba33 593c c306 84bc a76f 01bb 1593 10bd
000001d0: b288 1a3b b7c4 dd3d 6a4f 613d 4cfa e13d
000001e0: a858 07be 8f03 ecbd 0f50 003d e94e 813d
000001f0: 1fe7 64bc 79d6 173d 16a4 85bd ed1e 16bd
00000200: ddf5 e83c 4404 61bb d59f 9cbd 1d0f 47bd
00000210: 23ed f2bd 79e9 aa3c b097 0ebe c999 a93c
00000220: 4599 b8bc 1094 123b 9cdf 16bc 2155 64be
00000230: 73a3 173d bc0f abbd aae0 243c 2f63 b33b
00000240: 4dec fbbc 709d 813d d676 07be f3bc d9ba
00000250: 2b9f 303d 083e a3bd 3b76 903d cdc4 cb3c
00000260: bbfd 27bd 44bd eebd 195b 6d3c 55f9 fdbd
00000270: b049 c6bc b1d2 1cbd fcfa ab3c 88df 173d
00000280: 08e7 6dbd 4658 943c cc22 5cbd 4e8e fabd
00000290: 4eb6 83bd b11b 15bd 0e8e 2abe 8bbc 70bd
000002a0: ea38 b5bd 1289 953d 65e8 ef3d f752 07bc
000002b0: 59f9 00be 5a9a 19bc 6600 c3bd 17a6 3b3d
000002c0: d03f 4b3c 8d9d 7e3d 9c93 c3bc 68e4 fe3c
000002d0: d605 12be 15c3 4dbd 9d9a 09be 262c c73d
000002e0: 0103 053c dd6d 2cbd 5cd9 8c3d f2dc fbbd
000002f0: aba7 143d 4ae8 8ebc e70e 9abd 4821 a3bd
00000300: 9c6e 6e3d 3317 83bd 6f2a 9b3d a248 01bd
00000310: 9b43 afbc 23f2 fd3d 733a 2cbd 81e1 023d
00000320: 061e 9c3d 5ba9 843c c4aa 7d3c b0c8 9dbd
00000330: 2edc c13c 44fe 913d ff43 4bbc 517d 9abd
00000340: 47d0 1fbd 5ccd 96bd ac1c e33c 7e7d 41bd
00000350: 3679 a23c ed53 d2bc fe07 83bd dee9 733d
00000360: 2df5 963d 9672 e03d b61e 0bbd 8933 233d
00000370: 9332 debb 1f1c 53bd 5ed3 9dbc 6948 5cbc
00000380: b507 4c3b d4ec edba 2d00 e1bb 373b e63d
00000390: f733 c4bd 96f0 22bd c246 69bd 9a4a c13d
000003a0: 5e0d 8dbd b5d8 2d3d 3a16 66bd 14b7 6ebd
000003b0: 9e11 f9bc 00a2 33bd 84f9 adbd 5f2d 313d
000003c0: 6caa fc3b 12c2 f63d 65ad c23c d891 f13d
000003d0: acfd 72bc 6719 9f3d c288 af3c 3b1c 253e
000003e0: 9849 af3c 65c1 983d ed63 cbbd 65e6 67bd
000003f0: dd30 a4bd b625 8fbb 8234 0e3d 6eab 3c3d

fc3.bias f4 [32]
-0.036552027 -0.11917686 0.029694391 -0.08612727 -0.095314786 0.057156682 0.022720903 -0.06240832
-0.012803862 -0.12150674 0.08537376 -0.027660778 -0.101860516 -0.11167522 -0.023144547 -0.039732847
-0.030369647 0.018587224 -0.103272066 -0.06249093 -0.1125564 0.0949137 0.10848624 0.110763796
-0.049874034 0.0788145 -0.084443085 -0.035184298 0.09465731 -0.019978106 0.05584366 0.03399247
00000000: 94b7 15bd ff12 f4bd a741 f33c 7e63 b0bd
00000010: 6634 c3bd 201d 6a3d 3021 ba3c de9f 7fbd
00000020: 4ac7 51bc 87d8 f8bd 70d8 ae3d db98 e2bc
00000030: 3f9c d0bd fab5 e4bd a299 bdbc e9be 22bd
00000040: c4c9 f8bc 3c44 983c 4e80 d3bd 7df6 7fbd
00000050: f883 e6bd 1d62 c23d 092e de3d 21d8 e23d
00000060: b748 4cbd 7f69 a13d 7ff0 acbd 691d 10bd
00000070: b1db c13d 20a9 a3bc 52bc 643d b03b 0b3d

bn3.weight f4 [32]
1.5128436 0.9486144 0.88550216 1.0104642 1.0475066 0.92791796 1.1306993 0.92978865
0.91006786 0.8295046 1.0898389 0.98645896 0.93024 0.88378143 0.9597104 0.89799076
0.9410347 0.9081696 1.0757995 1.1361512 1.0168426 0.85135424 0.91654307 0.9794771
1.6941191 0.8820235 1.207714 0.9838386 1.1361166 0.90950364 0.84237444 0.92656326
00000000: dca4 c13f 65d8 723f 45b0 623f e456 813f
00000010: b214 863f 088c 6d3f c1ba 903f a106 6e3f
00000020: 35fa 683f 6a5a 543f d77f 8b3f 9388 7c3f
00000030: 3524 6e3f 803f 623f 95af 753f b9e2 653f
00000040: a6e7 703f ce7d 683f ccb3 893f 676d 913f
00000050: e627 823f 5af2 593f 91a2 6a3f 03bf 7a3f
00000060: e5d8 d83f 4bcc 613f 5f96 9a3f d9dc 7b3f
00000070: 456c 913f 3bd5 683f daa5 573f 4033 6d3f

bn3.bias f4 [32]
0.095624074 -0.014138473 -0.15241195 -0.27991822 -0.1376828 -0.26399162 -0.1067744 -0.07581288
-0.2400565 -0.17997201 -0.083079 -0.11473342 -0.18197267 -0.23168877 -0.3732582 -0.10995207
-0.17983273 -0.19031277 -0.061155535 -0.0679142 -0.2532362 -0.18560052 -0.16980197 -0.2238575
0.5684783 -0.18751486 -0.028030138 -0.07213453 0.023401905 -0.23635711 -0.2694686 -0.22682948
00000000: 8ed6 c33d 0ea5 67bc e111 1cbe 7151 8fbe
00000010: b8fc 0cbe e929 87be 89ac dabd c943 9bbd
00000020: 5fd1 75be 954a 38be 5325 aabd 5bf9 eabd
00000030: 0b57 3abe d23f 6dbe b31b bfbe 8d2e e1bd
00000040: 1226 38be 5ae1 42be 3a7e 7abd 9a16 8bbd
00000050: 2da8 81be 100e 3ebe 91e0 2dbe e73a 65be
00000060: cb87 113f e503 40be 769f e5bc 45bb 93bd
00000070: 5ab5 bf3c 9907 72be caf7 89be fd45 68be

bn3.running_mean f4 [32]
-0.7783936 -0.36575127 -0.5394386 -0.19872855 -0.55833834 -0.2808778 -0.8136115 -0.58097774
-0.36205813 -0.6243319 0.17223693 -0.51466566 -0.04850972 -0.75232714 -0.20785475 -0.5265643
-0.6857103 -0.6496683 -0.65373343 -0.4867515 -0.039989885 -0.5924493 -0.47878075 0.0176535
-0.3585617 -0.11776652 -0.70378006 -0.31796226 -0.3986271 -0.68772596 -0.25330058 -0.43280366
00000000: ce44 47bf c043 bbbe a618 0abf 7f7f 4bbe
00000010: 43ef 0ebf 37cf 8fbe d848 50bf f5ba 14bf
00000020: af5f b9be 37d4 1fbf e15e 303e 21c1 03bf
00000030: 21b2 46bd 8398 40bf e0d7 54be ebcc 06bf
00000040: b68a 2fbf a950 26bf 135b 27bf 7e37 f9be
00000050: 6fcc 23bd c2aa 17bf c022 f5be 139e 903c
00000060: 6695 b7be 932f f1bd ee2a 34bf f3cb a2be
00000070: da18 ccbe cf0e 30bf 9db0 81be 7198 ddbe

bn3.running_var f4 [32]
1.174642 0.2838627 0.602582 0.22190486 0.546758 0.28131634 0.95102465 0.9759375
0.2747112 0.6979082 0.38174143 0.31219214 0.19279441 0.65454865 0.32371083 0.561371
0.6169711 0.39188963 0.7350895 0.8449324 0.31456056 0.5937494 0.34406623 0.18200992
2.1905148 0.20261581 0.74473125 0.7202293 0.8300779 0.6294044 0.54191774 0.5542929
00000000: ab5a 963f 7456 913e d042 1a3f 073b 633e
00000010: 55f8 0b3f b208 903e 5a76 733f 0ad7 793f
00000020: f2a6 8c3e 1daa 323f 9d73 c33e a6d7 9f3e
00000030: e66b 453e 8090 273f 6dbd a53e 03b6 0f3f
00000040: d1f1 1d3f c2a5 c83e d32e 3c3f 7d4d 583f
00000050: 150e a13e f6ff 173f 7329 b03e cf60 3a3e
00000060: 6531 0c40 857a 4f3e b5a6 3e3f f360 383f
00000070: fc7f 543f a620 213f 1fbb 0a3f 24e6 0d3f
