MELOSDP/SDP/chkpt/mc1/linear/6/sdp_classifier_linear-860.pth (torch, 77408 bytes, 25 tensors)

fc1.weight f4 [128, 38]
0	0xbdfea415	-0.1243364
1	0xbe053d00	-0.13011551
2	0x3d4ddf3c	0.05026172
3	0x3d2e1086	0.042496227
4	0xbdd62fcc	-0.10458335
5	0xbdf4fea2	-0.1196263
6	0x3e3181ff	0.17334746
7	0xbd9072c4	-0.0705314
8	0xbc0bd8ab	-0.008535544
9	0xbbfa83d1	-0.0076451083
10	0x3d67c72e	0.056586437
11	0xbcc33144	-0.023827203
12	0x3d42d2e4	0.047564402
13	0xbdbdd8dc	-0.09269878
14	0x3d0291c3	0.03187729
15	0x3cade34c	0.021226548
16	0xbcb88be3	-0.02252764
17	0xbd94b2a7	-0.07260638
18	0xba9a6e45	-0.001178213
19	0xbd1b8655	-0.037969906
20	0xbc083195	-0.0083126025
21	0x3ccc2f5c	0.024924926
22	0xbd6f4dc4	-0.058423772
23	0xbe1a6269	-0.15076603
24	0x3db63836	0.0889744
25	0x3de5da8b	0.112233244
26	0x3e86ee47	0.26353666
27	0x3d4b052f	0.04956549
28	0x3cfcb18f	0.030846385
29	0xbde2c432	-0.110725775
30	0x3dcf29a6	0.10115366
31	0x3ca35bf9	0.019941317
32	0xbdf38af2	-0.11891736
33	0xbdfd2ce8	-0.12362081
34	0x3e255c78	0.16148555
35	0x3c83c622	0.016085688
36	0xbe0ff7f4	-0.1405943
37	0xbe333d1d	-0.17503782
38	0x3e09432e	0.13404533
39	0x3e0476ea	0.12935987
40	0x3dd4631c	0.10370466
41	0xbd646df2	-0.055768915
42	0xbd9c614c	-0.076357454
43	0x3de89eb5	0.11358396
44	0xbd38c8ef	-0.0451135
45	0xbddb62c3	-0.10712197
46	0xbe16a6b5	-0.14712031
47	0x3ded6ec9	0.11593396
48	0x3ca321f5	0.019913653
49	0x3ad37e94	0.0016135746
50	0xbe8f0ea1	-0.27940848
51	0x3d0023e8	0.031284243
52	0x3cde3aab	0.027127584
53	0x3ccb5d0e	0.024824645
54	0x3e04cd7e	0.12969014
55	0x3c8bb79e	0.017055329
56	0xbd9eb61d	-0.07749579
57	0x3ca62103	0.020279413
58	0xbd33bc21	-0.043880586
59	0xbdf8381b	-0.12120076
60	0xbe152caf	-0.14567827
61	0xbdb66c0f	-0.08907329
62	0xbba51357	-0.005037706
63	0xbd30469c	-0.04303609
64	0x3e03ace0	0.12858915
65	0x3d90dba6	0.070731446
66	0x3d9006a6	0.07032518
67	0x3e0bc16a	0.13648
68	0xbe202ced	-0.15642138
69	0xbdc93f17	-0.098264866
70	0x3e114bf5	0.14189132
71	0xbe1cae5d	-0.1530089
72	0xbdd0647a	-0.101754144
73	0xbd97dcb5	-0.074151434
74	0xbdd63e1e	-0.10461067
75	0xbcc8c95a	-0.024510074
76	0x3e8a45ba	0.27006322
77	0x3cbdff8f	0.023193149
78	0xbd661406	-0.05617144
79	0x3c24ce23	0.010058912
80	0xbdb8f908	-0.09031874
81	0x3e0eed09	0.13957609
82	0xbd879ab5	-0.06621305
83	0x3cd62712	0.026141677
84	0x3d5487aa	0.05188719
85	0xbd943357	-0.07236355
86	0x3d12ed5b	0.03587089
87	0xbdc0e416	-0.09418504
88	0x3d25f3b6	0.040515624
89	0x3c288841	0.010286392
90	0xbd91f84a	-0.071274355
91	0xbd6a7dbe	-0.057248823
92	0x3d4d9165	0.050187487
93	0x3dd2a5b3	0.10285511
94	0xbbfbaff8	-0.007680889
95	0xbcb759e2	-0.022381727
96	0xbe014810	-0.12625146
97	0x3d05fbcd	0.03271084
98	0x3cf3329a	0.029687215
99	0xbe0ecf98	-0.13946378
100	0x3da0e085	0.07855324
101	0x3ccd5ba4	0.025068112
102	0xbd66adde	-0.056318156
103	0x3dc463eb	0.0958937
104	0xbdf56c64	-0.119835645
105	0x3db87357	0.09006374
106	0xbdf81ea5	-0.1211522
107	0xbd6d8d18	-0.057995886
108	0xbd94f95f	-0.07274126
109	0xbdc77499	-0.09739036
110	0xbe93c473	-0.28860816
111	0xbd623a42	-0.05523134
112	0xbd82af8a	-0.06381138
113	0x3c92d0b4	0.017921783
114	0xbb96936e	-0.0045952117
115	0xbdc1f689	-0.09470851
116	0xbcce22ef	-0.025163142
117	0xbddac2aa	-0.106816605
118	0xbe0f89b8	-0.1401738
119	0x3c98f11d	0.01866966
120	0xbdad7e31	-0.08471335
121	0x3a0c51dd	0.0005352775
122	0xbd22c37e	-0.039737217
123	0xbdacf8d8	-0.08445901
124	0xbe33753e	-0.17525193
125	0x3c4c256d	0.012460095
126	0x3c6005db	0.013673271
127	0x3d0958b0	0.033531845
128	0xbe02b9b6	-0.12766156
129	0xbd239d08	-0.03994468
130	0x3d4e839e	0.05041849
131	0xbe0b5e21	-0.13610126
132	0xbe2a88ac	-0.16653699
133	0xbd367d7d	-0.04455327
134	0x3caef5a8	0.021357372
135	0x3de50428	0.11182433
136	0xbd38c20f	-0.045106944
137	0xbdbea7b5	-0.09309331
138	0x3e180b79	0.14848126
139	0xbde9557a	-0.113932565
140	0x3d3ef942	0.04662443
141	0xbd5a3429	-0.0532724
142	0x3e026abe	0.12736031
143	0x3ddd2670	0.10798347
144	0xbd049e90	-0.03237778
145	0x3deca83d	0.115555264
146	0xbdb2b5ad	-0.08726058
147	0x3cb2109e	0.02173644
148	0xbdaf1edb	-0.08550807
149	0xbd96930d	-0.073522665
150	0x3d55ab58	0.05216536
151	0x3deb67c3	0.114944
152	0xbdf79823	-0.12089565
153	0xbe100377	-0.14063822
154	0x3e4a0c53	0.19731264
155	0xbcb8a0a1	-0.022537531
156	0x3e172f34	0.147641
157	0xbe07ffef	-0.13281225
158	0xbdb935aa	-0.09043439
159	0x3de86e4e	0.11349164
160	0xbde525db	-0.11188861
161	0xba6e9557	-0.0009101233
162	0x3d9fd92c	0.07805094
163	0xbaa74daa	-0.0012764235
164	0x3d98e7a0	0.07466054
165	0xbd013d32	-0.0315525
166	0xbe1be6d9	-0.1522478
167	0xbb372318	-0.0027944501
168	0xbe221893	-0.15829687
169	0x3c018024	0.007904086
170	0x3c24ae58	0.010051332
171	0xbd49ca02	-0.049264915
172	0x3de1a448	0.11017662
173	0x3dad6c35	0.084679045
174	0xbd365244	-0.04451205
175	0xbd599424	-0.053119794
176	0x3d99ad9d	0.07503817
177	0x3e0ea58b	0.13930337
178	0x3de6bcf7	0.11266511
179	0x3d49aa19	0.049234483
180	0x3c8a9585	0.016917
181	0xbcf5623e	-0.029954072
182	0x3dba7c52	0.091057435
183	0x3d4e85cc	0.050420567
184	0xbd8fef9e	-0.07028125
185	0xbdd65dfc	-0.10467145
186	0x3e1265f7	0.14296709
187	0xbdd727c0	-0.105056286
188	0x3cd67eea	0.026183564
189	0x3d1b9b13	0.037989687
190	0xbd9bbb69	-0.07604105
191	0x3e1599d4	0.14609462
192	0x3da48a6e	0.08034216
193	0xbd575308	-0.05256942
194	0x3be01035	0.0068378695
195	0xbd7e87fb	-0.0621414
196	0x3bc094b2	0.005877101
197	0xbdb2676f	-0.08711135
198	0x3d87929c	0.066197604
199	0x3e1011f0	0.14069343
200	0x3e1948c6	0.14969167
201	0x3ddfa0d0	0.109193444
202	0xbb53452c	-0.0032237275
203	0x3dbf10c0	0.09329367
204	0xbdd9b6c6	-0.106305644
205	0xbdea3bf8	-0.114372194
206	0x3daf8242	0.085697666
207	0xbd7cd155	-0.061723072
208	0xbe1c2900	-0.15250015
209	0x3c536e59	0.012904727
210	0x3c0bc8dc	0.008531775
211	0x3c605933	0.013693142
212	0xbdbfea3f	-0.09370851
213	0x3e28b135	0.16473849
214	0x3dcfa27e	0.10138415
215	0xbd914ac9	-0.07094342
216	0x3d2b678d	0.0418468
217	0x3db7d495	0.08976094
218	0xbd653cca	-0.055966176
219	0x3da193d3	0.07889523
220	0xbd0348e5	-0.03205194
221	0x3d84a25b	0.06476279
222	0xbdbed876	-0.093186304
223	0xbd6d88c6	-0.057991765
224	0x3c2333a4	0.009961043
225	0x3d094db0	0.033521354
226	0x3cffd4d1	0.031229408
227	0x3d656cf1	0.056012098
228	0xbe201cd7	-0.15636002
229	0x3db49e49	0.08819253
230	0xbe315b94	-0.1732009
231	0xbbf6cc0a	-0.0075316476
232	0xbde28a1d	-0.11061499
233	0xbcd065e3	-0.025439208
234	0x3d208852	0.039192505
235	0xbd9edc4a	-0.077568606
236	0x3db014c0	0.08597708
237	0x3d518322	0.05115045
238	0x3d17a4f1	0.037022535
239	0xbd0e7c7e	-0.034786694
240	0x3c6f3124	0.014599118
241	0xbd94ad79	-0.0725965
242	0xbdfa5d9a	-0.12224884
243	0xbe28e919	-0.1649517
244	0x3d3f27da	0.046668865
245	0xbd54c4de	-0.05194556
246	0xbdd08180	-0.1018095
247	0xbd94ab21	-0.07259203
248	0x3e047663	0.12935786
249	0x3c9f088d	0.019413257
250	0x3dce7759	0.100813575
251	0x3c9f3d3b	0.019438377
252	0x3e107a5e	0.1410918
253	0x3bafd4c7	0.005365941
254	0x3c14b702	0.009076836
255	0x3e151b4a	0.14561191

fc1.bias f4 [128]
0	0xbd3e2e34	-0.04643078
1	0xbd9bb45b	-0.076027595
2	0x3d2ca8fa	0.042153336
3	0xbe1931b0	-0.1496036
4	0x3d3f3527	0.04668155
5	0x3d137925	0.036004204
6	0x3e0a3fb3	0.13500862
7	0xbe203871	-0.1564653
8	0x3ca2291e	0.019794997
9	0xbe1ecfc8	-0.1550895
10	0xbd717f79	-0.058959458
11	0xbdc7ad55	-0.09749857
12	0x3e138d56	0.14409384
13	0xbd17fafd	-0.037104595
14	0x3de4e369	0.111761875
15	0x3d952441	0.072823055
16	0xbd5d0310	-0.053958
17	0xbc1009a0	-0.008791357
18	0xbe1df897	-0.15426861
19	0x3c2d86b9	0.010591202
20	0xbdd39a61	-0.1033218
21	0x3b841294	0.004030535
22	0xbd0b3872	-0.033989377
23	0x3e126b01	0.14298631
24	0xbdcc05a3	-0.099620126
25	0x3e0dc5d9	0.13845004
26	0xbe1bc4a0	-0.15211725
27	0xbdd934e0	-0.10605788
28	0x3e1c4edd	0.15264459
29	0xbe0bf79a	-0.13668671
30	0x3c1e4c30	0.009661719
31	0x3da36809	0.079788275
32	0x3e086c58	0.1332258
33	0xbe15bda2	-0.1462312
34	0xbd406b3c	-0.046977267
35	0xbe21a5f8	-0.15785968
36	0x3d108237	0.035280433
37	0x3e1702be	0.1474714
38	0x3c89b23f	0.016808627
39	0xbe0d11e4	-0.13776356
40	0xbd9fd378	-0.07804006
41	0x3ddb1db8	0.10699028
42	0x3e105fd5	0.14099057
43	0x3da456f5	0.08024398
44	0x3e1dbef1	0.1540487
45	0x3dcc1908	0.09965712
46	0xbd997af7	-0.07494157
47	0x3cd852cc	0.026406668
48	0xbcb766e3	-0.022387927
49	0x3c801e6b	0.015639504
50	0x3d5df2fb	0.054186802
51	0x3d212054	0.03933747
52	0x3cc59716	0.024119895
53	0xbcef6f3f	-0.029227851
54	0x3e16d2f5	0.14728911
55	0x3e0fe530	0.14052272
56	0x3daab55c	0.08335373
57	0x3cb19a1d	0.021679932
58	0xbd60c7e0	-0.054878116
59	0xbd9e44e2	-0.07727982
60	0x3dfa9dc1	0.122371204
61	0xbda036b7	-0.07822936
62	0xbe0b34d8	-0.13594377
63	0xbb9b65d0	-0.0047423616
64	0xbdb8d7de	-0.090255484
65	0xbc20f1da	-0.009823287
66	0xbe1f2236	-0.15540394
67	0xbd95b07b	-0.073090516
68	0x3d60b120	0.05485642
69	0xbcfc5488	-0.030802026
70	0xbd80b588	-0.06284624
71	0x3d64e0f2	0.055878587
72	0xbe0ed25c	-0.13947433
73	0x3d2ce857	0.042213764
74	0xbd8a7e88	-0.06762415
75	0xbe220317	-0.15821491
76	0xbcdba206	-0.026810657
77	0xbde802aa	-0.11328633
78	0xbd9bff68	-0.07617074
79	0x3e174dab	0.14775722
80	0x3d8ad2b7	0.06778472
81	0xbe24258a	-0.16029945
82	0xbe1ee1bc	-0.15515798
83	0xbb26fb5a	-0.0025479407
84	0xbdb3a707	-0.08772092
85	0x3de097f1	0.109664805
86	0x3db3a283	0.08771231
87	0x3d00035a	0.031253196
88	0xbdda15d2	-0.10648693
89	0x3d2007e1	0.039070014
90	0xbe1f9e83	-0.15587811
91	0x3dcb26ce	0.09919511
92	0x3e1105ba	0.14162341
93	0xbdba27a7	-0.09089594
94	0x3d71f472	0.05907101
95	0xbc887871	-0.016658993
96	0xbe138d04	-0.14409262
97	0xbd20a447	-0.039219167
98	0x3e0e0f16	0.13872942
99	0x3cd79916	0.026318114
100	0xbb7be393	-0.0038435205
101	0xbe06dd83	-0.13170438
102	0x3db59044	0.08865407
103	0xbda95945	-0.0826898
104	0xbdf227d8	-0.11824006
105	0x3c20f577	0.009824148
106	0x3cd69369	0.026193338
107	0x3da192bf	0.07889318
108	0xbdd484b8	-0.103768766
109	0x3d782096	0.06057795
110	0x3da0d279	0.078526445
111	0xbde8e20b	-0.11371239
112	0x3e03b249	0.12860979
113	0xbd157ccd	-0.036495972
114	0xbdc36cc6	-0.09542231
115	0xbdda0681	-0.10645772
116	0x3e0312c9	0.12800135
117	0x3d03ffd0	0.032226384
118	0x3e030f63	0.12798838
119	0xbd808145	-0.06274656
120	0xbd503701	-0.050833706
121	0x3d6258e4	0.055260554
122	0xbcae3eae	-0.021270122
123	0x3e058358	0.13038385
124	0xbdbefde2	-0.09325768
125	0x3d846d96	0.06466214
126	0xbe245a10	-0.16049981
127	0x3cc9606d	0.024582112

bn1.weight f4 [128]
0	0x3f8d6145	1.1045309
1	0x3f891ad1	1.0711309
2	0x3fb2861b	1.3947176
3	0x3f781feb	0.969237
4	0x3f89e1ee	1.0772073
5	0x3f7bfe59	0.9843498
6	0x3f7e45a3	0.9932501
7	0x3f88967a	1.0670922
8	0x3f7ceb1f	0.98796266
9	0x3f7e918f	0.99440855
10	0x3f7cb878	0.98718977
11	0x3f7ed7c7	0.99548
12	0x3f861f93	1.0478386
13	0x3f73c122	0.9521657
14	0x3f9896cd	1.1921021
15	0x3f82be66	1.0214355
16	0x3f678c65	0.904486
17	0x3f89e90c	1.0774245
18	0x3f91d528	1.1393175
19	0x3f6ed5b7	0.9329485
20	0x3f81db73	1.0145096
21	0x3f84fc70	1.0389538
22	0x3f91ac98	1.1380796
23	0x3f78063a	0.968845
24	0x3f865bc7	1.0496758
25	0x3f7fd872	0.99939644
26	0x3f7710d8	0.96510077
27	0x3f8b1133	1.0864624
28	0x3f8b5e94	1.0888238
29	0x3f84840a	1.0352795
30	0x3f7c2668	0.98496103
31	0x3fb2e75f	1.3976859
32	0x3f960332	1.1719725
33	0x3f75291c	0.9576585
34	0x3f7c7301	0.9861298
35	0x3f72b087	0.9480061
36	0x3f64fbaa	0.8944651
37	0x3fa51a3a	1.2898629
38	0x3f83848d	1.0274826
39	0x3f83a609	1.0285045
40	0x3f95a397	1.1690549
41	0x3f76c372	0.96391976
42	0x3f7b5a76	0.9818491
43	0x3f7e02bd	0.9922293
44	0x3f74c07a	0.95606196
45	0x3f79fa8e	0.9764794
46	0x3f7ec616	0.99521005
47	0x3f7f7f5f	0.9980373
48	0x3f8276be	1.0192487
49	0x3f824b99	1.017932
50	0x3f83086b	1.0236944
51	0x3f819a7d	1.0125271
52	0x3f774b0f	0.96598905
53	0x3f75cbb9	0.9601398
54	0x3f7d6417	0.9898085
55	0x3f82f820	1.0231972
56	0x3f84dd28	1.0379992
57	0x3f7aa5ff	0.9790954
58	0x3f91bd50	1.1385899
59	0x3f7ba746	0.98302114
60	0x3f6e2b23	0.9303457
61	0x3f87b3c0	1.060173
62	0x3f914cb8	1.1351538
63	0x3f7e24b8	0.9927478
64	0x3f7fa7c3	0.9986536
65	0x3f86c849	1.0529872
66	0x3f77b709	0.96763664
67	0x3f80a068	1.0048952
68	0x3f6d1aed	0.9261921
69	0x3f82fc70	1.0233288
70	0x3f7de734	0.9918091
71	0x3f756052	0.958501
72	0x3f73c373	0.95220107
73	0x3f7ff832	0.9998809
74	0x3f77c1fe	0.96780384
75	0x3f83bd0e	1.029207
76	0x3f79813e	0.9746283
77	0x3f771672	0.96518624
78	0x3f8c2f48	1.0951929
79	0x3f75a5ae	0.9595593
80	0x3f77b110	0.9675455
81	0x3f7cb6ec	0.98716617
82	0x3f889724	1.0671124
83	0x3f82df99	1.0224487
84	0x3f8f3411	1.1187764
85	0x3f82534f	1.0181674
86	0x3f8dca17	1.1077298
87	0x3f983991	1.1892568
88	0x3f971c1b	1.1805452
89	0x3f8ee751	1.1164342
90	0x3f71f76a	0.9451815
91	0x3f7bc160	0.9834194
92	0x3f812e36	1.0092227
93	0x3f789e42	0.9711648
94	0x3f8085a9	1.004079
95	0x3f7e1e21	0.99264723
96	0x3f9b6d41	1.2142717
97	0x3f7c0e56	0.98459375
98	0x3f7e1d88	0.9926381
99	0x3f84dbe8	1.037961
100	0x3f91f430	1.1402645
101	0x3f81e086	1.0146644
102	0x3f7afe42	0.98044217
103	0x3f974d45	1.1820456
104	0x3f832934	1.0246949
105	0x3f7a2fd0	0.97729206
106	0x3fc0eedf	1.5072898
107	0x3f85d085	1.045426
108	0x3f9c119c	1.2192874
109	0x3f6ed0f1	0.9328757
110	0x3f77bc95	0.9677213
111	0x3f807b4b	1.0037626
112	0x3f7808d1	0.9688845
113	0x3f980de1	1.1879236
114	0x3f83bd92	1.0292227
115	0x3f77edf3	0.96847457
116	0x3f802b06	1.001313
117	0x3f8a48e0	1.080349
118	0x3f7df843	0.9920694
119	0x3f8963cf	1.0733584
120	0x3f79603a	0.97412455
121	0x3f8c9395	1.0982538
122	0x3f88c23e	1.0684278
123	0x3f8e55d8	1.1119947
124	0x3f93c2a0	1.154377
125	0x3f8797d9	1.0593215
126	0x3f745c87	0.95453686
127	0x3f924806	1.142823

bn1.bias f4 [128]
0	0xbd96709f	-0.073456995
1	0xbc67d46d	-0.014149767
2	0xbe84913a	-0.2589205
3	0xbdfa3456	-0.122170135
4	0xbde1fe4c	-0.110348314
5	0xbd7cee7e	-0.06175088
6	0xbcedd167	-0.029030515
7	0xbe09e203	-0.13465123
8	0xbce33c8a	-0.027738828
9	0xbd3612b0	-0.044451416
10	0xbdafbc9f	-0.085808985
11	0xbd05caa1	-0.032663945
12	0xbdfc1bf7	-0.12310021
13	0xbdc03bb6	-0.09386389
14	0xbde68644	-0.11256078
15	0xbd8b50bb	-0.068025075
16	0xbe269e17	-0.16271244
17	0xbe048d66	-0.12944564
18	0xbe28290f	-0.16421913
19	0xbd6de7c0	-0.058082342
20	0xbe137ad1	-0.1440232
21	0xbc393f2c	-0.011306565
22	0xbe18f645	-0.14937694
23	0xbd9d73ce	-0.076881036
24	0xbe0e62b0	-0.13904834
25	0xbe0f3c96	-0.13987955
26	0xbd66b860	-0.056328177
27	0xbdb0d21a	-0.08633824
28	0xbe13c3db	-0.14430182
29	0xbda47de1	-0.08031822
30	0xbe32caf4	-0.17460233
31	0xbe9d6ecf	-0.30748603
32	0xbe079c45	-0.13243206
33	0xbd1bd3f7	-0.038043942
34	0xbd87e57b	-0.06635567
35	0xbdae9036	-0.085236
36	0xbdaaa964	-0.0833309
37	0xbd64fddd	-0.055906165
38	0xbd890f86	-0.06692414
39	0xbe17da0f	-0.14829277
40	0xbdbde90e	-0.09272967
41	0xbd1b6982	-0.037942417
42	0xbd92cc59	-0.071678825
43	0xbdf95695	-0.12174717
44	0xbdaa380b	-0.083114706
45	0xbe24186b	-0.1602494
46	0xbe2eab7a	-0.170576
47	0xbda8ef35	-0.0824875
48	0xbe10fbfc	-0.14158624
49	0xbd38ee7b	-0.045149308
50	0x3c58f730	0.013242528
51	0xbde1b112	-0.110201016
52	0xbdbe011a	-0.09277554
53	0xbe26b8d6	-0.16281447
54	0xbe85b37d	-0.261135
55	0xbdaf36f9	-0.08555407
56	0xbe0bff29	-0.13671555
57	0xbd924e3a	-0.07143827
58	0xbde245b5	-0.11048452
59	0xbe08e5dc	-0.13368934
60	0xbd724eaa	-0.05915705
61	0xbdbf8e8c	-0.093533605
62	0xbd627be7	-0.055293944
63	0xbd4a1f08	-0.049346
64	0xbd00f146	-0.031480096
65	0xbd918052	-0.07104553
66	0xbdd460e8	-0.10370046
67	0xbd4652c2	-0.048418768
68	0xbdda2c8f	-0.1065303
69	0xbed4a328	-0.41530728
70	0xbc9ecc4c	-0.019384526
71	0xbd6b9bac	-0.057521507
72	0xbe489bc6	-0.19590673
73	0xbe0638c4	-0.13107592
74	0xbca35a36	-0.019940477
75	0xbd56aa16	-0.0524083
76	0xbdbcaed5	-0.09213034
77	0xbdf432ad	-0.11923728
78	0xbe3092f9	-0.17243566
79	0xbe149261	-0.14508964
80	0xbe18d46b	-0.14924781
81	0xbdbdbb87	-0.092642836
82	0xbd861d93	-0.065486096
83	0xbe45bbe6	-0.19309959
84	0xbc9641f6	-0.018342
85	0xbd99d117	-0.07510584
86	0xbdf63758	-0.12022275
87	0xbe233ffb	-0.15942375
88	0xbde40623	-0.11133983
89	0xbe440c80	-0.19145393
90	0xbe4341c5	-0.19068058
91	0xbe26f8aa	-0.16305795
92	0xbd8fc196	-0.070193455
93	0xbb5ac6d5	-0.0033382673
94	0xbe3bffa2	-0.18359235
95	0xbd86a3e6	-0.0657423
96	0xbd72f4d0	-0.059315503
97	0xbd495c2f	-0.04916018
98	0xbb81a058	-0.003955882
99	0xbdfedf65	-0.12444953
100	0xbde8be91	-0.11364473
101	0xbe49d5b9	-0.19710435
102	0xbd771cc9	-0.060330186
103	0xbe46866d	-0.19387217
104	0xbe6df093	-0.23236303
105	0xbe6a7e36	-0.22899708
106	0xbe24b779	-0.16085614
107	0xbe8e57ee	-0.2780146
108	0xbdc3d162	-0.09561421
109	0xbda69afb	-0.08135029
110	0xbcd4d7db	-0.025981834
111	0xbdee858d	-0.116465665
112	0xbe09e2db	-0.13465445
113	0xbdc32314	-0.09528175
114	0xbd5f633d	-0.054538
115	0xbd8e5293	-0.069493435
116	0xbdab9be5	-0.08379344
117	0xbddea43c	-0.10871169
118	0xbd87b13e	-0.06625603
119	0xbe505d9e	-0.20348212
120	0xbdb67eea	-0.08910926
121	0xbdf136bb	-0.11778017
122	0xbe9fcdaa	-0.31211597
123	0xbdce946c	-0.10086903
124	0xbe672ea6	-0.22576389
125	0xbcb88532	-0.02252445
126	0xbe0c6ae4	-0.1371265
127	0xbdb0fc9f	-0.08641934

bn1.running_mean f4 [128]
0	0xbd3ad328	-0.04561153
1	0xbd91a37b	-0.071112595
2	0x3d33baa1	0.043879155
3	0xbe182a12	-0.14859799
4	0x3d398487	0.045292404
5	0x3d18070c	0.037116095
6	0x3e07d70b	0.13265626
7	0xbe1cbdee	-0.15306827
8	0x3cb2d847	0.021831645
9	0xbe1ea354	-0.15491992
10	0xbd6f1735	-0.05837174
11	0xbdc8ba4b	-0.098011576
12	0x3e1573e3	0.14594989
13	0xbd098632	-0.033575244
14	0x3de4e195	0.11175839
15	0x3d9ab21c	0.07553503
16	0xbd66951b	-0.05629454
17	0xbbcc85e9	-0.0062415493
18	0xbe2119bd	-0.15732475
19	0x3c3b97cb	0.0114497645
20	0xbdd2386a	-0.102646664
21	0x3ba7ab65	0.0051168674
22	0xbd017058	-0.03160128
23	0x3e159e9c	0.14611286
24	0xbdd20559	-0.10254926
25	0x3e0d8e06	0.13823709
26	0xbe19ffae	-0.1503894
27	0xbdd4e3de	-0.10395025
28	0x3e1956c8	0.1497451
29	0xbe102133	-0.14075164
30	0x3c3fbb64	0.011702392
31	0x3d9ece2b	0.07754167
32	0x3e08c06f	0.13354658
33	0xbe1782e6	-0.14796028
34	0xbd36036d	-0.04443686
35	0xbe2215a9	-0.15828575
36	0x3d1d6df8	0.038434952
37	0x3e1695e0	0.1470561
38	0x3c90be39	0.01766883
39	0xbe0d911d	-0.13824888
40	0xbda125c6	-0.07868533
41	0x3ddb8e94	0.10720554
42	0x3e11db2b	0.14243762
43	0x3da75bc1	0.081717975
44	0x3e1dd51f	0.1541333
45	0x3dd00356	0.10156886
46	0xbd930b5f	-0.07179903
47	0x3ce2d1c3	0.027687913
48	0xbcc06e97	-0.023490233
49	0x3c892353	0.016740477
50	0x3d57209d	0.052521337
51	0x3d1e26aa	0.03861109
52	0x3cc246fc	0.023715489
53	0xbcf4cd88	-0.029883161
54	0x3e18bbdf	0.14915417
55	0x3e129fe2	0.14318803
56	0x3daa669d	0.08320353
57	0x3cb10b06	0.021611702
58	0xbd5b4a8d	-0.053537894
59	0xbda386c6	-0.0798469
60	0x3dfe1287	0.124058776
61	0xbda46d9b	-0.08028718
62	0xbe0d98e8	-0.1382786
63	0xbb8967da	-0.0041932883
64	0xbdbb41a7	-0.091433816
65	0xbc17d849	-0.009267875
66	0xbe1e0fc8	-0.15435708
67	0xbd9bf1ff	-0.076145165
68	0x3d5eaa64	0.054361716
69	0xbccab945	-0.024746547
70	0xbd7a859d	-0.06116258
71	0x3d66638b	0.056247275
72	0xbe0fd881	-0.14047433
73	0x3d298b91	0.041392867
74	0xbd8f4cb6	-0.06997053
75	0xbe24292a	-0.16031328
76	0xbce29941	-0.027660968
77	0xbddefd81	-0.10888196
78	0xbd9c7845	-0.07640127
79	0x3e168d88	0.14702427
80	0x3d92b4c4	0.071633846
81	0xbe24c4ff	-0.16090773
82	0xbe1cc9c0	-0.15311337
83	0xb7efc021	-2.8580487e-05
84	0xbdad1def	-0.08452975
85	0x3de07c74	0.109612375
86	0x3db9d24a	0.090733126
87	0x3cec424b	0.028840205
88	0xbdd770c2	-0.10519554
89	0x3d1400c1	0.03613353
90	0xbe23024f	-0.1591885
91	0x3dc69f01	0.09698296
92	0x3e10e32f	0.14149164
93	0xbdbf1913	-0.093309544
94	0x3d6a8be9	0.057262335
95	0xbc5f1ed3	-0.013618189
96	0xbe146365	-0.14491041
97	0xbd2398f3	-0.039940786
98	0x3e10459a	0.14089051
99	0x3ce35e22	0.027754847
100	0xba9f7bbd	-0.0012167614
101	0xbe06c155	-0.13159688
102	0x3db200c2	0.08691551
103	0xbda189aa	-0.078875855
104	0xbdf31e2b	-0.118709885
105	0x3c3cd163	0.011524531
106	0x3cd2abfb	0.025716772
107	0x3da8dd3e	0.082453236
108	0xbdd14bfc	-0.10219571
109	0x3d7fda9a	0.062464334
110	0x3d9e01a3	0.07715156
111	0xbde9f20c	-0.1142312
112	0x3e029de4	0.12755543
113	0xbd19b375	-0.03752466
114	0xbdc21179	-0.09475989
115	0xbddad38c	-0.106848806
116	0x3e0283d0	0.12745595
117	0x3ce68f9a	0.028144646
118	0x3e03b085	0.12860306
119	0xbd7fa65d	-0.062414516
120	0xbd4fe992	-0.05075986
121	0x3d569f40	0.052397966
122	0xbc92507d	-0.017860645
123	0x3e0629df	0.1310191
124	0xbdc282a7	-0.09497576
125	0x3d83be30	0.0643276
126	0xbe27615a	-0.1634573
127	0x3cc8d01b	0.024513295

bn1.running_var f4 [128]
0	0x3e945b9e	0.28976148
1	0x3e23c5a4	0.15993363
2	0x3ddc309a	0.107514575
3	0x3e324ff0	0.17413306
4	0x3e75cb4e	0.24003336
5	0x3e7c9d26	0.24669322
6	0x3e5ca7d7	0.21548401
7	0x3eb63d88	0.3559382
8	0x3e6ed1cd	0.2332222
9	0x3e87f329	0.26552704
10	0x3ebe626b	0.37184462
11	0x3e02ffff	0.12792967
12	0x3e4b6991	0.19864489
13	0x3e495955	0.19662984
14	0x3e29082e	0.16507027
15	0x3fab7794	1.3395867
16	0x3e94da6b	0.2907289
17	0x3e5a95ce	0.21346208
18	0x3ea93d16	0.33054417
19	0x3e8a03ba	0.26955968
20	0x3e31800e	0.17334005
21	0x3f0ceb7e	0.5504683
22	0x3e080e6c	0.13286752
23	0x3e767e18	0.24071538
24	0x3e1cff7e	0.15331838
25	0x3e529cd9	0.20567645
26	0x3e25c7df	0.16189526
27	0x3e1e4850	0.15457273
28	0x3e27a5c2	0.16371825
29	0x3e0349b0	0.12821078
30	0x3ee420ad	0.4455618
31	0x3d9b51f4	0.07583991
32	0x3e77be19	0.2419361
33	0x3f1efa2f	0.621005
34	0x3ec1f8b1	0.3788505
35	0x3e546cf7	0.20744692
36	0x3f7d3d1c	0.9892137
37	0x3e3b9790	0.18319535
38	0x3e4ff302	0.20307544
39	0x3e2272cc	0.15864104
40	0x3e982d34	0.29721987
41	0x3e16f417	0.1474155
42	0x3e9a8699	0.30180815
43	0x3f026900	0.5094147
44	0x3e83e3cb	0.2575973
45	0x3f007591	0.5017939
46	0x3e04ba90	0.12961793
47	0x3e6ea22f	0.23304056
48	0x3dea6f50	0.114470124
49	0x3e5f0226	0.21778163
50	0x3ea4f8da	0.3222111
51	0x3e321d12	0.17393902
52	0x3f73c96d	0.95229226
53	0x3e02ba93	0.12766485
54	0x3dfbd710	0.12296879
55	0x3e5fd750	0.21859479
56	0x3db89f5a	0.09014769
57	0x3e0e85dc	0.13918251
58	0x3ea069d3	0.31330737
59	0x3e98b0d4	0.2982241
60	0x3e906963	0.28205404
61	0x3de5a928	0.112139046
62	0x3e6b3c4d	0.22972222
63	0x3e360a94	0.17777473
64	0x3ea3f308	0.32021356
65	0x3e1eb8fd	0.15500255
66	0x3dda59f3	0.10661688
67	0x3e0cd74c	0.13754004
68	0x3ebc1101	0.36731723
69	0x3e0c771d	0.13717313
70	0x3e9ea0d6	0.30982083
71	0x3e62a721	0.22134067
72	0x3e3fafe4	0.1871944
73	0x3e0d6991	0.13809802
74	0x3e682d3d	0.22673507
75	0x3ef0a490	0.4700055
76	0x3e2322f4	0.15931302
77	0x3e459ce5	0.19298132
78	0x3eabf25b	0.3358334
79	0x3e6cba2a	0.23117891
80	0x3edb888e	0.4287762
81	0x3e0c3164	0.13690716
82	0x3e50d53e	0.20393845
83	0x3e803b59	0.2504528
84	0x3eefa65e	0.46806616
85	0x3ec15cef	0.37766215
86	0x3d7cef8a	0.06175188
87	0x3d81273e	0.06306313
88	0x3e60cd0a	0.21953216
89	0x3e524a8c	0.2053625
90	0x3e983ba1	0.29732993
91	0x3e01d38f	0.1267836
92	0x3e415347	0.18879424
93	0x3de937d2	0.113876
94	0x3e66a561	0.22524025
95	0x3e800675	0.25004926
96	0x3e4029a1	0.1876588
97	0x3ea94113	0.3305746
98	0x3e9ed189	0.31019238
99	0x3ef49737	0.47771618
100	0x3da4b4b0	0.08042276
101	0x3ddb59fd	0.10710523
102	0x3e6223e8	0.2208401
103	0x3e2e2a6b	0.17008369
104	0x3e216aed	0.15763445
105	0x3e212772	0.15737703
106	0x3dbceae9	0.09224493
107	0x3e001895	0.12509377
108	0x3e0e44a8	0.13893378
109	0x3e9ccd01	0.30625156
110	0x3e37baac	0.17942303
111	0x3e54f07f	0.20794867
112	0x3e21a825	0.15786798
113	0x3e3187c0	0.17336941
114	0x3e7dfd40	0.24803638
115	0x3f0e3ac3	0.55558413
116	0x3df902e5	0.12158755
117	0x3da9dda7	0.0829423
118	0x3e1338f5	0.14377196
119	0x3e5fad0c	0.21843356
120	0x3e4db443	0.20088296
121	0x3e02909f	0.12750481
122	0x3e5eadb7	0.21745954
123	0x3e920c42	0.28524977
124	0x3d187e9e	0.037230127
125	0x3eb63770	0.3558917
126	0x3ec90e3b	0.3926867
127	0x3e43d7d9	0.19125308

fc2.weight f4 [64, 128]
0	0x3c4afeca	0.012389848
1	0x3d8f22a7	0.06989031
2	0xbd944a70	-0.0724076
3	0xbc0da908	-0.008646257
4	0x3d1db4b5	0.038502414
5	0x3c50cf59	0.012744748
6	0xbb23a50b	-0.00249702
7	0xb8dc95a1	-0.00010518288
8	0xbd8adf2a	-0.067808464
9	0x3cd9b728	0.026576594
10	0x3d9bd0e0	0.07608199
11	0x3d026d45	0.03184249
12	0xbdca8262	-0.0988815
13	0x3d28ad58	0.04118094
14	0xbdb44bfe	-0.08803557
15	0x3bde2f14	0.0067805145
16	0xbdadbfa3	-0.084838174
17	0x3dabf7d3	0.08396878
18	0xbda56482	-0.08075811
19	0xbd512f52	-0.05107052
20	0x3d0dec21	0.03464902
21	0xbdd31693	-0.1030704
22	0x3d4fe96e	0.050759725
23	0x3d116b73	0.035502862
24	0x3c9fbfe4	0.01950068
25	0xbaf971b4	-0.0019031079
26	0xbced4932	-0.028965566
27	0x3d334220	0.043764234
28	0xbd4c4d29	-0.049878273
29	0xbd4e448d	-0.050358344
30	0xbce63130	-0.028099626
31	0x3d60de49	0.054899488
32	0xbda18774	-0.07887164
33	0xbcad0243	-0.021119243
34	0x3d880679	0.066418596
35	0xbd9b4f48	-0.07583481
36	0xbde8e66a	-0.11372073
37	0xbd149d46	-0.0362828
38	0x3de2e359	0.110785194
39	0xbd9f484d	-0.07777462
40	0x3c45a0e4	0.012062285
41	0x3bbf6b01	0.0058416133
42	0x3d8507c1	0.064956196
43	0xbbeb0837	-0.00717261
44	0xbd80bf5a	-0.062864974
45	0xbceb72fe	-0.028741356
46	0xbc8c9fb9	-0.017166005
47	0xbda7c573	-0.08191957
48	0xbd0970d5	-0.03355487
49	0x3d4fe7c2	0.05075813
50	0xbda73d16	-0.08165948
51	0xbdacb67e	-0.08433245
52	0xbca1c783	-0.019748455
53	0xbcb69b55	-0.022290865
54	0x3d7f901c	0.062393293
55	0x3bcb3cd4	0.0062023196
56	0x3c0ba619	0.0085234875
57	0x3da4be61	0.080441244
58	0x3bc26ff4	0.005933756
59	0xbd858554	-0.06519571
60	0xbc12de4b	-0.008964132
61	0xbd88c83a	-0.06678815
62	0x3c63b008	0.01389695
63	0x3c8ae522	0.016954962
64	0x3c68d0c9	0.0142099345
65	0x3b69d2ef	0.0035678705
66	0x3d0fc6b7	0.03510162
67	0xbd207564	-0.039174452
68	0x3c24e736	0.010064891
69	0xbce03a5f	-0.027371584
70	0x3cf00fd7	0.029304428
71	0x3c920a59	0.0178272
72	0x3d3d09f1	0.04615206
73	0xbd8944df	-0.06702589
74	0x3c2a76d8	0.010404311
75	0xbdd416bb	-0.10355898
76	0xba91e5cc	-0.0011131107
77	0xbd19b018	-0.03752145
78	0xbd93667b	-0.07197281
79	0xbbfe5559	-0.007761639
80	0xbd08e0a6	-0.033417366
81	0x3dcd3a4f	0.10020887
82	0xbcd1509c	-0.025551133
83	0xbd6cde36	-0.057829104
84	0x3caab48b	0.020838043
85	0x3c87e651	0.016589316
86	0x3caf4aa1	0.02139789
87	0xbd140538	-0.03613779
88	0x3d2361f0	0.039888322
89	0x3d56c8eb	0.052437704
90	0x3cfa9be6	0.030591916
91	0xbb9bf648	-0.0047595836
92	0x3dc0adda	0.094081596
93	0xbcf15216	-0.029458087
94	0xbd69f35a	-0.057116844
95	0x3d8b4cb2	0.06801738
96	0x3d4dd757	0.050254192
97	0xbb26cfcb	-0.0025453444
98	0xbced0678	-0.028933749
99	0xbd8e67b6	-0.06953375
100	0x3d660743	0.05615927
101	0x3dbb1376	0.09134571
102	0xbbf5d997	-0.0075027454
103	0xbd99fc4a	-0.075188234
104	0xbd24d45a	-0.040241577
105	0x3ce1132c	0.027474962
106	0x3c4a1411	0.012333886
107	0xbcc60e61	-0.024176778
108	0x3bc52ff0	0.0060176775
109	0x3d15d789	0.036582503
110	0x3d0ad764	0.03389682
111	0x3d890dbe	0.06692074
112	0x3d9404c5	0.07227472
113	0xbdd8c4fc	-0.10584447
114	0x3d963794	0.073348194
115	0xbbc46e30	-0.0059945807
116	0xbb96ae3b	-0.0045984066
117	0x3d1c8d7f	0.03822088
118	0x3cdb6817	0.026783032
119	0xbd4f8542	-0.050664194
120	0xbcec9dd0	-0.028883845
121	0xbcdb96f8	-0.026805386
122	0x3cdea6b5	0.027179101
123	0x3ced20ee	0.028946366
124	0x3dabf79a	0.083968356
125	0xbc08eddc	-0.008357491
126	0xbd8e9a29	-0.069629975
127	0xbd08e728	-0.033423573
128	0xbd19cdf4	-0.037549928
129	0x3db83faa	0.08996518
130	0x3dfae79c	0.12251207
131	0xbbcf00cd	-0.006317234
132	0xbca588c5	-0.020206818
133	0xbd76ff77	-0.060302224
134	0xbe06c7f1	-0.13162209
135	0x3d855711	0.06510747
136	0x3d57c627	0.052679207
137	0x3ce088c5	0.027408967
138	0x3d7c4204	0.061586395
139	0xbdc1695d	-0.094439246
140	0x3d044f49	0.032302175
141	0x3ce7d978	0.02830194
142	0xbd6bdc2d	-0.057583023
143	0x3d2db8e8	0.04241267
144	0xbd4cf5d0	-0.050039113
145	0x3c1963c8	0.009362169
146	0xbd8da31b	-0.069158755
147	0x3d4815ec	0.04884903
148	0x3d2db060	0.042404532
149	0x3ccf588b	0.025310775
150	0x3dbd8db4	0.09255543
151	0xbc95ec5e	-0.018301185
152	0x3d503d5d	0.05083977
153	0x3d080f41	0.033217672
154	0xbd19dbe6	-0.037563227
155	0xbbff275c	-0.0077866744
156	0xbe137a2f	-0.14402078
157	0xbd24102c	-0.040054485
158	0xbd3c020b	-0.045900386
159	0x3e0939c7	0.13400947
160	0xbd9b874c	-0.07594165
161	0xbc0d4569	-0.008622506
162	0x3d2b1bbe	0.041774504
163	0x3d3ed617	0.04659089
164	0xbd743dbe	-0.059629194
165	0xbd80f8ff	-0.06297492
166	0x3d99f478	0.07517332
167	0xbd628edc	-0.055312023
168	0xbdf50cfa	-0.11965366
169	0x3d703b07	0.058650043
170	0x3d4e8c7c	0.050426945
171	0x3d31fb56	0.043452583
172	0x3d29ea44	0.04148318
173	0x3d99499a	0.074847415
174	0x3ca026c0	0.019549727
175	0x3d3c4785	0.045966644
176	0x3da02a35	0.0782055
177	0xbd0d181b	-0.034446817
178	0xbca100c8	-0.019653693
179	0x3d819805	0.063278235
180	0xbc5b5168	-0.013386108
181	0xbcb3d594	-0.021952428
182	0xbd81ea62	-0.06343533
183	0x3d9b01fc	0.07568738
184	0x3cac07eb	0.02099987
185	0x3c18ea07	0.00933314
186	0xbcc2ff1a	-0.023803283
187	0x3cd8d628	0.026469305
188	0x3bcca0dd	0.0062447623
189	0x3cbae93b	0.022816291
190	0xbce4b684	-0.027919061
191	0xbc6485ae	-0.013947887
192	0xbd5bd0d0	-0.053665936
193	0xbd89d534	-0.067301184
194	0xbc81b932	-0.015835378
195	0xbddc5500	-0.107584
196	0x3daebcae	0.085320815
197	0xba0f7cc3	-0.0005473608
198	0x3d964b7a	0.07338615
199	0xbe106cad	-0.14103957
200	0xbd5a2e5c	-0.053266868
201	0x3db07e8c	0.08617887
202	0xbd1dfd44	-0.03857161
203	0xbcd08e45	-0.025458464
204	0xb8c120ad	-9.2090435e-05
205	0xbd510866	-0.0510334
206	0xbd8bdd7d	-0.06829355
207	0x3cee09a3	0.02905733
208	0xbd09a526	-0.033604763
209	0xbc6cc812	-0.014451997
210	0xbd1511f0	-0.03639406
211	0x3cc5578f	0.024089603
212	0xbde1c1dc	-0.11023304
213	0xbba90607	-0.005158189
214	0x3d99ad81	0.07503796
215	0x3dd8f87a	0.10594268
216	0x3d218b01	0.039439205
217	0xbcf37d18	-0.029722735
218	0x3ced80df	0.028992115
219	0xbccf4e59	-0.025305914
220	0xbc89339d	-0.016748244
221	0xbd7284ac	-0.059208557
222	0x3d2e6dc4	0.04258515
223	0xbe0c164a	-0.13680378
224	0x3d9ad612	0.07560362
225	0x3be27291	0.00691063
226	0x3d8be8cf	0.06831514
227	0x3dd19a47	0.10234504
228	0x3d64c8a3	0.055855405
229	0x3e068336	0.1313599
230	0x3c689c32	0.014197396
231	0xbd87f6e4	-0.066388875
232	0xbd844d47	-0.06460052
233	0xbd0576db	-0.032584053
234	0x3d2fbd1e	0.042904966
235	0xbd0d718e	-0.034532122
236	0x3d2ff956	0.042962395
237	0xbdac9710	-0.084272504
238	0xbda0ce42	-0.078518406
239	0x3d99349f	0.0748074
240	0x3b78efe6	0.0037984787
241	0x3d9ab870	0.0755471
242	0xbda575e2	-0.08079125
243	0x3d3a8b90	0.045543253
244	0x3db9c5ee	0.09070955
245	0xbcd05c0b	-0.025434515
246	0xbcfaa81a	-0.030597735
247	0xbd0c6871	-0.03427929
248	0x3cc88d19	0.024481343
249	0x3d818673	0.06324472
250	0xbd73584a	-0.05941037
251	0x3db0a896	0.08625905
252	0xbcbe04b8	-0.02319561
253	0x3d8420ec	0.06451592
254	0xbd5f3207	-0.05449107
255	0xb9f0bb39	-0.0004591586

fc2.bias f4 [64]
0	0xbd486486	-0.04892399
1	0x3d8886e5	0.06666354
2	0x3bba0cca	0.005677794
3	0x3daf30f8	0.08554262
4	0x3c1fa6c9	0.0097443545
5	0xbd7e29f2	-0.06205172
6	0xbac23255	-0.0014816026
7	0x3c7a89fa	0.015291685
8	0x3d1ac520	0.03778565
9	0xbd0d5c09	-0.0345116
10	0xbdac5b52	-0.084158555
11	0x3d164c55	0.03669389
12	0xbda39c45	-0.079887904
13	0xbc87d628	-0.01658161
14	0x3ca48313	0.020082032
15	0x3d9cc2cd	0.07654343
16	0xbda01941	-0.07817317
17	0xbc327a6b	-0.0108934445
18	0x3cdb3ca7	0.02676232
19	0x3c8ce787	0.017200245
20	0x3d91a65e	0.0711181
21	0x3c40cd3c	0.011767682
22	0xbd936ca9	-0.0719846
23	0xbcfe06c7	-0.031009091
24	0x3d8a071c	0.06739637
25	0xbbb91aed	-0.0056489618
26	0x3cc12476	0.023576956
27	0xbd4eddec	-0.05050461
28	0xbcc8badb	-0.024503162
29	0x3d17a0a9	0.03701845
30	0xbd646a01	-0.055765156
31	0xbd910c14	-0.07082382
32	0x3da6d2dc	0.08145687
33	0x3ba94fda	0.0051669898
34	0x3c07cde5	0.008288835
35	0xbdb1489d	-0.08656428
36	0x3d886dfb	0.06661602
37	0x3cbe4be9	0.023229556
38	0x3afc7441	0.0019260721
39	0x3b9113f9	0.0044274298
40	0x3b90dabe	0.0044206074
41	0x3d90e5da	0.07075091
42	0xbd85836e	-0.06519209
43	0x3d6d7276	0.057970487
44	0x3ceae4a9	0.028673487
45	0x3d1faee2	0.03898514
46	0xbcad0f91	-0.021125587
47	0x3d6ad4e5	0.05733194
48	0x3d283077	0.041061845
49	0x3b7bbc05	0.003841163
50	0x3d6eaa16	0.058267675
51	0xbd5fa217	-0.05459794
52	0x3d5578e1	0.052117232
53	0xbba2a3bc	-0.0049633663
54	0x3d955224	0.07291058
55	0xbbbb9f5e	-0.005725785
56	0xbba5be66	-0.0050580977
57	0xbd27c967	-0.040963557
58	0x3da40fc9	0.08010823
59	0xbc4dcd3e	-0.012561141
60	0xbda51a0b	-0.08061608
61	0x3da3e43b	0.08002516
62	0xbc5906ea	-0.013246277
63	0x3c8f0100	0.017456532

bn2.weight f4 [64]
0	0x3f77d523	0.96809596
1	0x3f986b0b	1.1907667
2	0x3f8db3b3	1.1070465
3	0x3f7ddb6e	0.9916295
4	0x3f886137	1.0654668
5	0x3f7d705b	0.98999566
6	0x3f814c63	1.0101436
7	0x3f7942fb	0.9736783
8	0x3f829df3	1.0204452
9	0x3f7d9110	0.9904947
10	0x3f868504	1.0509343
11	0x3f97a2f5	1.1846606
12	0x3f7a5e6f	0.97800344
13	0x3f73ff1f	0.9531116
14	0x3f7cc265	0.9873412
15	0x3f83c960	1.029583
16	0x3f735842	0.95056546
17	0x3f7f5ef3	0.99754256
18	0x3f7f8806	0.9981693
19	0x3f75f193	0.9607174
20	0x3f8073c8	1.0035334
21	0x3f9d1d66	1.2274597
22	0x3f737ef9	0.9511562
23	0x3f6ac861	0.91712004
24	0x3f8d0588	1.1017313
25	0x3f7fc7f2	0.9991447
26	0x3f87982e	1.0593317
27	0x3f8016e1	1.0006982
28	0x3f8648f8	1.0491018
29	0x3f7e8d25	0.9943412
30	0x3f7bb347	0.9832043
31	0x3f65ab39	0.8971439
32	0x3f6da0bc	0.92823386
33	0x3f891045	1.070809
34	0x3f8e2ab3	1.1106781
35	0x3f7d64b3	0.9898178
36	0x3f8517b5	1.039786
37	0x3f77608c	0.96631694
38	0x3f90ffbd	1.1328045
39	0x3f798127	0.97462696
40	0x3f85c087	1.044938
41	0x3f7705e5	0.9649337
42	0x3f7a6398	0.9780822
43	0x3f8fbc14	1.1229272
44	0x3f9169b9	1.1360389
45	0x3f82e1a0	1.0225105
46	0x3f800a82	1.0003207
47	0x3f7b68e4	0.98206925
48	0x3fa03114	1.2514977
49	0x3f7c8a13	0.98648185
50	0x3f766c62	0.9625913
51	0x3f7605dc	0.9610269
52	0x3f881206	1.06305
53	0x3f6ff163	0.937277
54	0x3f761387	0.96123546
55	0x3f777460	0.9666195
56	0x3f805517	1.0025967
57	0x3f8184dd	1.0118672
58	0x3f7de738	0.99180937
59	0x3f8e446c	1.1114631
60	0x3f85f58c	1.046556
61	0x3f7f10e5	0.99635154
62	0x3f7e6f8d	0.99388963
63	0x3f7d7f1d	0.99022084

bn2.bias f4 [64]
0	0xbddbbf16	-0.10729806
1	0x3d9d27c6	0.07673602
2	0xbe37cada	-0.17948475
3	0xbdfbbdc5	-0.12292055
4	0x3d7943b3	0.06085558
5	0x3e552856	0.20816168
6	0x3e3299b3	0.17441444
7	0xbd9a44ab	-0.075326286
8	0xbecc4f29	-0.39904144
9	0xbe8e2079	-0.2775915
10	0xbc88a495	-0.016680041
11	0x3da28353	0.07935204
12	0xbe0fe545	-0.14052303
13	0xbd8055ec	-0.06266388
14	0xbd156af9	-0.03647897
15	0xbd339558	-0.043843597
16	0xbe00509e	-0.12530753
17	0x3e1912b6	0.14948544
18	0xbeba132c	-0.36342752
19	0xbde4199f	-0.11137699
20	0xbd8d9f86	-0.06915192
21	0xbd0d7729	-0.034537468
22	0xbe54b9dc	-0.20774025
23	0xbe3ca119	-0.18420829
24	0x3e15e8e4	0.14639622
25	0xbdb48699	-0.08814735
26	0xbdc7e37d	-0.09760187
27	0xbe6c7840	-0.23092747
28	0xbe98239e	-0.29714674
29	0xbdaca3a9	-0.08429653
30	0xbe242c22	-0.1603246
31	0xbd965358	-0.07340115
32	0xbe220448	-0.15821946
33	0x3cd86aa1	0.026418032
34	0xbeedeff5	-0.46472135
35	0xbe05f01b	-0.13079874
36	0x3d872dce	0.066005334
37	0xbdd48e04	-0.1037865
38	0x3e1718d5	0.14755566
39	0xbd54b73b	-0.051932555
40	0x3c562043	0.013069215
41	0xbe539a53	-0.20664339
42	0xbdd94c59	-0.10610265
43	0x3d9d22ea	0.07672675
44	0x3d8cb94e	0.068712816
45	0xbd4cd697	-0.050009336
46	0x3dc9bb83	0.09850218
47	0xbcf33688	-0.029689088
48	0xbddfa9c7	-0.10921054
49	0xbe4dae9b	-0.20086138
50	0xbdc44517	-0.0958349
51	0xbdfd6df0	-0.123744845
52	0x3e117486	0.14204606
53	0xbe2830d1	-0.16424872
54	0xbcdc6148	-0.026901856
55	0xbe291bb1	-0.1651447
56	0xbdaeb95f	-0.085314505
57	0x3ddfd79a	0.109297946
58	0xbd75eb8a	-0.06003908
59	0x3e1e4af5	0.15458281
60	0x3dbe0a31	0.092792876
61	0x3e0454cf	0.12922977
62	0xbd3c50e4	-0.04597558
63	0x3dbcff53	0.09228387

bn2.running_mean f4 [64]
0	0xbe299591	-0.16560961
1	0x3db1b892	0.08677782
2	0xbe525321	-0.20539524
3	0xbe2b08fb	-0.16702645
4	0xbcd0f2ec	-0.02550646
5	0x3d95ebc2	0.07320358
6	0x3e306955	0.17227681
7	0x3d53a12e	0.051667385
8	0xbebcd40c	-0.3688053
9	0xbf03d2cf	-0.51493543
10	0xbe935051	-0.28772214
11	0xbe820532	-0.2539459
12	0xbecbf478	-0.39834952
13	0xbe30ec35	-0.17277606
14	0xbdb46576	-0.08808415
15	0xbe1cdda7	-0.15318929
16	0xbf174a95	-0.5909818
17	0x3d840aa0	0.06447339
18	0xbe4abe54	-0.19799167
19	0x3d8f0013	0.06982436
20	0x3e970a18	0.29499888
21	0xbe0fea31	-0.1405418
22	0xbea1d3e2	-0.31606966
23	0xbe97f253	-0.29677066
24	0x3ea951f6	0.33070344
25	0x3d85f3d0	0.06540644
26	0xbd7aed74	-0.06126161
27	0xbed939c6	-0.4242689
28	0xbefc6216	-0.49293584
29	0xbefa04f1	-0.48831895
30	0xbea78097	-0.32715294
31	0xbed7d60f	-0.421555
32	0x3f11e536	0.56990373
33	0xbe075af7	-0.13218294
34	0xbe94792b	-0.28998694
35	0xbd2801c9	-0.041017327
36	0x3d8cb7f1	0.068710215
37	0xbe047288	-0.12934315
38	0xbdbf8358	-0.09351224
39	0x3df6b7a5	0.12046746
40	0xbcfbe723	-0.030749863
41	0x3e373754	0.178922
42	0xbeec1d30	-0.46116018
43	0xbc719615	-0.014745255
44	0xbd9bb7b1	-0.07603396
45	0xbd99b851	-0.07505859
46	0xbe24a010	-0.16076684
47	0xbd6e3972	-0.058160253
48	0xbd97c9a5	-0.074115075
49	0xbecab859	-0.3959377
50	0x3cf359be	0.029705878
51	0xbe84cb39	-0.25936297
52	0xba8862e0	-0.0010405444
53	0xbee96d24	-0.4559108
54	0xbe0d85f5	-0.13820632
55	0xbe142cc2	-0.14470199
56	0xbe163852	-0.14669922
57	0x3e210894	0.15725929
58	0xbe80e71f	-0.2517633
59	0x3e005912	0.12533978
60	0x3901b1d9	0.00012368652
61	0xbc7ad8ca	-0.015310476
62	0xbdf4d0e0	-0.11953902
63	0x3dd39cbb	0.10332628

bn2.running_var f4 [64]
0	0x3eb626cc	0.35576475
1	0x3e998b90	0.2998929
2	0x3eb8595b	0.36005673
3	0x3e954c7c	0.29159915
4	0x3f0a4391	0.5400935
5	0x3ef77d22	0.48337656
6	0x3f2c4fc6	0.67309225
7	0x3f04b46f	0.5183782
8	0x3eb9e9ec	0.3631128
9	0x3ecbf84e	0.3983788
10	0x3f406639	0.7515598
11	0x3f34dd23	0.7064993
12	0x3ed2aef0	0.41149092
13	0x3efe0fcd	0.4962143
14	0x3f606f15	0.876695
15	0x3f0cab6a	0.5494906
16	0x3f016cd2	0.5055667
17	0x3efa8bc7	0.48934767
18	0x3e9b77ce	0.3036484
19	0x3f3c0a1c	0.73452926
20	0x3f27977a	0.6546551
21	0x3ef3358b	0.47501788
22	0x3e54ca7a	0.20780364
23	0x3eab64d4	0.33475363
24	0x3f77359a	0.96566164
25	0x3ed101e1	0.40821746
26	0x3f036b8e	0.5133599
27	0x3ea6d751	0.32586148
28	0x3f28fd2a	0.660113
29	0x3f339356	0.7014669
30	0x3e6db62c	0.23214024
31	0x3eda5b1f	0.42647645
32	0x3efa63f3	0.4890438
33	0x3f3c26f9	0.7349697
34	0x3eb559ba	0.35420018
35	0x3f07c394	0.53032804
36	0x3ef15f43	0.4714299
37	0x3f2721cb	0.6528594
38	0x3efc0c09	0.49227932
39	0x3efa83a1	0.4892855
40	0x3f42cd9b	0.7609498
41	0x3f2ffc8a	0.6874472
42	0x3ece4989	0.40290478
43	0x3ea2085a	0.31646997
44	0x3ecc8a47	0.39949247
45	0x3eb85e22	0.36009318
46	0x3f004b29	0.50114685
47	0x3e9ec660	0.31010723
48	0x3eb53d1b	0.35398182
49	0x3eb24058	0.34814715
50	0x3ec35de8	0.38157582
51	0x3e506ce8	0.20354044
52	0x3f017906	0.5057529
53	0x3ea3797f	0.31928632
54	0x3ee5030c	0.44728887
55	0x3ef424fc	0.47684467
56	0x3f12b1c6	0.5730251
57	0x3f48244a	0.7818037
58	0x3f2392a7	0.6389565
59	0x3f295782	0.6614915
60	0x3f19911d	0.5998705
61	0x3e9bb929	0.30414703
62	0x3f0c474a	0.5479628
63	0x3ee4779f	0.44622514

fc3.weight f4 [32, 64]
0	0xbc50e007	-0.012748725
1	0xbe8f423b	-0.27980217
2	0xbcf679a9	-0.030087309
3	0xbd2ffed3	-0.04296763
4	0xbd61b8df	-0.055107947
5	0xbdf9acfd	-0.12191198
6	0xbd85da2a	-0.06535752
7	0x3d71d26a	0.059038557
8	0xbd1423d2	-0.036166973
9	0x3d278df5	0.040906865
10	0x3cab1668	0.020884708
11	0xbd97610c	-0.07391557
12	0xbbe61319	-0.0070213196
13	0x3cb8f55f	0.02257794
14	0x3accab83	0.0015615079
15	0x3d1cfb6e	0.03832572
16	0x3d6c5886	0.05770161
17	0xbe040b05	-0.12894829
18	0xbcd5deb6	-0.026107173
19	0x3d014f62	0.031569846
20	0xbc4e0bcd	-0.012576056
21	0xbcf93d1a	-0.030424643
22	0x3baf0cbd	0.0053420947
23	0x3b01e48d	0.0019820065
24	0xbda94255	-0.08264605
25	0xbcd15c8e	-0.025556829
26	0xbd42b245	-0.047533292
27	0xbd6cb182	-0.057786472
28	0x3b95975d	0.004565163
29	0x3d6d1524	0.05788149
30	0x3c6aa1f1	0.014320836
31	0xbb555392	-0.0032551032
32	0xbd8e9f90	-0.06964028
33	0xbd9e50fa	-0.07730289
34	0xbd351c6b	-0.044216555
35	0xbbcca42c	-0.0062451568
36	0xbe2a27fc	-0.16616815
37	0x3cc9d9bf	0.024639962
38	0xbd6702fc	-0.05639933
39	0xbda056f4	-0.07829085
40	0xbdef26c2	-0.11677314
41	0x3d5a9d54	0.053372696
42	0xbd891e9e	-0.06695293
43	0xbd6a89c5	-0.057260294
44	0xbdd9ba27	-0.10631209
45	0x3cec2ca6	0.028829884
46	0xbe19d47d	-0.15022464
47	0xbd8347cf	-0.06410181
48	0x3c808352	0.015687618
49	0x3d5f7607	0.05455592
50	0xbc5fd826	-0.013662374
51	0xbe35cd4f	-0.177541
52	0xbd950edf	-0.07278227
53	0x3d2b2f82	0.041793354
54	0xbd20e736	-0.039283
55	0xbd9354ed	-0.07193933
56	0x3d03fa3c	0.032221064
57	0xbd75ed94	-0.060041025
58	0x3d978c9f	0.07399868
59	0xbe11039d	-0.14161535
60	0xbd895b83	-0.067069076
61	0xbe0fd623	-0.1404653
62	0xbddc094f	-0.10743963
63	0xbd25297a	-0.04032276
64	0xbc528ff5	-0.012851705
65	0x3c39aba6	0.011332428
66	0x3c366bde	0.011134116
67	0x3cdbe540	0.026842713
68	0xbd77a61f	-0.06046116
69	0x3c57905b	0.013156976
70	0xbd09c1f8	-0.03363225
71	0xbdaadb86	-0.08342652
72	0xbd2540f7	-0.04034516
73	0x3d008922	0.03138078
74	0xbe2f5baa	-0.17124811
75	0xbd217c5d	-0.039425243
76	0x3d5739ae	0.052545242
77	0x3dd53bd5	0.10411803
78	0xbd72e64c	-0.05930166
79	0xbe0db789	-0.13839544
80	0xbdabee25	-0.08395032
81	0x3cd7952e	0.026316252
82	0x3dd33039	0.10311932
83	0xbd8308c6	-0.06398158
84	0xbdbe9f34	-0.09307709
85	0xbd083e71	-0.033262674
86	0x3ce53058	0.027977154
87	0xbde771be	-0.113009915
88	0xbd00f119	-0.03147993
89	0x3c1b9859	0.009496772
90	0x3d122e26	0.03568854
91	0x3de66379	0.11249442
92	0x3d181e36	0.037138186
93	0xbd499914	-0.049218252
94	0xbc82509f	-0.015907584
95	0x3d078642	0.033087023
96	0xbd7d5e2c	-0.061857387
97	0xbda87f80	-0.08227444
98	0x3e2bb4a9	0.16768135
99	0x3dba050a	0.090829924
100	0x3d258f0e	0.04041963
101	0xbdec1b16	-0.11528604
102	0xbdaf871c	-0.08570692
103	0x3da8ab44	0.08235791
104	0xbd81b89f	-0.06334042
105	0x3db89bd2	0.09014095
106	0x3d41fbb2	0.047359176
107	0x3df65803	0.12028506
108	0xbd3d1f2f	-0.046172317
109	0xbddd9bd3	-0.10820737
110	0xbd2513b6	-0.040302
111	0x3d3c9544	0.04604079
112	0x3c5a8ced	0.013339263
113	0xbc85b158	-0.016319916
114	0xbad4b40b	-0.0016227973
115	0xbd17c89b	-0.037056547
116	0x3b13b035	0.0022535447
117	0x3ddd5916	0.108080074
118	0x3d63a4ee	0.05557721
119	0x3de1c46c	0.110237926
120	0xbe06342c	-0.1310584
121	0xbdecc74a	-0.11561449
122	0x3d00ff17	0.031493273
123	0x3d771e6e	0.060331754
124	0xbc7db17c	-0.01548421
125	0x3d18db77	0.037318673
126	0xbd866804	-0.06562808
127	0xbd1a077c	-0.037604794
128	0x3cea30c8	0.028587714
129	0xbabca40f	-0.0014392155
130	0xbd9b5b40	-0.07585764
131	0xbd467cc0	-0.048458815
132	0xbdf245fa	-0.11829753
133	0x3cabd6fe	0.02097654
134	0xbe0fb0dd	-0.14032312
135	0x3ca3f140	0.020012498
136	0xbcaf8c0d	-0.021429086
137	0x3b3cf4cf	0.002883244
138	0xbc206767	-0.009790278
139	0xbe633f71	-0.2219217
140	0x3d1b7144	0.037949815
141	0xbdabd71d	-0.08390639
142	0x3c0e582b	0.008688013
143	0x3ba3e016	0.0050010784
144	0xbd04a4f5	-0.032383878
145	0x3d825064	0.063629895
146	0xbe06d242	-0.13166144
147	0xbb3a7ba7	-0.002845505
148	0x3d2dd79f	0.04244196
149	0xbda0bb84	-0.07848266
150	0x3d90bd93	0.070674084
151	0x3cd0960f	0.025462179
152	0xbd28fd30	-0.041257083
153	0xbdef2c0f	-0.116783254
154	0x3c8023bf	0.015642045
155	0xbdfe0a07	-0.12404256
156	0xbcc27be8	-0.023740724
157	0xbd23d95e	-0.04000222
158	0x3cb2a999	0.021809386
159	0x3d152bea	0.036418833
160	0xbd6e3358	-0.058154434
161	0x3c8f5bab	0.017499765
162	0xbd5adfbe	-0.053436033
163	0xbdfaa6ad	-0.12238822
164	0xbd844e33	-0.06460228
165	0xbd1aa43f	-0.037754294
166	0xbe2bc03a	-0.16772547
167	0xbd718986	-0.058969043
168	0xbdb72563	-0.08942678
169	0x3d957f76	0.07299702
170	0x3df03832	0.117294684
171	0xbbff8219	-0.0077974913
172	0xbdf9e23e	-0.122013554
173	0xbc4adb51	-0.012381391
174	0xbdc2af2e	-0.09506069
175	0x3d3cdfea	0.04611198
176	0x3c497f4a	0.0122984145
177	0x3d7e70f1	0.062119428
178	0xbcc82991	-0.024433883
179	0x3d06a80e	0.032875113
180	0xbe12c608	-0.14333355
181	0xbd51c928	-0.05121723
182	0xbe09b232	-0.13446882
183	0x3dc760e9	0.09735281
184	0x3be5b4e2	0.0070100883
185	0xbd2da12b	-0.04239003
186	0x3d8b9945	0.06816343
187	0xbdfb3f1b	-0.12267896
188	0x3d15d460	0.03657949
189	0xbc8d090f	-0.017216234
190	0xbd973a2f	-0.073841445
191	0xbda2689c	-0.07930109
192	0x3d6ef2be	0.058336966
193	0xbd8487ca	-0.06471212
194	0x3d983b7e	0.07433222
195	0xbd05daf4	-0.032679513
196	0xbca62ee5	-0.020286033
197	0x3e0059cb	0.12534253
198	0xbd278f53	-0.04090817
199	0x3cfc5beb	0.030805549
200	0x3d9a86c1	0.075452335
201	0x3c802ffe	0.015647884
202	0x3c5a0b09	0.013308295
203	0xbd9c00ad	-0.076173164
204	0x3cb4f0c0	0.022087455
205	0x3d8ec523	0.069711946
206	0xbc56432f	-0.013077541
207	0xbd9f37ea	-0.07774337
208	0xbd238d1b	-0.03992949
209	0xbd96f742	-0.073713794
210	0x3cde5758	0.027141258
211	0xbd44519c	-0.04792939
212	0x3ca2b4dd	0.019861633
213	0xbcc99fae	-0.024612274
214	0xbd833bb3	-0.06407871
215	0x3d716495	0.058933813
216	0x3d9b7c2e	0.07592045
217	0x3ddfd400	0.10929108
218	0xbd11f924	-0.03563799
219	0x3d27268d	0.04080825
220	0xbc0b6558	-0.008508049
221	0xbd440189	-0.047853027
222	0xbca39b95	-0.019971648
223	0xbc6842d5	-0.01417609
224	0x3b16a96a	0.0022989162
225	0x3af366eb	0.0018570101
226	0xbc188717	-0.009309552
227	0x3de7bf80	0.113158226
228	0xbdc3876b	-0.09547313
229	0xbd26cb05	-0.04072096
230	0xbd6a6553	-0.057225537
231	0x3dc0013e	0.09375237
232	0xbd8b95f6	-0.06815712
233	0x3d2c536c	0.042071745
234	0xbd672ec2	-0.056441076
235	0xbd72f12b	-0.059312027
236	0xbd0e7516	-0.03477963
237	0xbd3ac294	-0.04559572
238	0xbdad3bb2	-0.084586516
239	0x3d361f7f	0.04446363
240	0x3b523b91	0.0032078961
241	0x3df5f038	0.12008709
242	0x3cacbe4e	0.021086838
243	0x3deda535	0.11603776
244	0xbc4eeffc	-0.012630459
245	0x3d9ad3af	0.07559907
246	0x3cb5a925	0.022175381
247	0x3e25137f	0.16120718
248	0x3c96cd6e	0.018408503
249	0x3d9b5f32	0.075865164
250	0xbdcd2027	-0.10015898
251	0xbd66a822	-0.056312688
252	0xbda29812	-0.07939161
253	0xbb9aa1dc	-0.004719002
254	0x3d1a5d26	0.03768649
255	0x3d3ad98f	0.045617636

fc3.bias f4 [32]
0	0xbd159def	-0.03652757
1	0xbdf412f3	-0.11917677
2	0x3cf33e1f	0.029692708
3	0xbdb0638e	-0.086127385
4	0xbdc33b54	-0.095328
5	0x3d69ffef	0.057128843
6	0x3cba35b7	0.022730691
7	0xbd7f9fdf	-0.062408324
8	0xbc529c15	-0.012854596
9	0xbdf8d912	-0.12150778
10	0x3daee46e	0.08539663
11	0xbce29002	-0.027656559
12	0xbdd09d47	-0.10186248
13	0xbde4c86f	-0.11171042
14	0xbcbe0bda	-0.02319901
15	0xbd22d77e	-0.03975629
16	0xbcf8edbb	-0.030386796
17	0x3c982ea7	0.018576933
18	0xbdd37ebd	-0.10326908
19	0xbd800587	-0.06251054
20	0xbde6883a	-0.11256452
21	0x3dc25e45	0.09490637
22	0x3dde2993	0.108477734
23	0x3de2d159	0.11075086
24	0xbd4c3fd8	-0.049865574
25	0x3da164ed	0.07880578
26	0xbdacf1b6	-0.0844454
27	0xbd103195	-0.035203535
28	0x3dc1d7f8	0.09465021
29	0xbca39a94	-0.01997117
30	0x3d64bdc6	0.055845045
31	0x3d0b2d6d	0.03397887

bn3.weight f4 [32]
0	0x3fc0d472	1.5064833
1	0x3f72c1b2	0.94826806
2	0x3f62d2f0	0.88603115
3	0x3f813fd4	1.0097604
4	0x3f8627b5	1.0480868
5	0x3f6dc51f	0.9287891
6	0x3f905313	1.1275352
7	0x3f6e18d2	0.9300662
8	0x3f69e3e8	0.9136338
9	0x3f54e78d	0.8316582
10	0x3f8bfce1	1.0936548
11	0x3f7bc5c7	0.9834866
12	0x3f6e23d8	0.93023443
13	0x3f634591	0.88778025
14	0x3f761f99	0.96141964
15	0x3f6541a7	0.895533
16	0x3f7144dc	0.94245696
17	0x3f690303	0.9102022
18	0x3f897af3	1.0740646
19	0x3f9122ca	1.1338742
20	0x3f82369b	1.0172914
21	0x3f5b3215	0.85623294
22	0x3f6ac83e	0.91711795
23	0x3f7afc09	0.98040825
24	0x3fd78bf1	1.6839582
25	0x3f61f9e7	0.88271946
26	0x3f9a78de	1.2068136
27	0x3f7b44bd	0.9815176
28	0x3f9158a7	1.135518
29	0x3f68fbdf	0.91009325
30	0x3f57d2d7	0.8430609
31	0x3f6d61e7	0.9272751

bn3.bias f4 [32]
0	0x3dccf219	0.10007114
1	0xbb893885	-0.004187646
2	0xbe1822a9	-0.14856972
3	0xbe8da75f	-0.27666757
4	0xbe0475e8	-0.12935603
5	0xbe82fff3	-0.255859
6	0xbdd21908	-0.102586806
7	0xbd922387	-0.071356826
8	0xbe62b835	-0.22140582
9	0xbe32348f	-0.17402862
10	0xbd94d70a	-0.07267578
11	0xbde767ff	-0.112991326
12	0xbe3269f8	-0.17423236
13	0xbe62bf2f	-0.22143243
14	0xbeb73451	-0.35782102
15	0xbdd9575c	-0.106123656
16	0xbe320af3	-0.1738699
17	0xbe3b8421	-0.18312122
18	0xbd6cc6a2	-0.05780662
19	0xbd7cfe26	-0.061765812
20	0xbe802978	-0.25031638
21	0xbe344af0	-0.17606711
22	0xbe2aec10	-0.16691613
23	0xbe5cbfdc	-0.21557564
24	0x3f121e2a	0.57077277
25	0xbe3f730f	-0.18696235
26	0xbc98f51c	-0.018671565
27	0xbd8a92ef	-0.067663066
28	0x3cfcb188	0.030846372
29	0xbe6d4264	-0.23169857
30	0xbe87a8e5	-0.26496044
31	0xbe62cb27	-0.22147809

bn3.running_mean f4 [32]
0	0xbf4434bf	-0.76642984
1	0xbebd17d8	-0.36932254
2	0xbf0bb015	-0.54565555
3	0xbe52714d	-0.20551033
4	0xbf0cd8a3	-0.5501806
5	0xbe9217d0	-0.28533792
6	0xbf4ecd1b	-0.80781716
7	0xbf143bfc	-0.5790403
8	0xbebc1de0	-0.36741543
9	0xbf1f3ff3	-0.62206954
10	0x3e348d59	0.17632045
11	0xbf07c467	-0.5303406
12	0xbd467be6	-0.048458003
13	0xbf419666	-0.75620115
14	0xbe5941bd	-0.21216483
15	0xbf04ea31	-0.5191985
16	0xbf30061c	-0.6875932
17	0xbf28436e	-0.6572789
18	0xbf25ddc6	-0.64791524
19	0xbef64f53	-0.48107395
20	0xbd2ff702	-0.042960174
21	0xbf160e27	-0.58615345
22	0xbef7c91a	-0.48395616
23	0x3c109428	0.008824386
24	0xbeb41de5	-0.35179058
25	0xbdf96427	-0.12177306
26	0xbf33b281	-0.7019425
27	0xbe97f5da	-0.29679757
28	0xbec8c3d6	-0.3921191
29	0xbf304ab3	-0.6886398
30	0xbe85a59b	-0.2610291
31	0xbedfb888	-0.43695474

bn3.running_var f4 [32]
0	0x3f956c6b	1.1673712
1	0x3e8c06b7	0.27348873
2	0x3f0ad890	0.542367
3	0x3e5a2a4d	0.21305199
4	0x3f0fffd6	0.5624975
5	0x3e8b2505	0.2717668
6	0x3f7925fa	0.9732357
7	0x3f88d479	1.0689842
8	0x3e861623	0.26188764
9	0x3f38f30d	0.72245866
10	0x3ebb621e	0.36598295
11	0x3ea749ca	0.32673484
12	0x3e49ab4f	0.19694255
13	0x3f1b81ad	0.60744745
14	0x3ebdfe08	0.37107873
15	0x3f2877fe	0.65808094
16	0x3f0cfb61	0.55071074
17	0x3ebd9f0a	0.370354
18	0x3f46829f	0.7754306
19	0x3f66a35f	0.90093035
20	0x3ea4a659	0.32158163
21	0x3f23314c	0.63747096
22	0x3ed61250	0.41810846
23	0x3e36c3f3	0.17848186
24	0x400b0f4b	2.1728084
25	0x3e74e70d	0.23916264
26	0x3f449b02	0.76799023
27	0x3f474a08	0.7784734
28	0x3f642193	0.8911373
29	0x3f1f56ea	0.62241995
30	0x3f0b52f2	0.5442344
31	0x3f0e63f1	0.5562125
