MELOSDP/SDP/chkpt/kc2/linear/76/sdp_classifier_linear-440.pth (torch, 68704 bytes, 25 tensors)

fc1.weight f4 [128, 21]
-0.17587306 -0.12876983 -0.18328117 0.21298131 -0.061999295 -0.15094355 0.18620795 0.07730112
0.20807312 -0.06965978 -0.18143333 0.059012208 -0.098130666 0.15306811 0.21015203 0.06569462
-0.0037610838 -0.14176698 0.006408267 -0.10710718 -0.004430572 0.19465011 0.24452932 -0.019736815
-0.0965678 -0.1958496 -0.04688377 -0.03179356 0.08853222 -0.14651392 0.03746321 -0.09582167
0.08911687 -0.19002067 -0.19539551 0.22040595 -0.031562634 -0.19992998 -0.006232803 -0.006447879
0.15709251 -0.058141816 -0.10407885 -0.13416624 0.13440584 0.21425182 0.0008458967 0.14478713
-0.040442627 -0.164667 -0.2846002 0.13224326 0.18255638 0.23280592 -0.20874661 0.044853427
0.061900277 -0.14281645 -0.100176014 0.022627883 0.16668473 0.12395645 -0.16695698 0.06809853
0.18126376 -0.18445629 -0.1346967 -0.12672105 0.07536897 -0.10275317 0.05576816 0.1736029
0.090370655 -0.16452087 -0.018865012 0.11114558 -0.18313001 0.09750142 0.13661434 -0.2241373
-0.26323897 -0.091697134 0.14362 0.1033642 -0.1698947 -0.1732004 0.13632002 0.055910617
0.028949194 -0.08055283 -0.048906133 -0.17472853 -0.017899958 0.012499774 0.2118828 -0.17524944
0.112280466 -0.0445501 0.17991218 -0.07228482 0.091688216 -0.25508147 -0.078284234 0.025153447
0.25140703 0.093887895 0.060885765 0.14554389 -0.0034855471 -0.12231295 0.045685764 -0.0865556
0.09582614 0.03322835 0.12097434 -0.17939936 -0.16581146 -0.087216616 0.019503051 0.041481186
-0.101398 -0.28565493 -0.18533279 0.1973336 0.052040916 0.07186527 0.20571281 -0.19837159
0.033258587 0.1655409 -0.06322714 -0.15890692 -0.090980455 -0.17945349 -0.0655194 0.064686835
-0.12959129 -0.026330696 -0.03733825 0.088600345 0.07000213 0.11454305 0.016594704 0.1664658
0.06966397 0.115182154 0.013382909 -0.18107486 0.005610535 -0.09657125 0.19492896 0.14192243
-0.065408215 -0.018790862 0.22567318 0.17546594 0.107939795 0.20461604 -0.07978158 -0.08881681
-0.07614431 -0.04393512 0.09978772 -0.20043622 -0.11619078 -0.06951544 -0.030924113 -0.08011088
0.16461651 -0.09268048 -0.05512663 0.029537208 0.13189396 -0.15752704 -0.08844097 0.07004366
-0.09045858 0.06965913 0.09652347 0.15367919 0.08512731 0.0059064236 -0.0012857878 -0.10241103
-0.21368127 -0.21454452 -0.17325146 0.16901499 -0.21279852 -0.15549108 0.051944755 0.15062843
-0.047596518 0.057317946 -0.17412445 -0.07508975 -0.15501364 -0.07446387 0.23680072 -0.09850905
0.068280146 0.20258814 -0.056476817 -0.31419837 -0.15558475 0.21204397 -0.19420761 0.11830629
0.09103441 0.06524355 0.06546083 -0.1256223 -0.06323536 -0.020653358 -0.06859294 0.03777755
0.18274061 0.11416897 -0.05226032 -0.10506886 0.02438788 -0.20647055 0.099555284 0.063731596
0.11917734 0.09569774 -0.14701667 -0.067597434 0.11434795 0.15159218 0.20210099 -0.18448912
0.16577071 -0.19262493 0.060245708 0.1788956 0.009284185 -0.0365996 -0.19258507 0.06825736
-0.22197345 -0.010120229 0.17671582 -0.09151338 -0.23324142 0.021322371 -0.14611198 0.12312845
0.07507673 0.054232005 0.21702564 -0.1490155 0.08520117 0.043435317 0.15087649 -0.15158525
00000000: 1118 34be 3ddc 03be 0fae 3bbe c617 5a3e
00000010: f9f2 7dbd f290 1abe 4cad 3e3e 0d50 9e3d
00000020: 1f11 553e c9a9 8ebd a9c9 39be c9b6 713d
00000030: bbf8 c8bd e3bd 1c3e 1832 573e e78a 863d
00000040: 847c 76bb 5d2b 11be 71fc d13b 025b dbbd
00000050: 552e 91bb 5c52 473e e565 7a3e 1aaf a1bc
00000060: 57c5 c5bd cc8c 48be 3209 40bd f739 02bd
00000070: 6150 b53d bf07 16be 0673 193d 273e c4bd
00000080: e882 b63d c794 42be c315 48be 19b2 613e
00000090: d247 01bd 72ba 4cbe 8b3c ccbb bb48 d3bb
000000a0: dcdc 203e 1d26 6ebd 4b27 d5bd e062 09be
000000b0: afa1 093e d464 5b3e 2bbf 5d3a 1443 143e
000000c0: 2ba7 25bd 779e 28be 1eb7 91be c76a 073e
000000d0: 0ff0 3a3e ad64 6e3e acc1 55be 3ab8 373d
000000e0: 258b 7d3d 7a3e 12be 1529 cdbd 1c5e b93c
000000f0: 67af 2a3e e1dc fd3d c5f6 2abe 3e77 8b3d
00000100: 359d 393e 1ce2 3cbe efed 09be 2ac3 01be
00000110: 0c5b 9a3d 4170 d2bd 276d 643d f5c4 313e
00000120: 4014 b93d 2978 28be cc8a 9abc 4ba0 e33d
00000130: 6f86 3bbe d3ae c73d a1e4 0b3e 4084 65be
00000140: 42c7 86be b5cb bbbd 1f11 133e 9cb0 d33d
00000150: e0f8 2dbe 725b 31be 7a97 0b3e 8802 653d
00000160: dc26 ed3c e2f8 a4bd cc51 48bd 09ec 32be
00000170: efa2 92bc dacb 4c3c cef7 583e 9774 33be
00000180: 4df3 e53d 2a7a 36bd e63a 383e 100a 94bd
00000190: 08c7 bb3d 0a9a 82be 7c53 a0bd 9a0e ce3c
000001a0: 6cb8 803e 4c48 c03d 5a63 793d 7509 153e
000001b0: c76d 64bb 367f fabd ff20 3b3d 1044 b1bd
000001c0: 7f40 c43d 731a 083d 65c1 f73d 77b4 37be
000001d0: 7bca 29be a09e b2bd ddc4 9f3c 2de8 293d
000001e0: c1a9 cfbd 5d41 92be e1c7 3dbe d211 4a3e
000001f0: db28 553d 192e 933d 61a6 523e ec21 4bbe
00000200: 283a 083d 8e83 293e 3b7d 81bd 7fb8 22be
00000210: f653 babd a8c2 37be 092f 86bd 887a 843d
00000220: 94b3 04be 79b3 d7bc feef 18bd 1974 b53d
00000230: 475d 8f3d 8c95 ea3d 9ef1 873c 0376 2a3e
00000240: fcab 8e3d 9fe4 eb3d fd43 5b3c b06b 39be
00000250: 94d8 b73b 26c7 c5bd 759b 473e 1d54 113e
00000260: bef4 85bd 4bef 99bc df16 673e 58ad 333e
00000270: 8a0f dd3d de86 513e 8664 a3bd 96e5 b5bd
00000280: 8cf1 9bbd 50f5 33bd 815d cc3d 273f 4dbe
00000290: 6ff5 edbd 1c5e 8ebd 9154 fdbc 2c11 a4bd
000002a0: 3b91 283e 43cf bdbd 76cc 61bd 04f8 f13c
000002b0: 360f 073e c54e 21be 8a20 b5bd 0d73 8f3d
000002c0: 5942 b9bd 72a9 8e3d 19ae c53d 145e 1d3e
000002d0: 3a57 ae3d ac8a c13b e187 a8ba e0bc d1bd
000002e0: 43cf 5abe 8fb1 5bbe d568 31be 4412 2d3e
000002f0: dbe7 59be 0e39 1fbe 06c4 543d 573e 1a3e
00000300: 91f4 42bd 39c6 6a3d ae4d 32be a8c8 99bd
00000310: e5bb 1ebe 8380 98bd e37b 723e 1dbf c9bd
00000320: 76d6 8b3d 4473 4f3e 3c54 67bd 9cde a0be
00000330: 9c51 1fbe 0e22 593e 5cde 46be 914a f23d
00000340: 4070 ba3d 699e 853d 5410 863d 22a3 00be
00000350: 8a81 81bd 3b31 a9bc 757a 8cbd a2bc 1a3d
00000360: 5b20 3b3e 6cd1 e93d eb0e 56bd 582e d7bd
00000370: 17c9 c73c 046d 53be a4e3 cb3d b685 823d
00000380: 4013 f43d 2dfd c33d 8a8b 16be 8670 8abd
00000390: 422f ea3d fb3a 1b3e 90f3 4e3e b7ea 3cbe
000003a0: ccbf 293e 783f 45be 34c4 763d 6830 373e
000003b0: b21c 183c 76e9 15bd 0535 45be 84ca 8b3d
000003c0: 024d 63be 51cf 25bc fef4 343e 5e6b bbbd
000003d0: d7d6 6ebe 41ac ae3c 619e 15be c52a fc3d
000003e0: d4c1 993d 6122 5e3d f83b 5e3e 8597 18be
000003f0: f37d ae3d 3be9 313d 5e7f 1a3e 2a39 1bbe

fc1.bias f4 [128]
0.21233281 0.15169433 -0.023116982 0.14029019 0.19518125 -0.064795695 -0.12640798 -0.028349197
-0.01269992 -0.06067591 -0.19273376 -0.066512726 0.11344489 -0.18766694 0.15119776 0.03807099
0.072006956 -0.0875822 0.101694845 -0.1664752 0.14396127 -0.10367043 -0.1675427 0.029101769
0.10088528 -0.19002588 0.042143494 -0.053846717 -0.2149179 0.0763634 0.0011548228 0.19107242
-0.07794063 -0.01837673 -0.12797928 0.15679795 -0.05187044 -0.0150583945 -0.10084023 -0.13624561
-0.086944684 -0.10757469 -0.19189762 0.15904194 -0.20631607 0.07329611 0.017393494 0.0057250755
-0.09054476 -0.1755191 -0.17502037 0.21777341 0.18790168 -0.03008321 0.03138815 -0.12859833
0.14486855 0.19767737 -0.14281932 -0.17073141 -0.09762905 -0.061954312 0.102356255 0.11560565
0.20432732 0.2029825 0.0049249246 0.101292595 0.12317469 -0.17913593 -0.06305959 0.12791845
0.1064401 0.13418172 0.06525223 0.2392087 -0.10924996 0.03233911 -0.19173445 -0.14073619
0.22234312 0.004856763 0.060807925 -0.19350502 0.026108185 -0.108934306 0.1554934 -0.14149998
0.055118084 -0.122254536 0.08780675 0.1293677 0.12200203 -0.11388367 -0.14076507 -0.22795995
0.105206475 0.16935974 -0.0018814652 -0.16708425 -0.105853155 -0.07667531 0.19412293 -0.20099446
-0.06138288 0.011941717 0.010272345 0.16609155 0.0803057 0.02859002 0.09934255 -0.19897343
-0.100049295 -0.016756983 -0.15963966 0.17465252 -0.08519118 -0.19391382 -0.012615657 0.0758909
-0.021283044 0.15452456 0.16979419 0.15063143 0.20132872 -0.18351658 -0.1911541 -0.005291352
00000000: c66d 593e c255 1b3e d35f bdbc 3ba8 0f3e
00000010: 98dd 473e 9bb3 84bd 1871 01be 933c e8bc
00000020: 5313 50bc 4e87 78bd 005c 45be d337 88bd
00000030: cb55 e83d c32b 40be 96d3 1a3e 54f0 1b3d
00000040: 6278 933d 4c5e b3bd 6345 d03d 7a78 2abe
00000050: 956a 133e 2a51 d4bd 5090 2bbe d566 ee3c
00000060: f19c ce3d 2596 42be a89e 2c3d 608e 5cbd
00000070: 7013 5cbe 6a64 9c3d 6c5d 973a 7da8 433e
00000080: 569f 9fbd cc8a 96bc 000d 03be a48f 203e
00000090: 1976 54bd 7cb7 76bc 5385 cebd f883 0bbe
000000a0: 0e10 b2bd 1e50 dcbd cf80 44be e4db 223e
000000b0: 8544 53be 451c 963d cd7c 8e3c 6a99 bb3b
000000c0: 886f b9bd 47bb 33be 8a38 33be feff 5e3e
000000d0: 4c69 403e 1071 f6bc dc90 003d 48af 03be
000000e0: 6c58 143e f06b 4a3e 3a3f 12be 37d4 2ebe
000000f0: bdf1 c7bd cec3 7dbd 28a0 d13d a8c2 ec3d
00000100: 2e3b 513e a5da 4f3e 4361 a13b 7e72 cf3d
00000110: 0343 fc3d 696f 37be 6325 81bd 0efd 023e
00000120: 44fd d93d ef66 093e f6a2 853d 20f3 743e
00000130: 71be dfbd 0476 043d 0956 44be 261d 10be
00000140: eaad 633e 7b25 9f3b bb11 793d 2e26 46be
00000150: d5e0 d53c f318 dfbd a939 1f3e 5fe5 10be
00000160: 80c3 613d 9660 fabd 06d4 b33d f778 043e
00000170: 33dc f93d d73b e9bd b824 10be 556e 69be
00000180: 7e76 d73d a46c 2d3e 7f9b f6ba 2218 2bbe
00000190: 8ac9 d8bd f207 9dbd 29c8 463e 7ed1 4dbe
000001a0: 9d6c 7bbd 31a7 433c 564d 283c e713 2a3e
000001b0: 5177 a43d 9e35 ea3c 1b74 cb3d b1bf 4bbe
000001c0: a5e6 ccbd f145 89bc 9478 23be 1cd8 323e
000001d0: b778 aebd 5891 46be e7b1 4ebc b06c 9b3d
000001e0: c759 aebc b03b 1e3e 87de 2d3e 203f 1a3e
000001f0: 1e29 4e3e c5eb 3bbe e6bd 43be 1463 adbb

bn1.weight f4 [128]
1.0577126 1.0537276 0.9542613 1.0168146 1.057104 1.1364547 0.97083044 1.1143979
1.0248725 1.1504259 0.95118195 1.0234151 1.0489866 0.96600366 1.0609154 0.9578702
0.9798154 0.9455803 1.0618421 0.9821295 1.1598458 1.0967144 0.9663504 1.0719043
1.071777 1.0552859 1.0724472 0.9523854 1.0813935 0.96024716 0.9740416 0.95858455
1.0032169 0.94864446 1.052907 0.9323248 1.1113548 0.98323464 0.98054755 1.0481961
0.9643135 0.9533176 1.0213482 1.0348017 1.023565 0.9651201 1.1503017 1.1661378
0.9616466 1.0579823 0.98120224 1.0839121 1.0453115 0.95774996 1.0506202 0.99192196
0.99714845 0.9834717 0.9556566 1.0467503 1.0804509 0.9458943 1.0651699 0.96955514
0.95530075 0.9807357 0.96423626 0.95348793 0.95348585 0.996012 0.9619434 1.1624628
1.0012791 1.1333594 1.1602486 1.184682 1.0090725 1.0366604 1.0924814 1.0388361
1.2106384 1.023473 0.95324206 1.1116282 0.94224894 0.9753947 0.9773207 0.9327337
0.9288041 1.0805964 1.0326365 0.9609034 1.0439583 0.9593133 1.0505725 1.0745106
0.95607245 0.98076653 1.0664947 1.1848979 0.9867734 1.1333894 1.1530094 0.9993945
1.0020036 0.9582911 0.97360325 1.0432767 1.1556913 0.99471116 1.0862477 0.96950626
0.94044 1.0087708 1.0022615 1.1318684 0.9834295 0.94796306 1.0600177 0.9441404
0.9848663 1.1169279 1.0833523 1.0260149 0.98121536 0.93208104 1.0143683 0.9850091
00000000: 2063 873f 8ce0 863f 784a 743f fb26 823f
00000010: 2f4f 873f 5977 913f 5888 783f 97a4 8e3f
00000020: 062f 833f 2841 933f a980 733f 44ff 823f
00000030: 3145 863f 044c 773f 13cc 873f fb36 753f
00000040: 2fd5 7a3f 8d11 723f 71ea 873f d76c 7b3f
00000050: d475 943f 2361 8c3f bd62 773f 2934 893f
00000060: fd2f 893f 9c13 873f f345 893f 88cf 733f
00000070: 1a6b 8a3f c2d2 753f ca5a 793f cc65 753f
00000080: 6969 803f 5dda 723f a8c5 863f d7ac 6e3f
00000090: e040 8e3f 44b5 7b3f 2a05 7b3f 4a2b 863f
000000a0: 40dd 763f 9f0c 743f 8abb 823f 6274 843f
000000b0: 2e04 833f 1c12 773f 163d 933f 0144 953f
000000c0: 792e 763f f76b 873f 1230 7b3f a2bd 8a3f
000000d0: c4cc 853f 1a2f 753f b97a 863f 99ee 7d3f
000000e0: 1f45 7f3f cdc4 7b3f e9a5 743f eafb 853f
000000f0: 374c 8a3f 2126 723f 7d57 883f c434 783f
00000100: 978e 743f 7f11 7b3f 30d8 763f c917 743f
00000110: a617 743f a4fa 7e3f ec41 763f 95cb 943f
00000120: ea29 803f ec11 913f 0783 943f a9a3 973f
00000130: 4a29 813f 4ab1 843f 6ed6 8b3f 95f8 843f
00000140: 33f6 9a3f 2a01 833f ac07 743f d549 8e3f
00000150: 3a37 713f 78b3 793f b031 7a3f a3c7 6e3f
00000160: 1bc6 6d3f fc50 8a3f 6f2d 843f c4fd 753f
00000170: 6da0 853f 8e95 753f 2979 863f 9089 893f
00000180: 2ac1 743f 8413 7b3f e682 883f bcaa 973f
00000190: 2e9d 7c3f e712 913f d095 933f 51d8 7f3f
000001a0: a741 803f 9152 753f 103e 793f 178a 853f
000001b0: b1ed 933f 64a5 7e3f 2a0a 8b3f 9031 783f
000001c0: adc0 703f 671f 813f 1b4a 803f 10e1 903f
000001d0: 09c2 7b3f b5ad 723f a9ae 873f 2fb3 713f
000001e0: 3320 7c3f 7ef7 8e3f 4aab 8a3f 7554 833f
000001f0: ee30 7b3f dd9c 6e3f d2d6 813f 8e29 7c3f

bn1.bias f4 [128]
0.04446284 -0.020756047 -0.035899796 -0.03347693 -0.09820408 -0.057805512 -0.10123199 0.012075621
-0.074523546 0.024019413 -0.04683672 -0.13081677 -0.062063634 -0.022579795 -0.15727487 -0.037714943
-0.03957798 -0.1270652 -0.024063101 -0.049160663 -0.038073856 -0.00023857376 -0.035822056 -0.07950825
-0.018641159 0.016260695 -0.053187393 -0.045224197 0.005474388 -0.04174193 -0.12136971 -0.013870365
-0.10608849 -0.015124076 -0.060158614 -0.04441871 -0.06668322 -0.13132048 0.027958533 -0.115501225
-0.040380076 -0.06673393 0.055264868 0.0331555 0.01716381 -0.04969171 -0.023058614 -0.010389824
-0.059890963 -0.10097501 0.06273425 -0.026891058 -0.08263855 -0.037294697 -0.025531221 -0.012715752
-0.052676324 -0.05717085 -0.056664113 -0.05526213 0.04739814 -0.03688379 -0.04885074 -0.12210899
-0.054726336 0.038081665 -0.03705324 -0.0069771754 -0.046850037 -0.020642897 0.020380424 0.01001651
-0.06472842 -0.047430817 -0.08965597 -0.0017984022 -0.11056018 -0.046385933 -0.011024864 -0.058224007
-0.1082221 0.03918517 -0.028254732 -0.12527905 -0.051825635 -0.0025750485 -0.09205573 -0.10615148
-0.07406134 0.012188696 -0.040784113 -0.02513702 -0.03899915 -0.058119528 0.031699855 -0.09226039
-0.031508956 -0.0026299963 -0.037948128 -0.09102393 -0.013546094 -0.01166258 0.009490815 -0.049267583
0.0680044 -0.0704575 -0.05322012 -0.028789481 -0.053477746 -0.016759159 -0.09730641 -0.048923764
-0.05387946 -0.118715644 0.0060571954 -0.100871764 -0.0047045923 -0.061889067 0.0073640156 -0.05076088
-0.050329827 -0.03421421 -0.018621324 -0.087257326 -0.08183406 -0.04748956 -0.061152857 0.0064794025
00000000: ab1e 363d 9608 aabc aa0b 13bd 1b1f 09bd
00000010: 381f c9bd 79c5 6cbd b852 cfbd d3d8 453c
00000020: cd9f 98bd 5cc4 c43c dcd7 3fbd d5f4 05be
00000030: 7036 7ebd 43f9 b8bc aa0c 21be fc7a 1abd
00000040: 851c 22bd 611d 02be fb1f c5bc b15c 49bd
00000050: 55f3 1bbd a829 7ab9 26ba 12bd 39d5 a2bd
00000060: 58b5 98bc 2635 853c 06db 59bd 023d 39bd
00000070: 7f62 b33b 96f9 2abd af90 f8bd 8740 63bc
00000080: ec44 d9bd f9ca 77bc e168 76bd 65f0 35bd
00000090: 3691 88bd e078 06be 4b09 e53c e88b ecbd
000000a0: 9465 25bd ccab 88bd 6a5d 623d 10ce 073d
000000b0: 1e9b 8c3c 8989 4bbd 6be5 bcbc 153a 2abc
000000c0: 3a50 75bd fccb cebd d17a 803d a34a dcbc
000000d0: 663e a9bd 53c2 18bd da26 d1bc bb55 50bc
000000e0: 21c3 57bd fb2b 6abd a118 68bd 8b5a 62bd
000000f0: 8d24 423d 7513 17bd b717 48bd 4714 fabd
00000100: b928 60bd 85fb 1b3d 23c5 17bd caa0 e4bb
00000110: d3e5 3fbd 4b1b a9bc d9f4 a63c 4a1c 243c
00000120: 5590 84bd d146 42bd 8d9d b7bd 5db8 ebba
00000130: 606d e2bd 2dff 3dbd a2a1 34bc 4c7c 6ebd
00000140: 8ca3 ddbd a180 203d 7876 e7bc 2749 00be
00000150: 1e47 54bd 25c2 28bb b787 bcbd f265 d9bd
00000160: 79ad 97bd 19b3 473c 3e0d 27bd 27ec cdbc
00000170: 93bd 1fbd be0e 6ebd b5d7 013d 04f3 bcbd
00000180: 890f 01bd 045c 2cbb 7f6f 1bbd c16a babd
00000190: 70f0 5dbc 6814 3fbc 5d7f 1b3c cecc 49bd
000001a0: e445 8b3d 064c 90bd 57fd 59bd ebd7 ebbc
000001b0: 7b0b 5bbd 814a 89bc 9548 c7bd 4964 48bd
000001c0: b5b0 5cbd 3021 f3bd 707b c63b db95 cebd
000001d0: fb28 9abb 647f 7dbd d74d f13b a4ea 4fbd
000001e0: a626 4ebd 3324 0cbd bf8b 98bc f8b3 b2bd
000001f0: 9e98 a7bd 6a84 42bd 6b7b 7abd 2b51 d43b

bn1.running_mean f4 [128]
0.21182601 0.15462206 -0.019542601 0.13687906 0.19960114 -0.066949934 -0.13503473 -0.029427469
-0.009827396 -0.061481234 -0.19562517 -0.049302332 0.12138454 -0.19098425 0.14960614 0.04251146
0.07433035 -0.10803197 0.08621107 -0.17181851 0.14470023 -0.09898136 -0.15882091 0.0141796265
0.100503504 -0.18909891 0.042110305 -0.041766014 -0.21498741 0.0774578 -0.007908876 0.17753822
-0.072169125 0.0062922677 -0.12873258 0.15140252 -0.044799406 -0.01696199 -0.10769457 -0.13422579
-0.0958245 -0.11531103 -0.20148271 0.14451969 -0.20297132 0.06491429 0.018298294 0.013858382
-0.08872658 -0.18505485 -0.17191157 0.20745271 0.17910692 -0.0345041 0.03826861 -0.12082206
0.14385474 0.196946 -0.14004858 -0.17382766 -0.10274163 -0.07218646 0.092013925 0.11416717
0.20224722 0.20460363 -0.003551551 0.0944305 0.1255681 -0.17416508 -0.058196675 0.129847
0.102461815 0.1398516 0.066378884 0.23269293 -0.117141135 0.024252618 -0.19643629 -0.14797671
0.22346547 0.0054272595 0.074418224 -0.1936352 0.023490995 -0.09206786 0.14503242 -0.1397976
0.051195357 -0.12465569 0.08703937 0.13837337 0.11948346 -0.104855865 -0.14249806 -0.23370552
0.09447457 0.18471068 -0.004004659 -0.1683623 -0.09979253 -0.08708238 0.19175597 -0.1873422
-0.064823136 0.02493266 0.005447152 0.16392852 0.083073795 0.027861191 0.10476329 -0.21086611
-0.10025145 -0.01781001 -0.15467705 0.17379488 -0.08548844 -0.18719085 -0.0017592937 0.07412131
-0.024848469 0.1575107 0.1655072 0.15092263 0.1975383 -0.18929878 -0.18885158 -0.021176202
00000000: ebe8 583e 3f55 1e3e ce17 a0bc 062a 0c3e
00000010: 3e64 4c3e 0c1d 89bd 8b46 0abe e011 f1bc
00000020: 1603 21bc bfd3 7bbd f751 48be 3ef1 49bd
00000030: 7598 f83d 6091 43be 5a32 193e 7f20 2e3d
00000040: 833a 983d de3f ddbd 6e8f b03d 31f1 2fbe
00000050: 4c2c 143e bdb6 cabd f3a1 22be aa51 683c
00000060: c8d4 cd3d 25a3 41be db7b 2c3d d712 2bbd
00000070: a925 5cbe 32a2 9e3d 3b94 01bc 94cc 353e
00000080: 68cd 93bd 5e2f ce3b 79d2 03be 4309 1b3e
00000090: 957f 37bd dff3 8abc f98e dcbd 7c72 09be
000000a0: a33f c4bd 3028 ecbd 7c51 4ebe f8fc 133e
000000b0: b7d7 4fbe c9f1 843d 4ee6 953c 440e 633c
000000c0: 48b6 b5bd 057f 3dbe 9609 30be 7c6e 543e
000000d0: ce67 373e 2c54 0dbd 8cbf 1c3d 8e71 f7bd
000000e0: a84e 133e 36ac 493e e568 0fbe e1ff 31be
000000f0: 346a d2bd 7fd6 93bd cc71 bc3d 7ad0 e93d
00000100: e519 4f3e 9d83 513e 23c1 68bb c764 c13d
00000110: ed94 003e 5558 32be a35f 6ebd 9df6 043e
00000120: 80d7 d13d 4235 0f3e a7f1 873d 0e47 6e3e
00000130: b1e7 efbd 6dad c63c 9826 49be 3587 17be
00000140: 22d4 643e 27d7 b13b 9568 983d 4e48 46be
00000150: 3070 c03c 138e bcbd 6183 143e 1a27 0fbe
00000160: 39b2 513d 7b4b ffbd b241 b23d c0b1 0d3e
00000170: bfb3 f43d acbe d6bd 03eb 11be 8050 6fbe
00000180: e27b c13d cc24 3d3e 8439 83bb 2b67 2cbe
00000190: 0760 ccbd 3f58 b2bd ad5b 443e a2d6 3fbe
000001a0: fec1 84bd 943f cc3c 067e b23b e1dc 273e
000001b0: 9822 aa3d 273d e43c 238e d63d 49ed 57be
000001c0: a250 cdbd 4ce6 91bc a963 1ebe 49f7 313e
000001d0: 9014 afbd f5ae 3fbe 1a98 e6ba eacc 973d
000001e0: 048f cbbc 7c4a 213e b87a 293e 768b 1a3e
000001f0: 7b47 4a3e 8ad7 41be 4f62 41be b779 adbc

bn1.running_var f4 [128]
0.27988583 0.049594093 0.35208297 0.04334439 0.016344681 0.030621199 0.08014369 0.02168451
0.08020398 0.09056823 0.09477242 0.05911326 0.050826598 0.26173726 0.022422304 0.065073006
0.20124884 0.08685654 0.11303543 0.060645297 0.01448512 0.01872838 0.15181367 0.068421535
0.034882866 0.020848189 0.05939592 1.9408987 0.06516971 0.08698895 0.08510236 1.0575216
0.058201384 0.5687065 0.13824366 0.4462643 0.072265886 0.0686942 1.4670124 0.045219004
0.3558858 0.530784 0.26615995 0.6591891 0.04590996 0.5990207 0.014749413 0.36944953
0.5732487 0.10234503 0.045038573 0.03039328 0.07052903 0.41342175 0.06922228 0.7508377
0.09440247 0.33490795 1.6746246 0.03608063 0.25189158 1.6314915 0.09973843 0.024250083
1.7380239 0.0718723 0.6842726 0.91029865 1.9623073 0.14188641 0.8943052 0.02367726
0.01127146 0.018775672 0.069738455 0.014881859 0.028332915 0.084623925 0.18120982 0.03774346
0.024707606 0.08195355 0.49156272 0.017925993 0.1993943 0.3292253 0.13811591 0.15524772
0.5194351 0.029102173 0.022801101 1.0586824 0.03918883 0.28169316 0.10928935 0.016414704
0.7943024 1.4333013 0.39148712 0.01368233 0.1624782 0.026654106 0.04988684 0.07377166
0.06418033 0.039598957 0.64599276 0.0974421 0.03850697 0.24063313 0.027144643 0.29359227
3.3414388 0.04642737 0.06262212 0.013315772 0.56319296 0.2504189 0.09206287 1.45395
0.09751733 0.021991752 0.3496307 0.017070254 0.048187524 0.35619852 0.19890422 0.040953908
00000000: 324d 8f3e 2d23 4b3d 3844 b43e e389 313d
00000010: 48e5 853c 4fd9 fa3c 6022 a43d b7a3 b13c
00000020: fc41 a43d d67b b93d 0b18 c23d bf20 723d
00000030: 8d2f 503d 6d02 863e fbae b73c ff44 853d
00000040: 2d14 4e3e d7e1 b13d 1f7f e73d 3467 783d
00000050: ff52 6d3c 426c 993c 0b75 1b3e 9720 8c3d
00000060: 56e1 0e3d d2c9 aa3c 2349 733d 5e6f f83f
00000070: b277 853d 4327 b23d 254a ae3d de5c 873f
00000080: 9364 6e3d c096 113f bf8f 0d3e c17c e43e
00000090: 2300 943d 8baf 8c3d 10c7 bb3f 9037 393d
000000a0: aa36 b63e 76e1 073f 1e46 883e 9ec0 283f
000000b0: 150c 3c3d 6c59 193f 86a7 713c 7d28 bd3e
000000c0: 6dc0 123f 459a d13d 5e7a 383d 54fb f83c
000000d0: 8671 903d 04ac d33e 69c4 8d3d e636 403f
000000e0: 1556 c13d 0e79 ab3e 195a d63f 48c9 133d
000000f0: eff7 803e b7d4 d03f a943 cc3d 1ca8 c63c
00000100: 9177 de3f c931 933d 7d2c 2f3f 5509 693f
00000110: e32c fb3f ac4a 113e 30f1 643f d0f6 c13c
00000120: eeab 383c 70cf 993c 09d3 8e3d 0ad3 733c
00000130: 6e1a e83c 4f4f ad3d 118f 393e e398 1a3d
00000140: 9b67 ca3c 43d7 a73d 1cae fb3e 88d9 923c
00000150: 052e 4c3e 3890 a83e 426e 0d3e 42f9 1e3e
00000160: b3f9 043f ae67 ee3c 60c9 ba3c e882 873f
00000170: 7784 203d 163a 903e 18d3 df3d 2178 863c
00000180: 6757 4b3f 6b76 b73f 0071 c83e da2b 603c
00000190: af60 263e b659 da3c 2556 4c3d 9915 973d
000001a0: fa70 833d 8432 223d c85f 253f b98f c73d
000001b0: 7cb9 1d3d 8868 763e 715e de3c ba51 963e
000001c0: 22da 5540 a02a 3e3d 0740 803d 652a 5a3c
000001d0: 6a2d 103f e836 803e 758b bc3d 091b ba3f
000001e0: 2ab7 c73d 0c28 b43c cc02 b33e ebd6 8b3c
000001f0: 4860 453d a75f b63e 8cad 4b3e 49bf 273d

fc2.weight f4 [64, 128]
-0.099504605 0.03424529 0.037560306 0.06484897 -0.13722454 0.019533262 -0.07886138 0.05342703
-0.033987403 0.055064406 0.06199543 -0.053936604 0.051006272 -0.0167023 -0.10032406 -0.08417165
-0.08797479 0.024387537 -0.048541233 -0.056595314 -0.024246434 0.09851177 -0.004276502 0.043056104
-0.09450276 -0.011083333 0.0764872 -0.05580783 -0.055332787 0.025480904 -0.022167007 -0.08063777
0.023333132 0.070943505 -0.13064094 0.05519697 0.090465896 -0.056652114 -0.042246975 0.03949501
-0.08005483 -0.07278523 0.02139189 0.0095821535 0.03450752 -0.03833283 -0.11520262 0.002293158
0.0022777955 -0.082752645 -0.026093604 -0.029068252 0.044959866 0.021018857 -0.026547762 0.066648215
-0.056301046 -0.0042384104 -0.0054279403 -0.07057811 -0.078433536 -0.0781037 0.009263507 -0.010849152
-0.021928791 0.04114091 0.014006284 0.04487322 0.009243369 -0.055999372 0.007704404 -0.02879056
-0.034750447 0.037807293 0.15056023 -0.14256063 -0.044217862 -0.036785655 -0.01716508 -0.01843543
0.11254993 -0.06685417 -0.015999453 -0.072333775 0.064231426 0.10413512 -0.013924205 0.042640906
0.0373584 0.03459179 0.15911683 0.07562262 0.07076414 -0.08377008 0.06605279 -0.044978615
-0.05532673 -0.04354174 -0.09311745 0.028319815 0.05053584 0.046414625 -0.041988578 0.017460344
-0.013871382 0.033212297 -0.021387966 -0.083147556 -0.055822074 -0.030722735 0.028859377 -0.092588976
-0.0739511 0.07163912 0.015515507 0.070170216 -0.021359127 0.030838253 0.050228734 0.044101503
-0.0883545 0.16256091 -0.00030100712 -0.11288474 0.007505977 -0.08096094 -0.049751937 0.07343168
0.011994825 -0.005661687 0.014425405 -0.047182817 0.09529263 -0.08185717 -0.06353837 -0.0028346982
0.03329748 0.07619118 -0.028500384 -0.063813865 0.0392567 0.073136374 -0.024737708 0.058475014
-0.016693223 -0.05023178 -0.030586949 0.042446572 8.481655e-06 -0.11769937 0.0029957083 0.021912979
0.01460705 0.0045319074 0.030366996 -0.065062515 -0.02667723 -0.08251607 0.045876127 -0.0025963725
0.03158242 0.0065099364 0.0011527544 -0.023660272 -0.076274574 -0.022620734 -0.08784819 -0.0056870165
-0.0706835 0.012445875 0.033125132 0.019061346 0.040364318 -0.077322856 -0.014480153 -0.05211195
0.050670817 -0.04165777 -0.06864282 0.036993597 0.00021978734 -0.08358101 0.014411624 -0.043659486
0.029361188 -0.034751106 0.069088124 0.067207 0.00442633 0.049297545 -0.028792799 -0.048838403
0.026170673 0.047898304 0.0047213025 -0.062078066 -0.008718272 0.030551095 0.07837811 -0.094706364
-0.064999044 0.008479713 -0.09090565 0.0047947234 -0.08768097 0.042079784 0.027777828 0.0021387013
-0.014285723 -0.034641072 0.03053199 -0.04188895 -0.014925953 0.018845458 0.030078648 0.058711376
0.027396731 0.008123057 -0.10973613 0.02914364 -0.019662715 -0.08850895 0.051918346 0.014750288
-0.01888271 0.11414818 0.01829342 -0.0057461327 -0.06768756 -0.0026659714 0.088628255 0.025037453
0.05271545 -0.1112379 0.010664514 0.0008465245 -0.039562244 -0.08735404 -0.00032734935 -0.09228669
-0.065927565 0.057330497 -0.03999171 0.060121864 -0.10245842 0.034085702 0.058369003 -0.015587559
-0.013427066 -0.010248057 0.12866172 -0.10024646 0.03368615 0.047489457 0.05363134 -0.022679774
00000000: 12c9 cbbd ca44 0c3d d6d8 193d 89cf 843d
00000010: 9784 0cbe 3804 a03c 1382 a1bd 4dd6 5a3d
00000020: 6036 0bbd 378b 613d ecee 7d3d a1ec 5cbd
00000030: f4eb 503d 43d3 88bc b376 cdbd 3062 acbd
00000040: 202c b4bd 5fc8 c73c 2cd3 46bd 7dd0 67bd
00000050: 75a0 c6bc 8ac0 c93d e621 8cbb 995b 303d
00000060: aa8a c1bd de96 35bc 52a5 9c3d c096 64bd
00000070: a2a4 62bd 54bd d03c 9597 b5bc 6a25 a5bd
00000080: 2025 bf3c d44a 913d bdc6 05be 3816 623d
00000090: 2f46 b93d 0c0c 68bd 2a0b 2dbd 85c5 213d
000000a0: c9f3 a3bd 6c10 95bd 0b3e af3c 77fe 1c3c
000000b0: c257 0d3d e302 1dbd 5aef ebbd cf48 163b
000000c0: 1147 153b 387a a9bd 41c2 d5bc 8b20 eebc
000000d0: d627 383d bd2f ac3c b17a d9bc dc7e 883d
000000e0: ed9b 66bd 5de2 8abb dddc b1bb 428b 90bd
000000f0: c3a1 a0bd d5f4 9fbd f7c5 173c a4c0 31bc
00000100: 02a4 b3bc 5f83 283d 9d7a 653c fbcc 373d
00000110: 8071 173c 995f 65bd 3a75 fc3b 2eda ebbc
00000120: 7c56 0ebd d2db 1a3d 762c 1a3e 6afb 11be
00000130: ca1d 35bd 8eac 16bd c89d 8cbc e605 97bc
00000140: 9480 e63d d7ea 88bd 4911 83bc bb23 94bd
00000150: c48b 833d cb44 d53d 5922 64bc 3ba8 2e3d
00000160: 1f05 193d 1fb0 0d3d 86ef 223e 08e0 9a3d
00000170: caec 903d a68f abbd af46 873d 7f3b 38bd
00000180: 489e 62bd d358 32bd 5db4 bebd f5fe e73c
00000190: abfe 4e3d 431d 3e3d 37fc 2bbd ff08 8f3c
000001a0: cb44 63bc 9e09 083d d135 afbc 4449 aabd
000001b0: b0a5 64bd 3fae fbbc 806a ec3c 4a9f bdbd
000001c0: ad73 97bd 88b7 923d c134 7e3c 67b5 8f3d
000001d0: 56f9 aebc 81a0 fc3c a5bc 4d3d c7a3 343d
000001e0: 34f3 b4bd 5e76 263e 7ed0 9db9 1d30 e7bd
000001f0: b3f4 f53b d9ce a5bd b0c8 4bbd 5963 963d
00000200: f185 443c ac85 b9bb 8958 6c3c c542 41bd
00000210: c828 c33d bba4 a7bd 6820 82bd 58c6 39bb
00000220: f062 083d 1f0a 9c3d a379 e9bc d8b0 82bd
00000230: a2cb 203d 86c8 953d bca6 cabc 7f83 6f3d
00000240: 3ac0 88bc d7bf 4dbd 7b91 fabc 75dc 2d3d
00000250: 6e4c 0e37 5e0c f1bd a553 443b d982 b33c
00000260: 6952 6f3c 6580 943b 35c4 f83c 7f3f 85bd
00000270: 358a dabc 2ffe a8bd 9be8 3b3d e727 2abb
00000280: 915c 013d 4e51 d53b 0518 973a 30d3 c1bc
00000290: d835 9cbd 1e4f b9bc c0e9 b3bd 275a babb
000002a0: 83c2 90bd c9e9 4b3c 38ae 073d 8a26 9c3c
000002b0: 0e55 253d 725b 9ebd 2a3e 6dbc 5773 55bd
000002c0: 348c 4f3d 56a1 2abd 9b94 8cbd 9986 173d
000002d0: b776 6639 852c abbd bb1e 6c3c 4ad4 32bd
000002e0: e086 f03c 2d57 0ebd 137e 8d3d d3a3 893d
000002f0: bf0a 913b 39ec 493d e0de ebbc c70a 48bd
00000300: e163 d63c 0331 443d 28b5 9a3b 9245 7ebd
00000310: 15d7 0ebc 4a46 fa3c b484 a03d 69f5 c1bd
00000320: 381e 85bd 7fee 0a3c be2c babd 0e1d 9d3b
00000330: 1592 b3bd da5b 2c3d 548e e33c 7429 0c3b
00000340: aa0e 6abc cce3 0dbd 391e fa3c bf93 2bbd
00000350: fc8b 74bc ca61 9a3c 7f67 f63c 577b 703d
00000360: 1c6f e03c 9216 053c 56bd e0bd a5be ee3c
00000370: b413 a1bc 2e44 b5bd 55a8 543d 31ab 713c
00000380: eaaf 9abc 85c6 e93d 15dc 953c 0e4a bcbb
00000390: c79f 8abd 94b7 2ebb bb82 b53d 581b cd3c
000003a0: 28ec 573d b2d0 e3bd 37ba 2e3c 4ce9 5d3a
000003b0: 050c 22bd ade6 b2bd 16a0 abb9 ce00 bdbd
000003c0: 0805 87bd 62d3 6a3d 59ce 23bd 5842 763d
000003d0: b8d5 d1bd 739d 0b3d 5614 6f3d f662 7fbc
000003e0: 32fd 5bbc 77e7 27bc e6bf 033e 044e cdbd
000003f0: 7dfa 093d 4e84 423d 89ac 5b3d efca b9bc

fc2.bias f4 [64]
0.014780736 -0.06296299 0.020244367 -0.06485035 -0.034601137 -0.067145705 -0.01808385 0.02658869
-0.0020450554 -0.024951888 -0.06814301 0.024955984 -0.041675776 0.0012293727 -0.014840724 -0.030704977
-0.037106264 0.06351516 0.04952663 -0.06254484 0.06717141 -0.08360978 0.018317178 0.012060262
-0.043931432 0.05399325 -0.041795935 -0.021750113 -0.0032992898 0.06330481 0.05763805 -0.025723498
0.009747233 0.07959123 0.00871388 0.08011251 0.029185526 0.05565764 0.06614484 -0.07389448
0.031011894 0.07434103 0.027941737 -0.07083504 -0.020432968 0.034442566 -0.06588374 -0.082920805
0.07533297 -0.068950586 0.00021339336 -0.033130694 0.034437012 -0.021205341 -0.058761176 0.04787981
0.007699267 -0.027213287 0.05056556 0.026199924 -0.024338976 -0.0809893 -0.018876053 0.05832337
00000000: e62a 723c bdf2 80bd 84d7 a53c 43d0 84bd
00000010: ecb9 0dbd b083 89bd 9524 94bc 86d0 d93c
00000020: 5606 06bb e767 ccbc 908e 8bbd 7e70 cc3c
00000030: 38b4 2abd e722 a13a 8226 73bc 0189 fbbc
00000040: bdfc 17bd 3c14 823d 70dc 4a3d 8217 80bd
00000050: 2a91 893d 9b3b abbd e80d 963c 6898 453c
00000060: 72f1 33bd 0728 5d3d 3732 2bbd 4b2d b2bc
00000070: e638 58bb f4a5 813d e015 6c3d 16ba d2bc
00000080: dcb2 1f3c ba00 a33d a9c4 0e3c 0712 a43d
00000090: 7c16 ef3c 44f9 633d f276 873d fd55 97bd
000000a0: a80c fe3c 1c40 983d 12e6 e43c f611 91bd
000000b0: 0a63 a7bc a613 0d3d 0eee 86bd 62d2 a9bd
000000c0: 2c48 9a3d f735 8dbd 58c2 5f39 0db4 07bd
000000d0: d30d 0d3d d3b6 adbc 8faf 70bd 9f1d 443d
000000e0: 224a fc3b 66ee debc d51d 4f3d 39a1 d63c
000000f0: 8862 c7bc b8dd a5bd f4a1 9abc 7ce4 6e3d

bn2.weight f4 [64]
1.1164955 1.0040221 1.0341896 1.0028433 0.97506696 1.0587597 0.98763865 0.960971
1.0093096 1.0737234 0.9713438 1.1348499 1.028779 1.0309299 0.97348344 1.007146
1.025983 0.9947456 1.0988041 1.0310869 1.0006418 0.9996153 1.0044426 1.1216385
1.1432855 0.96794254 1.0203567 1.1109413 0.94637877 0.96287435 0.96023315 0.9830939
1.0368369 0.97606766 1.0874608 1.0219693 0.9921559 1.0330708 1.0616118 1.0341698
0.98137224 1.0718324 0.97388434 0.972781 0.90242165 0.9810872 0.9863762 0.9877952
1.0098029 0.96326655 1.1236442 1.046702 1.010016 1.0211203 1.0975218 0.9883106
1.0505998 0.9876591 1.0888504 0.976606 1.0397749 0.9538015 0.9354738 1.0455362
00000000: 53e9 8e3f cc83 803f 5360 843f 2b5d 803f
00000010: fd9d 793f 7085 873f e3d5 7c3f 3202 763f
00000020: 0f31 813f c56f 893f fda9 783f c342 913f
00000030: 08af 833f 83f5 833f 3636 793f 29ea 803f
00000040: 6953 833f a6a7 7e3f 9da5 8c3f a8fa 833f
00000050: 0815 803f cae6 7f3f 9391 803f da91 8f3f
00000060: 2e57 923f 15cb 773f 0c9b 823f 5333 8e3f
00000070: e145 723f ef7e 763f d7d1 753f 0bac 7b3f
00000080: 12b7 843f 92df 793f ea31 8b3f e4cf 823f
00000090: eefd 7d3f aa3b 843f e5e2 873f ad5f 843f
000000a0: 363b 7b3f ce31 893f 7c50 793f 2d08 793f
000000b0: 1b05 673f 8828 7b3f 2783 7c3f 25e0 7c3f
000000c0: 3941 813f a398 763f 93d3 8f3f 55fa 853f
000000d0: 3448 813f 12b4 823f 987b 8c3f ec01 7d3f
000000e0: 0e7a 863f 3ad7 7c3f 735f 8b3f da02 7a3f
000000f0: 5817 853f 562c 743f 367b 6f3f 21d4 853f

bn2.bias f4 [64]
-0.059171498 0.02307412 -0.02652453 0.007653222 -0.054840337 0.0078085614 -0.0949211 0.015590433
0.06674487 -0.044151157 -0.04458145 0.0041803992 -0.082275905 -0.04777806 -0.01802059 -0.03034485
-0.07652566 -0.024103848 -0.018292712 -0.11771189 0.037468255 -0.06728559 0.049215622 -0.08290097
-0.077096716 -0.05530841 -0.01772345 -0.05818132 -0.16261782 -0.05954507 -0.065523244 -0.011187296
-0.049550436 -0.08037017 -0.07941109 -0.18449365 0.026281554 -0.15069129 0.034722794 -0.12987666
-0.008503116 0.045009993 -0.052087717 -0.09845331 -0.08024573 -0.045968104 -0.023516417 -0.09478294
0.015355079 -0.03726142 -0.035210256 0.036340963 -0.017720545 -0.02613961 -0.13711448 -0.021207001
0.037512857 -0.040969238 -0.0069055944 -0.111429565 -0.1071546 -0.14196917 -0.061992694 -0.18030588
00000000: d05d 72bd f005 bd3c f949 d9bc e1c7 fa3b
00000010: 43a0 60bd f6de ff3b fe65 c2bd 046f 7f3c
00000020: 89b1 883d d8d7 34bd 0a9b 36bd bbfb 883b
00000030: 4580 a8bd edb2 43bd eb9f 93bc c395 f8bc
00000040: 7cb9 9cbd 6f75 c5bc 99da 95bc ee12 f1bd
00000050: 5078 193d 07cd 89bd 5296 493d fcc7 a9bd
00000060: e2e4 9dbd 128b 62bd c530 91bc 894f 6ebd
00000070: 4985 26be 88e5 73bd 0d31 86bd ec4a 37bc
00000080: 66f5 4abd 1e99 a4bd 48a2 a2bd e7eb 3cbe
00000090: 6a4c d73c d14e 1abe 7d39 0e3d 63fe 04be
000000a0: a750 0bbc 665c 383d ee59 55bd e4a1 c9bd
000000b0: e057 a4bd 0d49 3cbd 80a5 c0bc 8f1d c2bd
000000c0: df93 7b3c 6e9f 18bd a138 10bd 43da 143d
000000d0: ad2a 91bc bc22 d6bc bd67 0cbe 4eba adbc
000000e0: 15a7 193d 5ccf 27bd 5348 e2bb 2f35 e4bd
000000f0: df73 dbbd 5e60 11be 0dec 7dbd 1ba2 38be

bn2.running_mean f4 [64]
-0.08151551 -0.15661691 0.15140292 0.016164482 -0.3353035 -0.2242197 -0.18265447 -0.047551498
0.16128919 -0.27930337 -0.34390455 -0.2494093 0.04465942 -0.087581694 -0.050371848 -0.4400261
-0.14380357 0.26455432 -0.078060545 -0.15631774 0.025676318 -0.25813487 0.1701095 -0.28813407
-0.13087574 0.25733015 -0.15367208 -0.3930224 0.011318166 -0.16081905 0.05730189 -0.21324226
-0.08682311 0.15795153 -0.27007446 -0.31557873 0.2032992 -0.27230933 0.096530996 -0.16338365
-0.019252172 0.20441957 -0.037680857 -0.10975556 -0.3369457 -0.2284066 -0.33414492 -0.32780945
-0.027421465 -0.3831955 -0.08549797 -0.29056126 -0.106466115 -0.1912202 -0.2909056 0.06871421
-0.032533098 -0.28936207 -0.10609393 -0.26704627 -0.17392337 -0.3317162 -0.05610608 -0.0452639
00000000: 9bf1 a6bd 2f60 20be 5e09 1b3e 606b 843c
00000010: e6ac abbe d999 65be c609 3bbe 5cc5 42bd
00000020: fe28 253e da00 8fbe 4214 b0be 2765 7fbe
00000030: ccec 363d 085e b3bd b652 4ebd 1a4b e1be
00000040: 3e41 13be aa73 873e 35de 9fbd c211 20be
00000050: 2457 d23c 412a 84be 2f31 2e3e 4f86 93be
00000060: 4a04 06be c7c0 833e 375c 1dbe 3b3a c9be
00000070: d46f 393c c0ad 24be 63b5 6a3d 2e5c 5abe
00000080: 51d0 b1bd 0cbe 213e 3347 8abe 8993 a1be
00000090: aa2d 503e 216c 8bbe 0bb2 c53d 0b4e 27be
000000a0: bbb6 9dbc 5d53 513e 3e57 1abd 86c7 e0bd
000000b0: 2684 acbe 6be3 69be 0b15 abbe a4d6 a7be
000000c0: fba2 e0bc 3332 c4be 8f19 afbd 72c4 94be
000000d0: e80a dabd 3acf 43be 94f1 94be 09ba 8c3d
000000e0: 6d41 05bd 4427 94be c647 d9bd 4aba 88be
000000f0: f818 32be b5d6 a9be 7dcf 65bd a466 39bd

bn2.running_var f4 [64]
0.6667679 0.76566446 0.27650952 0.29565364 0.52954066 0.40581658 0.45819387 0.67549855
0.37560517 0.49376035 0.5241631 0.32299805 0.2752327 0.31556132 0.57219106 0.6060039
0.3691354 0.39862415 0.28035536 0.25805247 0.54771763 0.20009474 0.4025885 0.39899123
0.51616555 0.2904445 0.29341277 0.44875205 0.27201664 0.9120065 0.39111128 0.4591018
0.3312846 0.300523 0.21379079 0.29453358 0.63292783 0.53385115 0.3057366 0.21851137
0.7353106 0.78505117 0.5057043 0.35041046 0.28651246 0.25811994 0.43250704 0.24261221
0.32416362 0.7267292 0.3047377 0.37630352 0.6933413 0.80637854 0.24505883 0.3424329
0.18505369 0.17824288 0.6732637 0.324098 0.3239793 0.3872239 0.50542253 0.20609194
00000000: 4db1 2a3f 9602 443f a892 8d3e ea5f 973e
00000010: fa8f 073f 31c7 cf3e 6398 ea3e 79ed 2c3f
00000020: 524f c03e 28ce fc3e 8e2f 063f 0060 a53e
00000030: 4deb 8c3e 4191 a13e 1d7b 123f 1223 1b3f
00000040: 51ff bc3e 7718 cc3e bd8a 8f3e 741f 843e
00000050: 3937 0c3f a3e5 4c3e 1420 ce3e 9448 cc3e
00000060: 6d23 043f 24b5 943e 333a 963e d4c2 e53e
00000070: c445 8b3e 4279 693f bd3f c83e 640f eb3e
00000080: 239e a93e 27de 993e f9eb 5a3e 1bcd 963e
00000090: 8f07 223f 78aa 083f 8289 9c3e 72c1 5f3e
000000a0: 513d 3c3f 1df9 483f d675 013f 0069 b33e
000000b0: c3b1 923e 4c28 843e 9071 dd3e 566f 783e
000000c0: c6f8 a53e ed0a 3a3f 9406 9c3e dbaa c03e
000000d0: d17e 313f d36e 4e3f b4f0 7a3e 5d53 af3e
000000e0: b77e 3d3e 4d85 363e 035b 2c3f 2cf0 a53e
000000f0: 9de0 a53e 3642 c63e 5f63 013f c409 533e

fc3.weight f4 [32, 64]
-0.07681237 0.053861916 -0.0967416 -0.04219159 -0.04758937 -0.10713724 -0.005084304 0.013521961
-0.0052543003 0.093165986 -0.062443573 0.1640227 -0.093377866 0.0770072 0.006182472 -0.06753426
-0.03327164 -0.06944494 -0.037083264 0.06001121 -0.11167258 0.03603178 -0.048393194 0.00039139765
-0.17122556 0.05017291 0.08721183 -0.11327544 0.074981965 0.02045664 0.010081969 -0.11302162
0.014621298 -0.10000737 -0.0379526 0.0978656 -0.0047384272 0.10739261 -0.0467065 0.09600894
0.08131066 -0.0760282 0.04882829 0.08628776 0.008357176 0.09027519 -0.022040721 -0.014556597
-0.06306618 -0.02215546 -0.063896306 0.100675166 -0.051883664 -0.01478635 0.13049397 0.072298035
0.09558963 0.09700382 -0.07664963 0.07370621 0.12483504 0.081511654 -0.04809267 0.08790913
0.07420608 0.051842768 0.11200745 -0.008633117 0.01554198 0.04086609 0.03772708 0.027867919
-0.08970625 0.09867346 -0.05091607 -0.11242805 0.10478658 -0.0057149366 -0.07813649 -0.037345305
-0.03642998 0.05156678 0.041973654 0.0078082383 0.038441144 0.08259843 -0.052256353 -0.011271217
-0.06380366 -0.06765511 0.06960291 -0.010947919 -0.020037072 -0.094343394 -0.13766302 0.011175208
0.026253229 -0.09426236 0.015150787 -0.062006615 -0.1098974 -0.0985842 -0.12133655 -0.112494096
-0.09367611 -0.19510238 0.10600166 0.0027436581 -0.04346773 -0.011127267 0.099330224 0.048547696
-0.015497982 0.09605189 0.14714037 -0.18036105 -0.11081481 0.040092006 -0.09640078 0.0013946312
-0.0003580269 -0.08233421 0.08478728 -0.07893466 -0.13479102 0.0039522434 0.043516964 0.054601416
-0.096732356 0.009090712 -0.039114583 -0.06771234 -0.045967184 -0.06608483 0.024577983 0.0271834
0.0007806836 0.10507931 0.07463339 0.09642626 0.00788062 -0.10377611 -0.05805648 0.034730922
-0.09401115 -0.11522201 0.050070804 -0.008027147 -0.018210834 0.12399943 -0.11172821 0.13111636
-0.1043084 0.023672886 0.030162508 0.0025555147 0.07628727 0.062705256 0.05603806 0.017048039
0.046277616 0.049943466 -0.08680027 0.017408933 -0.12014068 -0.08966046 -0.0146227 0.056153577
0.03937406 -0.041566916 0.013486131 0.055087686 0.12531388 0.08033591 -0.026174622 0.11383917
-0.11238048 0.03997522 -0.15666029 -0.013811739 0.06702203 -0.1133482 0.1201879 -0.024757965
0.019328032 0.08139674 -0.10135736 0.09312684 0.098481424 -0.045380145 -0.09256939 0.06607933
-0.1124285 -0.055687167 0.039407484 -0.03621974 0.05197974 -0.09069547 0.10697727 0.11567111
-0.012386424 0.058365535 0.02351279 0.14456458 0.04502285 0.03633616 -0.0090373345 -0.011885802
-0.084428854 -0.10572044 0.027192775 0.07393422 0.033775114 -0.032828417 -0.13118127 0.072165355
-0.03698353 0.058404397 0.04907683 0.10705396 0.068404935 -0.062431492 0.007117251 -0.011569588
0.079579346 -0.11973367 0.013391936 0.0035065738 0.028874395 -0.0018611054 -0.05282019 0.02372217
-0.06498699 -0.10090962 0.012195083 0.09860357 0.11543769 0.03720491 -0.10381708 0.11516222
0.04369154 0.05649536 -0.049324732 -0.040654764 -0.02163472 0.040068563 0.0021306598 0.051460423
-0.073888466 -0.004586148 -0.1383429 0.09442357 0.088266276 0.09674319 -0.108182356 0.10873741
00000000: ce4f 9dbd 509e 5c3d 7620 c6bd 17d1 2cbd
00000010: 12ed 42bd c56a dbbd 3c9a a6bb 378b 5d3c
00000020: 442c acbb cfcd be3d d5c4 7fbd 91f5 273e
00000030: e53c bfbd f3b5 9d3d 5696 ca3b 674f 8abd
00000040: d847 08bd 2639 8ebd 9fe4 17bd 51ce 753d
00000050: 98b4 e4bd 0f96 133d f137 46bd 8134 cd39
00000060: c155 2fbe 1c82 4d3d 1e9c b23d f4fc e7bd
00000070: 2590 993d af94 a73c d82e 253c e177 e7bd
00000080: 2b8e 6f3c aad0 ccbd 2f74 1bbd c26d c83d
00000090: cf44 9bbb a8f0 db3d 514f 3fbd 56a0 c43d
000000a0: 3486 a63d acb4 9bbd 2c00 483d a3b7 b03d
000000b0: 89ec 083c 33e2 b83d be8e b4bc cb7e 6ebc
000000c0: d728 81bd 5e7f b5bc 11dc 82bd c82e ce3d
000000d0: f783 54bd 7242 72bc 36a0 053e fe10 943d
000000e0: 7fc4 c33d f0a9 c63d 7bfa 9cbd 48f3 963d
000000f0: 83a9 ff3d 95ef a63d d2fc 44bd b409 b43d
00000100: 5bf9 973d 1559 543d 2964 e53d eb71 0dbc
00000110: caa3 7e3c 3463 273d b687 1a3d 434b e43c
00000120: e9b7 b7bd 5015 ca3d 5e8d 50bd ad40 e6bd
00000130: 599a d63d 5d44 bbbb 0606 a0bd 64f7 18bd
00000140: 9a37 15bd b037 533d 91ec 2b3d 40dc ff3b
00000150: 7674 1d3d 5e29 a93d c20a 56bd e9aa 38bc
00000160: 7eab 82bd c38e 8abd f88b 8e3d e75e 33bc
00000170: c924 a4bc 1c37 c1bd 89f7 0cbe 3818 373c
00000180: 0311 d73c a00c c1bd 023b 783c a6fa 7dbd
00000190: e311 e1bd 83e6 c9bd 4c7f f8bd 4e63 e6bd
000001a0: 43d9 bfbd ebc8 47be 6617 d93d f2ce 333b
000001b0: 380b 32bd 244f 36bc a56d cb3d f3d9 463d
000001c0: 3feb 7dbc dab6 c43d f7ab 163e 91b0 38be
000001d0: e0f2 e2bd 8437 243d c66d c5bd 0fcc b63a
000001e0: 8fb5 bbb9 d79e a8bd f4a4 ad3d 7fa8 a1bd
000001f0: a806 0abe d281 813b d83e 323d bca5 5f3d
00000200: 9d1b c6bd 36f1 143c 9d36 20bd c4ac 8abd
00000210: 1648 3cbd 7c57 87bd c457 c93c b9af de3c
00000220: caa6 4c3a d233 d73d 64d9 983d 227b c53d
00000230: b71d 013c 9288 d4bd a2cc 6dbd 0342 0e3d
00000240: eb88 c0bd 84f9 ebbd 0b17 4d3d 4b84 03bc
00000250: e32e 95bc 6af3 fd3d c2d1 e4bd 5e43 063e
00000260: a49f d5bd a4ed c13c 5d17 f73c 6c7a 273b
00000270: 803c 9c3d 9d6b 803d 2a88 653d 54a8 8b3c
00000280: 998d 3d3d 8591 4c3d 57c4 b1bd 2e9d 8e3c
00000290: 510c f6bd e79f b7bd 0d94 6fbc 4b01 663d
000002a0: b246 213d 1242 2abd eff4 5c3c a0a3 613d
000002b0: 4852 003e 2787 a43d 296c d6bc 8324 e93d
000002c0: bd27 e6bd 0ebd 233d 8e6b 20be a24a 62bc
000002d0: d942 893d 1a23 e8bd 1325 f63d 37d1 cabc
000002e0: d255 9e3c 56b3 a63d 7394 cfbd 49b9 be3d
000002f0: a1b0 c93d 88e0 39bd 0595 bdbd 9a54 873d
00000300: ea40 e6bd 3a18 64bd be69 213d 265b 14bd
00000310: b5e8 543d 8cbe b9bd e616 db3d fae4 ec3d
00000320: 6df0 4abc b310 6f3d e59d c03c bd08 143e
00000330: e169 383d 3ad5 143d 5411 14bc abbc 42bc
00000340: 09e9 acbd f583 d8bd 62c3 de3c d36a 973d
00000350: c657 0a3d 1777 06bd 6254 06be 6ecb 933d
00000360: 0b7c 17bd 7339 6f3d c904 493d 1b3f db3d
00000370: e317 8c3d 2ab8 7fbd d437 e93b 5f8e 3dbc
00000380: 7ffa a23d ed36 f5bd da69 5b3c 8cce 653b
00000390: ff89 ec3c 56f0 f3ba fc59 58bd ff54 c23c
000003a0: e617 85bd b4a9 cebd e3cd 473c abf0 c93d
000003b0: 986a ec3d 2d64 183d 0d9e d4bd 2cda eb3d
000003c0: e6f5 323d ae67 673d bb08 4abd 9c85 26bd
000003d0: 4c3b b1bc ef1e 243d 8aa2 0b3b 2ac8 523d
000003e0: d652 97bd 6647 96bb c3a9 0dbe 2561 c13d
000003f0: f3c4 b43d 4b21 c63d b68e ddbd b8b1 de3d

fc3.bias f4 [32]
-0.0044664647 0.016345171 0.11799632 -0.071069114 -0.013334527 -0.08712244 0.015121049 0.092815354
0.07048739 0.018296912 0.01922938 0.07366866 0.11171731 -0.11466887 0.010051224 0.055125084
0.05855455 0.094183214 0.041063283 -0.08816631 -0.04137933 -0.053098835 -0.07839053 0.07892425
0.07238948 -0.06586185 0.11883108 0.016098106 -0.112038605 0.087909125 0.106037565 -0.065384075
00000000: 6c5b 92bb 4fe6 853c 0ea8 f13d af8c 91bd
00000010: 0f79 5abc 406d b2bd 47be 773c fa15 be3d
00000020: b15b 903d 68e3 953c ef86 9d3c 98df 963d
00000030: 0ccc e43d 83d7 eabd e4ad 243c d7ca 613d
00000040: e5d6 6f3d 21e3 c03d f931 283d 8a90 b4bd
00000050: 5f7d 29bd 2a7e 59bd 378b a0bd 0aa3 a13d
00000060: f040 943d 94e2 86bd b65d f33d 2de0 833c
00000070: 7f74 e5bd b309 b43d 392a d93d 16e8 85bd

bn3.weight f4 [32]
1.0409102 0.9973882 0.95295155 0.957561 0.99778605 1.0227566 1.0829339 1.0912374
0.957206 0.9198878 1.0506891 0.91482383 0.9661851 1.0237426 1.0453775 1.0844918
1.0353472 1.0453136 1.048698 1.1017169 0.96459895 1.1145473 1.0451821 1.0577134
1.0612595 1.0125321 1.0047238 1.1182475 1.0333736 0.9496346 0.96979845 1.033356
00000000: 8c3c 853f d554 7f3f a2f4 733f b822 753f
00000010: e86e 7f3f b0e9 823f 949d 8a3f abad 8b3f
00000020: 740b 753f c47d 6b3f fb7c 863f e531 6a3f
00000030: e857 773f ff09 833f eece 853f a1d0 8a3f
00000040: 4286 843f d6cc 853f bc3b 863f 0f05 8d3f
00000050: f5ef 763f 7ca9 8e3f 87c8 853f 2763 873f
00000060: 5ad7 873f a79a 813f ca9a 803f bc22 8f3f
00000070: 9645 843f 411b 733f b644 783f 0245 843f

bn3.bias f4 [32]
-0.08729432 0.07984384 -0.10556208 -0.09672799 -0.03325711 0.03693349 -0.036588762 0.02961187
-0.0020947186 -0.031970482 -0.00036289863 -0.106311046 -0.047205467 0.029257571 0.05057464 -0.077464074
-0.020515185 -0.09542311 -0.06850919 0.059637226 0.08597212 -0.082974754 -0.16868488 0.009445238
-0.015538444 -0.07559441 0.018007195 0.042590186 -0.033513647 0.011036097 0.00084837934 -0.075734206
00000000: 5dc7 b2bd 2b85 a33d ef30 d8bd 5319 c6bd
00000010: 9b38 08bd 9247 173d 19de 15bd 9894 f23c
00000020: 8c47 09bb 7bf3 02bd 6e43 beb9 9bb9 d9bd
00000030: 855a 41bd 93ad ef3c 5b27 4f3d 7ca5 9ebd
00000040: 760f a8bc 316d c3bd 8c4e 8cbd 2a46 743d
00000050: 2712 b03d abee a9bd bbbb 2cbe 33c0 1a3c
00000060: f594 7ebc 3ed1 9abd d383 933c 0c73 2e3d
00000070: 9b45 09bd bfd0 343c c665 5e3a 891a 9bbd

bn3.running_mean f4 [32]
-0.008737363 -0.11017924 0.10772357 -0.015080872 -0.08877891 -0.068884574 -0.07528045 -0.21264742
-0.11027778 -0.0367306 -0.30075467 0.27334875 0.069734216 -0.18295525 -0.09369514 -0.07076099
0.09433119 -0.015849648 -0.033557054 -0.38402718 0.022617863 -0.24783158 -0.40994543 0.06297488
-0.044124298 -0.1101368 -0.19149585 -0.290527 -0.15690598 -0.13314909 -0.055722293 0.036240187
00000000: 2827 0fbc a7a5 e1bd 2d9e dc3d c315 77bc
00000010: b8d1 b5bd 5b13 8dbd a32c 9abd 3fc0 59be
00000020: 51d9 e1bd d372 16bd 84fc 99be 5ef4 8b3e
00000030: d0d0 8e3d 9f58 3bbe 3de3 bfbd 23eb 90bd
00000040: b630 c13d 1fd7 81bc 1f73 09bd 369f c4be
00000050: 1949 b93c 90c7 7dbe 5ee4 d1be f9f8 803d
00000060: aebb 34bd 678f e1bd 7d17 44be f4bf 94be
00000070: f6ab 20be 3c58 08be 0f3d 64bd 9770 143d

bn3.running_var f4 [32]
0.31077185 0.16413113 0.22960465 0.2701947 0.2031413 0.27596235 0.24208683 0.20996659
0.22247429 0.24718937 0.18843149 0.12542929 0.16036047 0.18145664 0.2879453 0.27813253
0.2166691 0.21753217 0.20686698 0.20780972 0.14404352 0.24271117 0.24026008 0.21661504
0.16268933 0.20593844 0.30773228 0.25897402 0.20368327 0.12316396 0.19011703 0.33415934
00000000: 7d1d 9f3e fe11 283e 7b1d 6b3e f656 8a3e
00000010: 4604 503e f04a 8d3e 9ce5 773e 7b01 573e
00000020: 4dd0 633e 361f 7d3e 2ff4 403e 8970 003e
00000030: 8935 243e c5cf 393e 916d 933e 6367 8e3e
00000040: 81de 5d3e c1c0 5e3e f0d4 533e 12cc 543e
00000050: 2580 133e 4789 783e bd06 763e 55d0 5d3e
00000060: 0898 263e 87e1 523e 168f 9d3e 3e98 843e
00000070: 5992 503e 633d fc3d 0aae 423e ef16 ab3e
