MELOSDP/SDP/chkpt/mc1/linear/12/sdp_classifier_linear-740.pth (torch, 77408 bytes, 25 tensors)

fc1.weight f4 [128, 38]
-0.0629135 -0.13827936 -0.0049817613 0.094626956 -0.10539873 0.17488396 -0.13825986 0.08308018
-0.046653192 -0.00705015 -0.06446307 0.15728873 -0.03608683 0.049017515 0.10390464 0.20655768
0.06724343 -0.044583037 0.15060686 0.068700545 0.05691768 0.12430269 0.12748516 0.09588183
-0.08666008 -0.14899808 0.17975758 -0.14598472 0.07452021 0.12600851 0.13026139 0.06012674
0.049223967 -0.07408682 -0.14886121 0.12029785 -0.2220749 -0.114581846 0.05077239 -0.18677445
0.06735747 -0.061435126 0.039610587 -0.1805523 -0.048489645 0.14523533 -0.07649393 -0.079473175
-0.058761466 0.027717413 0.015803428 0.13538899 0.12902848 -0.09365874 0.06388548 -0.08733236
0.036627654 -0.17107125 0.060632277 0.022364488 0.13349248 0.14723024 0.050134905 0.10334957
0.13698629 -0.14863479 -0.12770468 -0.17008542 -0.007658966 -0.16666634 -0.037934825 0.10191531
-0.03429151 -0.14600684 -0.008910239 0.13499145 0.045960534 -0.09087581 -0.18272702 0.010174251
0.10011145 -0.104741886 0.0053652446 0.052200276 -0.0263435 0.13418923 0.006047721 0.1038681
0.07357927 -0.16612154 0.040430807 0.08611582 -0.11821549 -0.08325947 -0.05346704 0.07658111
0.035250258 0.040179543 0.15592022 0.14268091 0.030406239 -0.13036676 -0.07895981 0.17674479
0.14585318 -0.0049843527 0.11184996 0.10470146 -0.12829457 -0.064932525 -0.124152765 -0.022245862
0.00083166297 0.029398523 0.041841593 0.096675225 0.06834623 0.1476505 -0.054825988 -0.08608703
0.14328688 0.12556392 0.13827567 -0.13129748 -0.06098851 -0.1317593 -0.14800803 -0.03400466
0.042838775 0.05622318 -0.010949394 0.23111334 0.120214686 0.08121793 0.10411801 -0.094300136
-0.14381868 -0.063183986 0.10590885 0.07130518 -0.09844944 0.07629103 -0.10914434 0.091506705
0.05012541 0.11565526 -0.061957426 -0.16959567 0.07216373 -0.12874864 -0.039851572 0.10336655
0.07443519 -0.035399623 -0.12036382 -0.0015725746 -0.005612828 -0.043964107 -0.011835767 0.10325708
0.051682774 0.05992584 -0.044102415 0.048204858 0.06607562 -0.009194924 -0.13147381 -0.0021318707
0.14868188 0.10164213 -0.039828196 -0.013384281 -0.08557402 0.1306048 0.104019664 0.0072610728
0.018357184 -0.13743721 0.04460995 -0.09482861 0.08366036 0.049545128 -0.0062346407 0.15670857
0.030487407 0.073125534 -0.1442019 -0.037919484 0.1413256 -0.16261321 0.0781264 0.03934935
-0.004984071 -0.028477492 0.03400549 -0.004115211 -0.13332668 -0.1851986 -0.1415853 0.13609731
0.07693738 0.09186868 -0.0023148605 0.14600968 -0.15649728 0.01842144 -0.005638233 -0.062273655
-0.11800042 0.0738077 -0.0667452 0.06731998 0.052091498 -0.029766869 0.048655752 -0.1663094
0.019307578 -0.0892031 -0.04881988 -0.0006695515 -0.16849191 0.020053916 -0.12933025 -0.18621068
-0.12958749 -0.074609466 -0.11279807 0.049145356 0.057848748 0.01745275 0.16074932 0.03121037
-0.17153193 0.090850666 0.00035798826 0.025143431 0.0072067953 0.09001003 -0.07356233 -0.1285299
-0.09899451 -0.036499232 -0.118692234 -0.002404719 0.10499129 -0.0020984157 0.11703744 -0.06139673
-0.08859564 0.1288896 -0.06695426 -0.04230067 -0.109428465 0.073259115 -0.0014356786 -0.0611025
00000000: cbd8 80bd 1b99 0dbe 0b3e a3bb c7cb c13d
00000010: 4adb d7bd c814 333e fe93 0dbe f125 aa3d
00000020: 6b17 3fbd f204 e7bb 3705 84bd 4c10 213e
00000030: c9cf 13bd 97c6 483d f5cb d43d db83 533e
00000040: ecb6 893d b49c 36bd af38 1a3e dfb2 8c3d
00000050: 8322 693d 6992 fe3d 788b 023e b15d c43d
00000060: d77a b1bd f492 18be 5f12 383e 057d 15be
00000070: 0d9e 983d 6008 013e 3e63 053e 7547 763d
00000080: 129f 493d d5ba 97bd 136f 18be b85e f63d
00000090: 9a67 63be e3a9 eabd b6f6 4f3d cd41 3fbe
000000a0: b7f2 893d 66a3 7bbd b63e 223d b4e2 38be
000000b0: 149d 46bd 92b8 143e d9a8 9cbd d5c2 a2bd
000000c0: ddaf 70bd a10f e33c 3176 813c 69a3 0a3e
000000d0: 0b20 043e 27d0 bfbd 64d6 823d 4fdb b2bd
000000e0: e106 163d 4d2d 2fbe 8d59 783d bb35 b73c
000000f0: 41b2 083e 86c3 163e 425a 4d3d f0a8 d33d
00000100: 2246 0c3e b833 18be 04c5 02be df2a 2ebe
00000110: 10f8 fabb 95aa 2abe 8c61 1bbd f9b8 d03d
00000120: 4175 0cbd d182 15be 40fc 11bc 333b 0a3e
00000130: 1d41 3c3d 191d babd cb1c 3bbe e7b1 263c
00000140: 3b07 cd3d ea82 d6bd efce af3b f5cf 553d
00000150: 53ce d7bc e768 093e f62b c63b ccb8 d43d
00000160: bab0 963d c41b 2abe c69a 253d 7e5d b03d
00000170: f61a f2bd f183 aabd 4100 5bbd 8fd6 9c3d
00000180: 9362 103d 4e93 243d 8da9 1f3e f21a 123e
00000190: 8116 f93c dd7e 05be aeb5 a1bd 96fc 343e
000001a0: 895a 153e c853 a3bb 9811 e53d b86d d63d
000001b0: a75f 03be 58fb 84bd ce43 febd f43c b6bc
000001c0: f503 5a3a 2cd5 f03c 1762 2b3d a9fd c53d
000001d0: 1cf9 8b3d b131 173e 3791 60bd 664e b0bd
000001e0: ccb9 123e d493 003e 2398 0d3e d972 06be
000001f0: 16cf 79bd e9eb 06be 6b8f 17be 7848 0bbd
00000200: b677 2f3d 474a 663d 1665 33bc faa8 6c3e
00000210: 1e33 f63d 9655 a63d d33b d53d 6e20 c1bd
00000220: 3445 13be 9b66 81bd bde6 d83d 7308 923d
00000230: dc9f c9bd 793e 9c3d 1187 dfbd de67 bb3d
00000240: 4d50 4d3d aadc ec3d 12c7 7dbd 7daa 2dbe
00000250: 94ca 933d afd6 03be 673b 23bd d7b1 d33d
00000260: 7a71 983d 32ff 10bd 4e81 f6bd d91e ceba
00000270: d0eb b7bb b513 34bd ceea 41bc 7378 d33d
00000280: 51b1 533d cc74 753d bca4 34bd 7572 453d
00000290: a852 873d 4ea6 16bc 12a1 06be dbb6 0bbb
000002a0: 1040 183e c029 d03d e422 23bd be49 5bbc
000002b0: 6f41 afbd 44bd 053e 4308 d53d 4bee ed3b
000002c0: ce61 963c 57bc 0cbe ecb8 363d 8135 c2bd
000002d0: 1f56 ab3d d5ef 4a3d f54b ccbb 3678 203e
000002e0: bac0 f93c d7c2 953d aaa9 13be 7651 1bbd
000002f0: a8b7 103e 1484 26be bc00 a03d c92c 213d
00000300: 6b51 a3bb a149 e9bc 5749 0b3d e4d8 86bb
00000310: ca86 08be b4a4 3dbe bdfb 10be 185d 0b3e
00000320: 5891 9d3d a625 bc3d eab4 17bb 9083 153e
00000330: d340 20be 8fe8 963c edc0 b8bb a912 7fbd
00000340: 34aa f1bd 7e28 973d b5b1 88bd 0fdf 893d
00000350: e55d 553d a6d9 f3bc 414b 473d 034d 2abe
00000360: ed2a 9e3c 1db0 b6bd 5bf7 47bd d784 2fba
00000370: 2589 2cbe 1c48 a43c 266f 04be 03ae 3ebe
00000380: 95b2 04be d9cc 98bd ad02 e7bd a44c 493d
00000390: cff2 6c3d 12f9 8e3c 789b 243e e4ac ff3c
000003a0: 11a6 2fbe ea0f ba3d 5fb0 bb39 99f9 cd3c
000003b0: fb26 ec3b 2e57 b83d d9a7 96bd 589d 03be
000003c0: a2bd cabd 3880 15bd ea14 f3bd 7d98 1dbb
000003d0: ac05 d73d 9385 09bb 53b1 ef3d 237b 7bbd
000003e0: a271 b5bd a3fb 033e 511f 89bd 7843 2dbd
000003f0: 081c e0bd e008 963d 612d bcba 9d46 7abd

fc1.bias f4 [128]
-0.10332906 -0.04548781 -0.024451915 0.017877579 -0.03384841 0.13197108 0.030318247 -0.15494168
0.100819424 -0.0668433 -0.06941694 -0.023643117 -0.08325791 0.10197429 -0.11725853 -0.14554846
0.11788735 -0.068274215 0.08723078 0.00426558 0.031180698 0.06598074 -0.1595763 -0.013216999
-0.028507266 0.051350664 0.14833201 -0.04283646 0.06338846 -0.1273724 0.08609764 -0.1096612
0.06906916 -0.14748754 -0.15131336 -0.13444576 -0.033726353 0.09743383 -0.11148864 -0.1245006
-0.04114216 -0.091999784 0.10684588 0.11834779 -0.0066411896 -0.057616837 -0.04299807 0.05286405
-0.08660119 -0.1337657 -0.11675079 -0.010260558 -0.123391055 0.14153358 -0.0474874 0.051438645
0.11073585 0.006972876 -0.10202293 0.14694615 0.009779008 0.046856802 -0.15333518 0.10293418
-0.13578442 -0.093522735 -0.062616736 0.025604516 0.08257075 -0.15154023 0.103214286 0.14791746
0.1538712 0.14135993 0.15304592 -0.10680451 0.11236547 0.055719804 0.04802431 -0.031013586
-0.093502454 0.051516116 -0.013787625 0.12152514 0.016994536 0.119461805 -0.07283564 -0.11101442
0.058655158 0.039308526 0.08956854 -0.069528334 0.1519016 -0.14178437 -0.10396395 -0.075657524
-0.09809894 0.013878727 0.11156185 -0.024616577 0.15243843 -0.048018157 0.0079570385 -0.09889385
0.006487346 -0.0999292 0.035267908 0.13151674 -0.103854604 0.007827848 0.15463983 -0.07956331
-0.03268526 -0.1619364 -0.15500286 -0.005579761 0.11703654 -0.104820915 0.07728607 -0.07434759
0.0252676 0.11532964 -0.02268993 0.040012754 0.0704097 0.12927137 0.054703966 -0.08807894
00000000: 309e d3bd 6d51 3abd 624f c8bc 0074 923c
00000010: a1a4 0abd 6d23 073e f95d f83c 08a9 1ebe
00000020: 6a7a ce3d 24e5 88bd 782a 8ebd 36af c1bc
00000030: 2083 aabd e6d7 d03d 3d25 f0bd a80a 15be
00000040: ec6e f13d 5ad3 8bbd 0da6 b23d 47c6 8b3b
00000050: aa6e ff3c e920 873d f867 23be 1d8c 58bc
00000060: 1288 e9bc 1355 523d 59e4 173e 4975 2fbd
00000070: cfd1 813d e96d 02be f653 b03d 0d96 e0bd
00000080: 2274 8d3d f906 17be e4f1 1abe 26ac 09be
00000090: a524 0abd 638b c73d 2854 e4bd 2cfa febd
000000a0: ae84 28bd 626a bcbd 03d2 da3d 5360 f23d
000000b0: 569e d9bb a2ff 6bbd bf1e 30bd f987 583d
000000c0: f75b b1bd e0f9 08be 0a1b efbd e61b 28bc
000000d0: 73b4 fcbd 2eee 103e 2682 42bd 54b1 523d
000000e0: 7ac9 e23d b97c e43b 66f1 d0bd 0d79 163e
000000f0: 2238 203c ebec 3f3d e603 1dbe 28cf d23d
00000100: 120b 0bbe d988 bfbd 343d 80bd 90c0 d13c
00000110: da1a a93d 5d2d 1bbe 0362 d33d ad77 173e
00000120: 6990 1d3e a8c0 103e 12b8 1c3e 53bc dabd
00000130: de1f e63d 733a 643d 24b5 443d 3410 febc
00000140: 377e bfbd 9002 533d 7ee5 61bc 2ce2 f83d
00000150: 2038 8b3c 64a8 f43d da2a 95bd 875b e3bd
00000160: 6440 703d fa01 213d b66f b73d df64 8ebd
00000170: 188c 1b3e ec2f 11be 0deb d4bd 55f2 9abd
00000180: 19e8 c8bd 9a63 633c 8a7a e43d b4a8 c9bc
00000190: d218 1c3e b0ae 44bd 3d5e 023c dc88 cabd
000001a0: cd93 d43b aea7 ccbd 1575 103d 53ac 063e
000001b0: b9b1 d4bd 6040 003c e759 1e3e 17f2 a2bd
000001c0: fbe0 05bd a8d2 25be 12b9 1ebe 6ed6 b6bb
000001d0: dab0 ef3d 59ac d6bd 2948 9e3d 8d43 98bd
000001e0: fffd ce3c f231 ec3d 3be0 b9bc 6ae4 233d
000001f0: f632 903d b75f 043e 4411 603d bb62 b4bd

bn1.weight f4 [128]
0.98382044 0.9639415 0.9894915 0.96349275 1.055876 1.0236434 1.0582733 1.0077859
1.0143394 0.97247726 0.9703495 0.94670457 1.0315074 0.99338406 0.99648017 1.1343784
0.9357627 1.3009592 0.99056464 1.0135698 1.0310693 0.91103995 1.2396606 0.98844534
1.0075781 1.0489008 1.1402943 1.0004623 1.0590742 1.075256 1.2331566 0.9431371
0.9962032 0.9910838 1.003693 1.0133564 1.0234344 0.99148315 0.99849415 1.0521343
1.3249595 0.9835267 1.0856678 1.006779 1.065198 1.0329565 1.0660442 1.0347534
0.99732774 0.9305964 1.0518991 1.102287 0.951253 1.0356729 0.9986234 1.1091452
1.1067761 0.95995337 1.0475295 0.98027104 1.1448826 0.9974982 0.9689604 1.1905148
1.2003455 1.0752985 1.0374566 0.9907473 0.9945835 1.1688575 0.9989895 0.9854384
1.0060962 0.97074527 1.1393535 0.9768958 1.1380605 0.9494284 1.032161 0.9573315
1.0207981 0.9688954 1.1091596 0.91898626 0.934733 0.9946222 1.0813897 1.2511355
0.9907901 1.1060117 0.99965096 0.9680955 0.9862285 0.91312534 1.0385089 1.1782082
1.1506473 1.052281 0.97288275 1.1294482 0.93376845 0.94424784 1.0050561 1.0440993
1.0714127 0.95981663 1.0011046 1.1335031 0.98784953 0.97209954 1.1969595 1.0107042
0.9764737 1.1495004 1.1240168 1.1244506 0.98801756 0.9822115 1.0338123 1.1231931
1.0157102 1.1274986 0.9729489 1.0429181 1.1764884 1.0043116 0.9787409 1.0100082
00000000: a8db 7b3f dfc4 763f 514f 7d3f 76a7 763f
00000010: f226 873f bf06 833f 8075 873f 21ff 803f
00000020: e0d5 813f 45f4 783f d368 783f 3b5b 723f
00000030: 6f08 843f 6b4e 7e3f 5319 7f3f 5033 913f
00000040: 258e 6f3f d585 a63f a595 7d3f a8bc 813f
00000050: 14fa 833f ea39 693f 33ad 9e3f c10a 7d3f
00000060: 52f8 803f 6242 863f 2af5 913f 260f 803f
00000070: be8f 873f fda1 893f 13d8 9d3f 6f71 713f
00000080: 2c07 7f3f abb7 7d3f 0379 803f aab5 813f
00000090: e6ff 823f d7d1 7d3f 509d 7f3f 56ac 863f
000000a0: 4698 a93f 68c8 7b3f 2af7 8a3f 22de 803f
000000b0: 6858 883f eb37 843f 2374 883f cd72 843f
000000c0: df50 7f3f 913b 6e3f a1a4 863f be17 8d3f
000000d0: 5185 733f ee90 843f c8a5 7f3f 78f8 8d3f
000000e0: d7aa 8d3f 81bf 753f 7215 863f 0bf3 7a3f
000000f0: 838b 923f 0b5c 7f3f ca0d 783f ca62 983f
00000100: eca4 993f 62a3 893f 61cb 843f 9da1 7d3f
00000110: 069d 7e3f 1f9d 953f c7bd 7f3f b145 7c3f
00000120: c3c7 803f c382 783f 56d6 913f d815 7a3f
00000130: f7ab 913f bd0d 733f da1d 843f ad13 753f
00000140: 83a9 823f 8709 783f f1f8 8d3f af42 6b3f
00000150: a94a 6f3f 8f9f 7e3f fa6a 8a3f 3525 a03f
00000160: 6ca4 7d3f cb91 8d3f 20e9 7f3f 1bd5 773f
00000170: 7979 7c3f 95c2 693f dced 843f 87cf 963f
00000180: 6948 933f 25b1 863f d80e 793f c291 903f
00000190: 730b 6f3f 3aba 713f aea5 803f 0ca5 853f
000001a0: 0d24 893f 8bb6 753f 3224 803f a116 913f
000001b0: b5e3 7c3f 84db 783f f835 993f c15e 813f
000001c0: 2efa 793f d422 933f c8df 8f3f ffed 8f3f
000001d0: b8ee 7c3f 3672 7b3f f653 843f cbc4 8f3f
000001e0: cb02 823f e051 903f 2e13 793f 577e 853f
000001f0: 2c97 963f 488d 803f c38e 7a3f f347 813f

bn1.bias f4 [128]
-0.07032249 -0.16998391 -0.08498303 -0.10734509 -0.07804499 0.0021356135 -0.0017848819 0.03581291
-0.18874556 -0.07308398 -0.036359113 -0.1698469 -0.061970323 0.050500534 -0.014090337 -0.09149355
-0.11090174 -0.07879874 -0.040177926 0.027369147 0.008208111 -0.12264278 -0.17929004 -0.03706901
-0.12852766 -0.032733873 -0.18585649 -0.07144874 -0.089189254 -0.07741155 -0.049372308 -0.14820562
-0.15899605 -0.022602525 -0.07878274 -0.03416364 -0.12695488 -0.024882661 -0.12586032 -0.02418285
-0.19293731 -0.12818736 -0.17276756 -0.15434481 -0.10073854 -0.12198654 -0.09679033 0.017993769
-0.10736146 -0.061527442 -0.149524 -0.10377955 -0.13723083 -0.14522353 -0.054861326 -0.14836682
-0.07175309 -0.06950892 -0.12622166 -0.07125807 -0.058738276 -0.087532416 -0.09722068 -0.1619355
-0.07457218 -0.13686469 -0.049251843 -0.15577497 -0.05664444 -0.20661603 -0.075705715 -0.09378157
0.015114929 -0.057269085 -0.2500786 -0.12882802 -0.1508751 -0.042502094 -0.20179647 -0.12455916
-0.0967729 -0.014722658 -0.08839194 -0.13262035 -0.114425406 -0.07544599 -0.21612506 -0.014478611
-0.04603501 -0.04631399 -0.01024833 -0.14470701 -0.12148215 -0.08240083 -0.12668224 -0.18005656
-0.091521606 -0.13369532 -0.08273585 -0.13776891 -0.070492335 -0.06734313 -0.10367948 -0.08497312
-0.08358932 -0.032381553 -0.090139806 -0.03738752 -0.09042198 -0.07238654 -0.12983552 -0.025628502
-0.1143355 0.0073332605 -0.059764076 -0.23069774 -0.054560337 -0.0758248 -0.026327312 -0.02976959
-0.14392284 -0.21377729 -0.111545846 -0.16760877 -0.1552775 -0.07908535 -0.073419176 -0.035885524
00000000: 3d05 90bd 4310 2ebe 950b aebd bed7 dbbd
00000010: 0dd6 9fbd a6f5 0b3b b3f2 e9ba 8fb0 123d
00000020: 8446 41be 0ead 95bd 4bed 14bd 59ec 2dbe
00000030: 98d4 7dbd a6d9 4e3d 28db 66bc f860 bbbd
00000040: 7420 e3bd 3c61 a1bd 9c91 24bd 4335 e03c
00000050: 507b 063c 232c fbbd cf97 37be add5 17bd
00000060: c19c 03be f413 06bd 2a51 3ebe b853 92bd
00000070: dba8 b6bd f289 9ebd 9e3a 4abd 37c3 17be
00000080: dccf 22be ee28 b9bc d858 a1bd 2cef 0bbd
00000090: 7600 02be b9d6 cbbc 87e1 00be 1d1b c6bc
000000a0: 5c91 45be 8c43 03be fbe9 30be 910c 1ebe
000000b0: 0250 cebd 14d4 f9bd 023a c6bd ab67 933c
000000c0: 53e0 dbbd 3304 7cbd d21c 19be 5f8a d4bd
000000d0: 3d86 0cbe 7ab5 14be 45b6 60bd 79ed 17be
000000e0: 49f3 92bd b15a 8ebd 4040 01be c0ef 91bd
000000f0: 8c97 70bd 3244 b3bd a31b c7bd 6bd2 25be
00000100: 4db9 98bd 4226 0cbe 4dbc 49bd 7983 1fbe
00000110: 0004 68bd 2793 53be 990b 9bbd 8d10 c0bd
00000120: 9ba4 773c fd92 6abd 4d0a 80be 7eeb 03be
00000130: 017f 1abe ad16 2ebd bca3 4ebe df18 ffbd
00000140: df30 c6bd 4e37 71bc d506 b5bd a1cd 07be
00000150: de57 eabd 6d83 9abd e34f 5dbe b237 6dbc
00000160: 358f 3cbd bdb3 3dbd 9de8 27bc 132e 14be
00000170: a2cb f8bd c4c1 a8bd fdb8 01be bf60 38be
00000180: ae6f bbbd 6de7 08be 6a71 a9bd 4b13 0dbe
00000190: 495e 90bd 32eb 89bd e855 d4bd 6306 aebd
000001a0: e130 abbd 85a2 04bd 389b b8bd a823 19bd
000001b0: 292f b9bd 653f 94bd 9af3 04be ddf2 d1bc
000001c0: bb28 eabd d94b f03b 2dcb 74bd 073c 6cbe
000001d0: a97a 5fbd 084a 9bbd 60ac d7bc 5bdf f3bc
000001e0: 8260 13be 6fe8 5abe 2672 e4bd a2a1 2bbe
000001f0: 1101 1fbe 80f7 a1bd cb5c 96bd b3fc 12bd

bn1.running_mean f4 [128]
-0.10433982 -0.046233036 -0.023624329 0.01802134 -0.03261472 0.12711006 0.030797554 -0.15649569
0.09939535 -0.06713066 -0.0700834 -0.020263761 -0.08356659 0.10232973 -0.11450834 -0.14525533
0.11834312 -0.07088934 0.08875255 0.006588177 0.029709533 0.0633314 -0.15988712 -0.012562097
-0.031033417 0.05147934 0.14764093 -0.04564254 0.06556697 -0.12942702 0.087698475 -0.10468782
0.06602721 -0.15265419 -0.14990321 -0.13699514 -0.03603417 0.09614288 -0.112989515 -0.124772586
-0.04520742 -0.090684384 0.10929032 0.116903566 -0.00942566 -0.057690524 -0.04563566 0.054722566
-0.08641437 -0.13201873 -0.12257636 -0.008490294 -0.121616445 0.13881953 -0.051335588 0.053511485
0.10511603 0.005373593 -0.10023261 0.14720485 0.010289526 0.04646888 -0.15315787 0.09902708
-0.13805033 -0.093975514 -0.06418136 0.024516642 0.08221329 -0.1493343 0.096404 0.14579877
0.15315308 0.14047918 0.15118666 -0.10767606 0.10981739 0.061701566 0.04625727 -0.025885396
-0.09117057 0.051661026 -0.012326172 0.12524861 0.016864065 0.115068875 -0.0711522 -0.11215397
0.05668471 0.03731075 0.086792395 -0.070163496 0.15474547 -0.145411 -0.10860154 -0.075197265
-0.09871293 0.01648322 0.11096532 -0.026182095 0.14934164 -0.04826122 0.008508851 -0.10062392
0.006867867 -0.09769175 0.03522983 0.12820897 -0.108254395 0.00951723 0.14924528 -0.08176809
-0.029995315 -0.16440186 -0.15150829 -0.0058976184 0.11329281 -0.10361329 0.07630718 -0.07695247
0.024728661 0.11164834 -0.023246353 0.044630516 0.07034689 0.12761074 0.05275785 -0.08891759
00000000: 1eb0 d5bd da5e 3dbd cf87 c1bc 7da1 933c
00000010: 0397 05bd 2429 023e 274b fc3c 6840 20be
00000020: ca8f cb3d cd7b 89bd e387 8fbd 3000 a6bc
00000030: f624 abbd 4092 d13d 5983 eabd d0bd 14be
00000040: e15d f23d 6e2e 91bd e6c3 b53d a2e1 d73b
00000050: 6861 f33c e5b3 813d 73b9 23be 41d1 4dbc
00000060: cb39 febc 00dc 523d 2f2f 173e acf3 3abd
00000070: fa47 863d 8488 04be 429b b33d 9166 d6bd
00000080: 4639 873d 6151 1cbe 3a80 19be 7448 0cbe
00000090: 9198 13bd 8fe6 c43d 0c67 e7bd c588 ffbd
000000a0: 6a2b 39bd bcb8 b9bd 9ad3 df3d 236b ef3d
000000b0: 156e 1abc e64c 6cbd 75ec 3abd c524 603d
000000c0: 04fa b0bd eb2f 07be 5109 fbbd e01a 0bbc
000000d0: 0b12 f9bd b526 0e3e 4445 52bd dc2e 5b3d
000000e0: 1347 d73d f714 b03b c146 cdbd debc 163e
000000f0: 6695 283c 2756 3e3d 6bd5 1cbe b6ce ca3d
00000100: 115d 0dbe 3c76 c0bd 8471 83bd 20d7 c83c
00000110: 715f a83d 17eb 18be 766f c53d 464c 153e
00000120: 29d4 1c3e c6d9 0f3e add0 1a3e 4485 dcbd
00000130: f1e7 e03d c8ba 7c3d 4378 3d3d 9c0d d4bc
00000140: a3b7 babd 839a 533d b6f3 49bc 2c41 003e
00000150: 8226 8a3c 3ba9 eb3d 3fb8 91bd fbb0 e5bd
00000160: 3a2e 683d 28d3 183d 36c0 b13d e1b1 8fbd
00000170: 9975 1e3e 9fe6 14be 7c6a debd 0601 9abd
00000180: 012a cabd d107 873c c941 e33d d57b d6bc
00000190: 04ed 183e 8fad 45bd b568 0b3c ea13 cebd
000001a0: d80b e13b 9d12 c8bd 274d 103d 3649 033e
000001b0: 7bb4 ddbd 28ee 1b3c c1d3 183e 0776 a7bd
000001c0: bcb8 f5bc f658 28be fd24 1bbe cf40 c1bb
000001d0: 1006 e83d 3433 d4bd f046 9c3d 4299 9dbd
000001e0: c393 ca3c e3a7 e43d 236f bebc 7dce 363d
000001f0: 0812 903d 64ac 023e 9e18 583d 6d1a b6bd

bn1.running_var f4 [128]
0.2753263 0.72163385 0.29933894 0.19604044 0.10297937 0.3968678 0.15047757 0.26256818
0.184579 0.37432674 0.123957716 0.65224916 0.72070956 0.06973286 0.25936025 0.22418207
0.43909532 0.11839699 0.13307716 0.25764504 0.15216926 0.27116263 0.1370802 0.3860425
0.27674872 0.112382084 0.16873868 0.18476635 0.16488504 0.064529896 0.093976 0.7594329
0.13920465 0.18701564 0.18758518 0.18939754 0.12988491 0.31154877 0.2175931 0.12003039
0.1840476 0.2040319 0.29809123 0.08058395 0.24590947 0.31449237 0.29664963 0.31522882
0.093178056 0.275057 0.56452674 0.11835695 0.9257061 0.08486359 0.4717599 0.075610265
0.42874533 0.21633084 0.190516 0.26044083 0.088713914 0.27830812 0.10648603 0.1457545
0.43268374 0.31832865 0.22482868 0.10241334 0.13829689 0.13203984 0.1639602 0.28877348
0.32338506 0.25417677 0.19096254 0.18347265 0.10114707 0.666731 0.11338889 0.17917961
0.20938195 0.22497697 0.24597068 0.16459274 0.14901185 0.24274908 0.13666058 0.1411288
0.24125849 0.35511455 0.16201754 0.17288525 0.44896957 0.23553409 0.18305284 0.12898284
0.061151564 0.09570759 0.18168266 0.1658366 0.16290614 0.7819022 0.18610762 0.11768615
0.16966547 0.4330186 0.093996696 0.13603182 0.38136554 0.20089594 0.15222982 0.3170833
0.34606028 0.25190434 0.17359307 0.41725394 0.12023573 0.1798593 0.122592494 0.08311851
0.11153356 0.42892396 0.14396401 0.25262365 0.05939426 0.2088544 0.28157324 0.2882368
00000000: 92f7 8c3e ffbc 383f f442 993e d3be 483e
00000010: d9e6 d23d 4232 cb3e cb16 1a3e 566f 863e
00000020: 4702 3d3e c1a7 bf3e 8bdd fd3d cdf9 263f
00000030: 6c80 383f 1ad0 8e3d deca 843e fc8f 653e
00000040: 1ad1 e03e 1f7a f23d 6145 083e 0dea 833e
00000050: 42d2 1b3e d4d5 8a3e c05e 0c3e 5da7 c53e
00000060: 02b2 8d3e 9428 e63d d5c9 2c3e 6433 3d3e
00000070: a0d7 283e 4028 843d 7d76 c03d 326a 423f
00000080: aa8b 0e3e 0781 3f3e 5416 403e 6ef1 413e
00000090: 8d00 053e 5283 9f3e bad0 5e3e 7ed2 f53d
000000a0: f976 3c3e bded 503e 6a9f 983e 3309 a53d
000000b0: b1cf 7b3e 2505 a13e 76e2 973e ac65 a13e
000000c0: 23d4 be3d 45d4 8c3e d384 103f 2165 f23d
000000d0: 13fb 6c3f f6cc ad3d 838a f13e 8ed9 9a3d
000000e0: 8284 db3e d585 5d3e a016 433e 8058 853e
000000f0: a4af b53d 677e 8e3e 5915 da3d ab40 153e
00000100: b988 dd3e f9fb a23e 7d39 663e 16be d13d
00000110: b39d 0d3e 7435 073e 2fe5 273e 1eda 933e
00000120: ba92 a53e 7523 823e af8b 433e 41e0 3b3e
00000130: 3226 cf3d e2ae 2a3f 6f38 e83d dc7a 373e
00000140: 3968 563e 5d60 663e bddf 7b3e 008b 283e
00000150: 9096 183e 3793 783e c0f0 0b3e 1184 103e
00000160: 770c 773e 93d1 b53e ede7 253e d508 313e
00000170: 57df e53e d92f 713e 3472 3b3e 1414 043e
00000180: 107a 7a3d 5702 c43d 050b 3a3e 12d1 293e
00000190: ded0 263e be2a 483f ff92 3e3e 7005 f13d
000001a0: c9bc 2d3e 9db4 dd3e 5781 c03d ed4b 0b3e
000001b0: 5842 c33e aab7 4d3e 22e2 1b3e be58 a23e
000001c0: d02e b13e 9bf9 803e 62c2 313e 4fa2 d53e
000001d0: 273e f63d 092d 383e c611 fb3d 0a3a aa3d
000001e0: b56b e43d ec9b db3e 4d6b 133e e357 813e
000001f0: 6547 733d eedd 553e 5e2a 903e c693 933e

fc2.weight f4 [64, 128]
-0.05884279 -0.019712484 0.043488454 0.07760618 0.07068619 0.008672972 -0.042428564 -0.077841245
0.05122202 0.06339631 -0.019699749 -0.01954061 0.031554826 0.00926184 0.052493066 -0.046774346
0.027251102 0.029955084 -0.064517856 -0.046684813 -0.03945815 0.045317177 -0.033126663 -0.018292924
0.07197972 0.0055063413 0.016544778 0.0671313 0.025350409 0.06208221 -0.07685905 -0.044611204
-0.07255857 0.033122096 0.062979534 -0.04232757 0.03326128 0.051865105 0.07834523 -0.067192934
-0.03222821 -0.07787932 0.09218899 -0.06185418 0.0362612 -0.04576029 0.090764254 -0.06486458
0.01674992 0.011649345 -0.0071025137 0.07093134 0.0500176 -0.04796655 0.103532106 -0.043352216
-0.04936165 -0.07603887 0.027071318 0.09579105 -0.065638125 0.09407961 -0.009400742 -0.039840396
0.07101254 -0.009003652 0.048610363 0.010301254 -0.06950318 -0.036838774 0.004632021 -0.0020231016
0.06562293 -0.029967034 0.022363264 0.02284677 -0.02682129 0.009126728 -0.06715781 -0.076268524
-0.023415174 -0.07097756 0.015246331 -0.057930242 -0.018954769 -0.055541724 -0.039688036 -0.05424244
-0.009708247 0.0065775923 0.02222722 0.010054838 0.00986024 0.0014541862 0.012461852 0.02876985
-0.10006404 -0.022764249 -0.015602114 -0.023034703 0.011175689 0.022381382 -0.014956791 0.062228136
0.009533058 -0.08315822 -0.03132674 -0.032904334 0.057930633 -0.10239739 0.052651294 0.012987441
-0.059819378 -0.02955164 0.08580622 0.122425854 0.04610245 -0.06920474 0.049403813 0.033751488
-0.06144414 -0.052923273 0.0051912274 0.013582768 0.03752234 2.7090635e-05 -0.0033843897 -0.11577416
0.08086608 0.020545663 0.09095475 0.0010029763 -0.014359731 -0.06622528 -0.10931429 -0.115715675
0.024516242 0.020104984 0.04298731 -0.01013891 -0.0033047663 -0.015152004 -0.018068157 -0.11168618
-0.006831966 -0.010140646 -0.022184493 -0.024136951 0.17279993 -0.029824948 0.03933245 0.044250786
0.037312187 0.0043513468 0.031466782 0.10690931 -0.073089726 0.02893878 0.03614756 0.026227353
-0.057731453 0.11005659 -0.070475966 0.057103507 -0.04778793 -0.029426396 0.09143825 -0.051210843
0.04857738 -0.08554979 0.02712712 0.06907802 -0.097377054 -0.06922094 -0.028472442 -0.07017147
-0.0072002467 -0.08264681 0.11666574 -0.022149129 0.037446205 -0.06179826 -0.042250343 -0.02028189
0.07612254 0.03481321 -0.027517851 -0.03820004 -0.04170447 -0.008358356 0.032036815 -0.013357056
-0.0033013714 0.039318014 0.07460193 0.050237674 -0.104356125 0.0012223911 -0.047356993 0.01631167
0.008058804 -0.040882614 0.026747184 -0.009010063 -0.08386198 0.046909045 -0.07114535 0.00065623113
-0.10386738 -0.03909488 -0.018848492 -0.088958524 -0.09277486 -0.057027638 -0.101749875 -0.08992549
0.07112364 -0.02291806 0.06919862 0.06291873 0.0050863842 0.028932508 0.005023611 0.0104979845
-8.386439e-06 0.019481923 0.045127943 0.029997598 0.056131475 -0.09836725 -0.020985113 0.06870221
-0.10842183 -0.008174612 0.033645343 -0.0032024232 0.05256702 -0.059986815 -0.09101678 0.07292901
0.057121854 0.022807464 0.0030075125 0.098962 -0.022291016 0.05518225 0.03015659 -0.010152114
0.07253006 0.086164355 0.06185276 -0.06628074 -0.045131378 0.008748091 0.09174441 -0.10143325
00000000: 2305 71bd 137c a1bc f320 323d fdef 9e3d
00000010: ecc3 903d 1519 0e3c 93c9 2dbd 3b6b 9fbd
00000020: 2ece 513d edd5 813d 5e61 a1bc a113 a0bc
00000030: a23f 013d f9be 173c f802 573d 7596 3fbd
00000040: b43d df3c 5d64 f53c f021 84bd 9338 3fbd
00000050: de9e 21bd 819e 393d d3af 07bd 0bdb 95bc
00000060: 1a6a 933d 8a6e b43b ea88 873c 237c 893d
00000070: a9ab cf3c ea49 7e3d 4768 9dbd 3dba 36bd
00000080: 9699 94bd 09ab 073d 6afb 803d ad5f 2dbd
00000090: fb3c 083d 8170 543d 7773 a03d 739c 89bd
000000a0: ba01 04bd 317f 9fbd 95cd bc3d cf5a 7dbd
000000b0: a086 143d 246f 3bbd 9ce2 b93d b9d7 84bd
000000c0: 2137 893c e5dc 3e3c 34bc e8bb 7344 913d
000000d0: 41df 4c3d 9378 44bd a408 d43d 1892 31bd
000000e0: 712f 4abd 44ba 9bbd abc4 dd3c 192e c43d
000000f0: 486d 86bd d0ac c03d 9205 1abc af2f 23bd
00000100: 066f 913d 0e84 13bc a91b 473d 97c6 283c
00000110: af57 8ebd 41e4 16bd 35c8 973b 0396 04bb
00000120: 5165 863d 6d7d f5bc 2a33 b73c 2629 bb3c
00000130: 52b8 dbbc 4688 153c 098a 89bd ac32 9cbd
00000140: 2ed1 bfbc af5c 91bd bfcb 793c 4348 6dbd
00000150: 0847 9bbc b87f 63bd ec8f 22bd 522d 5ebd
00000160: 570f 1fbc d888 d73b dc15 b63c 0cbd 243c
00000170: d88c 213c 649a be3a cc2c 4c3c c0ae eb3c
00000180: 60ee ccbd 177c babc 02a0 7fbc 46b3 bcbc
00000190: 3d1a 373c 2959 b73c 540d 75bc eee2 7e3d
000001a0: 8b30 1c3c db4e aabd 7850 00bd b2c6 06bd
000001b0: ac48 6d3d b9b5 d1bd e2a8 573d 47c9 543c
000001c0: 2a05 75bd 4816 f2bc 2cbb af3d 68ba fa3d
000001d0: ecd5 3c3d 37bb 8dbd a75b 4a3d 003f 0a3d
000001e0: daac 7bbd 13c6 58bd 2c1b aa3b 428a 5e3c
000001f0: 06b1 193d b240 e337 a3cc 5dbb 011b edbd
00000200: 1e9d a53d 614f a83c 7c46 ba3d 4d76 833a
00000210: 1445 6bbc 1fa1 87bd 2ce0 dfbd 57fc ecbd
00000220: 49d6 c83c 35b3 a43c 7613 303d ac1d 26bc
00000230: c794 58bb 1c40 78bc ac03 94bc b9bb e4bd
00000240: afde dfbb f424 26bc 41bc b5bc dbba c5bc
00000250: 77f2 303e 7353 f4bc 101b 213d 5040 353d
00000260: aad4 183d be95 8e3b 50e3 003d 45f3 da3d
00000270: 11b0 95bd 0511 ed3c 770f 143d bfda d63c
00000280: d177 6cbd 5965 e13d b455 90bd 5ee5 693d
00000290: 47bd 43bd a00f f1bc fa43 bb3d 76c2 51bd
000002a0: 13f9 463d ba34 afbd b239 de3c c778 8d3d
000002b0: 9f6d c7bd b5c3 8dbd 0a3f e9bc 0fb6 8fbd
000002c0: 0cf0 ebbb bb42 a9bd 73ee ee3d 1772 b5bc
000002d0: 3161 193d 2c20 7dbd b20e 2dbd 3526 a6bc
000002e0: 22e6 9b3d 4c98 0e3d 1e6d e1bc a577 1cbd
000002f0: 4ed2 2abd 7cf1 08bc 0939 033d 8ed7 5abc
00000300: d25b 58bb ed0b 213d e6c8 983d 05c6 4d3d
00000310: aab8 d5bd a438 a03a 68f9 41bd 0da0 853c
00000320: 1309 043c 8774 27bd e91c db3c f19e 13bc
00000330: d4bf abbd b323 403d a7b4 91bd ed06 2c3a
00000340: 6cb8 d4bd f421 20bd 2768 9abc e32f b6bd
00000350: bf00 bebd d095 69bd 3d62 d0bd db2a b8bd
00000360: 45a9 913d a8be bbbc 02b8 8d3d 89db 803d
00000370: afab a63b de03 ed3c 1a9d a43b bdff 2b3c
00000380: 7bb3 0cb7 8e98 9f3c 14d8 383d 86bd f53c
00000390: 1eea 653d c574 c9bd f9e8 abbc bfb3 8c3d
000003a0: 440c debd cfee 05bc b3cf 093d bfdf 51bb
000003b0: 8450 573d bcb4 75bd 0167 babd ce5b 953d
000003c0: 9bf8 693d b8d6 ba3c b019 453b 97ac ca3d
000003d0: a69b b6bc c806 623d f40a f73c 0d55 26bc
000003e0: a48a 943d f076 b03d 5259 7d3d 32be 87bd
000003f0: aedb 38bd 2754 0f3c 7ee4 bb3d 3cbc cfbd

fc2.bias f4 [64]
0.04323672 -0.011657197 0.008774766 -0.08216978 -0.008226296 0.01431076 0.054369934 -0.06701123
0.0111603895 -0.0016386199 0.070479676 -0.027811715 0.0592599 0.052890953 -0.07701928 0.03082609
-0.04570479 0.029848926 -0.009642504 0.040877286 0.014074505 0.0010418382 0.06290642 0.007218266
-0.0125622 0.061781637 -0.082223676 -0.0355617 -0.033312682 -0.031836566 -0.03708278 -0.015545669
0.044450674 0.045405295 0.020811668 0.03947022 -0.08584295 -0.050544456 -0.008776041 0.01763655
-0.060296126 0.05482704 0.021647038 -0.049938083 0.06938874 -0.08369339 -0.04162255 -0.01644685
-0.06637521 0.008375346 -0.025285438 -0.015389311 0.01879487 -0.027184173 -0.03212705 -0.053652108
0.013486388 0.036487654 0.022094559 -0.01746735 -0.003926288 -0.08272243 -0.03833704 0.021761565
00000000: fd18 313d d4fd 3ebc 09c4 0f3c a148 a8bd
00000010: 96c7 06bc ae77 6a3c 02b3 5e3d 2f3d 89bd
00000020: 11da 363c f6c6 d6ba a657 903d 65d5 e3bc
00000030: 82ba 723d 2fa4 583d 49bc 9dbd ff86 fc3c
00000040: f234 3bbd bc85 f43c 98fb 1dbc f16e 273d
00000050: c198 663c 4a8e 883a 15d5 803d 3487 ec3b
00000060: b0d1 4dbc be0e 7d3d e364 a8bd 25a9 11bd
00000070: e172 08bd 0f67 02bd 1de4 17bd 43b3 7ebc
00000080: e911 363d e7fa 393d 3b7d aa3c 87ab 213d
00000090: 6ece afbd b407 4fbd 62c9 0fbc 877a 903c
000000a0: 12f9 76bd 5192 603d 2155 b13c e08b 4cbd
000000b0: af1b 8e3d 7167 abbd 687c 2abd 8bbb 86bc
000000c0: baef 87bd bf38 093c 6823 cfbc 7323 7cbc
000000d0: b3f7 993c 58b1 debc a797 03bd 50c2 5bbd
000000e0: 03f6 5c3c 1474 153d a6ff b43c b017 8fbc
000000f0: 17a8 80bb 616a a9bd 4d07 1dbd 4f45 b23c

bn2.weight f4 [64]
1.0326376 0.9767037 0.99943614 0.91641253 1.0850677 1.210927 1.1523654 0.99668187
1.0884564 1.0171298 1.0291592 1.0174979 0.98068154 1.084765 0.958705 0.9819743
1.0487484 0.93911296 1.0030977 0.9733841 0.9924281 0.9890486 1.0747607 1.1008866
1.0378814 1.0230596 0.98614854 1.1371201 0.9936553 1.0151525 1.0465779 1.0355092
0.9895671 1.0711873 0.9726706 1.1032674 0.99079627 1.0047309 1.0019389 0.9878039
1.3176581 1.1686572 1.0019352 0.9372979 0.9648133 1.0054473 1.0116552 0.996361
0.9126234 0.9748108 0.9804898 0.99162257 1.186326 1.1258593 1.043256 0.9586448
1.0477029 0.95873034 0.9720948 1.095629 0.9564355 0.93640447 1.0163339 1.007492
00000000: 782d 843f 4109 7a3f 0cdb 7f3f 039a 6a3f
00000010: 80e3 8a3f a8ff 9a3f b680 933f 8b26 7f3f
00000020: 8a52 8b3f 4f31 823f 7dbb 833f 5f3d 823f
00000030: f20d 7b3f 94d9 8a3f b16d 753f ab62 7b3f
00000040: 633d 863f b569 703f 8165 803f b32f 793f
00000050: c50f 7e3f 4a32 7d3f c291 893f dae9 8c3f
00000060: 4cd9 843f 9ef3 823f 3b74 7c3f 278d 913f
00000070: 3260 7e3f 84f0 813f 44f6 853f 918b 843f
00000080: 4554 7d3f aa1c 893f f100 793f de37 8d3f
00000090: d3a4 7d3f 069b 803f 893f 803f b7e0 7c3f
000000a0: 05a9 a83f 8f96 953f 6a3f 803f c1f2 6f3f
000000b0: 01fe 763f 7fb2 803f eb7d 813f 8411 7f3f
000000c0: b0a1 693f 338d 793f 6101 7b3f fada 7d3f
000000d0: 88d9 973f 281c 903f 6a89 853f bf69 753f
000000e0: 211b 863f 5a6f 753f 34db 783f 923d 8c3f
000000f0: f5d8 743f 34b8 6f3f 3b17 823f 7ff5 803f

bn2.bias f4 [64]
-0.021913888 -0.109671935 -0.11934845 0.00029540842 -0.01657865 -0.0935792 0.081124336 0.04601157
0.042790245 -0.3436404 -0.03163045 -0.09151364 -0.13591655 -0.062474526 -0.16679563 0.054348662
0.07724658 -0.06350241 -0.015186035 -0.091368884 -0.2527934 -0.20976539 0.009918775 0.081379056
0.051090155 0.08564544 -0.05223234 0.12172066 -0.04456979 -0.044496015 0.023775462 -0.018331872
-0.33629012 0.01652473 -0.04187107 0.057877693 0.015988976 -0.40060064 0.049640767 -0.025916774
-0.04371738 0.11672098 0.053359605 -0.10637026 0.00022734322 -0.12038747 -0.11274595 -0.0052193655
-0.117399246 0.0011871038 -0.047278184 -0.08402136 0.10313185 0.018073691 0.059908073 -0.33693242
0.007393699 -0.010525834 -0.06692657 0.059285246 -0.017728653 -0.14782576 0.055539746 0.06669977
00000000: c184 b3bc ae9b e0bd f66c f4bd 0ce1 9a39
00000010: f3cf 87bc 74a6 bfbd 8424 a63d a176 3c3d
00000020: d344 2f3d a2f1 afbe ee8e 01bd 816b bbbd
00000030: b52d 0bbe 4ae5 7fbd 79cc 2abe b49c 5e3d
00000040: 7433 9e3d 8d0d 82bd d9ce 78bc 9c1f bbbd
00000050: 236e 81be bdcc 56be 5c82 223c 10aa a63d
00000060: e943 513d e066 af3d 94f1 55bd ae48 f93d
00000070: d08e 36bd 7441 36bd c2c4 c23c b92c 96bc
00000080: 382e acbe df5e 873c 0081 2bbd 2911 6d3d
00000090: 50fb 823c 871b cdbe 1e54 4b3d 6a4f d4bc
000000a0: ff10 33bd 690b ef3d 9a8f 5a3d a7d8 d9bd
000000b0: fb62 6e39 b58d f6bd 59e7 e6bd 3607 abbb
000000c0: 046f f0bd 9898 9b3a c5a6 41bd 6413 acbd
000000d0: cb36 d33d 470f 943c 2b62 753d 6882 acbe
000000e0: d846 f23b 8c74 2cbc cc10 89bd 16d5 723d
000000f0: ae3b 91bc a35f 17be a57d 633d e499 883d

bn2.running_mean f4 [64]
-0.009236709 -0.11768755 0.067095466 0.11878628 -0.7144218 -0.55650043 -0.069087215 -0.08097899
-0.30566943 -0.27506083 -0.046809874 -0.045604825 -0.08764089 -0.36317417 -0.12040453 -0.27718022
-0.13847835 -0.048442654 -0.27195045 -0.36247042 -0.4165882 -0.035784084 -0.40823045 -0.05774009
0.058437325 -0.30011457 -0.10680221 -0.43516225 -0.19324438 -0.07987725 -0.24072649 -0.19458862
-0.025682846 -0.3050414 -0.20725764 -0.16316226 -0.2011023 -0.33434677 -0.17993726 0.061897047
-0.74948174 -0.4287776 -0.012637204 0.052376702 -0.14841509 -0.25155088 -0.4890006 0.06400208
0.043647025 -0.02117402 -0.29104343 0.26741517 -0.2236959 -0.37248802 -0.08021856 -0.09888198
-0.24775891 0.10722526 -0.15541123 -0.014360329 -0.06422763 -0.21891111 0.020972306 0.05094448
00000000: 9155 17bc 2c06 f1bd 5969 893d 3946 f33d
00000010: 59e4 36bf d076 0ebf 997d 8dbd 50d8 a5bd
00000020: b480 9cbe c6d4 8cbe b6bb 3fbd 20cc 3abd
00000030: 117d b3bd f7f1 b9be a696 f6bd 91ea 8dbe
00000040: 45cd 0dbe ce6b 46bd 173d 8bbe b995 b9be
00000050: 0c4b d5be 5592 12bd 9503 d1be df80 6cbd
00000060: fa5b 6f3d 9ea8 99be 1ebb dabd 96cd debe
00000070: dbe1 45be af96 a3bd 0181 76be 3d42 47be
00000080: d564 d2bc 632e 9cbe 593b 54be 0214 27be
00000090: c3ed 4dbe 802f abbe 7941 38be c287 7d3d
000000a0: 09de 3fbf bd88 dbbe 460c 4fbc f488 563d
000000b0: 20fa 17be 47cb 80be 495e fabe 8613 833d
000000c0: 39c7 323d 2375 adbc a503 95be a4ea 883e
000000d0: 8a10 65be c0b6 bebe a149 a4bd a382 cabd
000000e0: 83b4 7dbe eb98 db3d 1f24 1fbe 9647 6bbc
000000f0: c789 83bd 3c2a 60be 1dce ab3c 29ab 503d

bn2.running_var f4 [64]
0.6808772 0.7429333 1.0607631 0.7224302 0.57517326 0.6944457 1.2265185 0.45603457
0.7955071 0.22443874 0.62565434 0.8416947 0.42389166 0.5289177 0.25878662 0.64976674
0.34620342 0.6721067 0.43050042 0.5878493 0.24734344 0.40598089 0.7266514 0.9665294
0.49237928 0.6716758 0.29314396 0.5224046 0.40375355 0.39308938 0.6351819 0.7931802
0.26940107 0.5673478 0.39537984 0.85976523 0.64872926 0.23984079 0.4512898 0.4961299
0.5372124 0.7172175 0.6682286 0.6073888 0.4051088 0.3575681 0.28669554 0.4949203
0.31659088 0.5386878 0.43717474 0.65260035 0.8448007 0.6057623 0.58837783 0.23162879
0.66699344 0.42225102 0.43909007 0.7070504 0.4127142 0.29978245 0.8385238 0.45562756
00000000: f84d 2e3f e030 3e3f 16c7 873f 30f1 383f
00000010: 8e3e 133f 32c7 313f 8ffe 9c3f 5d7d e93e
00000020: 5aa6 4b3f 45d3 653e e22a 203f 4e79 573f
00000030: 5408 d93e 2667 073f ae7f 843e 1d57 263f
00000040: 9341 b13e 2f0f 2c3f 8d6a dc3e 4b7d 163f
00000050: 9947 7d3e badc cf3e d305 3a3f 796e 773f
00000060: 2319 fc3e f2f2 2b3f f716 963e 4fbc 053f
00000070: c9b8 ce3e 0343 c93e 489b 223f dc0d 4b3f
00000080: f0ee 893e b53d 113f 3a6f ca3e 9319 5c3f
00000090: 1f13 263f d398 753e 750f e73e bd04 fe3e
000000a0: c086 093f 919b 373f 0811 2b3f d57d 1b3f
000000b0: 6c6a cf3e 2a13 b73e c2c9 923e 3266 fd3e
000000c0: 3318 a23e 72e7 093f 5ed5 df3e d110 273f
000000d0: dc44 583f 3d13 1b3f ee9f 163f 1930 6d3e
000000e0: 15c0 2a3f 4931 d83e 6ad0 e03e 4101 353f
000000f0: 474f d33e 167d 993e 7fa9 563f 0448 e93e

fc3.weight f4 [32, 64]
0.098077215 -0.072966844 0.05663646 -0.07834875 0.1345044 0.052161127 -0.08082278 -0.046417315
0.075837426 0.052750077 0.040054366 0.06022801 0.10155453 0.03241712 0.032594576 -0.03527248
-0.2408999 -0.109524764 0.13562843 -0.10763797 0.15776828 -0.052166365 0.03179217 -0.09253067
-0.09999163 0.083781056 -0.053821377 0.027501546 -0.12798485 -0.08936447 0.0889723 0.09457899
0.0090906145 -0.0012543848 0.094631724 0.08458811 -0.07992087 0.06071944 0.017369984 -0.08483003
-0.064502485 0.034256253 -0.05039151 -0.03410562 -0.0739965 -0.045675438 -0.037457824 -0.11032852
-0.12197111 0.08580227 -0.16588004 0.017452503 -0.07295783 0.054633904 -0.1491121 0.09466148
-0.08402984 -0.10156744 -0.078638315 0.031541165 -0.11265052 -0.11715519 0.032682307 -0.056732114
-0.10019997 -0.025471417 -0.06524405 -0.066523485 -0.028127173 -0.07558651 -0.10090608 0.115346156
-0.0644563 0.10674354 -0.10004465 -0.08533629 -0.013418913 -0.12557444 -0.06545105 -0.13456346
0.041069705 -0.07690251 -0.099615335 -0.11364299 -0.072695926 -0.062148314 -0.043497447 -0.09977257
-0.07812569 -0.057500195 -0.055413134 -0.16062076 -0.054774337 -0.11733457 -0.04407682 0.038650546
0.08824307 -0.10474423 0.02066973 -0.007855685 -0.12575164 -0.02829326 0.08320182 0.015849693
-0.21874788 -0.0643493 -0.13042478 0.11583614 0.012772672 -0.0189161 0.06790512 -0.025478514
0.08235412 0.029233854 0.033433836 -0.11588447 -0.11855692 -0.1389663 -0.054471314 -0.033970386
0.032597426 -0.06287637 0.00388384 -0.11027271 0.062023763 0.052664913 -0.15582344 0.10541805
0.11889401 0.08585614 0.07005457 -0.041157678 0.02409338 -0.049484592 -0.06833833 0.073242284
-0.028222557 0.019652005 -0.10063727 -0.047356226 0.14542542 0.00274336 -0.112477586 0.04038647
-0.088338904 0.06811658 0.03796859 -0.0029180227 0.09596564 0.16322696 0.004827917 0.06415605
-0.0042892024 0.046509545 0.0032119176 -0.10377733 0.08795204 0.09304511 -0.011039872 -5.7948942e-05
-0.13249955 -0.06928993 0.04321288 -0.075875476 0.03060806 -0.055765714 0.06405784 0.046851195
-0.08520454 0.07451035 0.10297217 -0.08782555 -0.014380434 -0.06422683 -0.008389814 -0.15053558
0.04518697 0.07987269 -0.04694866 -0.04464142 -0.0068621514 -0.053899042 -0.119476214 -0.05965277
0.06313577 0.10014411 0.029803446 -0.04865651 0.091316596 0.004901613 -0.075804986 0.096403934
0.06167736 -0.057114664 0.0015472936 -0.066100396 -0.021256885 -0.016445087 -0.004640028 -0.19960825
-0.037260484 0.06165747 0.0716757 -0.103618644 -0.0733151 -0.05638703 0.047515668 -0.0057032784
-0.12485952 0.054749675 -0.04322914 0.08892119 -0.10111816 -0.13347083 0.06684652 -0.021473713
-0.029341003 0.028860236 -0.08879952 -0.028373042 -0.02841947 0.062311687 -0.011326654 0.07615669
-0.06474548 0.030216876 0.05813659 0.009756134 0.07927719 -0.033298623 -0.17073363 0.037869193
0.021127041 -0.045089398 -0.02167069 -0.042488426 0.008795957 -0.07399785 -0.07671333 -0.18048562
-0.021696948 0.019419588 -0.14327991 -0.1579473 -0.04709857 -0.03808997 -0.03178854 -0.091750704
0.032846704 -0.02850792 0.089481376 -0.050835945 -0.13804469 0.052847676 0.06392989 -0.15304968
00000000: b5dc c83d a46f 95bd a2fb 673d 4f75 a0bd
00000010: 85bb 093e e8a6 553d 6a86 a5bd 1520 3ebd
00000020: a750 9b3d 7710 583d 0c10 243d a5b1 763d
00000030: d2fb cf3d d0c7 043d e481 053d e079 10bd
00000040: 77ae 76be 854e e0bd 2ee2 0a3e 4c71 dcbd
00000050: 028e 213e 66ac 55bd 8238 023d b880 bdbd
00000060: 69c8 ccbd 6795 ab3d ce73 5cbd ec4a e13c
00000070: 760e 03be b804 b7bd 1c37 b63d a1b2 c13d
00000080: cdf0 143c 2b6a a4ba 47ce c13d 883c ad3d
00000090: 8ead a3bd f3b4 783d 7f4b 8e3c 5ebb adbd
000000a0: e119 84bd 4950 0c3d 5467 4ebd 56b2 0bbd
000000b0: 7a8b 97bd 2b16 3bbd 606d 19bd ebf3 e1bd
000000c0: fdcb f9bd 1ab9 af3d 75dc 29be 8df8 8e3c
000000d0: ea6a 95bd cdc7 5f3d d8b0 18be e1dd c13d
000000e0: d617 acbd 9702 d0bd 200d a1bd 4f31 013d
000000f0: 51b5 e6bd 0fef efbd e2dd 053d ef5f 68bd
00000100: a435 cdbd 6fa9 d0bc ac9e 85bd 773d 88bd
00000110: f56a e6bc 1acd 9abd d9a7 cebd 9b3a ec3d
00000120: aa01 84bd 5b9c da3d 36e4 ccbd cbc4 aebd
00000130: 00db 5bbc 9696 00be 330b 86bd 01cb 09be
00000140: b538 283d 107f 9dbd 2003 ccbd a8bd e8bd
00000150: 9ae1 94bd 3b8f 7ebd 612a 32bd 9055 ccbd
00000160: 5d00 a0bd 5385 6bbd e2f8 62bd c579 24be
00000170: 0e5b 60bd 1b4d f0bd e589 34bd 0950 1e3d
00000180: c8b8 b43d 2584 d6bd 9153 a93c 22b5 00bc
00000190: 0ac5 00be 44c7 e7bc b765 aa3d 37d7 813c
000001a0: 72ff 5fbe 91c9 83bd 138e 05be 803b ed3d
000001b0: 7844 513c f0f5 9abc d711 8b3d 51b8 d0bc
000001c0: 47a9 a83d d67b ef3c ebf1 083d d654 edbd
000001d0: f8cd f2bd 2f4d 0ebe 501d 5fbd 8824 0bbd
000001e0: e184 053d 54c5 80bd 0688 7e3b a9d6 e1bd
000001f0: a10c 7e3d 2ab7 573d 2e90 1fbe 6be5 d73d
00000200: b47e f33d 58d5 af3d c578 8f3d f494 28bd
00000210: 7b5f c53c 5bb0 4abd f7f4 8bbd 0d00 963d
00000220: fe32 e7bc 3efd a03c ea1a cebd 9af8 41bd
00000230: 67ea 143e f1c9 333b a65a e6bd 486c 253d
00000240: 07eb b4bd b580 8b3d f484 1b3d 4c3c 3fbb
00000250: a289 c43d f824 273e 8133 9e3b 3f64 833d
00000260: 708c 8cbb cb80 3e3d 097f 523b 3589 d4bd
00000270: 3320 b43d 6f8e be3d 94e0 34bc 340e 73b8
00000280: f6ad 07be e1e7 8dbd fdff 303d 9a64 9bbd
00000290: c1bd fa3c 976a 64bd c230 833d 0ae7 3f3d
000002a0: b87f aebd e298 983d 13e3 d23d e2dd b3bd
000002b0: e99b 6bbc 5b89 83bd 6e75 09bc 0026 1abe
000002c0: f915 393d 4b94 a33d 3d4d 40bd ecd9 36bd
000002d0: e6db e0bb 3ec5 5cbd f2af f4bd 7756 74bd
000002e0: 544d 813d 5b18 cd3d 5b26 f43c 0c4c 47bd
000002f0: 3204 bb3d b69d a03b a53f 9bbd 6d6f c53d
00000300: 66a1 7c3d 11f1 69bd 8fce ca3a a55f 87bd
00000310: eb22 aebc d9b7 86bc 600b 98bb 1b66 4cbe
00000320: 739e 18bd 8b8c 7c3d b6ca 923d 0336 d4bd
00000330: 3a26 96bd 16f6 66bd ca9f 423d 91e2 babb
00000340: 59b6 ffbd 3241 603d 0a11 31bd 501c b63d
00000350: 0a17 cfbd 94ac 08be d4e6 883d a4e9 afbc
00000360: 8b5c f0bc 4d6c ec3c 86dc b5bd 956e e8bc
00000370: f3cf e8bc 8a3a 7f3d 6e93 39bc 0af8 9b3d
00000380: 4799 84bd 6289 f73c a220 6e3d 31d8 1f3c
00000390: 145c a23d 2364 08bd ccd4 2ebe ba1c 1b3d
000003a0: 9e12 ad3c a9af 38bd bb86 b1bc 5808 2ebd
000003b0: eb1c 103c 2f8c 97bd e11b 9dbd 39d1 38be
000003c0: ccbd b1bc d415 9f3c f8b7 12be f0bc 21be
000003d0: 6eea 40bd 3a04 1cbd b334 02bd cbe7 bbbd
000003e0: 448a 063d 7189 e9bc 0342 b73d 5a39 50bd
000003f0: 965b 0dbe ce76 583d aded 823d 0eb9 1cbe

fc3.bias f4 [32]
-0.11259103 -0.059535954 0.08902844 -0.09880875 -0.09405622 0.041769583 0.08284187 0.018677358
-0.07603447 -0.024264164 0.037909552 -0.1046976 -0.023010572 0.06976856 -0.003288818 -0.05019828
-0.08223472 0.088991284 -0.058350705 0.086763404 -0.095932335 0.019819845 -0.065325275 -0.009449257
-0.122320406 -0.074616276 0.016014636 -0.09815053 0.050121844 -0.06526763 -0.095164195 0.094922416
00000000: 2096 e6bd f9db 73bd 8b54 b63d 3e5c cabd
00000010: 8ca0 c0bd 9516 2b3d 00a9 a93d 4201 993c
00000020: f6b7 9bbd a4c5 c6bc 0c47 1b3d b26b d6bd
00000030: ab80 bcbc d2e2 8e3d 3689 57bb b69c 4dbd
00000040: ad6a a8bd 1041 b63d 2601 6fbd 03b1 b13d
00000050: 2c78 c4bd 3a5d a23c 42c9 85bd 0ed1 1abc
00000060: 1f83 fabd 6bd0 98bd 2031 833c 2503 c9bd
00000070: 904c 4d3d 09ab 85bd 72e5 c2bd af66 c23d

bn3.weight f4 [32]
1.1168116 0.9922451 0.91390306 0.8938322 1.0057698 0.91098464 0.92831475 0.9349339
0.94691086 1.0378691 0.9580661 1.1127312 0.90757704 0.9120195 1.0108997 0.87253267
0.9062564 1.0156201 0.9877005 1.3325967 0.87639385 1.1736631 1.069562 1.176312
1.095295 1.1360085 0.8980038 0.9952396 1.0241483 1.27708 1.1063715 1.2607267
00000000: aff3 8e3f c603 7e3f 8df5 693f 30d2 643f
00000010: 11bd 803f 4a36 693f 09a6 6d3f d457 6f3f
00000020: c068 723f e5d8 843f d243 753f fa6d 8e3f
00000030: f856 683f 1c7a 693f 2965 813f 4d5e 5f3f
00000040: 6b00 683f d7ff 813f f1d9 7c3f 8792 aa3f
00000050: 595b 603f 983a 963f 68e7 883f 6491 963f
00000060: a032 8c3f ba68 913f 94e3 653f 06c8 7e3f
00000070: 4b17 833f 5c77 a33f 959d 8d3f 7e5f a13f

bn3.bias f4 [32]
0.1555925 -0.0635073 -0.20374668 -0.15605472 0.03440995 0.066434436 -0.26348415 -0.1690887
-0.077590086 -0.04515842 -0.17017983 0.13886602 -0.119044855 -0.13649487 -0.13308406 -0.11049417
-0.10268942 -0.0037272098 0.18506664 -0.043371 -0.20283513 0.025194211 -0.23736024 0.118033
-0.2630469 0.030651795 -0.13905813 -0.036922492 0.04697687 0.19645897 0.031800967 0.25673056
00000000: a453 1f3e 1e10 82bd f8a2 50be cfcc 1fbe
00000010: 73f1 0c3d c70e 883d 65e7 86be 9725 2dbe
00000020: 8de7 9ebd 09f8 38bd 9f43 2ebe e532 0e3e
00000030: cacd f3bd 50c5 0bbe 3047 08be c44a e2bd
00000040: d54e d2bd 3444 74bb 1c82 3d3e caa5 31bd
00000050: 03b4 4fbe 1764 ce3c 900e 73be 49bb f13d
00000060: 15ae 86be 7919 fb3c 4165 0ebe 0a3c 17bd
00000070: d26a 403d 8a2c 493e bb41 023d 3072 833e

bn3.running_mean f4 [32]
-0.3433958 -0.8564374 0.051109854 -0.4893162 -0.6993487 0.19504988 -0.6927074 -0.12442205
-0.72034204 -0.25753063 -0.68349963 -0.19106688 -0.54605746 0.18973477 -0.30572248 -0.5665622
-0.734135 -0.6587291 -0.18641575 -0.6774845 -0.5785285 -0.7266906 -0.11234203 -0.2755694
-0.07886835 -0.87157595 -0.57658 -0.8843294 -0.7502142 -0.26868308 -0.968845 -0.12509789
00000000: 93d1 afbe 7b3f 5bbf 9158 513d a787 fabe
00000010: 8408 33bf 28bb 473e 4655 31bf fdd0 febd
00000020: 5668 38bf 0edb 83be d5f9 2ebf 09a7 43be
00000030: 6cca 0bbf d549 423e a887 9cbe 380a 11bf
00000040: 45f0 3bbf 78a2 28bf c5e3 3ebe a06f 2dbf
00000050: 721a 14bf 6508 3abf 9413 e6bd 6f17 8dbe
00000060: bb85 a1bd 9a1f 5fbf bf9a 13bf 6963 62bf
00000070: 0a0e 40bf d490 89be 3a06 78bf a919 00be

bn3.running_var f4 [32]
0.94128376 1.1285852 0.47917843 0.5268714 0.8938854 0.6182536 0.64143425 0.39964727
0.85478556 0.57279325 0.50500464 0.66659445 0.6752558 0.69878185 0.35358357 0.7566538
1.0068425 1.101573 0.65257907 0.8783229 0.40486404 0.8442222 0.14336678 1.2221067
0.57506424 1.0564665 0.5449774 1.2332162 1.3338089 1.4472837 1.2036705 1.0271525
00000000: f9f7 703f 7b75 903f e056 f53e 0be1 063f
00000010: acd5 643f de45 1e3f 0935 243f 919e cc3e
00000020: 3ad3 5a3f 94a2 123f fc47 013f efa5 2a3f
00000030: 90dd 2c3f 5ee3 323f e808 b53e 10b4 413f
00000040: 37e0 803f 5800 8d3f 6c0f 273f c5d9 603f
00000050: 574a cf3e f21e 583f bece 123e fe6d 9c3f
00000060: 6937 133f 4b3a 873f a483 0b3f 07da 9d3f
00000070: 40ba aa3f 9840 b93f e011 9a3f bc79 833f
